Assets/Training/results/track4_learned/config_track4.onnx (onnx, 601409 bytes, 9 tensors)

action_model._continuous_distribution.log_sigma f4 [1, 2]
00000000: f91a 41be c189 15bf
-0.18857946 -0.5841332

action_model._continuous_distribution.mu.bias f4 [2]
00000000: 678c 853c a416 c3ba
0.0163023 -0.0014884067

action_model._continuous_distribution.mu.weight f4 [2, 256]
00000000: 0de9 95bd 48b3 09bd fed9 15bd 9538 53bc
00000010: b40c dabc 76c2 02bd 564f 103c 3763 2d3c
00000020: 7443 f7bb 04d0 0ebb 57a0 57bd cfe0 57ba
00000030: 5e91 fabc 5926 59bc 3a37 293b d096 d43a
00000040: c574 86bd fbbf 6abc 13c7 27bd 8ac0 07bb
00000050: 1252 31bc 64e6 c33b 546a 32bb 9e39 8c3b
00000060: e2f8 88bd 5d7a 5ebd 12ef 23bc 188d 173c
00000070: 0750 573c 178e 933c 6b37 cfbc 130f d3b9
00000080: c6c0 183c 3aa6 b63c d9c6 22bc c7c0 45bd
00000090: 47df a03c 4581 47bd 88b8 513b 97d9 4cbd
000000a0: c02c 33bd 8b57 61bd 452a 79bb efbb 843b
000000b0: 399b 4dbd 367c 8dbc 9e3a b6bb d65c 06bd
000000c0: 6025 cfbc a0de ac3b 63ec 623c df00 82ba
000000d0: 432d 85bd 6709 c53b faa1 afbb 6a56 3f3c
000000e0: 142b e23a 745f 47bd 77af 043c 6bfa 683c
000000f0: 51c1 063d 447b a6ba 8dda b2ba 9534 27bd
00000100: 1e0c 36bb 0c49 ccbc 475c 59bd 6241 6a3c
00000110: dd71 b1ba 5cd3 1cbd 7556 fb3c 38ae 3ebc
00000120: b9fc 5dbd 2030 23bd 834d 9bbd fa93 60bd
00000130: 0e77 103c 02b2 59bd 9a5a 673c 2fa0 093c
00000140: d539 89bd 4a7b 82bd 366a 33bd 8ca6 c9bc
00000150: 4928 3cbd eefc d7bc 1dd5 5fbd e1b4 433c
00000160: 8fbb 7dbc 7b5f 883c d1ef dfbb e6a7 8ebc
00000170: b824 9c3b 6974 47bd f81d fbbb 8000 643c
00000180: aa15 103d f502 3ebd 49c2 c23b f0dc 6ebd
00000190: 5b6c 11bc bb5a 853c 6819 14bc 9dca f7bb
000001a0: f85f 35bd 52e8 edbc 3c5e 36bc 6d41 01bc
000001b0: 520a 8ebc c5cf 39bd b60d b7ba de97 0fbc
000001c0: cd32 19bd af1e 5abd 00a0 57bc a2de c03b
000001d0: 1bcc 4ebc d289 0bbd 5bbf e6bb eb2e eebc
000001e0: de14 48bd af44 633d cc46 b93b af95 41bd
000001f0: 020a c73b 60e5 28bc cdb8 84bd 62af 1e3c
00000200: 44a9 42bd 0294 beb9 1fad 043c 353b 3ebd
00000210: 04ea 0a3d f8e2 09bc b852 42bc 7471 e6ba
00000220: c481 5abd 6e0f 6a3c dbee 46bc db7d 2cbd
00000230: bec8 ef3c fa2a d5b9 6b48 3fbc 9f65 a23c
00000240: 99a7 a13c f447 12bd 0086 dcbb 12ec 8abd
00000250: 471b 0cbd e9f7 47bc 177e 213c 5a13 2ebc
00000260: d4fd 6abd cff8 3dbc 8cc0 67bd ee06 b6bb
00000270: 7419 b4bb 7ff4 42bd 8e20 b2ba fd8e 363c
00000280: 271f 3bbd 88b2 573a 3b1c ba3b 1b4a c93b
00000290: 6102 223c 0482 c2bb 3840 0bbb 882f 4cbb
000002a0: bac5 ad3b 41aa 053c c5ae d73c ad0e 1cba
000002b0: c3cd c0bb 9bd0 e9bb 75f9 43bc 4701 2cbd
000002c0: a95b 3ebd e8f6 28bd 8231 24ba 61ce d63b
000002d0: b1d6 52bd 6491 5bbd a617 2ebd 9abf 383a
000002e0: 1230 3c3d 8b6f 28bc 6aaa 55bd 6b32 5f3b
000002f0: a3eb 6e3c 12cc 47bc cef3 ab3b 49a7 a43c
00000300: 7aca d6bb 5d91 91bc 3240 703b cedb 3ebd
00000310: 25cd 2fbd 499a 263c dbb1 7e3c fe61 37bd
00000320: d9c7 423c de16 f3bc 7e0e f83b 0d20 b43b
00000330: aa8f 45bd 969a 66bd a216 49ba 30d0 8c3c
00000340: 026c 6abd 7547 423c aec0 02bc eebe 22bd
00000350: 647e 463c b1df 18bd 57b2 44bd 9c73 64bd
00000360: 8b2c 81bd b3e2 983b 7846 333b d071 b9bc
00000370: 0832 fe3b a39f ffbb 3696 ffba 7920 61bc
00000380: e906 9c3a 055c 2fbd bded 0fbd 6aa4 e43c
00000390: 9ae3 9eba 24e8 b93c a34a 9fbc 018b abbc
000003a0: 2ca5 febc 8fa3 18bc a81f aabc 8290 71bc
000003b0: 5364 77bd 184f 473c 3e62 13bd ce57 c53b
000003c0: db3e 07ba e782 2ebc 2e12 46bd 0369 38bd
000003d0: dbdb c83c a7b6 aabb 3404 50bc d303 b23b
000003e0: 4ca6 a53c b3cb 3bbd 894d f4bb a9af 3abd
000003f0: a2bc 12bd 0056 a73c 3b4d d6bc feba 1cbd
-0.073198415 -0.03361824 -0.036584847 -0.012891908 -0.026617385 -0.031923734 0.008807978 0.010582737
-0.007545883 -0.0021791467 -0.052643146 -0.0008235098 -0.030586895 -0.013253772 0.002582027 0.0016219262
-0.06565241 -0.014327998 -0.040961336 -0.0020714127 -0.01082279 0.0059783924 -0.002722402 0.0042793294
-0.06688096 -0.054315913 -0.010005729 0.009249948 0.013141639 0.01801209 -0.02529498 -0.00040256287
0.0093233045 0.02229606 -0.009935104 -0.04827955 0.019637717 -0.048707265 0.0032000858 -0.050012197
-0.04374385 -0.055015128 -0.003801958 0.0040507237 -0.05019686 -0.017271142 -0.005561187 -0.03280338
-0.025286376 0.0052755624 0.013850304 -0.0009918472 -0.065027736 0.0060130837 -0.0053598853 0.011678318
0.001725527 -0.048675016 0.008098475 0.014219861 0.032899205 -0.0012701531 -0.0013645455 -0.04082163
-0.0027778219 -0.024937175 -0.05306652 0.014297815 -0.0013537962 -0.038287506 0.030680874 -0.011638217
-0.054196093 -0.039840817 -0.075831436 -0.05482862 0.008817447 -0.053148277 0.014120722 0.008400007
-0.06700484 -0.06371172 -0.043802463 -0.024615549 -0.045936856 -0.026365723 -0.0546466 0.01194498
-0.015486612 0.016647091 -0.0068340083 -0.017414045 0.0047651194 -0.048695 -0.0076634847 0.013916135
0.03517691 -0.04638954 0.0059435708 -0.05831617 -0.008875932 0.016278615 -0.00903926 -0.007561995
-0.044280976 -0.029041443 -0.011130866 -0.007889134 -0.017338905 -0.04536416 -0.0013965878 -0.008764235
-0.037401963 -0.05325192 -0.013160706 0.005885915 -0.012621905 -0.034066983 -0.0070418543 -0.029075107
-0.048848026 0.055485424 0.0056541916 -0.04726189 0.006074191 -0.0103085935 -0.064805605 0.009685369
-0.047524706 -0.00036349898 0.008097916 -0.046443183 0.03391458 -0.00841593 -0.011860542 -0.0017581419
-0.05334641 0.014285905 -0.0121419085 -0.042112213 0.029270526 -0.00040658546 -0.011674981 0.019823847
0.019733237 -0.03571315 -0.006729841 -0.06783308 -0.0342057 -0.0122051025 0.009856722 -0.010624731
-0.057370976 -0.011594965 -0.05658011 -0.0055550253 -0.0054961983 -0.04759645 -0.0013590024 0.0111424895
-0.045684006 0.00082282024 0.005679635 0.0061428673 0.0098882625 -0.005935909 -0.0021247994 -0.003115626
0.005303112 0.0081582675 0.026328454 -0.00059531146 -0.0058839037 -0.0071354634 -0.011961331 -0.041993406
-0.046474133 -0.041251093 -0.0006263481 0.006555364 -0.051474277 -0.053605452 -0.04250302 0.0007047594
0.04594428 -0.0102805 -0.052164473 0.003405715 0.014582547 -0.01219465 0.0052475696 0.020099299
-0.006554899 -0.01776951 0.0036659357 -0.04659634 -0.04292025 0.01016862 0.015545334 -0.044771187
0.011888468 -0.02967399 0.007570087 0.005496985 -0.04823271 -0.05629977 -0.0007670914 0.017189115
-0.05723191 0.011857857 -0.007980509 -0.039732866 0.012115095 -0.037322704 -0.04802164 -0.055774316
-0.06307324 0.0046656965 0.0027355235 -0.022637278 0.007757429 -0.0078010126 -0.0019499722 -0.013740652
0.0011903915 -0.042812366 -0.035138834 0.02791043 -0.0012122274 0.022693701 -0.01944477 -0.020940306
-0.03108462 -0.009316339 -0.020767048 -0.014743926 -0.06039841 0.0121648535 -0.035982363 0.00602243
-0.00051592075 -0.010651327 -0.04835718 -0.045022022 0.024518898 -0.005209762 -0.012696315 0.005432585
0.020220898 -0.04584856 -0.007455532 -0.04557768 -0.035824426 0.02042675 -0.026159873 -0.038264267

network_body._body_endoder.seq_layers.0.bias f4 [256]
00000000: c104 d73c ca9d ccbb 3239 4ebc 51e6 143b
00000010: 1461 49bb ce7d 92ba fcd9 82bc 9636 e33a
00000020: 2063 b6bb a573 56bc aad0 0c3d 550e 5dbc
00000030: 91bd 15bc a225 9bbc e825 f73b bae2 023c
00000040: ab2f 993b 03e6 223c 5084 7f3c 9ca1 d33b
00000050: 8055 343c 96b0 483c ae19 c1bb 28c7 ee3b
00000060: 5c9e 4c3b 5653 3fbc 8f60 063b 08c8 c5bb
00000070: 3a43 3a3d 3f93 3dbc cb98 093c f123 5ebb
00000080: fd67 c93b 91c1 233c 1ad6 973c 5820 863b
00000090: c694 91bb b413 e93c 7920 e2bb 8e69 363c
000000a0: 96f2 77bb 8020 b7ba 8e55 0ebc c15c 1d3b
000000b0: 27a7 303b 46be c63c b479 c33b c4a4 fb3b
000000c0: 3285 c9ba 272a 873d 88d9 84bb 2482 3f3a
000000d0: 61a6 01bc ab62 483c 32d1 483b 0e9c e93a
000000e0: 38bd f9ba 6297 02bc 9eca 57bc 0cfe ae3b
000000f0: 7171 fcbb 47ef c53b b900 ffba 03c7 e9bb
00000100: 160e 093d acc2 f5bb e709 06bc 1e62 61bc
00000110: 9a62 aebc de7d 48bc b56f fbbb def9 873d
00000120: d084 a23c e262 a33c 4bae 063b 7fc4 6abc
00000130: 3aae d63b 4a24 71bc a53d 833b 0490 b33c
00000140: a61e 42bc 5d15 aabb bd7c 50bb 97f5 75bb
00000150: cd1e fa3a a483 60bc ef5d 2c3b f657 d8bb
00000160: bb9e 28bb 8d1a a63c 3135 d33b 10fb 933b
00000170: 6145 8239 cc97 d63b c606 3c3d 49a1 74bb
00000180: c092 603c 3006 073c 4ce0 613c 7ac8 22bc
00000190: 0d5b ecbb f9d7 cabb 575d 6f3c 88a1 483c
000001a0: 88b4 11bb 2d78 9c3a 730e a5ba 1ee1 913c
000001b0: 8efa 45bb 74a2 c13c 836a 783c 2cfb 743c
000001c0: 9f00 143c b809 27bb cff8 713c 82b8 953c
000001d0: e08e 093d 05a7 4abb 89e6 253d 2e91 373c
000001e0: d8a6 91bc 6aa2 d3bb 9f11 5ebc d40c 18bc
000001f0: 7498 36bc 61af 473c d96b cdbb 6ad4 32bb
00000200: 68de af3b 4490 10bc 42b9 8bbc 4f03 ff3c
00000210: 4083 0ebc 82a9 703b 4b0a 45bb 79a8 fb3a
00000220: 4983 8c3c 8b56 62bb 61d5 083c 34c6 68bc
00000230: 8d4b 3abc 7171 ee3a 0d73 23bc e90e 933b
00000240: fad1 38ba 862d 4fbc 3bd5 a4bc d532 1cbc
00000250: f1aa abbc 3110 973c 357e 5f3c 0610 643c
00000260: 56ba a9ba 4ff9 85bb a255 a9bc 3873 093c
00000270: 7ec9 94bc 0c32 50bb d372 efba 1801 5b3c
00000280: a79d 5c3d c4cf a2bc a494 043b 5906 49bc
00000290: a4e2 2fbc f442 1fbb 7bc3 32ba e8b4 b2bb
000002a0: e317 aabb e9fc dbba 874b d93a d82b a83b
000002b0: 7d9e 933b cf0a f2ba ab24 e5ba a5f4 3fbc
000002c0: 3e4b 73bb c71f 7b3b 06df 353d a7e0 bab9
000002d0: c40f 853c c360 efbb b0c6 45bc 9b6a 72bb
000002e0: 47a5 a3bb 64e9 4e3b 96ad c1bb 15c7 70bb
000002f0: d65c b5ba c8e8 9eba 2e46 1eb9 55c5 6039
00000300: 485d adbb 8bfb ce3c e54a 813c ccf6 cd3c
00000310: bc75 34bb 62ce 09bc 5f7e edba 8fb5 c33c
00000320: 914e ba3c ac61 d63a 320c 0ebc f493 de3c
00000330: 6f96 0abb 9096 103b 5559 13bc 7717 253c
00000340: 0221 82bb ad90 81bc 58aa fcbb ebd5 303d
00000350: ce9c f7bb 8672 76bb e8b2 36bb 993c 803b
00000360: 5952 94bc a563 3aba 27b2 4dbc 529b ca3b
00000370: 9a59 023b 39a3 733a 96f3 73bb 86a8 d5bc
00000380: 0b31 aab9 394a 6bbc c3c0 beba ba85 55bc
00000390: da44 443c 56d7 1d3d a5d3 ea3a 4d84 463b
000003a0: 0894 b6bb efe0 f5ba bd29 9ebc 8336 ebbc
000003b0: 2a92 b6bb 32bf 49bb 9721 9fbc 7740 28bc
000003c0: ba1e abbc bd77 fd3c 71c7 2f3b 5dc5 3abb
000003d0: 932b 623c 4d0d 063d 77d3 63bb d898 703c
000003e0: a3f8 dd3b 728a 913a bd4b 703b db2b 5f3c
000003f0: 7b02 423b e812 f0bc 6381 be3b f51a 13bd
0.026247384 -0.006244396 -0.012586879 0.0022720287 -0.003072803 -0.0011176409 -0.015973084 0.0017334993
-0.005566016 -0.013089095 0.034378685 -0.013492187 -0.009139434 -0.018938843 0.0075423606 0.007988626
0.004674872 0.009942534 0.015595511 0.0064584743 0.011006713 0.012249133 -0.005892954 0.007286925
0.003122232 -0.011677584 0.002050433 -0.0060358085 0.04547427 -0.011570751 0.008398245 -0.0033895934
0.0061464296 0.00999488 0.018534709 0.004093211 -0.004442784 0.028451778 -0.0069008437 0.011133565
-0.0037833801 -0.0013971478 -0.00868739 0.0024011584 0.00269551 0.024260651 0.005965436 0.0076795537
-0.0015374778 0.06599837 -0.004054252 0.0007305464 -0.007913203 0.0122305555 0.0030642268 0.0017822997
-0.0019053584 -0.007970663 -0.013170866 0.0053403433 -0.007703953 0.006040487 -0.0019455171 -0.0071343197
0.0334607 -0.0075000133 -0.008181072 -0.013756303 -0.021287251 -0.01223704 -0.0076732286 0.06639455
0.01983872 0.019944612 0.0020550664 -0.014329075 0.006551531 -0.014718125 0.0040051513 0.021919258
-0.0118481275 -0.005190535 -0.003181263 -0.0037530416 0.0019082666 -0.013703261 0.0026301106 -0.0066022826
-0.0025729376 0.020276332 0.00644555 0.004516013 0.00024847224 0.0065488573 0.045904897 -0.0037327579
0.013706863 0.008241221 0.013786387 -0.009935493 -0.0072130025 -0.0061902967 0.014609656 0.012245543
-0.002223285 0.0011937671 -0.0012592807 0.01780754 -0.0030209157 0.023637034 0.015162113 0.014952462
0.009033351 -0.002548797 0.014768793 0.018276457 0.03358352 -0.0030922305 0.04050306 0.011204047
-0.017779753 -0.0064585702 -0.013554006 -0.009280402 -0.011144746 0.01218781 -0.00626896 -0.0027287253
0.005367089 -0.008823458 -0.017056111 0.031129507 -0.008698285 0.0036722128 -0.003006595 0.0019199989
0.017152445 -0.0034536447 0.008351655 -0.014207412 -0.011370552 0.0018191767 -0.009976161 0.0044878614
-0.0007050332 -0.012645131 -0.020121207 -0.009533604 -0.020955535 0.018440338 0.01364093 0.013919836
-0.0012949209 -0.004088558 -0.020670716 0.008389287 -0.018162485 -0.0031768112 -0.0018268473 0.01336696
0.053861286 -0.019874461 0.0020230198 -0.01226958 -0.010735188 -0.0024301382 -0.000681929 -0.0054536946
-0.005190836 -0.0016783747 0.0016578295 0.0051321797 0.0045049773 -0.0018466356 -0.0017482241 -0.011716043
-0.0037123705 0.0038318501 0.044402145 -0.00035644064 0.01624287 -0.007305236 -0.012071297 -0.0036989811
-0.004994068 0.0031572217 -0.0059105856 -0.0036739756 -0.0013836871 -0.0012123818 -0.00015094198 0.00021435817
-0.005290661 0.02526643 0.015782783 0.025142096 -0.0027535995 -0.008411022 -0.0018119327 0.023890285
0.022742542 0.0016356013 -0.0086699 0.027170159 -0.0021146794 0.0022062398 -0.008993466 0.010076395
-0.00397122 -0.015816057 -0.0077107362 0.043172758 -0.0075565344 -0.0037604882 -0.0027877633 0.003913474
-0.018105673 -0.0007110185 -0.012554682 0.0061830664 0.0019889832 0.00092940364 -0.0037224046 -0.026081335
-0.00032461467 -0.014360958 -0.0014553297 -0.013032371 0.011979306 0.03853544 0.0017915858 0.003029126
-0.005571846 -0.0018759052 -0.019307012 -0.028712517 -0.0055716233 -0.0030784127 -0.019425197 -0.010269276
-0.020888675 0.030940885 0.0026821757 -0.0028498985 0.013804334 0.03272753 -0.0034763494 0.014684878
0.0067740246 0.0011103882 0.0036666237 0.013621296 0.002960353 -0.02930589 0.005813764 -0.03591438

network_body._body_endoder.seq_layers.0.weight f4 [256, 68]
00000000: f6fb 99bd 6bd1 f63d 4942 8e3d 86fc d2bc
00000010: 55d9 7d3e 877f 2fbd fc29 b3bd 90a2 01bd
00000020: 2596 533d 92d5 833e 643b 5ebd d46e e9bd
00000030: ae80 fd3d 16ad b73c 33c2 8ebe 63c1 113e
00000040: d5c1 48bc ec9c 4c3e 53db 0fbc 3c61 ebbc
00000050: 1a25 8bbd 3360 0abe 8b92 f13c e2ed 7bbd
00000060: cfd1 443c 7294 81be aac1 893d 687b 00bd
00000070: a396 843e 4eb9 3a3e 844a e1bc f9d5 e7bd
00000080: fac5 2b3e 4d39 65bd a5db 40be cf7a 6a3c
00000090: f079 6fbe 02b2 d7bc 3b6b 303e f7fa 753d
000000a0: 02d9 923d 3c2f dfbb ccc1 143d b036 36bd
000000b0: 85e4 ae3e e642 e83d e01d 99bd c643 1cbd
000000c0: 1a23 99bd cb80 1c3e f710 65bc 90b9 263d
000000d0: c813 babc 9e15 d93c cafa 36bd 8a77 85bc
000000e0: 575e 433e db17 3b3e 4026 94bd 0d2e 8d3e
000000f0: 3af8 e3bd 541e 943d 3431 313e 750e e73d
00000100: ec95 63bd b077 1f3d c54f 113e 265b 5e3e
00000110: c910 cdbb 1383 96bc 5f6b 95bd 2ef3 193d
00000120: 9232 92bd b7d2 393e 74a1 a13e 050c 553d
00000130: 4ec9 48be 3dff d03e efc3 af3d 16c3 24be
00000140: 2004 3c3e 1c85 913d 84cf 88be f4f4 97bb
00000150: b57f 163e c66a 533d 0260 8d3c 629f b4bd
00000160: 231e 9c3d 5811 573d d20f 84bd 0189 8cbc
00000170: 4cb5 96bc b0eb 6bbc 0544 17be ccfd e1bd
00000180: 91f8 243e 7548 40be ab49 c5bd f062 8b3d
00000190: 51da bebd dcd9 183e 5107 debc 702f b2bd
000001a0: db5c a0bc 71db 713d 82c8 a13c 5a48 1a3d
000001b0: ce09 6cbd 50c6 573e 9bec 8cbc 9eaa 76ba
000001c0: aa2e 0f3d d2d9 a23c 705c 38be 0c21 22bd
000001d0: a587 a0bd 189a 07be 0bf9 33be e611 39be
000001e0: e7a6 41be 810b 393e 1327 cd3d 789a 913e
000001f0: dc1a b6bc 263b fcbd c793 34be a2a9 03be
00000200: ac5d c13c 8ed7 b33c 6fe8 be3b 3def 7cbd
00000210: fb41 8e3d 1e59 88bd 68c2 c93d fc12 b5bd
00000220: c752 94bd c110 10be 1b97 96be 5a36 edbd
00000230: f4d3 103e 10f1 a1bd 9a3c fa3c 26f6 db3d
00000240: f5cc aebd df44 efbd 2d2c 4abe 99b9 503e
00000250: a02e 273d 393e 63bd 0765 d2bd 589f 2c3d
00000260: 379d 563d 6ef2 443c 5879 a0bd d86a 9c3d
00000270: ced0 5ebe 8994 99bd 7426 9e3e 05fc 47be
00000280: 465e eb3c 2c2c 91bc b0f2 a23c a146 2cbe
00000290: bcb9 1d3e 4784 3cbc f5c0 5dbe 7ade 713d
000002a0: 5ee1 6c3e 5ab8 653c 8bc2 91bb 99da 21be
000002b0: 84e0 273d 1434 b4bd 93f3 dcbd 0f00 14be
000002c0: 9185 75be 812d f43d 1fea 5b3d db69 673e
000002d0: 6168 b6bd 7c83 0b3e f64e 0dbe 4170 e4bd
000002e0: bb3e 6abd fa1b 543d a553 bdbd 5c40 dbbd
000002f0: 9d5e 9e3c d31d d03d 3ee5 2fbd 3f3f a63d
00000300: d266 a2bd 9ae4 dfbd fb0f 39be 0fce 47be
00000310: 53b0 c7bd 6707 dbbc 746e 4f3e 4ba9 1abd
00000320: 8b7e 3a3e f174 553e 7ddc cf3c f965 923d
00000330: c87f 8cbb 1615 303c a577 b3bd bd3a 3f3e
00000340: 4acf c7bd b9f0 44bd f424 9dbd b88d 603d
00000350: 4cb2 803d d743 cc3c 5244 30be 1272 893d
00000360: 099c 83bc e2bf a83d 2c1c 3ebd 2391 24be
00000370: 55d0 5dbe c93c 863d 8a04 03be 1dcb 83bd
00000380: b93a 15be 8391 ba3c 3533 ea3d 4366 a53c
00000390: 0103 353d 412b 4ebe 8baf 1d3e d6af acbd
000003a0: bc89 493c 10c0 04be 142d 1b3e 5a47 e73c
000003b0: 9342 0b3c 283a 57be 77e2 333e 4709 1ebe
000003c0: 9c6b 76bd d1c5 0b3e 297e 20bd 552e d3bc
000003d0: a641 14be 4fc6 393e ba9d a2bd 7cc7 ee3d
000003e0: a8ef a5bd 478c dabd 4a49 01bd 9923 923b
000003f0: 9020 aabd 7937 01be 2170 8cbe 5743 26be
-0.07518761 0.12051662 0.06946237 -0.025755178 0.24789937 -0.04284623 -0.08748242 -0.031649172
0.05165686 0.2574888 -0.054255858 -0.11398092 0.12378059 0.022421401 -0.27882537 0.14233927
-0.012253244 0.19981736 -0.008780318 -0.028732888 -0.06794186 -0.1351326 0.029488822 -0.06150616
0.012012913 -0.25308567 0.067263916 -0.03136769 0.25896177 0.1823475 -0.027501352 -0.11320109
0.16774741 -0.05596285 -0.18833788 0.014311506 -0.23386359 -0.026329998 0.17228405 0.06005379
0.07170297 -0.0068110507 0.03631763 -0.044485748 0.34158722 0.11340885 -0.07476401 -0.03815057
-0.07477398 0.15283506 -0.0139810955 0.04070431 -0.02271451 0.026499566 -0.044672765 -0.016292352
0.19078957 0.18270819 -0.07233858 0.27574196 -0.1113133 0.07232347 0.17303926 0.11282054
-0.0555629 0.038932502 0.14190586 0.21714458 -0.0062581045 -0.018373048 -0.0729587 0.03758543
-0.07138552 0.18146788 0.3156849 0.052013416 -0.19608042 0.4081973 0.08582293 -0.16090044
0.18360949 0.07105467 -0.26720822 -0.004637355 0.14697154 0.0516155 0.017257694 -0.08819462
0.076229356 0.052506775 -0.0644833 -0.017155172 -0.018396996 -0.014399454 -0.14772041 -0.11034736
0.16110446 -0.1877764 -0.09633192 0.0680598 -0.09318984 0.14926857 -0.027103098 -0.08700454
-0.019575527 0.059047166 0.01974893 0.037666656 -0.057626538 0.21071744 -0.017202666 -0.0009409579
0.03495661 0.019879255 -0.18004012 -0.039582297 -0.07838372 -0.13242376 -0.17575471 -0.18073234
-0.18911324 0.18070795 0.100172184 0.28438163 -0.022229604 -0.12315969 -0.17634498 -0.12857679
0.023604237 0.02195337 0.005826048 -0.061751593 0.069461785 -0.06657623 0.09851533 -0.088415116
-0.07242351 -0.14068891 -0.2941216 -0.11582632 0.14143354 -0.07907307 0.030546475 0.107403085
-0.08535186 -0.11683058 -0.19743414 0.203833 0.04081595 -0.055479262 -0.10273176 0.04214415
0.052396026 0.01202069 -0.078356445 0.07637566 -0.2175934 -0.07499034 0.30888712 -0.19529732
0.028731477 -0.017721258 0.019891113 -0.16823818 0.15402883 -0.011506147 -0.21655639 0.05905006
0.23132846 0.014021004 -0.00444824 -0.15806045 0.0409856 -0.087989956 -0.107886456 -0.14453147
-0.23976733 0.11922742 0.053690072 0.22598974 -0.089066274 0.13624376 -0.13799652 -0.11154223
-0.05718873 0.051784493 -0.092444696 -0.10705635 0.019332225 0.101619385 -0.04294323 0.08117532
-0.07929768 -0.10932274 -0.18072502 -0.19512199 -0.09750428 -0.026736928 0.20256978 -0.037759107
0.18212335 0.20845391 0.025373692 0.07148356 -0.0042876936 0.010747215 -0.08763055 0.1867475
-0.09756334 -0.048081134 -0.07673064 0.054822654 0.062840074 0.024934692 -0.17213562 0.0671121
-0.016065614 0.08239724 -0.046413586 -0.1607099 -0.21661504 0.065545626 -0.127947 -0.06435225
-0.14573182 0.022774464 0.11435548 0.020190364 0.044192318 -0.20133688 0.15398996 -0.084319755
0.012300905 -0.12963891 0.15153915 0.028232265 0.008499759 -0.21018279 0.17566858 -0.15433227
-0.060161218 0.1364968 -0.039182816 -0.025778929 -0.14478168 0.18142055 -0.0794024 0.116591424
-0.081023514 -0.10671287 -0.031564035 0.00445981 -0.08306992 -0.12618817 -0.27429298 -0.16236626

network_body._body_endoder.seq_layers.2.bias f4 [256]
00000000: d27c ddbb fcf0 c33b 3863 45bc bb6a 913c
00000010: 732c c23a 5728 ccbb f2f1 1bbc 964d 71bb
00000020: 6eb7 12ba adb0 013c b2d1 df3a da0a 683c
00000030: 5e12 81ba 1a5c 5ebc b5c0 3dbb 0ffa c4bb
00000040: d8da d13b 62d1 3cbc 26b8 42bc 3612 f93b
00000050: 347e 143c ec60 26bc 8eaf 023c d56d d039
00000060: cec9 3cbb 6ebd 823c f54f a8bb 609c 813c
00000070: ceb2 933c b160 94bb d40a 10bc 2ef7 9f3b
00000080: 5763 29bc 5248 78bc 0111 433b 1eb4 483c
00000090: 745a f13c 042d a1bb bef3 5bbc 594a d5bb
000000a0: 892f ae3b e18a 9dbb 57da a63a 5cf2 313c
000000b0: 28cb da3c a93e 12bb 0aac 3dba 6d30 2d3d
000000c0: 958c 31bc cc03 f1ba 9b1e 02bc 5c61 ba3c
000000d0: d89f 8cbb 2c1d 72bb c472 1b3b 5b0e 213c
000000e0: 5e74 a3bb 0445 c9bb 9f8f 6fbb f51b 633a
000000f0: 7621 99ba 6d39 013c 59af 24ba 8b29 893b
00000100: 1737 6c3b 56d4 1ebc e6a7 7cbb 1942 75bc
00000110: cc2e f9bb a169 2a3c 7ff2 a0ba 3667 a43c
00000120: b703 923b 87af 113c 9e90 d1bc 5379 543b
00000130: d864 14bc c882 0bbb 6ac5 5e3a 1df5 bbb9
00000140: 3119 dfbb 7105 7c3a d5bb deb9 f60f f03b
00000150: e51a 6f3b 09e2 c43a e43c fbbc c9c3 e6ba
00000160: f2eb 7c3c 26af f33b 6ee8 663b 6f9c e43b
00000170: 9c51 2b3b 5ada e83b 8f45 abbb 7958 a3bb
00000180: 3008 473b 698b 2dbc 8234 7b3c 7036 1cbc
00000190: 74d1 0cbc f2ab a4bc afd8 5cbc d65f 9e3c
000001a0: 0e2f fdba 7306 573a 5511 413c df96 54bc
000001b0: 7ebc 10bc 5ffc 0d3b 548c 443c 37b9 8f3b
000001c0: 1c67 763a 6c73 853c 55be d2bb 9893 d6bb
000001d0: ca99 9f3c 2944 ed3b 315d 833b c939 fb3b
000001e0: eeb9 a238 2ba2 923a 3db4 163b 27fd 1f3c
000001f0: 41c8 8c3c 5931 713a ee44 693b 8034 ccba
00000200: ac61 3cba e7c9 59bb 39c4 e9bb 6701 86bb
00000210: 44a4 e23b cbf1 75bb 82a0 3c3a 20b2 9e3b
00000220: 3047 0eba 12b7 99bc a5fc c13b 370f 8ebc
00000230: 5933 d03c f745 283c f697 363b fe14 46ba
00000240: 80f2 02bc 19f7 15bb 7c46 c9ba 2ef7 dc3b
00000250: dd3f 83bb 1952 54bc a9a6 16bc 5b40 053c
00000260: daff 9a3c 7825 01bc b406 103c 3d62 153c
00000270: 9243 00bb aa4f 0cbb 115a 253c 6346 9cbb
00000280: aef9 003b 3069 28bb 96f9 6e3b 95f7 94ba
00000290: 7b4d 953b 61b0 023c f0ee c03c b40a 953c
000002a0: 80c0 06bc 2d38 043c 0906 8dbc 5211 eb3a
000002b0: a04b 04bc 8b74 48bc 829d 813c fa9f 67ba
000002c0: ca0c 89bb 6159 8a3c 1da3 45bc 0ea7 3e3b
000002d0: ccfb 4f3b 2701 9c39 bd04 37bc eb54 4abb
000002e0: 07d7 b3bb b589 b2ba 8826 87bb 8b77 a0b9
000002f0: 8823 89bc 8e60 8cbb 3dc7 3d3c a818 39b8
00000300: 4727 41bc 91ff 043b b180 923c a468 063c
00000310: bbb0 6ebc b3df 963c 2c9b a6bc dd18 03bc
00000320: c01a 213b 4d94 523c 2437 a93b ed64 7a3b
00000330: 170e 043c 28e2 ab3a 048e febb 87b7 70bc
00000340: 93ac a53c 4241 273b 3a20 47bc dc46 593b
00000350: 05ce feba 1c6d c83b 939c 65bc 6e00 443c
00000360: 52fb a23b 3f7f 2c3c 58de 95b9 559b e4ba
00000370: 6658 ae3b 58ba d03b bcae 1abc 8a13 7a3c
00000380: 7af2 efbb 8fa4 053c 6aba b4bc 6730 5d3c
00000390: e629 5cbc fb81 c6bb c352 163c ca89 06bb
000003a0: 8cd8 20bc 919c 5b3b 9598 07bc 60af 7abb
000003b0: 03c6 13bc 95b3 aeb9 ab6d 43bc a1fe d6ba
000003c0: e0d8 7bbb 42ae 9ebb baa0 dfbc c669 66bb
000003d0: bbb0 5f3c 8bd3 7b3b 2cec 5bbb 9624 ae3b
000003e0: ac26 b4ba 29c6 84bb 2f70 9f3b b88a 91bb
000003f0: 2176 73bb b1bb 42bc be41 323c 903a dc3a
-0.0067592645 0.0059796553 -0.012047581 0.017751088 0.0014814272 -0.006230395 -0.0095181335 -0.0036819926
-0.0005596791 0.007915658 0.0017076044 0.014162743 -0.0009847393 -0.013571763 -0.0028953974 -0.0060112546
0.006404262 -0.01152453 -0.011884725 0.007601048 0.009063292 -0.010154944 0.007976426 0.00039754683
-0.0028806808 0.015959468 -0.0051364847 0.015821636 0.018029597 -0.004528128 -0.008791644 0.004881761
-0.010338626 -0.015153961 0.0029764774 0.0122499745 0.029462077 -0.0049186964 -0.013424812 -0.006509107
0.005315725 -0.0048078154 0.0012729865 0.010861006 0.0267082 -0.002231518 -0.00072354137 0.04228251
-0.01083674 -0.0018387972 -0.007941867 0.022751503 -0.004291516 -0.0036943657 0.0023719529 0.009830083
-0.0049882373 -0.0061422605 -0.003655411 0.0008663529 -0.0011682946 0.0078872265 -0.00062822324 0.0041858605
0.0036043578 -0.0096941795 -0.0038552224 -0.014969372 -0.0076044556 0.01040116 -0.0012279301 0.020068746
0.0044560093 0.008891947 -0.025581654 0.0032420948 -0.009057246 -0.0021287668 0.0008498045 -0.00035850043
-0.006808423 0.0009613848 -0.00042483085 0.0073261214 0.0036484536 0.0015020977 -0.030668683 -0.0017605956
0.015437113 0.007436651 0.0035233754 0.006976656 0.0026141172 0.0071061077 -0.005226798 -0.004984912
0.003036987 -0.01059232 0.015332343 -0.009534463 -0.008594859 -0.020101521 -0.013479396 0.019332808
-0.0019316392 0.000820256 0.011783917 -0.012975424 -0.008834003 0.0021665317 0.011996347 0.004386093
0.000939952 0.016290389 -0.0064313808 -0.0065483563 0.019482512 0.0072407913 0.004008912 0.0076668006
7.759394e-05 0.0011187246 0.0022995614 0.009764946 0.017185332 0.0009200774 0.0035594064 -0.0015579611
-0.0007186185 -0.0033231915 -0.0071339873 -0.0040895226 0.0069165546 -0.0037528153 0.00071955484 0.0048430115
-0.0005427478 -0.018764053 0.00592001 -0.01734124 0.02541511 0.010270587 0.0027861572 -0.00075562287
-0.007992387 -0.0022882877 -0.0015356089 0.0067433333 -0.004005416 -0.012959027 -0.009195008 0.008133019
0.018920828 -0.007882468 0.008790661 0.00911766 -0.0019571525 -0.0021409788 0.010092274 -0.004769133
0.001968007 -0.0025697462 0.0036464683 -0.0011365289 0.0045563555 0.007976622 0.023551434 0.01819358
-0.0082246065 0.008070034 -0.017214792 0.0017934239 -0.008074671 -0.012234817 0.015822176 -0.0008835789
-0.004182433 0.016888322 -0.012062815 0.0029091272 0.0031735776 0.00029755497 -0.011170563 -0.003087337
-0.0054882797 -0.0013621362 -0.0041244663 -0.00030606645 -0.016740575 -0.004283971 0.011583147 -4.41304e-05
-0.01178915 0.002029393 0.01788363 0.008203659 -0.014568503 0.018417215 -0.020337664 -0.008001533
0.0024582595 0.0128527405 0.005164044 0.003820713 0.00806 0.0013113664 -0.0077683944 -0.014692194
0.020223891 0.0025521074 -0.0121536795 0.0033153808 -0.0019440061 0.0061165225 -0.014014381 0.011962993
0.0049738074 0.010528385 -0.00028585154 -0.0017441312 0.0053205965 0.00636987 -0.009441074 0.015263448
-0.0073226066 0.00815691 -0.022061545 0.01350031 -0.013437724 -0.0060579753 0.009175005 -0.0020528906
-0.009817254 0.003351007 -0.0082761245 -0.0038251504 -0.009019378 -0.00033321665 -0.011928002 -0.001640279
-0.0038428828 -0.0048425505 -0.02729832 -0.003515826 0.013652976 0.003842565 -0.0033557517 0.00531442
-0.0013744435 -0.004051943 0.0048656682 -0.0044415854 -0.0037149268 -0.011885569 0.010879932 0.0016802121

network_body._body_endoder.seq_layers.2.weight f4 [256, 256]
00000000: f044 333d b65b bb3c 46a8 8dbd 1ace fb3c
00000010: 721b bebc 34cf 8c39 c1e0 25bd 17d2 eebc
00000020: ae88 b2bb 231e 093d 2660 b03c 2e8b ccbd
00000030: 85ff acbd 1156 7a3d d022 46bd e168 c5bc
00000040: 4b8d 8c3d 902d fc3c 1793 c43c 08de 3e3c
00000050: 1923 963c 5a54 6e3d ab2a 953c bed5 7e3c
00000060: 1510 883b 9af5 e33c d3a6 3fbd 33f8 e1bc
00000070: 6e32 4b3d 1451 52bd 556b abba e6f6 b0bc
00000080: 392b bd3c c613 493c e48b 9cbc 6b70 52bd
00000090: d082 a13c 23e0 1dbd f907 013e 438f a9bc
000000a0: 1bd6 7ebc 6fa8 c73c 50a4 c4bd b911 143e
000000b0: c07a 9a3d 3308 74bd 1e2d ed3d 9b4d bc3d
000000c0: df94 a7bd 6430 e6bc 0048 7e3c 1473 5f3d
000000d0: 86ed 4abd 1dc2 04be b17c 603d da70 173e
000000e0: 306e 58bd e8f2 75bc b119 9abd 2e51 4f3d
000000f0: e2f7 d5bd 4b8a d23b 74b1 18bd 786c 313e
00000100: d24d 803d bce9 2cbe 20a7 81bd 66b6 31bd
00000110: c4bd 623d a2b1 e13c 483e 6d3c 544d b4bc
00000120: 32b3 bb3d 287d 6bbd 09a8 023e a1fe 45be
00000130: 33e9 0a3c c3e2 dfbd 12b5 f9bc 8a21 a33d
00000140: 32e4 ec3c 50d9 dd3c fd69 7c3d b41a b3bd
00000150: f3d9 c0bb d352 9abd 0f39 90bc 3abf b1bd
00000160: 56fd 913d 2c55 663d d066 a6bd 79fb 103c
00000170: 5314 c5bc 1943 5a3d 4a2f ce3c 6a33 c9bd
00000180: 3f4a 5f3d 1d2e 473d 20e0 293d a6b1 a3bd
00000190: a40d 883d bdf4 0c3d 729d 573c 0535 f13c
000001a0: 6566 ea3d 4469 4fbd 326c febd 5a55 3bbc
000001b0: 313e 34bd b97d c2bc 460f c43c ed31 883d
000001c0: 767b c83c 7b70 033d 9932 62bd bd5f af3d
000001d0: d83d 09bd 981f 033e 5ddd 803d bea5 2fbc
000001e0: 2917 193e 318f e33d 8e9e 803d f615 323e
000001f0: 2c30 2ebd 6ebd 6b3c 197f a23c bd52 1a3c
00000200: 3f91 f4bc b6bc 52bd 9f1c 003d b58d 6dbc
00000210: 8267 a1bd 19a9 eebb 0388 a9bc 4552 303d
00000220: 0565 e7bd c883 1ebd 8af6 b73c 5e28 7abc
00000230: c244 b038 3efe 28bd 1136 433d 6023 19bd
00000240: 1278 943d a878 ea3b 08b7 2b3d b557 713c
00000250: 2bd6 be3c 6a4f 0ebe 7a84 30bd 5bba bdbb
00000260: 515a 4ebc 2cc7 bf3d 84f0 d2bc 0cf8 07bd
00000270: 070c ad3d d535 42bd edf0 513d 3681 c6bd
00000280: ea7d 5ebb 8356 86bd 0af4 ec3c eaac e2bd
00000290: 2254 e2bc 5086 783c 754b 02bd b34d 54bd
000002a0: a574 823d ad21 513d 2742 3ebc 6693 a03d
000002b0: 4c94 cdbd 5ffa d1bb adeb efbc b551 573d
000002c0: be83 1b3d 0885 aebd 0c3d 6e3d 4617 20bc
000002d0: ea84 473d 5120 263d 8f08 ae3c 92ed d43d
000002e0: 561b 2dbc b658 5cbd f93f 943d b445 ea3c
000002f0: e67d 293e 9dae febd 2eb7 b73d 1352 64bd
00000300: d2dd 64ba 86fa c73b f3a4 50bd 569d 15bd
00000310: a70a acbd 9058 68bd e301 343d 41a8 67bc
00000320: 8b1a ca3d 1539 a73c f4e2 423d 88be 29be
00000330: 547a 183b 27ac 613c bbfa b6bc 1682 753a
00000340: 9880 b93c 8cfc c03c 5952 c0bb 885c cd3c
00000350: 6fa7 a63d 6345 d83c e32b c3bd 5414 913c
00000360: 3a80 1abd 1404 ab3d bcb8 953c 3fdb 4b3d
00000370: 5c2c b8bd 3052 bcbd ddcb cd3d d8b7 c9bd
00000380: 8a93 41be 6326 c7bc d84a 4a3a e189 f23d
00000390: 9197 8b3d dfb4 543b c4bf ba3d 1fe9 1ebd
000003a0: 9377 3abd 17b4 dabc acd4 93bd 954f be3b
000003b0: e606 f3bd 715f 3f3d 2262 da3c 9893 9c3c
000003c0: 5231 bebc d872 b0bd 3764 933c 4d8d 16bd
000003d0: 2f41 f0bc a6e8 ef3d 578f 6f3c 0b9c 24bd
000003e0: 1ac5 09bd 6f34 54bd f35f f7bc 8652 e13c
000003f0: 4adb f43c 4060 a83b 0d2b a7bd 04cd 303e
0.043766916 0.02287088 -0.06916861 0.030737925 -0.023206446 0.0002685726 -0.040497545 -0.029152913
-0.0054484224 0.033476006 0.021530222 -0.09987484 -0.08447174 0.061117236 -0.048373044 -0.024097862
0.06862887 0.030783445 0.02399592 0.011649616 0.018327283 0.058185913 0.018208822 0.01555389
0.0041523078 0.027827073 -0.046789955 -0.02758417 0.04960864 -0.051346853 -0.0013078252 -0.021602105
0.0230919 0.012272781 -0.019109674 -0.05137674 0.019715697 -0.03854383 0.12600698 -0.020698195
-0.015553976 0.024372308 -0.096016526 0.14459886 0.07542944 -0.059578132 0.11580871 0.091944896
-0.08182692 -0.028099246 0.015520096 0.054553106 -0.049542926 -0.12964673 0.054806415 0.14789143
-0.052839458 -0.015011527 -0.075244315 0.05061453 -0.104476705 0.006425177 -0.037278607 0.17326534
0.06264843 -0.16886038 -0.06330705 -0.04338684 0.055356756 0.027550522 0.014480181 -0.02200953
0.09165038 -0.057492405 0.12759413 -0.19335414 0.008478451 -0.10931923 -0.030481849 0.079653814
0.028917406 0.027081162 0.061624516 -0.087453276 -0.0058853566 -0.07535329 -0.017605333 -0.08679052
0.07128398 0.05623357 -0.08125079 0.008849018 -0.024057543 0.053286646 0.025169034 -0.098242596
0.054514166 0.04862796 0.041473508 -0.07992868 0.06643227 0.034413088 0.0131600965 0.029444227
0.114453115 -0.0506375 -0.1242298 -0.011433924 -0.044004623 -0.02374159 0.023933064 0.066501476
0.024472933 0.03208969 -0.055224035 0.085631825 -0.033506244 0.12805021 0.06292222 -0.010720668
0.14950241 0.11111296 0.06280242 0.1739119 -0.04252641 0.014388425 0.019835996 0.00941914
-0.029854415 -0.0514495 0.031277295 -0.014499118 -0.07881071 -0.0072833416 -0.020694738 0.04304721
-0.11298565 -0.038699895 0.022456426 -0.015268413 8.405141e-05 -0.04125809 0.047658984 -0.03738725
0.07249464 0.0071554966 0.0419226 0.014730384 0.023295483 -0.13897482 -0.04309509 -0.0057900376
-0.012594775 0.09364161 -0.025749452 -0.03319554 0.0844956 -0.04741462 0.051255155 -0.09692614
-0.0033949562 -0.065594696 0.02892496 -0.11068137 -0.027628008 0.015168741 -0.031810243 -0.051831912
0.063699044 0.051057506 -0.011612452 0.07840614 -0.10038051 -0.0064080204 -0.029287184 0.052568156
0.037967436 -0.085214674 0.058163688 -0.009771174 0.04871074 0.040558163 0.021244315 0.103968754
-0.010565599 -0.05379554 0.07238764 0.02859769 0.16551933 -0.124356486 0.08970486 -0.055742335
-0.00087305636 0.006102863 -0.050938558 -0.036527 -0.08400469 -0.056725085 0.04394711 -0.014139236
0.09868344 0.020412961 0.04757972 -0.16576588 0.0023266273 0.0137739545 -0.022336354 0.00093653926
0.022644326 0.023557924 -0.0058691916 0.025068536 0.08137404 0.026400274 -0.09529855 0.017709889
-0.037719943 0.08350387 0.018276565 0.049769636 -0.08992836 -0.091953635 0.100486495 -0.098495185
-0.18903938 -0.024310296 0.0007716841 0.118427046 0.068160184 0.003245644 0.09118608 -0.03879654
-0.04552419 -0.026697202 -0.07218298 0.0058078268 -0.1186655 0.04672188 0.026658121 0.019113347
-0.023216877 -0.08615655 0.017992122 -0.03675585 -0.029327957 0.11714296 0.014621577 -0.040187877
-0.033635236 -0.051807817 -0.03019712 0.02750517 0.029889721 0.005138427 -0.08162508 0.17265707

network_body._body_endoder.seq_layers.4.bias f4 [256]
00000000: dc41 2cbc b630 b8ba 25e5 043c cd47 42bc
00000010: 75b3 703c 2f9b 6d3b b48a 573b d855 3b3c
00000020: 23cf b0ba a55d 5c3c 2841 a2bb d64c 053c
00000030: dd2e 2fbc 175d 7a3b 31d5 a13a 7bd4 943a
00000040: 470c f0bb de4d 82bc f97c 3fbc 6909 b6ba
00000050: 9a5f eebb a24a 313c 6e8c 08bc 82fb 953b
00000060: ad42 bf3b 7e9a d0bb caca 69bc f542 e03b
00000070: 1779 423c 03d4 f83c 7794 d73b 7953 78ba
00000080: c8c2 573c 4618 ea3b b2d9 1fb9 9a4c 5139
00000090: bef6 f03b d00f 3ebb 540f 043c a49b 1c3c
000000a0: 9494 6fbc f1e0 82bc 5380 eebb 99e5 223c
000000b0: d7a0 ae3c 67de 68bc c3f4 bfbb 4b17 b7bc
000000c0: ad73 6b3b 417e d03b 80ec e43b e962 7dbb
000000d0: a2d2 7b3c d60a 11ba c468 23bc a0ad 053c
000000e0: fd21 963b 9def 69ba db5f 503c 0e06 233c
000000f0: bf20 243d ea0c d5ba c371 c7bb 2295 9bbb
00000100: fbf3 103c 9b41 883b 40b0 543b 27ad 6b3c
00000110: de2b afba 058e b0bb 6408 c93c 6d70 3bbc
00000120: eea6 2abc 4a97 053b 9fd0 d53b b6ed 6bbc
00000130: a122 303c b361 92bc 18a9 663c af42 0b3c
00000140: c956 3fbc de4d 61bc 38de a53a 4ba2 c8ba
00000150: cc3f 1a3c 0c3b 08bc 230e 9e3c 6f76 6c3c
00000160: f673 f8bb af3a 8c3c d39b a0bb 6ba2 eebb
00000170: 72eb 0c3b 15c2 34bc 1670 eb3b 80ea 3d3c
00000180: 5f43 f53c 6a31 883b 9eb3 cfba db45 5bbb
00000190: c1f4 01bc 09d0 693c 117b 05bc d088 d13b
000001a0: 3fcd 3dbc 5555 24ba dd26 86bb 6516 75bc
000001b0: d9dc c5bc 723f bdbb e2cc a7bb 0051 16bc
000001c0: 70b3 97bb 854a 733c fd43 293c 6b5b 303c
000001d0: 1ca1 613c 6a97 433c 04d1 0abc 7cec a43b
000001e0: 393b de3a 84bd 0d3d e7e9 2f3b e3e8 e33c
000001f0: 6488 0e3c 5e4f 29bc cfe1 57bc d7f2 e83b
00000200: eaa5 b6bb 0b17 21bc 4290 563c d4c3 7b3b
00000210: badb c13c b3f4 75bb 8726 4bbc c9ba 16bc
00000220: 87b7 d1bb f50a 243c eff1 d0bb 08af d7ba
00000230: ecfd f33c 07d1 65bb 730f 2c3c b918 6b3c
00000240: bd55 403b 04e8 8cbb 9574 84bc 0c06 41bc
00000250: edea 063c abbb ecbb 793f b53b 2815 08bc
00000260: eee4 303c f025 fcbb 0aba 093a a706 503c
00000270: b482 f3bb 0d5d c0bb c89c dfbb 6d85 3e3b
00000280: 77bd 25bc 3c75 edba b393 853b 9754 a13b
00000290: 0091 373c 69d2 b4bb 8798 b53b a226 fcbb
000002a0: 6ef6 0b3c d970 d73b 4779 053d c07c 9abc
000002b0: f49e e3ba 8f69 90bb dc10 75bc 4a53 26bc
000002c0: c18e 3fbc b022 61bc 85d0 c4b9 dcd5 c23b
000002d0: 4064 4c3c 3245 263c 5819 af3b dd27 623c
000002e0: e24f 263d 37f4 773b b4bb 90bb 7b38 87bb
000002f0: 13a6 de3b 8037 5f3b 7155 1b3c 45d2 163c
00000300: 93bb 78bb d51c 843c b011 443b 4bb8 91ba
00000310: 3728 05bc 7909 ad3b 2272 423c 4713 25bc
00000320: a6e0 ca3b 55f8 52bb 8375 983b 4313 5c3a
00000330: 8094 1c3a 0d6b 18bc 9f21 0f39 df7e 693c
00000340: 846b 3cbc 6241 133c d949 dd3b 8ee0 d5bb
00000350: 2562 a53b bfbd 693a 9c96 dfbb 725e 1fbc
00000360: df31 d53b 776c b43b f39b d03b 03f2 1ebc
00000370: a95e 853b 1f0d 66bb fd3a 53ba 3432 8abb
00000380: 8281 81bb 03d7 323c a3ef 50ba d634 803c
00000390: 767b f43b 1db3 5e3c db39 9d3c f872 443b
000003a0: 205e 003c f299 d0bb f62d b83c 628b 693c
000003b0: 46d2 2dbc a2fe 0e3c d2b0 a93b f457 223c
000003c0: b467 16bb 45f2 9fbb cd55 42bc 2224 adbb
000003d0: bc0a 953c 3088 653b 9f18 1ebc 2818 083c
000003e0: 4008 743c 01e2 4d3b 1e69 8ebb ad2e 9ab9
000003f0: 6ffb 5ebc d90f 863c acce d03b 18aa 91bb
-0.010513749 -0.0014052603 0.008111273 -0.011857939 0.014691223 0.0036255827 0.003288907 0.011434041
-0.0013489466 0.013450061 -0.004951615 0.008135995 -0.010692325 0.0038202459 0.0012346861 0.0011354828
-0.0073256823 -0.01590627 -0.011687511 -0.0013888302 -0.00727458 0.0108210165 -0.008334262 0.004577101
0.005836806 -0.006366073 -0.01426954 0.0068439194 0.01186969 0.030374533 0.0065789777 -0.00094728876
0.013168998 0.007144007 -0.0001524452 0.0001996033 0.0073536327 -0.0029001124 0.008060295 0.009558592
-0.014622826 -0.015976401 -0.007278481 0.009942436 0.021316929 -0.014213181 -0.0058580353 -0.022349974
0.0035927102 0.006362707 0.006986201 -0.0038663691 0.015370043 -0.0005532926 -0.009973709 0.008159071
0.0045816884 -0.000892395 0.012718166 0.009950174 0.04007029 -0.0016254459 -0.0060865595 -0.0047480026
0.008847232 0.0041582114 0.0032453686 0.014384544 -0.0013364514 -0.005388024 0.024540134 -0.011440379
-0.010415776 0.0020384365 0.0065251137 -0.014399936 0.010750444 -0.017868852 0.014078401 0.008499785
-0.011678406 -0.013751475 0.0012654727 -0.0015307156 0.009414624 -0.008314859 0.01929385 0.014432534
-0.007582183 0.017117826 -0.004901388 -0.0072825453 0.002150264 -0.011032601 0.0071849925 0.011591554
0.029939352 0.0041562812 -0.0015846377 -0.0033458385 -0.007931889 0.014270791 -0.008147017 0.006394483
-0.011584579 -0.0006268819 -0.0040939883 -0.014958953 -0.02415316 -0.0057753855 -0.0051208595 -0.009174585
-0.004629545 0.01484931 0.010331151 0.010763983 0.013771322 0.011937955 -0.008472685 0.005033074
0.0016954906 0.034604564 0.0026842298 0.02782101 0.00869951 -0.010333864 -0.013176396 0.007109027
-0.0055739777 -0.009832154 0.013095917 0.0038416283 0.023664344 -0.0037529885 -0.012399322 -0.0091998065
-0.006400052 0.010012378 -0.006376497 -0.0016455362 0.029784165 -0.0035067217 0.01050173 0.014349156
0.002934798 -0.0043001194 -0.016168872 -0.011781227 0.008234722 -0.00722452 0.005531248 -0.008305825
0.010796769 -0.007694952 0.0005253857 0.012696899 -0.0074313525 -0.0058704675 -0.0068241097 0.0029071227
-0.010115973 -0.0018116604 0.004076445 0.004923414 0.011204004 -0.005518247 0.0055418643 -0.007695035
0.00854264 0.006574732 0.032586362 -0.018858314 -0.0017366097 -0.004407115 -0.014957633 -0.010151694
-0.01169175 -0.01374118 -0.00037539392 0.005945904 0.012475073 0.010148333 0.0053435974 0.013803449
0.040603526 0.0037834772 -0.004416907 -0.004126606 0.0067947 0.003406018 0.00948082 0.009205406
-0.00379536 0.01612703 0.002991777 -0.0011117546 -0.008127264 0.0052806702 0.011868032 -0.010075397
0.006191331 -0.0032191474 0.0046526804 0.0008395204 0.0005973056 -0.009302867 0.00013650068 0.01425144
-0.011500243 0.008987756 0.006753188 -0.006527013 0.0050471 0.0008916519 -0.006823374 -0.009727107
0.0065061892 0.005506094 0.006366247 -0.009701255 0.0040701223 -0.0035103036 -0.0008057801 -0.0042174105
-0.003952206 0.010915521 -0.0007970279 0.015650194 0.0074610068 0.013592509 0.019192627 0.0029975753
0.007834941 -0.006366008 0.022482853 0.014254423 -0.010609215 0.008727701 0.0051785493 0.009908665
-0.0022949995 -0.0048811757 -0.011861277 -0.0052838484 0.018193595 0.00350238 -0.009649425 0.008306541
0.014894545 0.0031415226 -0.004346027 -0.00029407945 -0.013609751 0.016364979 0.0063722935 -0.0044453256

network_body._body_endoder.seq_layers.4.weight f4 [256, 256]
00000000: df57 c43c 7986 f1bb e03a 86bd 9ca2 57bc
00000010: b6a2 34bd 5410 65bd 43bc 3fbc cc71 c83d
00000020: cac2 1a3d b128 963c 661b 88bc f19b 043e
00000030: ffb9 513c 778e 1bbc 3d8e 3ebd bccd 55bd
00000040: 76ff 243d ec67 9cbd 190b 97bd 785f 593c
00000050: fcca e9bd 79c5 a9bc 0c73 133c 76ee 1d3d
00000060: 21b3 3f3d fe97 d63b e298 26be 4c83 70bd
00000070: 5f87 023d f49a 35bb 7eef 87ba d9d3 cc3b
00000080: 8f9d 703c 60c7 09be 231d b23d 71ad a13d
00000090: 5a3b 7a3d 2e3e 1d3d a173 bb3c 55c0 443c
000000a0: ce8b f33d 2829 b23a c960 383d 0bf2 1fbc
000000b0: 6fb4 83bd d484 c8bd 176e e1bb 973e 9dbd
000000c0: 2fc0 9ebd 011f 82bd b328 2fbd 9e9f a83d
000000d0: 9354 1c3d 103b 46bc a075 8a3c 79e8 17bd
000000e0: 2484 c6bb dc3a 59bd 5a7a a63d 0ae9 99bd
000000f0: 6373 463d d7be a13d 34bc 0c3e d6a4 8bbd
00000100: 512a 8f3c ac19 f83b 2667 203d 60fe 9c3b
00000110: 8621 51bd 1d6b 2b3d e711 f4bb 826c 01bd
00000120: e089 49bd efdd 0cbe f77e f7bd 628e 7a3d
00000130: 1d91 54bd 4245 7a3c 4747 46bd d016 2abd
00000140: 260a 85bd 8840 82bd 3330 0bbd b75a 013c
00000150: b01d b6bd 0cb3 053c 1cd0 2a3d d6c0 193d
00000160: c01a 393d 9880 ff3b 204e 8a3c bfa7 3fbd
00000170: 48e1 e3bd cbf2 dabd 88b2 563c 88d5 103b
00000180: eac5 e8bd 89c8 2b3d 1be9 1cbe a091 1e3e
00000190: 3834 2d3d d74a 55bd 364e ebbd be85 ba3c
000001a0: 46bb b13d 6138 343d b60b 413d f4fe aabc
000001b0: b236 603d d52c 72bd ed34 b33c 5e76 5e3d
000001c0: 7d2c a73d 7da7 0abe 0be8 09bc 622d 42be
000001d0: 29a8 d3bc a62c 973c 32f9 b9bd 2e98 803d
000001e0: 7d2c f6bb 95e9 233c f54e 26be 928b b3bd
000001f0: a4a6 a1bd 5fac 9a3c 7f11 153e 936f 3abd
00000200: 2f50 983c 5939 40bc d9ea 9c3d 80d5 d2bd
00000210: 4876 b83c be65 e63c 2da1 60bc f238 1fbe
00000220: 8d2a 4e3e a077 f1bd fce1 9bbd 5cb5 5b3d
00000230: b34b 5c3d 4ac2 db3c a3e1 063d f05c 3f3d
00000240: 00df 853d 090a ecbb 7e4f 11be 19b9 b5bd
00000250: ee7e 01bd 00e6 58bd 49cb f13d ad4d 6e3d
00000260: 65e6 f5bd c524 a8bd 4c44 7c3d b332 333d
00000270: 66d8 b03d 9bee 22bd e908 15be 40fe 47bd
00000280: 0b84 463d 81d1 6bbd 8999 903c 1ea0 6cbc
00000290: 52d8 973c 55ca 2fbd df4a 173d 3374 943c
000002a0: 5395 bc3d ae37 09be c41b 0cbd 6ecb b23d
000002b0: c5d2 383d 668b ee3c 7fc3 a8bc 83d5 113d
000002c0: c745 0d3c 74f8 99bc 1d1a da3b 791a 3fbd
000002d0: a17f 0dbc 9a19 0dbd 5ce5 4abd 564c 113c
000002e0: d1c7 57bd a14a 9ebc 77e0 81bd 0335 bcbd
000002f0: 80b3 8fbd b420 acbd 8e06 e0bc 51c4 083e
00000300: 9994 a7bd bc2c 893d a6c1 97bd 7380 49bc
00000310: 1d89 843d 029d 01bd 61e3 85bb 9786 133c
00000320: 0f74 f5bd 87b2 0e3e db11 e33c e5e3 57bd
00000330: 4d01 e83d 84f3 1f3d d571 cebc 8de6 90bc
00000340: c5ad 3abd 6f4e 013e 8b20 d0bd 592b 7a3d
00000350: 690d d1bd cb9d 3b3c d9da ccbb a1be 94bd
00000360: 621d 6a3d 4aa1 d93c c640 16bd bda5 06bd
00000370: b56d d93d 0a1f 603d b9e3 af3d c986 be3c
00000380: bc2e 653d dfed 2fbe b926 a63d a6f8 ae3d
00000390: 31ac 9b3c 5c50 333d 70c4 1ebe 0ab5 d9bd
000003a0: 9f40 5c3d d795 12bd 4b8d 9fbd e6ab 543d
000003b0: 0ca9 3f3d 38b8 153d b3b7 0dbd 5965 03be
000003c0: a860 7a3d 9814 52bd 42ff 46bc 53aa 65bd
000003d0: 9596 d03c eeb4 c7bd 81bf 983d 93fe 833b
000003e0: 138e 803d 87ec 0a3d e06e 653d b48d 573d
000003f0: 26c7 043d 0844 6ebc 64af 35bd db0e 0b3c
0.023967681 -0.0073707667 -0.06554198 -0.013161328 -0.044100486 -0.055923775 -0.0117026 0.0978733
0.03778342 0.01832995 -0.016614627 0.12950112 0.012800693 -0.0094944155 -0.046522368 -0.052198157
0.04028269 -0.07637009 -0.073751636 0.01326739 -0.11415669 -0.020724045 0.008999597 0.038557492
0.04680169 0.0065488806 -0.16269258 -0.058718964 0.03186738 -0.0027710767 -0.0010371057 0.00625084
0.014686002 -0.13454962 0.08696964 0.078944094 0.06109176 0.038389377 0.022882285 0.012008746
0.118919 0.0013592588 0.045014177 -0.009762297 -0.06430899 -0.0979096 -0.006879579 -0.07677954
-0.077515 -0.0635357 -0.042763423 0.082335696 0.038166594 -0.012099043 0.016901791 -0.037086938
-0.006058233 -0.05303465 0.081288055 -0.07515152 0.048449885 0.07897728 0.13743669 -0.06818549
0.017476233 0.0075714197 0.03916087 0.004791066 -0.05105736 0.041850198 -0.007448423 -0.03159762
-0.049203753 -0.13756536 -0.120847635 0.061170943 -0.051896203 0.015275301 -0.04840782 -0.041525662
-0.06496076 -0.063599646 -0.033981513 0.007895163 -0.08892381 0.008160364 0.041702375 0.03753742
0.045191526 0.007797312 0.016882956 -0.046790835 -0.11126953 -0.1069084 0.013104089 0.002209993
-0.11365874 0.041939292 -0.15323298 0.15485239 0.042286128 -0.052073326 -0.11489527 0.022768851
0.08678298 0.04399908 0.04713031 -0.020873524 0.05473966 -0.059124786 0.021875823 0.054312102
0.08162782 -0.13540454 -0.00841714 -0.18962625 -0.025837021 0.018453907 -0.09080733 0.06279026
-0.0075126276 0.010004421 -0.16241057 -0.08766855 -0.07893112 0.018881021 0.14557455 -0.04551656
0.018592922 -0.011732423 0.07661981 -0.10294628 0.022517338 0.028124686 -0.013710302 -0.15549067
0.2013342 -0.11790395 -0.076114625 0.053639755 0.05378313 0.026826043 0.032930028 0.04671949
0.065366745 -0.0072033447 -0.1419048 -0.08873195 -0.03161519 -0.05295372 0.11806352 0.058179546
-0.12006835 -0.08210138 0.06158857 0.043749522 0.08635025 -0.039778333 -0.1455418 -0.048826456
0.04846577 -0.057572845 0.017651336 -0.014442472 0.018535767 -0.04291757 0.036936637 0.018121814
0.09208169 -0.13400146 -0.034206167 0.087302074 0.04512288 0.029119205 -0.020601032 0.03560401
0.008622593 -0.01879523 0.006655945 -0.046656106 -0.008636386 -0.034448244 -0.04953514 0.008868298
-0.052680794 -0.019322695 -0.063416414 -0.09189799 -0.07016659 -0.08404675 -0.027346876 0.13356139
-0.0818264 0.066979855 -0.074099824 -0.012298691 0.06471465 -0.031643875 -0.0040859436 0.009004257
-0.11985027 0.1393529 0.027718475 -0.05270757 0.11328373 0.039050594 -0.025200764 -0.01768806
-0.045575876 0.12627576 -0.10162457 0.061076496 -0.10207636 0.011451195 -0.0062516746 -0.07262922
0.057156928 0.026566166 -0.036682867 -0.032872904 0.10616628 0.0547171 0.085883565 0.02325763
0.055952772 -0.17180584 0.081128545 0.0854352 0.019003006 0.04377781 -0.15504622 -0.106302336
0.053772565 -0.03578743 -0.07790621 0.051921748 0.046792075 0.036552638 -0.034599017 -0.1283163
0.061127335 -0.05128917 -0.012145819 -0.056070637 0.025462428 -0.097513065 0.074584015 0.0040281503
0.062770985 0.033916976 0.05601394 0.052625373 0.032416485 -0.014542587 -0.04435672 0.008487429
