Assets/Training/results/run2/config.onnx (onnx, 588060 bytes, 9 tensors)

action_model._continuous_distribution.log_sigma f4 [1, 2]
000000 a2 67 2d bd 2c 7e 66 bd
       -0.04233516 -0.05627267

action_model._continuous_distribution.mu.bias f4 [2]
000000 a8 ad 18 3c e5 3a 76 3a
       0.009318747 0.0009392931

action_model._continuous_distribution.mu.weight f4 [2, 256]
000000 3d b3 02 bd f6 df 7e 3c a6 fb 0f 3c 8a 57 d7 bc
       -0.031909216 0.015556326 0.008788025 -0.026286859
000010 3b 08 0e bd d8 36 e4 ba 78 b3 3d bd 7c 90 76 3b
       -0.034675818 -0.0017411364 -0.046313733 0.003762274
000020 fc 84 19 bb ea 36 21 bc 16 76 3b 3c 28 06 d9 3b
       -0.0023425212 -0.009839753 0.011441728 0.0066230483
000030 aa 6c 6e 3c 75 70 a0 3c aa 9c 97 bc d0 43 cc 3b
       0.014552275 0.019584874 -0.01850732 0.00623367
000040 6f db 02 3c b7 89 ba 3c 1e aa 18 3c 31 e8 3b bc
       0.007986887 0.022770746 0.009317903 -0.011468933
000050 ab 69 86 3c 4f 64 2f bc 28 e1 41 3d a1 52 ba 3c
       0.016407808 -0.010705068 0.047333866 0.022744479
000060 4d 5f a0 3c d8 80 46 3c 17 48 26 3c 17 55 53 bc
       0.019576693 0.01211568 0.0101490235 -0.012898705
000070 9d da 9c bb 0a fe d8 3b a8 91 11 bc a3 22 36 bc
       -0.004786803 0.0066220807 -0.008884825 -0.0111166565
000080 13 ee b5 bc 79 15 e9 3c 77 d6 8e 3c f6 1c 94 bc
       -0.02220825 0.028452622 0.01743625 -0.018080216
000090 da 3d 30 bc db 79 53 3c a7 4f 08 bd ab 70 47 bc
       -0.010756934 0.012907471 -0.033279087 -0.012172858
0000a0 cf 2d a0 3c ca 3d 92 3c 2b 77 90 3c 33 90 91 bc
       0.019553093 0.017851729 0.017634949 -0.017768955
0000b0 fe 82 f5 bc 2d b4 90 3c d2 c6 8c bc e5 6e 96 3b
       -0.029969689 0.01766404 -0.017184649 0.0045908564
0000c0 76 bc ef bc d9 33 93 bb 73 1e 44 3c 9d 5e 54 bc
       -0.02926467 -0.0044922647 0.01197015 -0.012962011
0000d0 59 df d8 3c f3 cd 12 bc 99 88 cf 3c 60 54 89 bc
       0.026473688 -0.008960235 0.02533369 -0.016763866
0000e0 6e ac 3f bc d2 82 7f bc 29 19 10 38 a5 07 01 3c
       -0.011698825 -0.015595155 3.4355708e-05 0.007875358
0000f0 52 25 0a bc 75 d9 b0 bc cf 0a ca 3b 3d 34 9c 3b
       -0.008431749 -0.021588067 0.0061658393 0.0047669695
000100 44 57 06 bd c8 08 aa bc a4 e4 7e bc 61 32 e8 3c
       -0.032798067 -0.02075614 -0.015557442 0.028344335
000110 3c 10 d2 3a 79 eb d7 bc 85 c1 c6 bb 55 67 64 bc
       0.0016026567 -0.0263574 -0.00606555 -0.013940652
000120 81 d6 5e 3c ad 27 99 38 d5 6d a2 3c 90 13 f6 bb
       0.013600946 7.302999e-05 0.019827763 -0.0075096563
000130 1b 9a cc bc 8c ab 1a 3c 8e ab 18 bc 3a e9 e4 3b
       -0.024975827 0.009440314 -0.009318246 0.0069858106
000140 26 3c 0a 3c 4c c4 cc bb 6a 99 b4 bc 3f 34 41 bc
       0.008437192 -0.0062489863 -0.02204581 -0.011792242
000150 03 c0 46 bc b1 55 84 3c ac ed f7 39 33 20 36 3b
       -0.01213074 0.016154142 0.0004728859 0.0027790188
000160 c3 74 15 bc 27 0c 01 bc 94 cc 71 3b 36 01 d7 3c
       -0.009122076 -0.0078764325 0.003689562 0.026245695
000170 6d fa 8e 3c 14 6c f5 bc b6 81 ae 3c 74 29 c8 3c
       0.017453397 -0.029958762 0.021302085 0.024433829
000180 c6 fd 7c 3c 23 28 09 bb 76 49 d8 3c b3 8a b6 bc
       0.015441364 -0.0020928464 0.026402216 -0.022282934
000190 99 f9 cb 3c 9a 91 81 b9 45 ca bd bc 08 23 44 3c
       0.02489929 -0.0002471328 -0.023167739 0.011971243
0001a0 78 65 4c bb d4 59 e6 bb 4a 55 8b 3c 00 73 6f bc
       -0.003118841 -0.0070297513 0.017008442 -0.0146148205
0001b0 6d 8c f8 3c b1 c7 de 37 50 df 02 bd 25 8b 0b 3c
       0.030340398 2.655745e-05 -0.03195125 0.008517061
0001c0 bf cb 05 3a 44 b1 fd 3c d7 b1 a1 3b a8 39 9c bc
       0.0005103908 0.030968316 0.0049345302 -0.019070461
0001d0 0c be 12 bd fd 5a 85 bc 91 56 bf bc 28 49 d0 bc
       -0.035825774 -0.016278738 -0.023356708 -0.025425509
0001e0 51 24 81 bc 98 69 50 3c 3f ac 6c bc f4 00 d8 3c
       -0.015764387 0.012720488 -0.014445364 0.026367642
0001f0 da 01 62 bc d9 72 8c bc b0 85 0f bc db fd 2a 3b
       -0.013794387 -0.017144607 -0.008759901 0.002609125
000200 8f 4b 91 3c 8b a1 62 3c 5c aa 1c bc c7 ad 7b bc
       0.017736224 0.01383246 -0.009562101 -0.015361256
000210 d0 21 01 3d e8 ff 5e bc a3 44 6c bc c7 55 e5 3c
       0.031526387 -0.0136108175 -0.014420661 0.027995003
000220 92 70 23 bc a6 f5 89 3c 01 e3 ed ba e2 36 9f bb
       -0.009975569 0.016840767 -0.0018149317 -0.0048588375
000230 63 d9 8c bb dc 62 08 3c 5f ce db 3c db ab 8c 3c
       -0.0042983755 0.008324351 0.026831804 0.01717179
000240 d6 23 af bc f4 27 ae bc 14 84 35 bc a3 ed 07 3c
       -0.021379393 -0.021259286 -0.011078853 0.008296403
000250 44 c2 78 3c b3 4c 88 bc 18 3a ff 3b 8a 8b 22 bb
       0.015183035 -0.016638136 0.0077889077 -0.002480241
000260 55 32 28 bc 3d c8 13 3d a6 97 66 3c 27 2e 68 bc
       -0.010265906 0.036079634 0.014074242 -0.01417116
000270 17 1d 89 3c 25 4b 1d 3d 5f 48 47 3c 6c 50 42 3c
       0.016737504 0.03840174 0.012163251 0.011859994
000280 a8 81 07 3c c2 84 02 bd dc bc bd 3c b3 4d a0 ba
       0.008270659 -0.03186489 0.023161344 -0.0012230187
000290 39 a9 97 3c 5d bc 1f 3d 3f 77 86 bc 56 c7 ed 3c
       0.018513309 0.038997997 -0.016414283 0.029025715
0002a0 e0 85 13 bc ca b6 03 bb 73 88 d7 3b 80 ff 61 bc
       -0.009004086 -0.0020097964 0.0065775453 -0.013793826
0002b0 5f ef 91 3c 97 3f bf bc 1d 77 a6 3c 6e c8 b7 bb
       0.017814336 -0.023345752 0.02032047 -0.00560861
0002c0 8c 9a 95 3c e7 e7 2c bc 0f db 90 3b 49 02 a2 3c
       0.01826217 -0.010553337 0.004420645 0.01977648
0002d0 ee b3 e5 3b 30 17 9d bb 78 2b 63 3c 7f 06 90 3c
       0.0070099747 -0.004794024 0.013865344 0.017581223
0002e0 2a 92 dc bb a0 9e aa 3c e4 6a 23 bc 11 29 15 3d
       -0.0067312913 0.020827591 -0.009974215 0.036416117
0002f0 c6 4e 8d 3c e4 96 70 3c 15 fc 9c bc 14 3e 48 3c
       0.017249476 0.014684413 -0.01916317 0.012221832
000300 ff 54 20 3c dc b1 ef bc 49 fc f1 3b e2 fb f1 b9
       0.00978589 -0.029259615 0.007384811 -0.0004615477
000310 b9 45 0d bd 10 0d 4d bc 55 c9 97 bc 10 c1 33 3c
       -0.03449032 -0.012515321 -0.01852862 0.010971323
000320 2b 8f 11 3c 44 41 6f 3c 8d fd 6f bc de c9 10 3c
       0.008884232 0.014602963 -0.014647854 0.008837191
000330 b0 64 b7 3c 21 38 4d bb c8 f0 97 3c 11 fa 5e bc
       0.022386879 -0.0031313973 0.01854743 -0.013609425
000340 5e 8d 14 bd 93 f1 e6 bb 2c d4 e1 3b 0e fe 13 bb
       -0.03626763 -0.007047841 0.006891748 -0.0022581848
000350 e3 25 7d 3c 67 18 11 3c 56 88 f2 38 eb 6d d0 3c
       0.015450927 0.008855916 0.00011564854 0.025443038
000360 94 48 2b bc 8a 45 ce 3c e2 52 a9 bc 05 49 68 3b
       -0.010454316 0.025179643 -0.020669404 0.0035443914
000370 db 85 be 3b 13 e0 45 3c b9 5c 58 3b a5 a8 9e 3c
       0.0058142967 0.012077349 0.0033014251 0.019367525
000380 d1 0a 18 bc 46 f4 76 bb ee 1a 43 bc 48 e6 bc bc
       -0.009279923 -0.003768222 -0.011908276 -0.023059025
000390 16 7b bf 3c 25 ee d3 3c 26 65 75 bc 85 9a b1 bc
       0.023374122 0.025870392 -0.014977729 -0.021680126
0003a0 af 1c 0b 3c 9a 0b fb bc 46 e4 03 3b 1b cb 93 bc
       0.008490725 -0.03064518 0.0020125075 -0.018041184
0003b0 95 a7 91 3c 22 72 a4 bc 9f 34 b0 3c 73 81 99 bc
       0.017780105 -0.020073954 0.021509467 -0.018738484
0003c0 f7 fd 84 bc 10 d5 b8 bc c4 0c f1 3a f1 83 64 bb
       -0.016234381 -0.022562534 0.0018390645 -0.0034868682
0003d0 ef 7c 30 bb e4 66 4c 3c 60 f5 14 3b c6 ee 9f bb
       -0.0026929935 0.012475703 0.0022729263 -0.004880759
0003e0 ba 2f 24 3a 37 e2 43 bc 7d 87 83 bc 6e d0 41 bc
       0.00062632153 -0.011955789 -0.016055817 -0.011829479
0003f0 26 e9 7f bb 0f 5c 85 bc de 7f 0c bc cf 60 06 3c
       -0.003904888 -0.016279249 -0.008575408 0.008201792

network_body._body_endoder.seq_layers.0.bias f4 [256]
000000 ff f5 97 3b 89 0b 0c 3b ef 6d b1 3b 35 98 b2 3a
       0.0046374793 0.002136918 0.0054147164 0.0013625683
000010 5c fe db ba 8f 76 fa 3b 6e fa 15 3c 0b 70 4a 3b
       -0.0016784179 0.007643528 0.009153945 0.0030889537
000020 3b 65 5c bb 4f fc ff 3b ea b0 09 3b bd d6 12 bc
       -0.0033629674 0.00781206 0.002100999 -0.00896233
000030 75 92 af bb 26 e5 47 39 3b 95 b7 3b 65 44 87 3b
       -0.005358035 0.00019063483 0.0056025065 0.0041280263
000040 2d ef 07 bc 25 1c b6 3b dd 77 04 3c b2 c9 78 3b
       -0.00829677 0.0055575543 0.008085218 0.0037962017
000050 bd 2b 18 3c 2e df 49 3b a3 84 f4 3b f8 8d d5 3b
       0.009287772 0.0030803191 0.0074621006 0.006517168
000060 2a 35 a8 ba c6 ae c3 bb c5 eb 95 3b 0e 55 1c bb
       -0.0012833227 -0.0059717624 0.004575225 -0.0023854407
000070 8d ab f3 3b 36 e1 f9 3b e9 93 15 3c 0a 09 8e 3b
       0.007436222 0.007625724 0.009129503 0.0043345736
000080 26 af ef 3b 4f 8e f2 bb 88 2f 08 3b cf dd b6 bb
       0.0073145805 -0.0074022184 0.0020780284 -0.005580641
000090 12 46 1b bc d7 7c 94 39 2c 9c e0 b9 4c b5 ef 3b
       -0.009477155 0.00028321773 -0.00042840966 0.0073153134
0000a0 21 33 c9 bb 36 7d 99 3b 87 cb 9f 3b e1 a7 12 3c
       -0.0061401282 0.0046841158 0.0048765573 0.008951158
0000b0 30 9d 87 ba b0 3c 90 39 fd 10 47 39 2a d8 b2 3b
       -0.0010346528 0.00027511036 0.00018984448 0.0054578977
0000c0 4c e8 b8 3b 46 a6 1a bc 46 f3 8d 38 12 f9 5e bb
       0.0056429263 -0.009439057 6.768717e-05 -0.003402297
0000d0 25 ee 3a 3b 84 f6 7a bb e1 53 e9 bb e7 d2 d4 3b
       0.0028523293 -0.0038293907 -0.007120595 0.006494868
0000e0 af e7 1e bc 5f 08 23 3c 99 ba 9f 3a f3 8f 06 bc
       -0.009698792 0.009950726 0.0012186348 -0.008213031
0000f0 3f ca e9 3b 25 77 15 3c fa ee 00 bb 7f b5 3c 3b
       0.0071347053 0.009122645 -0.001967369 0.0028794704
000100 ce b9 c0 3b 7f 3d 1b ba 74 d9 f5 bb 1d 42 09 bc
       0.0058815246 -0.00059219444 -0.007502729 -0.008377579
000110 6d bc a1 3b a1 d4 20 3c d1 ed b6 3b d8 c6 a5 3b
       0.004935792 0.00981632 0.005582549 0.0050591044
000120 40 79 ea 3b 93 36 a5 bb df d6 d8 3b cb f1 b2 3b
       0.0071555674 -0.005041906 0.0066174115 0.005460953
000130 c0 9a b6 3a 7a ed 95 3b 7d 4e 16 bb fe 3f e5 3b
       0.0013931617 0.0045754286 -0.0022934966 0.006996154
000140 f1 90 11 bb 9a 5e bd ba 56 e0 c6 bb 2f c4 a6 3b
       -0.0022211636 -0.0014447749 -0.0060692234 0.005089305
000150 c3 1e a5 3b 8f ee 69 bb 7f c9 06 bc 65 ee d1 3b
       0.0050390675 -0.003569517 -0.008226751 0.0064065927
000160 8d 2e aa bb 9f d9 63 3b b1 db 03 3c 9e 6c 2b 3c
       -0.0051935376 0.0034767163 0.008047984 0.010462908
000170 55 7b c7 bb c6 c7 b7 bb d4 78 0b bc b5 25 70 bb
       -0.0060877004 -0.0056085316 -0.008512694 -0.003664357
000180 05 f2 e7 3a c6 33 c4 bb 1a e3 f3 b9 17 4d 37 b9
       0.0017696029 -0.005987617 -0.00046517776 -0.00017480958
000190 9f 4e 0e bc 4e 24 01 bc 3c 39 df 3b cd 22 b3 bb
       -0.008685737 -0.007882191 0.006812243 -0.005466795
0001a0 d1 0a 6b ba 74 76 bb bb 95 69 36 3b 33 af 19 3c
       -0.00089661503 -0.005720908 0.0027833928 0.00938015
0001b0 44 b1 d4 bb 91 20 03 3c b8 25 20 3c 8a 08 e1 3b
       -0.0064908583 0.00800337 0.009774618 0.006867473
0001c0 06 6a f0 3b e1 98 38 bc f2 de 02 bc 2f e8 1b 3c
       0.0073368577 -0.011266918 -0.007987725 0.009515806
0001d0 37 7d ad 3a 0f 58 64 3b b2 68 db 3b b0 8a a3 3a
       0.001323617 0.0034842526 0.0066958303 0.0012477245
0001e0 ca 76 af ba f9 b1 05 3c 7b 10 dd bb ac c8 ba 3b
       -0.0013386842 0.008160108 -0.0067463494 0.0057001915
0001f0 c5 97 03 bc 4b 93 f3 3b 41 b0 fb 3b 50 b6 09 bb
       -0.00803179 0.00743333 0.007680923 -0.0021013208
000200 e5 ff 17 bc 26 ea 07 bc 7a c9 01 bc 57 fe 13 3b
       -0.009277319 -0.008295571 -0.007921571 0.0022582018
000210 a3 71 c0 3b c4 08 0a bc 3b e9 06 3c f6 52 18 bc
       0.0058729216 -0.008424941 0.008234317 -0.009297123
000220 85 db 1a 3c 20 83 18 bc 32 26 a3 3a 75 70 27 bc
       0.009451752 -0.009308606 0.0012447296 -0.010219683
000230 d5 bb f4 3b f1 94 ae bb 45 76 0d bc 0d d3 c5 3b
       0.0074686804 -0.005327814 -0.008634155 0.006037122
000240 47 7a 13 3c f7 6c b4 bb 67 36 f7 3b 5d 7d 25 3c
       0.009001321 -0.0055061537 0.007544327 0.01010069
000250 9a eb 00 3c c9 b2 04 3c 2d 30 e5 bb fb b2 0c bc
       0.007868672 0.008099266 -0.0069942684 -0.008587594
000260 b1 40 5f bb 03 c6 ea bb 08 d4 91 3b 20 1a e9 39
       -0.0034065659 -0.007164718 0.004450325 0.00044460688
000270 9f 55 b0 3b f6 e7 41 3b 02 f1 45 3b 90 42 15 bc
       0.0053813006 0.0029587722 0.0030203466 -0.009110108
000280 ae 6a 1d 3b 38 d2 33 bc ee a7 e8 3b 95 1d 99 bb
       0.0024019885 -0.010975413 0.007100097 -0.004672716
000290 63 c2 1b 3c a5 ad 05 bc 0c 58 a3 3b 19 b0 82 3b
       0.009506795 -0.008159076 0.0049848612 0.0039882776
0002a0 9a 32 06 bc ec 8f 00 bc f9 9f 15 bb 3b d7 32 3b
       -0.008190775 -0.007846814 -0.0022830947 0.0027288932
0002b0 61 62 9e 3b 5a d0 a2 3b e6 f0 17 bc 80 dd 80 3b
       0.004833505 0.004968685 -0.009273743 0.003932655
0002c0 e9 9f ea 3b 34 04 0c bc c2 3d f1 3b d3 96 a0 bb
       0.007160176 -0.008545924 0.0073620984 -0.004900792
0002d0 c9 59 28 bb 3c 75 02 3b b7 a4 00 3c 54 0e a7 bb
       -0.0025688282 0.0019906303 0.007851771 -0.0050981436
0002e0 86 8e c0 3a 44 54 08 3c 5d 03 c6 3b e3 9b 2c 3b
       0.0014690913 0.008320872 0.0060428814 0.0026338033
0002f0 cc 39 26 bc 6d d0 ed bb 69 f1 9f bb 88 db 62 bb
       -0.010145616 -0.0072575123 -0.0048810733 -0.0034615714
000300 d7 7e 4f bb fd 09 06 bc c5 4c c8 bb 3c df a8 bb
       -0.0031661296 -0.008181092 -0.0061126673 -0.0051535647
000310 6e 28 10 3c 34 33 09 3c 97 01 a4 bb 9e 62 6f bb
       0.008798702 0.008374024 -0.0050050723 -0.0036527286
000320 d6 9d 0a bc 4e 92 0a bc f2 2c 1b 3c d4 8b 26 bc
       -0.008460483 -0.008457733 0.009471165 -0.010165174
000330 32 00 0d 3c 56 92 80 3b d3 6e a6 bb 0c 44 34 3b
       0.008606004 0.0039236946 -0.0050791292 0.002750638
000340 de 65 20 3a 77 55 7a 3b 36 ba b4 3b 25 83 ae bb
       0.0006118695 0.0038197914 0.005515362 -0.0053256922
000350 bd bf cb bb c8 7b cc 3b b2 3c 48 3b a0 ff ba 35
       -0.0062179253 0.006240342 0.0030553755 1.3932477e-06
000360 ac 92 ce bb 33 ae f2 3b f4 2f 9d ba 4c 20 0e 3c
       -0.0063041057 0.00740602 -0.001199244 0.008674692
000370 3e cd e9 3b 2c 36 89 3b 50 78 22 39 64 61 56 3b
       0.0071350625 0.004187366 0.00015494344 0.0032711858
000380 9c 93 31 bb 66 04 f2 3b 12 12 06 bc 6b ca 06 bc
       -0.0027096039 0.0073857782 -0.008183019 -0.008226971
000390 16 60 7d 3b 39 b2 98 3b 05 3f 98 bb 99 fe 5f 3b
       0.0038662008 0.0046599177 -0.0046461844 0.0034178852
0003a0 99 f8 c0 bb 38 b9 d0 39 94 e5 06 bc 00 04 1c bc
       -0.00588901 0.0003981085 -0.008233447 -0.009522438
0003b0 bb b1 05 bc 2a 1f 49 bb 04 80 b9 bb 1e 76 b2 b8
       -0.00816005 -0.0030688741 -0.0056610126 -8.5097025e-05
0003c0 aa 86 7d bb 51 aa a8 bb fa ad d7 3b 3b 5a 01 3b
       -0.0038685002 -0.0051472564 0.006582019 0.001973762
0003d0 14 94 c4 ba ac 04 7d 3b 3d 1a 98 bb 05 cd aa bb
       -0.0014997744 0.003860752 -0.0046417997 -0.0052124285
0003e0 77 15 c1 3b 56 be b4 bb 60 b9 94 3b 49 3b ef 3b
       0.0058924514 -0.005515854 0.0045387 0.0073007685
0003f0 e2 6d 02 bc a3 87 a6 bb 4c ed 18 bc 5a 18 99 3b
       -0.007960768 -0.005082087 -0.00933392 0.0046720924

network_body._body_endoder.seq_layers.0.weight f4 [256, 55]
000000 dd 57 a2 bd 59 11 43 3e 3d b8 eb 3d 7e 5b 47 3c
       -0.07926915 0.19049586 0.1150975 0.0121678095
000010 a8 31 8f 3e a3 be 4f bd ce 59 22 3d 1b a8 ed bd
       0.27967572 -0.050718915 0.039636426 -0.11604329
000020 bc 11 c3 3c 19 53 04 be 71 e9 a0 bc 95 9e 74 bd
       0.023812167 -0.12922324 -0.019642564 -0.059721548
000030 f1 24 84 3e 68 77 ca 3d d3 83 e7 3d 5a c8 80 3c
       0.25809434 0.09886056 0.1130444 0.015720535
000040 4b eb ec bc ce 4a a3 3d 8a 55 41 3d 14 00 ee bd
       -0.02892079 0.07973252 0.047200717 -0.11621109
000050 c3 9b ef bb 7b af 48 be ba d7 91 3e 3e 4b 20 bc
       -0.0073122694 -0.1959819 0.284849 -0.009783564
000060 13 ee f5 3d 1c fd 67 bd 1a ad 57 bd 77 31 0f 3e
       0.120083 -0.05663787 -0.052655317 0.13983713
000070 1b c9 ce 3d 53 a9 4d 3e 2f 25 03 3e 94 8b 05 3e
       0.100969516 0.20084123 0.12807153 0.13041526
000080 ac d6 8c bc ce 8c 45 bd 4c d1 fc bc e9 87 9d 3d
       -0.017192207 -0.048229985 -0.03086152 0.076919384
000090 22 a0 c3 bd 87 43 4e 3e 6c 07 ec 3d 27 78 b9 3e
       -0.09552027 0.20142947 0.11524853 0.3622448
0000a0 bf 99 82 3d d4 6e 63 3d a6 40 8c bd 2c d0 b6 bc
       0.06376981 0.055525616 -0.06848268 -0.022316061
0000b0 1c 11 9f 3c 29 3d df bd 51 c4 53 bd dd a3 a5 bb
       0.019417338 -0.10900337 -0.051700894 -0.0050549344
0000c0 a2 df ec bd 39 64 1e be 11 64 64 bd 68 4e 87 3d
       -0.11566092 -0.1546792 -0.055759493 0.06606752
0000d0 2e 2e d4 3d 8e 0f 79 bc 76 93 36 bd 9a 36 0c be
       0.103603706 -0.015201462 -0.044574223 -0.13692704
0000e0 e1 96 f3 3d c3 89 c3 3c 2e 88 8c 3d 5e 5e ac 3d
       0.11894012 0.0238694 0.06861912 0.084164366
0000f0 4a a4 0c bd 98 99 0b 3d 3d a1 09 bd 26 f9 1d be
       -0.034336366 0.034082025 -0.033601034 -0.15427074
000100 b8 2c 8f bc 3c d6 18 bd b4 30 20 bd 0b 23 5e 3d
       -0.017477378 -0.037313685 -0.039108947 0.05423264
000110 fb de c9 3d 61 1e 33 be e1 1b 94 bc c4 a8 57 bd
       0.09856983 -0.17492057 -0.0180797 -0.05265118
000120 c0 e3 6c bd a3 b7 b2 bc 94 3d 89 bd a4 11 53 3e
       -0.057834387 -0.02181608 -0.06701198 0.20612198
000130 6e d8 53 bb 8e 7a 94 be 26 af c5 bd 3a 54 fa 3d
       -0.0032325047 -0.28999752 -0.096525475 0.12223096
000140 af 37 b1 3c a2 50 33 be 15 21 4c be a4 ad 12 3d
       0.021632997 -0.17511228 -0.19934495 0.035810128
000150 99 25 a4 bb 7c 94 5f 3e 38 80 89 3e f0 03 d8 3b
       -0.005009365 0.21833986 0.26855636 0.0065922663
000160 09 b6 07 bc 37 8a f8 ba b8 7c cc 3d f6 09 52 bd
       -0.008283147 -0.001896209 0.09984726 -0.05127903
000170 20 b4 97 bd 2b d0 e0 3c 0d 86 ab bd 8e 63 7f 3e
       -0.07407403 0.027443012 -0.083751775 0.24940321
000180 64 f9 a2 3d 5c 2c 9c 3d d0 a8 3b 3d 90 06 31 be
       0.07957724 0.076256484 0.04581529 -0.1728766
000190 36 28 86 bc 94 ab 91 bc c3 d3 37 bd ad 39 75 3d
       -0.016376596 -0.01778201 -0.044879686 0.059869457
0001a0 78 51 21 be 2c 5b 26 be 68 39 66 bd 16 94 56 3e
       -0.15753734 -0.16245717 -0.05620709 0.20954928
0001b0 ee 9a 52 bd 92 31 df 3d f0 0c 47 bc 2b d5 35 3c
       -0.051417284 0.10898127 -0.012149081 0.0110981865
0001c0 ad 80 ed 3d 74 c4 54 3d a2 41 db bc 5c e5 7e 3c
       0.115968086 0.051945165 -0.026764695 0.015557613
0001d0 16 1a 28 be 3e cc 6b be ba 9c 84 3d dc 84 4c be
       -0.16416201 -0.23027131 0.06475206 -0.19972557
0001e0 65 15 21 bd 43 71 5e 3e cf bd 51 bc e6 a1 3c 3c
       -0.039327044 0.21722893 -0.012801602 0.011513209
0001f0 78 0e 9b be 39 c6 52 3d 92 11 a9 3d 8a a2 f2 bc
       -0.30284476 0.05145857 0.082553044 -0.02961852
000200 3c b1 db bc e8 9f 25 be cf 8e ec bd ca 25 22 3e
       -0.02681791 -0.1617428 -0.11550676 0.15834728
000210 13 50 08 bc ee 7b 02 3d d2 66 14 3e 9f 0f c9 3b
       -0.008319872 0.03185647 0.14492348 0.0061358954
000220 bb 9b 02 3e c2 e3 d3 bd 30 0e 33 3e 16 27 a2 bd
       0.12754719 -0.10346176 0.17485881 -0.07917611
000230 76 db e5 b9 8c 28 35 be 53 3b 54 3e 3c 41 63 3e
       -0.00043841795 -0.17691249 0.20725755 0.22192854
000240 b1 e6 4e 3e 7a 3e 38 3d 47 a6 ca 3d dd c7 f9 bd
       0.2020519 0.044981457 0.09894996 -0.12196324
000250 a2 9f 14 be b2 fa 0f be 0f 76 10 be 23 b1 f1 3d
       -0.1451402 -0.14060476 -0.14107536 0.11801364
000260 c4 01 a0 3d e7 0a 32 3e e0 01 22 3d 71 c1 c3 39
       0.07812837 0.17386971 0.03955257 0.00037337423
000270 e2 a7 19 3e 01 1e 2a 3e 13 c1 ea bc 0d d7 83 be
       0.15005448 0.16613008 -0.028656518 -0.25750008
000280 d0 84 15 3d 0f f8 67 3e 6e dd 30 3e 14 d7 49 3d
       0.036503613 0.2265322 0.17271969 0.04927738
000290 2d 1e 64 be 1b d9 da 3c e4 6a 15 3e 16 82 8c bd
       -0.22277136 0.026714852 0.14591557 -0.068607494
0002a0 4b 81 40 be 26 35 50 3e 04 32 9f bd 4b 9b 8b bd
       -0.18799321 0.20332775 -0.077732116 -0.06816729
0002b0 25 6b 19 3d 7c 56 ca bd 8a aa 4c 3c b5 0d d0 3c
       0.037455697 -0.09879777 0.012491832 0.025397161
0002c0 b7 6c 35 3e e2 52 93 3d 42 e5 28 3d f4 20 b5 3d
       0.17717253 0.07193543 0.041234262 0.08844176
0002d0 79 a0 29 be 38 69 28 bd 19 bf 62 3d 2d 41 24 3e
       -0.16565122 -0.04111597 0.055358026 0.16040488
0002e0 dc fb b3 3d 0a 12 e3 bd 65 39 32 bd 7e 8e 8a 3e
       0.08788273 -0.11087425 -0.043511767 0.27061838
0002f0 97 6f 20 3e b5 3b 2f 3e 0d 34 59 bc 0e 83 b8 bd
       0.15667568 0.1711262 -0.013257039 -0.09009372
000300 32 cf 35 be 71 f0 15 be 91 68 90 3e da 72 1d 3e
       -0.1775482 -0.14642502 0.28204778 0.15375844
000310 0a 3e 2b 3e d7 f6 09 3e c3 b3 b5 bb 22 5b e0 bd
       0.16722885 0.13473068 -0.005545111 -0.10954882
000320 c5 4e 8b bd 90 4b d6 3d 81 00 c1 3d 60 8d 1b 3e
       -0.068021335 0.10463631 0.09423924 0.15190649
000330 19 bc 70 3e cf e9 1d 3e 7a 33 3f 3b 1b 2e 93 bb
       0.23509254 0.15421222 0.002917497 -0.00449158
000340 87 0a f3 3d 6f 4e 3c 3e b4 9d 3c be a9 14 ff bd
       0.11867242 0.18389295 -0.18419534 -0.124551125
000350 98 b4 82 bd 0d a9 be bd 23 04 9b be 85 49 fb 3d
       -0.06382102 -0.09309588 -0.30276594 0.12269882
000360 54 36 d7 3d 62 d6 ba 3d 21 b8 0a ba f2 cc cd bd
       0.10508409 0.091229215 -0.00052917196 -0.10048856
000370 5a bf ae 3d 66 fd 76 3d 73 50 f1 3b 8a 30 e8 3d
       0.08532591 0.060300253 0.0073643266 0.11337383
000380 ad bb 1a 3d 58 fe 03 3e d2 68 02 3d ba 7f 9e 3e
       0.037776638 0.12889993 0.031838246 0.30956823
000390 51 f8 0c 3d dc f2 7d bd d2 26 13 be 3f 77 be 3c
       0.0344165 -0.061999187 -0.14370278 0.02325022
0003a0 b5 72 c6 bd 27 88 4a bd 5b 75 24 bd e6 27 16 bd
       -0.096898474 -0.04944625 -0.04015098 -0.036659144
0003b0 e8 6c 1b 3e f2 21 90 bc ee 39 6a ba c0 f7 81 be
       0.15178263 -0.017594311 -0.0008935024 -0.2538433
0003c0 23 f5 30 3d 98 bd b6 bd 7a 05 63 3d 89 67 2a 3e
       0.04320253 -0.08922881 0.055425145 0.16641058
0003d0 a9 1a e9 3c ec 20 0d be 11 ce 8a 3d da f5 78 3c
       0.028455095 -0.1378209 0.06777585 0.015195334
0003e0 b5 7d da 3d 36 63 27 3e 50 0b a2 bd 09 be 13 3d
       0.10668508 0.1634644 -0.07912314 0.036069904
0003f0 72 a6 89 bd ca 1a 87 3d 4a a8 52 bc c4 77 98 bd
       -0.067212 0.065969065 -0.012857506 -0.074447185

network_body._body_endoder.seq_layers.2.bias f4 [256]
000000 d0 22 1d 3c 9b fa 94 3b 03 79 96 bb 45 fc db bb
       0.0095908195 0.004546476 -0.0045920624 -0.0067134225
000010 11 30 fa bb eb af 0d 3c 73 3a 1f bc 46 2d c0 bb
       -0.0076351245 0.008647899 -0.009718525 -0.005864772
000020 43 2d a5 3b 5c 24 6b 3b 91 d2 df 3b f5 83 15 3c
       0.005040796 0.0035879826 0.0068305214 0.009125699
000030 34 1a 96 bb 21 3f 04 3c 19 6b 12 3c b1 ff 9e 3b
       -0.0045807604 0.008071692 0.008936667 0.004852258
000040 cf 07 21 3b de e0 18 3c 17 4f 40 3b 1e f6 18 3c
       0.0024571305 0.009330956 0.0029344016 0.009336023
000050 8f b5 01 3c a2 62 8f 3b 18 e0 08 bc 77 15 0d 3c
       0.007916822 0.0043757716 -0.008354209 0.008611075
000060 0e 63 1c 3c e9 f8 06 3c 59 ec 0e bc 0d 16 0d bb
       0.009545101 0.008238056 -0.008723342 -0.0021528036
000070 80 c8 1e bc a2 f8 14 3c 0c 85 f7 3a 9a 8c d2 3b
       -0.009691358 0.009092482 0.0018884256 0.0064254524
000080 0d 8b 61 bb 12 9b 14 bc 66 20 3a 3b bb 2e 18 bc
       -0.0034415156 -0.009070175 0.0028400659 -0.009288485
000090 83 af f7 3b c9 7d 15 3b 02 bf bb 3b 93 f0 2e 3b
       0.0075587644 0.002281057 0.005729557 0.0026693686
0000a0 5e f4 b2 3b 28 b4 4a bb 67 20 eb bb 96 75 3a ba
       0.0054612597 -0.0030930135 -0.0071754935 -0.00071128586
0000b0 af 49 cf bb 9a ea 9c bb ce 81 24 bc 73 e9 f0 3b
       -0.0063259224 -0.004788709 -0.0100407135 0.007352048
0000c0 48 ca df 3b 66 2b b4 3b 00 8c b2 3b 63 ed 1b 3c
       0.0068295337 0.0054983376 0.005448818 0.009517047
0000d0 b9 1a fb bb 78 9d 81 bb bb 38 bf 3a 9c f8 c6 bb
       -0.0076630977 -0.0039555393 0.001458905 -0.006072117
0000e0 3e 05 0a 3c 78 51 04 bc 9a a5 47 bb ca 72 c8 ba
       0.008424101 -0.008076064 -0.0030463696 -0.0015292999
0000f0 02 54 be bb 67 4e 14 bc 25 7e 09 3c d4 30 aa bb
       -0.0058083544 -0.009051896 0.008391892 -0.005193809
000100 75 5c fa bb 59 db af 3b a5 b4 26 bb 66 cd 8f 3b
       -0.0076404163 0.0053667245 -0.0025437262 0.004388499
000110 f1 f6 18 bc 8c 39 cb bb 95 0f e7 3b 29 54 01 3c
       -0.009336219 -0.0062019285 0.007051418 0.0078936005
000120 16 11 14 bc 4d 97 f7 3b a8 b1 1e bb eb fb fb 3b
       -0.009037277 0.0075558783 -0.0024214778 0.007689943
000130 37 78 12 3c cb 88 03 3c 4f c9 12 3c ba 30 d1 ba
       0.008939794 0.008028219 0.0089591285 -0.0015959956
000140 fa d9 c1 b9 fd b4 e2 3b d3 74 ce bb f1 78 7c 3a
       -0.00036974234 0.006918548 -0.0063005476 0.0009631059
000150 fd 68 dd 3b d8 a3 97 3b 39 10 ab 3b 9c 69 0e 3c
       0.0067569003 0.004627686 0.0052204398 0.008692171
000160 b5 76 0b 3c bf 23 1b 3c bd 38 08 bc 1e c4 d6 bb
       0.008512189 0.009468972 -0.008314309 -0.0065541407
000170 43 33 f1 bb cd d7 09 bc d4 53 45 3b 68 09 c8 bb
       -0.007360847 -0.008413267 0.003010978 -0.006104637
000180 ee 28 16 bc e5 c7 d1 ba 6c c7 7e 3b 2e 21 00 3c
       -0.009165032 -0.0016005008 0.003887619 0.007820411
000190 72 65 d3 3b 82 ed a6 3b 13 6e fe 3b 9d 19 0c 3c
       0.006451302 0.005094231 0.0077645867 0.008551029
0001a0 5d 3f 99 3b a6 fa d5 3b eb 9a 66 3b f6 82 d9 bb
       0.004676743 0.0065301238 0.0035187553 -0.006637926
0001b0 41 bf 31 37 fd b4 32 ba a3 5d 33 bb 27 c9 b7 bb
       1.0594552e-05 -0.00068171305 -0.0027369044 -0.005608696
0001c0 89 7d 04 3b 99 92 4c ba 5e 9f 1e bc 6a f2 ec 3b
       0.0020216426 -0.0007803827 -0.009681551 0.0072310464
0001d0 5f 0d 18 3b 00 85 1b bb 80 cd a0 ba 5c 1c 16 3a
       0.002320133 -0.0023730397 -0.0012268275 0.0005726272
0001e0 f3 2d ab ba 1e 07 ee 3b 35 89 f7 bb cd fc 1a bc
       -0.0013059959 0.007264032 -0.007554198 -0.009459686
0001f0 b7 94 fa ba f6 ba a1 bb 14 b9 3f 3a d1 00 ac 3b
       -0.0019117807 -0.0049356176 0.00073136506 0.0052491208
000200 ec ca 70 bb bb 23 00 bc a6 af 21 bc 7e 77 f7 bb
       -0.0036742045 -0.007821019 -0.009868538 -0.0075520864
000210 2d a6 e8 3b 9f 1f 02 3c 6d b4 06 bc ab 94 33 3b
       0.007099888 0.007942109 -0.008221728 0.0027401845
000220 39 41 06 bc 49 90 b1 bb a7 21 ac 3b d1 da 09 bc
       -0.008194261 -0.0054188115 0.005253035 -0.008413986
000230 60 a6 0a bc 95 c6 d5 39 11 9b ca bb 92 ec 92 ba
       -0.008462518 0.0004077448 -0.006183036 -0.001120942
000240 59 be 0f bc b8 31 0b 3c d7 b2 a4 bb 0f 09 de 3b
       -0.00877341 0.008495741 -0.005026202 0.006775982
000250 5e 36 12 3c 10 21 03 bc a8 ae aa 3b 85 77 8d bb
       0.008924095 -0.008003488 0.005208809 -0.0043172264
000260 3b 00 0f bc 2f cb 5f bb c3 da d7 bb ef 04 9d 3b
       -0.008728082 -0.0034148206 -0.0065873577 0.004791848
000270 6f ef 13 3b 93 c4 9a ba f9 55 ba 3b 5a ec 00 ba
       0.0022573133 -0.0011807851 0.0056865183 -0.00049180316
000280 97 bf 82 bb e3 a8 ed 3b d7 16 1c bc fa 44 1c 3c
       -0.0039901244 0.007252799 -0.00952693 0.00953793
000290 cc 04 ea bb 79 35 22 3c 38 df e1 3b d8 2c b9 3b
       -0.007141685 0.009900444 0.006893065 0.0056510977
0002a0 fc 69 f8 ba b9 70 1b bc eb cd 67 3b d1 e3 25 bc
       -0.0018952484 -0.009487324 0.003537054 -0.010125116
0002b0 fe 15 1f bc 1d 6b b0 3b 6c b8 28 3b 64 1c a9 3b
       -0.009709833 0.0053838626 0.002574469 0.005160855
0002c0 fd e8 e0 b8 08 04 e3 bb 4a bd 11 bc 27 88 07 bc
       -0.0001072455 -0.006927971 -0.008895228 -0.008272207
0002d0 61 25 20 bc a5 db 20 bc 0d 49 0e 3c 6c 5d 24 bc
       -0.009774537 -0.009817992 0.008684409 -0.010032039
0002e0 81 c0 35 bb 7a 53 38 bb a1 c7 b4 3b 94 7b f5 b8
       -0.002773315 -0.0028125928 0.0055169617 -0.000117055286
0002f0 0c 6d 14 bc f7 4c 1d bb 83 d3 a4 3b ad 72 1e bc
       -0.009059202 -0.0024002173 0.005030097 -0.0096708955
000300 ba 7f 1e 3c b7 ca 95 b9 90 e1 9a bb 9f 79 23 bc
       0.009674007 -0.0002857053 -0.004726596 -0.009977727
000310 35 0f bd bb ec 03 06 3c fa c8 d9 3b 07 0a 9d 3b
       -0.005769635 0.008179646 0.0066462727 0.004792455
000320 a1 ca 90 3b 5d 35 93 bb 39 df 3b bc 50 12 0e 3c
       0.0044186865 -0.0044924454 -0.011466795 0.008671358
000330 e3 ad 3c 3b a9 2b 11 3c 3f cd 25 39 f0 06 c0 bb
       0.0028790168 0.008860507 0.00015812086 -0.005860202
000340 d4 79 1e 3c 4f 89 f8 3b a4 00 14 bc b1 d8 ad 3b
       0.009672601 0.007584728 -0.009033356 0.0053053726
000350 5e 5e 1a bc b1 e6 27 bc 04 18 01 3c 6b 5c d5 bb
       -0.009421913 -0.010247872 0.007879261 -0.006511261
000360 e3 c0 16 ba 5a fd f8 3b a4 1e 06 bc 78 ba 59 bb
       -0.0005750788 0.0075985612 -0.008186016 -0.0033222716
000370 79 58 22 bc e1 85 b5 bb bc c5 13 3c 8f b5 1c 3c
       -0.009908789 -0.0055396412 0.0090193115 0.009564771
000380 ad a7 1e bc c2 12 f8 b9 bf c5 a7 ba 40 37 0b bc
       -0.009683532 -0.00047316222 -0.0012800022 -0.008497059
000390 40 fc 52 bb e7 dd 9b 3b cd c0 be bb 7b 3a d1 ba
       -0.003219381 0.0047566774 -0.0058213235 -0.0015962863
0003a0 82 4f 15 bc 62 50 b0 39 51 31 08 3b b8 c2 1a 3c
       -0.009113194 0.00033629226 0.0020781348 0.009445839
0003b0 e2 9f e4 3b a1 59 12 3b fd dc d2 bb 81 a3 eb 3b
       0.0069770673 0.0022331255 -0.0064350353 0.007191122
0003c0 b8 2a d1 bb fc 39 0a 3c 67 57 03 3c 10 dc 54 bb
       -0.0063832663 0.008436676 0.008016444 -0.00324798
0003d0 d7 60 07 bb 62 a2 1b bc 32 d1 69 bb 24 94 14 bc
       -0.0020657086 -0.009499164 -0.0035677669 -0.009068523
0003e0 14 49 cf bb 0e 11 d5 3b b1 95 46 3b 79 13 db bb
       -0.0063258503 0.006502277 0.0030301625 -0.006685671
0003f0 29 c0 a3 3a 1c c9 c9 3b 22 10 0f 3c e5 1f 02 3c
       0.0012493181 0.0061580073 0.008731874 0.007942175

network_body._body_endoder.seq_layers.2.weight f4 [256, 256]
000000 7d 3a 57 bd 52 bd 7c bd 6b f7 b5 3d 02 ed 2e bc
       -0.052546013 -0.061703987 0.08885082 -0.010676624
000010 70 4d 59 bd e5 12 32 3c 4b f6 30 3e 10 4e 02 bd
       -0.053052366 0.010868763 0.17281453 -0.031812727
000020 3d d9 c6 bc 0c eb cf 3d fa 91 ba 3d 3e d9 36 bd
       -0.02427351 0.101522535 0.09109874 -0.044640772
000030 14 16 31 3d 43 b9 24 3d e5 60 bd 3c b3 68 83 3c
       0.043233946 0.04021574 0.023117492 0.016041135
000040 d1 9a 10 3c 55 e5 41 bb a7 2e 6c 3c 58 8d ec 3d
       0.008825974 -0.0029586155 0.01441542 0.11550397
000050 c2 bb 12 3e 84 c5 35 3d 35 64 41 bd d8 f4 72 3d
       0.14329436 0.04437782 -0.047214705 0.059315532
000060 16 34 1f bd 76 ef 5e 3c 11 6a 76 3c 82 3c 84 bd
       -0.038868032 0.013606897 0.015039937 -0.064568534
000070 44 b5 4f 3c 8d f2 04 be 3f 9d de 3d 8a 75 65 3d
       0.012677494 -0.12983151 0.10869836 0.056020297
000080 4a 35 77 3d 6a 21 cf 3c e9 15 a8 3d 2f 35 09 3e
       0.060353555 0.025284488 0.08207304 0.13399194
000090 e3 01 dc 3d 13 7e fb 3c f3 1b a7 bd fa 59 12 3e
       0.10742547 0.030699765 -0.08159628 0.14292136
0000a0 38 f8 18 bc 59 40 d3 3c b0 cc 02 3e ec e3 32 bd
       -0.009336524 0.02578752 0.12773395 -0.043674394
0000b0 e3 2f f6 bd db 5f 2f 3d 7c 8d 95 bc 91 eb bc 3a
       -0.120208524 0.042816024 -0.018255942 0.0014413466
0000c0 0d 5c 85 3d f2 d9 9f 3c f1 6b 51 3d 9f 3c 50 bc
       0.06511698 0.019513104 0.05112833 -0.012709766
0000d0 c1 5e 1a bd 1d 24 d9 3c 77 9c 6a 3d 6c ba da 3d
       -0.03768802 0.026506478 0.057278123 0.106800884
0000e0 df 07 28 be be 67 a5 3c 40 e5 f0 3c a4 de a1 bd
       -0.16409253 0.02019107 0.02940619 -0.079037935
0000f0 dd 07 22 3d ff 89 36 3d 40 1f 1d be 61 82 0b 3e
       0.03955828 0.044565197 -0.15343952 0.13623954
000100 bb 20 9f bd 88 b3 b0 bd 43 6c d0 bc 14 ea 97 bc
       -0.07769915 -0.08627993 -0.025442248 -0.018544234
000110 1c 7f 3a bd f6 0c 99 bc f1 95 99 bd 4f 2a c4 3d
       -0.045531377 -0.018682938 -0.07499302 0.09578382
000120 38 7b 64 bd 6f 6f ef 3d 69 30 9e bd b7 ac 3b 3d
       -0.055781573 0.11691176 -0.07724077 0.04581901
000130 5d de af bb 23 8c 1f 3e 13 f9 a1 bc 0f 48 d8 bd
       -0.005367084 0.15580802 -0.019772088 -0.10560619
000140 f9 13 19 3e 65 1c f5 3c c7 09 9c bd 79 24 da bc
       0.14949025 0.029920766 -0.076190524 -0.02662872
000150 18 64 a6 bc 62 78 23 3d 84 91 ad 3a e8 a1 b6 3d
       -0.0203114 0.039909728 0.001324222 0.089176
000160 a4 e5 8a 3d 9b cc 0f 3c 13 c6 19 3d 5a 73 2e bd
       0.06782082 0.008776809 0.037542414 -0.042590477
000170 13 94 ba 3d 60 e2 4f 3d 7b 21 53 bd 49 73 3c bd
       0.09110274 0.050752997 -0.0515456 -0.046008382
000180 ef fd 15 bd 70 40 a1 3d 00 f7 0e 3d 72 2a 78 bb
       -0.036619123 0.078736186 0.034903526 -0.0037867096
000190 41 80 9a 3d eb dc 35 3d 3e bf 2b 3d 90 76 76 3d
       0.07543994 0.044400137 0.04193043 0.060171664
0001a0 ce d7 c4 bd 8b 72 4d 3d e9 ff b3 3c 8b e0 6f 3d
       -0.09611474 0.050158065 0.021972613 0.05856375
0001b0 fc ce fd 3c 32 23 52 bc 25 3e 9b bd a0 49 f9 3d
       0.030982487 -0.012825774 -0.075802125 0.12172246
0001c0 39 f4 0f 3e 18 f8 7b bd f3 87 14 bd 39 ad 76 bd
       0.14058007 -0.061515898 -0.036262464 -0.06022379
0001d0 23 77 13 bd 43 2e 8b bd 88 44 07 3d 6d f9 d4 bc
       -0.03600229 -0.06795933 0.03302434 -0.025997842
0001e0 07 6d cf 3d c0 93 f0 3d 3d fa 07 be ed 2a 0e 3c
       0.10128217 0.11746931 -0.13279052 0.0086772265
0001f0 3e ea 74 bd d3 d9 75 3d d6 bb a6 bd e5 db 6f 3c
       -0.059793703 0.060022186 -0.081412956 0.014639829
000200 70 8b 27 bc 0d c2 27 be 14 64 d6 bd b1 49 b4 3c
       -0.010226116 -0.16382618 -0.10468307 0.022007795
000210 3f f1 5b bb cc e8 f7 bc 54 80 ab bc d1 4c 34 be
       -0.0033560542 -0.030262373 -0.020935215 -0.17607428
000220 ee e1 dc 3c 08 86 c7 bc 47 24 8b bd 0f 24 0f 3c
       0.0269632 -0.024355903 -0.06794029 0.008736624
000230 5a 66 92 3c 7d 78 97 3d 90 f3 0c 3d 9e ea da bd
       0.01787107 0.07396028 0.034411967 -0.10689281
000240 6d cf 48 bd 3e 27 28 bd d1 44 aa 3c 82 e7 be 3c
       -0.04902594 -0.04105305 0.020784767 0.02330375
000250 13 bc 18 bd c2 b2 a0 3d e2 cd 1c bd 46 44 94 bd
       -0.037288737 0.07846595 -0.038282283 -0.072395846
000260 79 60 48 3c 8e 48 76 3c 07 47 ed bc ba fd bc 3c
       0.012230032 0.015031947 -0.028964533 0.023070205
000270 84 dd e2 bb 29 71 9f bc 87 1c 2b 3d 26 b2 7e bd
       -0.0069233794 -0.019463139 0.041775253 -0.062181614
000280 ee 16 df bd a4 8a 29 3d ce 02 59 3d 50 c7 5c 3c
       -0.10893045 0.041391984 0.05298119 0.013475254
000290 e9 7d 87 3c 37 1f 8a bb 69 73 19 3d b7 2d cb 3c
       0.01653953 -0.004215147 0.03746358 0.024802072
0002a0 47 4f ab 3b af 66 ce bc c9 15 02 3d 18 5d e4 3c
       0.0052279565 -0.025195448 0.031759057 0.027876422
0002b0 73 7c a4 bb 96 a5 07 3c c8 04 1a 3d 0e 9a 96 bc
       -0.0050197183 0.008279225 0.037602216 -0.018384006
0002c0 92 97 86 3c 8c 5d fd bd 8d d0 70 3c 78 47 fa bc
       0.016429696 -0.12371358 0.01469816 -0.030551657
0002d0 56 a8 d6 3b b0 77 10 3d 4f 8b a2 bc 3e 61 74 3d
       0.006550829 0.035270393 -0.019841818 0.05966305
0002e0 22 be 2c bd 7f f3 26 3e 69 76 2e 3d 5b 43 9c bc
       -0.042173512 0.16303824 0.042593393 -0.019075086
0002f0 8f 64 12 be 78 59 8d bd b0 df 0c bd 0e c2 6f bb
       -0.14296173 -0.069018304 -0.034393013 -0.0036584171
000300 6c 63 c5 3d 7f 21 1a 3c f8 4f 2e bb 5d 6f a1 bd
       0.09638104 0.0094074 -0.0026597958 -0.07882569
000310 64 70 d8 bc d1 77 9b bc 0f 0d e9 bb 14 5e 9d bd
       -0.02642078 -0.018978031 -0.0071121524 -0.076839596
000320 e0 3c 66 bd 53 b8 73 bd a2 2d 2f 3b c1 03 de 3d
       -0.0562104 -0.059501957 0.002673008 0.1084056
000330 3d fc f0 bb ed be df 3d 1d b7 69 bd c0 38 a2 3c
       -0.007354288 0.10925088 -0.057059396 0.019802451
000340 44 87 0d 3d 23 71 a3 bd 8f 33 e6 3c 58 23 f6 bc
       0.034552827 -0.079805635 0.028100757 -0.03004615
000350 e5 fb 5e 3d da 69 4e 3d 7b 23 61 3d 40 40 01 3d
       0.054439444 0.050393917 0.054965477 0.031555414
000360 16 94 1b 3c 8d 62 c9 3d ea 6e 8d bc 83 af d1 bb
       0.009495756 0.0983325 -0.017264802 -0.0063990965
000370 ce f4 15 3e 9f c1 96 bd 8e a2 36 bd 0c fd 58 bc
       0.14644167 -0.07361149 -0.044588618 -0.013243925
000380 1c 01 98 3c 09 c1 04 bc ac 3e 96 bd 6b 2a 21 3d
       0.018555216 -0.008102664 -0.073361725 0.039347094
000390 8c 42 0a bc 98 8a 3c bd d0 7d 00 bc ef 47 6b 3c
       -0.008438718 -0.04603061 -0.007842496 0.014360412
0003a0 73 0d 62 3d a2 af 3a 3d 6f 46 09 bd bf 11 c6 3c
       0.055188607 0.045577653 -0.033514436 0.024178384
0003b0 f1 c4 b9 bd 6b 36 c3 3c 21 15 82 3d 07 8a 04 bd
       -0.09070767 0.02382966 0.06351686 -0.032358196
0003c0 32 88 de bc 06 04 0e 3d 37 b8 4c 3c 5f 42 2f bd
       -0.027164552 0.034671806 0.012495092 -0.042787906
0003d0 3e 0c 1e bd e5 be 2b 3d 0e c2 0f bd 42 8a 44 3d
       -0.038585894 0.041930098 -0.035097174 0.047983415
0003e0 6b 56 ae bd 88 02 d4 3c aa ce 0b be e9 a5 fe 3d
       -0.08512577 0.025880113 -0.13653055 0.124339886
0003f0 48 e8 d0 bd c5 ff ea bd 6d 6f 38 3b c4 ce 1c bd
       -0.10200554 -0.114745654 0.0028142587 -0.038283125

network_body._body_endoder.seq_layers.4.bias f4 [256]
000000 ac 10 0c bc 58 b8 16 3c f5 d4 3c 3a d1 95 09 bc
       -0.008548897 0.009199224 0.0007203364 -0.008397535
000010 e7 e7 14 bc eb b7 0c b9 4d e1 12 bc 38 27 5b ba
       -0.009088493 -0.00013419955 -0.008964849 -0.0008360031
000020 53 02 c8 3a e3 72 8d bb 24 bd 5e 3b 37 c9 6a 3b
       0.0015259482 -0.004316674 0.0033987248 0.00358255
000030 d9 c1 13 3c 24 42 c4 3b 58 5b 0a bc 94 38 38 3b
       0.009018385 0.00598933 -0.00844463 0.0028109895
000040 ec a3 d6 3b bf 5e 13 3c a6 60 52 3b 8d 4c 29 bc
       0.0065503027 0.008994757 0.0032101064 -0.010333193
000050 3d c6 10 3c 0e 66 89 bb 3a c9 19 3c 60 4d 16 3c
       0.008836326 -0.004193074 0.009386355 0.009173721
000060 b9 d2 17 3c ab 4d 8c 3b 60 e1 67 3b 97 fc b1 bb
       0.009266549 0.0042817197 0.0035382137 -0.0054317224
000070 3f 27 89 ba 13 f6 16 3b 0c 1d 3d bb b3 00 dc bb
       -0.0010463967 0.0023034855 -0.0028856425 -0.0067139505
000080 77 5a 1d bc 9a 1c 1c 3c 3e 1d 13 3c 43 ff c0 bb
       -0.009604088 0.0095283035 0.00897914 -0.0058898046
000090 0f 57 f7 bb 42 8a 0d 3c 8c 1a ed bb 36 75 22 bc
       -0.00754822 0.00863892 -0.0072358306 -0.009915641
0000a0 e2 5a fd 3b 41 95 0a 3c 14 2b c5 3b 31 ad 16 bc
       0.0077317813 0.0084584365 0.006017098 -0.0091965655
0000b0 ac 4e 03 bc 2f 58 d7 3b fa 32 04 bc 83 d8 12 3b
       -0.008014362 0.0065717916 -0.008068794 0.0022406883
0000c0 96 b6 18 bc bc e2 87 3a 0b 70 f7 3b 73 af 09 bc
       -0.009320876 0.0010367255 0.0075511984 -0.008403647
0000d0 db bc 0e 3c 19 ba 84 bb 12 a9 19 3c 3e 1b 13 bc
       0.008712019 -0.004050505 0.009378688 -0.008978663
0000e0 bf 2a 22 bc 17 15 f5 bb eb e0 18 ba 3e a3 8d 3b
       -0.009897887 -0.0074793207 -0.0005831855 0.0043224385
0000f0 50 fe e5 bb d6 87 fe bb fb 45 10 3c ee 41 8f 3b
       -0.007018842 -0.0077676577 0.008805747 0.004371873
000100 ac ed 0f bc e7 24 0f bc d8 03 a1 bb 7c d0 0f 3c
       -0.008784693 -0.008736826 -0.0049137883 0.008777734
000110 1f 5f de ba 84 73 03 bc c2 cb 1d ba ea 77 0b bc
       -0.0016965604 -0.008023147 -0.0006019437 -0.008512476
000120 a6 d6 00 3c 1c 98 a8 3a 50 4a f5 3b 07 b3 e8 bb
       0.007863676 0.0012862715 0.0074856654 -0.00710142
000130 db 62 00 bc 90 49 d4 3b be c2 b0 bb 3a 7f a0 3b
       -0.007836069 0.006478496 -0.005394309 0.004897979
000140 b6 65 6b 3b 63 35 1d bb f2 04 fb bb 13 26 fd bb
       0.0035918779 -0.002398812 -0.0076605016 -0.007725486
000150 62 77 c7 bb 71 42 19 3c 1b fb 52 ba 29 d4 db 3a
       -0.0060872296 0.00935422 -0.0008048282 0.0016771603
000160 f4 09 bd bb 0f 4b 2b bb 20 7b 21 3b c3 c8 15 3c
       -0.005769009 -0.0026137268 0.0024640039 0.009142104
000170 d0 79 0c 3c 15 d3 02 bc 63 7d 19 3c a0 39 15 3c
       0.008573964 -0.007984896 0.009368273 0.009107977
000180 f8 a6 06 3c b8 ec 86 bb f5 f4 15 3c 30 42 00 bc
       0.008218519 -0.0041175745 0.009152641 -0.00782828
000190 53 37 07 3c 21 c1 ac bb f3 77 15 bc 62 b1 18 3c
       0.008252936 -0.005272046 -0.009122836 0.009319635
0001a0 c8 c8 30 3b f5 36 7e bb 15 8d 1a 3c a0 27 08 bc
       0.0026975144 -0.003879008 0.009433051 -0.008310229
0001b0 a2 01 19 3c dc 0c a3 bb 79 2c 17 bc 2c 0c 09 3c
       0.009338768 -0.004975898 -0.009226912 0.008364718
0001c0 02 57 07 bb 37 9c 17 3c b4 10 0a 3b f3 1e 09 bc
       -0.0020651226 0.009253553 0.0021067085 -0.008369195
0001d0 ea 7f 0f bc 24 82 0e bc 3b c6 bb bb 58 5e 1b bc
       -0.008758524 -0.00869802 -0.005730418 -0.0094829425
0001e0 d8 78 09 bc 6b 6e af 3b 76 b3 95 bb 91 b1 0a 3c
       -0.008390628 0.005353739 -0.0045685126 0.008465187
0001f0 cf 9c e1 bb e9 e7 e7 bb a6 7d ef bb 7a 78 b4 3b
       -0.006885148 -0.0070772064 -0.0073086796 0.005507526
000200 90 be fb 3b 3f 3c 04 3c 9e c7 d2 bb fa 11 ed bb
       0.007682629 0.008071004 -0.0064324876 -0.007234809
000210 04 b7 1a 3c 96 9d ac bb 01 9a 1c bc 0d 35 0d 3c
       0.009443048 -0.005267809 -0.009558202 0.008618605
000220 c1 81 4f bb 99 df 02 3c be 47 2b b9 2e ed ff ba
       -0.0031663033 0.00798788 -0.00016334557 -0.0019525641
000230 1a 95 cb ba 7e b7 49 3b de 0a 12 3c d3 42 02 3c
       -0.0015532107 0.0030779536 0.008913724 0.007950502
000240 d1 c0 04 bc 38 bd 19 bc 2c e0 8f bb 98 33 ac 3b
       -0.008102612 -0.009383492 -0.004390737 0.005255174
000250 bd 98 a2 3b e6 0d 00 bc c3 cd b9 3b c7 fc 2c bb
       0.0049620555 -0.007815814 0.0056702807 -0.0026395784
000260 09 51 9a bb 12 a0 13 3c 42 58 d7 3b 8b 20 ff bb
       -0.004709367 0.009010332 0.0065718004 -0.007785862
000270 06 14 0e 3c a6 d1 1d 3c 8c 87 d3 3b c8 76 bf 3b
       0.008671766 0.009632504 0.0064553674 0.0058430173
000280 8a ec 4a 3b 47 f8 15 bc 28 5f 1b 3c cf dc 6f 3b
       0.0030963742 -0.009153432 0.009483136 0.0036600118
000290 ea 5e 00 3c 80 31 13 3c fc ae d5 bb ab 2d 10 3c
       0.007835129 0.00898397 -0.006521104 0.008799951
0002a0 da 0e d3 bb e6 a6 a0 bb 22 e4 91 3b 62 fd 23 bc
       -0.0064409794 -0.0049027083 0.0044522444 -0.010009142
0002b0 86 a6 f3 3b dd bf 13 bc 83 10 fd 3b f9 f0 c0 39
       0.0074356226 -0.009017912 0.0077229156 0.00036800632
0002c0 a9 5d ca 3b 57 a5 04 bc ac da 09 3b a8 24 1c 3c
       0.006175716 -0.008096061 0.002103488 0.009530224
0002d0 2d 60 18 3c 7a db e7 b8 9c 99 16 3c 0d d2 18 3c
       0.009300274 -0.00011055819 0.009191897 0.009327424
0002e0 52 80 f3 ba 63 17 1d 3c 73 62 c4 bb 1b f4 08 3c
       -0.0018577671 0.009588095 -0.0059931814 0.0083589805
0002f0 59 a9 0c 3c 8d 48 ee 3b 79 0a e3 bb a1 7b d1 3b
       0.0085852975 0.0072718323 -0.0069287387 0.0063929115
000300 c0 d9 eb 3b c2 ba 00 bc 0f e8 d9 3b 72 13 c6 b9
       0.0071975887 -0.0078570265 0.006649978 -0.0003777999
000310 d3 44 0c bc 18 9c 20 bc 66 a4 d6 bb 81 b9 c8 3b
       -0.008561331 -0.009802841 -0.0065503595 0.0061256294
000320 53 26 6b 3b 4e 95 7f 3b 98 a4 07 bc 8a 79 27 3b
       0.0035880997 0.0038998905 -0.008278988 0.002555462
000330 47 77 19 3c 5a 11 de bb a6 80 13 3c c1 5f 0a bc
       0.009366817 -0.006776971 0.00900284 -0.008445681
000340 8b 18 15 bc 15 0e b3 bb 4b 91 7f 3b 3a c8 59 bb
       -0.00910009 -0.005464325 0.0038996513 -0.0033230917
000350 b3 ba ab 3b 28 d9 90 3b d2 a6 39 bb d6 ba 1a 3c
       0.005240762 0.0044204183 -0.0028328192 0.009443959
000360 c6 54 2b bb 61 5f 19 3c e8 9b f0 bb 6a 6a 9c ba
       -0.0026143058 0.009361119 -0.007342804 -0.0011933569
000370 1e 07 8d 3b 96 c3 03 3c b5 3a c1 3b 5a 34 f0 3b
       0.004303827 0.008042237 0.005896891 0.0073304595
000380 a7 33 aa bb 68 f9 17 bb e0 6d 0b bc 43 3c 13 bc
       -0.0051941457 -0.002318943 -0.008510083 -0.0089865355
000390 16 f5 15 3c 89 bb 08 3c da 9e 1d bc d7 b3 e5 bb
       0.009152671 0.008345493 -0.009620393 -0.007009964
0003a0 57 13 ff 3b 0f db e3 bb fa 57 84 ba df 88 07 bc
       0.007784288 -0.006953604 -0.001009702 -0.008272379
0003b0 10 d7 04 3c 25 87 1b bc 35 1b 1a 3c 2a e7 10 bc
       0.0081079155 -0.00949267 0.009405901 -0.008844176
0003c0 b8 cf db bb 19 a5 14 bc 1e 80 68 b9 9d e7 c9 bb
       -0.0067081116 -0.0090725655 -0.00022172972 -0.0061616437
0003d0 4b 83 fd 39 36 ea 52 3b 83 4e 61 bb 0b 44 ad ba
       0.0004835374 0.0032183058 -0.0034379072 -0.0013219131
0003e0 02 4d f0 3b 43 4a b6 bb eb 4c 14 bc eb dc a5 bb
       0.007333399 -0.005563052 -0.009051542 -0.005061736
0003f0 ba 36 1e bb 1e 3d 35 bb d4 65 48 bb 2c 4e 7b 3b
       -0.0024141506 -0.0027654837 -0.0030578272 0.0038346155
