Assets/Training/results/track1_1/config_track1/config_track1-50967.onnx (onnx, 601409 bytes, 9 tensors)

action_model._continuous_distribution.log_sigma f4 [1, 2]
-0.0051076785 -0.013504837
00000000: 505e a7bb 6443 5dbc

action_model._continuous_distribution.mu.bias f4 [2]
0.00064873224 -8.6805805e-05
00000000: af0f 2a3a 830b b6b8

action_model._continuous_distribution.mu.weight f4 [2, 256]
0.029840074 -0.019045705 -0.012790491 0.0079211015 -0.0058246963 -0.008372151 -0.0071705687 0.008475495
-0.006048235 -0.0012678559 0.009392158 0.01736816 0.014182966 0.0065376256 0.0024045515 -0.005840804
-0.00036021607 -0.0048782034 0.013756174 0.009446832 0.0037149957 -0.001855951 0.008779401 0.030318037
-0.00023621223 -0.0088863885 -0.019990643 0.009384607 -0.020108249 0.009526854 -0.0062642107 -0.01731481
-0.011998356 0.008644941 -0.019488996 0.01164193 0.012180065 0.0057130405 -0.0005086256 -0.0024258776
-0.00593349 0.0035957906 0.0029504576 0.002714826 -0.009642286 -0.010717379 0.00043417473 0.025082685
-0.009906135 0.017792081 -0.004845111 -0.003486 0.010126508 -0.008618018 -0.0049974043 0.006386968
0.0152788805 0.0070876684 0.018139912 -0.004085714 0.002455546 -0.0064851684 -0.02392993 -0.009370315
-0.005531237 -0.00025533632 -0.0026503054 0.022063425 -0.008753951 -0.010588901 0.00025119836 -0.018565213
0.0082727885 -0.007470467 -0.0072515993 0.0038229795 0.0010628416 -0.00023204366 0.006375054 0.02021499
0.0072290506 0.024973135 0.012456423 0.004414778 -0.011950761 0.010287092 -0.01686229 0.019329993
0.0118292505 -0.011848445 -0.010971382 -0.015577239 -0.0038157403 0.006935953 -0.00059013214 0.012502815
0.022948982 0.02864861 0.012344894 -0.0017987059 -0.02716013 0.00035503617 0.013435702 -0.004247756
-0.0049456256 0.011481701 0.00975234 -0.019318055 -0.007310514 -0.0051666107 0.008078522 0.0068274853
-0.006121724 -0.011411292 0.0033691505 -0.023969518 -0.0076689036 0.017519688 0.01595796 -0.017421346
0.0040710755 -0.003809259 0.009877286 -0.024326906 0.010149343 0.004076185 0.0026788618 -0.008460371
0.004259264 0.0014392298 -0.008748784 0.00704301 -0.019567112 0.0069282474 -0.006990073 -0.0006001265
0.014732832 -0.00070718443 0.012436939 -0.012123926 0.018239247 -0.005697028 0.0073905415 -0.02328156
0.009905287 0.0023119198 -0.005767804 -0.009014103 0.017665155 -0.0023396737 0.00046828628 -0.0027830265
-0.00039240666 0.008170816 0.008333073 0.012244338 -0.002443374 -0.012566171 -0.0026169536 0.023822937
-0.005707542 0.018395666 -0.011472296 -0.011166024 0.005383342 0.015091098 -0.00824577 -0.026847415
0.000616127 -0.0019399767 -0.0057573873 0.009554155 4.564032e-05 0.008357446 -0.016645754 0.012602827
-0.010454819 0.0040427074 0.007154017 -0.02286558 -0.0019256584 0.008904259 -0.015496042 -0.0017677335
-0.014450451 0.018919166 0.009231483 -0.008793897 -0.023082778 0.0032656267 0.014179852 -0.0076921405
-0.005679996 0.007862675 0.0018811164 -0.00715945 -0.021069834 -0.023317378 -0.009485203 -0.005411048
0.021834252 -0.0067307507 0.017140528 -0.00641315 -0.0031542138 0.014446312 0.010127141 -0.003659706
-0.012929229 0.009757947 -0.009014333 0.00019537941 0.012006283 0.0054347147 0.004328125 -0.0018658984
0.008927051 -0.0024754736 -0.0061524976 -0.0032734352 -0.0112185385 0.020173937 0.004616756 -0.0018438158
-0.024156166 -0.006699736 0.017350798 0.019185714 -0.0061151185 0.020233762 0.023104008 -0.015362227
-0.008507974 -0.015359714 -0.011501223 -0.011716831 -0.003423166 0.0075842096 0.0040720673 -0.01617426
0.008193939 -0.0033382187 -0.006171467 0.02370399 -0.00874567 0.010396 -0.0050652693 -0.004365288
0.029469168 -0.005249702 -0.013381442 -0.01658863 0.0005597802 0.0028802718 0.018181516 0.010795828
00000000: 2c73 f43c bd05 9cbc 358f 51bc 82c7 013c
00000010: 18dd bebb 592b 09bc 17f7 eabb cddc 0a3c
00000020: 4630 c6bb 2f2e a6ba 91e1 193c ac47 8e3c
00000030: ac5f 683c 9439 d63b ae95 1d3b 3764 bfbb
00000040: 62db bcb9 56d9 9fbb 9361 613c e3c6 1a3c
00000050: 4977 733b 6243 f3ba 7ad7 0f3c 885d f83c
00000060: bdaf 77b9 3798 11bc 6bc3 a3bc e5c1 193c
00000070: 0eba a4bc 8616 1c3c 0244 cdbb cad7 8dbc
00000080: c194 44bc 83a3 0d3c 63a7 9fbc cbbd 3e3c
00000090: e58e 473c 7534 bb3b 4955 05ba 79fb 1ebb
000000a0: b96d c2bb 5ba7 6b3b 775c 413b 39eb 313b
000000b0: aefa 1dbc f297 2fbc f2a1 e339 347a cd3c
000000c0: 574d 22bc b3c0 913c bdc3 9ebb 6075 64bb
000000d0: a7e9 253c 9632 0dbc 44c1 a3bb c549 d13b
000000e0: 4554 7a3c ac3f e83b 279a 943c 74e1 85bb
000000f0: 3aed 203b 8981 d4bb b308 c4bc f385 19bc
00000100: 613f b5bb a9de 85b9 bfb0 2dbb 5bbe b43c
00000110: bb6c 0fbc 127d 2dbc 46b3 8339 1316 98bc
00000120: 978a 073c d2ca f4bb d39e edbb f48a 7a3b
00000130: 0c4f 8b3a bf50 73b9 d4e5 d03b e899 a53c
00000140: ace1 ec3b 7694 cc3c 0616 4c3c d8a9 903b
00000150: 20cd 43bc 318b 283c c922 8abc ef59 9e3c
00000160: 79cf 413c fb1f 42bc 50c1 33bc ad37 7fbc
00000170: 8011 7abb fe46 e33b 19b3 1aba 9bd8 4c3c
00000180: 81ff bb3c 7db0 ea3c 3d42 4a3c 8ec2 ebba
00000190: ec7e debc 2624 ba39 6b21 5c3c c330 8bbb
000001a0: ea0e a2bb bf1d 3c3c 47c8 1f3c e640 9ebc
000001b0: 098d efbb ac4c a9bb c75b 043c 19b9 df3b
000001c0: be98 c8bb 6df6 3abc f7cc 5c3b b95b c4bc
000001d0: 6d4b fbbb 7385 8f3c 45ba 823c 36b7 8ebc
000001e0: a866 853b c3a4 79bb 57d4 213c 3849 c7bc
000001f0: 6e49 263c 8591 853b d88f 2f3b 5e9d 0abc
00000200: 4c91 8b3b 8aa4 bc3a 0f57 0fbc 0dc9 e63b
00000210: 354b a0bc 5a06 e33b fb0c e5bb cf51 1dba
00000220: fa61 713c 5862 39ba 4ec4 4b3c 6ea3 46bc
00000230: 796a 953c 22ae babb 5b2c f23b f8b8 bebc
00000240: c949 223c 9483 173b d9ff bcbb e3af 13bc
00000250: 84b6 903c 3655 19bb 5284 f539 7063 36bb
00000260: eebb cdb9 e3de 053c 7187 083c 7a9c 483c
00000270: 0321 20bb 57e2 4dbc 3281 2bbb 5228 c33c
00000280: 5506 bbbb 82b2 963c 4cf6 3bbc b3f1 36bc
00000290: bf66 b03b a740 773c 4419 07bc 1cef dbbc
000002a0: 9583 213a d146 feba 77a8 bcbb 0889 1c3c
000002b0: ec6d 3f38 abed 083c ad5c 88bc 167c 4e3c
000002c0: b04a 2bbc b078 843b 3f6c ea3b 9950 bbbc
000002d0: 6066 fcba 2be3 113c 1ce3 7dbc 4bb3 e7ba
000002e0: 96c1 6cbc 5efc 9a3c a53f 173c 4714 10bc
000002f0: 1818 bdbc 2004 563b 9c52 683c 5a0e fcbb
00000300: 431f babb 73d2 003c cb8f f63a d299 eabb
00000310: a59a acbc 1604 bfbc d367 1bbc 294f b1bb
00000320: bfdd b23c a18d dcbb 4b6a 8c3c 6725 d2bb
00000330: edb6 4ebb 39b0 6c3c 4fec 253c aed7 6fbb
00000340: 1ed5 53bc ccdf 1f3c dab0 13bc c3de 4c39
00000350: 00b6 443c b115 b23b f2d2 8d3b 2991 f4ba
00000360: c442 123c 8e3b 22bb e49a c9bb 2187 56bb
00000370: f6cd 37bc d043 a53c 2848 973b 31ac f1ba
00000380: 27e3 c5bc 7689 dbbb 4323 8e3c 5c2b 9d3c
00000390: 5561 c8bb 46c1 a53c 9e44 bd3c dab1 7bbc
000003a0: 0865 0bbc 4fa7 7bbc a06f 3cbc f3f7 3fbc
000003b0: 3257 60bb f684 f83b fa6e 853b e27f 84bc
000003c0: df3f 063c 04c6 5abb 043a cabb df2e c23c
000003d0: 004a 0fbc fc53 2a3c 8ffa a5bb b10a 8fbb
000003e0: 5369 f13c b105 acbb d63d 5bbc e1e4 87bc
000003f0: 37be 123a f1c2 3c3b 67f1 943c fce0 303c

network_body._body_endoder.seq_layers.0.bias f4 [256]
-0.00052926585 -0.00039865845 3.063127e-05 -0.0020750356 -0.0020828075 -0.000106234955 -7.1102564e-05 -0.0028248832
0.0014397696 -0.00069936825 -0.0039799367 -8.812447e-06 -0.00124377 0.0002015943 -0.0012407487 -0.00050447276
0.00046445293 -0.0011391945 -0.0015877486 0.0013445287 0.001853436 0.00034016155 -0.00060659216 0.00018096759
0.0002798151 0.00036178392 -0.00020757278 -0.0023588894 -0.000866057 -3.400668e-05 -0.00082541193 -0.00012207872
0.0013247015 -7.760569e-05 -0.0010617864 -8.522777e-05 -9.843347e-05 -0.00043538446 -0.0009578116 -0.0025225312
-0.0003519686 -0.0046910415 -0.0011809996 9.3130766e-05 -0.00040032231 -0.00051262724 0.0004702395 -0.0015509311
-0.00021868829 0.000119267366 -0.0007254819 -0.00022767142 -0.0016430513 -0.00074693037 -0.0006488946 -0.0014172345
0.0008014904 -0.0006291994 -3.6974157e-05 -0.00048982917 -0.00014172989 -0.0014620393 0.00039694252 0.006730372
0.0044420925 -0.00057674915 8.621987e-05 -0.00014098523 -0.0037533063 0.0008185327 -0.00045776356 -9.1488455e-06
-0.00032894817 3.092541e-05 0.0023298352 0.0010605819 -0.00017754115 -0.0020986276 -0.0016819031 1.1919776e-05
-0.00022656155 -0.00011220189 -0.0007146313 -0.0005969017 0.0028298474 -0.00010318626 -0.0027114113 -0.0023907062
-0.00033934743 -0.00038597564 0.0033333444 -0.0007802401 -0.00057629205 0.00070316123 -0.001993115 0.000649875
-0.0012949731 0.00043952008 -0.0004170533 -0.000350313 0.0006019665 -6.9150934e-05 -0.0012078675 -0.002492378
-0.00029124945 0.0002390732 0.00015866829 -0.0010419122 -0.0005450263 -0.002421774 0.001144611 0.0003484543
-0.00012154876 0.0024775336 0.00044204373 0.002317278 0.0010728088 -0.001303425 -0.00074817654 0.0002610839
-0.00092303817 0.0017555299 0.00045127867 -0.0006978942 0.00052172673 -0.0004941525 -0.00027541196 -0.0024023862
0.0020071713 -0.000686797 0.0002755054 0.0006695133 0.00010850064 -0.0020650723 0.0001650811 -0.00020982562
-0.0004884873 0.003095879 -0.00301329 0.00030901248 -0.00010421077 -0.00024363775 -0.0021815675 -0.001209608
-0.0020579936 -0.00017043401 -7.903957e-05 0.001031872 -0.00020226624 -0.00045748852 0.0010470044 -0.00057682156
-0.0005009542 -0.00048507628 -0.00087785564 0.00025611505 0.003221883 -3.518104e-05 -0.0010345108 0.0001989831
-0.0009063909 -0.0012574466 0.00082623336 -2.6810012e-06 0.00031304528 -0.00040253074 -0.0026362885 0.0009513263
0.0004180699 -0.00017326562 0.00068698067 0.0016401965 0.00013110705 -0.0004268622 -0.00019983161 0.0015301674
0.00021812151 -0.0011857516 -0.001127685 -0.0028982877 -0.00030359472 -0.00041641147 0.00075512106 0.0017673557
-0.0005231276 -0.00085878954 -0.0012213391 7.815095e-05 -0.0008062051 -0.00019141464 -0.0017307316 0.0010677424
-0.00012924806 -4.418524e-05 0.0019344423 -0.00016324106 -0.000318645 0.00028477705 0.0001251143 -0.0002915077
-0.00073996437 0.0010212377 0.0010220441 -0.00013633037 -0.0007131586 0.0018982155 -0.00025256063 -0.0014820806
-0.0032060037 0.0017175961 0.0015444697 -0.00031713204 -8.371987e-05 -0.001048113 0.0012687688 -6.3270185e-05
-0.00046471323 0.0010436785 -0.0027380537 -4.532418e-05 -2.7527723e-05 -0.00035574625 0.0014047112 0.0008231549
-0.0010281862 -9.697879e-05 4.8899958e-05 -0.0012217916 -0.00010884682 -0.0035373277 -7.322327e-05 0.0027977282
0.0053458856 -0.001274634 0.0045470046 -0.0027467522 -0.0018033145 -0.0023919528 -0.00015316128 -0.00024317447
-0.00071002636 -0.0038179066 -0.0036406114 -0.00077618 -0.0027161562 -0.00032141496 -0.00070177874 0.00042415733
-0.0020083147 -0.00024036248 -0.00035711698 -1.538272e-05 -0.0014853268 5.5662593e-05 -0.0044665923 -0.00022596311
00000000: 6ebe 0aba 0803 d1b9 137a 0038 52fd 07bb
00000010: b67f 08bb 75ca deb8 e61c 95b8 ad21 39bb
00000020: a7b6 bc3a cf55 37ba 216a 82bb 2cd9 13b7
00000030: ff05 a3ba 0f63 5339 9ea0 a2ba 983e 04ba
00000040: d181 f339 0651 95ba 011c d0ba e63a b03a
00000050: feee f23a b657 b239 b603 1fba 1ec2 3d39
00000060: 26b4 9239 d1ad bd39 e5a7 59b9 9997 1abb
00000070: 1a08 63ba 65a2 0eb8 7560 58ba 4202 00b9
00000080: 9ba1 ad3a 3dc0 a2b8 a42b 8bba 50bc b2b8
00000090: 116e ceb8 5044 e4b9 a615 7bba 0d51 25bb
000000a0: 6d88 b8b9 4fb7 99bb c5cb 9aba 334f c338
000000b0: 5ae2 d1b9 d561 06ba 7a8a f639 9d48 cbba
000000c0: b14f 65b9 2e1f fa38 442e 3eba 15bb 6eb9
000000d0: a75b d7ba a6cd 43ba 941a 2aba 80c2 b9ba
000000e0: 1c1b 523a dbf0 24ba b314 1bb8 e167 00ba
000000f0: 549d 14b9 e6a1 bfba b91c d039 748a dc3b
00000100: f98e 913b fb30 17ba f1d0 b438 6fd5 13b9
00000110: 08fa 75bb cd92 563a fcff efb9 fe7d 19b7
00000120: ad76 acb9 e8b5 0138 26b0 183b 3903 8b3a
00000130: 572a 3ab9 2189 09bb 4e73 dcba 0cfb 4737
00000140: 2791 6db9 ee4d ebb8 1856 3bba 6579 1cba
00000150: f674 393b b465 d8b8 efb1 31bb 65ad 1cbb
00000160: 71ea b1b9 c65c cab9 3d74 5a3b 0789 4cba
00000170: 4e12 17ba 5a54 383a ec9e 02bb 5f5c 2a3a
00000180: 16bc a9ba 636f e639 f2a7 dab9 37aa b7b9
00000190: 4acd 1d3a 2005 91b8 4f51 9eba 2a57 23bb
000001a0: d7b2 98b9 b9af 7a39 3260 2639 c690 88ba
000001b0: 19e0 0eba a0b6 1ebb c606 963a bfb0 b639
000001c0: fee7 feb8 1e5e 223b 1bc2 e739 79dd 173b
000001d0: 7d9d 8c3a afd7 aaba 4721 44ba 16e2 8839
000001e0: 0bf8 71ba cf19 e63a 9999 ec39 e3f2 36ba
000001f0: 7dc4 083a 038a 01ba 2b65 90b9 5a71 1dbb
00000200: bf8a 033b 2b0a 34ba b571 9039 4782 2f3a
00000210: d68a e338 2a56 07bb 9f19 2d39 a304 5cb9
00000220: d40d 00ba 3be4 4a3b 9e7a 45bb f402 a239
00000230: bb8b dab8 0379 7fb9 a1f8 0ebb b68b 9eba
00000240: 67df 06bb 88b6 32b9 0cc2 a5b8 e13f 873a
00000250: 6e17 54b9 12db efb9 a33b 893a d735 17ba
00000260: 7852 03ba d651 feb9 e51f 66ba 2e47 8639
00000270: 3a26 533b 5b8f 13b8 6c98 87ba 1fa6 5039
00000280: dd9a 6dba e8d0 a4ba 9597 583a 40eb 33b6
00000290: 3a20 a439 c30a d3b9 95c5 2cbb 6d62 793a
000002a0: 6430 db39 a3ae 35b9 7e16 343a ddfb d63a
000002b0: c879 0939 7acc dfb9 e489 51b9 e68f c83a
000002c0: 8cb7 6439 396b 9bba d4ce 93ba 33f1 3dbb
000002d0: cb2b 9fb9 cd51 dab9 51f3 453a 9ea6 e73a
000002e0: 8022 09ba 6420 61ba 5715 a0ba f9e4 a338
000002f0: 8257 53ba 7ab6 48b9 b7d9 e2ba 7df3 8b3a
00000300: c386 07b9 8a53 39b8 1d8d fd3a b02b 2bb9
00000310: cf0f a7b9 214e 9539 1d31 0339 80d5 98b9
00000320: 2bfa 41ba 0ddb 853a 1cf6 853a e8f3 0eb9
00000330: 43f3 3aba 8bcd f83a 1d6a 84b9 5f42 c2ba
00000340: d11b 52bb f620 e13a ce6f ca3a be44 a6b9
00000350: c392 afb8 d660 89ba d14c a63a ecaf 84b8
00000360: c1a4 f3b9 0acc 883a eb70 33bb 781a 3eb8
00000370: 56eb e6b7 7483 bab9 491e b83a fec8 573a
00000380: 34c4 86ba 1761 cbb8 ee19 4d38 8624 a0ba
00000390: b144 e4b8 83d2 67bb 728f 99b8 175a 373b
000003a0: 8a2c af3b 9f11 a7ba 0aff 943b db02 34bb
000003b0: 325d ecba 4fc2 1cbb eb99 20b9 a6fc 7eb9
000003c0: 1021 3aba d835 7abb 5397 6ebb 8f78 4bba
000003d0: 8a01 32bb 9683 a8b9 93f7 37ba 6f61 de39
000003e0: ee9d 03bb d009 7cb9 6e3b bbb9 240a 81b7
000003f0: 4caf c2ba 4177 6938 7e5c 92bb 83f0 6cb9

network_body._body_endoder.seq_layers.0.weight f4 [256, 68]
-0.017650468 0.014774714 0.17484614 0.010623814 -0.142785 0.008266401 -0.1368389 0.18220489
0.050479963 0.09701027 -0.01470863 0.14953479 -0.1361942 0.16152419 0.09102627 -0.16769923
0.11375075 -0.059149988 0.22783789 0.0041357363 -0.041272298 0.0035139022 -0.13695069 0.0749417
0.049848035 0.009249035 -0.07031825 0.0057856874 -0.06377409 0.018159257 -0.09601844 -0.12210185
0.12434939 -0.03408231 0.02182766 -0.20023309 0.17277609 -0.0103054335 -0.041856248 -0.03349075
-0.044982933 0.09132478 -0.024533127 -0.07561043 0.07570396 -0.080656596 -0.21044782 -0.12172602
-0.06906897 -0.35371554 0.18073043 0.033939004 0.34620655 -0.17647982 0.3760929 0.10231601
-0.088204116 -0.15124656 -0.15123111 0.124966875 0.010269396 0.15333267 0.089910604 0.12382025
0.20561954 -0.027014997 -0.051611718 -0.098312095 0.12681998 0.021573376 -0.079983704 -0.18838593
0.15029405 0.10784072 -0.070522696 -0.090788126 -0.16661651 0.06918829 -0.012213519 -0.044694975
-0.15600134 -0.095890045 0.14648627 -0.058996063 0.123642795 0.053909622 0.09743873 0.037779856
-0.02520876 -0.22480331 -0.035911813 -0.052292075 0.00038184444 0.10983828 0.018229352 -0.049397483
0.05418245 -0.12235605 -0.0792801 -0.08401149 -0.092139594 0.0804308 0.09578122 0.038190283
0.15765375 0.08406867 0.046069004 0.15967262 0.2292015 0.072701864 -0.059861626 -0.09086857
-0.123903364 -0.19766818 0.16223408 -0.05921542 -0.16175406 -0.034217555 -0.16516158 0.12382865
-0.023944007 -0.015085221 0.13100551 0.14235744 -0.06474725 -0.21224731 -0.09614041 -0.14293167
-0.065493554 -0.031180924 -0.06285688 0.18464224 0.015669933 0.09078551 0.03750826 -0.05154522
-0.12360325 0.105363525 0.00822169 0.19935879 -0.16689172 -0.1675137 0.2004801 0.11502886
-0.08276815 0.07079189 -0.14558788 -0.11857547 0.09484707 0.033922475 -0.023794584 -0.058729
-0.120634876 0.02257928 -0.14727528 0.015749656 0.14313178 0.12894532 0.07936123 -0.039033085
-0.04741144 -0.011034985 0.11854037 -0.06526727 0.047499035 -0.028644085 0.15445042 0.13639514
0.055792592 -0.03548477 -0.051619258 -0.058963627 0.1347637 -0.059933055 -0.03930784 0.16643333
-0.07840757 -0.1860636 0.00022614552 -0.10554517 -0.30928594 -0.12658249 -0.032321516 -0.066961415
-0.023856958 0.07564831 -0.10213031 0.05641 -0.22664525 0.2913227 0.010331731 -0.05347639
0.06890383 -0.14064424 -0.2390973 0.13081138 -0.18143885 0.024512524 0.24530217 0.02012416
0.2585374 0.11766289 0.027482208 -0.05584188 0.008263569 0.05144203 0.017182408 -0.010815458
-0.002024631 -0.06931947 -0.009886346 0.15237577 -0.06093937 -0.219413 0.15221135 0.06941563
-0.06533445 -0.060823232 -0.15494214 -0.04377856 -0.23818518 -0.15526456 -0.17375119 0.16130619
-0.092081286 -0.05186686 0.035854887 -0.039238445 -0.17546782 0.1928756 0.36899137 -0.14081967
0.16195868 -0.068605535 0.09330764 -0.34037998 0.15171513 -0.022034952 -0.0071977396 0.09488206
0.10634529 -0.003171145 -0.059167296 0.0889084 -0.108047456 0.10092955 -0.11006135 0.014772124
0.32044747 0.08315704 0.00845751 0.11740026 -0.09036955 0.0034941374 -0.23205176 0.0066167014
00000000: b797 90bc a411 723c de0a 333e 810f 2e3c
00000010: 3b36 12be cc6f 073c 7f1f 0cbe eb93 3a3e
00000020: 14c4 4e3d 52ad c63d 77fc 70bc a61f 193e
00000030: 7e76 0bbe 9966 253e fb6b ba3d 59b9 2bbe
00000040: 27f6 e83d 4247 72bd 564e 693e 1285 873b
00000050: 240d 29bd 7f49 663b cd3c 0cbe 097b 993d
00000060: 742d 4c3d 4489 173c 0403 90bd dd95 bd3b
00000070: fd9b 82bd b9c2 943c 51a5 c4bd 8910 fabd
00000080: e5aa fe3d e499 0bbd eccf b23c e709 4dbe
00000090: 37ec 303e 1fd8 28bc 7571 2bbd 992d 09bd
000000a0: 0640 38bd 7c08 bb3d b2f9 c8bc a4d9 9abd
000000b0: ae0a 9b3d 492f a5bd a27f 57be 7e4b f9bd
000000c0: 0874 8dbd 341a b5be 6611 393e a003 0b3d
000000d0: fc41 b13e 20b7 34be 408f c03e 0e8b d13d
000000e0: 5ca4 b4bd 61e0 1abe 54dc 1abe a2ee ff3d
000000f0: f840 283c 3d03 1d3e 0d23 b83d 7995 fd3d
00000100: ee8d 523e 8e4e ddbc cf66 53bd da57 c9bd
00000110: 19dd 013e a6ba b03c 7fce a3bd 3ee8 40be
00000120: afe6 193e 98db dc3d 346e 90bd 20ef b9bd
00000130: 859d 2abe 97b2 8d3d 361b 48bc 1412 37bd
00000140: d1be 1fbe 0062 c4bd 7f00 163e dba5 71bd
00000150: 6f38 fd3d 56d0 5c3d f58d c73d 0dbf 1a3d
00000160: 9a82 cebc d732 66be 4418 13bd 3730 56bd
00000170: 4b32 c839 e4f2 e03d b955 953c 0455 4abd
00000180: 6bee 5d3d cf95 fabd 9b5d a2bd 370e acbd
00000190: afb3 bcbd e7b8 a43d f228 c43d 6a6d 1c3d
000001a0: fc6f 213e 322c ac3d dab2 3c3d 3881 233e
000001b0: ccb3 6a3e b7e4 943d 7731 75bd 4d19 babd
000001c0: 0cc1 fdbd 8769 4abe b120 263e de8b 72bd
000001d0: dba2 25be b527 0cbd 1e20 29be e099 fd3d
000001e0: 3926 c4bc 0128 77bc 4f26 063e 26c6 113e
000001f0: 359a 84bd 5c57 59be 43e5 c4bd ae5c 12be
00000200: 7c21 86bd 236f ffbc 1cbb 80bd db12 3d3e
00000210: 3b5e 803c c1ed b93d 43a2 193d 1521 53bd
00000220: b323 fdbd d5c8 d73d 44b4 063c b624 4c3e
00000230: aae5 2abe b688 2bbe a84a 4d3e 4094 eb3d
00000240: 5982 a9bd 57fb 903d fd14 15be b2d7 f2bd
00000250: 2e3f c23d 4bf2 0a3d dcec c2bc d28d 70bd
00000260: 6b0f f7bd 2ff8 b83c 55cf 16be 6c05 813c
00000270: 2391 123e 3e0a 043e 2488 a23d 28e1 1fbd
00000280: 8032 42bd 15cc 34bc 4bc5 f23d d9aa 85bd
00000290: 598e 423d 00a7 eabc 4028 1e3e 2bab 0b3e
000002a0: c686 643d 7a58 11bd b76e 53bd d883 71bd
000002b0: 7fff 093e 5d7c 75bd 4201 21bd 806d 2a3e
000002c0: 2694 a0bd 7587 3ebe 7a21 6d39 1128 d8bd
000002d0: ba5a 9ebe d79e 01be 9163 04bd 1123 89bd
000002e0: ab6f c3bc 80ed 9a3d b229 d1bd 2c0e 673d
000002f0: b115 68be 4028 953e 6c46 293c 0f0a 5bbd
00000300: 741d 8d3d 0b05 10be ecd5 74be 6bf3 053e
00000310: 1bcb 39be 7dce c83c 7e30 7b3e 6cdb a43c
00000320: 045f 843e 3ef9 f03d 5e22 e13c 75ba 64bd
00000330: ec63 073c e1b4 523d 1fc2 8c3c 5233 31bc
00000340: acaf 04bb 5ef7 8dbd 57fa 21bc 6508 1c3e
00000350: 909b 79bd cdad 60be 4bdd 1b3e c829 8e3d
00000360: 11ce 85bd c821 79bd 27a9 1ebe 2651 33bd
00000370: d1e6 73be acfd 1ebe d5eb 31be 732d 253e
00000380: 1d95 bcbd 5872 54bd 93dc 123d 7eb8 20bd
00000390: d6ad 33be 2e81 453e 70ec bc3e 0833 10be
000003a0: 7fd8 253e 0f81 8cbd 1318 bf3d 4946 aebe
000003b0: 365b 1b3e a582 b4bc 04db ebbb 8751 c23d
000003c0: 8fcb d93d fcd2 4fbb 6859 72bd 9b15 b63d
000003d0: fc47 ddbd 27b4 ce3d d867 e1bd c706 723c
000003e0: b111 a43e 3d4e aa3d 5e91 0a3c 8c6f f03d
000003f0: ac13 b9bd e6fd 643b fa9e 6dbe ead0 d83b

network_body._body_endoder.seq_layers.2.bias f4 [256]
0.0010233369 -0.0017331358 0.0010101584 -0.00020537121 0.0004612698 0.0009854251 -0.0012798952 -0.0014657031
-0.00019191242 5.6429933e-05 -0.0008455154 -0.0007328467 -0.0005058592 0.00013624018 0.00017548088 -0.00012713305
-0.0030196707 0.002006333 -0.0016141863 0.0005472475 0.0009740834 0.00025593876 0.0002651139 -0.00063016196
0.0014098394 0.00029751676 0.00034117428 -0.0019201812 0.00027576392 -0.0026801273 -0.00068606203 8.668517e-06
-0.0024952884 -8.976214e-05 0.00016157285 0.00020216803 -0.00068552943 -0.003305716 0.0031384474 0.00038446765
-0.0025050398 -0.0003727054 -0.000726237 7.784043e-05 -0.002169176 -0.0020605673 -0.0025696466 0.0009709026
0.004505093 -2.9445144e-05 0.0044525224 -0.0004910021 5.9290363e-05 4.777538e-05 -0.0008718729 0.0008602459
-0.0008371514 0.0025272912 0.0002462584 0.00081251585 -0.00012889839 -0.00039909745 0.00024824342 -0.001343489
0.0003905745 0.0004398572 -0.0007093087 0.00026864093 0.0034504673 0.0012424622 0.00051146594 7.1513445e-05
-0.00025409152 -0.00018753676 -0.00081912073 -0.00060243823 -0.0035315212 1.1679027e-05 -0.00035167136 -0.00022679842
0.00010243191 -0.00024413344 3.097269e-05 0.00032235042 0.0007100596 -0.0002119216 -0.00055887847 0.004302406
-0.0044403197 0.00015207566 0.00024630092 0.0009941562 0.002411351 0.0015139516 0.00024004807 -0.0006977728
0.00023233602 -0.002309644 1.1555154e-05 -0.0005056536 0.00020704458 -3.9018174e-05 -0.0023215995 -0.0007896983
0.00033702067 -0.00037282633 0.00015463759 0.0022834858 0.00020671444 -0.00072382786 0.0005721859 0.00020292615
-0.002566796 -0.0019287535 -0.00032085172 -0.00076192815 0.0002618828 0.0018057978 0.0009464527 -0.0016443344
-0.0005815352 -0.0010794179 0.0008215504 0.0016001898 -0.0019424338 -0.00033217442 -0.0007291906 9.74516e-05
0.002457481 0.00013170629 0.00028304136 -0.0002911869 -0.00043641555 -0.00032674347 -7.2043156e-05 0.00010654615
-0.0021766329 -0.0012669029 3.147156e-05 0.000603449 -0.00048570082 -0.0008631451 -0.00011535578 0.0012761866
-0.00061281637 0.00024326157 0.0038805236 -0.00025111978 -0.001695208 -0.001317842 -0.00085968827 4.6983576e-05
0.00017032566 -0.0012027782 -0.00042926488 -0.0003073526 0.00024400311 -0.00015397147 -0.00088808726 0.0002577835
0.0010483264 -0.001592644 0.00023450653 0.00019545168 0.0022107728 0.00033130142 -0.0012842331 0.00013330982
-0.0016499535 -0.000666764 -0.00057853316 -0.00019720584 0.0011194635 0.00052465004 -0.00045854907 0.0028843083
-0.0010300502 0.0015809222 -0.0003476086 -0.0029863324 0.0027844065 0.00076136243 0.0012749474 -0.0029712063
0.0017965815 -0.0009131871 0.0016795055 0.0001878641 -0.0013060493 -0.00025376384 -0.0006662748 -0.0015128842
-6.754779e-06 -0.00037478143 0.00027768192 -0.0008245051 -0.0016330649 -0.0013388741 -0.0015543078 0.00021602676
-0.00038297728 -0.00071094296 -0.0053780978 -0.00055485795 0.0018858478 0.00021786324 0.00064818526 -0.0002519186
-0.0023920592 -0.0005053381 -0.00034306318 8.007269e-05 0.00017404478 0.00068474223 7.2064577e-06 0.0003731574
0.0003242286 0.00032571406 -0.00090469664 0.0021390526 -0.0010337229 -0.0004352572 -0.00012358243 -4.822461e-05
0.0001218331 -0.00070402893 -6.0047452e-05 -0.004503996 2.059968e-05 0.0002828294 0.00030688013 -0.00026879052
-7.891689e-05 -0.0027795134 -4.8696907e-05 -0.0017478759 0.0021034735 -0.00055013027 0.0002591118 -0.001228221
0.00041650695 -0.00018773632 -0.00021419842 -0.00079118536 8.895703e-05 -0.00027273485 0.00018319277 -0.00027818745
-0.0020607128 0.0023776395 -0.0001438848 -0.00030791629 -0.00030520937 -8.7075074e-05 -0.0005912044 -0.00022244168
00000000: 7d21 863a 632a e3ba 4b67 843a ea58 57b9
00000010: 96d6 f139 6129 813a 28c2 a7ba d61c c0ba
00000020: 193c 49b9 2eaf 6c38 94a5 5dba 821c 40ba
00000030: a39b 04ba b2db 0e39 4a01 3839 054f 05b9
00000040: abe5 45bb af7c 033b 1b93 d3ba 2875 0f3a
00000050: a159 7f3a 852f 8639 fcfe 8a39 7431 25ba
00000060: 5cca b83a 06fc 9b39 a3df b239 97ae fbba
00000070: 6894 9039 13a5 2fbb d8d8 33ba ff6e 1137
00000080: fe87 23bb af3e bcb8 e26b 2939 11fd 5339
00000090: 1ab5 33ba b6a4 58bb 69ae 4d3b 6092 c939
000000a0: 982b 24bb ac67 c3b9 f160 3eba 433e a338
000000b0: bc28 0ebb 950a 07bb 8467 28bb 2c84 7e3a
000000c0: 769f 933b f700 f7b7 77e6 913b 98b6 00ba
000000d0: 8bae 7838 6c62 4838 668e 64ba 2082 613a
000000e0: 4874 5bba e9a0 253b 3e1c 8139 04ff 543a
000000f0: e628 07b9 f43d d1b9 ab26 8239 0318 b0ba
00000100: 06c6 cc39 a29c e639 e7f0 39ba 60d8 8c39
00000110: 3c21 623b 1dda a23a e613 063a 7df9 9538
00000120: 9637 85b9 84a5 44b9 43ba 56ba f2ec 1dba
00000130: 1871 67bb 0af1 4337 8860 b8b9 bdd0 6db9
00000140: b7d0 d638 12fe 7fb9 ace8 0138 2401 a939
00000150: 4b23 3a3a 4537 5eb9 b381 12ba 33fb 8c3b
00000160: 1a80 91bb 8076 1f39 f321 8139 594e 823a
00000170: c207 1e3b c96f c63a 6ab5 7b39 bdea 36ba
00000180: 3a9f 7339 655d 17bb 02dd 4137 d78d 04ba
00000190: 1b1a 5939 72a7 23b8 fa25 18bb c103 4fba
000001a0: 26b2 b039 e777 c3b9 3626 2239 89a6 153b
000001b0: 7cc1 5839 44bf 3dba bffe 153a 93c8 5439
000001c0: b137 28bb 3ace fcba fd37 a8b9 22bc 47ba
000001d0: 504d 8939 85b0 ec3a 5e1b 783a b586 d7ba
000001e0: 2b72 18ba 417b 8dba 505d 573a 76bd d13a
000001f0: 4399 feba b227 aeb9 2727 3fba ee5e cc38
00000200: b10d 213b a31a 0a39 2b65 9439 72aa 98b9
00000210: b4ce e4b9 c44e abb9 e015 97b8 8771 df38
00000220: d7a5 0ebb 350e a6ba 5500 0438 c730 1e3a
00000230: a9a5 feb9 b044 62ba 2aeb f1b8 b745 a73a
00000240: 69a5 20ba 0814 7f39 6250 7e3b baa8 83b9
00000250: be31 deba 71bb acba b45c 61ba 3b10 4538
00000260: 7299 3239 8aa6 9dba f50e e1b9 2b24 a1b9
00000270: 16db 7f39 6773 21b9 87ce 68ba 1e27 8739
00000280: ff67 893a 44c0 d0ba dee5 7539 29f2 4c39
00000290: 9de2 103b 86b2 ad39 b653 a8ba 15c9 0b39
000002a0: 4143 d8ba c6c9 2eba b4a8 17ba 0ac9 4eb9
000002b0: f6ba 923a ab88 093a 6a69 f0b9 aa06 3d3b
000002c0: c002 87ba f236 cf3a 3d3f b6b9 58b6 43bb
000002d0: 977a 363b 2b96 473a 231c a73a 92b8 42bb
000002e0: 467b eb3a f362 6fba da22 dc3a 63fd 4439
000002f0: be2f abba 9b0b 85b9 f2a8 2eba f84b c6ba
00000300: 1ca7 e2b6 507e c4b9 d695 9139 9a23 58ba
00000310: 910c d6ba 297d afba eab9 cbba 3e85 6239
00000320: 57ca c8b9 935e 3aba c13a b0bb e373 11ba
00000330: 8d2e f73a 3872 6439 faea 293a f113 84b9
00000340: 18c4 1cbb aa78 04ba 29dd b3b9 b3ec a738
00000350: ca7f 3639 4680 333a 00cf f136 57a4 c339
00000360: 3afd a939 9ac4 aa39 2a29 6dba 592f 0c3b
00000370: fc7d 87ba 3c33 e4b9 e895 01b9 c844 4ab8
00000380: a680 ff38 958e 38ba 76db 7bb8 4296 93bb
00000390: 7acd ac37 b848 9439 c1e4 a039 74ec 8cb9
000003a0: 2f80 a5b8 7f28 36bb e83f 4cb8 fc18 e5ba
000003b0: 6eda 093b 9e36 10ba 66d9 8739 42fc a0ba
000003c0: 9e5e da39 16db 44b9 739a 60b9 8d67 4fba
000003d0: 718e ba38 dafd 8eb9 6f17 4039 b0d9 91b9
000003e0: 060d 07bb 2cd2 1b3b c8df 16b9 d36f a1b9
000003f0: 8204 a0b9 139c b6b8 0efb 1aba 3c3f 69b9

network_body._body_endoder.seq_layers.2.weight f4 [256, 256]
0.18249641 -0.01596253 0.011039871 -0.029107446 0.030570325 0.054641943 0.08814829 0.12926804
-0.015089612 -0.030424433 -0.018946188 0.053856786 -0.0018317017 0.12641138 0.019722423 0.013495512
0.00030756954 -0.039817814 -0.097546525 0.017597204 -0.05161457 -0.058210973 0.03551934 -0.028604835
-0.005951767 -0.10317337 -0.004325122 0.029000176 0.034289226 0.051722106 0.013511495 0.050870944
0.003134403 0.0027202263 -0.001426761 0.04199652 0.031805143 -0.056464255 -0.0010058299 -0.06648944
-0.026710317 -0.037698276 0.045521457 -0.010701726 0.11318614 -0.004761467 -0.014405505 -0.040390857
-0.015535094 -0.08508348 -0.019997947 0.03580037 0.06732464 -0.0032870993 -0.13244586 0.01936647
0.107943326 -0.03884119 -0.04214587 -0.1134638 0.011547597 0.031710163 -0.061150357 0.033607278
-0.018737663 0.058581736 0.06315885 -0.007419116 -0.030756917 -0.0858005 0.008515863 -0.038881015
0.054818355 0.023663301 0.015887951 -0.07355651 0.0014438656 -0.021368647 -0.03377143 0.009392606
0.05340969 0.17250271 0.093863904 0.0044999444 0.00950567 -0.040081453 0.0043446575 -0.021395631
0.049329136 0.039705954 -0.024036134 -0.010897662 0.033131693 0.09615132 0.080686316 0.09997143
-0.07328606 -0.02394249 -0.055937365 0.032396242 -0.06850153 -0.03870723 -0.019680437 0.05595418
-0.025688158 0.06096525 -0.050727926 0.108697265 0.035607886 -0.011322078 0.13040419 0.10382391
-0.052719396 -0.04683683 -0.029493218 0.022026869 -0.0059151812 0.015319235 -0.0153564485 -0.065298066
-0.08165628 0.04655133 0.062940404 -0.021885997 -0.011250207 -0.010604632 -0.043971453 0.003300358
-0.044873666 -0.07793418 0.09718186 -0.06987771 -0.06208692 -0.013015794 -0.047384262 -0.045953866
-0.15949415 0.00048130468 0.080686696 0.064204656 -0.068172544 -0.09656901 0.1004685 0.16523658
0.05421167 -0.072362036 -0.012363672 -0.026080549 0.02864817 0.0115702385 0.028905952 -0.06715787
-0.05214543 -0.00998579 0.0043604304 0.074374914 0.008462018 0.021569623 0.01507446 0.003325399
-0.061599147 0.0103500495 0.08397849 -0.15161581 -0.040739324 0.050158944 -0.057355236 0.035345808
0.043944117 0.08233156 0.02998706 -0.04981563 -0.014195785 0.008292976 -0.084197335 0.029401733
0.103054814 0.049445372 0.011919356 0.061514955 0.005522379 -0.080271296 0.028925326 -0.017470665
-0.068188004 -0.08583092 0.0047430494 -0.020701455 0.055264276 0.04974179 0.0075551923 -0.013826255
-0.01774821 0.05228197 -0.009325808 0.03196872 0.011613972 -0.05443039 -0.0020331403 -0.017179942
-0.0662656 0.04965093 0.054040004 -8.4098574e-05 0.03337352 0.062056743 -0.013751316 -0.0041278084
0.021981392 -0.004115083 -0.06864766 -0.018515877 -0.06439478 -0.00062597526 -0.008437306 -0.042803254
-0.09451942 -0.023159856 0.035434887 0.068920575 0.052209318 -0.010712118 0.047671136 -0.03246999
0.0655513 0.109598555 0.05274157 0.004671168 0.138197 0.09142073 0.023140563 -0.054803666
0.0044573606 -0.040252812 0.030967275 0.0412264 0.03335208 0.10423006 -0.003219719 0.03220276
-0.030922089 0.017561844 -0.014341333 0.066804364 -0.09203299 -0.1641971 -0.008917634 -0.12326363
0.0031025885 -0.04353616 -0.08116001 0.018140107 -0.019921524 0.08514462 -0.0032061008 -0.13953476
00000000: 57e0 3a3e dac3 82bc 93e0 343c bd72 eebc
00000010: 9e6e fa3c 3bd0 5f3d 1787 b43d d75e 043e
00000020: 6c3a 77bc a93c f9bc 0935 9bbc ef98 5c3d
00000030: b615 f0ba fc71 013e eb90 a13c 481c 5d3c
00000040: 4941 a139 0118 23bd 79c6 c7bd 0328 903c
00000050: cd69 53bd a16e 6ebd ba7c 113d b054 eabc
00000060: 0a07 c3bb 8f4c d3bd c1b9 8dbb c791 ed3c
00000070: dc72 0c3d 8fda 533d 515f 5d3c 0d5e 503d
00000080: 8e6a 4d3b d345 323b 2802 bbba 8b04 2c3d
00000090: 1c46 023d 1047 67bd 0dd6 83ba 9e2b 88bd
000000a0: 98cf dabc 8269 1abd b574 3a3d 4b56 2fbc
000000b0: 23ce e73d 1506 9cbb 1105 6cbc e270 25bd
000000c0: e886 7ebc 3f40 aebd bcd2 a3bc 69a3 123d
000000d0: 80e1 893d 606c 57bb e39f 07be 6ea6 9e3c
000000e0: 6411 dd3d f117 1fbd 26a1 2cbd b55f e8bd
000000f0: 2232 3d3c 84e2 013d cc78 7abd c9a7 093d
00000100: ba7f 99bc 67f3 6f3d 6d59 813d 0e1c f3bb
00000110: eef5 fbbc 2cb8 afbd 1e86 0b3c b341 1fbd
00000120: 3689 603d 8ad9 c13c 7327 823c cca4 96bd
00000130: 1740 bd3a 4d0d afbc e953 0abd 72e3 193c
00000140: 1ec4 5a3d 8da4 303e b83b c03d 4574 933b
00000150: abbd 1b3c 732c 24bd a15d 8e3b e445 afbc
00000160: 590d 4a3d b6a2 223d 6de7 c4bc 1b8c 32bc
00000170: 19b5 073d fcea c43d de3e a53d d2bd cc3d
00000180: 0017 96bd 0a23 c4bc 941e 65bd ecb1 043d
00000190: 884a 8cbd 798b 1ebd de38 a1bc 3630 653d
000001a0: f96f d2bc b3b6 793d 16c8 4fbd ac9c de3d
000001b0: 93d9 113d 3d80 39bc ad88 053e a1a1 d43d
000001c0: 4bf0 57bd fad7 3fbd c39b f1bc b171 b43c
000001d0: 23d4 c1bb 87fd 7a3c 9d99 7bbc feba 85bd
000001e0: 683b a7bd 9bac 3e3d e6e6 803d 434a b3bc
000001f0: ca52 38bc 0dbf 2dbc 691b 34bd d24a 583b
00000200: 73cd 37bd f59b 9fbd 4807 c73d 0b1c 8fbd
00000210: db4e 7ebd 3240 55bc 0016 42bd 1f3a 3cbd
00000220: 6f52 23be 9f57 fc39 113f a53d bb7d 833d
00000230: 0c9e 8bbd f9c5 c5bd 6ec2 cd3d c733 293e
00000240: 0e0d 5e3d 8c32 94bd 0091 4abc e0a6 d5bc
00000250: 91af ea3c 1991 3d3c 2dcc ec3c 118a 89bd
00000260: 7296 55bd 709b 23bc f1e1 8e3b e051 983d
00000270: 47a4 0a3c c7b2 b03c defa 763c f0ee 593b
00000280: 634f 7cbd 4193 293c eafc ab3d 2d41 1bbe
00000290: 47de 26bd 7773 4d3d 53ed 6abd c4c6 103d
000002a0: bffe 333d 739d a83d 6ca7 f53c 790b 4cbd
000002b0: 7095 68bc 43df 073c a76f acbd e7db f03c
000002c0: 670e d33d 3b87 4a3d 6749 433c 1bf7 7b3d
000002d0: 13f5 b43b 4765 a4bd cef4 ec3c a41e 8fbc
000002e0: 27a6 8bbd 1fc8 afbd 956b 9b3b 1996 a9bc
000002f0: cb5c 623d 0cbe 4b3d 8c91 f73b 8487 62bc
00000300: b264 91bc 9e25 563d 46cb 18bc a2f1 023d
00000310: 8748 3e3c 67f2 5ebd 6f3e 05bb f3bc 8cbc
00000320: 42b6 87bd c65e 4b3d 0d59 5d3d 145e b0b8
00000330: acb2 083d 362f 7e3d 334d 61bc 9142 87bb
00000340: 5212 b43c d1d7 86bb 2597 8cbd 9cae 97bc
00000350: 69e1 83bd 7d18 24ba a03c 0abc 7752 2fbd
00000360: 6693 c1bd bdb9 bdbc 2c24 113d 3b26 8d3d
00000370: 70d9 553d e181 2fbc cf42 433d 41ff 04bd
00000380: c33f 863d 3575 e03d 8b07 583d 9910 993b
00000390: 8483 0d3e cb3a bb3d 4791 bd3c cf79 60bd
000003a0: 0d0f 923b 22e0 24bd 15af fd3c 03dd 283d
000003b0: 319c 083d 9276 d53d ec01 53bb 0be7 033d
000003c0: 5250 fdbc dbdd 8f3c e9f7 6abc bad0 883d
000003d0: cb7b bcbd 4923 28be 451b 12bc a471 fcbd
000003e0: cc54 4b3b f952 32bd 3837 a6bd 909a 943c
000003f0: 7732 a3bc 4d60 ae3d 721d 52bb 33e2 0ebe

network_body._body_endoder.seq_layers.4.bias f4 [256]
0.0005167892 -0.001833284 -6.461498e-05 0.0005754285 -0.00041121055 -0.00092022255 -0.0016019868 0.00032105346
0.0010108291 -0.0007834158 0.00030867223 0.00024452203 0.00030290973 0.0007655593 -0.00066745386 -0.000483137
-0.0012919927 -0.0018170279 2.3631412e-05 -2.0041443e-07 0.00020152776 -0.00033512764 -0.0001096563 -0.00016124533
6.425661e-05 -0.0020553689 -0.0020824492 0.002047468 -0.003961451 5.5980483e-05 -0.001084152 -0.0033310484
-3.2332428e-05 0.0007505192 -0.0004614871 0.0007563665 0.0024548026 -1.1759048e-05 0.00017248266 -0.0008530422
-0.00045880003 0.00019274275 -0.00020085221 0.0018746554 -0.0009125612 -0.00036807405 -0.0006265683 0.00042673753
-0.0008968128 -0.00026338187 -0.00047648355 -0.0016089012 0.00026528185 -0.0006890439 -0.0025770406 -0.00059112307
0.0036725958 0.0003505042 0.00046545247 -0.0002660242 0.00074806355 -0.00014262495 -0.0007361558 -0.00012989466
-0.00069989194 -0.0002865863 -0.002507581 0.0026613076 -0.00020809902 -0.00021390054 0.0016337718 -0.0011940169
-0.00043764676 -0.0025242327 -0.0002507982 6.386783e-05 -0.00010023356 -0.00054375216 0.00026661044 -0.00017395041
0.00033708624 0.0004350736 0.001183472 0.00042076551 -0.00021007594 -0.00018058482 -0.00012238236 1.4434532e-05
0.0016457569 -0.0006444792 -0.0015287971 -0.0010280964 -0.0004329459 -0.0002990167 0.000144945 -0.0002874786
0.00038331037 0.00047258832 0.0025657758 -0.0011660636 -0.00069199706 4.7178797e-05 0.00030859656 -0.0019978
-0.00047096823 0.0006698913 0.00024109331 -0.0013547832 -3.1524934e-05 -0.0008904768 0.0017240444 0.0004676346
-0.0004883497 -0.00030218676 9.340673e-05 -0.00052176154 -0.0012152668 0.004601804 -3.4062203e-05 -0.0006971779
0.00035564092 -0.0021800054 0.0024577857 -0.0026991533 0.00024267587 -0.00019008978 -0.00028772574 -0.0017448151
0.000676369 -0.00086597877 -0.0017254625 9.186425e-06 -0.00059599883 0.0009537412 -0.00020927016 -0.0007015297
0.001207241 -0.0008829164 0.00034749266 -0.00068424497 0.00023570895 -0.00094440614 0.0009116688 -0.0005960652
0.00041117598 0.0001423335 6.3479265e-06 -0.00025544848 0.00035708668 -2.938498e-05 -0.00026104215 -0.001003213
-0.0001886103 0.0007595921 0.00023322116 0.002281367 -0.0013384458 -0.0023674157 -0.0001828732 0.0032953816
-7.0703034e-05 0.00042259388 -0.00019772464 -0.0007273578 -5.6314286e-05 -0.0001841651 -0.0010162694 -0.00042570083
-0.00034299388 -0.0013454997 -0.00036943177 0.0051080794 -0.00013270257 0.00019397163 -0.002724593 0.00030971586
-0.002736866 0.0029828788 0.0011580387 -0.0005898833 -0.0003841867 0.00040925815 -0.00048772217 -0.00022139316
-0.0010662526 0.0010533521 -0.00060375483 -0.0015933363 -0.00056245073 0.00036830758 0.001458103 -0.005183306
7.15791e-07 0.00033606653 -0.00078551297 0.00050603604 -0.0017976557 -0.0012962521 -0.0016878586 -0.00055272464
0.0022577378 0.0004737221 0.000393979 -0.00032824368 -0.0006678747 -5.262457e-06 2.708608e-05 -0.0021684247
-0.0009438447 -2.1830565e-05 -0.00021706955 -0.00070815376 0.0015148559 -0.0005947487 -0.00033163026 -0.0005630239
3.47018e-05 -0.00020039066 -0.0026929183 -0.00087110203 -0.0007419444 0.0004919525 0.00017486342 0.00049614056
-0.00085950573 -0.002080806 0.00027978286 0.00037371175 -0.00071689417 0.00042261858 0.00047111974 -0.00051226706
-0.0013303936 -4.844078e-05 -0.0004823743 -0.0010008381 -0.0021625326 -0.0002942393 0.0002982692 -0.0016052148
-0.00058355357 -0.0018760947 -0.004127132 0.0005798215 -0.0030798505 0.0011257145 -0.00012808361 -0.00140743
0.0030087933 5.1484854e-05 -0.0038360888 -0.00062669185 -5.4381315e-05 3.6495872e-05 -0.00013383731 0.00011530095
00000000: 2379 073a ce4a f0ba e781 87b8 5ad8 163a
00000010: bf97 d7b9 173b 71ba c2f9 d1ba 1153 a839
00000020: cc7d 843a 255e 4dba 49d5 a139 3133 8039
00000030: dbcf 9e39 d1af 483a 12f8 2eba 8d4d fdb9
00000040: 1558 a9ba 5729 eeba 123c c637 8031 57b4
00000050: 3251 5339 12b4 afb9 47f7 e5b8 f713 29b9
00000060: 81c1 8638 5eb3 06bb b379 08bb d02e 063b
00000070: 0fcf 81bb 96cc 6a38 1b1a 8eba b84d 5abb
00000080: ae9c 07b8 7ebe 443a c0f3 f1b9 e646 463a
00000090: c1e0 203b ba48 45b7 76dc 3439 b19e 5fba
000000a0: 198b f0b9 fd1a 4a39 db9b 52b9 ffb6 f53a
000000b0: f238 6fba 10fa c0b9 4940 24ba bebb df39
000000c0: 1718 6bba 8416 8ab9 8ad0 f9b9 c4e1 d2ba
000000d0: 8715 8b39 f4a0 34ba 91e3 28bb 99f5 1aba
000000e0: efaf 703b e1c3 b739 f907 f439 2a79 8bb9
000000f0: b219 443a 988d 15b9 94fa 40ba 5534 08b9
00000100: f478 37ba f640 96b9 3a56 24bb 5569 2e3b
00000110: 2835 5ab9 7d4a 60b9 4924 d63a 8f80 9cba
00000120: f473 e5b9 996d 25bb 917d 83b9 c8f0 8538
00000130: 7c34 d2b8 978a 0eba d9c7 8b39 7566 36b9
00000140: f3ba b039 971a e439 bb1e 9b3a 319a dc39
00000150: d547 5cb9 5e5b 3db9 c453 00b9 d82b 7237
00000160: 70b6 d73a 44f2 28ba eb61 c8ba 31c1 86ba
00000170: 04fd e2b9 58c5 9cb9 61fc 1739 b9b8 96b9
00000180: 0cf7 c839 bbc5 f739 9326 283b 9ad6 98ba
00000190: 2367 35ba d9e1 4538 21cb a139 86ed 02bb
000001a0: 49ec f6b9 a59b 2f3a fecd 7c39 fb92 b1ba
000001b0: a439 04b8 e36e 69ba 55f9 e13a db2c f539
000001c0: 9804 00ba d26e 9eb9 5be3 c338 d3c6 08ba
000001d0: 9649 9fba bbca 963b 03de 0eb8 d1c2 36ba
000001e0: 5175 ba39 6cde 0ebb cd12 213b 47e4 30bb
000001f0: cf76 7e39 d652 47b9 e5d9 96b9 48b2 e4ba
00000200: 5b4e 313a da02 63ba ea28 e2ba 651f 1a37
00000210: ce3c 1cba 7d04 7a3a 886f 5bb9 dce6 37ba
00000220: 493c 9e3a 8473 67ba ad2f b639 e75e 33ba
00000230: a428 7739 0692 77ba 0ffd 6e3a 4241 1cba
00000240: 1b93 d739 5c3f 1539 4600 d536 b7ed 85b9
00000250: 5d37 bb39 c47f f6b7 7cdc 88b9 3e7e 83ba
00000260: b1c5 45b9 5d1f 473a d48c 7439 fd82 153b
00000270: ca6e afba a526 1bbb a7c1 3fb9 54f7 573b
00000280: 6746 94b8 978f dd39 4e54 4fb9 28ac 3eba
00000290: 0133 6cb8 711c 41b9 5834 85ba 9930 dfb9
000002a0: dcd3 b3b9 7a5b b0ba 4bb0 c1b9 ad61 a73b
000002b0: 1326 0bb9 dd64 4b39 168f 32bb 5c61 a239
000002c0: fe5c 33bb 677c 433b 55c9 973a 66a2 1aba
000002d0: aa6c c9b9 b391 d639 f6b4 ffb9 c625 68b9
000002e0: 80c1 8bba a210 8a3a 4d45 1eba 7fd7 d0ba
000002f0: 6e71 13ba 6819 c139 d11d bf3a b9d8 a9bb
00000300: c824 4035 1632 b039 e2ea 4dba 81a7 043a
00000310: 519f ebba 01e7 a9ba 233b ddba b9e4 10ba
00000320: 8ef6 133b e75d f839 f78e ce39 1f18 acb9
00000330: 5014 2fba 2994 b0b6 ea36 e337 211c 0ebb
00000340: 586c 77ba c820 b7b7 2a9d 63b9 65a3 39ba
00000350: 218e c63a e9e8 1bba a9de adb9 e597 13ba
00000360: c68c 1138 f51f 52b9 ac7b 30bb ab5a 64ba
00000370: 0c7f 42ba 60f6 003a 8b5b 3739 6e0f 023a
00000380: 7450 61ba 225e 08bb d2af 9239 beee c339
00000390: f4ed 3bba e892 dd39 9f00 f739 a949 06ba
000003a0: 9a60 aeba e42c 4bb8 2fe7 fcb9 8e2e 83ba
000003b0: 47b9 0dbb 2144 9ab9 0461 9c39 1266 d2ba
000003c0: 9ef9 18ba 4be7 f5ba e43c 87bb 2aff 173a
000003d0: 51d7 49bb b68c 933a 2f4e 06b9 8479 b8ba
000003e0: 2d2f 453b 71f1 5738 e466 7bbb 9448 24ba
000003f0: 7e17 64b8 2513 1938 ae56 0cb9 bacd f138

network_body._body_endoder.seq_layers.4.weight f4 [256, 256]
0.09430515 0.032165576 -0.03958146 -0.052646693 -0.0046686707 0.029985236 -0.05933753 0.06716852
0.11216273 0.0017187118 -0.046518482 0.074282035 -0.090880856 -0.023362165 0.009160616 -0.09707575
0.02203184 -0.03694234 -0.020704135 0.05169507 0.11915407 0.15220056 0.048387904 0.03896763
0.041442834 -0.048010916 -0.06171572 -0.05872409 0.0064329444 -0.06529482 -0.12870558 -0.048129417
0.038181428 0.1832955 -0.027812747 0.033455756 -0.011233475 0.061419178 -0.029394368 0.007149952
-0.117667966 -0.019169055 -0.11378392 0.003008642 0.0069926255 -0.04537986 -0.04229383 -0.01787794
-0.019598598 -0.010504865 -0.005263604 0.031704005 0.04254239 0.025885543 0.034060843 0.07329828
0.046788692 0.07625328 0.08880321 -0.013259149 0.052036393 -0.036124654 0.060484763 -0.012160212
0.0147183705 0.07725195 -0.01789893 0.037105303 0.03624037 -0.008012376 0.01721657 -0.08383499
0.040794786 0.033988025 -0.066606455 0.030447572 -0.058011796 -0.08239676 0.038404554 0.049781796
0.058373507 -0.031647444 -0.059107754 -0.016405957 0.0059296037 0.0038944443 0.0035619708 -0.020483747
0.052750807 0.034921568 0.12029267 -0.13012747 0.011707019 0.0131782275 0.025788845 0.027742473
-0.11172433 -0.06167662 0.08891991 -0.08457434 -0.041228052 -0.05030639 0.023518605 0.11246474
-0.019617448 -0.032125127 0.123197034 0.009710749 0.05923418 -0.09871325 0.10603253 -0.041874524
-0.08116593 0.010938964 -0.11090341 -0.004822319 0.050256766 -0.0940649 0.06826681 -0.13293965
0.15299387 0.03513131 0.19661632 0.060687352 -0.029280674 0.075404495 -0.0074694282 0.095021635
-0.0038365126 -0.03399753 -0.077367954 -0.012129319 -0.11337242 0.022516653 -0.08701007 -0.04626528
-0.06369743 -0.036395986 -0.04232242 -0.012876384 0.072485834 0.018844707 -0.009221128 0.06941591
-0.00847158 0.0049287695 0.0150237745 0.030435331 -0.09249348 -0.080035575 -0.099037364 0.045305192
-0.03985914 0.08783078 -0.04065961 -0.08268791 -0.050308738 -0.04698246 -0.042921174 0.03619126
-0.07015954 0.0045324424 -0.06417385 -0.0073636225 -0.020788739 0.057555083 -0.0745808 0.00089406554
-0.004231855 -0.0048618363 0.0760561 0.016212687 -0.051082406 -0.026856964 -0.032497402 0.09154129
0.04601033 0.095590346 0.021651097 -0.13324666 0.04165452 -0.12761556 0.06877152 0.14135715
0.07661859 0.060617592 0.016253654 0.044356927 -0.021274246 0.021992352 0.049794886 0.027747905
-0.043210488 0.12568887 0.07228607 -0.021882681 0.028609442 0.0074773054 -0.120233044 0.122376196
-0.065087095 -0.09859042 0.05408058 -0.023523651 0.0069764177 0.01960389 0.03292918 -0.02888562
0.011128758 0.21011296 -0.026939012 0.055293184 0.09652182 0.06771258 -0.046821043 -0.008436097
-0.079799354 0.018175473 -0.020595986 -0.11716383 -0.09177421 -0.06636355 -0.017599398 0.01770297
0.0020350448 -0.012330391 -0.08247267 -0.0144948 0.017144075 0.015331891 -0.01798948 0.030246517
0.022111822 0.035980485 -0.092111185 0.033885468 0.0080519235 0.11242142 -0.09399555 0.07459842
0.15375967 -0.017910488 0.089915775 0.014726457 0.05347403 -0.07546256 0.021513652 0.11227275
0.035591524 0.006558982 -0.07932923 0.05277609 -0.05812777 0.020170454 -0.08409685 0.046965934
00000000: 0f23 c13d 0dc0 033d 2b20 22bd 0fa4 57bd
00000010: a6fb 98bb 99a3 f53c e90b 73bd a68f 893d
00000020: 93b5 e53d 6646 e13a 2a8a 3ebd 2e21 983d
00000030: be1f babd 0362 bfbc 6916 163c a7cf c6bd
00000040: 1e7c b43c da50 17bd b89b a9bc 36be 533d
00000050: 0d07 f43d 77da 1b3e 6532 463d 869c 1f3d
00000060: f6bf 293d 18a7 44bd 9fc9 7cbd ac88 70bd
00000070: 73cb d23b 4ab9 85bd 65cb 03be 5a23 45bd
00000080: 2164 1c3d d1b1 3b3e 8fd7 e3bc e708 093d
00000090: 9c0c 38bc ad92 7b3d 75cc f0bc 254a ea3b
000000a0: e7fb f0bd 6c08 9dbc 8b07 e9bd a32c 453b
000000b0: 6522 e53b 3be0 39bd 4c3c 2dbd c274 92bc
000000c0: 3d8d a0bc 991c 2cbc 507a acbb 0fdc 013d
000000d0: ee40 2e3d eb0d d43c 6283 0b3d 691d 963d
000000e0: 80a5 3f3d ae2a 9c3d 75de b53d e73c 59bc
000000f0: 1d24 553d 72f7 13bd dfbe 773d a03b 47bc
00000100: 5225 713c 4536 9e3d c7a0 92bc bbfb 173d
00000110: c870 143d 5746 03bc c409 8d3c aeb1 abbd
00000120: 6f18 273d 0737 0b3d f768 88bd 306d f93c
00000130: c79d 6dbd a2bf a8bd 184e 1d3d ffe7 4b3d
00000140: 0f19 6f3d c0a0 01bd f91a 72bd c965 86bc
00000150: 1f4d c23b ef39 7f3b f46f 693b 88cd a7bc
00000160: 3b11 583d eb09 0f3d 015c f63d 2340 05be
00000170: ccce 3f3c 7ee9 573c 2143 d33c 2f44 e33c
00000180: bacf e4bd a0a0 7cbd a41b b63d 5035 adbd
00000190: bfde 28bd 130e 4ebd 17aa c03c ea53 e63d
000001a0: c5b4 a0bc a395 03bd ba4e fc3d d519 1f3c
000001b0: 8a9f 723d 2c2a cabd 9527 d93d 9f84 2bbd
000001c0: 533a a6bd 5739 333c 5421 e3bd 8b04 9ebb
000001d0: 0ada 4d3d 19a5 c0bd 78cf 8b3d 5521 08be
000001e0: 6daa 1c3e d9e5 0f3d ca55 493e 4d93 783d
000001f0: 06de efbc ac6d 9a3d 1bc2 f4bb b49a c23d
00000200: 006e 7bbb fe40 0bbd 1773 9ebd 0dba 46bc
00000210: cd2f e8bd d874 b83c 5632 b2bd aa80 3dbd
00000220: cc73 82bd f513 15bd 465a 2dbd 78f7 52bc
00000230: 7473 943d 3760 9a3c 3714 17bc ee29 8e3d
00000240: 62cc 0abc 8481 a13b 4726 763c 8453 f93c
00000250: 396d bdbd b1e9 a3bd 1ad4 cabd f091 393d
00000260: 5643 23bd a0e0 b33d b18a 26bd 4758 a9bd
00000270: 8910 4ebd ae70 40bd 1dce 2fbd 493d 143d
00000280: ceaf 8fbd e284 943b 946d 83bd 8b4a f1bb
00000290: 254d aabc e1be 6b3d d2bd 98bd b95f 6a3a
000002a0: 5fab 8abb 0a50 9fbb 4dc3 9b3d 78d0 843c
000002b0: c93b 51bd 2303 dcbc ff1b 05bd 007a bb3d
000002c0: 5475 3c3d dfc4 c33d a45d b13c d071 08be
000002d0: ee9d 2a3d a7ad 02be 15d8 8c3d eebf 103e
000002e0: 35ea 9c3d 274a 783d 6226 853c 9caf 353d
000002f0: 5447 aebc 4e29 b43c b9f5 4b3d 934f e33c
00000300: 7bfd 30bd 95b4 003e b80a 943d 4f43 b3bc
00000310: 595e ea3c 2f04 f53b be3c f6bd 5fa0 fa3d
00000320: 624c 85bd c6e9 c9bd 9983 5d3d acb4 c0bc
00000330: 6f9a e43b 5698 a03c bfe0 063d 89a1 ecbc
00000340: 6555 363c da27 573e 34af dcbc 1b7b 623d
00000350: 3bad c53d e5ac 8a3d 6cc7 3fbd 8e37 0abc
00000360: d86d a3bd bbe4 943c eab8 a8bc 97f3 efbd
00000370: 1ef4 bbbd 9de9 87bd 9d2c 90bc d205 913c
00000380: 635e 053b 6905 4abc 6ee7 a8bd 997b 6dbc
00000390: bb71 8c3c 9d32 7b3c ad5e 93bc 8bc7 f73c
000003a0: da23 b53c 4660 133d caa4 bcbd 7dcb 0a3d
000003b0: 37ec 033c 343d e63d bd80 c0bd 0ec7 983d
000003c0: 2d73 1d3e 04b9 92bc c325 b83d 3d47 713c
000003d0: 9607 5b3d 1d8c 9abd 663d b03c 41ef e53d
000003e0: 6bc8 113d bbec d63b 5d77 a2bd be2b 583d
000003f0: 6217 6ebd 823c a53c f83a acbd 5a5f 403d
