Assets/Training/results/track2_learned/config_track2.onnx (onnx, 600385 bytes, 9 tensors)

action_model._continuous_distribution.log_sigma f4 [1, 2]
00000000: 1821 92be 4dca 39bf
-0.28540874 -0.7257431

action_model._continuous_distribution.mu.bias f4 [2]
00000000: ae31 0e3d 32a2 31b8
0.034715347 -4.2351145e-05

action_model._continuous_distribution.mu.weight f4 [2, 256]
00000000: f7a7 003d 1461 0ebc f2c5 0ebd e177 1ebd
00000010: 66b7 debc 76cf 96bc da79 58bd 457a a1bc
00000020: 163f 953c d0e1 f9bc 38ec 76bd 3638 013c
00000030: deb3 d0bc a8e8 d4bc 7439 033d 64ce c0ba
00000040: 8543 31bd 2761 2cbd fe01 dfbc 2f34 1a3c
00000050: ff32 3dbd fd87 e539 de15 113b fc6c cf3c
00000060: 6873 9fbd 3fcc f1bc cde4 30bd f437 8bbd
00000070: 87dd 9dbc 767e 083c 5989 5dbc bd5d ab3c
00000080: cac0 5dbd 4206 9c3c 2a55 8dba 16ec f73a
00000090: 79d4 e3bc c2de ea3a 4cab c83c 2651 fb3c
000000a0: 4042 8abd e347 41bc a008 acb7 8ce2 fdb9
000000b0: 94e4 023d 4d41 05bd c689 4e3c 55a4 87bd
000000c0: 5b5f 6dbd b350 d8bc 7edf 9c3c 812b 7cbc
000000d0: cb4c fa3a a283 d4bb 93e7 82bb 2316 a2bc
000000e0: fed9 953b 8869 eebc d582 15bd 2bb7 4e3b
000000f0: 98c5 30bd d05b 17bc df99 3dbd 3156 80bc
00000100: efc6 163d 5599 193b dabb c43c 9e33 04bd
00000110: 1302 fabc 86c8 05bd e29e 32bc c500 4dbd
00000120: 7a74 2dbd f297 2bbd 0d84 4338 6006 0dbd
00000130: 3fbd 8fbc 989c 013d 0917 3d3d d5ec a0bc
00000140: 71f4 b93c a9c6 2c39 99b4 12bd 7838 7fbc
00000150: e6ed b13a 479a 55bd 4764 42bc 4f84 50bd
00000160: a5d0 e3ba 3be3 8dbd 62ca b4ba 8d24 27bd
00000170: fa3a 0cbd 5c67 ff3c c89c 15bb 48c4 a0bc
00000180: 7811 9fbd 24e6 063c 613c 0e3d 581f b7bc
00000190: a054 63bd 4a4e 56bd dda6 13bb cf73 3e3c
000001a0: 1341 583b bb48 2ebd 64e2 aa3c 7e1c 02bb
000001b0: 2726 f0ba d411 133d 9587 9dbc a2b8 79bd
000001c0: 513b 063d 6af7 34bd 1df1 83bb 2d8f bc3c
000001d0: 2779 81bc 1345 ddbc 134e 283c f5ec 8fba
000001e0: 0ff7 27bd 134f e6bb 2a69 083c d26c 2b3d
000001f0: 1645 d0bc e225 babd 52d7 69bc e012 14bd
00000200: faa8 803c a14f ed3c 57cf 16bd 63c0 58bd
00000210: d7d7 3c3c 368c a0bc cd0d af3c 032b 75bb
00000220: 6a69 a5bc e45b c83c ada1 f4bc 2498 023d
00000230: 3b72 b5bc b61a 323b 32db 2abb 61ab 45bb
00000240: c268 ebbc 0bbf 99bd babe 41bc 3abc 5a3b
00000250: e651 a2bc 85d1 14bc d4c1 49bd 64ad 4dbc
00000260: 6016 41bd 16c0 c93c 17fd 93bd be87 c9bb
00000270: 93ad 03bd b861 413c 9b47 fab9 2356 11bd
00000280: 6ffa 20bc e540 f93b 4419 ed37 145d c4ba
00000290: b8d8 f53c cde8 893b aeeb 5f3b 8863 813b
000002a0: 5c12 babc d33d f63c 5e8c 6cbd 22cd efbc
000002b0: 7dfa 25bc 7ab2 50bd c255 4bbd e72a 90bc
000002c0: 0762 5dbc 5e73 e139 885a 203c 554d 33bd
000002d0: 40fe 1abd 28e6 24bc 273c 2bbc a31c eabc
000002e0: ae51 e13c dc8a 4bbc f225 dbbc 94bb 66bd
000002f0: 52e1 163b 9e50 59bc b3c4 4d3c 37bd 02bb
00000300: 6168 8bbd 190a adbb 36ad fbbb 7e15 953c
00000310: af37 c33c fe64 5f3a 2179 4639 8fa0 6fbd
00000320: 1f7e b73c bf6a ef3c a8c1 133c 97ef 6e3c
00000330: 2889 bab9 80b7 a2bc 4c14 a3bd eba1 8a3c
00000340: fba8 73bc 3489 26bd 7c2f 58bd ecb9 7dbd
00000350: 7957 be3c 0fda fc3c 8990 c4bb f93f 88bc
00000360: 10c5 0bbb b119 65bc 3101 46bc 78df a63c
00000370: aecf aa3c b5be 0f3d 4078 19bd 0360 bcbc
00000380: 985f efbc 2c3b 9c3c faca 2abd 068a 22bd
00000390: 37bf 073c f18c c4bb 2dc3 58bc 656a 05bc
000003a0: 951b e8bc 2e87 8c3c 897e 3bbd 6289 d53b
000003b0: 7c2e e13c 3689 003d b04b 5fbd c1c8 103d
000003c0: 30b9 f7bc 9655 42bd 8bcc 29bd 7a37 5cbd
000003d0: 7902 cf3b d888 5c3c d030 863c a708 fdbc
000003e0: a3d0 f23c f854 98bc 7a13 e3bc 9708 3dbd
000003f0: 9498 39bd 6481 a63c a1b5 8bbd 21b5 59bd
0.031410184 -0.008690137 -0.034856744 -0.038688544 -0.02718706 -0.018409472 -0.05285058 -0.019711623
0.018218558 -0.030503184 -0.06028387 0.007886937 -0.025476392 -0.025989845 0.032037213 -0.0014709947
-0.043277282 -0.04208484 -0.02722263 0.009411856 -0.04619121 0.00043779603 0.0022138278 0.025320522
-0.07785684 -0.029516337 -0.04318695 -0.067977816 -0.019270672 0.008330932 -0.013521516 0.020918721
-0.054138936 0.019045953 -0.0010782827 0.0018914964 -0.027811276 0.001791917 0.024495743 0.030678343
-0.067509174 -0.011796924 -2.0508014e-05 -0.0004842471 0.03195627 -0.03253298 0.01260609 -0.06623141
-0.057952266 -0.026405668 0.019149538 -0.0153912315 0.0019096372 -0.0064854184 -0.003994891 -0.019785946
0.004573106 -0.029103056 -0.036501724 0.0031542282 -0.04315719 -0.009238198 -0.04628932 -0.0156661
0.03681081 0.002343734 0.024015356 -0.03227579 -0.030518567 -0.032661937 -0.010902138 -0.050049562
-0.04234741 -0.041892953 4.6614605e-05 -0.034429908 -0.017546294 0.03164348 0.046164546 -0.01964418
0.022699567 0.00016477205 -0.035816763 -0.015577428 0.0013574928 -0.052149083 -0.011864728 -0.05090743
-0.0017380907 -0.069281064 -0.0013793225 -0.040806342 -0.034235932 0.031177215 -0.0022829045 -0.019624844
-0.07767004 0.008233581 0.03472555 -0.022353813 -0.055500627 -0.052320756 -0.0022529878 0.011624291
0.0032997772 -0.04254983 0.020859905 -0.0019853408 -0.0018321917 0.035905674 -0.01922969 -0.060967095
0.032771412 -0.044181265 -0.0040265457 0.02301749 -0.01580484 -0.027010476 0.010272521 -0.0010980653
-0.041007098 -0.0070284694 0.008325854 0.041851826 -0.025423568 -0.09089257 -0.014272528 -0.036150813
0.015705574 0.028968634 -0.03681883 -0.05291785 0.01152607 -0.019598108 0.021368885 -0.003740967
-0.020191867 0.02445788 -0.02986225 0.031883374 -0.022149196 0.0027176565 -0.0026070592 -0.0030161964
-0.028736476 -0.07507142 -0.011825258 0.0033376352 -0.019814443 -0.0090831565 -0.049257115 -0.012553547
-0.04714048 0.024627727 -0.072260074 -0.006150215 -0.032147955 0.011803083 -0.00047737066 -0.035482537
-0.009825333 0.007606613 2.8264367e-05 -0.0014981353 0.030010566 0.00420866 0.0034167576 0.0039486326
-0.022713833 0.030058777 -0.057751052 -0.02927262 -0.010130522 -0.05095146 -0.049642332 -0.017598582
-0.013512141 0.000430013 0.009787209 -0.04377492 -0.037840128 -0.010064639 -0.010451353 -0.028578108
0.027504768 -0.012423243 -0.026751492 -0.056331232 0.0023022485 -0.01326385 0.012559104 -0.0019949207
-0.06807018 -0.0052807448 -0.0076805605 0.018198725 0.023830263 0.0008521824 0.00018927875 -0.05850273
0.022399006 0.029225705 0.009018339 0.01458349 -0.00035578874 -0.01986289 -0.07962856 0.016922912
-0.014871831 -0.04065819 -0.05277966 -0.061944887 0.02323507 0.030865697 -0.0059986752 -0.016632067
-0.0021327175 -0.013983176 -0.012085245 0.02037023 0.020850983 0.03509398 -0.037468195 -0.022995
-0.029220387 0.019071184 -0.04169748 -0.03968241 0.008285335 -0.005998247 -0.013230127 -0.008143042
-0.028333465 0.017154302 -0.04577497 0.0065166214 0.027487986 0.031380855 -0.05451554 0.035347704
-0.030239671 -0.047444902 -0.041454833 -0.053763844 0.0063174334 0.0134603605 0.016380697 -0.030887915
0.029640501 -0.018595204 -0.027719248 -0.04615077 -0.045311525 0.02032537 -0.06821752 -0.053151254

network_body._body_endoder.seq_layers.0.bias f4 [256]
00000000: 153e e6bb ce0d ddbc 191b edba 1f83 71bc
00000010: 6b80 d53c c81f 0cbc 8e6a 723c fd0c c83c
00000020: ffd1 5a3a fc71 00bb 0ac8 26bc 5678 353c
00000030: 205b e1bc c66a e73c 07cd 31bc 69ae 153c
00000040: 4a31 31bb 961b 72bc 0ccb c23c 9aef 12bc
00000050: 2fde d23a f158 59bc bcc5 733c d1c2 983c
00000060: 9493 febb 68e2 f638 fa16 16bc f666 b63b
00000070: a185 a8b9 e567 173d 5f03 e03b 08a7 17bc
00000080: 4edf 90bc 8889 a536 a211 07bd 36ad b03c
00000090: fce3 8a3c 3a20 8f3c d93d 9e3b 979c 04bc
000000a0: 0cc0 40bc 1c76 b5bc 512b f5bb 0493 54bc
000000b0: f440 fe3c 3848 a33b b2d6 2b3d 7d1e 67bc
000000c0: 8d75 62bc 63d8 06bc de47 273d 6c34 7cbc
000000d0: 2151 653a 4e05 a9bc f511 12bc 33d2 68ba
000000e0: 9f83 283d 0fa8 edba dad7 27bc b3fd 48bc
000000f0: 3121 dfbb af24 233d c296 04bc 62e4 4abc
00000100: 9841 9b3c 4f14 1e3d 577d 913c 5b37 febc
00000110: 6c4e 26bc 70d9 a63c bc10 103c 1bb3 a53b
00000120: 7f67 49bc c8a7 37bb dacf 873c 3d04 41bc
00000130: 4043 a3bb 48ec a4bc 1292 1cbc dee7 7c3b
00000140: 1748 8bbc e4ce c43b 33b0 dbbb ca5d 75bc
00000150: 59c8 523c af1b 963c 6588 c1bb ce42 c1bc
00000160: 5aba 89bc 6c9a 883c 2c8d a4bc 583b d4bb
00000170: c5e0 c13c 0949 60bc 07ec 2d3c 97a1 033c
00000180: 73b9 a23b afb8 b8bb b45a 7e3c 59ea 903c
00000190: 10b2 593c 2d19 0c3b e8d7 023c 3e5a 81bb
000001a0: 55b6 14bc bb53 123d d9da c83b 0254 9c3a
000001b0: 1d1f 4f3c 033c cdbc 3333 eabc 77d5 fd3c
000001c0: 4a6e a9bc edb2 a8bb 827a a0bb 420d 173b
000001d0: 7180 78bc 9dbd 73bb a71b 74bc 5ee2 973c
000001e0: 2090 4fbc 5244 ccbb aa99 ea3c acd4 d53b
000001f0: ee2d 4abc 4301 31bb fafd c43b c5b1 f3bc
00000200: a2f5 9fbc a66f 10bd 51b3 203c ab99 cabc
00000210: fbcd cebc ecee ec3c ad2f b83a 0c65 37bc
00000220: c411 66bc 7a79 ddbc 1ca1 89bc 0e41 eabb
00000230: f6e3 23bd 2bd7 c53c 545a a838 742d 5e3c
00000240: 5554 2bbc 7617 10bc b11b c63c 7e9a 113c
00000250: f606 bb3c cca9 1d3d 9774 73bc 5cc6 ef3c
00000260: d287 49bb 63fb dc3b 0388 a13c 6355 36bb
00000270: 3638 003d d247 62ba 3674 01bd 6a2c 56bb
00000280: 8975 bb3c abd0 073c 9735 a1bc 9c4c 80bc
00000290: 5024 7d39 cedd ddbb ed50 13bc a860 60bc
000002a0: b1cf 51bc 087b 88bc 73c2 8fbc d4a2 133d
000002b0: aa17 2f3d 6341 a3bc 0f3f b1bc 87df a23c
000002c0: fbee a9bb 164c efbb 6f12 23bb 4c54 54bb
000002d0: c807 bb3c 006f 173c 9839 6b3c 2667 4dbb
000002e0: 5d20 8a3c c486 e4bc dcdf 353a 80c4 433b
000002f0: 1ff5 83bc deff 523c e3af 633c 8d92 c2bb
00000300: 513f 0a3b f5ff e93c 9f02 a33c 9584 3e3c
00000310: fa31 8e3c 0b65 8d3b 837d 24bc 2348 e2bc
00000320: 3a2e ab3a de0d 99ba 43be 3abb 822d dabb
00000330: e111 2cbc f74b 893c 656d 8ebc ddbc d53a
00000340: a72d 9dbc f3e6 3dbd 1e2d 25bc a04b 5dbb
00000350: 81cd 16bc 21b7 2cbc 6f65 0a3d 60a1 57bc
00000360: 76eb 413c e07a dcbc 5c4e de3c 3df5 a63b
00000370: a20f ae3b 6a9f b5bc e4ff a93b 2435 3bbc
00000380: d230 1d3c e06b 18bc 8f8d dbbb 5094 ae3b
00000390: e325 293b b334 5fbc 5da2 9dbc 3380 833c
000003a0: a300 9e3c b258 c23a 74bd 6dbc ebb3 523b
000003b0: 85ce d2bc 0ef7 003b 1b1a 94bc dcf8 9ebc
000003c0: bd1f 77bc c0fb b2bc 97d3 a9bb 274c 17bc
000003d0: 3b2f 61bc 9a48 35bc 2387 663b c2c4 deba
000003e0: a643 7cbc 7151 07bc 0a47 1a3a 831e 40bc
000003f0: 844b 5fbc 85a2 37bd c306 003d 16da 6abc
-0.0070264437 -0.026984122 -0.0018089741 -0.014740734 0.026062211 -0.008552499 0.014795912 0.024420256
0.0008347332 -0.001959919 -0.010179529 0.011076054 -0.027509272 0.028249156 -0.010852105 0.009135821
-0.0027037435 -0.014777085 0.02377846 -0.008968258 0.0016087944 -0.013265834 0.0148786865 0.018647583
-0.0077690575 0.000117723655 -0.0091607515 0.005566473 -0.00032143018 0.036964316 0.0068363394 -0.009256132
-0.017684605 4.933394e-06 -0.0329758 0.021566968 0.016954415 0.017471422 0.00482915 -0.008093975
-0.011764538 -0.022151046 -0.0074819704 -0.012974504 0.031036831 0.0049829744 0.041952796 -0.01410639
-0.013821972 -0.008230302 0.040840022 -0.015393358 0.0008747746 -0.020632412 -0.008915414 -0.000888142
0.04114115 -0.001813175 -0.010244334 -0.012267518 -0.0068093766 0.039829906 -0.008092584 -0.012383552
0.018952176 0.038593587 0.017759962 -0.031032255 -0.010150533 0.020367354 0.008793052 0.0050567514
-0.012292742 -0.002802359 0.016578604 -0.011780796 -0.004982382 -0.020132199 -0.00955631 0.0038590352
-0.017002149 0.0060061086 -0.006704354 -0.014975974 0.012865149 0.018323747 -0.005906152 -0.023591425
-0.016812492 0.016675197 -0.020086847 -0.006476801 0.023666749 -0.013689288 0.010615355 0.0080341315
0.004965955 -0.0056372504 0.015524555 0.01768987 0.013287082 0.002137731 0.007986046 -0.0039475253
-0.0090766745 0.035724383 0.0061296043 0.0011926892 0.012641695 -0.02505303 -0.028588867 0.030985577
-0.020682473 -0.0051482827 -0.0048974166 0.0023048674 -0.015167342 -0.0037191876 -0.014899171 0.018540557
-0.012668639 -0.0062337304 0.028637726 0.0065255966 -0.012340052 -0.0027008809 0.0060117217 -0.029747853
-0.019526307 -0.035262726 0.009808377 -0.024731478 -0.025244704 0.02892252 0.0014052294 -0.011193525
-0.014042322 -0.027035464 -0.016800456 -0.0071488684 -0.040012322 0.024150452 8.027689e-05 0.013560642
-0.010457118 -0.008794656 0.024183126 0.008886931 0.022830468 0.03849201 -0.01485934 0.02926939
-0.0030751121 0.006743835 0.019718176 -0.002782189 0.031303607 -0.0008631918 -0.031604968 -0.0032680281
0.022883194 0.008289496 -0.019678874 -0.01566153 0.00024141488 -0.006770826 -0.008991462 -0.01369492
-0.012805865 -0.016660228 -0.017548775 0.036043957 0.042747177 -0.01992864 -0.021636514 0.019881977
-0.0051859594 -0.0073027713 -0.0024882813 -0.0032398878 0.022830859 0.009242773 0.014356993 -0.0031342
0.016861135 -0.027896293 0.00069379597 0.0029871762 -0.016108094 0.012878386 0.013896915 -0.0059378804
0.0021094868 0.028564433 0.01989871 0.01162829 0.017357815 0.004315024 -0.01003969 -0.027622288
0.0013060041 -0.0011677106 -0.0028494752 -0.006658257 -0.01050231 0.016759856 -0.017386148 0.0016306896
-0.019186808 -0.04636283 -0.010081558 -0.0033767 -0.009204269 -0.010541708 0.03378814 -0.013161033
0.011835923 -0.02691406 0.027136974 0.0050951527 0.005311922 -0.022170741 0.0051879752 -0.011426244
0.009594159 -0.009303063 -0.0067002247 0.005327739 0.0025809936 -0.013623404 -0.01924246 0.016052341
0.019287413 0.0014827459 -0.014510501 0.0032150696 -0.025733242 0.0019678506 -0.018078854 -0.019405775
-0.015083251 -0.02184856 -0.005182694 -0.009234465 -0.013744171 -0.011064673 0.0035175763 -0.0016995894
-0.015396988 -0.008259163 0.00058852194 -0.011726025 -0.013628844 -0.044832725 0.03125645 -0.014334222

network_body._body_endoder.seq_layers.0.weight f4 [256, 67]
00000000: 3e81 38be ec55 6fbe 37d0 493d 9796 aa3d
00000010: 197b 2a3e b579 9e3d 01ff 9fbd 2f58 44be
00000020: 3032 033e b17b 28be 6fa7 09be 5e10 ba3c
00000030: 391b 873d a1df 543e dcf9 dabd 723b d83c
00000040: d656 f33d bfb2 44be 6b69 15be 5cea c2bd
00000050: 5ef3 3bbd 9858 933c 5467 aa3d a524 09bd
00000060: 07af e2bd 0ca8 fb3c ba52 80bd 1718 293e
00000070: 12d9 613e 5539 86bd 198c 5bbc dfc8 0b3d
00000080: 0ad0 34be af38 d5bc 9c31 d8bc dd7e a33d
00000090: c4e6 e5bd 3a4a 7e3e e8a5 ebbd fc5f f5bc
000000a0: cf2c 663e bcd5 063e e192 823e 98a6 2f3d
000000b0: 8063 a03c a8d4 39be c325 8a3c 4ba7 063e
000000c0: ed93 583d 637c 96bd 4081 04be ef8d a1bd
000000d0: e2d0 c13d 86eb 15be e514 343e e776 58bd
000000e0: 32f1 663e d1e7 a9be 7d09 37bd 17ea 553e
000000f0: 931b 5d3b 353d bebd a6ed dcbd e477 3a3e
00000100: fede 0abc 18e1 263a e90d 043b cd4a 933a
00000110: a49a 29ba f866 e33d 9e78 563c 976d 46bd
00000120: fdbf d6bc 7859 c2bd 8f65 8e3c 0f1b a6bc
00000130: 54f3 393e f931 44bd d2c7 033d 6513 6abd
00000140: 0c30 a6bc 80c5 07be dfeb 5ebe 0f68 ff3d
00000150: 13cf f43d 724f 31be 5a95 d43d 2ed7 9ebd
00000160: ad03 c43d 1073 21bc ae3e 90bd ad9d 233d
00000170: 23cb 233e 6e24 c3bd dc41 42be d7d3 d7bc
00000180: c44c 163d 3ec3 de3d a9f3 9d3e d267 8c3d
00000190: 03f5 07be c2fd 25be be13 41be 2b15 6ebe
000001a0: cec8 0ebb 6784 11be 4944 85be 2da6 56bd
000001b0: 8a59 08be 3e94 18be ccbd 353e c908 b9bc
000001c0: d800 d13b 6101 bd3d 716d 103e 2533 5bbe
000001d0: 1992 38be a0ee d3bd d06f 7a3e 3c64 60bc
000001e0: 447a 9f3d 496d ea3d 26f1 0fbe 3f50 4dbe
000001f0: cde3 0b3e f8a6 d53d 03f7 87bd 8927 323e
00000200: 6d7d 90be c3c7 f93d 978c 1d3e 0e37 00bd
00000210: 1893 c03d a877 b43d f775 9ebd 2952 143e
00000220: 5767 82be 6dda 973d b2e4 8dbd 2479 403e
00000230: 2753 743d 2c87 0c3e ba0f 59be e552 7e3d
00000240: d0fc 16bd 6bbb 13bd 5a8e 5ebd a373 a1bd
00000250: 4449 86bd 4740 213d 0e30 803d 237c bb3d
00000260: b16e b93d da3c c8bd 578f 02be 09bb 903d
00000270: 88dc c23e 83c8 553e f7dc 3a3e 6f53 84be
00000280: 6687 bbbd 6590 ecbc 57b2 c0bc 6da0 40be
00000290: bfe9 ecbd db51 403e 36b0 8ebd cc38 9cbc
000002a0: 21f6 0ebe a862 243d d14c 33bd bea3 f83d
000002b0: 0c5f da3d d91d cb3d 96fe 443d 7c5c 4fbe
000002c0: 6179 ccbd f905 6abd a228 c9bd 7ad1 eb3c
000002d0: cdac 0dbd daf7 6c3d 4815 a13c 5784 1cbe
000002e0: b4f9 aebd d376 663e 0c04 1d3e 9b1f 5bbd
000002f0: 5f04 a83e b94d 36bd 077f 09be 59bc ba3d
00000300: 1b51 00be f041 33bc a34b cabd b452 d4bd
00000310: 45ca d73d 8971 f13b 73b1 5dbb b0c3 44be
00000320: 054f 493d 5b8f 903d 39c3 86bd 4079 66bc
00000330: 19dd 5dbd f9c5 afbd e0ad 6e3d 2f0a 283e
00000340: 9d3e fabd fc13 013e 97d9 d6bd e3e8 2b3e
00000350: 2f78 29be aa0e 24bc fb0c 90bd db00 fcbd
00000360: ec97 913d ab89 4d3d c262 f9bd ede0 3a3e
00000370: 229d 2d3e 791d 893d d097 65be effc b53d
00000380: f9b4 f3bd 6223 81be 4a4f 8e3d b167 48bc
00000390: 3f84 0a3d ee5f 20be 9ada 30bd c35f 273e
000003a0: 63dc e93d 427b 67bd ebad 3f3a 5b1e bbbc
000003b0: 4e99 4d3e af28 ea3d fbd9 6a3d 1db4 053e
000003c0: 240a fc3d 1e13 bf3c 9db1 093e a099 403e
000003d0: 3760 7c3e 617c 97bd feb6 a7bd 4c8b 273e
000003e0: 4027 6b3d c6bf 31be 645f 603d e013 b8bd
000003f0: 07ef f7bb fd10 dfbd 6730 35be f63b 31be
-0.18018052 -0.2337262 0.049270835 0.08329504 0.1664852 0.077380575 -0.0781231 -0.19174264
0.12812114 -0.16453435 -0.13442777 0.022712883 0.06596989 0.20788433 -0.10692188 0.026395533
0.11881797 -0.19208811 -0.14590995 -0.09517357 -0.04588639 0.01798658 0.083204895 -0.033482213
-0.1106854 0.03071978 -0.06265779 0.16513096 0.22055462 -0.06553904 -0.013400101 0.034127112
-0.17657486 -0.026028005 -0.026390843 0.079831816 -0.11225656 0.24833003 -0.115062535 -0.029952995
0.2247803 0.1316747 0.25502685 0.042883486 0.019578695 -0.18147528 0.01686371 0.13149755
0.052875448 -0.07347944 -0.1293993 -0.078884 0.09463669 -0.14640626 0.17586096 -0.05284777
0.22552946 -0.33184674 -0.044686783 0.2089008 0.003373836 -0.09289018 -0.10787515 0.18209797
-0.008476017 0.0006365939 0.0020149893 0.0011237502 -0.00064698816 0.11103624 0.013090281 -0.048444357
-0.026214594 -0.09489721 0.017382411 -0.020276574 0.18159229 -0.04789922 0.032172985 -0.057147402
-0.020286582 -0.13258934 -0.21769665 0.124710195 0.11953559 -0.17315462 0.10380049 -0.07755886
0.095710136 -0.009854093 -0.07043205 0.039945293 0.1599546 -0.09528433 -0.18970436 -0.02634613
0.036694303 0.10877083 0.3084996 0.0685574 -0.13277058 -0.16210082 -0.18855187 -0.23250262
-0.002178717 -0.14210664 -0.2602866 -0.05240457 -0.13315406 -0.149003 0.17748183 -0.022587197
0.0063782744 0.09228779 0.14104249 -0.21406229 -0.18024482 -0.103482485 0.24456716 -0.013695773
0.07786992 0.11446626 -0.14056835 -0.20050143 0.13661118 0.104322374 -0.066389106 0.17397894
-0.28220692 0.12196305 0.15385662 -0.031302504 0.09403056 0.08811885 -0.07737344 0.14484467
-0.25469467 0.07414708 -0.06928386 0.18796211 0.059649613 0.13723439 -0.21197405 0.062090773
-0.036862195 -0.036067408 -0.054334976 -0.07883384 -0.06556943 0.03936794 0.06259166 0.091545366
0.09054316 -0.097772315 -0.12749992 0.07066924 0.38058877 0.2087727 0.18248354 -0.25844905
-0.091566846 -0.028877446 -0.023522539 -0.18811198 -0.11568021 0.18781225 -0.06967203 -0.019070052
-0.13961078 0.04013315 -0.04377443 0.12140606 0.1066266 0.09917802 0.048094355 -0.20250124
-0.09984089 -0.057134602 -0.09822203 0.02878641 -0.034588624 0.057853557 0.019663468 -0.15284859
-0.08543721 0.22506265 0.15333575 -0.05349694 0.32815835 -0.044507716 -0.13427363 0.09117956
-0.1253094 -0.010941014 -0.09877708 -0.10367337 0.10536627 0.007368271 -0.0033827692 -0.19215274
0.049147625 0.07058593 -0.065802045 -0.014066994 -0.054165933 -0.08582682 0.05827129 0.16410135
-0.12218974 0.1260528 -0.10490721 0.16788058 -0.16549753 -0.010013262 -0.07033726 -0.12304851
0.07109055 0.05018012 -0.1217704 0.18249865 0.16954473 0.066950746 -0.22421193 0.08886134
-0.11899752 -0.25222307 0.06948717 -0.012231753 0.033817526 -0.15661594 -0.043177225 0.16345124
0.114189886 -0.056514032 0.00073119876 -0.022841623 0.20078012 0.11433541 0.05733679 0.13056989
0.12306622 0.023324545 0.1344666 0.18808603 0.24646078 -0.0739677 -0.081892 0.16361731
0.05741048 -0.17358312 0.05477847 -0.08988166 -0.007566336 -0.10891912 -0.17694245 -0.1730803

network_body._body_endoder.seq_layers.2.bias f4 [256]
00000000: 541e 57bc 5ebd 583c 392d b63b 3270 8d3b
00000010: c685 77bc ab7f d2bb db1d 04bc 2857 a3bc
00000020: f34d 85bb 14dd 12bb b375 49bb b5d1 3fba
00000030: cb31 05bc 5e74 a2bb bd2d 8eba 7063 da3b
00000040: f5ce b33b 6e19 bcbc 1cc3 a13b 9fb2 6d3c
00000050: 5f5c 13bb 5ad1 6f39 d7a0 003b dabd 01bd
00000060: 9b55 42bc f22d 57bc f73d f8ba d95f a7bc
00000070: 2014 abbb 3ada 8c3b 01ff 16bc b86d ccbb
00000080: 899c 42bc ed37 e0bb d54c 883a 3574 97bc
00000090: ccd3 c43c 347c bcbc d9a0 36bc ffaf 633a
000000a0: a134 5f3b d1a0 a93b c684 1bbc eb24 5f3b
000000b0: f169 68bc 61a6 f33a 8d6d 36bc cc04 cdbb
000000c0: 0cc8 8a3b c816 a9ba f707 9d3c 0e3d d2ba
000000d0: 5a1a 8fbc 07c8 333c 3d4a 4e3b 9571 fcbb
000000e0: 574a a7bb bb69 61bc 5b63 d63b 2460 41bc
000000f0: c2c7 e4bb 264f c9bb 345b 063a c706 443b
00000100: 28c4 123d bfd9 4f3b 8883 ecbb 2b18 daba
00000110: e45d 67bc 6d32 04bb 6abc 29bb 85c2 0d3b
00000120: a507 babb c211 b8bb ba56 7abc e7ed c3bb
00000130: 0f07 bebc f538 e93b 7835 16bc dd6d 93bc
00000140: ef4c 3bbc db16 c5bb 2be9 0fbc 1d07 e538
00000150: 1b37 03bd 4b35 53b9 0ad2 0b3c 3743 5fba
00000160: 88c7 85bc 4788 37bc 525f fd3a bcb0 52bc
00000170: 095a 723b e126 03bc 8627 0abc f16e 0cbb
00000180: 5352 1fbc 5114 babb 84b8 c7bb 249e 833b
00000190: a9ab 0c3c 49ee 9ebb d1c6 41bc 9df8 753c
000001a0: 9fa7 afbb fb3a ff39 4220 443a dd58 fe3b
000001b0: 88f1 a7bc 74e4 9ebb a253 b8bb b53d 75bc
000001c0: 4bf0 1a3b 6a65 8fbc 7b1c 90bb 2994 d1bb
000001d0: a8d2 8c3a 8099 38bc 6d3b 26bc c618 acbb
000001e0: 3535 99bb 7f9c 64bb e4dd 4dbb fa6c 7cbc
000001f0: a945 50bc 3e26 33bb a8c1 92bc 1ff1 9c3c
00000200: 2720 78bd 3b9f f93a f028 3fbc d963 febb
00000210: 08d0 07bc cd8a d2bb 6843 483c 2057 bc3b
00000220: 3812 4dbc d9ce 91bb 3dd8 7fbc ff6b ff3b
00000230: c650 9cbc 5bf6 693c 85c0 d83b 8924 b9bb
00000240: 1d2e 103c fa20 dcbc 8aa5 0d3b 646c 0f3c
00000250: 0654 31ba ef64 eebb 70b3 15bc 327a 42bc
00000260: ddba d8bb 07c2 ee3b dbaa 0dbc 5b48 873b
00000270: 25f8 9f3c 92b7 4f3b 5668 483a f2d2 bc3b
00000280: e386 fb3b 73c8 aa3c 4fc4 343c a95e fb3b
00000290: 3bea 5dba 8afe 2cbc 9231 37bc 2c76 a83a
000002a0: 7870 2abc f0c2 9dbc 11a1 4cbc 1876 e83b
000002b0: 7b05 64ba 4baa 223c cd8c 13bc 5035 a13c
000002c0: 5fa3 ca3b 30b8 263b 0412 2abc 1da9 1fbc
000002d0: 1f17 18bc 4628 06bc 7d32 2ebc ba68 19bc
000002e0: 8e98 6bbb c9b6 fb39 e7c7 8d3c f414 fbbb
000002f0: df00 1d3a 3cd3 04bd 64eb 76bc b2cd 47bc
00000300: a7f6 363d b64d 2ebc 1a7c 3f3b affc 9fbb
00000310: 21d5 f93b 6c2d 903b a0db 1cbd 7c1a 6bbc
00000320: cef6 3bbb 9b0a 25bb c542 80bb 263f a2bc
00000330: 454e 82bc 6812 7cbc f9b6 373c 082b dabb
00000340: 5c22 3abc b4e1 eb39 1cbf 5cbb ca60 1bbc
00000350: f72a 14bc 50f6 f33b 17fb a73b ca32 95ba
00000360: 7a0d 163c 8940 17bc 419a 3a3b bfc0 81bc
00000370: ba02 13bb 6d7a 1a3c 0ed4 93bc 1c42 07bc
00000380: d7c8 b0bb bf78 bfbc 16b9 8eba 0b76 bbbb
00000390: 0db3 39bc b46f bf3b 5873 30bc 3423 0a3c
000003a0: 7df7 eb39 150d 2bbc 246f 8abb ffa7 8abc
000003b0: bf08 03bc 6094 233c d0ac ad3b e3b1 02bd
000003c0: 3960 7cbc c496 9f3c b8e7 8b3b 5052 5fbc
000003d0: b7e9 a43b 2052 163b 3443 f139 f355 1bbd
000003e0: ca46 d7bb e3c1 e2bb eddf 9abb ccba a8ba
000003f0: dd2f 493b c157 8abc 652d 5abc 5f9d 0c3c
-0.013129789 0.013228742 0.00555959 0.0043163532 -0.015107578 -0.0064239106 -0.008063759 -0.01993902
-0.00406813 -0.0022409605 -0.003074032 -0.00073173206 -0.008129547 -0.0049577197 -0.0010847371 0.006664686
0.0054873177 -0.022961345 0.004936589 0.014507919 -0.0022485477 0.00022870806 0.0019627118 -0.031675197
-0.01186123 -0.013133513 -0.0018939365 -0.020431446 -0.005220905 0.0042984756 -0.009216071 -0.0062386654
-0.011878141 -0.0068426044 0.0010398874 -0.018488029 0.024026774 -0.023008443 -0.0111467475 0.0008685588
0.003405847 0.0051766415 -0.009492105 0.0034049104 -0.014185415 0.0018589013 -0.011134517 -0.0062566753
0.004235273 -0.0012900466 0.019168837 -0.0016039924 -0.01746862 0.010972983 0.0031477355 -0.0077039697
-0.0051052975 -0.013758118 0.006542606 -0.011802707 -0.006981821 -0.0061434684 0.00051252847 0.0029911266
0.0358316 0.003171548 -0.007217828 -0.0016639283 -0.014121506 -0.0020171658 -0.0025899657 0.0021630835
-0.005677181 -0.0056173513 -0.015279466 -0.005979288 -0.023196725 0.0071173855 -0.009168021 -0.017996723
-0.011431917 -0.0060146875 -0.008783619 0.00010920896 -0.032034975 -0.00020142381 0.008533964 -0.00085167907
-0.016330495 -0.011201925 0.0019330776 -0.01285952 0.0036979935 -0.008004875 -0.008432275 -0.002142843
-0.0097242175 -0.0056786914 -0.006094994 0.0040166546 0.008585849 -0.004850183 -0.011827187 0.015012887
-0.005360558 0.00048681334 0.00074816134 0.007762058 -0.020500913 -0.004849011 -0.005625204 -0.014968325
0.002364176 -0.017504413 -0.0043979264 -0.006395836 0.0010743933 -0.011267066 -0.010146004 -0.0052519767
-0.004675532 -0.0034883318 -0.0031412775 -0.015406841 -0.012711921 -0.0027336027 -0.017914608 0.019157944
-0.060577538 0.0019044647 -0.011667475 -0.0077633676 -0.008289345 -0.0064252377 0.012223102 0.005747691
-0.012516551 -0.004449707 -0.01561552 0.0077948566 -0.019081485 0.014279927 0.006614747 -0.0056501073
0.008800057 -0.026871193 0.0021613562 0.00875387 -0.00067645346 -0.007275216 -0.0091370195 -0.011869954
-0.0066140727 0.0072863135 -0.008646692 0.0041284985 0.019527504 0.003169511 0.0007644942 0.0057624513
0.007675992 0.020847535 0.011033132 0.0076711965 -0.0008465384 -0.010558734 -0.011181252 0.0012852601
-0.010402791 -0.019257993 -0.012489573 0.007094156 -0.00086983264 0.009928296 -0.0090057375 0.019678742
0.006184026 0.0025439374 -0.010380272 -0.00974491 -0.009282856 -0.008188313 -0.0106321545 -0.009363348
-0.0035949084 0.00048010636 0.017307235 -0.00766241 0.00059892045 -0.03242801 -0.01507077 -0.012195038
0.04466882 -0.010638645 0.0029218257 -0.004882417 0.007624284 0.004399946 -0.03829539 -0.014349576
-0.0028681043 -0.0025183323 -0.0039142095 -0.019805502 -0.015906462 -0.015385248 0.011213058 -0.0066579618
-0.011360731 0.00044990855 -0.0033683246 -0.0094835255 -0.009043447 0.007445134 0.005126368 -0.0011382934
0.0091584865 -0.009231695 0.002847329 -0.015838979 -0.0022432045 0.009428603 -0.018045451 -0.008255508
-0.0053950357 -0.023373006 -0.00108889 -0.005720859 -0.011334193 0.0058421735 -0.010769688 0.008431245
0.00045007086 -0.010440131 -0.004224675 -0.01692581 -0.007997691 0.009984106 0.005300142 -0.031907927
-0.015403801 0.01948107 0.0042695664 -0.013630465 0.005032744 0.0022937134 0.00046017172 -0.037923764
-0.006569718 -0.0069200858 -0.004726401 -0.0012873053 0.0030698695 -0.016887547 -0.013316487 0.008582442

network_body._body_endoder.seq_layers.2.weight f4 [256, 256]
00000000: 20dc 8fbc 67e8 d73c 1639 883d c920 6cbd
00000010: 8f0b 363c e9cd 54bd 50af 48bd ea27 a5bd
00000020: 2970 483d 15b2 153e 8505 e03d 4406 073b
00000030: df68 813c 70e1 c3ba 3eb8 03bc 72f4 173d
00000040: 293c 9fbb ae56 93bc 794c f73b 04c1 4dbd
00000050: ccb0 04bd 96c5 923d 19ee a2bd 9ae5 5e3d
00000060: bef2 a2bd ea99 293d 4b48 9cbd beb1 983d
00000070: 6731 fbbd ed74 93bd 8540 d1bd 5afa 993d
00000080: d666 353d 7405 3e3d 174e 363d 5104 4dbc
00000090: 575f dcbc 53b8 263d 1ba7 ec3d 279c 733d
000000a0: 5a33 0dbe 02c8 5e3d 6366 20bd 7eab 96bd
000000b0: cc9e 7a3c 9486 05bd 7c8b f7ba af88 843d
000000c0: 03c8 1ebc ba03 b83c ae4c 513d fbe1 a43d
000000d0: beb7 2cbd d322 60bc ed4b 9a3d 98bf d1bb
000000e0: 7133 28bd 5da1 c83c 67c0 c43c 1167 5ebc
000000f0: bdcd 8d3c a3aa 863d c2df a4bd 0f2a 103e
00000100: 90aa 21bd 284f e83c e512 05bc 8b14 bc3c
00000110: 7675 37bd 733b 4d3c c033 033d f599 753d
00000120: 06cd d43d a2c0 d53b b03c 73bb eb1c f13c
00000130: 5b9d 713d fa4c e6bc f86a 4abc c84f 55bc
00000140: be95 623c b73c edbc 683d 2d3d cd33 273c
00000150: d3c2 343d 6aad 7a3d 76f6 6c3c 4e8a 793d
00000160: cb66 a13d 678e 69bd 8c9d 003d cae1 533d
00000170: c231 e23d cb42 b33c 7705 943d 03e6 303e
00000180: d162 b93d 1f41 06bd 4f88 413d db86 89bc
00000190: efb8 7b3d 63fa 09be 9b52 72bd 996a 1dbe
000001a0: b7cb a5bd 1eb8 d83c d2ad e03c fca4 213d
000001b0: b788 e53c c1be 96bc ec95 193b 9411 46bd
000001c0: 8bfa 71bc 96c2 a33b 813e 7a3c 6129 12bd
000001d0: df02 7ebd 4a02 66bd 643d 3cbd e510 efbc
000001e0: 8070 4b3d 67b1 53bc 2d88 893d 664a ae3c
000001f0: 27fe 6bbc ad37 91bb ea24 9a3d 20e8 d43c
00000200: 1c30 893d 5d7a 343c 7b1d 533d 5258 663d
00000210: afb7 6cbd d094 ed3d aad4 47bd dfff 49bd
00000220: 7aa8 b93b 27af 27bd fe95 913d 2bd7 00bd
00000230: 36ec e53c 6116 a33c fd28 963c b427 083d
00000240: c042 793d ab51 513d 1739 3a3e d0d7 91bd
00000250: 23bf cfbc 158a c63c b203 83bd 3034 a13b
00000260: b269 193c 95d6 a7bb b77a df3c 337e 6a3c
00000270: ca8c 963d 5922 45bd 724a d83c 12aa 38bd
00000280: e999 edbc a245 2bbd 3c4e d83c 7236 d5bd
00000290: 7d9e 2b3d e2aa c03d b15a 753b ba5b 563c
000002a0: b0ff 80bd adb7 02bd 4e86 21bc a7aa f13b
000002b0: 47d8 a43c a7a6 133d f3b2 f4bc 6874 8ebc
000002c0: b29f 383e ad44 2dbd 7b0f 85bd c743 37bd
000002d0: d0bf d9bc de9a f5bd 115b e73c a169 b8bd
000002e0: be86 06bd f92d 5a3b b81c e5bd 2200 a43d
000002f0: da54 673d 1369 dabd 20ab 29bd 0e4e d43c
00000300: f9e3 95bc fcca 27bc 7a31 8e3d 6fd5 fabc
00000310: 1c96 8ebc 6c3e b23d 4e91 20bc 8592 1abb
00000320: 43f2 c1bc f121 a33d 2bbc 68bd 98df fd3c
00000330: 28d9 38bd 98b2 983c 20d1 dfbc b6c3 88bd
00000340: 8f68 ddbc 3b86 543d 254c 1c3d 25c4 ce3c
00000350: 7516 7c3d e6ce 1d3e bf50 8abd 8a29 d5bd
00000360: 4e28 243d dab4 903d 2def 96bd 9eae 0bbc
00000370: 3b42 e83b 7810 273d c86b 8abd 4b92 663c
00000380: b2b3 7bbd c062 263d 9abf 94bd 3b3b 783c
00000390: eff7 023e 1ea5 e1bc 780e f63b 3719 6fbd
000003a0: bccd be3d ceb2 4e3d e082 26bd 80fc 55bc
000003b0: c8f4 703d ec51 3e3d 11f1 d9bd a279 27bd
000003c0: 4819 8cbc c056 0b3d bf83 95bb e698 f9bc
000003d0: 0985 403d 0c12 113d 650b dabc 10ee 883d
000003e0: 95a9 0b3c a2d1 32bd d087 7fbd ab00 2cbd
000003f0: 2a73 523c 2763 a2bd 3b8a 493d 2638 49bc
-0.017561018 0.026355935 0.06651513 -0.057648454 0.011111154 -0.051954184 -0.048995316 -0.08064254
0.04893509 0.14618714 0.10938553 0.00206031 0.015797077 -0.0014944505 -0.008039532 0.037098356
-0.0048594666 -0.017985668 0.007546958 -0.050232902 -0.03239517 0.07166593 -0.0795557 0.054418184
-0.07956456 0.04140655 -0.07630976 0.07455777 -0.12265282 -0.07200036 -0.10217384 0.07518454
0.044287525 0.04639192 0.044508066 -0.012513236 -0.02690093 0.04070313 0.1155531 0.05947509
-0.1378912 0.05438996 -0.039160144 -0.07356928 0.015296649 -0.032599047 -0.0018886174 0.06471383
-0.009691241 0.022462714 0.051098518 0.08050915 -0.042167418 -0.013680178 0.07534013 -0.0064010136
-0.041064683 0.024491007 0.024017526 -0.013574378 0.017310018 0.06575515 -0.08050491 0.14078544
-0.0394693 0.028358057 -0.008122181 0.022959014 -0.044789754 0.012526381 0.032031775 0.059961278
0.103906676 0.0065232078 -0.003711503 0.029432734 0.058987956 -0.028112877 -0.012354605 -0.01301951
0.013829647 -0.028959615 0.04229489 0.010205221 0.04413111 0.061200537 0.014463058 0.060922913
0.07880934 -0.05702057 0.03140025 0.051729 0.11044647 0.021882435 0.07227605 0.17275243
0.09052051 -0.032776948 0.047249135 -0.016787937 0.061455663 -0.13474421 -0.05916081 -0.15372695
-0.08095496 0.026454981 0.027426634 0.039463982 0.028019292 -0.018401505 0.0023435308 -0.048356608
-0.014769207 0.0049975617 0.015273691 -0.035683993 -0.062014457 -0.056154527 -0.045956984 -0.02918286
0.049667835 -0.012920714 0.067154266 0.02127571 -0.014403856 -0.004431686 0.07526572 0.025989592
0.06698629 0.011015502 0.051541787 0.056236573 -0.05779236 0.11600649 -0.048786797 -0.049316283
0.005665836 -0.040938523 0.07108687 -0.0314552 0.028066736 0.019908132 0.018330092 0.03324099
0.060854673 0.051103275 0.1818584 -0.07121241 -0.025359696 0.024235765 -0.06397189 0.0049195513
0.009363579 -0.0051220157 0.027280195 0.014312315 0.07351072 -0.04812846 0.026402686 -0.045084067
-0.029004054 -0.041814454 0.026404493 -0.10410775 0.041899193 0.09407593 0.003743809 0.013083393
-0.062987685 -0.031913448 -0.009858681 0.0073750797 0.02012266 0.036047604 -0.029870486 -0.017389491
0.18029669 -0.042301822 -0.06497093 -0.044742372 -0.026580721 -0.11992429 0.028241666 -0.09004522
-0.032843344 0.0033291562 -0.11187118 0.08007838 0.056477405 -0.106645726 -0.041422963 0.025916126
-0.018297182 -0.010241266 0.06943031 -0.030619351 -0.017405562 0.08703312 -0.009800268 -0.0023585868
-0.02367509 0.07965458 -0.056820076 0.030990407 -0.04512897 0.018639848 -0.027321398 -0.06677954
-0.027027396 0.051885825 0.038158555 0.025240013 0.061544854 0.15410957 -0.06753682 -0.104083136
0.0400775 0.07065745 -0.07369838 -0.008525519 0.0070879734 0.04078719 -0.06758839 0.014072965
-0.061450668 0.04062152 -0.072631076 0.01515084 0.12789892 -0.027544554 0.007509049 -0.058373656
0.093165845 0.05046349 -0.040652156 -0.013060689 0.05882719 0.046464846 -0.10641683 -0.040887482
-0.017101899 0.034018278 -0.0045628245 -0.030468415 0.047001872 0.0354176 -0.026616761 0.06686032
0.008524318 -0.043656953 -0.06238538 -0.041992825 0.01284484 -0.07929068 0.049204092 -0.012281453

network_body._body_endoder.seq_layers.4.bias f4 [256]
00000000: f73a 5b3c 6127 05bd 619a 06bd 5621 d2bc
00000010: 618b 4f3a 9ecc 65bc 86d7 a0bc f71b 9fbc
00000020: 58d9 113c 70f2 83bc 56cb 4fbc b26c 8fbc
00000030: 430b 313c f2d2 dbbc f42c 523c 6572 c3bb
00000040: aebe fbbc 5faf c8bc 1f0c a4bc 5ed6 34bb
00000050: ce1d 19bd 5dcc cbbc 5e88 3ebc da0a 503c
00000060: e09b cc3b c1db 8abc c2be 6b3b bbc8 e0bb
00000070: 81b5 a5bc f59d 2c3c 7487 f63b 37d8 4e3c
00000080: e363 48bc b872 a63b c1e3 a53c db70 d8bb
00000090: 4ed5 41bc 71fe a63b 6d13 843c c2c4 8f3c
000000a0: 4dda 013c fab1 38bc 2397 1cbc bd6f 3dbb
000000b0: 2e19 693c b611 a5bc 9304 463c 6a59 bbbc
000000c0: 40c3 88bc 72c7 69bc 6662 e13b eab8 283c
000000d0: da6f d2bb c90f 573b 7b71 903a e4d3 8ebc
000000e0: 2030 7abc 2487 71bc 089e 75bc 27cd 7dbc
000000f0: faa5 13bc 3e95 63bc bc4a 96bc b7d0 cd3b
00000100: 7f6b 253c e3a2 393c 4998 4f3c 315e 5cbc
00000110: b11e bcbc c5b2 17bd 6ec6 5cbc f117 38bc
00000120: 8e71 c2bb e234 abbc 3880 fabb 83a1 b9bc
00000130: 4a5d 19bc 9684 833c 7624 a53c c6c9 dbbc
00000140: cb16 a03c 3824 a3bb 65a6 53bc 7c03 98bc
00000150: c1de ecbb 83fe c6bc e200 113c deef b1bc
00000160: 5d7d dab8 8c75 bab8 6918 543a 56f1 aabc
00000170: 7c0a b0bc 330a 503c 6a97 7abc 97a8 4cbc
00000180: b6aa a3bc 07a9 53bc 61b4 573c 315c 4abc
00000190: 994d 97bb 6662 a9bc 4211 efbb aabd 853c
000001a0: 27fe f63b e503 90bc f9ae 3e3c ae35 2bbb
000001b0: 9af2 d9ba 6e5a 913c 570d 0cbc f530 24bc
000001c0: 0146 ab3c 5aa6 46bd 9f6a 88bc c9ac 6c3c
000001d0: 4b97 cdbc b538 09bd a21b 78bb 28f9 88ba
000001e0: 493a dcbc 22e9 97bc 73ed 7bbb 6f98 a53c
000001f0: 5b89 97bc b1b0 3bbc 7326 b4bc 24a4 03bc
00000200: e802 f33a 57f5 8a3c 8496 a6bb 6e73 b6bc
00000210: 11a2 523c e208 f5bc 4701 7c3c b4f2 233c
00000220: ff15 23bc c690 7a3c 9acf 1439 a449 903c
00000230: d900 e9bc e103 c3bb ec9b c1bb 47a9 913b
00000240: 3544 ccbc 62e8 02bb 6d0b 93bc 08d5 59bc
00000250: 1c76 02bd 8ac9 de3a 677f 3a3b 0d43 9f3b
00000260: 9290 a1bc 8f54 713c e4a0 b4bb 3b1a b6bb
00000270: 430d 7d3a 9b81 943c a0b5 853c b5e0 123c
00000280: b4e2 d73a 1813 ecbb 19ec 55bc 263e 7f3c
00000290: 5bbc 8e3c a7ae 943a 002b b2bb ca92 fb3b
000002a0: 6fb5 a0bc c44a 893c 1825 28bc 4889 88bc
000002b0: b1bd 643c b85b b1bc ad89 4bbc 7aca f0bc
000002c0: e7f4 dc3b 4ddb 63bc ce07 40bc 73ad cb3a
000002d0: 5096 65bc ca93 a8bc d092 f0bb fd1d dfbc
000002e0: ac7b 843c 186d 073c 849c 74bc 8ead b2bc
000002f0: e772 69bc d3df ac3b 6856 393c 76a5 af3b
00000300: d915 ecbb 650a 283c d21a 0bbb 502e 473c
00000310: 8186 193c a43c 38b9 39b8 0ebc 05f2 abbc
00000320: eb22 853c 3393 9d3c 0918 4e3c 229f 443c
00000330: f32a 92bc 0b21 51ba 2a9d 66bc bbb2 dbbb
00000340: c600 9bbc 9961 373a 5001 3ebc 26e3 90bc
00000350: 7fa3 5e3c c053 893c 7178 bebc e4b7 5ebc
00000360: b365 6bbb fcc4 05bd 5846 c2bb 1e3a 673c
00000370: 6460 083c ca9d c9bb 36aa 803c 6eae 2abb
00000380: 2d29 b9ba 526a 893c 2b4a 8fbc 261f 9bbc
00000390: 16bc 3d3c fe81 063c 8a19 81bb 48f5 033b
000003a0: 60d5 25ba 2762 1abc 695f 2ebd 8caa 173a
000003b0: 14d5 743c e14e a13c 4b2d 8cbc 3f71 833c
000003c0: 2692 20bc cff4 67bc 0178 b0bc d623 81b9
000003d0: 1040 2b3a f19a 033c 8387 543c 1448 b9bc
000003e0: 56d6 c83c 6252 03bd d854 5ebc 2312 44bc
000003f0: eaf8 71bc a91d 583c f57f d6bb cfc0 a5bc
0.0133807575 -0.032508258 -0.03286207 -0.025650661 0.00079171924 -0.014025835 -0.01963402 -0.019422514
0.008901916 -0.016106814 -0.012682756 -0.017507885 0.010805908 -0.026833985 0.0128281005 -0.0059645646
-0.030730572 -0.024497686 -0.020025311 -0.0027593593 -0.03738194 -0.024877721 -0.011629192 0.0126979
0.0062441677 -0.01695049 0.0035971855 -0.0068598664 -0.02022815 0.010535707 0.0075234715 0.012624792
-0.012230846 0.0050795935 0.020250203 -0.0066052503 -0.011830641 0.0050962497 0.016122544 0.017549876
0.007925582 -0.011272902 -0.009557518 -0.0028905713 0.014227195 -0.020150047 0.0120860515 -0.022869784
-0.016694665 -0.014268743 0.006878185 0.010297993 -0.006422025 0.0032815805 0.0011020148 -0.017435022
-0.015270263 -0.014741693 -0.014991291 -0.015490807 -0.00901174 -0.013890563 -0.018346183 0.0062809843
0.01009643 0.011330339 0.012670585 -0.013450191 -0.022963854 -0.037035722 -0.013475044 -0.011236177
-0.005933947 -0.02089924 -0.0076446794 -0.022660023 -0.009360621 0.016054433 0.020158987 -0.026829612
0.019542119 -0.004978683 -0.0129180895 -0.018556349 -0.007228703 -0.024291283 0.008850308 -0.021720823
-0.00010418401 -8.891066e-05 0.00080907956 -0.020867031 -0.021489374 0.012697744 -0.015294889 -0.012491367
-0.019978862 -0.012918717 0.013165564 -0.012351082 -0.0046174047 -0.020676803 -0.0072957585 0.01632579
0.0075376215 -0.017579982 0.011638396 -0.0026124525 -0.0016628087 0.017743316 -0.008548102 -0.010021438
0.020907404 -0.04849849 -0.016652403 0.014445492 -0.025096556 -0.033501346 -0.0037858267 -0.0010450231
-0.026883261 -0.018543784 -0.0038441091 0.020214288 -0.018498113 -0.011455701 -0.02199099 -0.00803474
0.0018540295 0.01696269 -0.005083861 -0.022271838 0.012856022 -0.029911462 0.015381164 0.010006595
-0.009953975 0.015293306 0.00014191717 0.01761324 -0.028442787 -0.00595139 -0.00590848 0.0044452283
-0.024934867 -0.0019974937 -0.017949784 -0.0132954195 -0.03185092 0.0016997319 0.0028457285 0.004860288
-0.019722257 0.014729633 -0.0055123437 -0.005557326 0.000965316 0.018128207 0.016321957 0.008964707
0.0016470761 -0.0072044246 -0.013056778 0.015578782 0.0174238 0.0011343554 -0.005437255 0.0076774107
-0.019617764 0.016759284 -0.01026275 -0.016667023 0.013961242 -0.02165018 -0.012422961 -0.029393423
0.006743062 -0.013907266 -0.011720611 0.0015539363 -0.014012888 -0.020578284 -0.00734172 -0.02723598
0.016172253 0.008265756 -0.014929894 -0.021811273 -0.014248586 0.0052757054 0.011312105 0.0053603007
-0.007204753 0.0102563845 -0.0021225703 0.012157038 0.009370447 -0.00017570198 -0.008710914 -0.020989427
0.016252002 0.01923523 0.012578973 0.012000831 -0.017842745 -0.0007977641 -0.014075557 -0.006704656
-0.018921267 0.0006995439 -0.011596993 -0.017686438 0.013588785 0.016763568 -0.02325079 -0.013593648
-0.0035918772 -0.032658562 -0.005928796 0.014112977 0.008323763 -0.006152843 0.015706163 -0.002604391
-0.0014126651 0.01677433 -0.01749142 -0.018935751 0.011580488 0.0082097035 -0.003939812 0.0020135213
-0.0006326046 -0.009422815 -0.04257146 0.00057856063 0.01494338 0.019690933 -0.017111441 0.01604521
-0.0098004695 -0.014157488 -0.021541597 -0.00024631497 0.00065326784 0.008032546 0.012971762 -0.022617377
0.024516266 -0.03206099 -0.013570033 -0.011967215 -0.014768818 0.013190665 -0.0065460154 -0.02023354

network_body._body_endoder.seq_layers.4.weight f4 [256, 256]
00000000: 4426 4e3d 75a3 8c3a 0508 5c3d 762a 66bd
00000010: ad1b 2cbd 856f c5bd a18c 24bc 7c8a 19bd
00000020: b639 323d 25c5 933d 304d dcbc 5c80 c3bd
00000030: f6fe 853d fa40 8d3d 060f 073d 089b e13d
00000040: e6cd 6ebd d179 c8bd f568 f83d 2a6c 93bd
00000050: 8518 a9bd 57d4 b73d f41f fcbc 05ce 31bc
00000060: 1da9 0cbc c4a7 d8bd 04b3 aa3d 2599 583b
00000070: 51c2 213d ac04 e7bc df03 09bd a431 21bd
00000080: 8ee9 35bd 8be3 aa3d 2952 a9bd 3cf1 ebbc
00000090: be6b 8f3d 6cb1 f23a 86c0 b23d 9977 27bd
000000a0: 7111 15bd 3606 84bd b0ae d5bc ff09 733d
000000b0: a949 ea3c 6ee8 ccbd 9f45 773b d10c 243c
000000c0: ae85 51bd 46c7 d63c cee7 a4bd cf83 ba3c
000000d0: 9bfc 45bd 71c7 4d3d 21f2 dd3c 1d0e 473d
000000e0: 7aab 3bbd 2de5 c6bd aa81 1a3d dd2e 8fbd
000000f0: e549 cebd e0a9 4cbd d7cc 0ebd 2c78 30bc
00000100: ba0f 4c3d 35af a23d d80d afbc f432 afbc
00000110: 845d ba3a 45a0 af3c 58b5 e7bb 8ccd 073e
00000120: abad 7abc 5e8f c53b e06c 01bd 9254 c3bc
00000130: 4b04 27be 9e54 a73d 7269 08bc 27d8 08b9
00000140: e3c6 e13c 5ebc 42bc c578 e4bc 676b 0c3d
00000150: 472f ce3b c8fd 6b3d 405d bbbc e8cc bf3d
00000160: ebe5 1e3d 569c 2c3d 8031 02bd 7edc feba
00000170: 98f6 ca3c 8aee a43d c622 afbd 2684 243d
00000180: 0ed4 95bc 001d cc3d 05e8 7a3d c897 b13d
00000190: 5905 143d d9c2 623d ac11 9b3d f6bb 493d
000001a0: 362e 143d 4abb 763d a828 6d3d 8da3 b3bd
000001b0: d0b5 07bd 23ba 4f3d bcc2 c13c 584a 5d3d
000001c0: 8995 2bbc 28a7 df3c 46c4 7fbc f0da a83d
000001d0: a402 503d bbe4 d53d 72a1 db3c 0896 6d3e
000001e0: 34c2 11bd 124d 883c 70af f3bd 8f56 893d
000001f0: 9ca5 75bd 9620 15bd df37 8abc 231d c4bc
00000200: 3160 ebbc 40b1 ea3c 0d73 29bd 6c02 7c3d
00000210: ce56 673c 16a1 19bd 6044 e93c 14db 853d
00000220: 563a 2e3d d256 553d 36d9 e1bd ecba 2f3d
00000230: 5a56 25bd 42fa e9bb 9cb0 74bd 5e1f f13d
00000240: 80d6 153e 5a7c 0e3d 4b8d 28be 411d b73c
00000250: 0886 eebd 5f17 a0bc 82bb d23b 046f b4bb
00000260: c168 9cbc bd4a 183d fdb2 d6bc d291 f13c
00000270: d345 07bb 0861 b93d c1b5 cc3d 1ee1 c3bd
00000280: 2383 81bd 983d 1b3e 9b25 483d 0527 3dbd
00000290: ee00 de3d 3263 583d 49ab 2cbb 2a68 4dbc
000002a0: a1ec febc fb2b 5d3d 5074 7cbc a6da 2d3d
000002b0: 5e3f 5c3d 1692 f93c 2dbd 0b3d f3db cabc
000002c0: 6968 67bc d722 acbd 6560 8e3d 942e 4c3d
000002d0: bca4 4dbd 768f 8fbc b942 97bd 1e05 9fbd
000002e0: 10f1 193c 9231 763c 6ea8 ab3d e89b b5bd
000002f0: 6836 aebd f608 b3bd 7f6e c1bb 5716 2cbd
00000300: ba33 8ebd 549c 903d e069 ac3d d42a 5ebd
00000310: 1df4 7c3d 2bca 1abc 490b 0a3e bfb4 5fbd
00000320: 52a2 5fbd 73b2 74bb a4e3 9cbd 9913 8e3d
00000330: 462d 8d3d 3f35 25be a2c3 d9bc e424 2d3d
00000340: da71 c83d 6127 5e3c 77f3 21bd e17f 88bd
00000350: 5b67 81bd 4b15 1abd 82e3 43bd 7452 e0b9
00000360: b9b5 823d b634 823d b2a1 76b9 afc8 5b3c
00000370: 315f 6c3d 6fec afbd 15e4 b5bd 0d7d 40bd
00000380: ec70 a53d ff4f d1bd edd6 3c3b fd99 8b3d
00000390: 1da9 1ebc e39d c4bd 2d6f fc3d 21b6 c93d
000003a0: 6dbf c63d 3d9e a33d 52fd 9abd e861 c33a
000003b0: 6278 a2bb 5362 03bc 6241 063d e22e dcbc
000003c0: 303a 14bc d830 a03d 97e0 383e 38e7 8cbd
000003d0: 436a 033d f239 9ebc c427 333d a1e5 a13c
000003e0: ef73 84bd 7e7e 28bd fe03 cf3d 9585 41bd
000003f0: 0dc2 93bc 675f 1ebd 94ff 89bc 7caa aebc
0.05032946 0.0010729866 0.053718586 -0.056192838 -0.04201858 -0.09640411 -0.010043294 -0.037485585
0.04351207 0.07215337 -0.026892275 -0.09545967 0.065427706 0.06897159 0.03297331 0.11015898
-0.05830183 -0.0978886 0.12129394 -0.07198365 -0.0825663 0.089760475 -0.030776955 -0.010852342
-0.008585242 -0.10578874 0.08334926 0.0033050266 0.039491955 -0.02820047 -0.033450957 -0.03935398
-0.04441219 0.083441816 -0.08267624 -0.028801553 0.07002972 0.0018516011 0.08728127 -0.04088554
-0.036393587 -0.06446497 -0.026084274 0.059335705 0.028599577 -0.1000527 0.0037730706 0.010012821
-0.051152878 0.026218068 -0.08052026 0.02276793 -0.048336606 0.05023903 0.027092995 0.048597444
-0.04581783 -0.097116806 0.037721314 -0.0699136 -0.10072688 -0.049966693 -0.03486332 -0.010770839
0.049819686 0.07943574 -0.021368906 -0.021386601 0.0014218544 0.021438727 -0.0070711784 0.13262004
-0.015300195 0.0060290536 -0.031597972 -0.023844037 -0.16310231 0.08170436 -0.008325921 -0.00013050494
0.027560657 -0.011885731 -0.027889619 0.034282114 0.006292257 0.05761507 -0.022871614 0.09365255
0.038793486 0.04214128 -0.031785488 -0.0019444374 0.024775788 0.0805331 -0.085515544 0.04016509
-0.018289592 0.09966469 0.061256427 0.08671528 0.036137912 0.055361602 0.0757173 0.04925152
0.036176883 0.060237207 0.0579001 -0.08771429 -0.033132374 0.050714623 0.023652427 0.054025978
-0.010472664 0.027301386 -0.01561076 0.08244884 0.05078377 0.104440175 0.026810382 0.23201764
-0.035585597 0.016638312 -0.118986964 0.06705963 -0.05997239 -0.03640803 -0.016872345 -0.023939675
-0.028732391 0.028648973 -0.041369487 0.061525747 0.014119817 -0.03750714 0.028474987 0.065359265
0.042536102 0.05208475 -0.11027758 0.042902872 -0.040365554 -0.0071404288 -0.05973874 0.11773561
0.14632607 0.03478656 -0.16460149 0.022352817 -0.11646658 -0.019542394 0.006431044 -0.005506398
-0.01909292 0.03718065 -0.026208395 0.029488478 -0.0020640984 0.0905171 0.09995604 -0.09564422
-0.063238405 0.15160215 0.04886399 -0.04617979 0.10840021 0.052828975 -0.002634721 -0.012537042
-0.031118693 0.05399702 -0.01540859 0.042444848 0.05377137 0.030465167 0.03411596 -0.024763083
-0.014124014 -0.08405083 0.069519795 0.049849108 -0.05020593 -0.017524462 -0.07385773 -0.07764648
0.009395853 0.015026467 0.08381735 -0.088676274 -0.08506471 -0.087419435 -0.0059030647 -0.042013492
-0.0694346 0.07061067 0.084186316 -0.054240063 0.061756242 -0.009447615 0.13480867 -0.054615732
-0.05459816 -0.003733781 -0.076606065 0.06937332 0.06893401 -0.16133593 -0.026582543 0.04227151
0.097873405 0.013559193 -0.039538827 -0.06665016 -0.063185416 -0.037617963 -0.04782439 -0.00042786042
0.06382317 0.0635771 -0.00023520624 0.013414546 0.05770797 -0.08590018 -0.08881394 -0.046994258
0.08078179 -0.10220336 0.002881463 0.0681648 -0.009683874 -0.09600427 0.123258926 0.098491915
0.0970448 0.07989166 -0.07567848 0.0014906498 -0.0049581984 -0.008019048 0.032777198 -0.026877824
-0.009047076 0.07821816 0.18054424 -0.06880039 0.03208376 -0.01931474 0.043739095 0.019762816
-0.06467425 -0.041136257 0.10108183 -0.047246534 -0.018036867 -0.0386652 -0.016845502 -0.021321528
