Assets/Training/results/run/config.onnx (onnx, 588060 bytes, 9 tensors)

action_model._continuous_distribution.log_sigma f4 [1, 2]
0	0x00000000	0.0
1	0x00000000	0.0

action_model._continuous_distribution.mu.bias f4 [2]
0	0x00000000	0.0
1	0x00000000	0.0

action_model._continuous_distribution.mu.weight f4 [2, 256]
0	0x3b9487f9	0.0045328108
1	0xbc75def5	-0.01500677
2	0xbbb8bf30	-0.0056380257
3	0x3bcb8569	0.006210972
4	0xbc703caa	-0.014662901
5	0xbcfd4330	-0.030915827
6	0xbbd583e0	-0.006515965
7	0x3a6e2b1d	0.0009085404
8	0x3be558cd	0.0069991113
9	0x3b95b6f9	0.004568931
10	0x3be460fd	0.0069695697
11	0xbca03a7c	-0.019559138
12	0x3c7d9f60	0.0154798925
13	0xbc7aeab2	-0.015314745
14	0x3b6e1640	0.003632918
15	0xbc6d5c57	-0.014487348
16	0xbcdf6d3a	-0.027273763
17	0x3c9a8dfe	0.018866535
18	0x3bfd9e20	0.0077397972
19	0x3b095cbf	0.0020959822
20	0x3c269801	0.0101680765
21	0x3c772538	0.015084557
22	0x3cf3bf60	0.02975434
23	0xbc730afd	-0.014834163
24	0xbcc1a2a9	-0.023637133
25	0xbc51465d	-0.012773124
26	0xbb85aff6	-0.004079814
27	0xba75cce8	-0.0009376542
28	0x3c83ad53	0.016073858
29	0xbbffae0a	-0.0078027295
30	0x3cf2f9fb	0.029660216
31	0x3baafce2	0.0052181343
32	0x3c939ed7	0.018020077
33	0x3c2a32c3	0.010388079
34	0x3c34de85	0.011039381
35	0xbb945597	-0.0045268047
36	0xbc2590c5	-0.0101053165
37	0x3c89ba5b	0.016812494
38	0xba8af623	-0.0010601919
39	0x3b649e1b	0.0034884277
40	0xbbb1c81e	-0.005425467
41	0x3b0fa980	0.0021921098
42	0x39c9288f	0.00038367926
43	0xbb8d3907	-0.0043097767
44	0xbc2798ca	-0.010229299
45	0x3c3d6303	0.011559251
46	0x3d7b6cd3	0.06138308
47	0xbaccbdbf	-0.0015620514
48	0xbc58314a	-0.013195345
49	0xbbaba8f7	-0.005238648
50	0x3c942c33	0.018087482
51	0xbbf39b65	-0.007434296
52	0x39b1ae1c	0.00033889792
53	0xbc3f0fec	-0.011661511
54	0x3c3c5cc0	0.011496723
55	0xbb37fa4d	-0.0028072775
56	0x3b54b4a5	0.0032456305
57	0x3c20df4d	0.009818864
58	0xbbd4dd9b	-0.006496144
59	0x3c1bb01e	0.009502439
60	0x3c61f178	0.013790481
61	0xbb1bea5c	-0.0023790812
62	0xbc2a61ff	-0.010399341
63	0xbc8413d2	-0.016122732
64	0x3bf51bef	0.0074801366
65	0xbb7d61d3	-0.0038663044
66	0xbba28172	-0.0049592787
67	0x3c33e19e	0.010979084
68	0xbb55b8c3	-0.0032611347
69	0xbb3e8967	-0.0029073597
70	0xbc50366f	-0.0127082905
71	0x3a3901a1	0.00070574327
72	0x3c12aded	0.0089526
73	0x3c81ed5b	0.01586025
74	0xbc282ff7	-0.010265342
75	0xbbb40fe9	-0.0054950607
76	0x3c799673	0.015233624
77	0xbc03c23b	-0.008041914
78	0x3be25e93	0.006908247
79	0x3cca1618	0.024668738
80	0xbc203586	-0.009778386
81	0x3bc7519f	0.006082728
82	0xbc1e44ab	-0.009659926
83	0x3c815605	0.015788088
84	0x3bb0b387	0.005392495
85	0x3c94885f	0.018131433
86	0xbba4e6e1	-0.0050324057
87	0xbc491388	-0.012272723
88	0xbcdbda93	-0.026837623
89	0x3ba0f9a7	0.0049125734
90	0x3c0d0e2b	0.008609335
91	0xbacf2c95	-0.0015806133
92	0x3c5c3f02	0.013442757
93	0x3c1cf350	0.009579495
94	0xbc82d2ec	-0.015969716
95	0xbb46d3d5	-0.0030338664
96	0x3b2905bf	0.0025790778
97	0x3bb4789a	0.005507541
98	0xbbe1d5af	-0.006891928
99	0x3c99ca6c	0.01877328
100	0xbc408785	-0.01175106
101	0x3c6b1c68	0.014350034
102	0xbc50506b	-0.012714486
103	0x3b86dc7f	0.0041156407
104	0x3bb87bfb	0.005630014
105	0xbc963a23	-0.018338269
106	0x3cb37be2	0.021909658
107	0x3c0c3e8d	0.008559835
108	0x3b7bacd7	0.003840258
109	0x3c536e40	0.012904704
110	0xbcab1bab	-0.020887217
111	0xbbf1d508	-0.0073801316
112	0xbccbb552	-0.024866734
113	0xbbbc048f	-0.005737848
114	0xbc659585	-0.014012699
115	0x3c45ef48	0.012080975
116	0x3b7b069b	0.0038303498
117	0x3c06ef75	0.008235802
118	0xbc0b5ed5	-0.008506496
119	0xbbecfe08	-0.0072324313
120	0xbc68b538	-0.014203362
121	0xba218757	-0.000616183
122	0xbccadc07	-0.02476312
123	0xbd00c3b3	-0.031436633
124	0xb8be12b2	-9.063388e-05
125	0x3c17afd3	0.009258228
126	0x3b55c690	0.0032619573
127	0x3be7396a	0.007056405
128	0xb9f6cb2d	-0.00047072154
129	0x3c67241f	0.014107733
130	0xbbf0475d	-0.007332726
131	0x3c2ec3a7	0.010666764
132	0xbca8d818	-0.020610854
133	0xbb61a5a5	-0.0034431007
134	0xbb2f35c8	-0.0026734937
135	0xba336eaf	-0.0006844801
136	0x3be35435	0.0069375285
137	0x3c450672	0.012025462
138	0xbc8c1fbd	-0.017104978
139	0xbc9f9a0b	-0.019482633
140	0x3c5a4efa	0.013324494
141	0xbbd72bdb	-0.0065665073
142	0xbaa73694	-0.0012757354
143	0x3be17ca0	0.0068813115
144	0xbcc0fc1b	-0.023557713
145	0xbc0ac59c	-0.008469965
146	0x3c00c715	0.007859965
147	0xbc8cecaa	-0.017202694
148	0x3a915b37	0.0011089806
149	0x3b9fbb4a	0.0048746215
150	0x3b83ca72	0.004021936
151	0xbbe08565	-0.0068518394
152	0xbc246d7b	-0.010035868
153	0xbbe99ad8	-0.0071290545
154	0xbc1b98bc	-0.009496864
155	0xbc4f04e2	-0.0126354415
156	0xbbb41130	-0.005495213
157	0xbd04ea81	-0.032450203
158	0x3b188c31	0.002327692
159	0x3c72e25d	0.014824477
160	0xbc8ea811	-0.017414125
161	0x3b943558	0.0045229606
162	0x3a4bb876	0.0007771322
163	0xbc39a912	-0.011331813
164	0x3c8f7ea6	0.017516445
165	0x3c0bc388	0.008530505
166	0xbbc71cdc	-0.0060764384
167	0x3af88e97	0.0018963394
168	0x3c834b29	0.01602705
169	0x3bd39cf5	0.0064579197
170	0x3c9cb45f	0.019128976
171	0xbad7ed40	-0.0016473904
172	0x3b3bba6b	0.002864505
173	0x3c244b8e	0.010027779
174	0x3cc8e78f	0.024524478
175	0x3be8d6ff	0.0071057077
176	0xbc7e92a7	-0.015537894
177	0xbb9d70c7	-0.004804704
178	0x3b97f8e9	0.0046378267
179	0xbb1f1c06	-0.0024278178
180	0x3b865f28	0.004100699
181	0xbc18d204	-0.009327415
182	0xbaf785d8	-0.0018884493
183	0xbc046891	-0.008081571
184	0x3c2acd75	0.010424961
185	0x3c51e77b	0.012811537
186	0xbc2e260a	-0.010629186
187	0x3c249014	0.0100441165
188	0x3ce47312	0.027886901
189	0x3ae44140	0.0017414466
190	0x3ba96a09	0.005170111
191	0x3a71fdfd	0.00092312676
192	0x3b4f9960	0.0031677112
193	0x3c5ad8bf	0.01335734
194	0xbb81cc14	-0.0039610956
195	0x3c657733	0.01400547
196	0xbc6f11d2	-0.014591651
197	0xbc723872	-0.014783965
198	0xbb02486b	-0.001987959
199	0x3c1ac3f7	0.009446136
200	0x3c3d8fb2	0.011569904
201	0xbb825c1b	-0.003978265
202	0x3c50fa2f	0.012754961
203	0x3c17185f	0.009222119
204	0xbb7879ba	-0.0037914352
205	0x3c1f2d7b	0.009715433
206	0x3b88d2c4	0.004175516
207	0xbc8bd097	-0.017067237
208	0x3c5d3d00	0.013503313
209	0x3b81d1a1	0.0039617573
210	0xbc9e8dd8	-0.019354746
211	0x3ba82291	0.0051310738
212	0x3af654f2	0.0018793626
213	0xbc746872	-0.01491748
214	0x37967dae	1.7939918e-05
215	0x3c5ebfab	0.013595502
216	0x3ba6f009	0.0050945324
217	0xbc2891bd	-0.010288653
218	0xbc5f8bcd	-0.013644171
219	0xbc10dc7a	-0.008841628
220	0xb9eec088	-0.00045538344
221	0x3c2f411f	0.010696678
222	0x3cb060ea	0.021530587
223	0x3be4dc23	0.00698425
224	0xbb903aa0	-0.00440152
225	0xbb88a2c3	-0.0041697933
226	0x3d09433b	0.03351138
227	0x3b36c13a	0.0027886168
228	0xbbb515fe	-0.0055263033
229	0xbc2fa49b	-0.010720397
230	0xbba9044c	-0.005157983
231	0x3ce61d3b	0.02809011
232	0xbc4d1ed2	-0.012519555
233	0x3c14ad4b	0.009074519
234	0xbb848199	-0.0040437696
235	0xbc87432f	-0.016511528
236	0x3c09e13c	0.0084155165
237	0x3b3e0d3f	0.0028999595
238	0xbc9b566b	-0.018962106
239	0x3acf7a83	0.0015829358
240	0x3c4f1447	0.012639112
241	0x3c3c4186	0.011490231
242	0x3b3c0b39	0.0028693213
243	0x3bbadf31	0.005702876
244	0xbba75cd3	-0.005107501
245	0xbb51225b	-0.0031911347
246	0xbb87a01c	-0.0041389596
247	0x3c7d6c12	0.0154676605
248	0x3ca1f223	0.01976878
249	0x3a6b51b2	0.0008976712
250	0xbc523955	-0.012831052
251	0x3c07851a	0.00827148
252	0xba953d3c	-0.0011386047
253	0x3bc8c8f7	0.0061274725
254	0xbb9b0224	-0.00473048
255	0x3b77efb8	0.0037832092

network_body._body_endoder.seq_layers.0.bias f4 [256]
0	0x00000000	0.0
1	0x00000000	0.0
2	0x00000000	0.0
3	0x00000000	0.0
4	0x00000000	0.0
5	0x00000000	0.0
6	0x00000000	0.0
7	0x00000000	0.0
8	0x00000000	0.0
9	0x00000000	0.0
10	0x00000000	0.0
11	0x00000000	0.0
12	0x00000000	0.0
13	0x00000000	0.0
14	0x00000000	0.0
15	0x00000000	0.0
16	0x00000000	0.0
17	0x00000000	0.0
18	0x00000000	0.0
19	0x00000000	0.0
20	0x00000000	0.0
21	0x00000000	0.0
22	0x00000000	0.0
23	0x00000000	0.0
24	0x00000000	0.0
25	0x00000000	0.0
26	0x00000000	0.0
27	0x00000000	0.0
28	0x00000000	0.0
29	0x00000000	0.0
30	0x00000000	0.0
31	0x00000000	0.0
32	0x00000000	0.0
33	0x00000000	0.0
34	0x00000000	0.0
35	0x00000000	0.0
36	0x00000000	0.0
37	0x00000000	0.0
38	0x00000000	0.0
39	0x00000000	0.0
40	0x00000000	0.0
41	0x00000000	0.0
42	0x00000000	0.0
43	0x00000000	0.0
44	0x00000000	0.0
45	0x00000000	0.0
46	0x00000000	0.0
47	0x00000000	0.0
48	0x00000000	0.0
49	0x00000000	0.0
50	0x00000000	0.0
51	0x00000000	0.0
52	0x00000000	0.0
53	0x00000000	0.0
54	0x00000000	0.0
55	0x00000000	0.0
56	0x00000000	0.0
57	0x00000000	0.0
58	0x00000000	0.0
59	0x00000000	0.0
60	0x00000000	0.0
61	0x00000000	0.0
62	0x00000000	0.0
63	0x00000000	0.0
64	0x00000000	0.0
65	0x00000000	0.0
66	0x00000000	0.0
67	0x00000000	0.0
68	0x00000000	0.0
69	0x00000000	0.0
70	0x00000000	0.0
71	0x00000000	0.0
72	0x00000000	0.0
73	0x00000000	0.0
74	0x00000000	0.0
75	0x00000000	0.0
76	0x00000000	0.0
77	0x00000000	0.0
78	0x00000000	0.0
79	0x00000000	0.0
80	0x00000000	0.0
81	0x00000000	0.0
82	0x00000000	0.0
83	0x00000000	0.0
84	0x00000000	0.0
85	0x00000000	0.0
86	0x00000000	0.0
87	0x00000000	0.0
88	0x00000000	0.0
89	0x00000000	0.0
90	0x00000000	0.0
91	0x00000000	0.0
92	0x00000000	0.0
93	0x00000000	0.0
94	0x00000000	0.0
95	0x00000000	0.0
96	0x00000000	0.0
97	0x00000000	0.0
98	0x00000000	0.0
99	0x00000000	0.0
100	0x00000000	0.0
101	0x00000000	0.0
102	0x00000000	0.0
103	0x00000000	0.0
104	0x00000000	0.0
105	0x00000000	0.0
106	0x00000000	0.0
107	0x00000000	0.0
108	0x00000000	0.0
109	0x00000000	0.0
110	0x00000000	0.0
111	0x00000000	0.0
112	0x00000000	0.0
113	0x00000000	0.0
114	0x00000000	0.0
115	0x00000000	0.0
116	0x00000000	0.0
117	0x00000000	0.0
118	0x00000000	0.0
119	0x00000000	0.0
120	0x00000000	0.0
121	0x00000000	0.0
122	0x00000000	0.0
123	0x00000000	0.0
124	0x00000000	0.0
125	0x00000000	0.0
126	0x00000000	0.0
127	0x00000000	0.0
128	0x00000000	0.0
129	0x00000000	0.0
130	0x00000000	0.0
131	0x00000000	0.0
132	0x00000000	0.0
133	0x00000000	0.0
134	0x00000000	0.0
135	0x00000000	0.0
136	0x00000000	0.0
137	0x00000000	0.0
138	0x00000000	0.0
139	0x00000000	0.0
140	0x00000000	0.0
141	0x00000000	0.0
142	0x00000000	0.0
143	0x00000000	0.0
144	0x00000000	0.0
145	0x00000000	0.0
146	0x00000000	0.0
147	0x00000000	0.0
148	0x00000000	0.0
149	0x00000000	0.0
150	0x00000000	0.0
151	0x00000000	0.0
152	0x00000000	0.0
153	0x00000000	0.0
154	0x00000000	0.0
155	0x00000000	0.0
156	0x00000000	0.0
157	0x00000000	0.0
158	0x00000000	0.0
159	0x00000000	0.0
160	0x00000000	0.0
161	0x00000000	0.0
162	0x00000000	0.0
163	0x00000000	0.0
164	0x00000000	0.0
165	0x00000000	0.0
166	0x00000000	0.0
167	0x00000000	0.0
168	0x00000000	0.0
169	0x00000000	0.0
170	0x00000000	0.0
171	0x00000000	0.0
172	0x00000000	0.0
173	0x00000000	0.0
174	0x00000000	0.0
175	0x00000000	0.0
176	0x00000000	0.0
177	0x00000000	0.0
178	0x00000000	0.0
179	0x00000000	0.0
180	0x00000000	0.0
181	0x00000000	0.0
182	0x00000000	0.0
183	0x00000000	0.0
184	0x00000000	0.0
185	0x00000000	0.0
186	0x00000000	0.0
187	0x00000000	0.0
188	0x00000000	0.0
189	0x00000000	0.0
190	0x00000000	0.0
191	0x00000000	0.0
192	0x00000000	0.0
193	0x00000000	0.0
194	0x00000000	0.0
195	0x00000000	0.0
196	0x00000000	0.0
197	0x00000000	0.0
198	0x00000000	0.0
199	0x00000000	0.0
200	0x00000000	0.0
201	0x00000000	0.0
202	0x00000000	0.0
203	0x00000000	0.0
204	0x00000000	0.0
205	0x00000000	0.0
206	0x00000000	0.0
207	0x00000000	0.0
208	0x00000000	0.0
209	0x00000000	0.0
210	0x00000000	0.0
211	0x00000000	0.0
212	0x00000000	0.0
213	0x00000000	0.0
214	0x00000000	0.0
215	0x00000000	0.0
216	0x00000000	0.0
217	0x00000000	0.0
218	0x00000000	0.0
219	0x00000000	0.0
220	0x00000000	0.0
221	0x00000000	0.0
222	0x00000000	0.0
223	0x00000000	0.0
224	0x00000000	0.0
225	0x00000000	0.0
226	0x00000000	0.0
227	0x00000000	0.0
228	0x00000000	0.0
229	0x00000000	0.0
230	0x00000000	0.0
231	0x00000000	0.0
232	0x00000000	0.0
233	0x00000000	0.0
234	0x00000000	0.0
235	0x00000000	0.0
236	0x00000000	0.0
237	0x00000000	0.0
238	0x00000000	0.0
239	0x00000000	0.0
240	0x00000000	0.0
241	0x00000000	0.0
242	0x00000000	0.0
243	0x00000000	0.0
244	0x00000000	0.0
245	0x00000000	0.0
246	0x00000000	0.0
247	0x00000000	0.0
248	0x00000000	0.0
249	0x00000000	0.0
250	0x00000000	0.0
251	0x00000000	0.0
252	0x00000000	0.0
253	0x00000000	0.0
254	0x00000000	0.0
255	0x00000000	0.0

network_body._body_endoder.seq_layers.0.weight f4 [256, 55]
0	0x3eede63b	0.46464714
1	0xbe7a302d	-0.2443244
2	0xbd10f0b1	-0.03538579
3	0xbe2ee63e	-0.17080018
4	0x3d29acac	0.04142444
5	0x3d6402e6	0.055666827
6	0xbd34eaad	-0.044169117
7	0xbe44868e	-0.19191954
8	0x3e369e49	0.17833818
9	0x3d56037a	0.05224941
10	0x3cb227d8	0.021747515
11	0x3cee3a4d	0.029080534
12	0x3eb725f9	0.35771158
13	0xbde67121	-0.112520464
14	0xbdc3d794	-0.09562603
15	0x3e471205	0.19440468
16	0x3e99e6ce	0.30058903
17	0x3c6a45d5	0.014298876
18	0x3ad0edb7	0.0015939985
19	0xbd35846b	-0.044315737
20	0x3dc97335	0.09836427
21	0x3e9fb8bf	0.31195638
22	0x3d0f3f16	0.034972273
23	0xbe1930fe	-0.14960095
24	0x3d93c6dc	0.07215664
25	0xbd923aad	-0.07140098
26	0xbe74fdf7	-0.23925005
27	0xbe5b595b	-0.21420805
28	0xbe35b73f	-0.17745684
29	0x3e2b6780	0.16738701
30	0xbdc1fe6c	-0.09472355
31	0x3d3c515c	0.045976028
32	0xbe4c8ca8	-0.19975531
33	0x3e37e4d1	0.1795838
34	0x3dd62e5b	0.1045806
35	0xbd937086	-0.071991965
36	0xbcffa335	-0.031205753
37	0x3d1956e3	0.037436377
38	0xbe76dd05	-0.2410775
39	0xbc624649	-0.013810703
40	0x3d63ccfb	0.055615406
41	0xbe1f803a	-0.15576258
42	0x3d32f437	0.043689933
43	0x3e521209	0.20514692
44	0xbe31c845	-0.17361553
45	0xbe69d767	-0.22836076
46	0x3e1d23d9	0.15345706
47	0x3e04e23c	0.12976927
48	0x3dd51210	0.10403836
49	0x3da69963	0.08134725
50	0x3d0de6ee	0.03464406
51	0x3e39a7f1	0.18130471
52	0x3e3589d8	0.17728364
53	0x3de216cb	0.11039504
54	0x3de01839	0.1094212
55	0xbca37e51	-0.019957693
56	0x3dab8eb8	0.08376831
57	0xbe3bebe5	-0.18351705
58	0xbe3065bb	-0.17226307
59	0x3c0f1823	0.008733782
60	0xbdcaf7a1	-0.09910513
61	0x3de87995	0.11351315
62	0xbc7f8ba3	-0.015597257
63	0x3e32bc11	0.17454554
64	0xbdc4bbf8	-0.09606165
65	0x3e09cf1d	0.13457914
66	0xbd730a66	-0.05933609
67	0x3e324236	0.1740807
68	0x3d8db16a	0.06918605
69	0x3dcf4ef4	0.10122481
70	0x3d980747	0.07423263
71	0x3d8c10f0	0.06839168
72	0xbca04f6b	-0.01956912
73	0xbe2aebfd	-0.16691585
74	0xbd13d659	-0.03609309
75	0x3e13c765	0.14431532
76	0x3cef0b62	0.029180232
77	0x3d751a71	0.05983967
78	0xbe067389	-0.1313001
79	0xbdb0ffa6	-0.08642511
80	0xbd0125c3	-0.031530153
81	0x3e1ed314	0.15510207
82	0xbe2051f7	-0.15656267
83	0xbd972001	-0.07379151
84	0x3cfc9041	0.030830504
85	0x3e53721c	0.20648998
86	0xbe4176c2	-0.18892959
87	0x3c1242f8	0.008927099
88	0x3e41c4cb	0.18922727
89	0x3e83edb0	0.2576728
90	0xbe0b8391	-0.13624407
91	0x3dcfeb4b	0.101523004
92	0x3e2e8517	0.17042957
93	0xbe1966a4	-0.1498056
94	0x3cfe9e29	0.031081276
95	0xbc5e8324	-0.013581071
96	0xbe378dbd	-0.17925163
97	0xbd9ce693	-0.07661166
98	0xbcb6a774	-0.022296645
99	0x3e070447	0.13185225
100	0x3cf5f25b	0.03002279
101	0x3d330954	0.043710068
102	0x3da872c6	0.08225016
103	0x3e06c0d5	0.13159497
104	0xbe9ab681	-0.30217364
105	0x3d38fed6	0.045164905
106	0xbe28dead	-0.16491194
107	0x3cc81ccd	0.024427796
108	0x3cbce03a	0.023056138
109	0xbda15c54	-0.07878938
110	0x3dc50160	0.09619403
111	0xbe9c19ee	-0.30488533
112	0xbe06d402	-0.13166812
113	0xbc83dfcb	-0.016097924
114	0x3c730721	0.014833243
115	0xbe8314e4	-0.25601876
116	0x3d48e801	0.04904938
117	0xbe73b4df	-0.23799466
118	0x3e584c31	0.21122815
119	0x3d31b7cb	0.04338817
120	0x3c8ec27e	0.017426725
121	0x3d1519ae	0.036401443
122	0x3e2a5a01	0.16635896
123	0xbe011734	-0.12606508
124	0xbc9adb1f	-0.018903313
125	0xbe4c2faa	-0.19940057
126	0x3df0f203	0.1176491
127	0x3e626df9	0.22112264
128	0xbb396d12	-0.002829377
129	0xbebc6c1d	-0.36801234
130	0x3d587fa2	0.052856095
131	0x3e4963ca	0.19666973
132	0x3dba988f	0.091111295
133	0x3dcb6956	0.099322006
134	0x3dd4676f	0.10371291
135	0x3de9887f	0.11402988
136	0x3e42ac18	0.19010961
137	0x3e2626c0	0.1622572
138	0xbce1190e	-0.027477767
139	0xbe62549e	-0.22102591
140	0xbcd111ff	-0.025521277
141	0xbe197f41	-0.1498995
142	0x3cc192cf	0.023629574
143	0x3d81d223	0.063389085
144	0x3e43259f	0.1905732
145	0xbdc8786e	-0.09788595
146	0xbd2d2060	-0.042267203
147	0x3df97db6	0.121821806
148	0xbdaba1e9	-0.08380491
149	0x3e248ea7	0.16070043
150	0x3da5a955	0.08088938
151	0x3c385216	0.01125004
152	0xbddc2659	-0.10749502
153	0x3e22c442	0.15895179
154	0x3e3f495d	0.1868033
155	0x3d773d35	0.060361106
156	0xbcbccc49	-0.02304663
157	0xbd9c0cc0	-0.07619619
158	0xbd151894	-0.036400393
159	0xbded7d3f	-0.115961544
160	0xbe02b73f	-0.12765215
161	0xbd652a43	-0.055948507
162	0xbe2f6b52	-0.17130783
163	0xbd29165f	-0.0412811
164	0xbe047515	-0.12935288
165	0xbd129efe	-0.035796158
166	0x3d8e7d63	0.06957509
167	0x3e2c125f	0.16803883
168	0xbd4f1210	-0.050554335
169	0x3d1bc24e	0.0380271
170	0x3dc834b8	0.0977568
171	0xbde23276	-0.11044781
172	0x3db62f4a	0.088957384
173	0x3d52741d	0.051380266
174	0x3d276efd	0.04087733
175	0xbe2a7f63	-0.16650157
176	0xbe184e5c	-0.14873642
177	0x3e4456d4	0.19173747
178	0x3d8c0738	0.06837314
179	0xbe1cdb67	-0.1531807
180	0x3d905e99	0.07049293
181	0xbd2fa2f7	-0.042880025
182	0xbcee467b	-0.029086342
183	0xbe143ce3	-0.14476351
184	0x3dd28002	0.10278322
185	0xbdf6f4e7	-0.1205843
186	0xbe56fe0b	-0.20995347
187	0x3dd8e621	0.105907686
188	0xbd3dc299	-0.04632816
189	0x3e0721fa	0.13196555
190	0xbbffd2f9	-0.0078071323
191	0x3e462478	0.19349849
192	0xbeaf4c9a	-0.3423813
193	0x3e00c05e	0.12573382
194	0xbc73e262	-0.014885517
195	0xbe34d205	-0.17658241
196	0xbcf9aa1a	-0.030476619
197	0x3d565000	0.052322388
198	0xbaa2eb45	-0.0012429735
199	0x3e3402ef	0.17579244
200	0xbc157f53	-0.009124595
201	0x3e3a409b	0.18188708
202	0xbe21e743	-0.15810876
203	0xbd681044	-0.056656137
204	0x3b3c89fd	0.002876877
205	0x3d56b9cd	0.052423287
206	0x3d54340c	0.05180745
207	0x3c9e741e	0.019342478
208	0x3defb810	0.11705029
209	0xbe111135	-0.1416672
210	0xbd321fee	-0.04348748
211	0xbecacf34	-0.39611208
212	0x3d47ef17	0.048812
213	0xbd8a7a7a	-0.06761642
214	0x3d1adf6f	0.03781074
215	0x3cac63db	0.021043709
216	0xbdeb4cbf	-0.114892475
217	0xbdd49abf	-0.10381078
218	0xbe2bda42	-0.16782477
219	0x3e36cedc	0.17852348
220	0xbc99a21c	-0.018754058
221	0xbea352c5	-0.31899086
222	0x3dbc58e2	0.091966406
223	0xbd309308	-0.04310897
224	0x3b4a396e	0.0030856985
225	0xbe10e38d	-0.14149304
226	0x3bf1efc6	0.0073833195
227	0xbce78724	-0.028262682
228	0xbddc586d	-0.107590534
229	0x3ddbb5f2	0.10728063
230	0x3de75e75	0.11297313
231	0x3da4bd3c	0.08043906
232	0xbe9ed5a6	-0.31022376
233	0xbe97d5bb	-0.2965525
234	0xbb9940f9	-0.004676935
235	0x3dae9623	0.0852473
236	0x3d0ffc9f	0.035153028
237	0xbe1a6055	-0.1507581
238	0xbdb074a8	-0.086160004
239	0x3e2ddec7	0.16979514
240	0x3e243e58	0.16039407
241	0xbe8e2da7	-0.27769205
242	0x3c9aa15b	0.018875768
243	0xbafb7a07	-0.0019186147
244	0x3d9dcb5e	0.07704805
245	0x3d1a602e	0.03768938
246	0x3e13f926	0.14450511
247	0x3da4bdf7	0.080440454
248	0x3e362bcc	0.17790145
249	0x3d79e473	0.06100888
250	0x3c161eaf	0.009162589
251	0x3e06ccc7	0.13164054
252	0xbc5ed741	-0.013601125
253	0xbc315399	-0.010823154
254	0xbc7fbdf2	-0.015609251
255	0xbdd7403f	-0.10510301

network_body._body_endoder.seq_layers.2.bias f4 [256]
0	0x00000000	0.0
1	0x00000000	0.0
2	0x00000000	0.0
3	0x00000000	0.0
4	0x00000000	0.0
5	0x00000000	0.0
6	0x00000000	0.0
7	0x00000000	0.0
8	0x00000000	0.0
9	0x00000000	0.0
10	0x00000000	0.0
11	0x00000000	0.0
12	0x00000000	0.0
13	0x00000000	0.0
14	0x00000000	0.0
15	0x00000000	0.0
16	0x00000000	0.0
17	0x00000000	0.0
18	0x00000000	0.0
19	0x00000000	0.0
20	0x00000000	0.0
21	0x00000000	0.0
22	0x00000000	0.0
23	0x00000000	0.0
24	0x00000000	0.0
25	0x00000000	0.0
26	0x00000000	0.0
27	0x00000000	0.0
28	0x00000000	0.0
29	0x00000000	0.0
30	0x00000000	0.0
31	0x00000000	0.0
32	0x00000000	0.0
33	0x00000000	0.0
34	0x00000000	0.0
35	0x00000000	0.0
36	0x00000000	0.0
37	0x00000000	0.0
38	0x00000000	0.0
39	0x00000000	0.0
40	0x00000000	0.0
41	0x00000000	0.0
42	0x00000000	0.0
43	0x00000000	0.0
44	0x00000000	0.0
45	0x00000000	0.0
46	0x00000000	0.0
47	0x00000000	0.0
48	0x00000000	0.0
49	0x00000000	0.0
50	0x00000000	0.0
51	0x00000000	0.0
52	0x00000000	0.0
53	0x00000000	0.0
54	0x00000000	0.0
55	0x00000000	0.0
56	0x00000000	0.0
57	0x00000000	0.0
58	0x00000000	0.0
59	0x00000000	0.0
60	0x00000000	0.0
61	0x00000000	0.0
62	0x00000000	0.0
63	0x00000000	0.0
64	0x00000000	0.0
65	0x00000000	0.0
66	0x00000000	0.0
67	0x00000000	0.0
68	0x00000000	0.0
69	0x00000000	0.0
70	0x00000000	0.0
71	0x00000000	0.0
72	0x00000000	0.0
73	0x00000000	0.0
74	0x00000000	0.0
75	0x00000000	0.0
76	0x00000000	0.0
77	0x00000000	0.0
78	0x00000000	0.0
79	0x00000000	0.0
80	0x00000000	0.0
81	0x00000000	0.0
82	0x00000000	0.0
83	0x00000000	0.0
84	0x00000000	0.0
85	0x00000000	0.0
86	0x00000000	0.0
87	0x00000000	0.0
88	0x00000000	0.0
89	0x00000000	0.0
90	0x00000000	0.0
91	0x00000000	0.0
92	0x00000000	0.0
93	0x00000000	0.0
94	0x00000000	0.0
95	0x00000000	0.0
96	0x00000000	0.0
97	0x00000000	0.0
98	0x00000000	0.0
99	0x00000000	0.0
100	0x00000000	0.0
101	0x00000000	0.0
102	0x00000000	0.0
103	0x00000000	0.0
104	0x00000000	0.0
105	0x00000000	0.0
106	0x00000000	0.0
107	0x00000000	0.0
108	0x00000000	0.0
109	0x00000000	0.0
110	0x00000000	0.0
111	0x00000000	0.0
112	0x00000000	0.0
113	0x00000000	0.0
114	0x00000000	0.0
115	0x00000000	0.0
116	0x00000000	0.0
117	0x00000000	0.0
118	0x00000000	0.0
119	0x00000000	0.0
120	0x00000000	0.0
121	0x00000000	0.0
122	0x00000000	0.0
123	0x00000000	0.0
124	0x00000000	0.0
125	0x00000000	0.0
126	0x00000000	0.0
127	0x00000000	0.0
128	0x00000000	0.0
129	0x00000000	0.0
130	0x00000000	0.0
131	0x00000000	0.0
132	0x00000000	0.0
133	0x00000000	0.0
134	0x00000000	0.0
135	0x00000000	0.0
136	0x00000000	0.0
137	0x00000000	0.0
138	0x00000000	0.0
139	0x00000000	0.0
140	0x00000000	0.0
141	0x00000000	0.0
142	0x00000000	0.0
143	0x00000000	0.0
144	0x00000000	0.0
145	0x00000000	0.0
146	0x00000000	0.0
147	0x00000000	0.0
148	0x00000000	0.0
149	0x00000000	0.0
150	0x00000000	0.0
151	0x00000000	0.0
152	0x00000000	0.0
153	0x00000000	0.0
154	0x00000000	0.0
155	0x00000000	0.0
156	0x00000000	0.0
157	0x00000000	0.0
158	0x00000000	0.0
159	0x00000000	0.0
160	0x00000000	0.0
161	0x00000000	0.0
162	0x00000000	0.0
163	0x00000000	0.0
164	0x00000000	0.0
165	0x00000000	0.0
166	0x00000000	0.0
167	0x00000000	0.0
168	0x00000000	0.0
169	0x00000000	0.0
170	0x00000000	0.0
171	0x00000000	0.0
172	0x00000000	0.0
173	0x00000000	0.0
174	0x00000000	0.0
175	0x00000000	0.0
176	0x00000000	0.0
177	0x00000000	0.0
178	0x00000000	0.0
179	0x00000000	0.0
180	0x00000000	0.0
181	0x00000000	0.0
182	0x00000000	0.0
183	0x00000000	0.0
184	0x00000000	0.0
185	0x00000000	0.0
186	0x00000000	0.0
187	0x00000000	0.0
188	0x00000000	0.0
189	0x00000000	0.0
190	0x00000000	0.0
191	0x00000000	0.0
192	0x00000000	0.0
193	0x00000000	0.0
194	0x00000000	0.0
195	0x00000000	0.0
196	0x00000000	0.0
197	0x00000000	0.0
198	0x00000000	0.0
199	0x00000000	0.0
200	0x00000000	0.0
201	0x00000000	0.0
202	0x00000000	0.0
203	0x00000000	0.0
204	0x00000000	0.0
205	0x00000000	0.0
206	0x00000000	0.0
207	0x00000000	0.0
208	0x00000000	0.0
209	0x00000000	0.0
210	0x00000000	0.0
211	0x00000000	0.0
212	0x00000000	0.0
213	0x00000000	0.0
214	0x00000000	0.0
215	0x00000000	0.0
216	0x00000000	0.0
217	0x00000000	0.0
218	0x00000000	0.0
219	0x00000000	0.0
220	0x00000000	0.0
221	0x00000000	0.0
222	0x00000000	0.0
223	0x00000000	0.0
224	0x00000000	0.0
225	0x00000000	0.0
226	0x00000000	0.0
227	0x00000000	0.0
228	0x00000000	0.0
229	0x00000000	0.0
230	0x00000000	0.0
231	0x00000000	0.0
232	0x00000000	0.0
233	0x00000000	0.0
234	0x00000000	0.0
235	0x00000000	0.0
236	0x00000000	0.0
237	0x00000000	0.0
238	0x00000000	0.0
239	0x00000000	0.0
240	0x00000000	0.0
241	0x00000000	0.0
242	0x00000000	0.0
243	0x00000000	0.0
244	0x00000000	0.0
245	0x00000000	0.0
246	0x00000000	0.0
247	0x00000000	0.0
248	0x00000000	0.0
249	0x00000000	0.0
250	0x00000000	0.0
251	0x00000000	0.0
252	0x00000000	0.0
253	0x00000000	0.0
254	0x00000000	0.0
255	0x00000000	0.0

network_body._body_endoder.seq_layers.2.weight f4 [256, 256]
0	0x3d2b7bf0	0.041866243
1	0x3d2721dc	0.040803775
2	0xbd9a0894	-0.075211674
3	0xbc7023d7	-0.014656982
4	0x3d135ca6	0.03597703
5	0xbc508d42	-0.012728991
6	0x3d3885e6	0.04504957
7	0xbbb79095	-0.0056019523
8	0xbd08e648	-0.03342274
9	0xbd3f9f06	-0.046782516
10	0xbcc0f7ba	-0.023555625
11	0xbd4a454e	-0.0493825
12	0x3d0e2d3b	0.034711104
13	0x3cf6e53c	0.030138604
14	0x3ce45503	0.027872568
15	0xbc30652d	-0.01076631
16	0xbddc9e0f	-0.10772335
17	0x3d58d599	0.052938078
18	0x3d3b4fbf	0.04573035
19	0xbd8c00cc	-0.068360895
20	0xbcaefed6	-0.02136175
21	0xbcc066d4	-0.023486532
22	0x3d363ca2	0.044491418
23	0xbd0cdda0	-0.034391046
24	0xbddb0590	-0.1069442
25	0x3d0e9609	0.034811053
26	0x3cd88152	0.026428852
27	0x3d4490b4	0.047989562
28	0x3d169a34	0.036768153
29	0xbe2695ac	-0.16268033
30	0xbcbb4d55	-0.022864023
31	0x3da57d09	0.08080489
32	0x3bef0adb	0.0072949952
33	0x3d6c53e8	0.057697207
34	0x3d1dd404	0.038532272
35	0x3d19eb75	0.037578065
36	0xbd95ad96	-0.073084995
37	0x3dccc524	0.09998539
38	0xbd85cd54	-0.06533304
39	0x3cdc5fa6	0.026901077
40	0x3d8618e8	0.06547719
41	0x3cfc7417	0.030817075
42	0xbbc843be	-0.006111591
43	0xbbcca4ae	-0.0062452173
44	0x3e05680b	0.1302797
45	0x3dc5dd91	0.09661401
46	0xbc158341	-0.009125532
47	0x3d90ff1b	0.070799075
48	0xbb9beffa	-0.004758832
49	0xbd279db2	-0.040921874
50	0xbd2318db	-0.039818626
51	0xbde0b8bc	-0.10972735
52	0x3c9db658	0.019251987
53	0x3d48fec3	0.049071085
54	0x3c90abf3	0.017660117
55	0xbd8c3fe0	-0.06848121
56	0xbd033ec7	-0.03204229
57	0x3d623a32	0.05523128
58	0xba48a4f2	-0.00076539733
59	0x3c7d32fc	0.01545405
60	0xbd493de6	-0.049131297
61	0x3d67bb4d	0.05657511
62	0xbced80b9	-0.028992044
63	0x3c5407fc	0.012941357
64	0xbd0624ac	-0.032749817
65	0xbde9ee42	-0.11422397
66	0xbc07f2a4	-0.008297596
67	0x3df40d29	0.119165726
68	0x3bfbab31	0.0076803197
69	0x3d2fd92e	0.042931728
70	0xbd3a5c56	-0.045498215
71	0xbce92b74	-0.028463103
72	0xbc95151c	-0.018198542
73	0x3dbacd79	0.09121222
74	0x3c905dd5	0.017622868
75	0xbddfa5ec	-0.10920319
76	0xbd101ee6	-0.035185717
77	0xbb499f4d	-0.0030765117
78	0x3dc2eee5	0.09518222
79	0x3ce11303	0.027474886
80	0xbd0d954e	-0.034566216
81	0x3e2addb3	0.16686134
82	0x3df20fa9	0.11819393
83	0x3e09a4e3	0.13441806
84	0xbdfa3cee	-0.12218653
85	0x3d7a5541	0.06111646
86	0xbcadbd13	-0.021208322
87	0x3d165a55	0.03670724
88	0xbc92c76b	-0.017917356
89	0xbb72e0ee	-0.0037060338
90	0xbc0dd086	-0.008655673
91	0xbd06724d	-0.03282385
92	0xbcefbbdf	-0.029264389
93	0x3bcf428f	0.006325073
94	0xbde44937	-0.11146777
95	0xbc4cfad4	-0.012510974
96	0x3cbf7eb1	0.02337584
97	0x3c6f5fe1	0.014610262
98	0xbd257680	-0.040396214
99	0x3d541d33	0.05178566
100	0xbd3bfe5a	-0.045896865
101	0xbe04c907	-0.12967311
102	0x3c53a27c	0.012917157
103	0x3da6d2ee	0.081457004
104	0xbda9f303	-0.08298304
105	0x3d87a3d4	0.066230446
106	0x3cdf7b54	0.027280487
107	0xbdb54652	-0.08851303
108	0xbdcb7956	-0.09935252
109	0x3daddf0a	0.08489807
110	0x3d021da9	0.031766567
111	0x3da4e454	0.08051363
112	0xbc50b91a	-0.012739444
113	0x3bba982e	0.0056944108
114	0xbb6861aa	-0.0035458603
115	0x3ca5f908	0.020260349
116	0xbcbe7547	-0.023249282
117	0xbc773fa7	-0.0150908595
118	0xbdbc4384	-0.09192565
119	0x3d9e3d3a	0.07726522
120	0x3e032c7c	0.12809938
121	0xbcf03f13	-0.029326951
122	0x3bb86c0e	0.0056281155
123	0xbd39b283	-0.045336258
124	0x3cc6754f	0.024225859
125	0xbe01e2d0	-0.12684178
126	0x3d8f6c59	0.070030876
127	0xbc715dc3	-0.014731827
128	0xbcb967b5	-0.02263246
129	0xbc87b2e8	-0.016564801
130	0x3d8df1a0	0.06930852
131	0xbbd090db	-0.0063649244
132	0x3cf8724f	0.030327944
133	0x3d9223c6	0.071357295
134	0x3b8bfb75	0.0042719194
135	0xbc65b9c6	-0.014021343
136	0x3c900780	0.017581701
137	0x3d021304	0.031756416
138	0xbd422e5f	-0.047407504
139	0x3d97113d	0.07376335
140	0xbd952713	-0.072828434
141	0x3d3fb9b4	0.04680796
142	0x3dcd5a5a	0.10026999
143	0xbd660a44	-0.056162134
144	0xbd255c9c	-0.040371522
145	0x3cd908c6	0.026493441
146	0xbe058cf0	-0.13042045
147	0x3d4ed62b	0.050497215
148	0xbbeecf5e	-0.0072879037
149	0x3c7e2b79	0.015513294
150	0x3bfafa2f	0.0076592187
151	0xbd49695c	-0.049172744
152	0x3dde0ae9	0.10841925
153	0xbd977be8	-0.0739668
154	0xbd4c0146	-0.049805902
155	0xbdc04280	-0.09387684
156	0xbd1508fc	-0.03638552
157	0xbcf2092f	-0.029545395
158	0xbcd06e78	-0.0254433
159	0x3db0fef6	0.0864238
160	0x3dc03b8f	0.0938636
161	0xbcdbf9b6	-0.02685247
162	0xbd9d05b2	-0.07667102
163	0x3d97f9dc	0.07420704
164	0xbde0047e	-0.10938357
165	0xbe0729c3	-0.13199525
166	0x3c1b7743	0.009488883
167	0xbbc9ac19	-0.006154549
168	0x3da8c9da	0.08241625
169	0xbd6a9aac	-0.057276413
170	0xbc46437c	-0.0121010505
171	0xbcb84656	-0.022494476
172	0x3d3a4f3d	0.045485724
173	0x3dcd903e	0.10037278
174	0x3cd8c9a5	0.02646334
175	0xbc69b7e2	-0.0142650325
176	0x3c19dea0	0.009391457
177	0x3d318541	0.04333997
178	0x3af6b461	0.0018822068
179	0x3ca30bab	0.019903025
180	0xbda60aaa	-0.08107503
181	0xbd40a0a9	-0.047028217
182	0x3c97a26e	0.01851007
183	0xbd7eb727	-0.062186386
184	0xbdb10449	-0.086433955
185	0x3e1c23c9	0.15248026
186	0x3bf55cfe	0.007487892
187	0x3db79654	0.0896422
188	0xbda25f8f	-0.079283826
189	0x3d791f25	0.060820717
190	0x39a2cc62	0.00031051325
191	0xbdf992ae	-0.1218618
192	0xbd24437e	-0.040103428
193	0x3cedcd8a	0.029028673
194	0xbd2aba7e	-0.04168176
195	0xbdf0c208	-0.117557585
196	0xbdb45bc6	-0.08806567
197	0xbcc5ef19	-0.024161862
198	0xbdcaa59a	-0.09894867
199	0x3b27b6af	0.0025591066
200	0x3c390624	0.011292968
201	0x3d768d26	0.060193203
202	0x3d7f047e	0.062260143
203	0xbc20a7cc	-0.009805631
204	0x3bb40dd3	0.005494812
205	0x3d22296a	0.039590277
206	0xbce8853c	-0.028383844
207	0x3d700fe8	0.05860892
208	0x3d8ac4e6	0.06775837
209	0x3d8581b7	0.06518882
210	0xbd85f4ab	-0.06540807
211	0x3dcfb579	0.10142035
212	0xbd25ed63	-0.040509593
213	0xbdd453bc	-0.103675336
214	0x3cb0632e	0.021531668
215	0xbd21dd6f	-0.039517816
216	0x3d2fe247	0.042940404
217	0xba94c214	-0.0011349344
218	0xbdc14b47	-0.09438186
219	0x3c06198d	0.008184803
220	0xbc977d04	-0.01849223
221	0x3d82b8bf	0.06382894
222	0xbc6ef4d0	-0.014584735
223	0x3d6adea4	0.057341233
224	0x3d0b0609	0.033941302
225	0xbc6285f3	-0.013825881
226	0xbcbd4fec	-0.023109399
227	0xbc9ac1b5	-0.018891195
228	0x3c785047	0.015155858
229	0xbde51f98	-0.11187667
230	0xbdd8f276	-0.10593121
231	0x3e0135b5	0.12618144
232	0x3c763eec	0.01502965
233	0xbd990eaf	-0.07473504
234	0x3d85b569	0.06528742
235	0xbba26fd6	-0.0049571795
236	0xbb887299	-0.0041640517
237	0x3c2442db	0.010025705
238	0xbb08ddd7	-0.002088418
239	0xbcbe12b1	-0.023202272
240	0x3cc0e3c6	0.02354611
241	0x3c9c7215	0.019097367
242	0xbd7aca3a	-0.061228015
243	0xbd534d53	-0.051587414
244	0xbdab6780	-0.083693504
245	0x3c8082a7	0.0156873
246	0xbb3aeee7	-0.0028523745
247	0x3c82c346	0.015962254
248	0xbd31653e	-0.043309443
249	0x3d366e9f	0.04453909
250	0xbdb016c7	-0.085980944
251	0x3d717bb8	0.058955878
252	0xbcf08e72	-0.029364798
253	0x3ccd2ea7	0.02504666
254	0x3d5ef481	0.054432396
255	0x3c8a5f46	0.016891133

network_body._body_endoder.seq_layers.4.bias f4 [256]
0	0x00000000	0.0
1	0x00000000	0.0
2	0x00000000	0.0
3	0x00000000	0.0
4	0x00000000	0.0
5	0x00000000	0.0
6	0x00000000	0.0
7	0x00000000	0.0
8	0x00000000	0.0
9	0x00000000	0.0
10	0x00000000	0.0
11	0x00000000	0.0
12	0x00000000	0.0
13	0x00000000	0.0
14	0x00000000	0.0
15	0x00000000	0.0
16	0x00000000	0.0
17	0x00000000	0.0
18	0x00000000	0.0
19	0x00000000	0.0
20	0x00000000	0.0
21	0x00000000	0.0
22	0x00000000	0.0
23	0x00000000	0.0
24	0x00000000	0.0
25	0x00000000	0.0
26	0x00000000	0.0
27	0x00000000	0.0
28	0x00000000	0.0
29	0x00000000	0.0
30	0x00000000	0.0
31	0x00000000	0.0
32	0x00000000	0.0
33	0x00000000	0.0
34	0x00000000	0.0
35	0x00000000	0.0
36	0x00000000	0.0
37	0x00000000	0.0
38	0x00000000	0.0
39	0x00000000	0.0
40	0x00000000	0.0
41	0x00000000	0.0
42	0x00000000	0.0
43	0x00000000	0.0
44	0x00000000	0.0
45	0x00000000	0.0
46	0x00000000	0.0
47	0x00000000	0.0
48	0x00000000	0.0
49	0x00000000	0.0
50	0x00000000	0.0
51	0x00000000	0.0
52	0x00000000	0.0
53	0x00000000	0.0
54	0x00000000	0.0
55	0x00000000	0.0
56	0x00000000	0.0
57	0x00000000	0.0
58	0x00000000	0.0
59	0x00000000	0.0
60	0x00000000	0.0
61	0x00000000	0.0
62	0x00000000	0.0
63	0x00000000	0.0
64	0x00000000	0.0
65	0x00000000	0.0
66	0x00000000	0.0
67	0x00000000	0.0
68	0x00000000	0.0
69	0x00000000	0.0
70	0x00000000	0.0
71	0x00000000	0.0
72	0x00000000	0.0
73	0x00000000	0.0
74	0x00000000	0.0
75	0x00000000	0.0
76	0x00000000	0.0
77	0x00000000	0.0
78	0x00000000	0.0
79	0x00000000	0.0
80	0x00000000	0.0
81	0x00000000	0.0
82	0x00000000	0.0
83	0x00000000	0.0
84	0x00000000	0.0
85	0x00000000	0.0
86	0x00000000	0.0
87	0x00000000	0.0
88	0x00000000	0.0
89	0x00000000	0.0
90	0x00000000	0.0
91	0x00000000	0.0
92	0x00000000	0.0
93	0x00000000	0.0
94	0x00000000	0.0
95	0x00000000	0.0
96	0x00000000	0.0
97	0x00000000	0.0
98	0x00000000	0.0
99	0x00000000	0.0
100	0x00000000	0.0
101	0x00000000	0.0
102	0x00000000	0.0
103	0x00000000	0.0
104	0x00000000	0.0
105	0x00000000	0.0
106	0x00000000	0.0
107	0x00000000	0.0
108	0x00000000	0.0
109	0x00000000	0.0
110	0x00000000	0.0
111	0x00000000	0.0
112	0x00000000	0.0
113	0x00000000	0.0
114	0x00000000	0.0
115	0x00000000	0.0
116	0x00000000	0.0
117	0x00000000	0.0
118	0x00000000	0.0
119	0x00000000	0.0
120	0x00000000	0.0
121	0x00000000	0.0
122	0x00000000	0.0
123	0x00000000	0.0
124	0x00000000	0.0
125	0x00000000	0.0
126	0x00000000	0.0
127	0x00000000	0.0
128	0x00000000	0.0
129	0x00000000	0.0
130	0x00000000	0.0
131	0x00000000	0.0
132	0x00000000	0.0
133	0x00000000	0.0
134	0x00000000	0.0
135	0x00000000	0.0
136	0x00000000	0.0
137	0x00000000	0.0
138	0x00000000	0.0
139	0x00000000	0.0
140	0x00000000	0.0
141	0x00000000	0.0
142	0x00000000	0.0
143	0x00000000	0.0
144	0x00000000	0.0
145	0x00000000	0.0
146	0x00000000	0.0
147	0x00000000	0.0
148	0x00000000	0.0
149	0x00000000	0.0
150	0x00000000	0.0
151	0x00000000	0.0
152	0x00000000	0.0
153	0x00000000	0.0
154	0x00000000	0.0
155	0x00000000	0.0
156	0x00000000	0.0
157	0x00000000	0.0
158	0x00000000	0.0
159	0x00000000	0.0
160	0x00000000	0.0
161	0x00000000	0.0
162	0x00000000	0.0
163	0x00000000	0.0
164	0x00000000	0.0
165	0x00000000	0.0
166	0x00000000	0.0
167	0x00000000	0.0
168	0x00000000	0.0
169	0x00000000	0.0
170	0x00000000	0.0
171	0x00000000	0.0
172	0x00000000	0.0
173	0x00000000	0.0
174	0x00000000	0.0
175	0x00000000	0.0
176	0x00000000	0.0
177	0x00000000	0.0
178	0x00000000	0.0
179	0x00000000	0.0
180	0x00000000	0.0
181	0x00000000	0.0
182	0x00000000	0.0
183	0x00000000	0.0
184	0x00000000	0.0
185	0x00000000	0.0
186	0x00000000	0.0
187	0x00000000	0.0
188	0x00000000	0.0
189	0x00000000	0.0
190	0x00000000	0.0
191	0x00000000	0.0
192	0x00000000	0.0
193	0x00000000	0.0
194	0x00000000	0.0
195	0x00000000	0.0
196	0x00000000	0.0
197	0x00000000	0.0
198	0x00000000	0.0
199	0x00000000	0.0
200	0x00000000	0.0
201	0x00000000	0.0
202	0x00000000	0.0
203	0x00000000	0.0
204	0x00000000	0.0
205	0x00000000	0.0
206	0x00000000	0.0
207	0x00000000	0.0
208	0x00000000	0.0
209	0x00000000	0.0
210	0x00000000	0.0
211	0x00000000	0.0
212	0x00000000	0.0
213	0x00000000	0.0
214	0x00000000	0.0
215	0x00000000	0.0
216	0x00000000	0.0
217	0x00000000	0.0
218	0x00000000	0.0
219	0x00000000	0.0
220	0x00000000	0.0
221	0x00000000	0.0
222	0x00000000	0.0
223	0x00000000	0.0
224	0x00000000	0.0
225	0x00000000	0.0
226	0x00000000	0.0
227	0x00000000	0.0
228	0x00000000	0.0
229	0x00000000	0.0
230	0x00000000	0.0
231	0x00000000	0.0
232	0x00000000	0.0
233	0x00000000	0.0
234	0x00000000	0.0
235	0x00000000	0.0
236	0x00000000	0.0
237	0x00000000	0.0
238	0x00000000	0.0
239	0x00000000	0.0
240	0x00000000	0.0
241	0x00000000	0.0
242	0x00000000	0.0
243	0x00000000	0.0
244	0x00000000	0.0
245	0x00000000	0.0
246	0x00000000	0.0
247	0x00000000	0.0
248	0x00000000	0.0
249	0x00000000	0.0
250	0x00000000	0.0
251	0x00000000	0.0
252	0x00000000	0.0
253	0x00000000	0.0
254	0x00000000	0.0
255	0x00000000	0.0

network_body._body_endoder.seq_layers.4.weight f4 [256, 256]
0	0x3d4cfc4d	0.0500453
1	0xbd807f4a	-0.062742785
2	0x3dc55186	0.0963469
3	0xbc42d21c	-0.011890914
4	0x3c052a23	0.008127722
5	0x3dc8833f	0.09790658
6	0x3d237f55	0.039916355
7	0xbd2de0db	-0.042450767
8	0x3d428778	0.047492474
9	0x3d7a669e	0.06113302
10	0xbc9e837f	-0.019349812
11	0xbdbbe73c	-0.09174964
12	0xbd6b6a5e	-0.057474487
13	0xb98172c3	-0.00024690302
14	0x3de88eaa	0.11355336
15	0x3ca23f8d	0.019805694
16	0x3d9d27a1	0.07673574
17	0x3db10024	0.08642605
18	0x3d084798	0.033271402
19	0xbd1dd622	-0.03853429
20	0xbd41bc93	-0.04729898
21	0x3d72e8c8	0.05930403
22	0x3db04483	0.086068176
23	0x3c52610f	0.012840523
24	0x3c8c35dc	0.017115526
25	0x3dbaf4d7	0.09128731
26	0xba72df2c	-0.00092648226
27	0xbcce82d6	-0.025208872
28	0xbd3522fd	-0.04422282
29	0xba8f6e3a	-0.0010942884
30	0xbda63284	-0.08115104
31	0xbdb0c430	-0.0863117
32	0xbd29b838	-0.04143545
33	0x3cfd3f62	0.030914012
34	0x3c1d765a	0.009610737
35	0xbe24bd41	-0.1608782
36	0xbba5a889	-0.0050554913
37	0xbc902e29	-0.017600136
38	0xbd2b05bf	-0.041753527
39	0xbca2ea0d	-0.019886995
40	0x3ce98fe9	0.028511005
41	0xbdeeda68	-0.116627514
42	0x3d8ead7e	0.06966685
43	0xbc1ac62f	-0.009446665
44	0xbd65b5c1	-0.056081537
45	0xbd09d04a	-0.033645906
46	0xbd2ea573	-0.042638253
47	0xbd3eb519	-0.046559427
48	0xbcf3ce3b	-0.029761424
49	0xbd4de07a	-0.050262906
50	0xbd75d50a	-0.060017623
51	0xbce22470	-0.027605265
52	0x3dbc19b7	0.09184592
53	0xbd181a51	-0.037134472
54	0xbd18e012	-0.037323065
55	0xbdcf9d96	-0.10137479
56	0xbbff244b	-0.007786309
57	0xbd25de4d	-0.040495206
58	0xbd945e3a	-0.07244535
59	0x3dec9b9f	0.1155312
60	0xbd0e0c91	-0.034679953
61	0xbd17f4d6	-0.037098728
62	0x3bddffb0	0.006774865
63	0xbc22aadd	-0.009928432
64	0x3dbcfba7	0.092276864
65	0x3e147f92	0.14501789
66	0x3ca6d847	0.020366801
67	0xbccd57cb	-0.025066277
68	0xbc0986b9	-0.008393937
69	0x3d0cc74e	0.03436976
70	0xbdb317a9	-0.08744747
71	0xbce5bf37	-0.02804528
72	0xbdfde31c	-0.12396833
73	0xbd792b20	-0.060832143
74	0xbd9d95c7	-0.076945834
75	0x3bf23697	0.0073917615
76	0xbd5990e8	-0.05311671
77	0x3bf04ea2	0.0073335925
78	0x3dac3449	0.0840841
79	0xbc804dd3	-0.01566211
80	0xbde3b2d9	-0.11118097
81	0x3d1026c4	0.03519322
82	0xbd3204fb	-0.04346178
83	0xbd13d9f2	-0.03609652
84	0x3d3c21d7	0.04593071
85	0xbca27bdd	-0.019834453
86	0x3db68a1c	0.08913061
87	0xbe03bfb5	-0.12866099
88	0x3d204318	0.039126486
89	0xbd477c71	-0.04870266
90	0xbdb490e0	-0.08816695
91	0x3db29975	0.08720676
92	0x3d97505c	0.07388374
93	0xbcf8782e	-0.030330744
94	0xbd2c46ff	-0.042059895
95	0x3d64bbdc	0.05584322
96	0x3ccc6c4e	0.024953987
97	0xbe296c6c	-0.16545266
98	0x3e02ce17	0.1277393
99	0xbd3e8af3	-0.04651923
100	0xbc9a7d43	-0.018858558
101	0x3da61fcb	0.08111533
102	0xbd12ef55	-0.035872776
103	0xbb4db689	-0.0031389317
104	0xbba1ed5f	-0.004941627
105	0xbd5ce818	-0.05393228
106	0x3ca6f2c5	0.020379433
107	0xbdd49843	-0.10380604
108	0x3c4faa3e	0.012674866
109	0xbd0a033d	-0.033694495
110	0x3dcf03fe	0.10108183
111	0x3ddacd16	0.10683648
112	0x3c0f01fd	0.008728501
113	0xbcb61822	-0.022228304
114	0xbd3394f2	-0.043843217
115	0x3d24676e	0.0401377
116	0x3d4f19c9	0.0505617
117	0xbd989bb4	-0.07451573
118	0x3d828cb1	0.06374491
119	0x3c254c25	0.010088955
120	0x3daff891	0.08592332
121	0x3d98b202	0.07455827
122	0x3d8100b0	0.06298959
123	0xbd9aed54	-0.07564798
124	0x3da5a08d	0.08087263
125	0xbdfc9bfa	-0.12334438
126	0xbd939329	-0.07205803
127	0xbe0cab87	-0.13737307
128	0xbcb878a0	-0.022518456
129	0x3d886e7f	0.066617005
130	0x3ba00753	0.0048836856
131	0x3bc418e7	0.005984414
132	0xbd32aab2	-0.04361982
133	0x3b831486	0.0040002493
134	0x3d1388e1	0.03601921
135	0xbc5827e2	-0.013193103
136	0xbdb4e4c7	-0.08832698
137	0xbc4e1b6e	-0.012579782
138	0x3ca3437d	0.019929642
139	0xbd263832	-0.040580936
140	0xbd0d831a	-0.034548856
141	0xbd89df2a	-0.06732018
142	0xbe134a05	-0.14383705
143	0xbc9c500a	-0.019081134
144	0x3d1fea21	0.039041642
145	0x3d76579a	0.060142137
146	0xbc83e526	-0.016100477
147	0x3d82e79e	0.06391834
148	0x3b8a47dc	0.004219992
149	0x3bb144e3	0.0054098233
150	0xbd461618	-0.048360914
151	0xbcebada9	-0.028769331
152	0xbc3555f4	-0.011067856
153	0xbbaf96a6	-0.005358535
154	0x3d0bed36	0.03416177
155	0x3dae2943	0.08503964
156	0x3d2fd4a5	0.042927403
157	0xbe0545b8	-0.13014877
158	0x3b481cdb	0.0030534777
159	0x3c8b7f7f	0.017028568
160	0xbda3c9f9	-0.079975076
161	0x3d249550	0.040181458
162	0x3c67b50d	0.014142287
163	0x3c9a215c	0.018814735
164	0xbd04f261	-0.032457713
165	0x3bdaff96	0.0066833002
166	0xbcf79f1b	-0.030227235
167	0x3d2ccf19	0.04218969
168	0xbd5d4b64	-0.054026976
169	0xbd567bb9	-0.052364085
170	0xbd182e34	-0.037153438
171	0x3c52cefd	0.012866733
172	0x3cacadd3	0.02107898
173	0xbd5e12ae	-0.054217033
174	0xbc9eda20	-0.01939112
175	0x3c301a2b	0.010748426
176	0xbd065480	-0.03279543
177	0x3e100f35	0.14068301
178	0x3dc48da8	0.09597331
179	0x3d15eaf9	0.03660104
180	0xbd0491a3	-0.032365452
181	0xbceeaf7b	-0.02913641
182	0xbbdbfaf4	-0.0067132656
183	0xbe5e4d2d	-0.21709128
184	0xbc9e51bb	-0.019326081
185	0x3d6e2c84	0.058147922
186	0x3d0a61f7	0.033784833
187	0x3c674337	0.014115146
188	0x3d862ec1	0.06551886
189	0x3c4efc1e	0.012633352
190	0xbd1756c9	-0.036948
191	0xbd8c02f9	-0.068365045
192	0xbd399517	-0.0453082
193	0x3d3f578a	0.046714343
194	0xbd76e654	-0.06027825
195	0xbc4436c3	-0.011975947
196	0xbd16e20a	-0.03683666
197	0xbcdd4395	-0.027009765
198	0x3dc2e966	0.095171735
199	0xbc65a924	-0.014017377
200	0x3cf41def	0.02979943
201	0xbc05f002	-0.008174898
202	0xbd9a8ffa	-0.075469926
203	0xbd6b3543	-0.05742384
204	0x3da690a5	0.081330575
205	0xbe060dcf	-0.13091205
206	0x3d7686b9	0.060187075
207	0xbc321ffa	-0.010871882
208	0x3dc04af0	0.09389293
209	0x3d6fd262	0.058550246
210	0x3d97cf5f	0.074126
211	0xbd673698	-0.05644855
212	0xbd40d41e	-0.04707729
213	0x3d1a4584	0.03766395
214	0x3cdaca50	0.026707798
215	0xbc5769e7	-0.013147808
216	0x3c478812	0.012178438
217	0x3cee5fc7	0.029098405
218	0x3c1d878f	0.009614839
219	0x3d313965	0.043267626
220	0x3cf90835	0.030399421
221	0x3d9527a4	0.072829515
222	0xbbe1225b	-0.0068705506
223	0x3c437dfe	0.011931894
224	0xbdbe08ba	-0.09279008
225	0x3cc94071	0.02456686
226	0xbd1fc0aa	-0.0390021
227	0x3d074c76	0.033031903
228	0x3ba96fb3	0.0051707863
229	0xbdd22d83	-0.10262587
230	0xbc57c72e	-0.013170047
231	0x3d30ad57	0.04313406
232	0xbcb44077	-0.022003395
233	0xbce9cde8	-0.028540567
234	0x3c26de87	0.010184891
235	0x3d603ef1	0.054747526
236	0xbd79c8c2	-0.060982473
237	0xbce79a8c	-0.028271936
238	0x3d2bf9a8	0.041986138
239	0x3d6cc0d3	0.05780108
240	0x3cc3a113	0.023880517
241	0xbcde3fbc	-0.02713
242	0xbd9e6714	-0.07734504
243	0x39ae8521	0.00033287055
244	0x3d02df24	0.031951085
245	0x3d2754ad	0.040852237
246	0xbdd7fe0a	-0.10546501
247	0xbd882bc5	-0.066489734
248	0x3c4ee34e	0.012627436
249	0x3d970d7e	0.0737562
250	0xbd1e163f	-0.038595434
251	0x3d20cb50	0.039256394
252	0xbd9ed5a4	-0.077555925
253	0x3d582063	0.05276526
254	0x3dcf6afb	0.10127827
255	0xbcb8e089	-0.022568004
