Assets/Training/results/track4_learned/config_track4/config_track4-499969.onnx (onnx, 601409 bytes, 9 tensors)

action_model._continuous_distribution.log_sigma f4 [1, 2]
-0.05851213 -0.1962261
00000000: 6aaa 6fbd 7fef 48be

action_model._continuous_distribution.mu.bias f4 [2]
0.006059592 -0.00036722375
00000000: 8b8f c63b f087 c0b9

action_model._continuous_distribution.mu.weight f4 [2, 256]
-0.042975713 -0.007844878 -0.005677774 -0.01722489 -0.0053752814 -0.0029008586 0.009536653 0.010393963
-0.00721163 0.011300342 -0.02097255 -0.0042349533 -0.012080612 -0.00032778134 -0.0003124104 0.0010371013
-0.03760157 -0.015425786 -0.013493394 -0.005505626 -0.010464658 0.01910254 -0.001533965 0.005641851
-0.02912226 -0.029571151 -0.010672659 0.0031732165 0.013049981 0.009503556 0.00044738373 0.0012246978
0.011274741 0.02498301 0.0023687067 -0.028310172 0.019490318 -0.007981317 0.0049998644 -0.024764659
-0.018521423 -0.024878927 -0.006125129 0.0025688892 -0.0196188 -0.018931923 -0.005985816 -0.0071456092
0.0003470528 0.0069368356 0.013510617 -0.0013278212 -0.033101954 0.009594606 -0.0071163536 0.012457075
0.0012008481 -0.016459236 0.0073047415 0.015368548 0.0083515225 -0.0013332817 -0.0027328907 -0.011067611
0.00896008 -0.0068315063 -0.020709274 0.013778864 -0.002041831 -0.01518636 0.022665689 -0.012982553
-0.030166158 -0.010207576 -0.04197972 -0.02738469 0.009623453 -0.026625998 0.015112614 0.007856084
-0.04133644 -0.029394805 -0.01381642 -0.0045681815 -0.019467415 -0.010803796 -0.023178594 0.011751192
-0.008167562 0.020362915 -0.0065725236 -0.017316127 0.006321605 -0.021932783 0.001275422 0.014339768
0.025104025 -0.017150622 0.0052393265 -0.03111314 -0.012000483 0.007980409 -0.008991432 0.0019190441
-0.017067702 -0.0033762353 -0.012026236 -0.00897031 -0.0058133397 -0.014459783 -0.0029676117 -0.009560383
-0.011804357 -0.024195423 -0.007426444 0.006302319 -0.0009124932 -0.0036589357 -0.0064284974 -0.004972878
-0.008519095 0.024411343 0.0043374836 -0.013235417 -0.004896244 -0.01088117 -0.03776977 0.004129892
-0.01836429 -0.0020851772 0.006969476 -0.008446807 0.010382204 -0.010954717 -0.01278634 -0.0023059023
-0.025444197 0.013761185 -0.012110938 -0.016697561 0.015663318 -0.00077595614 0.0015495098 0.019433051
0.013458157 -0.0074006855 -0.0073759905 -0.035079353 -0.00912364 -0.015216645 0.009396599 -0.008680424
-0.025403107 -0.016297933 -0.023555836 0.007360806 -0.003199132 -0.019003076 -0.0023453585 0.011428253
-0.012886928 0.00066292833 0.0045619584 0.00987812 0.009710505 -0.004527299 0.0027183234 -0.004642868
0.0035831425 0.00898216 0.01345319 -0.00076013466 -0.0009801994 -0.0076412964 -0.012707936 -0.013192877
-0.019257788 -0.02177112 -0.0026561483 0.005246993 -0.021999476 -0.008820366 -0.00807321 0.008627618
0.025526036 0.002614123 -0.024297874 -0.0017519261 -0.0060396837 0.0048640235 0.0048375195 0.016804636
-0.005681807 -0.002422016 0.0037797731 -0.019019775 -0.018415539 0.0089087635 0.0147873955 -0.016011793
0.010866288 -0.0036103013 0.006733539 0.005807825 -0.01819589 -0.025077077 -0.0025952307 0.016965568
-0.031312335 0.011844777 0.0023485294 -0.011997679 0.014646509 -0.011911507 -0.022757065 -0.026743563
-0.03180863 0.0035853344 0.008330394 -0.02695507 0.0040967586 -0.010284503 -0.0016137613 -0.003932395
-0.0025977264 -0.0068177353 -0.005775969 0.01818648 -0.0020753064 0.023909388 -0.008083655 -0.0014958768
-0.0070223734 -0.012686009 -0.0023698488 0.0019326672 -0.029611405 0.0112295095 -0.006531978 0.00654399
9.0828195e-05 -0.013745407 -0.018885046 -0.011483481 0.017545525 0.00089505815 -0.012195622 0.004313
0.0063948026 -0.009230206 -0.008560337 -0.017978711 -0.009299409 0.0038480002 -0.008937211 -0.0060536126
00000000: 4d07 30bd ce87 00bc 9f0c babb 361b 8dbc
00000010: 2123 b0bb 551c 3ebb 9f3f 1c3c 714b 2a3c
00000020: 8a4f ecbb 1225 393c a0ce abbc 5dc5 8abb
00000030: c2ed 45bc 11da abb9 04cb a3b9 58ef 873a
00000040: 1b04 1abd 70bc 7cbc 6513 5dbc 8a68 b4bb
00000050: f573 2bbc ee7c 9c3c 530f c9ba 47df b83b
00000060: ce91 eebc 333f f2bc 60dc 2ebc bdf5 4f3b
00000070: 96cf 553c ceb4 1b3c d48e ea39 0a86 a03a
00000080: b1b9 383c 2ba9 cc3c 4e3c 1b3b bcea e7bc
00000090: 29aa 9f3c 12c4 02bc e7d5 a33b 41df cabc
000000a0: 3dba 97bc e4ce cbbc 4eb5 c8bb cf5a 283b
000000b0: 9bb7 a0bc 1f17 9bbc aa24 c4bb b725 eabb
000000c0: a3f4 b539 654e e33b a35b 5d3c 490a aeba
000000d0: ea95 07bd b232 1d3c 4d30 e9bb c218 4c3c
000000e0: c765 9d3a 85d5 86bc 9d5c ef3b 5dcc 7b3c
000000f0: d3d4 083c 83c1 aeba 4c1a 33bb ed54 35bc
00000100: 4dcd 123c d4da dfbb 7fa6 a9bc bfc0 613c
00000110: 3dd0 05bb 36d0 78bc 65ad b93c c6b4 54bc
00000120: 051f f7bc ad3d 27bc edf2 2bbd db55 e0bc
00000130: b0ab 1d3c c41e dabc e69a 773c ceb6 003c
00000140: 6650 29bd 60cd f0bc 445e 62bc afb0 95bb
00000150: 217a 9fbc 6802 31bc 09e1 bdbc 1288 403c
00000160: 3dd1 05bc 21d0 a63c 535e d7bb 8dda 8dbc
00000170: 7725 cf3b 61ac b3bc 102c a73a 59f1 6a3c
00000180: f5a6 cd3c 767f 8cbc a8ae ab3b fce0 febc
00000190: ad9d 44bc 43c0 023c cd50 13bc 6f88 fb3a
000001a0: 91d1 8bbc d443 5dbb b109 45bc 35f8 12bc
000001b0: d47d bebb bae8 6cbc 437c 42bb 27a3 1cbc
000001c0: 1067 41bc 7b35 c6bc 8759 f3bb af83 ce3b
000001d0: 6234 6fba c1ca 6fbb 25a6 d2bb 86f3 a2bb
000001e0: ad93 0bbc 4cfa c73c 7321 8e3b 5dd9 58bc
000001f0: ac70 a0bb ef46 32bc 79b4 1abd 0c54 873b
00000200: b570 96bc 78a7 08bb 3460 e43b 7a64 0abc
00000210: 1f1a 2a3c 6a7b 33bc cc7d 51bc 9f1e 17bb
00000220: 5970 d0bc 9876 613c f56c 46bc 53c9 88bc
00000230: 5c50 803c 8969 4bba ec18 cb3a 1032 9f3c
00000240: 9a7f 5c3c 7381 f2bb 4bb2 f1bb 5eaf 0fbd
00000250: 527b 15bc 3c4f 79bc 31f4 193c 5638 0ebc
00000260: 2d1a d0bc 3e83 85bc 2bf8 c0bc eb32 f13b
00000270: 87a8 51bb 57ac 9bbc 96b4 19bb 913d 3b3c
00000280: b223 53bc 5ec8 2d3a 7b7c 953b d7d7 213c
00000290: cf18 1f3c bd59 94bb e625 323b 3323 98bb
000002a0: 28d3 6a3b e929 133c c56a 5c3c c643 47ba
000002b0: 097a 80ba d763 fabb f234 50bc f026 58bc
000002c0: 82c2 9dbc 5959 b2bc c612 2ebb f8ee ab3b
000002d0: 3f38 b4bc 4c83 10bc 7f45 04bc da5a 0d3c
000002e0: fa1b d13c b551 2b3b 560c c7bc e3a0 e5ba
000002f0: 8ae8 c5bb 6362 9f3b 0e84 9e3b e0a9 893c
00000300: 742e babb b0ba 1ebb 12b6 773b 5ccf 9bbc
00000310: 2fdc 96bc 10f6 113c d546 723c 2a2b 83bc
00000320: 8408 323c ce9a 6cbb 05a5 dc3b 914f be3b
00000330: 8c0f 95bc 716e cdbc bf14 2abb 60fb 8a3c
00000340: 5d41 00bd 9810 423c c9e9 193b ea91 44bc
00000350: e9f7 6f3c 7b28 43bc 066d babc 5115 dbbc
00000360: c449 02bd eef7 6a3b 347c 083c e1d0 dcbc
00000370: 1a3e 863b 5580 28bc d884 d3ba 52db 80bb
00000380: 9e3e 2abb 4f67 dfbb 5744 bdbb d0fb 943c
00000390: dd01 08bb 9fdd c33c 4e71 04bc 4c11 c4ba
000003a0: f01b e6bb fad8 4fbc 774f 1bbb 8d51 fd3a
000003b0: 9e93 f2bc fafb 373c 340a d6bb f86e d63b
000003c0: 047b be38 6a34 61bc d0b4 9abc 3625 3cbc
000003d0: a2bb 8f3c 56a2 6a3a 25d0 47bc 1154 8d3b
000003e0: 7e8b d13b 4a3a 17bc a840 0cbc 1748 93bc
000003f0: 8c5c 18bc bb2e 7c3b 616d 12bc 625d c6bb

network_body._body_endoder.seq_layers.0.bias f4 [256]
-0.0109691005 -0.004381652 -0.003090769 0.002347289 -0.0013356544 -0.0013207294 0.0015146022 -0.0023945258
-0.0001879311 0.0011264947 0.022513472 -0.0054836376 0.0003669755 -0.00031605575 0.0062383246 0.00021315274
0.0027975696 0.0017698866 0.014995254 0.0034198351 0.00015760324 0.01531498 -0.00041287226 0.0030114902
0.00066952023 -0.006197418 0.00096178753 -0.005438349 0.009242071 -0.011776617 0.0024683604 0.0049521076
-0.0011785649 -0.0014613571 0.0040313434 -0.0020987089 0.0079992 0.016903536 -0.0039491844 0.0052275816
-0.0017250626 -0.002976561 -0.0005173865 -0.005608275 0.0013441452 0.011450339 -0.0003489534 0.003945351
-0.00016075955 0.029450526 -0.000773305 -0.0005012188 -0.008397546 -0.0050644237 -0.0011475822 -0.0009846458
-0.004633808 -0.004997543 0.00050081033 0.0027176607 -0.0004978848 0.0017296736 0.0004983276 -0.0051236064
0.012010815 -0.0018061296 -0.004905805 -0.0037360254 -0.008208517 -0.0036156445 0.0005943811 0.0052420385
2.4934776e-05 -0.014460922 0.0008581452 0.0033155305 0.0013732391 -0.0039927973 -0.0010220775 0.009461651
1.8749417e-06 -0.0016749945 0.00046747914 -0.009107307 -0.0005295401 -0.0044181994 -0.0010633279 0.0008205404
-0.0011123938 -0.002992205 -0.003750164 -0.005068743 3.841294e-05 0.0040129484 0.010478725 0.002169557
-0.0049083913 -0.0039455593 3.546429e-05 -0.003632967 -0.0038992353 -0.0026917618 -0.0068960013 0.002344283
-0.0014419566 -0.0010776179 -0.00029134314 0.0044790134 -0.0005435174 0.00088198186 -0.00093526463 0.012073859
-0.0011199742 0.0012947805 0.0047979066 -0.00044405137 0.024763789 0.000791675 0.009810663 -3.2262273e-05
-0.0032858022 -0.0029018112 -0.002593434 0.002126957 -0.0048165205 0.0024209707 -0.001284895 0.004229656
0.00056295336 0.0022741444 -0.0040917923 -0.00075012504 -0.0024555838 -0.0020512885 -0.001430253 0.0007407525
-0.0027857043 0.0015697926 0.0015836438 -0.0017153913 -0.006673308 -0.0026367097 -0.0048396057 0.0015253683
0.0011535074 -0.005107177 -0.0047211205 0.0026131626 -0.010841128 0.0029561478 0.009629695 -0.005215095
-0.000116276555 -0.0019825657 -0.0047687176 0.00015126877 -0.0052141356 -0.0025320076 0.0014677593 0.0042047123
0.005585056 -0.003458657 -0.0022737572 -0.006096417 -0.004264452 0.0026012748 -0.00031442937 -0.0035762237
-9.546681e-05 -0.009385501 -0.0050229677 0.0024533414 0.0038988446 -0.0005042048 -0.002296381 -0.0049969177
0.0016001839 0.0038885071 0.013602365 0.00090833777 0.0007186491 -0.0054894863 0.002200268 -0.004538373
-0.0016447321 0.0015734569 -0.0051533473 0.005579238 -0.000120653225 -0.0013937692 -0.00018889185 -0.01182152
-0.006535906 0.0066958754 0.024124818 0.010923836 0.002102407 -0.012824767 0.002585391 0.0047766967
0.008274208 -0.00015820729 -0.0042122114 -0.005058346 -0.0039546713 -0.0005434301 -0.0034853183 0.0042363456
0.007514991 -0.0012733135 -0.0035283072 0.020482024 0.0074153906 -0.0015773777 0.006117426 0.0030756185
0.00040124694 -0.0059267906 -0.0038553756 0.00032144805 -0.00014734943 0.00017427989 -0.010171562 -0.007833022
-0.010952382 -0.0046835723 0.00087615976 -0.0052888026 0.0045403778 0.009414377 -0.0011663148 -0.0015271086
-0.0022657071 -0.0010363003 -0.002091516 0.00091551594 -0.0017688235 -0.002302319 -0.008799994 0.0064318883
-0.010733945 0.0032211528 -0.014906044 -0.0009449839 0.0037884908 0.007789307 -0.0004333533 0.0008038793
0.00943594 0.0015264502 0.004819607 0.012521621 -0.0016089609 -0.0124303475 0.00023861931 -0.00740276
00000000: beb7 33bc f693 8fbb 808e 4abb f9d4 193b
00000010: 2011 afba 531c adba 9e85 c63a 7aed 1cbb
00000020: 5f0f 45b9 e4a6 933a 2c6e b83c 16b0 b3bb
00000030: 9e66 c039 49b4 a5b9 dc6a cc3b c181 5f39
00000040: 6e57 373b 8afb e73a a7ae 753c 501f 603b
00000050: 4c42 2539 afeb 7a3c c776 d8b9 6c5c 453b
00000060: be82 2f3a b613 cbbb 7820 7c3a 2e34 b2bb
00000070: 0e6c 173c b6f2 40bc 37c4 213b 4a45 a23b
00000080: 137a 9aba 028b bfba 5c19 843b 7e8a 09bb
00000090: 140f 033c 4979 8a3c 2968 81bb 224c ab3b
000000a0: 7f1b e2ba 6812 43bb 38a1 07ba 9fc5 b7bb
000000b0: 072e b03a 349a 3b3c bcf3 b6b9 0148 813b
000000c0: 9091 28b9 3b42 f13c 9fb7 4aba 3964 03ba
000000d0: dc95 09bc 77f3 a5bb 786a 96ba 3b0f 81ba
000000e0: 33d7 97bb 6ec2 a3bb d048 033a c81a 323b
000000f0: 7c84 02ba 37b6 e23a 33a2 023a ede3 a7bb
00000100: 02c9 443c a7bb ecba e0c0 a0bb 1bd8 74bb
00000110: 047d 06bc 73f4 6cbb 3ed0 1b3a 68c5 ab3b
00000120: 062b d137 81ed 6cbc 26f5 603a 5f49 593b
00000130: 42fe b33a 03d6 82bb 3bf7 85ba 0a05 1b3c
00000140: 82a6 fb35 7d8b dbba fd17 f539 d036 15bc
00000150: d6d0 0aba 8bc6 90bb 5d5f 8bba 8919 573a
00000160: becd 91ba df18 44bb 50c5 75bb b317 a6bb
00000170: 951d 2138 0d7f 833b f5ae 2b3c 202f 0e3b
00000180: 92d6 a0bb c049 81bb 7ebf 1438 1217 6ebb
00000190: 508a 7fbb 4568 30bb daf7 e1bb 8ba2 193b
000001a0: 0900 bdba db3e 8dba 6abf 98b9 b0c4 923b
000001b0: d67a 0eba cd34 673a 8c2c 75ba 6fd1 453c
000001c0: 19cc 92ba a0b5 a93a c237 9d3b 91cf e8b9
000001d0: 6edd ca3c 6988 4f3a e7bc 203c 5a51 07b8
000001e0: 9d56 57bb 502c 3ebb 9af6 29bb 6b64 0b3b
000001f0: e7d3 9dbb 26a9 1e3b ec69 a8ba ed98 8a3b
00000200: 2993 133a d009 153b 7114 86bb 0aa4 44ba
00000210: dced 20bb e96e 06bb 5477 bbba 0f2f 423a
00000220: 5d90 36bb 80c1 cd3a 4592 cf3a fbd6 e0ba
00000230: c4ab dabb a6cc 2cbb 8e95 9ebb deee c73a
00000240: 4931 973a 1b5a a7bb a1b3 9abb 9841 2b3b
00000250: fd9e 31bc eebb 413b dec5 1d3c 63e3 aabb
00000260: 80d9 f3b8 efed 01bb e742 9cbb e79d 1e39
00000270: 57db aabb 0af0 25bb d461 c03a afc7 893b
00000280: d802 b73b a3aa 62bb 5103 15bb 74c4 c7bb
00000290: d1bc 8bbb 267a 2a3b ffd9 a4b9 145f 6abb
000002a0: 5a35 c8b8 a5c5 19bc b597 a4bb 3dc8 203b
000002b0: c283 7f3b 9d2c 04ba e17e 16bb 2fbd a3bb
000002c0: 43bd d13a 53d6 7e3b 74dc 5e3c 841d 6e3a
000002d0: ba63 3c3a 26e1 b3bb 5f32 103b a2b6 94bb
000002e0: 0d94 d7ba 743c ce3a 69dd a8bb 0ad2 b63b
000002f0: 3507 fdb8 22af b6ba 4511 46b9 0caf 41bc
00000300: 272b d6bb 1369 db3b 69a1 c53c e4f9 323c
00000310: 89c8 093b f91e 52bc aa6f 293b d685 9c3b
00000320: 8b90 073c 72e4 25b9 9706 8abb 7bc0 a5bb
00000330: 3096 81bb fa74 0eba f069 64bb 0bd1 8a3b
00000340: 5040 f63b 50e5 a6ba 2c3b 67bb ebc9 a73c
00000350: cefc f23b 03c0 ceba b074 c83b 5190 493b
00000360: 745e d239 8635 c2bb 78aa 7cbb 0788 a839
00000370: d081 1ab9 e7be 3639 a0a6 26bc 1356 00bc
00000380: 9f71 33bc a778 99bb 16ae 653a b14d adbb
00000390: 73c7 943b c23e 1a3c 08df 98ba 4329 c8ba
000003a0: 427c 14bb 78d4 87ba d111 09bb 3cff 6f3a
000003b0: ded7 e7ba 81e2 16bb da2d 10bc 97c2 d23b
000003c0: 6edd 2fbc fa19 533b 7b38 74bc ccb8 77ba
000003d0: 5448 783b 713d ff3b b233 e3b9 6dbb 523a
000003e0: 3399 1a3c 2b13 c83a cbed 9d3b 7c27 4d3c
000003f0: c5e3 d2ba a8a8 4bbc e235 7a39 da92 f2bb

network_body._body_endoder.seq_layers.0.weight f4 [256, 68]
-0.05844228 0.11376347 0.02648283 -0.03749998 0.1285955 -0.034948766 -0.061929785 -0.073019646
0.037782207 0.14785016 -0.053861644 -0.10466572 0.08583575 0.013446676 -0.39048776 0.13065304
0.0034839488 0.16192125 -0.012580004 -0.12480027 -0.060256053 -0.1283562 -0.00813706 -0.06997491
-0.08616143 -0.25934592 0.07567555 -0.072604865 0.24293521 0.0939417 -0.055416185 -0.14040093
0.14343928 -0.060812473 -0.26295865 -0.012058172 -0.20364505 -0.06450818 0.15832102 -0.012185018
0.035760287 -0.001401916 0.013985974 -0.05140513 0.2738903 0.10110619 -0.07492379 -0.082405694
-0.07560721 0.10586857 -0.08974698 0.057922658 -0.02900477 0.019231124 -0.0905024 -0.10638708
0.15348558 0.11925113 0.017756129 0.31468174 -0.13032065 0.06598981 0.1600967 0.08714977
-0.08942371 0.038932502 0.104663536 0.21714458 0.030256422 -0.03973132 -0.07792715 0.025878552
-0.065116316 0.19714224 0.34459823 0.05032061 -0.20268065 0.4301415 0.11821668 -0.15322009
0.17978501 0.05072754 -0.26214892 0.022518821 0.16076633 0.048404302 0.020035703 -0.055339064
0.11717165 0.011260467 -0.069432005 -0.038455024 -0.020430828 -0.011239352 -0.12247715 -0.109577425
0.14792591 -0.14601657 -0.052589823 0.062699616 -0.09970238 0.12618326 -0.044897277 -0.095000714
-0.044605803 0.059002507 0.00035152878 0.08192739 -0.018763237 0.18213198 -0.021213124 -0.041609723
0.0023629852 -0.045297656 -0.18126315 -0.029162977 -0.09642759 -0.074240595 -0.10044615 -0.16922064
-0.20132191 0.16439068 0.055648558 0.12144692 -0.020386644 -0.11177143 -0.01341055 -0.12975168
0.022625612 0.04239382 0.016332576 0.0055815466 0.07148161 -0.06657623 0.10037806 -0.088415116
-0.014353554 -0.14162436 -0.2923553 -0.11609245 0.1553582 -0.034838606 0.0370394 0.11133969
-0.08368488 -0.09253902 -0.14672281 0.19186647 0.043746747 -0.07396755 -0.09749906 0.09773002
0.071486026 0.015243475 -0.06986798 0.10178334 -0.15202676 -0.10694784 0.30854225 -0.21748406
0.027672932 0.027830802 0.039766565 -0.16334553 0.14862798 0.013416267 -0.14222139 0.040368136
0.22857442 0.0022279497 -0.018340329 -0.13389868 0.011992586 -0.080709465 -0.11925095 -0.11189374
-0.1616083 0.098647214 0.05026078 0.19915518 -0.11526061 0.12511699 -0.1314893 -0.100853264
-0.047255065 0.097552635 0.007688651 -0.0881389 0.011616039 0.079384625 -0.07743808 -0.066430315
-0.06976586 -0.08215421 -0.033119164 -0.20583609 -0.09611138 -0.018587679 0.173281 -0.005637029
0.18605545 0.20845391 0.034870002 0.07148356 0.08385557 0.001076 -0.10348858 0.16491157
-0.12594374 0.037573364 -0.06889609 0.04056617 0.038693864 0.0052796113 -0.09681529 0.06646862
-0.02981191 0.06490106 -0.08712473 -0.08338153 -0.20588413 0.05470705 -0.1305032 -0.06925569
-0.073466174 0.020608015 0.10087585 -0.009050704 0.001394912 -0.13891567 0.16001327 -0.09284067
0.0020346614 -0.1261903 0.22532894 -0.007158601 -0.0042085308 -0.24030001 0.13569759 -0.105930164
-0.06709077 0.12955147 -0.057151422 -0.014782918 -0.062704004 0.16182974 -0.09444464 0.084724195
-0.12028973 -0.06997997 -0.013310268 -0.00056778174 -0.08973349 -0.10063821 -0.18208449 -0.13352937
00000000: 2c61 6fbd d2fc e83d 85f2 d83c 9499 19bd
00000010: 8aae 033e 7026 0fbd 16aa 7dbd 538b 95bd
00000020: 84c1 1a3d 0866 173e 079e 5cbd fb5a d6bd
00000030: a7ca af3d 724f 5c3c 03ee c7be e9c9 053e
00000040: f652 643b afce 253e 5c1c 4ebc 4997 ffbd
00000050: 0dcf 76bd cf6f 03be 4e51 05bc 014f 8fbd
00000060: 6775 b0bd fdc8 84be c8fb 9a3d dcb1 94bd
00000070: 02c4 783e 8264 c03d 15fc 62bd 43c5 0fbe
00000080: bfe1 123e 8016 79bd 84a2 86be a48f 45bc
00000090: 5488 50be dd1c 84bd e81e 223e aba3 47bc
000000a0: 6179 123d 7fc0 b7ba 6d25 653c 308e 52bd
000000b0: 593b 8c3e c310 cf3d a571 99bd 51c4 a8bd
000000c0: f4d7 9abd 9fd1 d83d 44cd b7bd 4f40 6d3d
000000d0: 699b edbc 978a 9d3c 5359 b9bd 78e1 d9bd
000000e0: 532b 1d3e f039 f43d 4d75 913c f71d a13e
000000f0: c772 05be aa25 873d 64f0 233e 947b b23d
00000100: c723 b7bd b077 1f3d d659 d63d 265b 5e3e
00000110: 51dc f73c 4fbd 22bd 4598 9fbd 42ff d33c
00000120: b45b 85bd a8df 493e 2e6f b03e fc1c 4e3d
00000130: 848b 4fbe 823b dc3e 961b f23d bae5 1cbe
00000140: 9019 383e aec7 4f3d 6238 86be 6479 b83c
00000150: ee9f 243e 9743 463d ea21 a43c 37ab 62bd
00000160: b1f7 ef3d d27d 383c 5e32 8ebd 0483 1dbd
00000170: 8d5e a7bc 4225 38bc 4dd5 fabd 216a e0bd
00000180: e479 173e 5e85 15be 6d68 57bd a868 803d
00000190: c330 ccbd 2f36 013e 35e6 37bd bc8f c2bd
000001a0: 93b4 36bd 9dac 713d 654d b839 8cc9 a73d
000001b0: 5cb5 99bc ce80 3a3e 25c7 adbc f56e 2abd
000001c0: 50dc 1a3b 098a 39bd 0c9d 39be 32e7 eebc
000001d0: d47b c5bd 740b 98bd b6b6 cdbd 2d48 2dbe
000001e0: 5527 4ebe 0856 283e beef 633d 2ab9 f83d
000001f0: e401 a7bc 6be8 e4bd ecb7 5bbc a0dd 04be
00000200: 5959 b93c 24a5 2d3d e5cb 853c 68e5 b63b
00000210: f364 923d 1e59 88bd 0393 cd3d fc12 b5bd
00000220: 2b2b 6bbc fa05 11be 98af 95be e1c1 edbd
00000230: 3816 1f3e edb2 0ebd a0b6 173d 1006 e43d
00000240: fa62 abbd 1985 bdbd 813e 16be a578 443e
00000250: ca2f 333d 4d7c 97bd 96ad c7bd ad26 c83d
00000260: 4467 923d c5bf 793c f216 8fbd c973 d03d
00000270: e7ac 1bbe 7807 dbbd 40f9 9d3e 24b4 5ebe
00000280: 58b2 e23c 6cfd e33c 44e2 223d 0d44 27be
00000290: ef31 183e e7cf 5b3c 7ca2 11be 0f59 253d
000002a0: 6a0f 6a3e cb02 123b 753e 96bc bc1c 09be
000002b0: 8d7c 443c 014b a5bd d839 f4bd 8c28 e5bd
000002c0: a57c 25be 8d07 ca3d 3fde 4d3d 56ef 4b3e
000002d0: c10d ecbd ab1e 003e 22a5 06be 288c cebd
000002e0: 878e 41bd adc9 c73d 14f1 fb3b 2b82 b4bd
000002f0: 3351 3e3c 6894 a23d db97 9ebd 9e0c 88bd
00000300: 67e1 8ebd 7740 a8bd f6a7 07bd b2c6 52be
00000310: 0bd6 c4bd 3045 98bc 9370 313e d4b6 b8bb
00000320: 5285 3e3e f174 553e d9d3 0e3d f965 923d
00000330: 78bc ab3d 9208 8d3a d2f1 d3bd 94de 283e
00000340: 65f7 00be 87e6 193d 6519 8dbd b628 263d
00000350: 757d 1e3d 9700 ad3b 1847 c6bd b320 883d
00000360: 1b38 f4bc d9ea 843d 736e b2bd f0c3 aabd
00000370: 4ad3 52be 8014 603d a2a2 05be edd5 8dbd
00000380: 6f75 96bd 24d2 a83c ff97 ce3d 6749 14bc
00000390: 7bd5 b63a e93f 0ebe 85da 233e 4023 bebd
000003a0: f457 053b 0838 01be a1bc 663e b392 eabb
000003b0: b7e7 89bb 3511 76be 4ff4 0a3e eaf1 d8bd
000003c0: e366 89bd 24a9 043e 9c17 6abd 0d34 72bc
000003d0: f56a 80bd b2b6 253e 316c c1bd e183 ad3d
000003e0: 765a f6bd a951 8fbd 4f13 5abc 30d7 14ba
000003f0: 31c6 b7bd 681b cebd 5b74 3abe ecbb 08be

network_body._body_endoder.seq_layers.2.bias f4 [256]
0.001476135 0.0018624217 -0.00514326 0.009467408 0.00064892776 0.0009936627 -0.001359339 -0.0012143702
-0.0069986773 0.012860668 -0.0008770166 0.00097181776 -0.0012550644 -0.0055201226 -0.0018267785 -0.0044650524
0.011496286 -0.0061571505 -0.0040996256 0.007842851 0.0042921626 -0.006768419 0.00859021 0.0015037152
-0.012217624 0.000997308 -0.0021797314 0.008722385 0.0056931595 -0.0018977512 0.007643464 -0.0010437737
-0.007193183 -0.005709997 -0.0048914836 0.0023941358 0.011220079 0.0013820485 -0.004225873 -0.004977818
0.003793078 -0.0011995555 0.0012261856 -0.0020082206 0.009316095 -0.0020727746 -0.0063648312 0.017645584
-0.005357741 -0.000782905 0.00050361984 0.018693998 -0.004777577 0.0040300614 0.00033251187 0.0009720754
-0.006894995 -0.005481323 -0.0029455489 0.0003453176 -0.0026105072 0.003507488 -0.007675537 0.0006257968
-0.0105536245 -0.0033993889 -0.0042824456 -0.0021278264 0.0019305509 0.0009830426 -0.0008767549 0.0027401794
-0.00686928 -0.011117128 -0.010232453 -0.011743596 -0.0014563393 -0.001233877 0.000942722 0.0004687732
-0.0019081665 -0.0024231602 -0.0014363601 -0.001928034 0.005969718 0.0005270671 -0.0077618747 0.0002972603
-0.0034874033 -0.003474607 -0.011684587 0.0034527434 0.0018847733 -0.0067632655 0.0023530608 -0.0009372809
-0.00046828104 0.0034176786 0.0050247964 -0.019789876 -0.0028494329 -0.011029445 -0.0021047164 0.0012256732
-0.007012467 -0.013310469 -0.0064298636 -0.0047363397 -0.006289316 0.0026829124 0.0039144633 -0.006576598
0.0002457812 0.0027404123 -0.0036443232 -0.0040826946 0.019248635 -0.0047844867 0.004914477 -0.0035145856
-0.004224352 -0.004313752 -0.0069299005 0.0038387615 0.0038456381 -0.013387201 -0.006851528 0.002575068
-0.00027073678 0.0021569158 -0.00654116 -0.005012445 -0.01562743 -0.0047647757 0.00065384095 -0.0027610308
-0.0039943242 -0.0044884537 -0.0038467168 0.0005893419 0.0010306777 0.0006427931 -0.006633711 -0.00037660994
-0.0043210946 -0.000800567 0.0033963816 0.0030802684 -0.001457929 -0.0035874192 0.0011157562 0.0010235494
0.0053530955 -0.0044757854 -0.0087034255 0.0024941536 -0.00012040572 0.0038719585 0.0050425776 -0.0028154969
0.0011082821 -0.0005332736 -0.0041135177 -0.00027521982 0.002139706 0.0039184154 0.008111749 0.011782727
-0.004912544 0.002607891 -0.0049040974 0.0012948288 -0.0030856705 -0.007972956 0.004549787 0.004961507
-0.0009186201 0.00414719 -0.0047371797 0.0026034184 -0.000374256 -0.0048754043 -0.0010336819 -0.0052344673
-0.00439149 -0.001389497 -0.0036854884 -0.002544335 -0.0026605374 0.0028449292 -0.00198291 -0.00038835808
-0.0059177917 -0.0060514477 0.009480298 0.002146511 -0.00682644 -0.0032965129 -0.0068886224 -0.008883035
-0.001991144 0.0038279998 0.0003585438 -0.00494932 0.0035511474 0.0015685905 -0.009306505 -0.004865851
-0.0028847968 -0.004376948 -0.0016041234 0.0025319296 -0.001205605 -0.0067932517 -0.0042663035 0.012107978
-0.0040181787 0.0016427295 0.0010952123 -0.0031246862 0.0028654914 0.0042766575 -0.0048206393 0.0006879723
-0.0032373765 0.0032129788 -0.0036805114 0.004584818 -0.0066786883 -0.010393893 -0.0028270748 -0.0048531634
-0.004315807 0.0013780938 -0.0018544523 -0.0022294363 -0.001387572 -0.008298799 -0.0049509495 0.001087732
-0.006892137 -0.0019288207 -0.0058930228 0.0016241331 0.000245813 0.0015092217 -0.00022227642 8.112547e-07
-0.00039881564 0.0035838068 0.002614925 -0.002919427 -0.0031380136 -0.005334104 0.0034169173 0.0029485733
00000000: df7a c13a 811c f43a cb88 a8bb 301d 1b3c
00000010: ce1c 2a3a ca3d 823a d92b b2ba 812b 9fba
00000020: 2955 e5bb 8db5 523c 96e7 65ba 96c1 7e3a
00000030: f980 a4ba 25e2 b4bb 8470 efba 934f 92bb
00000040: eb5a 3c3c ecc1 c9bb 2756 86bb 4d7f 003c
00000050: 45a5 8c3b 9dc9 ddbb f4bd 0c3c 4f18 c53a
00000060: 6e2c 48bc 1ab8 823a d3d9 0ebb 56e8 0e3c
00000070: af8d ba3b f7bd f8ba 0676 fa3b 3ccf 88ba
00000080: cbb4 ebbb ed1a bbbb bd48 a0bb efe6 1c3b
00000090: 6cd4 373c da25 b53a 3179 8abb f71c a3bb
000000a0: 4a95 783b 673a 9dba f6b7 a03a 5a9c 03bb
000000b0: 89a2 183c 63d7 07bb 1390 d0bb 798d 903c
000000c0: fd8f afbb dd3b 4dba 5b05 043a 2824 993c
000000d0: 388d 9cbb 9b0e 843b fd54 ae39 e0d2 7e3a
000000e0: 69ef e1bb ac9c b3bb 1c0a 41bb be0b b539
000000f0: 0b15 2bbb e2dd 653b 1283 fbbb 830c 243a
00000100: 1ce9 2cbc 48c8 5ebb c253 8cbb 0173 0bbb
00000110: 8a0a fd3a 70d9 803a 06d6 65ba 9594 333b
00000120: b217 e1bb 9d24 36bc 05a6 27bc 3668 40bc
00000130: a3e2 beba 0bba a1ba 0121 773a adc5 f539
00000140: 711b faba e2cd 1ebb 3f44 bcba 16b6 fcba
00000150: a09d c33b e02a 0a3a 5357 febb 9ad9 9b39
00000160: eb8c 64bb 3bb6 63bb b670 3fbc 6c47 623b
00000170: 7f0a f73a 629e ddbb cf35 1a3b dbb3 75ba
00000180: 9e83 f5b9 22fb 5f3b 0ca7 a43b 611e a2bc
00000190: 8dbd 3abb d8b4 34bc 48ef 09bb c5a6 a03a
000001a0: d6c8 e5bb 2714 5abc 9bb1 d2bb 4c33 9bbb
000001b0: 9b16 cebb cdd3 2f3b e644 803b 8180 d7bb
000001c0: 32dc 8039 7d98 333b 99d5 6ebb 20c8 85bb
000001d0: 50af 9d3c 2fc7 9cbb 9f09 a13b f654 66bb
000001e0: 6f6c 8abb 605a 8dbb 3814 e3bb bb93 7b3b
000001f0: 1a07 7c3b fe55 5bbc c882 e0bb 79c2 283b
00000200: adf1 8db9 0b5b 0d3b 3a57 d6bb 703f a4bb
00000210: 1905 80bc d621 9cbb 8666 2b3a 69f2 34bb
00000220: d2e2 82bb e113 93bb 3319 7cbb 117e 1a3a
00000230: ce17 873a 1d81 283a 9a5f d9bb bb73 c5b9
00000240: f897 8dbb 24dd 51ba d495 5e3b 54de 493b
00000250: fb17 bfba e81a 6bbb 913e 923a 9e28 863a
00000260: 0569 af3b 9ca9 92bb d098 0ebc f474 233b
00000270: 5482 fcb8 afc0 7d3b 353c a53b 3384 38bb
00000280: c743 913a 63cb 0bba b0ca 86bb 614b 90b9
00000290: 4f3a 0c3b 0d66 803b 24e7 043c 570c 413c
000002a0: 68f9 a0bb 27e9 2a3b 8db2 a0bb 3fb7 a93a
000002b0: f638 4abb 00a1 02bc 6116 953b 2394 a23b
000002c0: 8dcf 70ba 27e5 873b 583a 9bbb 1d9e 2a3b
000002d0: ca37 c4b9 dbc1 9fbb 9c7c 87ba e585 abbb
000002e0: 7de6 8fbb c81f b6ba 3c88 71bb dcbe 26bb
000002f0: 695c 2ebb fe71 3a3b b6f3 01bb 8a9c cbb9
00000300: 09ea c1bb 394b c6bb 4053 1b3c 7bac 0c3b
00000310: 54b0 dfbb 4f0a 58bb f4b9 e1bb 268a 11bc
00000320: da7d 02bb 2edf 7a3b effa bb39 e82d a2bb
00000330: 5eba 683b 2a99 cd3a 507a 18bc b771 9fbb
00000340: dc0e 3dbb 806c 8fbb 7341 d2ba bbee 253b
00000350: 6405 9eba ed99 debb 59cc 8bbb 8a60 463c
00000360: edaa 83bb db50 d73a 3a8d 8f3a 89c7 4cbb
00000370: f8ca 3b3b 3423 8c3b 74f6 9dbb 0a59 343a
00000380: 2a2a 54bb d790 523b bc34 71bb 3e3c 963b
00000390: e6d8 dabb 264b 2abc 7246 39bb 4907 9fbb
000003a0: 9d6b 8dbb 28a1 b43a 1811 f3ba bc1b 12bb
000003b0: 31df b5ba b0f7 07bc 933b a2bb 3b92 8e3a
000003c0: 70d7 e1bb 7cd0 fcba 421a c1bb dde0 d43a
000003d0: 76e0 8039 14d1 c53a df12 69b9 00c5 5935
000003e0: 2118 d1b9 4dde 6a3b 295f 2b3b db53 3fbb
000003f0: 22a7 4dbb b5c9 aebb 5cee 5f3b da3c 413b

network_body._body_endoder.seq_layers.2.weight f4 [256, 256]
0.02845752 0.02464857 -0.067133315 0.03257448 -0.021614358 0.0019487063 -0.03767411 -0.025406048
-0.0031322138 0.02828505 -0.003695524 -0.09771986 -0.0815579 0.06347778 -0.062345788 -0.021987228
0.07100358 0.012451132 0.024440318 0.013257555 0.00660666 0.07759945 0.0206562 0.019169832
0.006537334 0.028243264 -0.043700017 -0.03230307 0.025409348 -0.049691647 0.0014303377 -0.019062864
0.025331737 0.014559058 -0.017036458 -0.049033757 0.027797591 -0.04763302 0.1284483 -0.016841127
-0.013301051 0.02652218 -0.092479505 0.11073784 0.078075014 -0.06055542 0.072225325 0.094119705
-0.07593145 -0.06502657 0.015771063 0.055710018 -0.043189745 -0.12772556 0.054055132 0.14993662
-0.061055765 -0.032419663 -0.060414445 0.052846726 -0.097734176 0.005989689 -0.036096327 0.17516868
0.040479705 -0.16731589 -0.062426496 -0.03332888 0.0563044 0.029460207 0.032193486 -0.03946147
0.07717011 -0.096246794 0.12803784 -0.18474069 0.017492097 -0.10713714 -0.027554085 0.044554
0.029106 0.030340312 0.04112649 -0.075127214 -0.0023450677 -0.07245581 -0.016959777 -0.08420879
0.07208199 0.036361624 -0.067015044 0.028878642 -0.022249406 0.05669813 -0.01917207 -0.10577683
0.04236834 0.049393248 0.013184463 -0.07746495 0.05085216 0.037127864 -0.0075992835 0.03154592
0.11687498 -0.047742866 -0.12132531 -0.009376575 -0.036935568 -0.022941932 0.023254296 0.044129275
0.033598516 0.03432292 -0.053285517 0.07001076 -0.017972458 0.118344165 0.039199155 -0.008392622
0.16124204 0.10077895 0.06552908 0.16393247 -0.04045537 0.016553672 0.022383574 0.022972932
-0.032192513 -0.049323536 0.032395877 -0.024653692 -0.07646233 -0.026200764 -0.01802861 0.045449756
-0.11288392 -0.041244343 0.022858448 -0.006413245 -0.01787388 -0.03889748 0.0488098 -0.03586273
0.07370717 0.00905864 0.043756496 0.016883845 0.032358952 -0.14149281 -0.0379918 0.062190674
-0.010535177 0.09530766 -0.023288354 -0.045419816 0.0864887 -0.045958713 0.05335851 -0.085243665
-0.03145504 -0.062131133 0.028229821 -0.1084282 -0.026484177 0.01532381 -0.026615122 -0.050014984
0.06794391 0.027716286 -0.033394765 0.07708015 -0.09734248 -0.0036655525 -0.028366905 0.05452614
0.035431795 -0.0824617 0.051148884 -0.0071652667 0.04937349 0.041996714 0.019650761 0.09731874
-0.008510874 -0.050479665 0.07397821 0.036332488 0.16756079 -0.12307907 0.084969915 -0.06888834
0.0036012921 -0.008498906 -0.04627601 -0.005190747 -0.08170345 -0.04591787 0.047958665 -0.034221124
0.07441665 0.0015414488 0.048919547 -0.1043894 0.004280807 0.016058197 -0.020474691 -0.010009448
0.017679038 0.022271734 -0.0032193684 0.005822364 0.079540126 0.028178675 -0.070521586 0.026253518
-0.033352975 0.08578226 0.021352263 0.050817966 -0.08735565 -0.09882427 0.07631505 -0.11380348
-0.14046103 -0.03378875 0.0033808423 0.120605715 0.07172396 0.009356447 0.09144591 -0.047299623
-0.042933773 -0.026305184 -0.08220386 0.006580284 -0.11342988 0.049092073 0.027245346 0.016925458
-0.021490755 -0.07555139 -0.013057815 -0.023694778 -0.028067643 0.07150422 0.01587932 -0.03849784
-0.028651865 -0.048675545 -0.027846452 0.026558422 0.011918427 0.0073614535 -0.10255964 0.17530888
00000000: bf1f e93c cceb c93c 317d 89bd d16c 053d
00000010: 9810 b1bc bc6b ff3a 2b50 1abd 5820 d0bc
00000020: d445 4dbb 0db6 e73c 9b30 72bb 5a21 c8bd
00000030: d407 a7bd a300 823d 4c5e 7fbd 8f1e b4bc
00000040: 536a 913d d5ff 4b3c 1037 c83c 3736 593c
00000050: ae7c d83b 76ec 9e3d 3137 a93c 0d0a 9d3c
00000060: 2237 d63b 6b5e e73c cafe 32bd 3950 04bd
00000070: 4427 d03c 7889 4bbd 2b7a bb3a b929 9cbc
00000080: 8184 cf3c 1d89 6e3c 0b90 8bbc 9fd7 48bd
00000090: c6b7 e33c d71a 43bd f387 033e 67f6 89bc
000000a0: a7ec 59bc 0b45 d93c e565 bdbd 85ca e23d
000000b0: cbe5 9f3d f608 78bd dfea 933d d5c1 c03d
000000c0: f381 9bbd a62c 85bd 5132 813c 3030 643d
000000d0: bbe7 30bd 7dca 02be ea68 5d3d fc88 193e
000000e0: 9c15 7abd 7bca 04bd 2375 77bd cf75 583d
000000f0: db28 c8bd 2745 c43b bed9 13bd 6b5f 333e
00000100: 0cce 253d db54 2bbe edb2 7fbd dd83 08bd
00000110: 719f 663d 8856 f13c 51dd 033d 5aa2 21bd
00000120: 5d0b 9e3d 0a1d c5bd 5a1c 033e aa2c 3dbe
00000130: 964b 8f3c b86a dbbd 1bb9 e1bc 417e 363d
00000140: b56f ee3c 3f8c f83c 4074 283d 4cdc 99bd
00000150: b5af 19bb b663 94bd 3bef 8abc a875 acbd
00000160: b99f 933d edef 143d 2f3f 89bd e792 ec3c
00000170: 6344 b6bc 4c3c 683d bf0e 9dbc 86a1 d8bd
00000180: 6d8a 2d3d 9350 4a3d a503 583c f2a5 9ebd
00000190: 5b4a 503d 6313 183d 6903 f9bb 4b36 013d
000001a0: 265c ef3d 068e 43bd 6779 f8bd 35a0 19bc
000001b0: c049 17bd b8f0 bbbc cb7f be3c e6c0 343d
000001c0: 999e 093d 3196 0c3d ea41 5abd cd61 8f3d
000001d0: fa3a 93bc 6d5e f23d 4b8f 203d 3581 09bc
000001e0: a21c 253e 3265 ce3d 1c34 863d eadd 273e
000001f0: 88b4 25bd 919b 873c c25d b73c bb31 bc3c
00000200: 4cdc 03bd 7a07 4abd 8ab1 043d 8af6 c9bc
00000210: 4898 9cbd fca2 d6bc bcb0 93bc 8629 3a3d
00000220: af2f e7bd d4ef 28bd a441 bb3c 3326 d2bb
00000230: 3e6c 92bc f752 1fbd c9ec 473d cce4 12bd
00000240: c9f3 963d b16a 143c 033a 333d fd4f 8a3c
00000250: d28a 043d 7ee3 10be 4a9d 1bbd a6bb 7e3d
00000260: bc9b 2cbc aa30 c33d 38c7 bebc 210a 3abd
00000270: fd20 b13d 343f 3cbd 748e 5a3d 3b94 aebd
00000280: 00d7 00bd 377d 7ebd 3a42 e73c 9b0f debd
00000290: 58f5 d8bc b810 7b3c f507 dabc 83dc 4cbd
000002a0: 2d26 8b3d 440d e33c f3c8 08bd 33dc 9d3d
000002b0: 7f5b c7bd c439 70bb b661 e8bc cd56 5f3d
000002c0: ee20 113d aee1 a8bd 7e81 513d 9dca eabb
000002d0: db3b 4a3d bf04 2c3d a2fa a03c 0c4f c73d
000002e0: 3171 0bbc c4c3 4ebd e381 973d 60d1 143d
000002f0: 0e95 2b3e e110 fcbd b504 ae3d 5415 8dbd
00000300: a803 6c3b ff3e 0bbc ea8b 3dbd 2417 aabb
00000310: 2354 a7bd 6014 3cbd 4e70 443d 732b 0cbd
00000320: c267 983d 700a ca3a dd5f 483d 1cca d5bd
00000330: 0346 8c3b 7b8c 833c 8aba a7bc abfe 23bc
00000340: a1d3 903c 3673 b63c 0afc 52bb 87c9 be3b
00000350: efe5 a23d f7d6 e63c 9f6d 90bd 9e11 d73c
00000360: 219d 08bd 9cae af3d f1ea ae3c 8026 503d
00000370: 85e7 b2bd 6164 cabd 114b 9c3d cd11 e9bd
00000380: 04d5 0fbe 1366 0abd 1f91 5d3b 2100 f73d
00000390: 03e4 923d c84b 193c fe47 bb3d 40bd 41bd
000003a0: 53db 2fbd f87d d7bc 7f5a a8bd 6c9f d73b
000003b0: ed4d e8bd c514 493d a231 df3c 42a7 8a3c
000003c0: 610d b0bc b0ba 9abd 72f0 55bc 8d1b c2bc
000003d0: 1dee e5bc ce70 923d 5915 823c e9af 1dbd
000003e0: 51b7 eabc 0260 47bd 3e1e e4bc 0c91 d93c
000003f0: 8245 433c 5938 f13b ca0a d2bd 2c84 333e

network_body._body_endoder.seq_layers.4.bias f4 [256]
-0.008939724 0.005529114 0.0025556786 -0.004915546 0.0003892696 -0.00045185265 0.0013590824 0.004380617
-0.0013319564 0.012133745 -0.009396506 -0.0022744865 -0.008764688 0.0030838465 0.00016307541 -2.2005457e-05
-0.0072128205 -0.0062551447 -0.00967161 -0.0016119727 -0.0037014908 0.010709023 -0.0036698047 0.0017760537
-0.009456999 -0.00688615 -0.005304576 0.0020658036 0.0044691353 0.01739687 0.0003238606 0.00078813493
0.0050061233 0.0032128366 0.007489073 -0.0060978276 0.002872632 -0.0059833773 0.0038533618 -0.0041805785
-0.0049415925 -0.013493009 -0.0035515183 0.0064820275 0.0076211803 -0.0056072115 -0.0029044868 -0.017800344
0.003646757 0.0029264935 0.0032693464 -0.0025180157 -0.0078034275 0.0013437858 -0.0052062487 0.0034728611
0.001322126 -0.004271542 0.0055804383 0.003854195 0.013787099 -0.0007979619 -0.0040898044 0.00026804648
0.0066162073 -0.007691731 -0.005482382 0.005208148 -0.0012948163 -0.007305042 0.0070071644 -0.004689729
-0.009220657 -0.010489584 -0.009385946 -0.011211884 0.0039172126 -0.009882464 0.0051267045 0.0031620183
-0.013414405 -0.010703401 -0.009627778 -0.0020789492 -0.008738116 -0.0050122137 -0.0034522042 0.004761762
-0.0022533392 0.018055426 -0.002259337 -0.0037573846 0.00050462934 -0.0068247523 0.0061451662 0.0042600725
0.012441218 -0.007948632 -0.00083295803 -0.00560352 -0.0032892453 0.005457059 -0.0037921402 0.0044568586
-0.010243064 -0.006110952 -0.0023312536 -0.0059664515 -0.011248024 -0.008061166 -0.0018888507 -0.004590627
-0.0045873714 0.0051534683 0.0011127314 0.0038883905 0.008219716 -0.0004769243 -0.0036906204 0.0018729174
-0.0010628966 0.011275516 0.000862474 0.0006399358 0.0003736707 -0.003940301 -0.011896456 0.000753222
-0.005482769 -0.006561797 0.004886731 0.00042981713 0.0034418965 -0.0014779511 -0.004864681 -0.003971746
-0.00941905 0.0044259466 -0.004060363 -0.003928123 0.0121683385 -0.0012320214 0.009041831 0.005467015
0.0013014532 -0.0018136759 -0.0063519357 -0.009648821 0.0034910864 -0.0041817683 0.0021586788 -0.0021967061
-0.010658257 -0.003901504 -0.014428653 0.011123094 -0.0019787867 -0.013817094 -0.0022226342 0.0012439914
-0.010280281 -0.0004760321 0.0027894604 0.0027066364 0.0035499407 -0.0031574257 0.009668411 -0.0031865402
0.0014765433 0.003104892 0.00982443 -0.007343812 -0.0005257137 -0.0019364554 -0.0059512723 -0.012453116
-0.007558561 -0.013357359 -0.0012370109 0.0020623142 -0.00432649 0.0032365187 -0.0015911568 0.0076682484
0.014677176 0.003263102 -0.0070658503 -0.005773627 -0.010010504 0.0069411304 0.0035775132 0.0128989
-0.0021119455 0.00026403702 0.000822913 -0.007099565 -0.006092834 0.0011679076 0.004148151 -0.007992293
0.0022875539 0.000565703 0.0022005362 0.0008596927 -0.0069893026 -0.010355287 -0.00070333184 0.0049826293
-0.008556422 0.0040937606 0.0030024191 -0.014921558 0.0025402454 -0.0035948586 -0.006043328 -0.005306014
-0.007550753 0.0021142028 0.0023691903 -0.0055275853 0.0043236255 -0.0019494705 -0.0018346355 -0.0019459866
-0.0025365464 0.00557676 0.00376358 0.016592441 0.011537421 0.0049644783 0.0031229742 0.001320311
-0.0019902557 -0.0033682636 0.0030047116 0.011766041 -0.013567008 0.0037798441 0.0017013534 0.0043182774
-0.0007200404 -0.0026523324 -0.013991249 -0.0021021422 0.0048377807 -0.0013669353 -0.0038097857 0.0031942145
0.0018373172 0.0007908372 -0.0024727066 -0.0032460564 -0.013561795 0.0017597819 0.0047369804 0.001825848
00000000: ec77 12bc 922d b53b 2c7d 273b 9712 a1bb
00000010: e216 cc39 a3e6 ecb9 3d23 b23a 478b 8f3b
00000020: 0a95 aeba 9dcc 463c cdf3 19bc 8d0f 15bb
00000030: c499 0fbc 5c1a 4a3b 39ff 2a39 5c98 b8b7
00000040: 8659 ecbb f5f7 ccbb ac75 1ebc d448 d3ba
00000050: b694 72bb e674 2f3c 1b81 70bb 79ca e83a
00000060: 87f1 1abc 37a5 e1bb 02d2 adbb 6f62 073b
00000070: d371 923b e183 8e3c d5cb a939 d79a 4e3a
00000080: 680a a43b 748e 523b e666 f53b 49d0 c7bb
00000090: c442 3c3b 3510 c4bb af88 7c3b 3cfd 88bb
000000a0: 15ed a1bb c811 5dbc 97c0 68bb 3067 d43b
000000b0: 18bb f93b b3bc b7bb 3459 3ebb 07d2 91bc
000000c0: 6efe 6e3b 6aca 3f3b 8842 563b 4b05 25bb
000000d0: e5b3 ffbb f821 b03a 2e99 aabb f198 633b
000000e0: 304b ad3a 4bf8 8bbb 1cdc b63b a996 7c3b
000000f0: 49e3 613c 512e 51ba c403 86bb 9788 8c39
00000100: c5cc d83b eb0a fcbb 8ea5 b3bb 1da9 aa3b
00000110: d3b6 a9ba 225f efbb 5b9c e53b 4cac 99bb
00000120: 3d12 17bc 81dc 2bbc 83c7 19bc 0db2 37bc
00000130: f65b 803b 0fea 21bc eafd a73b dd39 4f3b
00000140: 18c8 5bbc 515d 2fbc d4bd 1dbc fb3e 08bb
00000150: 512a 0fbc 7f3d a4bb 603e 62bb 8e08 9c3b
00000160: c2ac 13bb f9e8 933c 6311 14bb 743e 76bb
00000170: 1a49 043a 2ca2 dfbb 645d c93b 1498 8b3b
00000180: 40d6 4b3c fb3a 02bc de5a 5aba bc9d b7bb
00000190: 6190 57bb 21d1 b23b 8e85 78bb d70a 923b
000001a0: 86d2 27bc 613e c8bb f2c7 18bb 3982 c3bb
000001b0: a249 38bc fb12 04bc 5093 f7ba f86c 96bb
000001c0: a951 96bb 6dde a83b 12d9 913a 5ed4 7e3b
000001d0: fdab 063c b20b fab9 56de 71bb ae7c f53a
000001e0: e450 8bba f1bc 383c a617 623a 5dc1 273a
000001f0: 3be9 c339 a41d 81bb 5ae9 42bc df73 453a
00000200: cda8 b3bb 5804 d7bb df20 a03b 1459 e139
00000210: 7191 613b cfb7 c1ba e767 9fbb 6c25 82bb
00000220: 5c52 1abc 8807 913b cb0c 85bb 7cb7 80bb
00000230: b65d 473c c77b a1ba 3024 143c a524 b33b
00000240: 8695 aa3a ddb8 edba e623 d0bb 1716 1ebc
00000250: b6ca 643b 3707 89bb 9f78 0d3b 9df6 0fbb
00000260: f89f 2ebc 60b0 7fbb 2866 6cbc a33d 363c
00000270: 88ae 01bb 1861 62bc 9da9 11bb 6d0d a33a
00000280: a06e 28bc f293 f9b9 61cf 363b d361 313b
00000290: 1fa6 683b d0ec 4ebb 4168 1e3c 46d5 50bb
000002a0: 9288 c13a 727b 4b3b a5f6 203c 5ca4 f0bb
000002b0: 0dd0 09ba a9d0 fdba e402 c3bb 2708 4cbc
000002c0: cead f7bb d3d8 5abc 3323 a2ba e427 073b
000002d0: 3bc5 8dbb c61b 543b 5d8e d0ba ee45 fb3b
000002e0: 8a78 703c c4d9 553b a688 e7bb b230 bdbb
000002f0: 1903 24bc 6c72 e33b b674 6a3b e855 533c
00000300: 9168 0abb 736e 8a39 c2b8 573a 78a3 e8bb
00000310: 65a6 c7bb 7a14 993a 36ed 873b 1bf2 02bc
00000320: c9ea 153b b04b 143a df36 103b 005d 613a
00000330: 8506 e5bb 39a9 29bc cd5f 38ba 5345 a33b
00000340: 3c30 0cbc f424 863b 3cc4 443b 8d79 74bc
00000350: 3f7a 263b b897 6bbb 1c07 c6bb 12de adbb
00000360: 4f6c f7bb 708e 0a3b 6b44 1b3b bf20 b5bb
00000370: 33ad 8d3b 6085 ffba 2778 f0ba 7a10 ffba
00000380: 303c 26bb 41bd b63b 65a6 763b dfec 873c
00000390: 7307 3d3c 10ad a23b d0aa 4c3b 490e ad3a
000003a0: f36e 02bb 16be 5cbb b2ea 443b 5ac6 403c
000003b0: 2848 5ebc 43b7 773b f2ff de3a 5680 8d3b
000003c0: 18c1 3cba c1d2 2dbb 8d3b 65bc 18c4 09bb
000003d0: 3f86 9e3b bd2a b3ba 99ad 79bb 0756 513b
000003e0: 23d2 f03a 3050 4f3a 220d 22bb cabb 54bb
000003f0: 4b32 5ebc 7ba8 e63a ac38 9b3b 4b51 ef3a

network_body._body_endoder.seq_layers.4.weight f4 [256, 256]
0.02804973 -0.0004121789 -0.062599115 -0.020603908 -0.026152262 -0.06277032 -0.010762487 0.09726772
0.029017108 0.0016225801 -0.020014014 0.11693073 -0.00040627125 0.0030164113 -0.046043996 -0.046734583
0.024508454 -0.07380207 -0.070041515 -0.0004682932 -0.09845324 -0.015545642 0.004588189 0.037524227
0.046399016 0.039716758 -0.1525021 -0.05639511 0.040843282 0.0035746796 -0.008133711 0.008530132
0.016723482 -0.13402969 0.075805806 0.08330388 0.06680645 0.041146282 0.014677524 0.010176601
0.12018097 -0.004080453 0.051152084 -0.051835906 -0.058526706 -0.08888412 -0.012090892 -0.07022414
-0.07494637 -0.055283565 -0.04795246 0.096022114 0.0552852 -0.019688176 0.015357252 -0.037048854
-0.0030076567 -0.06433124 0.09141575 -0.06817329 0.058913194 0.08720128 0.13604677 -0.0695467
0.024271585 0.009548575 0.031464916 0.014643768 -0.042344242 0.043673247 -0.03803795 -0.024652747
-0.05243567 -0.13644227 -0.11783816 0.051036444 -0.047854364 0.014620114 -0.06663255 -0.028900797
-0.06293247 -0.053879652 -0.021416571 0.010074729 -0.08872755 0.024889115 0.044953417 0.04040111
0.040217124 0.013863332 -0.00063565734 -0.032026812 -0.11462745 -0.09616659 0.0030844414 0.0085962815
-0.1128675 0.035879176 -0.14782998 0.1545881 0.043961518 -0.050676145 -0.11949415 0.020802338
0.069229715 0.05187938 0.04875797 -0.018283999 0.05501456 -0.04821601 0.030114789 0.045713685
0.08623426 -0.11754706 -0.0016603611 -0.1872546 -0.022845132 0.01764728 -0.08495429 0.06301344
-0.009709626 0.008597873 -0.1560402 -0.08293881 -0.08365171 0.018725015 0.12603047 -0.04275592
0.01676084 -0.015568431 0.076350965 -0.105925426 0.022811437 0.027647048 0.009638869 -0.14555594
0.20199722 -0.116332315 -0.07737371 0.049041063 0.048255373 0.02898704 0.029234177 0.0519293
0.05405263 0.00035614462 -0.1463698 -0.07980713 -0.020896643 -0.051457256 0.10739198 0.055822026
-0.11885335 -0.081106 0.059941206 0.04781264 0.07186326 -0.03306323 -0.14175095 -0.056444276
0.042259216 -0.046565745 0.014067687 -0.003902645 0.015876258 -0.039687235 0.042071775 0.012997156
0.08918749 -0.1326924 -0.03562214 0.099937 0.046490278 0.02582094 -0.06853448 0.03309129
0.019510617 -0.0182886 -0.0025944216 -0.057403333 -0.0031915866 -0.031221988 -0.04855067 0.007594075
-0.0690736 -0.010452579 -0.07700322 -0.09430488 -0.065494485 -0.08325218 -0.042206854 0.13940734
-0.07374937 0.07327288 -0.04560556 -0.008757322 0.05316852 -0.02804623 0.0017430732 0.0024576427
-0.1119261 0.14445044 0.026112089 -0.053580284 0.12809926 0.051739037 -0.025743032 -0.012103005
-0.042858765 0.11560984 -0.09879093 0.05949865 -0.100571044 0.0008420004 0.0023253749 -0.0693561
0.04269226 0.024250261 -0.012169123 -0.030939454 0.110484384 0.064683504 0.08949588 0.03971855
0.060665164 -0.1677439 0.08517359 0.08744326 0.022154318 0.041288454 -0.15444168 -0.10789804
0.052299865 -0.029140443 -0.067588925 0.04749817 0.070645355 0.0037577343 -0.033321388 -0.11682943
0.06483845 -0.054290257 -0.010915682 -0.049811833 0.02383044 -0.09933332 0.07787867 0.01279451
0.061624926 0.032077685 0.07436719 0.03900476 0.03260405 -0.016957764 -0.041328456 -0.00082003867
00000000: 8cc8 e53c b719 d8b9 f733 80bd 87c9 a8bc
00000010: 453d d6bc ba8d 80bd 2455 30bc 4c34 c73d
00000020: 49b5 ed3c c1ac d43a 6ef4 a3bc 6179 ef3d
00000030: ce00 d5b9 fcae 453b a198 3cbd c36c 3fbd
00000040: f4c5 c83c 8a25 97bd ed71 8fbd 4085 f5b9
00000050: daa1 c9bd 26b3 7ebc 8558 963b 01b3 193d
00000060: e50c 3e3d 0aae 223d 8329 1cbe 8ffe 66bd
00000070: 494b 273d 2c45 6a3b 4243 05bc f7c1 0b3c
00000080: afff 883c 143f 09be 1340 9b3d 3a9b aa3d
00000090: d2d1 883d 0189 283d ff79 703c c2bb 263c
000000a0: 7121 f63d 52b5 85bb d984 513d e351 54bd
000000b0: b3b9 6fbd e108 b6bd e018 46bc add1 8fbd
000000c0: 7c7d 99bd 0571 62bd cc69 44bd 3ea7 c43d
000000d0: bc72 623d 1949 a1bc fc9c 7b3c 8ac0 17bd
000000e0: 1b1c 45bb 19c0 83bd 2e38 bb3d 709e 8bbd
000000f0: f64e 713d 9696 b23d d84f 0b3e 806e 8ebd
00000100: 34d5 c63c a071 1c3c 5be1 003d 6aec 6f3c
00000110: 2871 2dbd b8e2 323d aecd 1bbd 8ff4 c9bc
00000120: c9c6 56bd 86b7 0bbe 2255 f1bd 970b 513d
00000130: f002 44bd 3489 6f3c a576 88bd 5dc1 ecbc
00000140: bde2 80bd e9b0 5cbd ce71 afbc 7a10 253c
00000150: cab6 b5bd 42e4 cb3c 1321 383d a27b 253d
00000160: b6ba 243d 0723 633c 3ea2 26ba 8c2e 03bd
00000170: ccc1 eabd fdf2 c4bd 5724 4a3b 6bd7 0c3c
00000180: 1327 e7bd 0bf6 123d be60 17be 584c 1e3e
00000190: fe10 343d ca91 4fbd 59b9 f4bd aa69 aa3c
000001a0: 4fc8 8d3d 797f 543d 70b6 473d 53c8 95bc
000001b0: f356 613d 277e 45bd 4ab3 f63c 463e 3b3d
000001c0: 969b b03d 83bc f0bd 79a0 d9ba abbf 3fbe
000001d0: b725 bbbc 0791 903c 84fc adbd 310d 813d
000001e0: 2015 1fbc 18de 0c3c 01c9 1fbe d3db a9bd
000001f0: 9651 abbd 3465 993c 220e 013e d520 2fbd
00000200: 074e 893c bb12 7fbc e55d 9c3d 6eef d8bd
00000210: 0ddf ba3c 107c e23c 59ec 1d3c 9e0c 15be
00000220: 5cd8 4e3e a33f eebd 1c76 9ebd 48df 483d
00000230: 6da7 453d 3b76 ed3c 837c ef3c d1b3 543d
00000240: 4a66 5d3d ecb8 ba39 f7e1 15be ec71 a3bd
00000250: 702f abbc d8c4 52bd 54f0 db3d a3a5 643d
00000260: 6369 f3bd e71a a6bd e984 753d 30d7 433d
00000270: 0b2d 933d 4f6d 07bd 2927 11be 1d32 67bd
00000280: 0018 2d3d b9bb 3ebd 287c 663c 85c3 7fbb
00000290: ed0e 823c 158f 22bd 7453 2c3d 06f2 543c
000002a0: eea7 b63d 84e0 07be 85e8 11bd c5ab cc3d
000002b0: 976c 3e3d 7086 d33c ce5b 8cbd bc8a 073d
000002c0: bbd4 9f3c f9d1 95bc 2c07 2abb c21f 6bbd
000002d0: f029 51bb 41c5 ffbc 11dd 46bd b8d7 f83b
000002e0: 7676 8dbd 4b41 2bbc ddb3 9dbd eb22 c1bd
000002f0: f921 86bd 1e80 aabd 18e1 2cbd ccc0 0e3e
00000300: e909 97bd 1710 963d e5cc 3abd df7a 0fbc
00000310: 3cc7 593d 35c1 e5bc d577 e43a 6710 213b
00000320: 8339 e5bd d1ea 133e 05e9 d53c 0077 5bbd
00000330: 742c 033e 50ec 533d 0de3 d2bc af4b 46bc
00000340: ac8c 2fbd dac4 ec3d e652 cabd dbb4 733d
00000350: 31f8 cdbd b1b9 5c3a 5165 183b 920a 8ebd
00000360: 14de 2e3d 7ca8 c63c 0061 47bc bd74 fdbc
00000370: a345 e23d c978 843d 9e49 b73d ebaf 223d
00000380: 097c 783d 0fc5 2bbe 7e6f ae3d 7415 b33d
00000390: f97c b53c 151e 293d f625 1ebe a6f9 dcbd
000003a0: 6238 563d f0b7 eebc 106c 8abd 718d 423d
000003b0: 83ae 903d 5244 763b 027c 08bd 4544 efbd
000003c0: 05ca 843d 765f 5ebd b0d7 32bc 7e07 4cbd
000003d0: 0e38 c33c 456f cbbd da7e 9f3d 11a0 513c
000003e0: 6b6a 7c3d e463 033d d34d 983d 75c3 1f3d
000003f0: d38b 053d 02eb 8abc 0748 29bd ddf7 56ba
