Assets/Training/results/track4_learned/config_track4/config_track4-1499960.onnx (onnx, 601409 bytes, 9 tensors)

action_model._continuous_distribution.log_sigma f4 [1, 2]
-0.17823985 -0.54061997
00000000: 8284 36be 1266 0abf

action_model._continuous_distribution.mu.bias f4 [2]
0.015317861 -0.0012155666
00000000: c4f7 7a3c a653 9fba

action_model._continuous_distribution.mu.weight f4 [2, 256]
-0.07092793 -0.03182629 -0.0365591 -0.013619732 -0.024293372 -0.0323485 0.008994508 0.010595757
-0.0072802617 -0.0012045504 -0.051435646 -0.0028697876 -0.028107226 -0.014642537 0.0025048496 0.0014809305
-0.06470521 -0.014419595 -0.039082818 -0.0023212032 -0.01083117 0.0061879135 -0.0025767672 0.0045845243
-0.06341252 -0.054570172 -0.0100404555 0.0074225757 0.01321915 0.01674665 -0.023352597 -0.0002942666
0.009650508 0.022542374 -0.007361067 -0.04663724 0.019584036 -0.045596343 0.0033367556 -0.04839643
-0.04264468 -0.05306725 -0.004089302 0.002427836 -0.04700677 -0.017405381 -0.0053732805 -0.02940665
-0.02247763 0.005270641 0.013814858 -0.0010979847 -0.06181074 0.0068211495 -0.0053958064 0.0117484415
0.0015020864 -0.048713136 0.004980441 0.014453445 0.030035025 -0.001237985 -0.0011241258 -0.03895033
-0.0032018118 -0.02306646 -0.051359598 0.014394558 -0.0015728647 -0.03669853 0.030695649 -0.011711849
-0.052422337 -0.039623793 -0.07293721 -0.053829394 0.008965727 -0.051233497 0.0142227905 0.008407338
-0.065068096 -0.061323512 -0.041662 -0.021626053 -0.0437204 -0.025223088 -0.053141017 0.012257281
-0.014272669 0.01742648 -0.0068379743 -0.017253082 0.005019078 -0.046998173 -0.008037924 0.0140058985
0.03358545 -0.044844 0.0055375895 -0.056323875 -0.009175358 0.016527766 -0.009021639 -0.00891233
-0.041414745 -0.026409756 -0.011263227 -0.008082907 -0.0158182 -0.043020945 -0.0015202507 -0.008903355
-0.035375368 -0.050297655 -0.014975798 0.0060296413 -0.013497153 -0.030561086 -0.007031093 -0.028826097
-0.044360653 0.05298083 0.005491583 -0.04679073 0.007280447 -0.010314142 -0.06316753 0.010042483
-0.045435928 -0.0005004868 0.0079883775 -0.04353754 0.03369055 -0.00879311 -0.011907018 -0.0017867341
-0.05144013 0.014299465 -0.012204845 -0.0413435 0.028503435 -0.00042322985 -0.010251152 0.019874962
0.019369537 -0.03290656 -0.0068676625 -0.067586005 -0.032856766 -0.012458843 0.0098366635 -0.010193435
-0.054527085 -0.011930842 -0.055830315 -0.005605478 -0.0049256757 -0.044557612 -0.001598403 0.011254994
-0.042269956 0.00092441123 0.0060052983 0.007400042 0.01059852 -0.005617568 -0.0027910578 -0.003110796
0.0061367312 0.008357801 0.02525889 -0.00063238153 -0.004642193 -0.0071736895 -0.012082633 -0.03952669
-0.04470379 -0.03910083 -0.0006937106 0.0063162562 -0.04950463 -0.049361844 -0.039979894 0.0029927704
0.04409908 -0.009786869 -0.048897948 0.00402663 0.013740544 -0.010332217 0.0052399803 0.018506601
-0.006230467 -0.017508542 0.003483549 -0.043780953 -0.041467942 0.010273753 0.01557396 -0.04093922
0.011878592 -0.02901281 0.007583031 0.0055305664 -0.048134234 -0.05438971 -0.0009976467 0.017262047
-0.05514573 0.011947355 -0.0068233493 -0.03670704 0.012468975 -0.035602447 -0.04651745 -0.05507438
-0.06128403 0.0045374637 0.0029489477 -0.023309473 0.0068129925 -0.0078082993 -0.0026170418 -0.013201592
0.00065144605 -0.0405664 -0.032014403 0.02449173 -0.0003387803 0.022777818 -0.021082781 -0.018778777
-0.029434295 -0.009682613 -0.019078549 -0.012940403 -0.05832619 0.011990061 -0.035266634 0.006121767
-0.00031949385 -0.011166331 -0.04576275 -0.042326175 0.02277009 -0.0043111686 -0.012760802 0.0053065177
0.018545954 -0.042400483 -0.007829641 -0.044499595 -0.034425355 0.018283214 -0.028800147 -0.034356404
00000000: aa42 91bd 495c 02bd ffbe 15bd 4c25 5fbc
00000010: e502 c7bc dc7f 04bd b35d 133c d399 2d3c
00000020: 438f eebb 01e2 9dba 2fae 52bd 0c13 3cbb
00000030: 2041 e6bc 40e7 6fbc 6728 243b c81b c23a
00000040: 2a84 84bd 2a40 6cbc 4e15 20bd 541f 18bb
00000050: 3875 31bc fbc3 ca3b fbde 28bb c739 963b
00000060: 6cde 81bd f984 5fbd b980 24bc 1439 f33b
00000070: 2295 583c 4530 893c f24d bfbc cb47 9ab9
00000080: 2a1d 1e3c c9aa b83c 1b35 f1bb b106 3fbd
00000090: b36e a03c 3bc3 3abd 78ad 5a3b 563b 46bd
000000a0: 30ac 2ebd 0b5d 59bd 8dff 85bb 541c 1f3b
000000b0: 2c8a 40bd bb95 8ebc 5812 b0bb 37e6 f0bc
000000c0: 0223 b8bc 57b5 ac3b b757 623c 41ea 8fba
000000d0: 422d 7dbd f383 df3b 4ecf b0bb 897c 403c
000000e0: a8e1 c43a 6d87 47bd f832 a33b 24ce 6c3c
000000f0: 030c f63c e243 a2ba 6757 93ba 628a 1fbd
00000100: 7dd5 51bb dff5 bcbc 715e 52bd 27d7 6b3c
00000110: 9528 ceba 3351 16bd 7175 fb3c 0ee3 3fbc
00000120: ceb8 56bd 8f4c 22bd 1b60 95bd 367c 5cbd
00000130: fce4 123c 37da 51bd b506 693c eebe 093c
00000140: 6c42 85bd 5d2e 7bbd c6a5 2abd 1f29 b1bc
00000150: 2a14 33bd a6a0 cebc 65aa 59bd c3d2 483c
00000160: ead7 69bc fac1 8e3c 1611 e0bb 5656 8dbc
00000170: 1477 a43b 2881 40bd 7fb1 03bc ff78 653c
00000180: e690 093d 58ae 37bd ab74 b53b ddb3 66bd
00000190: 3e54 16bc 3d65 873c 7fcf 13bc 0505 12bc
000001a0: 82a2 29bd 4659 d8bc 6689 38bc 2b6e 04bc
000001b0: 2b95 81bc bb36 30bd 2643 c7ba 61df 11bc
000001c0: c3e5 10bd ea04 4ebd 0d5d 75bc 4c94 c53b
000001d0: 2a23 5dbc 3e5b fabc 1565 e6bb b524 ecbc
000001e0: 84b3 35bd 6d02 593d bdf2 b33b a3a7 3fbd
000001f0: d190 ee3b a6fc 28bc fa5d 81bd 3a89 243c
00000200: 061b 3abd 1a33 03ba afe1 023c 6b54 32bd
00000210: 1aff 093d fa10 10bc a715 43bc d930 eaba
00000220: e3b2 52bd 4e48 6a3c d5f6 47bc cd57 29bd
00000230: 0980 e93c f3e4 ddb9 73f4 27bc d1d0 a23c
00000240: ddac 9e3c 07c9 06bd 210a e1bb 886a 8abd
00000250: d194 06bd 2d20 4cbc f529 213c 5d02 27bc
00000260: cb57 5fbd 9479 43bc 54ae 64bd 28ae b7bb
00000270: 9067 a1bb 0b82 36bd 8181 d1ba de66 383c
00000280: 4323 2dbd 3054 723a 18c8 c43b 0d7c f23b
00000290: 6aa5 2d3c 9313 b8bb 2eea 36bb 7fde 4bbb
000002a0: a216 c93b 28ef 083c bbeb ce3c 68c6 25ba
000002b0: 8a1d 98bb 4511 ebbb 3cf6 45bc bde6 21bd
000002c0: 521b 37bd 3128 20bd 21da 35ba 99f8 ce3b
000002d0: 5ec5 4abd a52f 4abd f5c1 23bd 5b22 443b
000002e0: 3da1 343d 1b59 20bc 3749 48bd d2f1 833b
000002f0: 0520 613c 7648 29bc 24b4 ab3b 289b 973c
00000300: f228 ccbb 136e 8fbc 414c 643b a853 33bd
00000310: 4ada 29bd 3e53 283c ec29 7f3c e2af 27bd
00000320: 6d9e 423c 46ac edbc 137b f83b c139 b53b
00000330: 6728 45bd bfc7 5ebd 78c3 82ba 2369 8d3c
00000340: 7de0 61bd d7be 433c 6796 dfbb 1f5a 16bd
00000350: ac4a 4c3c dfd3 11bd 1589 3ebd ac95 61bd
00000360: f704 7bbd 01af 943b 2243 413b 82f3 bebc
00000370: 863f df3b c3dc ffbb ad82 2bbb 7d4b 58bc
00000380: cec5 2a3a f428 26bd 8921 03bd e1a2 c83c
00000390: 529e b1b9 8c98 ba3c ccb5 acbc f3d5 99bc
000003a0: 3120 f1bc d3a3 1ebc 9e4a 9cbc fc03 54bc
000003b0: 71e7 6ebd f671 443c bf73 10bd 1b99 c83b
000003c0: bd81 a7b9 fdf2 36bc b971 3bbd 365e 2dbd
000003d0: 5788 ba3c b444 8dbb af12 51bc 4ce2 ad3b
000003e0: afed 973c 21ac 2dbd e547 00bc 3545 36bd
000003f0: 9a01 0dbd aec6 953c 49ee ebbc 4db9 0cbd

network_body._body_endoder.seq_layers.0.bias f4 [256]
0.022114433 -0.006139036 -0.011753108 0.0024672481 -0.00309768 -0.001025224 -0.014307713 0.003078295
-0.0050197346 -0.012295098 0.033368114 -0.013018201 -0.007971981 -0.017655892 0.0070663486 0.0072297775
0.004681175 0.0021083176 0.016812366 0.0076778247 0.0117226485 0.010777568 -0.0053376667 0.006980142
0.0027285474 -0.011973754 0.002339518 -0.0055928887 0.043478318 -0.011759749 0.00859074 -0.0025369655
0.006527063 0.009803343 0.016580492 0.0038750065 -0.005965541 0.026091559 -0.00731329 0.0102611575
-0.0030884126 -0.0018180957 -0.007913819 0.0011703533 0.002744511 0.023787046 0.004010423 0.007342607
-0.001384611 0.06668803 -0.0035405168 -8.1619066e-05 -0.007960392 0.012013584 0.003490104 0.001710462
-0.005124477 -0.013150425 -0.012593465 0.0048646866 -0.009045655 0.0058944346 -0.0012921402 -0.0065660803
0.027680904 -0.0072605256 -0.008104737 -0.014268493 -0.017730664 -0.01234972 -0.00796306 0.06488909
0.015500159 0.016456034 0.0022336445 -0.014299656 0.0060401447 -0.013482597 0.0036432284 0.020950077
-0.010032775 -0.004689319 -0.003996444 -0.0043671615 0.0017021403 -0.012100102 0.0027882345 -0.0045403447
-0.0020715385 0.023734717 0.0052016024 0.0032915743 0.0002723099 0.0068797553 0.046060707 -0.0020685354
0.010921805 0.004888207 0.012196146 -0.009758289 -0.007595264 -0.005988069 0.013815987 0.011055768
-0.0019604752 0.00070569856 -0.0015868031 0.017524853 -0.002625996 0.02134088 0.0136231845 0.01485892
0.008461577 -0.00065574254 0.014934377 0.012288661 0.033290863 -0.0032949913 0.043827426 0.008903582
-0.018491494 -0.005910069 -0.013392058 -0.009698512 -0.010863806 0.010946367 -0.0058068344 -0.0034685691
0.005713332 -0.006744335 -0.017741486 0.026523087 -0.008046046 0.004845733 -0.00427179 0.0017583203
0.016475286 -0.0037818966 0.0074829906 -0.013339983 -0.009131527 0.0014343277 -0.009694017 0.0036233363
7.440089e-05 -0.011152653 -0.017806903 -0.008438204 -0.017611044 0.017645432 0.013720903 0.013824291
-0.00076918723 -0.00344249 -0.01958409 0.008160011 -0.01658268 -0.004440692 -0.0019358115 0.011375171
0.04417622 -0.01962877 0.0014369941 -0.011524285 -0.010971818 0.000336537 -0.0010253468 -0.0045978227
-0.0049039577 -0.0032668142 0.0020857141 0.005306187 0.0050522476 0.00060846837 -0.00084588944 -0.007599935
-0.0041980143 0.0038771546 0.04169265 -0.00016281215 0.016505448 -0.0086469315 -0.01243691 -0.0039420337
-0.0041626794 0.0031907682 -0.0063487273 -0.0024526347 -0.0018338664 -0.00051402434 -0.0026744495 -0.0009598135
-0.005653951 0.021992858 0.016243657 0.02411066 -0.0022058843 -0.008201462 -0.00082118 0.022376258
0.022717524 -0.0020262238 -0.0070502954 0.026180312 -0.0016559672 0.0019718583 -0.008797763 0.009461574
-0.0016291178 -0.015740063 -0.007886723 0.03823935 -0.0026311802 -0.003441632 -0.0041862587 0.003929168
-0.017977033 -0.0013121055 -0.012126747 0.004592309 0.0012785277 0.00052525324 -0.0011663344 -0.024622204
0.0002127782 -0.014557679 -0.0011018183 -0.012719201 0.011493751 0.033496432 0.0014713045 0.0021795153
-0.005421343 -0.0015898781 -0.018996598 -0.027414693 -0.004842255 -0.0029579876 -0.01736174 -0.00883106
-0.020056628 0.02933457 0.0018296817 -0.0058218096 0.012775002 0.034093503 -0.003989605 0.01453799
0.008111054 0.0018712829 0.0040952107 0.014104847 0.0062941317 -0.026876684 0.0039520864 -0.033664137
00000000: 5429 b53c f729 c9bb 1c90 40bc 8eb1 213b
00000010: 7202 4bbb cf60 86ba e66a 6abc 38bd 493b
00000020: 967c a4bb 6171 49bc 01ad 083d 4b4a 55bc
00000030: e99c 02bc 17a3 90bc d48c e73b c5e7 ec3b
00000040: 8b64 993b b32b 0a3b 16ba 893c 4396 fb3b
00000050: 5a10 403c 6694 303c 98e7 aebb adb9 e43b
00000060: 6ed1 323b 902d 44bc 9952 193b 8d44 b7bb
00000070: 5216 323d f6ab 40bc 2dc0 0c3c 3843 26bb
00000080: f9e0 d53b 339e 203c d0d3 873c d2f3 7d3b
00000090: 967a c3bb f7bd d53c 53a4 efbb 6a1e 283c
000000a0: f766 4abb 2b4d eeba f6a8 01bc 8a66 993a
000000b0: 41dd 333b 0ddd c23c de69 833b 409a f03b
000000c0: d67b b5ba bc93 883d 0408 68bb e72a abb8
000000d0: 4e6c 02bc a0d4 443c 3bba 643b 9531 e03a
000000e0: 3beb a7bb e174 57bc d254 4ebc f367 9f3b
000000f0: 3a34 14bc 1a26 c13b 085d a9ba 4628 d7bb
00000100: 10c3 e23c b4e9 edbb bbc9 04bc 66c6 69bc
00000110: e63f 91bc 7b56 4abc 7f77 02bc 92e4 843d
00000120: 61f4 7d3c cece 863c 5662 123b 1b49 6abc
00000130: 68ec c53b 1ce6 5cbc 3bc3 6e3b 7f9f ab3c
00000140: 8260 24bc dca8 99bb 9af4 82bb 681a 8fbb
00000150: 5a1a df3a 823f 46bc d0ba 363b 2cc7 94bb
00000160: a6c2 07bb 4f6f c23c 3472 aa3b 74b7 573b
00000170: d1c4 8e39 926f e13b 27aa 3c3d 4490 07bb
00000180: 5ff1 323c 412d a03b 58d2 473c 3be1 1fbc
00000190: b1e1 f8bb 9037 c4bb 735c 623c 4023 353c
000001a0: 517b 00bb a1fe 383a 47fc cfba 4890 8f3c
000001b0: e718 2cbb 12d3 ae3c c733 5f3c d472 733c
000001c0: 6da2 0a3c 23e6 2bba 51af 743c 6156 493c
000001d0: 005c 083d c8f0 57bb 6384 333d 54e0 113c
000001e0: 797b 97bc 41a9 c1bb 5d6a 5bbc 82e6 1ebc
000001f0: 1bfe 31bc 6458 333c 4247 bebb ef50 63bb
00000200: e736 bb3b 95ff dcbb 9856 91bc f246 d93c
00000210: 90d3 03bc f4c8 9e3b 5ffa 8bbb 7077 e63a
00000220: 2ef7 863c b2d9 77bb e033 f53b f28f 5abc
00000230: 669c 15bc 0d00 bc3a a7d3 1ebc 7f75 6d3b
00000240: ac07 9c38 9eb9 36bc c8df 91bc 6540 0abc
00000250: 0945 90bc 278d 903c a3cd 603c 477f 623c
00000260: 48a3 49ba 669b 61bb d06e a0bc 91b1 053c
00000270: 67d8 87bc 3983 91bb 0ebb fdba ed5e 3a3c
00000280: 20f2 343d 84cc a0bc 8559 bc3a 5bd0 3cbc
00000290: 24c3 33bc 3b71 b039 ee64 86ba 55a9 96bb
000002a0: 61b1 a0bb 0c18 56bb 7ab0 083b 86df ad3b
000002b0: 538d a53b 9f81 1f3a aebe 5dba e008 f9bb
000002c0: 7f8f 89bb dc17 7e3b eac5 2a3d 8eb8 2ab9
000002d0: 6f36 873c dcab 0dbc 2ec4 4bbc 2d2c 81bb
000002e0: 1667 88bb 351c 513b fc08 d0bb 62bc 20bb
000002f0: 585e f0ba 97bf 06ba d145 2fbb fe9b 7bba
00000300: c744 b9bb 5e2a b43c 6b11 853c b883 c53c
00000310: 9990 10bb 6d5f 06bc 7544 57ba 6a4e b73c
00000320: 1a1a ba3c 65ca 04bb 2a06 e7bb 1878 d63c
00000330: 0a0d d9ba 4b3a 013b 7e24 10bc b804 1b3c
00000340: 1f88 d5ba 4ef1 80bc 5037 01bc dda0 1c3d
00000350: e16f 2cbb 018d 61bb e22c 89bb 40c0 803b
00000360: 9244 93bc f4fa abba 43af 46bc 147b 963b
00000370: 4594 a73a 26b1 093a b0df 98ba 81b4 c9bc
00000380: 371d 5f39 5583 6ebc e36a 90ba 3264 50bc
00000390: 4950 3c3c 8e33 093d c9d8 c03a 33d6 0e3b
000003a0: 85a5 b1bb 7563 d0ba c19e 9bbc c794 e0bc
000003b0: c7ab 9ebb ccda 41bb 353a 8ebc 26b0 10bc
000003c0: cc4d a4bc 0d4f f03c eed1 ef3a e1c4 bebb
000003d0: 3e4e 513c a1a5 0b3d 3bbb 82bb c030 6e3c
000003e0: 3ae4 043c d645 f53a 1e31 863b 0418 673c
000003f0: 013f ce3b 7e2c dcbc 8180 813b 68e3 09bd

network_body._body_endoder.seq_layers.0.weight f4 [256, 68]
-0.072049186 0.11062499 0.06420775 -0.022866208 0.22295552 -0.047525447 -0.08941743 -0.03463205
0.0495082 0.23595428 -0.048883237 -0.123686165 0.11700166 0.025843954 -0.29664358 0.13906865
-0.009087069 0.1966678 -0.0025667117 -0.046337545 -0.07285768 -0.1417163 0.026987748 -0.058327246
0.01162155 -0.25265363 0.067744896 -0.035823435 0.2565597 0.15884645 -0.04113669 -0.13409843
0.1712362 -0.05596285 -0.17808141 0.013379557 -0.22637506 -0.030376444 0.16994378 0.040832862
0.06713653 -0.0030943803 0.034200758 -0.049716476 0.3470945 0.12124387 -0.07426317 -0.045514107
-0.0630371 0.13561404 -0.021420436 0.050416507 -0.021630863 0.026499566 -0.04272127 -0.023612449
0.18666135 0.16649088 -0.06501846 0.27969074 -0.11301118 0.08351556 0.15066959 0.10382026
-0.053431977 0.038932502 0.1377723 0.21714458 -0.004041728 -0.028199764 -0.0736833 0.03204025
-0.0692356 0.18707407 0.30781904 0.05028524 -0.19694792 0.406836 0.08794488 -0.15488851
0.18305092 0.06024484 -0.26748145 -0.0034255648 0.13653426 0.051364116 0.007895355 -0.085788265
0.07562448 0.048449483 -0.06416069 -0.017998533 -0.017161338 -0.016084712 -0.14630955 -0.10978404
0.15981336 -0.18269412 -0.09472727 0.07239272 -0.09361882 0.14926857 -0.028794426 -0.08425181
-0.027109014 0.058358323 0.01899574 0.042288978 -0.06492845 0.20371622 -0.01469082 0.0002092004
0.034348678 0.023698755 -0.18027698 -0.040469166 -0.092755035 -0.12853356 -0.17475377 -0.17853679
-0.18930346 0.18070795 0.09469486 0.2723578 -0.02213531 -0.12156811 -0.16432141 -0.12830018
0.02332236 0.026038174 0.013776142 -0.052275877 0.06963067 -0.06657623 0.09862067 -0.088415116
-0.071277425 -0.1424712 -0.29342484 -0.11491231 0.14603762 -0.07742519 0.029888988 0.10798017
-0.0852661 -0.11537601 -0.19378836 0.20743962 0.04093066 -0.05531953 -0.1005023 0.04225984
0.04567124 0.012918973 -0.07416796 0.07517982 -0.21508679 -0.07774144 0.30922678 -0.19382216
0.03338376 -0.018199945 0.018669616 -0.16725099 0.154192 -0.012964503 -0.21419902 0.053366914
0.23168032 0.014021004 -0.0015990254 -0.15880421 0.038071707 -0.087003835 -0.10712541 -0.14448564
-0.2390627 0.1147615 0.0545156 0.22368586 -0.08762134 0.14048353 -0.14042561 -0.1111475
-0.04822105 0.053968392 -0.0865955 -0.090224944 0.018714156 0.101619385 -0.04558343 0.07336181
-0.078454494 -0.10641743 -0.17291154 -0.19628064 -0.09747623 -0.022169711 0.19407248 -0.038187593
0.18255942 0.20845391 0.026207455 0.07148356 -0.0020877696 0.0051589403 -0.08796415 0.18641098
-0.10220886 -0.041983493 -0.08666996 0.053685945 0.06297098 0.019472113 -0.16689469 0.06716626
-0.017186768 0.08221206 -0.052288864 -0.15892045 -0.22916487 0.06548996 -0.12825952 -0.068425626
-0.14760494 0.02080032 0.11507919 0.019857824 0.043004405 -0.20009209 0.15461521 -0.08436703
0.012413171 -0.13426608 0.15015188 0.022348417 0.009182172 -0.21018279 0.17535429 -0.15112978
-0.06756473 0.13623087 -0.039275844 -0.028752724 -0.14605673 0.17441027 -0.078757815 0.1056334
-0.08065112 -0.09566112 -0.033262927 0.0031837933 -0.08615298 -0.12752566 -0.26824123 -0.15562737
00000000: 868e 93bd 5b8f e23d 5a7f 833d ea51 bbbc
00000010: 744e 643e 0baa 42bd 7c20 b7bd 56da 0dbd
00000020: 1cc9 4a3d 009e 713e ca39 48bd 2c4f fdbd
00000030: 919e ef3d b3b6 d33c abe1 97be 0368 0e3e
00000040: eee1 14bc 4963 493e 4736 28bb 70cc 3dbd
00000050: 6836 95bd 141e 11be 6915 dd3c 8de8 6ebd
00000060: 5068 3e3c d15b 81be d6bd 8a3d 98bb 12bd
00000070: cb5b 833e a5a8 223e f27e 28bd 1951 09be
00000080: 8b58 2f3e 4d39 65bd f95a 36be ee35 5b3c
00000090: ddce 67be 05d8 f8bc be05 2e3e 5c40 273d
000000a0: e17e 893d 16cb 4abb 1816 0c3d 81a3 4bbd
000000b0: 5fb6 b13e b54e f83d 4a17 98bd 006d 3abd
000000c0: 9819 81bd 68de 0a3e e979 afbc 8a81 4e3d
000000d0: 3533 b1bc 9e15 d93c 80fc 2ebd e56e c1bc
000000e0: 2724 3f3e 967c 2a3e 6628 85bd a033 8f3e
000000f0: 6872 e7bd 350a ab3d 2149 1a3e b79f d43d
00000100: 7ddb 5abd b077 1f3d 2f14 0d3e 265b 5e3e
00000110: 7970 84bb 3103 e7bc 45e7 96bd a33c 033d
00000120: 65cb 8dbd 5890 3f3e 759a 9d3e e5f7 4d3d
00000130: b7ac 49be cf4c d03e 721c b43d 189b 1ebe
00000140: b371 3b3e 4bc3 763d 54f3 88be 717f 60bb
00000150: a3cf 0b3e 2e63 523d 855b 013c c2b1 afbd
00000160: 02e1 9a3d f772 463d ae66 83bd a971 93bc
00000170: ef95 8cbc 16c4 83bc 2cd2 15be 74d6 e0bd
00000180: 1da6 233e 2b14 3bbe 5f00 c2bd a242 943d
00000190: 39bb bfbd dcd9 183e 4ae2 ebbc 378c acbd
000001a0: b913 debc 2309 6f3d f49c 9b3c 3537 2d3d
000001b0: 35f9 84bd fc9a 503e c4b1 70bc ce5c 5b39
000001c0: 33b1 0c3d e423 c23c 879a 38be ffc2 25bd
000001d0: 5af6 bdbd 4d9e 03be a7f2 32be 59d2 36be
000001e0: c4d8 41be 810b 393e 61ef c13d 7b72 8b3e
000001f0: 1c55 b5bc b4f8 f8bd df43 28be 1f61 03be
00000200: 890e bf3c 024e d53c 54b5 613c 3b1f 56bd
00000210: 869a 8e3d 1e59 88bd a2f9 c93d fc12 b5bd
00000220: e6f9 91bd f8e3 11be c83b 96be 2557 ebbd
00000230: e38a 153e 1991 9ebd c0d9 f43c b524 dd3d
00000240: fe9f aebd 424a ecbd 7570 46be 0d6b 543e
00000250: e8a6 273d bb96 62bd 26d4 cdbd a718 2d3d
00000260: c411 3b3d 1aaa 533c 5fe5 97bd e1f7 993d
00000270: b63f 5cbe e736 9fbd f952 9e3e 5179 46be
00000280: 69bd 083d 0d18 95bc 06f1 983c d843 2bbe
00000290: 82e4 1d3e 1169 54bc fd56 5bbe 4497 5a3d
000002a0: 9b3d 6d3e 5ab8 653c 6496 d1ba 929d 22be
000002b0: 14f1 1b3d 112f b2bd 9164 dbbd 0bf4 13be
000002c0: dacc 74be 1408 eb3d c04b 5f3d e80d 653e
000002d0: d172 b3bd eada 0f3e bbcb 0fbe 4da1 e3bd
000002e0: 7083 45bd f60d 5d3d fb58 b1bd dbc7 b8bd
000002f0: 6e4e 993c d31d d03d b1b5 3abd b73e 963d
00000300: c0ac a0bd 62f1 d9bd b90f 31be cbfd 48be
00000310: 9ea1 c7bd 419d b5bc f0ba 463e 986a 1cbd
00000320: dbf0 3a3e f174 553e 04b1 d63c f965 923d
00000330: f6d2 08bb 540c a93b 8c26 b4bd 85e2 3e3e
00000340: e152 d1bd e2f6 2bbd 0580 b1bd cbe5 5b3d
00000350: eef6 803d fb83 9f3c 71e6 2abe 778e 893d
00000360: 44cb 8cbc cc5e a83d d92c 56bd 0bbc 22be
00000370: 32aa 6abe 9a1f 863d 7756 03be bc22 8cbd
00000380: c025 17be 6f65 aa3c a3ae eb3d e0ac a23c
00000390: 6325 303d f1e4 4cbe 7353 1e3e 9fc8 acbd
000003a0: 9d60 4b3c 0c7d 09be 6ac1 193e 0714 b73c
000003b0: d270 163c 283a 57be 1390 333e c4c1 1abe
000003c0: 615f 8abd 1b80 0b3e b5df 20bd d58a ebbc
000003d0: e58f 15be 9b98 323e c74b a1bd 5356 d83d
000003e0: 6a2c a5bd fae9 c3bd b53e 08bd 30a7 503b
000003f0: f970 b0bd 1696 02be ea56 89be c85c 1fbe

network_body._body_endoder.seq_layers.2.bias f4 [256]
-0.006568301 0.0052491766 -0.011673168 0.018471127 0.00089076586 -0.0050963033 -0.009457384 -0.0027804852
0.0012930006 0.005202576 0.0015691034 0.013794341 -0.0054674153 -0.012954383 -0.0020776764 -0.0057544643
0.008039622 -0.008997491 -0.0114693595 0.0065166266 0.008627706 -0.008929385 0.009328905 0.0009894656
-0.006583437 0.015059431 -0.010057033 0.015765565 0.0174609 -0.0043422603 -0.0068957335 0.0072012334
-0.00974638 -0.015084369 0.0043099434 0.010875893 0.027406903 -0.0066267666 -0.012703629 -0.003648589
0.0049248138 -0.0047681704 0.0016788566 0.010732612 0.024708217 -0.0022992638 -0.0031754808 0.041381422
-0.011410498 -0.002047643 -0.008617136 0.020416718 -0.0046024043 -0.007623325 0.0025119553 0.006727316
-0.004213365 -0.004923233 -0.00330677 0.00087171467 -9.4797215e-05 0.0074035306 -0.0036944256 0.0026457063
0.0029374717 -0.009407526 -0.0046530557 -0.014014371 -0.0035764275 0.00862275 -0.0010302424 0.020409409
0.004531178 0.0063022133 -0.024828209 0.002936436 -0.008647196 -0.0018667794 0.0017774611 -0.00084942434
-0.006194061 0.0007071131 -4.5377335e-05 0.009851658 0.0022771624 9.2015674e-05 -0.029706428 -0.0018049775
0.01601751 0.0070788064 0.003918746 0.007934536 0.0026507513 0.008756775 -0.005337067 -0.0045065437
0.0035500918 -0.009928917 0.014817146 -0.007670745 -0.00853626 -0.02300386 -0.011229436 0.018978314
-0.0015609217 0.00087662926 0.013788123 -0.0113469735 -0.006700664 0.0023177555 0.011201778 0.0034660061
-0.00034883988 0.014933695 -0.0063836034 -0.006750577 0.018563205 0.0051832027 0.004920959 0.0048949895
-0.0020153797 0.0014272119 0.0010237733 0.009739191 0.01669 0.0013508156 0.0033569501 -0.00073886
-0.00026763257 -0.0021451057 -0.007908257 -0.00093559397 0.0031671019 -0.0018927007 0.0011587816 0.0038304585
0.0015085354 -0.016449483 0.007166536 -0.011517066 0.024163133 0.005815869 0.0013637616 -0.00051901373
-0.007898727 -0.0023664392 -0.0014387238 0.0064368914 -0.003919709 -0.016548814 -0.0043230965 0.0105420835
0.019571723 -0.007643289 0.011107342 0.008914227 -0.0011489356 -0.0011412258 0.009726701 -0.0048469584
0.0017848338 -0.0023079014 -0.0006096085 -0.0023818724 0.0046744067 0.008807367 0.02268094 0.019564243
-0.008079664 0.008021764 -0.017031608 0.0018299653 -0.0076263146 -0.0122343255 0.015287972 -0.00054122804
-0.0036393527 0.013266088 -0.011573489 0.00020263321 0.0032203407 -0.0017853273 -0.011640575 -0.0047200373
-0.0060288417 -0.0013149052 -0.0045124725 0.003988606 -0.015989637 -0.0036138021 0.010419917 8.645949e-05
-0.011300391 0.005772283 0.017668644 0.0075709946 -0.013991747 0.0153529905 -0.019773925 -0.007357306
0.0024609456 0.01213181 0.0043414473 0.002787294 0.007349897 0.00083841605 -0.009212734 -0.0137196155
0.017690202 0.0012972396 -0.013533619 0.002893862 -0.0006131834 0.005244655 -0.013391511 0.011754343
0.0029864842 0.011124336 -2.9525469e-05 -0.0017101605 0.0052825105 0.005860071 -0.013125196 0.014694911
-0.0070247073 0.0078688245 -0.019046335 0.012633835 -0.013322542 -0.006996291 0.0076705897 -0.0021007177
-0.0099270735 0.0041876207 -0.008325724 -0.003620914 -0.00688423 -0.00076687103 -0.010297267 -0.0015725476
-0.0025146552 -0.0029076706 -0.02472899 -0.003911618 0.012237219 0.0046357997 -0.0034876172 0.004917308
-0.0012994596 -0.0033154034 0.0050224634 -0.0042683356 -0.00352226 -0.014569487 0.010280024 0.002758454
00000000: e73a d7bb 4901 ac3b d140 3fbc c350 973c
00000010: 4982 693a e4fe a6bb 25f3 1abc cd38 36bb
00000020: e779 a93a 5f7a aa3b 60aa cd3a a901 623c
00000030: 0128 b3bb 9f3e 54bc a029 08bb f28f bcbb
00000040: 9eb8 033c 366a 13bc fbe9 3bbc 6d89 d53b
00000050: 395b 0d3c 8e4c 12bc 43d8 183c f5b0 813a
00000060: dfb9 d7bb d5bb 763c 41c6 24bc c926 813c
00000070: 290a 8f3c 8549 8ebb 9bf5 e1bb 53f8 eb3b
00000080: 48af 1fbc 6e24 77bc 6d3a 8d3b cd30 323c
00000090: 7184 e03c 5925 d9bb e222 50bc 2a1d 6fbb
000000a0: 5560 a13b 503e 9cbb 140d dc3a d6d7 2f3c
000000b0: e368 ca3c 3faf 16bb ba1b 50bb 917f 293d
000000c0: 19f3 3abc c031 06bb e32e 0dbc f640 a73c
000000d0: c4cf 96bb 16cd f9bb 9e9f 243b d170 dc3b
000000e0: 4410 8abb 1253 a1bb 65b6 58bb c883 643a
000000f0: decd c6b8 5199 f23b 2d1e 72bb 9663 2d3b
00000100: 9982 403b 0622 1abc a978 98bb 889c 65bc
00000110: 7f62 6abb 6f46 0d3c 3309 87ba a231 a73c
00000120: 477a 943b cc82 ce3b 8764 cbbc 3971 403b
00000130: f8ac 0dbc b9ae f4ba b3f9 e83a e7ab 5eba
00000140: 8df7 cabb 8f5d 393a 8b53 3eb8 d968 213c
00000150: 723c 153b 8af8 c038 e55a f3bc ff94 ecba
00000160: 2737 833c 55f5 e73b d368 803b dbff 013c
00000170: 3ab8 2d3b 9478 0f3c 90e2 aebb a1ab 93bb
00000180: a8a8 683b e5ac 22bc 9dc3 723c df5a fbbb
00000190: abdb 0bbc 9772 bcbc abfb 37bc 6978 9b3c
000001a0: d797 ccba 98cd 653a 94e7 613c a8e8 39bc
000001b0: 3e91 dbbb 7ce5 173b aa87 373c ef25 633b
000001c0: 7fe4 b6b9 75ac 743c 8c2d d1bb f233 ddbb
000001d0: dd11 983c dbd7 a93b ff3f a13b 2666 a03b
000001e0: 7614 04bb 4911 bb3a 2230 863a 2191 1f3c
000001f0: 78b9 883c da0d b13a 4700 5c3b 0eb0 41ba
00000200: 0951 8cb9 e794 0cbb a291 01bc a642 75ba
00000210: 278f 4f3b 7f14 f8ba 42e2 973a 6e08 7b3b
00000220: 0cba c53a 11c1 86bc 43d5 ea3b 13b2 3cbc
00000230: c3f1 c53c 0c93 be3b 3fc0 b23a 6c0e 08ba
00000240: aa69 01bc 4316 1bbb 8f93 bcba 8fec d23b
00000250: e770 80bb 6191 87bc c3a8 8dbb b4b8 2c3c
00000260: e154 a03c 8e74 fabb 92fb 353c fa0c 123c
00000270: e297 96ba 2f95 95ba be5c 1f3c 3cd3 9ebb
00000280: 16f1 e93a 2940 17bb 22ce 1fba 3019 1cbb
00000290: c42b 993b c64c 103c 61cd b93c 3145 a03c
000002a0: 9160 04bc b86d 033c df85 8bbc 72db ef3a
000002b0: 2ae6 f9bb 7b72 48bc 677a 7a3c 33e1 0dba
000002c0: 3582 6ebb 025a 593c bb9e 3dbc f079 5439
000002d0: 5a0c 533b a501 eaba 1cb8 3ebc 8baa 9abb
000002e0: 978d c5bb e658 acba 5ddd 93bb dab2 823b
000002f0: b3fc 82bc 8ad5 6cbb 4db8 2a3c 9651 b538
00000300: 4625 39bc 6b25 bd3b d5bd 903c 1b16 f83b
00000310: a43d 65bc 1c8b 7b3c edfc a1bc 8e15 f1bb
00000320: d147 213b 80c4 463c b342 8e3b 09ab 363b
00000330: 68d7 f03b 26c9 5b3a 02f1 16bc 3dc8 60bc
00000340: 0beb 903c 2308 aa3a 1dbc 5dbc f3a6 3d3b
00000350: 0bbe 20ba 5bdb ab3b 1168 5bbc 4a95 403c
00000360: e4b8 433b d942 363c 76ad f7b7 7727 e0ba
00000370: e918 ad3b d705 c03b 100b 57bc edc2 703c
00000380: 842f e6bb 3eec 003c 0f07 9cbc 25fe 4e3c
00000390: cb46 5abc 2541 e5bb 9259 fb3b 32ac 09bb
000003a0: 2aa5 22bc 4f38 893b 9e68 08bc db4c 6dbb
000003b0: 1b95 e1bb d807 49ba deb5 28bc f11d ceba
000003c0: eacc 24bb 9e8e 3ebb 7394 cabc 082d 80bb
000003d0: 9e7e 483c e8e7 973b 8290 64bb 5f21 a13b
000003e0: a152 aaba 3d47 59bb 7a93 a43b 65dd 8bbb
000003f0: b8d5 66bb dcb4 6ebc 8c6d 283c 2ec7 343b

network_body._body_endoder.seq_layers.2.weight f4 [256, 256]
0.045897905 0.023047574 -0.069122285 0.030749375 -0.023220051 0.00023624056 -0.04042523 -0.028847571
-0.0053635216 0.033842407 0.019583838 -0.099673204 -0.084259436 0.061283946 -0.048229977 -0.024030428
0.06867594 0.030764429 0.029533394 0.011612188 0.020925771 0.05903064 0.018202435 0.015614886
0.0039170585 0.027739407 -0.04663493 -0.02748815 0.048982993 -0.051319893 -0.0013254411 -0.022809062
0.023093848 0.012319805 -0.019247536 -0.05144997 0.02313465 -0.039716728 0.12598291 -0.020192297
-0.014651337 0.024387559 -0.09567029 0.1430681 0.07555661 -0.05953385 0.11520543 0.09191856
-0.081394956 -0.026363518 0.01834438 0.054478873 -0.049101625 -0.12977833 0.05432641 0.14791739
-0.053411216 -0.0150100645 -0.074841626 0.050641827 -0.10419275 0.0062217023 -0.037390605 0.17331934
0.06295702 -0.16886283 -0.06338965 -0.041303705 0.05751664 0.02759538 0.012720051 -0.016340759
0.09205472 -0.05587035 0.12756819 -0.19185989 0.00924818 -0.10931312 -0.03036809 0.08128463
0.028799435 0.027234701 0.05915537 -0.08765431 -0.0060948767 -0.07528335 -0.017591799 -0.08668639
0.07095463 0.058081478 -0.0774004 0.004267325 -0.024024997 0.053752884 0.024946203 -0.098933585
0.04884639 0.04811491 0.038446628 -0.07986531 0.06824683 0.03445034 0.011333737 0.029416578
0.11446519 -0.05050258 -0.124324016 -0.011539642 -0.043617647 -0.022256488 0.027030522 0.067129344
0.028613588 0.03227674 -0.055277877 0.08654148 -0.028991476 0.13033509 0.058606293 -0.010713059
0.14838497 0.112168245 0.062982626 0.17529555 -0.042385176 0.014433264 0.019984195 0.011917065
-0.030024223 -0.051385496 0.03008913 -0.0119277565 -0.07876377 -0.0064336974 -0.020662807 0.04304815
-0.11254123 -0.04036247 0.022278298 -0.01201494 0.0003454586 -0.041232366 0.0474764 -0.03740705
0.072373405 0.007265824 0.042009193 0.014611915 0.026596991 -0.13914631 -0.04332281 -0.0060553364
-0.012532404 0.093567766 -0.025694462 -0.03058436 0.08446882 -0.047299184 0.051300604 -0.100205116
-0.0008292752 -0.06512307 0.030782985 -0.110773996 -0.027492672 0.015879799 -0.0316885 -0.051777344
0.065036096 0.04345862 -0.010083835 0.07675035 -0.1003337 -0.0065253763 -0.029424557 0.053984594
0.03909148 -0.08518648 0.061268266 -0.009655505 0.04848089 0.040546745 0.019578544 0.10347069
-0.010594829 -0.054384794 0.07246622 0.029055517 0.16541833 -0.12434724 0.09261758 -0.054489855
0.00022845535 0.009662092 -0.0484895 -0.036103334 -0.0818853 -0.056325644 0.044082876 -0.014264923
0.098577894 0.020951735 0.047694683 -0.1680373 0.00265136 0.013944929 -0.02223329 -0.0015178657
0.020448148 0.023128856 -0.0058302046 0.025552344 0.080199786 0.026380494 -0.09471051 0.018354053
-0.037083972 0.08356262 0.018208709 0.049434073 -0.09002255 -0.090370625 0.10113293 -0.097360715
-0.19328043 -0.02175808 0.00083352893 0.11846968 0.06817311 0.0057579996 0.09145543 -0.04058953
-0.04551841 -0.026972717 -0.07110173 0.0034683235 -0.118469015 0.046683542 0.026571086 0.018432753
-0.023296898 -0.08676438 0.015399987 -0.036749057 -0.029346185 0.118118145 0.01585202 -0.040396687
-0.03498756 -0.051688347 -0.030200666 0.02463609 0.029490666 0.005210451 -0.08204852 0.17273064
00000000: 71ff 3b3d 44ce bc3c fc8f 8dbd 1de6 fb3c
00000010: fa37 bebc 58b7 7739 ed94 25bd be51 ecbc
00000020: 7bc0 afbb 569e 0a3d 496e a03c 7721 ccbd
00000030: 3690 acbd e004 7b3d cc8c 45bd 76db c4bc
00000040: f9a5 8c3d af05 fc3c 04f0 f13c 0c41 3e3c
00000050: 866c ab3c 1dca 713d 461d 953c 94d5 7f3c
00000060: ab5a 803b c13d e33c 4504 3fbd d42e e1bc
00000070: 64a2 483d cf34 52bd 6cba adba 12da babc
00000080: 4f2f bd3c 02d9 493c 02ad 9dbc 34bd 52bd
00000090: e184 bd3c 02ae 22bd aa01 013e 516a a5bc
000000a0: 290c 70bc 6bc8 c73c c9ee c3bd 7280 123e
000000b0: 6dbd 9a3d c4d9 73bd d3f0 eb3d cc3f bc3d
000000c0: 66b2 a6bd 4ef8 d7bc f446 963c 3d25 5f3d
000000d0: c91e 49bd 9ce4 04be 5f85 5e3d a877 173e
000000e0: b8c5 5abd c6ec 75bc 9146 99bd ce6d 4f3d
000000f0: 0263 d5bd 6cdf cb3b e426 19bd a07a 313e
00000100: 9cef 803d 61ea 2cbe 6fd2 81bd 132e 29bd
00000110: 9196 6b3d b50f e23c c367 503c 0edd 85bc
00000120: 2f87 bc3d 4fd8 64bd 3ca1 023e eb76 44be
00000130: ae85 173c 8fdf dfbd 80c6 f8bc 8e78 a63d
00000140: cbec eb3c 4f1b df3c e74c 723d 1a84 b3bd
00000150: 88b7 c7bb 282e 9abd ad1c 90bc a288 b1bd
00000160: a950 913d d8e6 6d3d 1a84 9ebd ebd4 8b3b
00000170: 12d0 c4bc fc2b 5c3d fb5b cc3c b19d cabd
00000180: 2713 483d 2414 453d 367a 1d3d 6c90 a3bd
00000190: fec4 8b3d cd1b 0d3d 23b1 393c 09fb f03c
000001a0: ba6c ea3d cbdb 4ebd 979d febd c410 3dbc
000001b0: 6ba8 32bd 3d53 b6bc 1d6f dd3c 1c7b 893d
000001c0: 0b67 ea3c 9d34 043d 0e6b 62bd a93c b13d
000001d0: 887f edbc 9076 053e 270d 703d d485 2fbc
000001e0: 3bf2 173e 77b8 e53d 09fd 803d ad80 333e
000001f0: 149c 2dbd 7f79 6c3c e5b5 a33c cb3f 433c
00000200: 5cf5 f5bc 9979 52bd 7b7d f63c a36c 43bc
00000210: e64e a1bd c4d1 d2bb 0c45 a9bc 4253 303d
00000220: 047c e6bd 1e53 25bd fa80 b63c 50da 44bc
00000230: ab1e b539 45e3 28bd 9d76 423d 2338 19bd
00000240: 8238 943d 2616 ee3b d511 2c3d d066 6f3c
00000250: efe1 d93c 5f7c 0ebe 4273 31bd d86b c6bb
00000260: b654 4dbc 75a0 bf3d 317d d2bc 0d8c fabc
00000270: fdfd ac3d cabc 41bd 9520 523d 5738 cdbd
00000280: b763 59ba 3e5f 85bd 992c fc3c 7add e2bd
00000290: 5038 e1bc 5a16 823c cdcb 01bd 7b14 54bd
000002a0: a531 853d aa01 323d ab36 25bc 4a2f 9d3d
000002b0: c17b cdbd d3d2 d5bb c50b f1bc f31e 5d3d
000002c0: 631e 203d 4076 aebd 6ff4 7a3d 2032 1ebc
000002d0: e693 463d 5814 263d 2f63 a03c 71e8 d33d
000002e0: ef95 2dbc 97c2 5ebd 2b69 943d d605 ee3c
000002f0: 6c63 293e c4a9 febd 49ae bd3d c130 5fbd
00000300: 848d 6f39 c04d 1e3c ed9c 46bd 17e1 13bd
00000310: 7bb3 a7bd b8b5 66bd 3f90 343d 6cb7 69bc
00000320: 35e3 c93d f9a2 ab3c 805b 433d f811 2cbe
00000330: 70c2 2d3b 4679 643c 9722 b6bc 1ff3 c6ba
00000340: e082 a73c ba78 bd3c 4d0b bfbb 2653 d13c
00000350: c93f a43d e81b d83c 95f7 c1bd 3d5b 963c
00000360: 5de5 17bd e122 ab3d 6e2a 953c 627b 4a3d
00000370: be5d b8bd 3c14 b9bd c81e cf3d 0e65 c7bd
00000380: 4eeb 45be 003e b2bc 2e81 5a3a 3ba0 f23d
00000390: 589e 8b3d 9aad bc3b fc4c bb3d 3541 26bd
000003a0: 8371 3abd e3f5 dcbc c99d 91bd d04c 633b
000003b0: e29f f2bd 3e37 3f3d 9bab d93c 4900 973c
000003c0: 23d9 bebc 86b1 b1bd 3a50 7c3c 2e86 16bd
000003d0: 6967 f0bc ede7 f13d 18dc 813c ff76 25bd
000003e0: 1e4f 0fbd 29b7 53bd 6367 f7bc a0d1 c93c
000003f0: 6996 f13c 6ebc aa3b 0e09 a8bd 4de0 303e

network_body._body_endoder.seq_layers.4.bias f4 [256]
-0.011315983 -0.0021732224 0.007870331 -0.011241494 0.01330693 0.003802817 0.0031862843 0.01101219
-0.0013669133 0.014933846 -0.0029203678 0.008062743 -0.012637161 0.0038117634 0.00075983716 0.0008629307
-0.0063383975 -0.014818076 -0.011422701 -0.0019100836 -0.0070524453 0.0114151975 -0.007444481 0.004145723
0.004872475 -0.0069344286 -0.0135047985 0.006920222 0.011114982 0.029751463 0.0063597136 -0.00022010446
0.012492592 0.0069826012 -0.00023212035 0.00023607344 0.0070000133 -0.003330747 0.007865132 0.009428004
-0.013762002 -0.015426167 -0.006792317 0.010798019 0.019398224 -0.013393074 -0.0059673088 -0.025471214
0.0025987313 0.0061093275 0.006862243 -0.0038201096 0.015390527 9.411493e-05 -0.009605225 0.007958918
0.0038484652 -0.0015696511 0.012447695 0.009508103 0.038367745 -0.0018573466 -0.0057512014 -0.004130523
0.008995963 0.005706463 0.0035330884 0.0134700285 -0.0015138738 -0.003953257 0.023476208 -0.010652607
-0.010862003 0.0036644011 0.0059855455 -0.010525804 0.010144579 -0.01767696 0.013372266 0.007987619
-0.01156346 -0.0135191595 0.0012238674 -0.0020969186 0.008917536 -0.008319759 0.018878018 0.013561344
-0.00701377 0.018440198 -0.004685628 -0.0071384627 0.0021828373 -0.009426236 0.00378189 0.010889862
0.029363649 0.0040361597 0.0031084768 -0.0028900953 -0.007250051 0.013656638 -0.008058942 0.0074093337
-0.012437322 -0.0021388144 -0.0041608536 -0.014101787 -0.023570396 -0.006737689 -0.0047138105 -0.008604732
-0.0062080906 0.014612026 0.010003796 0.010168527 0.015178438 0.010255316 -0.0073498916 0.006655501
0.0005140003 0.033153243 0.0023955104 0.027263958 0.008855593 -0.009518264 -0.013252509 0.0064585656
-0.0060022627 -0.010126229 0.012355331 0.003659153 0.0226196 -0.003918512 -0.01185643 -0.008949025
-0.008141888 0.009644682 -0.0059617185 -0.0024512901 0.028678443 -0.003044778 0.009877384 0.013628241
0.0028456373 -0.0061077205 -0.015224968 -0.007310762 0.008473238 -0.0065697576 0.005118592 -0.008821543
0.010436047 -0.0071529862 0.00036258737 0.013437007 -0.0069441358 -0.0066524297 -0.006159777 0.0029741912
-0.011439574 -0.0016512608 0.003927915 0.005059561 0.010357298 -0.005192699 -0.00044874463 -0.0074016126
0.008682829 0.0064477534 0.031437512 -0.017223062 -0.0021513691 -0.0040399064 -0.014161003 -0.009966227
-0.011214925 -0.01489869 -0.00048796352 0.005352641 0.012383261 0.009078078 0.004096282 0.013662663
0.03899002 0.0017677039 -0.0071028266 -0.0038867854 0.0063831084 0.0035704328 0.008912237 0.0111885
-0.0035540157 0.015352764 0.002657485 -0.003463981 -0.0074456935 0.004164742 0.011155195 -0.01207921
0.0056826556 -0.0031664693 0.004514564 0.0010484388 -0.00059965026 -0.009300463 -0.00014262968 0.013528701
-0.012712141 0.008815456 0.0044547813 -0.008067705 0.004899652 -0.0004796256 -0.007267591 -0.008629406
0.0053676036 0.0051392126 0.00604194 -0.009281019 0.004479741 -0.00361587 -0.0011401296 -0.0032909298
-0.004535571 0.010012661 -0.0018108833 0.016689092 0.007352496 0.012786715 0.021021577 0.002315695
0.0076390635 -0.0061012595 0.020822726 0.011898072 -0.011188776 0.008079566 0.005021838 0.009635696
-0.0017888686 -0.005091175 -0.011585403 -0.0050345883 0.018329347 0.0033426275 -0.008918132 0.007816778
0.013486554 0.0020605568 -0.0045362934 9.874132e-05 -0.013747466 0.0145817315 0.006059664 -0.0042444593
00000000: ac66 39bc 9f6c 0ebb 90f2 003c 3e2e 38bc
00000010: 4f05 5a3c af38 793b fbd0 503b 796c 343c
00000020: 002a b3ba 17ad 743c a463 3fbb 9819 043c
00000030: 180c 4fbc c7ce 793b cf2f 473a 4d36 623a
00000040: 55b2 cfbb 84c7 72bc 4826 3bbc c55b faba
00000050: 3318 e7bb cf06 3b3c d5f0 f3bb d8d8 873b
00000060: 48a9 9f3b 343a e3bb 3b43 5dbc 08c3 e23b
00000070: 9d1b 363c 57b9 f33c 2565 d03b d7cb 66b9
00000080: bbad 4c3c 4ece e43b 5565 73b9 7b8a 7739
00000090: 5e60 e53b a948 5abb c1dc 003c ea77 1a3c
000000a0: 057a 61bc 09be 7cbc 1692 debb 2dea 303c
000000b0: 06e9 9e3c a06e 5bbc 6a89 c3bb 02a9 d0bc
000000c0: 7a4f 2a3b c130 c83b abdc e03b ce5a 7abb
000000d0: 8d28 7c3c 915f c538 3c5f 1dbc 1f66 023c
000000e0: 8836 7c3b c0bc cdba 6bf1 4b3c e0c7 1b3c
000000f0: 7f27 1d3d 3672 f3ba 9374 bcbb 5759 87bb
00000100: ce63 133c 48fd ba3b 638b 673b 65b1 5c3c
00000110: 2d6d c6ba 538a 81bb 2d51 c03c 4688 2ebc
00000120: 8bf6 31bc 7326 703b 6522 c43b 6c74 2cbc
00000130: 7335 263c 46cf 90bc 5917 5b3c 81de 023c
00000140: ab74 3dbc 777f 5dbc 2d6a a03a 756c 09bb
00000150: db1a 123c 994f 08bc 13a6 9a3c 6630 5e3c
00000160: c4d3 e5bb e60f 973c e689 99bb c4e9 e9bb
00000170: ef0d 0f3b 8070 1abc 96d9 773b 646b 323c
00000180: 098c f03c c341 843b 96b7 4b3b c167 3dbb
00000190: d691 edbb 17c0 5f3c a709 04bc ffc9 f23b
000001a0: e9c5 4bbc 5a2b 0cbb c557 88bb 2e0b 67bc
000001b0: b416 c1bc d5c7 dcbb 4f76 9abb ddfa 0cbc
000001c0: 3d6d cbbb 4767 6f3c f6e6 233c e599 263c
000001d0: fcae 783c ea05 283c 5cd7 f0bb 6416 da3b
000001e0: fabd 063a b2cb 073d fffd 1c3b aa58 df3c
000001f0: 0d17 113c 7ef2 1bbc 0d21 59bc 60a2 d33b
00000200: a1ae c4bb 7ce8 25bc 046e 4a3c 66ce 6f3b
00000210: bd4c b93c dc66 80bb 7941 42bc ee9e 12bc
00000220: 8e65 05bc ba04 1e3c 855a c3bb d3a5 20bb
00000230: 0eef ea3c e68a 47bb c0d4 213c fc48 5f3c
00000240: df7d 3a3b 4623 c8bb 2572 79bc 1e8f efbb
00000250: 56d3 0a3c 1f47 d7bb ddb9 a73b 3c88 10bc
00000260: f4fb 2a3c 9963 eabb a719 be39 e426 5c3c
00000270: a28b e3bb a0fc d9bb f4d7 c9bb a6ea 423b
00000280: 0d6d 3bbc 1e6f d8ba bdb5 803b adca a53b
00000290: a8b1 293c 8427 aabb 7c45 ebb9 3a89 f2bb
000002a0: 6d42 0e3c ad47 d33b 9fc4 003d 6117 8dbc
000002b0: fcfd 0cbb 3161 84bb 8d03 68bc 6349 23bc
000002c0: cebe 37bc a319 74bc 5bd5 ffb9 3565 af3b
000002d0: 29e3 4a3c 38bc 143c 1b3a 863b 5dd9 5f3c
000002e0: 00b4 1f3d 4db2 e73a d4be e8bb 70b9 7ebb
000002f0: 6529 d13b ecfd 693b a204 123c f84f 373c
00000300: 7dea 68bb 298a 7b3c 3329 2e3b f503 63bb
00000310: 01fb f3bb 6378 883b 47c4 363c e1e7 45bc
00000320: 9235 ba3b 8a84 4fbb e8ee 933b c56b 893a
00000330: d931 1dba f860 18bc dd8e 15b9 7ca7 5d3c
00000340: 9546 50bc b46e 103c 6af9 913b 682e 04bc
00000350: 438d a03b 4276 fbb9 f924 eebb 5a62 0dbc
00000360: b9e2 af3b d766 a83b 77fb c53b 6a0f 18bc
00000370: cbca 923b 3bf8 6cbb 6770 95ba a4ac 57bb
00000380: 219f 94bb 250c 243c 295b edba 90b7 883c
00000390: 35ed f03b 5f7f 513c 7135 ac3c eac2 173b
000003a0: 1c51 fa3b 13ed c7bb 6c94 aa3c 22f0 423c
000003b0: 2151 37bc 2860 043c 3b8e a43b 0adf 1d3c
000003c0: 7878 eaba dfd3 a6bb b4d0 3dbc 30f9 a4bb
000003d0: 6d27 963c fc0f 5b3b 5b1d 12bc f111 003c
000003e0: b5f6 5c3c 680a 073b 30a5 94bb 5813 cf38
000003f0: 0d3d 61bc 37e8 6e3c 2590 c63b 1b15 8bbb

network_body._body_endoder.seq_layers.4.weight f4 [256, 256]
0.022492856 -0.0064286557 -0.06629106 -0.013848835 -0.045021236 -0.057900395 -0.007067377 0.09648647
0.038372796 0.017192785 -0.019692738 0.12558825 0.0111965295 -0.01068699 -0.049099736 -0.05257131
0.03892543 -0.075895734 -0.077397026 0.0132773975 -0.11547281 -0.020118173 0.014693308 0.038507603
0.0477602 0.0030347507 -0.15957241 -0.058166675 0.031437706 0.0005631471 -0.0039574644 0.008258227
0.015915465 -0.13365574 0.090138376 0.07965272 0.06670877 0.0428909 0.022605922 0.0130024785
0.119865775 0.0010149208 0.044787437 -0.011064562 -0.06360018 -0.102088824 -0.007514187 -0.08012672
-0.07575935 -0.06267911 -0.045765378 0.08783673 0.040297534 -0.01282442 0.018138105 -0.035080303
-0.005364354 -0.05006124 0.08760196 -0.07589227 0.043121487 0.07860074 0.13898766 -0.068767846
0.022000706 0.0056856605 0.044720393 0.0064429385 -0.0515562 0.042911176 -0.011506271 -0.03875159
-0.052976534 -0.13646032 -0.122613825 0.055649325 -0.04981069 0.014688547 -0.0466203 -0.03839894
-0.06385414 -0.06708124 -0.03272906 0.011532538 -0.08653065 0.011664646 0.040505122 0.038402617
0.045617502 0.010499694 0.01559429 -0.043961175 -0.11003478 -0.10068047 0.011832588 0.0036286658
-0.11301896 0.04097732 -0.15582 0.15469933 0.041995887 -0.052477673 -0.114661664 0.017831743
0.087653644 0.04626144 0.049289335 -0.01788037 0.05272058 -0.057758797 0.02160249 0.05625407
0.08063959 -0.1339647 -0.0098764645 -0.1885905 -0.023822641 0.019586002 -0.09037516 0.064383
-0.0074871127 0.010805771 -0.16037095 -0.08956566 -0.08266103 0.016841419 0.14870745 -0.04606187
0.0173765 -0.0123349335 0.0757555 -0.10379663 0.022899302 0.027200114 -0.015096146 -0.15646486
0.20231545 -0.117214136 -0.0745177 0.05190264 0.053561468 0.028448343 0.032160748 0.044855002
0.06306933 -0.008348958 -0.14158878 -0.0883212 -0.03294169 -0.053784177 0.11593795 0.057512708
-0.11792934 -0.077724144 0.06250465 0.044452753 0.0898614 -0.03750654 -0.14513735 -0.050009564
0.050233994 -0.057845607 0.017980872 -0.010788092 0.020491363 -0.04342108 0.036953196 0.020273179
0.09006796 -0.13100182 -0.034762714 0.08840351 0.045358617 0.032229066 -0.023078125 0.03652253
0.009176914 -0.01739237 0.0068658637 -0.04489544 -0.0063389945 -0.028956002 -0.046833012 0.009645914
-0.053307056 -0.025901094 -0.066047475 -0.09234767 -0.070358634 -0.084007576 -0.029523844 0.1316929
-0.079931356 0.06724954 -0.07296928 -0.014945639 0.062300168 -0.030602893 -0.0025804378 0.01074093
-0.12396932 0.13871023 0.024105286 -0.052517213 0.11302229 0.04000642 -0.024219247 -0.016294578
-0.041475546 0.124931484 -0.1021811 0.057672013 -0.102059364 0.0064108144 -0.0067164763 -0.06992737
0.05277318 0.025105068 -0.037225734 -0.033869896 0.10937255 0.05715045 0.08656538 0.026626108
0.058949124 -0.17311367 0.08101422 0.08403119 0.017426908 0.04384954 -0.15364787 -0.1069035
0.051788885 -0.033780005 -0.07557602 0.05317038 0.05049194 0.03443773 -0.037260596 -0.1268183
0.063412786 -0.047492523 -0.013605754 -0.056504685 0.023837525 -0.093130335 0.08363663 0.0091212485
0.06347844 0.03942725 0.056003626 0.051512677 0.033551697 -0.012699141 -0.047033228 0.008011349
00000000: f042 b83c 79a7 d2bb 9bc3 87bd 39e6 62bc
00000010: 3068 38bd f728 6dbd 7595 e7bb b39a c53d
00000020: cb2c 1d3d e2d7 8c3c aa52 a1bc 359a 003e
00000030: a671 373c 7c18 2fbc ce1c 49bd 0455 57bd
00000040: 4670 1f3d 396f 9bbd 5582 9ebd 7189 593c
00000050: 027d ecbd dece a4bc 33bc 703c 26ba 1d3d
00000060: 33a0 433d abe2 463b f366 23be 2e40 6ebd
00000070: d3c4 003d 2aa0 133a 9ead 81bb 844d 073c
00000080: 2661 823c 0ddd 08be 789a b83d f720 a33d
00000090: 9c9e 883d 5eae 2f3d 0e30 b93c 5908 553c
000000a0: 307c f53d 1707 853a 0873 373d 2348 35bc
000000b0: d040 82bd f213 d1bd 9239 f6bb 7a19 a4bd
000000c0: b827 9bbd e85d 80bd 7a74 3bbd bee3 b33d
000000d0: 070f 253d 841d 52bc 5d96 943c 5db0 0fbd
000000e0: 76c7 afbb 040d 4dbd a868 b33d 686d 9bbd
000000f0: 28a0 303d 6df9 a03d c852 0e3e 28d6 8cbd
00000100: d33a b43c c74e ba3b bb2c 373d 491f d33b
00000110: 982c 53bd a1c3 2f3d cc84 3cbc fdb9 1ebd
00000120: ecfd 58bd 41bc 0bbe f51c fbbd 8cf0 633d
00000130: 4b06 4cbd 3ba8 703c edf4 3ebd 3548 1dbd
00000140: f6c5 82bd e461 89bd e80e 06bd f8f2 3c3c
00000150: fb36 b1bd 121d 3f3c b3e8 253d 104c 1d3d
00000160: 6bd9 3a3d e906 2c3c 317f 7f3c a210 34bd
00000170: ea59 e1bd 9031 cebd 79dd 413c e9ce 6d3b
00000180: 7c76 e7bd d6d7 273d 478f 1fbe 8069 1e3e
00000190: e103 2c3d d4f2 56bd bcd3 eabd e013 923c
000001a0: c183 b33d a37c 3d3d 9de3 493d db79 92bc
000001b0: 89f1 573d 7d94 6cbd b5f7 b03c ab6a 663d
000001c0: 5f26 a53d 0b2e 09be e5d0 21bc de1d 41be
000001d0: b327 c3bc d372 a03c 9d16 b9bd 3cdb 833d
000001e0: 7456 f5bb b00a 313c 4838 24be 336e b7bd
000001f0: 304a a9bd 04f7 893c c446 183e 5fab 3cbd
00000200: 2959 8e3c 7618 4abc b325 9b3d 5493 d4bd
00000210: 5197 bb3c c6d2 de3c d355 77bc 5338 20be
00000220: c82b 4f3e f70d f0bd bc9c 98bd dd97 543d
00000230: 4563 5b3d 800c e93c fdba 033d e1b9 373d
00000240: 7e2a 813d 11ca 08bc a6fc 10be bfe1 b4bd
00000250: deed 06bd cc4c 5cbd e070 ed3d 7292 6b3d
00000260: f084 f1bd d62d 9fbd 7002 803d 1714 363d
00000270: 4109 b83d 75a0 19bd e39e 14be d4d6 4cbd
00000280: 29c2 4d3d 84ef 6cbd 9f4c 933c 8ac0 30bc
00000290: 81dd a73c 4dda 31bd 3c5c 173d f013 a63c
000002a0: 8d75 b83d 5725 06be 5963 0ebd e60c b53d
000002b0: f5c9 393d a002 043d 560e bdbc a698 153d
000002c0: c45a 163c 727a 8ebc 0afb e03b 48e4 37bd
000002d0: 57b7 cfbb 2335 edbc f9d3 3fbd e509 1e3c
000002e0: 8058 5abd 882e d4bc e643 87bd c620 bdbd
000002f0: 3018 90bd 2a0c acbd fddb f1bc 81da 063e
00000300: 0db3 a3bd 20ba 893d eb70 95bd 8ede 74bc
00000310: 762e 7f3d ebb2 fabc 901c 29bb bafa 2f3c
00000320: a0e3 fdbd 0e0a 0e3e 7378 c53c 4a1c 57bd
00000330: 3b78 e73d c6dd 233d 7167 c6bc 357c 85bc
00000340: 43e2 29bd 14dc ff3d 5344 d1bd 7d39 6c3d
00000350: 8004 d1bd cf11 d23b e315 dcbb 1536 8fbd
00000360: b128 583d 25a9 cd3c 037a 18bd 29bb 0abd
00000370: b7fe df3d 9716 6a3d 3149 b13d ff1e da3c
00000380: a374 713d b644 31be c9ea a53d 8b18 ac3d
00000390: e0c2 8e3c 939b 333d de55 1dbe 39f0 dabd
000003a0: 9520 543d e75c 0abd 9ac7 9abd 2fc9 593d
000003b0: a3d0 4e3d 940e 0d3d 919e 18bd a8dc 01be
000003c0: 90de 813d 8587 42bd abea 5ebc 7571 67bd
000003d0: ea46 c33c 1ebb bebd ae49 ab3d 4a71 153c
000003e0: fc00 823d 787e 213d 0f64 653d f5fe 523d
000003f0: 816d 093d 0f10 50bc eaa5 40bd 0842 033c
