Assets/Training/results/track4_learned/config_track4/config_track4-999974.onnx (onnx, 601409 bytes, 9 tensors)

action_model._continuous_distribution.log_sigma f4 [1, 2]
000000 84 49 00 be 66 c6 c3 be
       -0.12528044 -0.38237303

action_model._continuous_distribution.mu.bias f4 [2]
000000 92 08 36 3c 08 c5 34 ba
       0.011110442 -0.0006895815

action_model._continuous_distribution.mu.weight f4 [2, 256]
000000 5e 66 7a bd 18 e3 ba bc 9b c6 d4 bc 1a 06 78 bc
       -0.06113278 -0.022813365 -0.025973609 -0.0151381735
000010 aa 4f 4d bc 24 fa 6a bc 59 ad 1b 3c 18 7c 2d 3c
       -0.0125312 -0.014341865 0.0095017785 0.010588668
000020 17 f1 d5 bb 44 f5 0f 3b d4 76 12 bd 11 3c 29 bc
       -0.0065289843 0.0021966258 -0.035757855 -0.010329262
000030 4c 18 ad bc 9f f5 e0 bb ed 7d 2c 3a b2 af b0 3a
       -0.02112975 -0.006865218 0.00065800437 0.0013480096
000040 d7 14 5b bd 7a 7f 71 bc ec 39 ee bc 1d d8 69 bb
       -0.05348667 -0.014739865 -0.029080354 -0.0035681792
000050 9f 57 29 bc c3 3d 39 3c da 9a a5 ba a7 e3 92 3b
       -0.010335832 0.011306229 -0.001263465 0.0044827047
000060 b6 a2 4b bd 3c a6 38 bd 6a 8c 26 bc 80 60 31 3a
       -0.04971572 -0.04508041 -0.010165313 0.0006766394
000070 a2 84 52 3c c8 5c 3f 3c a7 8c 49 bc 6a b7 e1 39
       0.012849005 0.011679836 -0.012301601 0.00043051998
000080 2f 2d 2c 3c 72 f8 c3 3c 23 cc 28 bb 2a 29 21 bd
       0.0105088195 0.023922179 -0.002575644 -0.039345898
000090 00 59 9e 3c ba 55 01 bd e2 bf 86 3b 39 08 21 bd
       0.019329548 -0.031575896 0.0041122297 -0.039314482
0000a0 e3 cd 01 bd a2 54 26 bd a5 2e b0 bb 39 80 8c 39
       -0.03169049 -0.040608056 -0.005376654 0.00026798414
0000b0 81 98 15 bd 66 08 95 bc 44 e7 a3 bb 1c 14 9a bc
       -0.036522392 -0.018192481 -0.0050019342 -0.018808417
0000c0 ce ba 10 bc 66 61 a4 3b 68 63 5d 3c c3 66 77 ba
       -0.0088336 0.0050164936 0.01351247 -0.0009437615
0000d0 b2 d8 48 bd 73 45 f7 3b c4 f0 d0 bb 47 57 47 3c
       -0.04903478 0.007546121 -0.0063763577 0.012166805
0000e0 72 99 a1 3a 28 3b 16 bd ce 06 ab 3b b5 f8 72 3c
       0.0012329055 -0.03667751 0.005219317 0.014829804
0000f0 60 4c 91 3c 34 65 a8 ba 3d 40 96 ba c6 13 ea bc
       0.017736614 -0.0012847544 -0.0011463236 -0.028573882
000100 c6 e7 bd 3a 7d d4 5d bc a5 0e 25 bd c3 af 63 3c
       0.001448863 -0.013539431 -0.04029717 0.013896885
000110 ae bf ef ba 5c 4b dc bc 88 e6 d4 3c 29 99 48 bc
       -0.0018291378 -0.026891403 0.025988832 -0.0122435475
000120 83 c3 31 bd 63 73 e3 bc 27 cf 7c bd 37 4c 2c bd
       -0.043399345 -0.027764982 -0.061720993 -0.04206487
000130 45 de 16 3c 4d a5 2d bd ce 67 70 3c 26 08 02 3c
       0.009208267 -0.04239397 0.0146731865 0.007936513
000140 c2 52 65 bd 2f 26 43 bd 4b e3 f8 bc 15 7f 58 bc
       -0.055987127 -0.047643837 -0.03038182 -0.0132138925
000150 91 d9 0d bd 99 cd 92 bc c4 c9 29 bd 6d 40 3a 3c
       -0.034631316 -0.017920302 -0.041452184 0.011367899
000160 28 9e 32 bc e5 6f 94 3c 2d d3 d1 bb 16 61 89 bc
       -0.010901965 0.018119762 -0.006403348 -0.016769927
000170 36 ba c2 3b 8d 1f 1b bd a6 95 8a ba d5 a5 65 3c
       0.005942608 -0.037871886 -0.0010573163 0.014016588
000180 74 e6 c7 3c e6 da 08 bd 8d 0d 18 3b 82 66 41 bd
       0.02440188 -0.033411883 0.0023201436 -0.0472169
000190 0d 7a 32 bc 9f 95 30 3c 5a c3 11 bc 2b fb 99 bb
       -0.010893357 0.01077786 -0.008896673 -0.004699131
0001a0 1b 91 04 bd b1 d5 4e bc cd bf 3b bc 7e 40 0a bc
       -0.032364946 -0.01262419 -0.011459303 -0.008438228
0001b0 3b 1d 1b bc 2b 7d 04 bd c4 5c 0c bb 37 ca 15 bc
       -0.009467418 -0.032345932 -0.0021417597 -0.00914245
0001c0 78 ea db bc 23 32 22 bd 36 b4 38 bc 53 ed cb 3b
       -0.026845202 -0.039598595 -0.011273434 0.0062233596
0001d0 ce ad 49 bc fe df 90 bc 07 98 d3 bb 45 1f 92 bc
       -0.012309505 -0.017684933 -0.006457332 -0.017837176
0001e0 48 44 e0 bc c4 40 24 3d 22 dc 95 3b 39 e7 10 bd
       -0.027376309 0.040100828 0.004573361 -0.03537676
0001f0 48 1e 86 3b 5e a6 29 bc 35 0f 5b bd 50 6a 01 3c
       0.0040929653 -0.010354606 -0.0534813 0.007898882
000200 69 05 0e bd 0f 11 89 ba de 70 f4 3b e9 4a fb bc
       -0.03467313 -0.0010457354 0.007459744 -0.030675368
000210 16 23 c8 3c 64 c1 17 bc 21 85 4b bc 8b a4 00 bb
       0.024430793 -0.0092624165 -0.012421877 -0.0019629325
000220 5f f5 2a bd 59 8a 65 3c 73 78 40 bc c2 6d 03 bd
       -0.04173791 0.014010035 -0.011747467 -0.032087095
000230 1c 2d a3 3c 01 1d 00 ba b2 98 90 bb f6 9e 9e 3c
       0.01991897 -0.00048871344 -0.004412734 0.019362908
000240 0a 00 72 3c c9 6d aa bc 41 b8 e1 bb b5 49 51 bd
       0.014770517 -0.020804303 -0.00688842 -0.051095683
000250 e9 50 b9 bc 4f a1 5f bc 19 34 1f 3c b5 b1 16 bc
       -0.022621589 -0.013649299 0.009717011 -0.009197642
000260 1c 90 31 bd 5d 44 5f bc 62 fe 33 bd 24 8a 04 3a
       -0.043350324 -0.013627139 -0.04394377 0.0005055985
000270 c9 0f 6a bb 2b b6 0e bd 4a ef 12 bb 85 e7 38 3c
       -0.0035714975 -0.034841698 -0.002242046 0.011285667
000280 47 43 f6 bc 67 6e 76 3a 05 62 b3 3b 7d 11 11 3c
       -0.030061377 0.00094006065 0.0054743313 0.008854267
000290 9d 59 27 3c 52 1f 9b bb 6b 4d 20 bb 0e 35 8c bb
       0.010214237 -0.0047339583 -0.0024460207 -0.0042787855
0002a0 13 e8 55 3b f8 b9 10 3c d8 aa aa 3c d2 45 cf b9
       0.0032639548 0.008833401 0.020833418 -0.00039534137
0002b0 a7 77 26 bb 0c fd e7 bb bf b9 47 bc 05 aa fb bc
       -0.0025400908 -0.007079726 -0.012190281 -0.03072072
0002c0 2e 5d 0d bd 77 bf f8 bc bd cf e2 ba 9d 07 c3 3b
       -0.03451269 -0.030364735 -0.0017304342 0.0059518353
0002d0 8a e5 1b bd 5b a4 07 bd 06 28 da bc 22 87 ce 3b
       -0.038060702 -0.033115726 -0.026630413 0.00630273
0002e0 e5 0a 14 3d 0d d5 a3 bb 3c e9 22 bd 70 b1 a6 3a
       0.036143202 -0.004999763 -0.03977321 0.0012717675
0002f0 a2 e9 10 3b 37 88 5f bb 45 4d a6 3b ed 2f 65 3c
       0.0022111912 -0.003410829 0.005075129 0.013988477
000300 f9 09 a1 bb 0d 88 13 bc 04 90 70 3b 3d fe 06 bd
       -0.004914519 -0.009004605 0.0036706934 -0.032957304
000310 dc e9 04 bd 37 19 21 3c c4 a8 76 3c 46 52 00 bd
       -0.03244959 0.009832672 0.015054885 -0.031328462
000320 b9 12 39 3c 4c a7 81 bc 91 83 e5 3b 05 7c ba 3b
       0.011295968 -0.015826844 0.0070042093 0.005691054
000330 4e 8a 14 bd 41 d6 28 bd 4d 0e f6 ba e7 fe 8a 3c
       -0.03626471 -0.041219953 -0.0018772573 0.01696725
000340 51 85 3e bd 7e 5e 42 3c a5 65 a9 bb 1c 73 df bc
       -0.04651386 0.011863349 -0.0051695877 -0.027276568
000350 69 64 60 3c 30 44 d9 bc d0 15 17 bd 7c 9f 34 bd
       0.013695815 -0.026521772 -0.036886036 -0.04409741
000360 62 bc 48 bd 9b e9 80 3b 51 1b 96 3b 77 d7 cf bc
       -0.04900778 0.003934098 0.004580893 -0.025371296
000370 9f c4 51 3a e2 be 14 bc b2 bd da ba 9c cb bd bb
       0.0008002016 -0.009078713 -0.0016688614 -0.0057920944
000380 d1 e7 f5 ba d4 8a d5 bc 83 1e 9d bc 3d c4 9b 3c
       -0.0018761103 -0.026067175 -0.019179588 0.019014472
000390 90 c3 52 ba 6f 74 c0 3c 21 18 63 bc 75 1f 19 bc
       -0.00080400053 0.02349302 -0.013860733 -0.009345879
0003a0 6d e0 a8 bc 3a 51 34 bc 21 da 2f bc bb c5 cf bb
       -0.020614827 -0.011005694 -0.010733158 -0.00634071
0003b0 43 0f 45 bd 55 a3 34 3c 35 eb bd bc 3d 84 d3 3b
       -0.048110258 0.0110252695 -0.023183445 0.006454973
0003c0 4c 37 d9 b7 9e a7 4c bc f4 8a 0e bd eb 9e f7 bc
       -2.5894165e-05 -0.012491135 -0.034800485 -0.030227145
0003d0 85 ae 65 3c 4e 02 1d bb c7 6d 44 bc 0a 6f a1 3b
       0.0140186595 -0.0023957673 -0.011989064 0.004926567
0003e0 55 af 2f 3c ae 7f f9 bc 47 b5 00 bc 0c f5 0c bd
       0.010722955 -0.03045639 -0.00785572 -0.034413382
0003f0 50 76 ca bc 04 6d 14 3c 33 bf c4 bc d4 a1 b0 bc
       -0.024714619 0.0090591945 -0.024016952 -0.02156154

network_body._body_endoder.seq_layers.0.bias f4 [256]
000000 73 d1 a2 3b 1a a2 a6 bb f7 0a fe bb c2 e7 44 3b
       0.004968816 -0.005085242 -0.007752772 0.0030045365
000010 b8 03 09 bb 04 7b 3b ba 18 d1 c3 bb 83 55 14 bb
       -0.0020906758 -0.00071518146 -0.0059758537 -0.0022633977
000020 22 1e 5b bb 7f 64 c8 bb 37 71 e5 3c 0e f0 17 bc
       -0.0033434709 -0.0061154957 0.028008087 -0.009273542
000030 28 b9 8a bb 21 4b 30 bc c4 44 22 3c 48 ef 82 3b
       -0.004233498 -0.0107601 0.00990409 0.0039958097
000040 a3 b8 76 3b 00 80 a0 39 c8 7e a0 3c 71 e1 ec 3b
       0.0037646673 0.00030612946 0.019591704 0.007229023
000050 65 f7 ea 3b c4 4e 93 3c 93 8c 19 bb e8 5a b8 3b
       0.007170605 0.017981894 -0.0023429736 0.0056260712
000060 f8 49 55 3b d2 7a 30 bc 34 ff 20 3b 8f a8 8e bb
       0.003254531 -0.01077147 0.0024566175 -0.00435359
000070 3a 77 10 3d 42 a0 56 bc 6f 3e 00 3c 0c 48 5d 3b
       0.035269953 -0.013099732 0.007827385 0.0033764867
000080 21 d3 08 3b 58 25 84 3b 86 d5 1f 3c 6e 91 9c 3a
       0.0020877796 0.004032772 0.009755498 0.0011945197
000090 7f e4 26 3b 27 d2 9e 3c 82 e0 ce bb 8a 92 11 3c
       0.0025465784 0.019387318 -0.0063133845 0.008885035
0000a0 08 78 a9 ba f8 cd cc ba cf 14 a0 bb 64 a3 b8 b8
       -0.0012929449 -0.0015625348 -0.004885293 -8.8042376e-05
0000b0 a9 47 67 3b 4e c0 af 3c 52 b5 4f bb 86 67 c0 3b
       0.0035290516 0.021454003 -0.0031693769 0.005871716
0000c0 d0 8a 90 37 58 82 7c 3d f8 89 2b 3b 16 4a 88 ba
       1.7230777e-05 0.061647743 0.0026174765 -0.0010398056
0000d0 ce 39 ff b8 54 53 2f 3a 02 79 1d 39 8f 34 16 3a
       -0.000121701145 0.0006688137 0.00015017766 0.0005729878
0000e0 ee b4 03 bc cf 2b 2c bc fd 26 db 3a cf f4 4e 3b
       -0.0080387425 -0.010508492 0.0016719993 0.0031579023
0000f0 f4 11 96 bb 63 96 c0 3b 2d 39 9e 3a d5 c5 b3 bb
       -0.004579777 0.0058773025 0.0012071483 -0.00548623
000100 35 f1 96 3c 7b c6 aa bb 2d 43 ca bb 1d 26 7c bc
       0.018425563 -0.005211649 -0.0061725588 -0.015389946
000110 60 ec 25 bc db ea ff bb 75 27 a0 bb 5f 8e ff 3c
       -0.010127157 -0.0078099794 -0.004887516 0.031195818
000120 03 a4 8d 3b a2 ed 5f bc d9 11 a6 3a e6 a4 09 bc
       0.0043225302 -0.013667496 0.0012670114 -0.008401131
000130 b6 da 8b 3b 13 bb 01 bc 62 69 c2 b9 ac 3b 3b 3c
       0.0042680157 -0.007918137 -0.0003708108 0.011427801
000140 9a 85 6f bb e9 38 46 bb b2 29 a7 3a 96 6e d6 bb
       -0.0036548139 -0.0030246323 0.0012753515 -0.0065439446
000150 a1 75 88 ba c4 c3 00 bc d7 7d 7a 3a 90 0a bc b9
       -0.0010411033 -0.007859174 0.0009555495 -0.00035866024
000160 27 fa c4 ba b7 aa c9 3b 8b 03 72 ba 69 34 cd 3b
       -0.0015028164 0.006154384 -0.00092320953 0.0062623513
000170 09 56 0d 3a 16 16 cb 3b 7e e0 22 3d bf 77 5a ba
       0.00053915434 0.006197701 0.039764874 -0.00083338836
000180 44 4b c7 3b 80 f4 07 bb a9 c1 2a 3c db a8 e9 bb
       0.0060819704 -0.0020745099 0.010422149 -0.007130725
000190 d8 46 33 bc de 1a 99 bb 85 35 51 3c f8 03 e1 3b
       -0.010942183 -0.0046723923 0.012769108 0.006866928
0001a0 c1 7e d3 ba 2a 3e cf ba 7f b8 58 b9 d2 2a 23 3c
       -0.0016135798 -0.0015811373 -0.00020668095 0.00995894
0001b0 63 3c 64 bb a2 a4 e6 ba 94 90 38 3c aa 34 53 3c
       -0.0034826032 -0.0017596672 0.011264939 0.012890974
0001c0 2c 28 4d 3b 73 bb a0 38 fc f3 32 3c 7f bc 60 3b
       0.0031304462 7.66431e-05 0.010922428 0.003429204
0001d0 b8 7a da 3c 9d 27 5a ba 34 e2 f6 3c 7c 21 59 3b
       0.026669845 -0.0008321943 0.030137159 0.003313153
0001e0 63 dd 7f bc 93 fe 81 bb dd 17 18 bc 00 ad ec bb
       -0.015616748 -0.003967115 -0.009283033 -0.0072227716
0001f0 01 be fe bb e9 24 d4 3b c9 2b 5e bb c0 d8 29 35
       -0.007774115 0.0064741266 -0.003390061 6.327282e-07
000200 cd 2c 39 3b 06 49 79 bb ed 59 39 bc 8f d5 3d 3c
       0.0028255463 -0.003803791 -0.011312944 0.011586561
000210 f9 b9 b9 bb 7b e3 1c 3c 51 3e 18 bb 2b 64 b4 3a
       -0.0056679216 0.00957572 -0.0023230503 0.0013762763
000220 be 2e e9 3b 30 0e 1f 3b 25 2d 90 3b bc 7c e0 bb
       0.007116168 0.002426993 0.004399913 -0.006850807
000230 e9 a2 05 bc fb 46 40 3a b1 3e e8 bb 11 21 17 3b
       -0.008156517 0.00073347957 -0.0070875515 0.002306048
000240 e0 b8 66 3a e6 d8 d0 bb c4 21 3a bc dd 90 d7 3a
       0.0008801352 -0.0063735126 -0.011360589 0.0016446371
000250 60 1d 5b bc 5a 11 4a 3c 0c 79 3c 3c 02 3d 4d 3c
       -0.013373703 0.0123332385 0.011503469 0.012526752
000260 a0 ba 15 ba be bb 15 bb dc 74 56 bc 8d 8d 2c 3c
       -0.0005711708 -0.0022847499 -0.013089385 0.010531795
000270 31 88 2e bc e8 c1 7b bb 25 28 db b9 e0 a4 87 3c
       -0.010652588 -0.0038415138 -0.00041800845 0.01655811
000280 3e 25 7b 3c 10 8d 38 bc 1a c6 9d 3a 2a 4b 04 bc
       0.015328703 -0.011264101 0.0012037188 -0.008074561
000290 e1 05 13 bc 5a a1 60 bb b7 07 9f ba a8 77 4d bb
       -0.00897357 -0.003427586 -0.0012133037 -0.0031351838
0002a0 52 0c 1c bb 4d d7 95 bb 6d a6 d2 3a 6d 3a a8 3b
       -0.0023811054 -0.004572785 0.0016071327 0.005133918
0002b0 2a 8b c0 3b 66 76 94 bb 73 1c 1b bb 56 1c 1b bc
       0.0058759646 -0.0045307158 -0.002366808 -0.009467205
0002c0 e1 86 95 3b 13 eb a3 3b 4b 2c 0a 3d 1e 4d c5 3a
       0.004563198 0.0050023883 0.033733647 0.001505289
0002d0 45 e8 3e 3c 87 fd 0d bc 97 d4 78 bb 10 8f d9 b8
       0.011652057 -0.008666403 -0.003796851 -0.00010374014
0002e0 7e 1e 46 bb f0 3e a9 ba 72 e5 b6 bb 83 2f 16 3b
       -0.0030230577 -0.0012912434 -0.005581551 0.0022916503
0002f0 d5 7f 13 b9 4d 49 b3 ba 7d 5e a2 b9 0e 33 b3 bb
       -0.00014066634 -0.0013678462 -0.00030969447 -0.0054687327
000300 23 ae e5 bb 29 95 96 3c 7d 10 a1 3c 04 1b b2 3c
       -0.007009284 0.018381672 0.019661183 0.021741398
000310 8d d3 9e 3a 56 95 0b bc ec 56 14 3b b6 d1 b1 3c
       0.001211749 -0.008519491 0.0022634817 0.021706443
000320 bc b3 ac 3c 0f a0 8d 3b e6 28 99 bb 35 e3 c2 3c
       0.021081798 0.004322059 -0.004674065 0.023789981
000330 3b b8 83 bb 7b 4c c3 3a aa 72 dd bb 4c bc c9 3b
       -0.0040197647 0.0014900112 -0.006758054 0.00615648
000340 d9 4a ab 3b 8b 58 30 bc 14 3d be bb 64 b1 b4 3c
       0.0052274284 -0.010763298 -0.005805621 0.022057243
000350 9f e4 1a 3c 51 80 2c bb d4 89 e6 39 be 45 9d 3b
       0.009453922 -0.00263216 0.00043971709 0.0047995737
000360 de 46 41 bc 61 4c 62 bb 33 8d 11 bc 80 64 d5 3a
       -0.011796681 -0.0034530389 -0.008883762 0.0016280562
000370 f1 a9 37 39 3c 28 e4 3a 6e c2 83 bb 45 2f 98 bc
       0.00017515548 0.001740701 -0.0040209806 -0.018577227
000380 e5 ff 6c 3b 22 33 a0 bc 8b 70 0d 3a 05 f8 1f bc
       0.0036163267 -0.019555632 0.00053954934 -0.009763722
000390 bc 14 0d 3c 9c 58 22 3c 1b b0 9d 39 7e 2c 70 bb
       0.0086109005 0.009908821 0.00030076582 -0.0036647613
0003a0 55 a1 a5 bb 89 be fd ba de 94 ac bb 79 37 c1 bb
       -0.0050546327 -0.0019359152 -0.00526677 -0.0058965054
0003b0 45 9d 62 bb 21 fa 42 bb 77 10 1b bc 53 cf 7b bb
       -0.0034578603 -0.002975114 -0.009464375 -0.0038423135
0003c0 14 3c 8d bc bb 43 93 3c 4e 56 08 bb 0d 18 8c bb
       -0.017240562 0.017976632 -0.0020803395 -0.004275328
0003d0 97 8c ee 3b f0 d3 f5 3c f8 34 a7 39 bb 04 e4 3b
       0.007279943 0.030008286 0.00031892187 0.0069585717
0003e0 aa 96 6e 3c 94 70 3d 3b c6 07 b6 3b 0e 6e 5f 3c
       0.014562288 0.0028906213 0.005555126 0.013637079
0003f0 40 94 11 3c 0f c5 a3 bc 66 5a 3b 3b d5 c8 ad bc
       0.008885443 -0.019991426 0.0028587817 -0.021213928

network_body._body_endoder.seq_layers.0.weight f4 [256, 68]
000000 32 2d 58 bd 44 d9 e2 3d eb c7 2b 3d 58 0c c0 bc
       -0.052777477 0.110765964 0.041938704 -0.023443386
000010 be 2f 21 3e 69 7e fe bc f0 c7 91 bd ad ab 6b bd
       0.15740868 -0.031066136 -0.07118213 -0.05753677
000020 92 b6 40 3d dc e8 34 3e 4e 4b 5d bd 47 07 f0 bd
       0.047049113 0.17666954 -0.054026894 -0.11720138
000030 95 7d d1 3d 6c f7 cf 3c 32 e4 b5 be 6e fe 1d 3e
       0.10229031 0.025386535 -0.35525662 0.15429088
000040 0b 7a 29 3c e3 fe 30 3e 04 8a ab bb b7 61 cb bd
       0.010344039 0.17284732 -0.0052349586 -0.09930747
000050 6d 3e 89 bd bf 07 09 be be c2 1f 3c 72 42 68 bd
       -0.0670136 -0.13381861 0.00975102 -0.056703992
000060 09 cd 1e bd da da 75 be 8e b0 89 3d 18 40 78 bd
       -0.038769756 -0.24009266 0.06723128 -0.060608
000070 da 5f 82 3e 60 77 f5 3d 49 c7 6b bd e6 75 09 be
       0.25463754 0.119856596 -0.0575631 -0.13423881
000080 be 34 24 3e 35 a5 42 bd 26 2e 61 be e3 fd f4 3c
       0.16035745 -0.047520835 -0.2199026 0.029906219
000090 93 e4 4e be dd 79 6f bd 3a 5d 2d 3e 41 fb 00 3c
       -0.20204382 -0.058465827 0.16930094 0.007872404
0000a0 2f 3c d8 3c 47 ec 2c 3b 27 1b 04 3d 39 44 3d bd
       0.026395885 0.002638595 0.032252457 -0.04620764
0000b0 11 3d a0 3e b7 e6 1f 3e 30 60 8b bd 39 6f aa bd
       0.3129659 0.15615354 -0.06805456 -0.08321995
0000c0 77 ad 84 bd 58 b5 d5 3d 00 ac c7 bd 3b 8f 84 3d
       -0.06478398 0.10434979 -0.09749603 0.064726315
0000d0 b9 0f 37 bc 88 2f ea 3c 86 f3 7b bd c0 15 99 bd
       -0.011173182 0.028587118 -0.06151154 -0.074748516
0000e0 30 89 2d 3e 42 94 f8 3d 50 73 63 bc df a3 98 3e
       0.16946864 0.12137653 -0.013882473 0.29812524
0000f0 cb 7d e9 bd 7e fa 9e 3d af dc 1d 3e 58 54 a7 3d
       -0.11400946 0.07762621 0.15416215 0.08170384
000100 a1 52 76 bd b0 77 1f 3d 97 07 f7 3d 26 5b 5e 3e
       -0.060137395 0.038932502 0.120619945 0.21714458
000110 9d 85 06 3c 42 43 36 bd ef 35 9b bd aa d6 10 3d
       0.008210567 -0.044497736 -0.075786464 0.03536097
000120 49 8a 8f bd ee 9d 44 3e 88 10 ad 3e 15 90 4c 3d
       -0.07008798 0.1920087 0.33801675 0.049942095
000130 4f 42 51 be 21 02 d3 3e 02 72 cf 3d a3 44 1f be
       -0.20435451 0.41212562 0.10129167 -0.15553527
000140 32 50 39 3e 33 fb 58 3d da 6a 87 be ba bf 50 3b
       0.18096998 0.052973937 -0.2644871 0.003185256
000150 f9 19 25 3e 1e 57 4e 3d 5e a8 06 3b 1b 6d 98 bd
       0.16123189 0.05037605 0.0020547132 -0.07442685
000160 49 60 af 3d aa 4f de 3c 56 61 86 bd 06 a5 b0 bc
       0.08563287 0.027137596 -0.06561534 -0.021563064
000170 7b ba 7e bc 1e 7d 77 bc b8 de 09 be 30 93 e0 bd
       -0.01554739 -0.015105514 -0.13463867 -0.10965574
000180 e0 43 25 3e 74 d0 2b be 0b 36 a8 bd f4 02 70 3d
       0.16139174 -0.16778737 -0.08213433 0.058596566
000190 ea 17 c4 bd 41 12 07 3e c5 fc fb bc da 26 91 bd
       -0.09574874 0.13190557 -0.030760178 -0.070874885
0001a0 99 0b 33 bd 0f db 63 3d 11 2d b6 3b ad 19 4f 3d
       -0.043712232 0.055628832 0.0055595716 0.050561596
0001b0 3e 74 64 bd 15 50 3a 3e e1 7c 82 bc 87 12 82 bc
       -0.05577492 0.18194611 -0.015928688 -0.015877975
0001c0 c8 fc e6 3c 60 0a 7f 3c bf 7f 24 be 55 cf 18 bd
       0.028196707 0.015566438 -0.16064356 -0.037307102
0001d0 78 ec b6 bd 27 9f e3 bd c1 78 16 be a1 e1 33 be
       -0.089318216 -0.1111434 -0.14694501 -0.1756654
0001e0 12 76 47 be be 1a 42 3e bd 0f ae 3d 42 ee 54 3e
       -0.19478634 0.18955514 0.084990956 0.20794013
0001f0 8f a7 ac bc 45 c3 e6 bd 5f 9a cc bd a0 a6 04 be
       -0.021075992 -0.112677135 -0.099903814 -0.12954187
000200 d8 81 b5 3c 2b 1b 04 3d c5 76 45 3c 01 c9 0d bd
       0.02215664 0.032252472 0.012052243 -0.03461552
000210 fe 5c 90 3d 1e 59 88 bd 26 22 cc 3d fc 12 b5 bd
       0.07048987 -0.06657623 0.09967451 -0.088415116
000220 f9 ba 62 bd 15 62 18 be 4b 7e 95 be 6c 5d e2 bd
       -0.055354092 -0.14881165 -0.29197916 -0.11052975
000230 ce aa 19 3e 0d a9 80 bd 76 c2 06 3d fd b7 e0 3d
       0.15006563 -0.06282244 0.032900296 0.10972593
000240 27 98 b2 bd aa a9 dd bd 55 ae 3c be 2e 2c 40 3e
       -0.08720427 -0.108233765 -0.18425877 0.18766853
000250 8f b8 32 3d c7 3e 87 bd ff 44 c3 bd 4c 05 76 3d
       0.04363304 -0.06603771 -0.09534644 0.060063645
000260 29 c2 93 3d 46 c6 6e 3c 4d 9e a2 bd f8 d3 a9 3d
       0.072147675 0.014573639 -0.0794035 0.08292383
000270 d3 e2 48 be bd 7d ce bd 9d 8a 9e 3e 04 43 4b be
       -0.19617777 -0.100825764 0.3096513 -0.19849783
000280 1e e9 14 3d a5 1d e0 39 d1 0b ba 3c ba 51 29 be
       0.03635513 0.00042746696 0.022710713 -0.16535082
000290 38 09 22 3e 79 42 e5 bb 97 0f 43 be 44 8d 48 3d
       0.15823829 -0.0069964495 -0.19048916 0.048962846
0002a0 a1 55 6c 3e 18 dd 62 3c 97 29 e4 ba 36 3b 0b be
       0.2307954 0.013846658 -0.0017407414 -0.13596806
0002b0 f2 34 3e 3c ea eb ae bd 3e 08 ea bd 5c 78 11 be
       0.011609303 -0.08541091 -0.11427353 -0.1420607
0002c0 e0 c4 5f be c1 cd ca 3d 0b 45 5e 3d 5a 35 64 3e
       -0.21852446 0.09902526 0.054265063 0.22285977
0002d0 dc 64 bb bd 7e 13 1a 3e 06 56 fa bd 69 61 dd bd
       -0.09150097 0.15046498 -0.12223439 -0.10809595
0002e0 43 ed 22 bd 77 2b 7e 3d a8 39 84 bd 21 43 bd bd
       -0.03977705 0.06205317 -0.064563096 -0.092413194
0002f0 ab 8d 94 3c a8 85 cf 3d 33 a6 4d bd 19 92 ca 3c
       0.018133959 0.10132915 -0.050207328 0.024727868
000300 f4 73 98 bd e0 3b b7 bd 28 85 fe bd 04 96 4d be
       -0.07443991 -0.08946967 -0.12427741 -0.20076758
000310 81 02 c9 bd 6f c0 f2 bc ba 82 3d 3e 0f 22 04 bd
       -0.09814931 -0.029632775 0.185069 -0.032259043
000320 e5 93 3c 3e f1 74 55 3e 8a 76 f7 3c f9 65 92 3d
       0.18415792 0.20845391 0.030207891 0.07148356
000330 01 64 08 3d 02 1c 0a 3c 16 80 c4 bd 74 5d 3e 3e
       0.033298496 0.008429529 -0.09594743 0.18590337
000340 4a b8 e2 bd e5 ef 24 bc 36 5f 80 bd c7 70 41 3d
       -0.110703066 -0.010066961 -0.0626816 0.047226693
000350 5b 3c 38 3d 9c ef 25 3c 4d d1 13 be f9 23 8c 3d
       0.044979434 0.010127928 -0.1443531 0.06842799
000360 23 43 b7 bc 9e f3 8d 3d e5 8a 7b bd 00 58 01 be
       -0.02237088 0.06931232 -0.061411757 -0.12631226
000370 fe ae 51 be 08 90 76 3d 30 ef 03 be ec d8 92 bd
       -0.2047691 0.060195953 -0.12884212 -0.07170281
000380 33 97 f2 bd 0a 86 21 3c 40 44 dd 3d 54 0e 92 3c
       -0.11845245 0.009858618 0.10804033 0.017829098
000390 57 c5 f4 3c 03 50 2c be 3b e7 12 3e 66 6b b6 bd
       0.029879255 -0.16827397 0.1434602 -0.089072034
0003a0 cf 47 c1 3c ab 97 0c be 4d 5c 2c 3e 38 e9 b5 3b
       0.023593811 -0.13729732 0.16832085 0.0055514835
0003b0 ab f3 b5 3b 36 c6 5c be 2f a5 2a 3e a4 8b e5 bd
       0.005552729 -0.21559986 0.16664575 -0.11208275
0003c0 19 c4 87 bd 2c f7 05 3e f2 7e 35 bd cc a8 0d bd
       -0.066291995 0.1308257 -0.044310518 -0.034584805
0003d0 f8 0d 03 be 47 b7 23 3e da 66 a9 bd 68 26 d9 3d
       -0.12798297 0.15987884 -0.082715705 0.106030285
0003e0 f8 05 b7 bd 6d 7c 7a bd e4 da 8e bb f6 a1 62 ba
       -0.08936685 -0.061153818 -0.00435959 -0.000864535
0003f0 dd b0 95 bd e3 05 02 be e9 e1 80 be 22 78 03 be
       -0.073091246 -0.12697558 -0.25172356 -0.12838796

network_body._body_endoder.seq_layers.2.bias f4 [256]
000000 ba 46 10 bb 66 8b 86 3b 13 9b 46 bc 40 b2 03 3c
       -0.0022014813 0.004105973 -0.0121219335 0.008038104
000010 c8 4f 8f 3a 92 0c 9b 3b 5f 74 ed bb fc 6f 0e bb
       0.0010933811 0.004731723 -0.0072465385 -0.0021734228
000020 6b 50 7a bb 88 6d 77 3c 16 39 2c 3a f8 62 62 3c
       -0.0038194906 0.015101798 0.0006569786 0.013817541
000030 c1 3d ea bb 85 36 23 bc 0e 0e 06 bb c7 76 de bb
       -0.007148475 -0.009961729 -0.0020455155 -0.0067890617
000040 5a 0e 5a 3c 68 58 2c bc 03 be ea bb c8 6b 63 3c
       0.013309086 -0.010519125 -0.0071637644 0.0138806775
000050 3a 23 ed 3b 1d 6b 07 bc d4 41 a9 3b bd 08 15 3b
       0.0072368653 -0.008265284 0.005165318 0.0022740804
000060 51 75 84 bc ac 4e 0e 3c 78 80 d8 bb 00 ec 4a 3c
       -0.016169222 0.008685749 -0.0066071115 0.012385368
000070 db 92 46 3c 47 25 37 bb f0 c2 39 ba 26 38 62 3b
       0.012119974 -0.0027945803 -0.0007086238 0.003451833
000080 a7 0d 2e bc a8 11 43 bc 7f 33 e6 3a bc 18 d4 3b
       -0.010623372 -0.011906065 0.0017562954 0.006472675
000090 85 64 93 3c a8 b2 76 bb dd dd 0d bc b4 c4 4e bc
       0.017992267 -0.0037643109 -0.008658853 -0.01262014
0000a0 69 f5 af 3b 56 a3 38 bb 76 11 ce 3a cc b0 f5 3b
       0.0053698313 -0.0028173528 0.0015721756 0.0074978825
0000b0 c2 2a 9f 3c 11 3d 0c bb f3 5a db bb 67 aa 0b 3d
       0.019429568 -0.0021398703 -0.0066941916 0.034098055
0000c0 7f bb 3b bc 70 41 df ba 8c 4e aa bb 4a 15 a7 3c
       -0.011458277 -0.0017033052 -0.005197352 0.020395894
0000d0 12 31 9b bb 4b 2b 39 3b be bc e8 3a b1 e9 c4 3a
       -0.0047360742 0.0028254564 0.0017756445 0.0015023259
0000e0 53 b2 ae bb 11 17 4a bb a2 b4 13 bb af 9a a7 3a
       -0.0053313165 -0.0030836503 -0.0022538085 0.0012787188
0000f0 2c 07 9a ba 0b 76 c1 3b 59 38 b9 bb b0 dd 54 bb
       -0.0011751405 0.0059039644 -0.005652469 -0.003248077
000100 62 ed e0 bb 72 b7 eb bb b7 54 87 bb d8 9d 04 bc
       -0.0068642357 -0.0071934992 -0.004129972 -0.0080942735
000110 89 f1 05 3b b3 91 66 3b 06 86 69 ba a8 63 88 3c
       0.0020438156 0.0035182058 -0.00089082157 0.016649082
000120 ba 93 87 bb de 7a 06 bc 70 41 91 bc ca fa 1b 39
       -0.0041374834 -0.008208005 -0.017731398 0.00014875378
000130 50 59 e3 bb 09 c3 ec ba c0 8b 32 38 8d a8 8f ba
       -0.006938137 -0.0018063496 4.256866e-05 -0.0010960266
000140 43 c6 8d bb 46 dd 02 b8 e7 54 00 3b 7c 2c 02 3c
       -0.004326613 -3.1200492e-05 0.0019581856 0.007945176
000150 f8 3c ce 3b 94 2a 87 3a 90 96 8c bc 0f c7 7f ba
       0.006293889 0.0010312372 -0.017161638 -0.000975714
000160 ba 63 e1 3b b7 67 32 3b 1b fa 00 3b 96 db d6 3b
       0.0068783434 0.0027222463 0.0019680324 0.0065569384
000170 b9 ff 14 3b 1d f8 e6 3b 7e 39 0c bb 20 5a 01 bb
       0.002273543 0.0070486204 -0.0021396573 -0.0019737557
000180 28 57 19 3a 01 2f 05 bb cf da 1c 3c 49 00 7d bc
       0.0005849474 -0.0020322206 0.009573652 -0.0154419625
000190 7e 83 ce bb 78 e7 b9 bc e2 2d ce bb 12 2a 2b 3c
       -0.006302296 -0.02269338 -0.0062920908 0.010447042
0001a0 dd 73 cb bb 32 0f 35 bc 20 51 51 3c 1a fc 37 bc
       -0.0062088803 -0.011050986 0.012775689 -0.011229539
0001b0 57 40 24 bc 0a 00 2d 3b 2e 20 fb 3b 21 47 8f 3a
       -0.010025105 0.0026397728 0.007663748 0.0010931232
0001c0 aa b3 d9 38 b3 1d 3a 3c 98 47 b1 bb 90 72 d0 bb
       0.000103808314 0.01135962 -0.005410146 -0.006361313
0001d0 9b 7c b2 3c e9 c9 1b 3c dc af c7 3b f9 e2 c3 3b
       0.021787932 0.009508588 0.006093962 0.005977985
0001e0 d4 84 e3 bb 80 3f 87 3a 62 80 39 b9 73 12 f5 3b
       -0.0069433246 0.0010318607 -0.00017690801 0.007479006
0001f0 c6 27 50 3c 4d 17 18 bb e6 dc 38 3b 1b a6 d8 39
       0.012704795 -0.0023207248 0.0028207838 0.0004132249
000200 fb ec a8 39 ec 12 c6 bb a4 97 0e bc 66 57 ed bb
       0.0003222002 -0.006044736 -0.008703146 -0.0072430847
000210 6e ce 15 bc b4 7c a6 bb 4e 58 da 3a df a8 2a 38
       -0.009143455 -0.0050807837 0.0016658397 4.0688432e-05
000220 78 bc 26 bb 98 2d 34 bc 8d b7 78 bb 52 97 c2 bb
       -0.0025441926 -0.0109971985 -0.0037951202 -0.005938449
000230 2b 2d 17 3c 4d 79 3e 3b 72 7a 8e bb bc 73 f0 b6
       0.0092270775 0.0029064 -0.0043480927 -7.1660306e-06
000240 16 08 e7 bb 65 ad bd ba 35 38 36 b9 96 20 c2 3b
       -0.0070505245 -0.0014471231 -0.00017377811 0.0059242947
000250 6e 05 02 bb 5a d1 8b bc b2 40 c6 bb 86 8f 0f 3b
       -0.0019839662 -0.0170676 -0.0060501928 0.0021905615
000260 54 63 43 3c ce 8f 92 bb 89 c4 22 3b 7c c8 87 3a
       0.011925537 -0.0044727093 0.0024836382 0.0010359432
000270 56 43 b1 b8 a2 00 3b 3b 48 30 f8 3b 66 4f 8c bb
       -8.45256e-05 0.0028534313 0.007574115 -0.004281926
000280 9e d7 a6 3a dc b9 9e ba 2e 62 48 ba c9 74 a1 3a
       0.0012729054 -0.0012109834 -0.00076440244 0.001231813
000290 40 e8 6a 3b e1 1a 20 b9 f3 28 82 3c 65 3b fd 3b
       0.0035843998 -0.00015268802 0.015888667 0.0077280276
0002a0 b6 6d ee bb 78 e2 ad 3b 9e a2 49 bc a8 0c 02 3b
       -0.007276262 0.005306538 -0.012306837 0.001984397
0002b0 45 22 bf bb f0 dc 45 bc 97 22 39 3c a9 8c 08 bb
       -0.0058329427 -0.012076601 0.011299751 -0.0020835793
0002c0 04 04 c6 ba 52 73 01 ba 61 a2 07 bc 67 8f 24 b9
       -0.0015107398 -0.00049381435 -0.00827846 -0.0001569368
0002d0 cf 71 07 3b a8 ad e7 bb 46 13 db bb 54 86 b2 bb
       0.00206672 -0.007070262 -0.006685647 -0.005448142
0002e0 8f 58 b4 bb 6d 4f b3 ba 41 85 98 bb f0 9f 00 bc
       -0.005503721 -0.0013680287 -0.004654557 -0.007850632
0002f0 af 8e f5 bb b8 8c f4 3a 0e 69 b3 3b 09 f9 13 3a
       -0.007493816 0.001865766 0.00547517 0.0005644714
000300 aa 44 0d bc 97 5c 05 bc 66 52 8d 3c 5e 77 99 3b
       -0.008622328 -0.008139751 0.017251205 0.004683419
000310 da a5 42 bc ab 0f cb 3b 8a 95 55 bc 13 bb fb bb
       -0.011880362 0.006196936 -0.013036141 -0.007682213
000320 5c 3a 4e ba 1a 1e 08 3c b4 2a bf 3a 5c 51 20 39
       -0.00078669726 0.008307958 0.001458487 0.00015289098
000330 e1 ff de 3b 91 be d7 3a f9 54 11 bc b1 f1 20 bc
       0.0068054055 0.0016459991 -0.008870357 -0.009823249
000340 cc 5e c4 3a 4d b1 65 3a 1b 4f 82 ba ec 7b f6 3a
       0.0014981865 0.00087620766 -0.0009941788 0.0018805242
000350 43 3f 9b ba 1c cd 1f 3a 91 f2 0b bc 52 ff a1 3b
       -0.0011844415 0.00060959323 -0.008541719 0.0049437666
000360 3d b8 f0 ba 08 7d fc 3b 36 04 f3 3a d4 97 25 bb
       -0.0018365454 0.0077053346 0.0018540684 -0.0025267499
000370 41 16 e4 3b ba 45 dd 3b 74 5a 27 bc b7 13 2c 3c
       0.0069606607 0.006752697 -0.010214437 0.010502747
000380 1e 02 bb bb 0e 08 b5 3b 50 7e 21 bc 54 39 1d 3c
       -0.0057070395 0.005524642 -0.009856775 0.009596188
000390 14 9b 36 bc f4 46 4b bc 83 1c 28 bb 54 3e 32 bc
       -0.011145372 -0.012407053 -0.002565176 -0.010879118
0003a0 55 ce ee bb 42 9e 66 3b 04 a5 b4 bb 25 c0 3d bb
       -0.0072877803 0.0035189544 -0.0055128355 -0.0028953638
0003b0 01 49 31 bb a8 34 77 bb 0d 37 ef bb bd 00 63 b8
       -0.002705157 -0.0037720595 -0.0073002637 -5.4121705e-05
0003c0 aa 09 00 bc 96 7e f2 bb e6 72 99 bc cd ac 1c b8
       -0.007814804 -0.007400344 -0.018731546 -3.735423e-05
0003d0 4d 44 21 3c e4 d2 bd 3b 12 ed 1e ba f1 c5 b9 3b
       0.009842944 0.0057929624 -0.0006062548 0.0056693484
0003e0 f0 82 7a ba 6d 30 93 ba 14 c1 85 3b d6 a5 76 bb
       -0.00095562544 -0.0011229642 0.0040818546 -0.0037635467
0003f0 fd 9f 26 bb b9 75 39 bc 14 05 f1 3b 16 3b 60 3b
       -0.002542495 -0.011319571 0.0073553417 0.0034214905

network_body._body_endoder.seq_layers.2.weight f4 [256, 256]
000000 f3 cb 21 3d 38 f6 c6 3c 64 f0 8a bd c1 5b 02 3d
       0.03950114 0.024287328 -0.06784132 0.031825785
000010 ca 17 b6 bc 15 f9 aa 3a 0f 11 1e bd 56 c5 b9 bc
       -0.02222814 0.0013044203 -0.038590487 -0.022677105
000020 c8 a3 75 bb fd 1e fd 3c 88 f9 e5 3b d8 c7 c8 bd
       -0.0037481654 0.030898565 0.007018272 -0.09803742
000030 1f 5f a9 bd 1b 9b 80 3d fd 77 59 bd 5a e1 ba bc
       -0.08270096 0.06279584 -0.053092945 -0.022812534
000040 52 ae 8f 3d 82 6e da 3c d3 30 fa 3c 16 27 4c 3c
       0.07015671 0.026664022 0.03054086 0.012460491
000050 ce 66 8f 3c d1 f2 8a 3d ba 09 a3 3c b5 c2 91 3c
       0.017505076 0.06784595 0.019902099 0.017793039
000060 9b 6d ab 3b ad e7 e6 3c 60 19 37 bd fb 12 df bc
       0.005231572 0.028186643 -0.044701934 -0.02723073
000070 3e a7 3d 3d 85 ef 4d bd 45 dc 54 39 57 66 97 bc
       0.046302073 -0.05027725 0.00020299952 -0.018481417
000080 30 98 c8 3c 32 52 5f 3c 59 8a 94 bc b9 46 4d bd
       0.024486631 0.013630437 -0.018132376 -0.050116275
000090 fd 33 db 3c 6c 54 49 bd 6d 78 02 3e e1 bf 95 bc
       0.026758188 -0.049152777 0.12741251 -0.018279972
0000a0 64 03 30 bc 57 09 d4 3c af 57 bf bd dd cd 02 3e
       -0.010742996 0.02588336 -0.09342896 0.12773843
0000b0 8c 14 9e 3d b2 15 6d bd 37 05 d3 3d c7 da be 3d
       0.07718763 -0.05788202 0.10303729 0.09319072
0000c0 09 22 a1 bd e9 b8 98 bc 6e ce 89 3c 50 ab 62 3d
       -0.0786782 -0.01864286 0.016822066 0.055339158
0000d0 87 39 30 bd ff d4 03 be ed 8e 5b 3d 40 d5 18 3e
       -0.043023612 -0.1287422 0.0536031 0.14925098
0000e0 e9 53 81 bd c2 3c a0 bc ef a1 8b bd 02 8f 54 3d
       -0.06314833 -0.019560222 -0.06817996 0.051894195
0000f0 22 0f cd bd 71 e1 c7 3b e8 b8 16 bd 69 ae 32 3e
       -0.10012652 0.0060998728 -0.036797434 0.17449345
000100 77 80 67 3d d8 cb 2b be 86 9b 80 bd 14 44 20 bd
       0.056518998 -0.16776979 -0.06279664 -0.039127424
000110 a4 e1 79 3d d0 4a eb 3c 64 39 a7 3c 12 f7 e3 bc
       0.061006203 0.028722197 0.020413108 -0.027827773
000120 b6 9c ab 3d a0 74 92 bd 1c 29 03 3e 91 92 41 be
       0.083794996 -0.07151151 0.1280865 -0.18903567
000130 0d c1 4b 3c ed 41 dd bd a8 80 e8 bc 7f 21 8f 3d
       0.012436164 -0.1080359 -0.02838166 0.06988811
000140 c1 b7 ec 3c cf 45 ee 3c 38 10 59 3d c4 43 a5 bd
       0.028896214 0.029086022 0.052993983 -0.08069566
000150 b1 17 88 bb da e7 96 bd 13 ca 8d bc d4 ca ad bd
       -0.004153215 -0.07368441 -0.01730827 -0.08485952
000160 cd a8 91 3d f5 17 49 3d 26 cb 9e bd 3e 76 f9 bb
       0.07112274 0.049095113 -0.07753591 -0.0076129725
000170 54 12 b8 bc d1 9b 67 3d 38 47 55 3c 03 87 d0 bd
       -0.022469677 0.056545082 0.013017468 -0.101820014
000180 0a 17 3e 3d 1a 19 42 3d fc 7b fd 3c e2 41 a0 bd
       0.04640869 0.04738722 0.03094291 -0.07825066
000190 2c 17 5e 3d 44 e7 13 3d 77 b1 00 3c 31 5f fb 3c
       0.054221317 0.036109224 0.007854811 0.03068504
0001a0 c6 78 ed 3d 22 78 47 bd 5c 30 fb bd 62 8c 2b bc
       0.11595301 -0.048698552 -0.12265083 -0.010470482
0001b0 00 19 21 bd e4 ec b4 bc 55 91 ff 3c 20 bc 5b 3d
       -0.039330482 -0.022085615 0.03119723 0.053646207
0001c0 cb ff ef 3c 03 c7 09 3d 6e db 5d bd 91 38 ae 3d
       0.029296776 0.033637058 -0.054164343 0.08506883
0001d0 99 6f 05 bd a9 50 02 3e 5f 54 60 3d 6f fe 1b bc
       -0.03257713 0.12726082 0.054767963 -0.009521111
0001e0 20 bc 23 3e e5 83 ea 3d f9 fe 83 3d 3e 46 2d 3e
       0.15989733 0.11450938 0.064451165 0.16921327
0001f0 33 8a 27 bd e9 c9 81 3c f9 1a b1 3c c5 04 54 3c
       -0.04090328 0.015843349 0.021619307 0.01294059
000200 65 40 f0 bc dc 74 4d bd 9c a1 03 3d 97 b1 8f bc
       -0.02932758 -0.050160274 0.032136545 -0.017540736
000210 a7 64 9e bd 75 25 4b bc dd df 9a bc 1e 3b 36 3d
       -0.07734042 -0.012399067 -0.018905574 0.044489972
000220 bf 91 e3 bd 55 d6 0c bd 4d ae b5 3c f5 6f 25 bc
       -0.11111783 -0.03438409 0.02217784 -0.010097493
000230 ab f6 68 bb 63 ed 22 bd 9b 3e 43 3d 3a c2 15 bd
       -0.0035547416 -0.03977717 0.047667127 -0.036562182
000240 4c 67 95 3d d2 b7 10 3c 47 40 31 3d dc 46 93 3c
       0.07295093 0.008832889 0.04327419 0.017978124
000250 e4 3c d6 3c 9e d3 0e be 60 50 24 bd 35 f5 e8 3a
       0.026152082 -0.13947913 -0.040115714 0.0017773273
000260 63 87 37 bc 29 70 c1 3d 36 73 c6 bc b4 56 34 bd
       -0.011201712 0.09445221 -0.024224859 -0.044028
000270 6d 8d af 3d 99 15 3e bd 0f 22 57 3d 15 f1 b8 bd
       0.08571897 -0.046407316 0.052522715 -0.09030358
000280 e4 4c 4b 3a ef 5d 81 bd 0c 74 13 3d 02 f4 e0 bd
       0.0007755293 -0.063167445 0.035999343 -0.10984041
000290 a9 64 d9 bc dd 70 90 3c 20 4a ee bc 14 9e 4f bd
       -0.026537256 0.017631942 -0.02908808 -0.050687864
0002a0 2a aa 88 3d 27 58 25 3d bc e6 8d bc 34 4b a8 3d
       0.06673081 0.04036727 -0.017321937 0.08217469
0002b0 3d 99 c9 bd 95 4e 6c bb 79 e1 ef bc c6 8b 42 3d
       -0.09843681 -0.003605758 -0.029282318 0.04749658
0002c0 63 a7 17 3d de 27 ab bd d0 34 24 3d 2a 82 02 bc
       0.037024867 -0.083572134 0.04008943 -0.007965604
0002d0 29 72 46 3d 81 fd 29 3d 4d a0 ba 3c 57 89 c8 3d
       0.048448715 0.041501526 0.022781515 0.097918205
0002e0 c2 a8 19 bc 9b 0e 43 bd 03 cb 96 3d a0 bd 05 3d
       -0.009378614 -0.04762135 0.0736294 0.032651544
0002f0 6c ae 2a 3e 87 af fc bd c5 8f ba 3d 74 a1 63 bd
       0.16668099 -0.12338167 0.09109453 -0.055573896
000300 50 eb 86 3b c9 d8 40 3a c2 c0 39 bd 66 c7 03 bd
       0.004117407 0.0007356522 -0.045349844 -0.032172583
000310 17 e0 ab bd b4 da 4d bd 26 23 3f 3d b0 55 a0 bc
       -0.08392351 -0.0502574 0.04666438 -0.019572109
000320 a6 fe b5 3d 10 92 89 3c f4 14 47 3d 3b be 2e be
       0.08886461 0.01679328 0.048603967 -0.17064755
000330 e4 77 96 3b 57 8d 80 3c 6a 5f ac bc a3 5f 16 bc
       0.004591929 0.015692396 -0.02104159 -0.009178075
000340 42 e1 cb 3c 99 78 bc 3c c7 af 87 bb 40 78 6c 3c
       0.024887685 0.023006724 -0.0041408273 0.014432967
000350 21 64 a3 3d f6 3b e1 3c 4c 09 a3 bd 34 bd bd 3c
       0.079780824 0.027494412 -0.079607576 0.023161508
000360 d8 fb 05 bd 80 32 ae 3d 6a 24 a4 3c 18 94 4e 3d
       -0.03271088 0.08505726 0.020036895 0.050434202
000370 a8 0e b5 bd 8f d7 b1 bd db c8 bb 3d 64 09 d2 bd
       -0.08840686 -0.08683693 0.091691695 -0.10255697
000380 98 30 46 be f2 45 e6 bc c9 0b 20 3b de a6 f5 3d
       -0.19354475 -0.028109524 0.0024421087 0.11994718
000390 8e 55 90 3d a5 ea 0a 3c 59 20 bc 3d d0 0a 36 bd
       0.07047568 0.008478795 0.09185857 -0.044443905
0003a0 f0 b8 33 bd 76 16 dc bc 8a 1e 94 bd 27 72 07 3c
       -0.043877542 -0.026866179 -0.07232387 0.008266962
0003b0 21 c8 ec bd 7a f2 44 3d 7a 2e 03 3d a3 d6 c4 3c
       -0.11561609 0.048082806 0.032026745 0.024028128
0003c0 18 e7 b5 bc e2 7b a9 bd f8 7e 35 3c bd 70 05 bd
       -0.02220492 -0.08275582 0.011077635 -0.03257822
0003d0 8b 95 ea bc d2 aa d8 3d 9d 56 a0 3c 87 55 23 bd
       -0.02863576 0.105794564 0.01957255 -0.039876487
0003e0 4d e9 f4 bc f2 35 4b bd 00 5a eb bc 0a 7d ff 3c
       -0.029896403 -0.049611993 -0.028729439 0.031187553
0003f0 8b 2e c9 3c 55 0e d8 3b 94 c5 ad bd 68 89 32 3e
       0.024558326 0.0065935054 -0.08484951 0.17435229

network_body._body_endoder.seq_layers.4.bias f4 [256]
000000 c6 8a 54 bc 3b 5b 69 bb 0a e6 98 3b e1 10 0c bc
       -0.012972539 -0.0035607356 0.0046660947 -0.008548946
000010 ba ee 41 3c 8a 54 f3 3b 73 86 14 3b f8 e9 04 3c
       0.011836702 0.0074258493 0.0022663146 0.008112423
000020 0a 88 b4 ba a4 57 87 3c 99 ae da bb 0e 18 14 3c
       -0.0013773453 0.016521282 -0.0066736457 0.009038938
000030 fb 62 8e bc 6d 7f 99 3b f4 7d de 38 45 b6 0a 3a
       -0.017381182 0.00468438 0.000106092455 0.00052914425
000040 3e 1d 00 bc 05 1f 38 bc 56 ce b1 bb d4 e4 11 bb
       -0.007819472 -0.011237864 -0.0054262085 -0.0022261636
000050 f2 f4 bb bb 37 17 6e 3c 3b 88 bf bb cd 4a 63 3b
       -0.005735987 0.014531902 -0.0058450974 0.0034682036
000060 41 5d ba ba c2 77 30 bc 41 dd 1a bc 07 92 f5 3b
       -0.0014218466 -0.01077074 -0.009452165 0.0074942145
000070 cf 3b 04 3c e7 b8 e2 3c 2e 2b 05 3c 75 fc 2d 3b
       0.0080709 0.027676059 0.008127971 0.0026548181
000080 91 3c 18 3c 94 9f b0 3b f4 6f b2 3b 97 9c 52 bb
       0.009291784 0.005390117 0.0054454748 -0.0032136792
000090 cf 35 ad 3b 26 28 9f bb cd be d0 3b 39 fd 76 3a
       0.0052859555 -0.004857081 0.0063704015 0.00094218884
0000a0 6e 64 7a bc 96 ca 8c bc a7 0d b4 bb 6d 81 35 3c
       -0.015282733 -0.017186444 -0.0054947915 0.011078221
0000b0 33 03 7f 3c 3d 37 26 bc 68 19 a0 bb 47 0a eb bc
       0.015564728 -0.010145006 -0.004885841 -0.028691424
0000c0 16 c3 ee 3b 6c d1 90 3b 5a 9d b4 3b 49 6f 53 bb
       0.0072864396 0.0044194963 0.005511922 -0.0032262376
0000d0 b5 51 1b 3c 24 9d 8e 3a ff d9 02 bc f3 40 cd 3b
       0.00947993 0.0010880572 -0.007986545 0.006263846
0000e0 c6 f6 25 3b d0 17 82 bb ce 2f 2f 3c 5c 1c e7 3b
       0.002532409 -0.003970124 0.01069255 0.0070529412
0000f0 dd 01 eb 3c 9f 55 c9 ba 3b 5c a9 bb 33 8f b0 bb
       0.028687412 -0.00153606 -0.0051684654 -0.0053881644
000100 2d 25 17 3c eb 1d d7 ba 0b fd ff 3a 83 db 1c 3c
       0.009225172 -0.0016412114 0.0019530369 0.00957382
000110 6c 6f be ba a7 f0 70 39 9b ef 87 3c ef be 05 bc
       -0.0014529056 0.00022977834 0.016593745 -0.008163198
000120 f0 c3 51 bc 9d 28 b1 39 ea 50 aa 3a 12 37 47 bc
       -0.012803063 0.0003379033 0.0012994085 -0.012159126
000130 b7 50 f4 3b fd 38 88 bc 17 6b 1f 3c 47 92 c2 3b
       0.007455911 -0.016628737 0.009730122 0.005937848
000140 91 34 62 bc d9 ae 76 bc ba 7e 0a bb 18 7a b9 bb
       -0.013806478 -0.015056335 -0.0021132664 -0.0056603067
000150 fc d3 58 3b 59 75 1c bc ba 24 84 3c 05 a3 1b 3c
       0.0033085337 -0.009549462 0.016130794 0.009499316
000160 ee 7a 95 bb 12 a5 ab 3c ad 17 7a bb 77 6c cc bb
       -0.0045617735 0.020952735 -0.0038161085 -0.006238516
000170 64 62 fb 3a b3 30 3c bc 27 d8 13 3c 48 03 01 3c
       0.0019179103 -0.01148622 0.009023703 0.0078743175
000180 dc 5d b4 3c 8c 35 16 bb 55 6f d2 3a 07 89 ac bb
       0.022017412 -0.00229201 0.0016054908 -0.0052653584
000190 00 7e b7 bb d8 03 2a 3c 39 38 cf bb 26 ae b1 3b
       -0.005599737 0.010376893 -0.006323841 0.0054223714
0001a0 2d 51 4d bc 9f 5d 94 3a 04 c0 56 bb 1e d0 2e bc
       -0.012531561 0.0011319405 -0.0032768259 -0.010669736
0001b0 84 d8 ad bc 03 aa 14 bc fb 7e 63 bb 0c e7 e9 bb
       -0.021221407 -0.009073737 -0.0034713137 -0.0071381386
0001c0 7e 24 13 bc 7f 45 2b 3c a4 eb 3d 3c 34 e3 f3 3b
       -0.008980868 0.010453581 0.011591826 0.007442856
0001d0 1a 49 53 3c df 90 04 3c d1 c8 c1 bb 85 76 b0 3a
       0.012895847 0.008091181 -0.0059138318 0.0013463056
0001e0 23 4c b5 ba 47 8d c9 3c 5a 75 ec 3a 93 20 b1 3c
       -0.0013831895 0.0246035 0.0018040345 0.021621978
0001f0 c6 30 08 3c c7 3c e7 bb 6e 3a 78 bc d5 37 92 3b
       0.00831241 -0.007056806 -0.0151506495 0.004462222
000200 50 c0 05 bc 6d e4 1d bc c8 3c 14 3c 9e a4 56 3a
       -0.008163527 -0.0096369805 0.0090476945 0.0008187982
000210 a5 1c 7a 3c 3d 9f 50 bb 87 3f 10 bc bb 31 e2 bb
       0.015265618 -0.0031833195 -0.008804209 -0.006902901
000220 1a 02 39 bc da 7e fa 3b 4a 18 a0 bb e3 4e 3e bb
       -0.011292005 0.0076445164 -0.004885708 -0.002903872
000230 00 5a aa 3c f7 32 13 bb f7 00 0d 3c 4b 81 26 3c
       0.020794868 -0.0022460797 0.008606187 0.010162662
000240 62 b1 f8 3a 61 33 18 bc e7 38 38 bc 56 90 70 bb
       0.0018973763 -0.009289593 -0.011244035 -0.0036707125
000250 14 8d b1 3b ef 3a b5 bb f6 2e 78 3b cd 87 da bb
       0.005418429 -0.005530707 0.0037869788 -0.0066690207
000260 49 d5 ad 3b 3e c0 bf bb d9 7c 85 bb 8f b6 8b 3c
       0.0053049666 -0.0058517745 -0.004073721 0.017054824
000270 62 96 a2 bb e1 60 08 bc d4 70 93 bb 41 da 14 3b
       -0.0049617747 -0.008323879 -0.004499534 0.0022713097
000280 c1 15 63 bc 5e a5 a3 ba d6 54 39 3b 70 07 87 3b
       -0.013860167 -0.0012485196 0.0028279326 0.0041207597
000290 fe 75 e4 3b 2f bc 82 bb 0e 2b 6b 3a cb d3 b5 bb
       0.0069720736 -0.0039897184 0.0008970954 -0.0055489293
0002a0 66 86 f4 3b 90 2c a9 3b 8e 5b bc 3c b8 55 50 bc
       0.0074623106 0.005162783 0.022992875 -0.012715749
0002b0 b3 28 73 ba 5d 81 53 bb eb c0 2a bc aa ed 20 bc
       -0.0009275779 -0.0032273151 -0.010421972 -0.0098222885
0002c0 a9 1a 40 bc 05 2d 87 bc 7e a0 05 ba c2 c9 84 3b
       -0.011725106 -0.01650096 -0.00050974626 0.0040523717
0002d0 d0 0c e3 3b 02 4b 07 3c e1 ce 66 3b 22 d4 3a 3c
       0.0069290176 0.008257629 0.0035218524 0.0114031155
0002e0 c4 96 fa 3c 57 02 d6 3b a2 d9 05 bc 6c 42 85 bb
       0.030589469 0.0065310406 -0.0081695635 -0.004066756
0002f0 52 3b 5d 3b f4 e4 25 3b 77 0e d8 3b c8 af 33 3c
       0.0033757281 0.0025313469 0.006593521 0.0109672025
000300 ce 31 32 bb 40 6b 42 3c 79 33 eb 3a 26 b0 f5 bb
       -0.002719033 0.011866391 0.0017944417 -0.007497805
000310 5d e0 36 bc d7 d3 10 3b 33 b3 03 3c 5e dc 5b bc
       -0.011161891 0.0022098923 0.00803833 -0.013419239
000320 8c 6b 8b 3b 3f 3f 42 bb 6d ba 65 3b a1 30 96 3a
       0.004254764 -0.0029639748 0.0035053745 0.0011458584
000330 00 94 bd bb 1c dd 4f bc d7 5e 5d b9 1f a1 1d 3c
       -0.0057854652 -0.012686994 -0.00021111533 0.009620934
000340 af 6b 78 bc 57 b2 e7 3b 07 76 e9 3a 15 de 28 bc
       -0.0151623925 0.0070708203 0.0017811664 -0.010306855
000350 f2 eb 87 3b a4 a6 95 bb 67 6b 6f bc 67 b9 1e bc
       0.004148 -0.0045669843 -0.014613009 -0.009687758
000360 2a d2 14 3a 3c 1a 7e 3b e4 8a a1 3b fc ec 03 bc
       0.0005677069 0.003877296 0.004929887 -0.008052107
000370 6a 82 67 3b aa 21 52 bb 75 5a ae ba 98 63 84 bb
       0.0035325536 -0.0032063522 -0.0013302105 -0.004040193
000380 ac 82 ad bb 63 eb b2 3b ff 5b 72 bb ae 46 85 3c
       -0.0052951183 0.005460189 -0.0036981103 0.016269054
000390 7c 46 e0 3b f5 7c 1a 3c 5f 64 79 3c bc 0d 9b 3a
       0.00684434 0.009429206 0.015221684 0.0011829655
0003a0 2f db b6 3a 56 33 a9 bb 1d c3 99 3c fb 57 48 3c
       0.001395082 -0.0051635904 0.018769795 0.012228007
0003b0 93 33 50 bc ec dc c6 3b 14 0b 13 3b 54 77 f6 3b
       -0.012707609 0.0060688164 0.0022437023 0.0075215492
0003c0 e8 97 ad ba f9 b5 94 bb 1e 7d 84 bc 21 d1 b7 bb
       -0.0013244124 -0.0045382944 -0.016172942 -0.005609647
0003d0 00 47 82 3c b4 51 be 3b 93 88 e6 bb 5c 54 c3 3b
       0.015902996 0.0058080796 -0.007035324 0.005960984
0003e0 fb c1 c9 3b 77 f8 2c 3a bb 63 75 bb 38 6b e3 bb
       0.0061571575 0.00065983034 -0.0037443477 -0.0069402717
0003f0 e2 ee 75 bc 3f f7 da 3b 3d 43 84 3b ae 40 67 bb
       -0.015010567 0.006682306 0.0040363357 -0.0035286355
