Assets/Training/results/track3_learned/config_track4/config_track4-2038711.onnx (onnx, 600385 bytes, 9 tensors)

action_model._continuous_distribution.log_sigma f4 [1, 2]
0	0xbebdb525	-0.37052265
1	0xbf544998	-0.82924795

action_model._continuous_distribution.mu.bias f4 [2]
0	0x3cec3228	0.02883251
1	0x3c23f60d	0.010007394

action_model._continuous_distribution.mu.weight f4 [2, 256]
0	0x37d9d874	2.596921e-05
1	0xbd2a8692	-0.041632243
2	0xba5b64e3	-0.00083692203
3	0xb9bf5805	-0.0003649594
4	0xbcb8c140	-0.022553086
5	0x3d250fb2	0.04029817
6	0xbd027867	-0.031853106
7	0xbd0d419f	-0.03448641
8	0xbd2f6e19	-0.042829607
9	0xbd2371f2	-0.03990359
10	0x3caee49f	0.02134925
11	0xbd2e218d	-0.042512465
12	0xbc4bef60	-0.012447208
13	0x3cf70e9b	0.030158332
14	0xbd2f1ce2	-0.042752154
15	0xbd415105	-0.047196407
16	0x3d1d0d4f	0.03834277
17	0xbcbf70ff	-0.02336931
18	0xbd2629ab	-0.04056708
19	0x3ce78726	0.028262686
20	0x3d0d630e	0.034518294
21	0xbd02ab61	-0.03190172
22	0xbcb5fd97	-0.022215648
23	0x3ce27365	0.027642915
24	0xbd06ba6f	-0.03289264
25	0xbca9b3d5	-0.020715633
26	0xbcc39d93	-0.023878848
27	0xbd4b4785	-0.049628753
28	0xbcb72271	-0.02235529
29	0x3cc12d05	0.023581037
30	0xbd198cd5	-0.037487824
31	0xbcf4b596	-0.029871743
32	0xbd3d84c9	-0.046269212
33	0x3c0a55ef	0.00844334
34	0x3c2a6894	0.01040091
35	0x3cabe75a	0.02098434
36	0x3be50f25	0.0069903308
37	0x3a4d9dd7	0.00078436494
38	0x3bb20369	0.0054325354
39	0xbc1d030c	-0.009583246
40	0xbcf1d5d7	-0.029520912
41	0xbcfc8d53	-0.030829107
42	0x3a889fbf	0.0010423585
43	0xbcedacea	-0.029013116
44	0xbda35146	-0.07974486
45	0xbce5e790	-0.02806452
46	0xbb138cf8	-0.0022514444
47	0x3bc341db	0.0059587783
48	0x3cc1a718	0.023639247
49	0x3d235d2c	0.039883777
50	0xbcb79c5b	-0.022413423
51	0xbcd3614a	-0.025803227
52	0x3c7526b0	0.014962837
53	0x3ca39903	0.019970423
54	0xbd3238ce	-0.043511204
55	0xbd05c2f0	-0.03265661
56	0xbcd75d8e	-0.026289728
57	0xbd4598bc	-0.048241362
58	0xbcf9366c	-0.030421458
59	0xbd41fba9	-0.047359142
60	0x3cf181df	0.029480873
61	0x3cd108b5	0.025516847
62	0xbb7577cd	-0.003745544
63	0xbd28aab9	-0.04117844
64	0xbcdc4b4e	-0.026891377
65	0xbbe544e4	-0.006996738
66	0xbcf969e9	-0.03044601
67	0x3d15ab71	0.036540452
68	0xbce2af09	-0.027671354
69	0xbc7d0ceb	-0.015444974
70	0xbd166bde	-0.036723964
71	0x3cee7e92	0.029113088
72	0xbd4fc0c4	-0.050720945
73	0xbc1654a7	-0.009175456
74	0x3a9da155	0.001202623
75	0xbd4963ae	-0.049167328
76	0x3cf31457	0.029672785
77	0xbceb3946	-0.028713834
78	0xbd243bef	-0.04009622
79	0xbce1f635	-0.027583221
80	0xbcc0584c	-0.023479603
81	0xbce444a3	-0.02786476
82	0xbd502081	-0.05081225
83	0xbb9a618d	-0.004711336
84	0x3d1823f7	0.037143674
85	0x3bfd495e	0.0077296933
86	0x3d394f81	0.045241836
87	0xbbe11419	-0.006868851
88	0xbd1952e1	-0.037432555
89	0x3cd63686	0.026149046
90	0xbd106ab7	-0.03525802
91	0xbd05454f	-0.0325368
92	0xbc4b9bee	-0.012427313
93	0xbd00749a	-0.0313612
94	0xbcdc3173	-0.026879048
95	0xbc7646ef	-0.01503156
96	0x3b0d33fb	0.0021545875
97	0xbba66c4b	-0.0050788275
98	0x3d25bebf	0.040465113
99	0x3cba5c47	0.02274908
100	0xbce06456	-0.027391594
101	0xbd4ebb25	-0.050471444
102	0xbcaa2e8a	-0.020774145
103	0xbc570fa1	-0.013126285
104	0xbd2c7606	-0.042104743
105	0xbb6c72e5	-0.0036079225
106	0x3d674632	0.056463428
107	0xbcb10819	-0.021610307
108	0x3c558a14	0.013033409
109	0x3c13ad49	0.009013482
110	0xbd4a7ca8	-0.049435288
111	0xbd057e71	-0.032591287
112	0xbc8542da	-0.016267229
113	0x3a0af2ab	0.00053004426
114	0xbca385d5	-0.019961277
115	0xbcd03b05	-0.025418768
116	0x3c35f823	0.011106524
117	0x3c80b649	0.01571192
118	0x3c4e273c	0.012582596
119	0xbd2caae6	-0.04215517
120	0x3c71a53e	0.014748869
121	0xbd8abfbe	-0.06774853
122	0x3c5a095f	0.013307898
123	0xbd3023a3	-0.043002736
124	0x3b32ba2e	0.0027271616
125	0xbcd34d6a	-0.02579375
126	0xbcd4ffed	-0.026000941
127	0xbd07a222	-0.033113606
128	0x3c17f369	0.009274342
129	0x3cc660be	0.024216052
130	0xbc5e38e1	-0.013563366
131	0xbd037547	-0.032094266
132	0x3c83e35c	0.016099624
133	0xbd2a7cae	-0.04162281
134	0xbd6e4c53	-0.058178257
135	0xba60901d	-0.00085663964
136	0x3cde10ac	0.02710756
137	0xbc14c302	-0.009079697
138	0x3d4367fc	0.04770659
139	0x39ab31b5	0.00032652696
140	0xbce44718	-0.027865931
141	0xbcf86300	-0.030320644
142	0xbd171fdc	-0.036895618
143	0xbcfd3022	-0.03090674
144	0xbd38cfcd	-0.04512005
145	0xbbb76a4d	-0.005597389
146	0x3ac9d68d	0.0015399024
147	0xbc31e99e	-0.010858921
148	0x3c58b574	0.013226856
149	0x3d013105	0.03154089
150	0xbd00bcbb	-0.031429987
151	0xbd1a1ded	-0.037626196
152	0xba9d3cdf	-0.001199629
153	0x3cb5b2ff	0.022180079
154	0xbd4f4f69	-0.05061284
155	0xbd06edd8	-0.03294167
156	0xbcfa8b13	-0.030583894
157	0xbd2f442a	-0.042789616
158	0xbc6e2e0f	-0.014537348
159	0x39f81efd	0.00047325334
160	0xbd39fffd	-0.045410145
161	0xbc9c5882	-0.019085173
162	0xbce72bf8	-0.028219208
163	0xbb89a127	-0.004200119
164	0x3b77d805	0.0037817967
165	0x3cfbe6f1	0.03074977
166	0xbc92c026	-0.01791389
167	0x3cd938eb	0.026516398
168	0x3c6ba762	0.014383169
169	0xbc3a5f6f	-0.011375292
170	0x3ca44770	0.020053595
171	0x3c80da79	0.015729176
172	0xbcd222b0	-0.025651306
173	0xbd2bd3c0	-0.041949987
174	0xbc941383	-0.01807571
175	0xbd0357a7	-0.032066014
176	0xbd2415cf	-0.04005986
177	0x3c62f1a1	0.013851554
178	0x3cd85908	0.02640964
179	0xbcc29986	-0.023754846
180	0x3c98adb6	0.01863752
181	0xbcb7d95f	-0.022442518
182	0x3a198043	0.00058555993
183	0xba6a1ddf	-0.0008930843
184	0x3a941ac1	0.0011299477
185	0xbca36186	-0.019943964
186	0x3d2d9bca	0.0423849
187	0x3ca91955	0.020641962
188	0x3c719401	0.01474476
189	0xbd29df73	-0.041472863
190	0xbd0b5f7a	-0.0340266
191	0xbbad6ab4	-0.005292261
192	0x3cbcb895	0.023037234
193	0xbd1bf60e	-0.038076453
194	0xbd57e1da	-0.052705623
195	0x3cef532c	0.029214464
196	0xbcdf78f5	-0.027279356
197	0x3bd666b1	0.0065430035
198	0xbcfd4472	-0.030916426
199	0xbd11058f	-0.03540569
200	0xbcf2df34	-0.029647447
201	0xbc25c92b	-0.010118763
202	0xbd2a61af	-0.041597065
203	0xbcbb3f2d	-0.022857273
204	0xbaa49c3d	-0.001255877
205	0xbd762014	-0.060089186
206	0xbd28ab02	-0.04117871
207	0xbd064df7	-0.032789197
208	0xbae5923b	-0.0017514894
209	0xbc9ff920	-0.019527972
210	0xbd1609d7	-0.036630478
211	0x3d00dab1	0.03145856
212	0xbcc6ebb6	-0.024282318
213	0xbc8f38ee	-0.0174832
214	0x3cdf775a	0.027278591
215	0xbd01bb90	-0.031673014
216	0x3ce766df	0.028247295
217	0xbd12ab2d	-0.035807777
218	0xbd49169b	-0.049093824
219	0xbd03ea51	-0.032205883
220	0x399d825c	0.000300425
221	0xbca2c39b	-0.019868663
222	0xbb8928e6	-0.0041857837
223	0xbce21ce2	-0.027601663
224	0xbcf44c44	-0.029821523
225	0xba7c05f8	-0.00096139265
226	0xbd5c8ec1	-0.05384708
227	0xbd3c0f90	-0.04591328
228	0x3d40656e	0.04697173
229	0xb9ba342a	-0.0003551555
230	0xbbf3d5f7	-0.007441278
231	0x3c2c6860	0.010522932
232	0xbc98caa4	-0.018651314
233	0xbd06e8f3	-0.032937
234	0xbc655405	-0.013997083
235	0x3c56ea5f	0.013117402
236	0xbcafb3e4	-0.021448083
237	0xbb96e23f	-0.0046046074
238	0x3cc39ee4	0.023879476
239	0xba3cb2ac	-0.0007198255
240	0xbcdfc28d	-0.027314449
241	0xbcb8f326	-0.02257688
242	0x3cc9455c	0.024569206
243	0x3ca2c183	0.019867664
244	0xbcba1c33	-0.022718525
245	0x3cea0937	0.028568847
246	0xbcce2bf4	-0.025167443
247	0x3bc2a895	0.0059405067
248	0x3c6f62b2	0.014610933
249	0xbc667efc	-0.014068361
250	0xbd4fee3d	-0.05076431
251	0xbd111f45	-0.03543021
252	0xbd3ba12e	-0.04580801
253	0xbd39d346	-0.0453675
254	0x3c4bb4d6	0.012433251
255	0xbbea3d9e	-0.0071484586

network_body._body_endoder.seq_layers.0.bias f4 [256]
0	0xbcb10d2f	-0.021612732
1	0xbd1aaad5	-0.037760574
2	0x3cd006e8	0.025393918
3	0xbc4a2a62	-0.012339206
4	0x3a062393	0.00051169953
5	0xbcc0bb01	-0.02352667
6	0x3c9cb027	0.019126965
7	0x3cc9b420	0.024622023
8	0x3d0947a8	0.033515602
9	0x3ce6581a	0.028118182
10	0x3c209840	0.009801924
11	0xbba01870	-0.0048857257
12	0x3cb5278f	0.02211359
13	0xbd006aba	-0.031351782
14	0xbb0745c2	-0.0020640944
15	0x3d55560f	0.052084025
16	0xbca47849	-0.020076888
17	0x3d0270d4	0.031845883
18	0x3c395caa	0.011313597
19	0x3d279aff	0.0409193
20	0x3c4d7228	0.012539424
21	0xbbb5185c	-0.0055265855
22	0xbb832a9f	-0.0040028836
23	0x3b06d9c7	0.0020576583
24	0xbbc370b5	-0.0059643635
25	0xbcbee0dc	-0.02330058
26	0xbd17dc09	-0.037075076
27	0x3cd28dd8	0.025702402
28	0xbc9520b4	-0.01820407
29	0xba23ed3c	-0.0006253307
30	0x3c87553f	0.01652014
31	0x3b9895ab	0.0046565137
32	0x3ad8599d	0.0016506199
33	0xbcae4d43	-0.021277076
34	0xbb8a89af	-0.004227839
35	0xbc2fd8e6	-0.010732865
36	0xbcef8a82	-0.02924085
37	0xbc6c0b54	-0.014406998
38	0x3ba5afbd	0.00505635
39	0x3aafd6f3	0.00134155
40	0xbbc556af	-0.0060222964
41	0x3c8ef041	0.017448546
42	0xbcb83c19	-0.022489594
43	0x3c9b0705	0.018924246
44	0x3ca2cf8a	0.019874353
45	0xbc0c1135	-0.008549024
46	0xbd0ca901	-0.034340862
47	0x399f4385	0.0003037715
48	0x3bbaf1f2	0.0057051117
49	0xbca7b25d	-0.020470792
50	0x3c3b6b32	0.011439132
51	0x3cd2357e	0.025660273
52	0xbc6c30ae	-0.014415903
53	0xbafeb861	-0.0019433611
54	0x3d2bfad1	0.041987244
55	0x3cac14d8	0.021006033
56	0xbb47d3bd	-0.0030491196
57	0xbb69ef93	-0.0035695776
58	0x3c768995	0.015047451
59	0x3c828190	0.01593092
60	0x3cb9bd69	0.022673326
61	0xbbafe29b	-0.0053675896
62	0x3c83b6d2	0.016078386
63	0x3a972b3f	0.0011533274
64	0xbb85ea1f	-0.0040867473
65	0x3c72f988	0.014830001
66	0x3ca10545	0.019655833
67	0x39c00575	0.0003662516
68	0xbbee0121	-0.007263318
69	0x3c85ef83	0.01634956
70	0x3a577781	0.00082194066
71	0x3c00db08	0.007864721
72	0xbd0b7e9b	-0.034056287
73	0xbbcec4f3	-0.0063100993
74	0x3c5ce017	0.013481162
75	0xb938b7a6	-0.00017616022
76	0x3b00f62c	0.001967798
77	0xbca2c696	-0.019870084
78	0xbc5ca742	-0.013467612
79	0xbc1e4ffc	-0.009662624
80	0x3c9e943f	0.019357799
81	0xbd2e6434	-0.04257603
82	0x3be8bec9	0.0071028215
83	0x3ca4e63c	0.020129316
84	0xbd009042	-0.031387575
85	0xbc10688f	-0.008813991
86	0xbcc51fa2	-0.024062935
87	0x3cae2fe9	0.02126308
88	0x3af25bdb	0.001849051
89	0xb9c7398c	-0.00037999114
90	0xbb59e376	-0.003324715
91	0xbcd8cd8e	-0.026465204
92	0x3d90f2ec	0.07077584
93	0xbca176f6	-0.019710045
94	0xbca160c3	-0.01969946
95	0xbcbd086f	-0.02307531
96	0x3cd1faa2	0.025632206
97	0xbd068174	-0.0328383
98	0xbc1a00f0	-0.009399638
99	0x3c1feef5	0.009761562
100	0xbcc29e8e	-0.023757245
101	0xbcae365a	-0.021266151
102	0xbb7852bb	-0.0037891108
103	0xbc5ae82e	-0.01336102
104	0x3cad6fa6	0.021171402
105	0x3b60067f	0.003418356
106	0x3d0a2d46	0.033734582
107	0x3d93d9bc	0.07219264
108	0x3d2fd505	0.04292776
109	0x3b3e96aa	0.0029081502
110	0xbc8d3af7	-0.01724003
111	0xbd1cb20f	-0.038255747
112	0x3983841c	0.00025084696
113	0x3c649ab8	0.013952903
114	0x3ceb2165	0.028702447
115	0xbb86a87e	-0.0041094413
116	0xba476784	-0.00076066726
117	0x3c3cd1b8	0.01152461
118	0x3b10cef1	0.0022096003
119	0xbc1b2736	-0.009469798
120	0xbd1a71fe	-0.037706368
121	0xbca57f11	-0.020202192
122	0xbc53c534	-0.012925435
123	0xbb094b54	-0.002094944
124	0x3d1abf44	0.03778006
125	0x3c2929b9	0.010324889
126	0xba0eb6a7	-0.00054440874
127	0xbc4ca4b3	-0.012490439
128	0xbc191533	-0.009343433
129	0xbcbd6f75	-0.023124436
130	0xbc0ed6fb	-0.0087182475
131	0xbd0e9019	-0.03480539
132	0xbbf6487b	-0.0075159646
133	0xbb78139e	-0.003785349
134	0xbd127095	-0.035751898
135	0xbaae51c7	-0.0013299518
136	0x3c153426	0.009106671
137	0xbc78ff43	-0.015197578
138	0x3c319a54	0.010840017
139	0xbc233c96	-0.009963175
140	0xbbfea9a7	-0.007771689
141	0xbd3042cd	-0.043032456
142	0xbccf7357	-0.025323553
143	0x3c103781	0.008802296
144	0xbcadf935	-0.021236995
145	0xbc394a3c	-0.011309203
146	0xbce1d607	-0.027567877
147	0x3bc8d2a6	0.006128627
148	0x3c938201	0.018006327
149	0x3cd952bd	0.02652871
150	0xbb96ebf2	-0.0046057636
151	0x3c8fe24e	0.017563965
152	0xbc5a9591	-0.0133413235
153	0xbc83b193	-0.016075885
154	0x39ed861d	0.00045304085
155	0xbc45804d	-0.012054515
156	0x3cc207dc	0.023685388
157	0x3be55e27	0.006999749
158	0x3c12f04f	0.008968427
159	0x3c28d22a	0.010304013
160	0xbcbfd259	-0.023415731
161	0x3c652dd5	0.013987978
162	0x3b2b80c5	0.0026169282
163	0xbbb05fc7	-0.0053825113
164	0x3b40ff30	0.0029448979
165	0x3d0ec8b0	0.03485936
166	0xbb10c4ef	-0.0022090038
167	0xbbf55b25	-0.007487672
168	0xbcac7bca	-0.021055121
169	0x3bce5bd9	0.00629757
170	0xbcd36fbf	-0.02581012
171	0xbcb4f574	-0.022089697
172	0x3c577e68	0.013152696
173	0x3c689aa8	0.014197029
174	0x3cad7878	0.021175608
175	0x3ca2711d	0.019829327
176	0xbc8c3610	-0.017115623
177	0x3b610189	0.003433319
178	0x3c8ffa81	0.017575504
179	0x3cc3bf27	0.02389486
180	0xbad307b0	-0.0016100314
181	0xbcfb513a	-0.03067838
182	0xbcb08b74	-0.021550871
183	0x3c696ad6	0.014246663
184	0x3cc65176	0.024208765
185	0xbb2e1697	-0.0026563758
186	0xbb86cd8a	-0.0041138576
187	0xbb8bf296	-0.004270862
188	0x3b1b438f	0.002369139
189	0xbcb738d4	-0.022365965
190	0x3b6f3936	0.0036502606
191	0xbcd3aa60	-0.025838077
192	0x3c891aa0	0.016736329
193	0xbcf310b7	-0.029671056
194	0xbcf495b2	-0.029856537
195	0xbc835fec	-0.01603695
196	0x3c755b81	0.0149754295
197	0xbb991319	-0.004671466
198	0xbccb0439	-0.024782287
199	0xbcc60c46	-0.024175774
200	0xbcbc4ee4	-0.022986837
201	0xbd127c6e	-0.035763197
202	0x3cf71194	0.03015975
203	0xbc410011	-0.011779801
204	0xbc0cebe9	-0.008601167
205	0x3cb93973	0.022610402
206	0xbc45ec82	-0.012080314
207	0x3c26e31d	0.010185984
208	0x39622ab6	0.0002156895
209	0xbc9adb97	-0.018903537
210	0xbc7b24fa	-0.01532864
211	0x3c09373a	0.008374983
212	0xbc95c287	-0.018281234
213	0xbcaf0a30	-0.021367162
214	0xbbf543d8	-0.0074848942
215	0xbc9f99fa	-0.019482601
216	0xbbc1be17	-0.005912553
217	0xbbd42f33	-0.006475353
218	0x3b972298	0.004612278
219	0x3d44c1d2	0.048036404
220	0x3c7bfc8a	0.015380034
221	0x3b93cab3	0.0045102476
222	0x3d57c87c	0.05268143
223	0xbcb03b2d	-0.021512592
224	0xbb8ae06f	-0.0042381804
225	0x3ba427ad	0.0050096125
226	0x3c25f714	0.010129709
227	0xbb5078e7	-0.0031810345
228	0xbb87bdcc	-0.0041424986
229	0xbb6b38b8	-0.0035891961
230	0x3c56bbc2	0.013106288
231	0xba7b500e	-0.0009586819
232	0xbc8ce427	-0.017198635
233	0x3c66fefb	0.014098878
234	0x3cb4b600	0.02205944
235	0x3c75e0e6	0.015007233
236	0xbc8daedc	-0.017295294
237	0xbbbd5abb	-0.005778638
238	0x3c4646e7	0.012101865
239	0x3c8f2f6e	0.01747867
240	0x3cb9e449	0.022691863
241	0xbc262d3d	-0.010142622
242	0x3c301923	0.010748181
243	0x3b2136ac	0.0024599237
244	0x3a3c6743	0.0007187018
245	0x3d084def	0.03327745
246	0xbc7e7cd0	-0.015532687
247	0xbd2b9b24	-0.041896
248	0x3c992b48	0.018697396
249	0xbc16805e	-0.009185879
250	0x3c91c29a	0.017792989
251	0xbbee91a4	-0.0072805453
252	0xbca96a53	-0.020680582
253	0x3c302726	0.010751521
254	0x3cfc09a4	0.030766316
255	0x3c2015a3	0.009770784

network_body._body_endoder.seq_layers.0.weight f4 [256, 67]
0	0x3cb8dbf2	0.022565816
1	0x3e076d25	0.13225229
2	0x3c00de93	0.007865566
3	0xba77b482	-0.00094492
4	0xbd20e7d8	-0.039283603
5	0x3e38fe2b	0.18065707
6	0x3e2b0ad5	0.16703351
7	0xbdc4dcc9	-0.09612424
8	0x3d7323f5	0.059360463
9	0xbd93564d	-0.07194195
10	0xbcb41a18	-0.021985099
11	0x3de3c71b	0.11121961
12	0xbd73a339	-0.059481833
13	0x3e82474f	0.2544503
14	0x3e5ecfc4	0.21758944
15	0x3daa3221	0.083103426
16	0xbd8cc636	-0.06873743
17	0xbc7f4680	-0.015580773
18	0x3ce7e4b7	0.028307302
19	0x3c3e043b	0.011597688
20	0x3df282fe	0.11841391
21	0xbe5e4a24	-0.2170797
22	0xbdaaca25	-0.08339337
23	0xbc24fad0	-0.010069564
24	0xbe35695a	-0.1771597
25	0x3cb80da8	0.02246745
26	0x3df4d315	0.11954323
27	0xbda8e5af	-0.08246934
28	0x3d9ede5c	0.077572554
29	0xbd8b6c27	-0.06807738
30	0x3dfb4ac8	0.12270123
31	0x3da3ee4b	0.08004435
32	0xbe92ec05	-0.28695694
33	0xbc85e6fb	-0.016345492
34	0x3caa0e11	0.02075866
35	0xbca1d2c6	-0.019753825
36	0xbe00d8a2	-0.12582639
37	0x3c9a7838	0.018856153
38	0x3eabbba1	0.33541587
39	0xbdb083e9	-0.0861891
40	0xbd1a8e8d	-0.037733603
41	0xbca72e6c	-0.020407878
42	0xbe000fde	-0.12506053
43	0xbc307bf4	-0.01077174
44	0x3e653402	0.2238312
45	0xbd88914f	-0.066683404
46	0xbcc233e0	-0.023706377
47	0xbda9f74c	-0.08299121
48	0x3d30e24f	0.043184575
49	0xbd702192	-0.058625765
50	0xbb89b5cb	-0.0042025796
51	0x3c785a44	0.01515824
52	0x3e1319ef	0.14365362
53	0xbdfb11e4	-0.12259272
54	0x3e10af75	0.14129432
55	0x3b9d7bad	0.004806003
56	0xbd5395f5	-0.051656682
57	0xbe3ea7f5	-0.18618758
58	0xbdd76fd6	-0.10519378
59	0xbd012bc4	-0.03153588
60	0xbeb09811	-0.34491017
61	0x3a8d698f	0.0010788905
62	0x3cd9b82a	0.026577074
63	0x3e0e0be2	0.1387172
64	0x3d5f4895	0.05451258
65	0x3cf423ab	0.029802164
66	0xbdf88963	-0.121355794
67	0xbe431ff4	-0.19055158
68	0x3c967672	0.018367026
69	0x3d7418a5	0.059593815
70	0xbe8ef60a	-0.27922088
71	0xbd187649	-0.03722218
72	0xbc0493fe	-0.008091925
73	0x3e3ef42a	0.18647829
74	0xbe03506b	-0.12823646
75	0x3c7b06b7	0.015321425
76	0xbe4f743d	-0.20259185
77	0xbdaaf892	-0.08348192
78	0x3d39baff	0.04534435
79	0xbb9a29ec	-0.0047047045
80	0xbca83a1b	-0.02053552
81	0xbe168c23	-0.14701895
82	0x3d3affab	0.04565398
83	0xbe044f9e	-0.12920997
84	0x3e3eadb2	0.18620947
85	0xbe115ae5	-0.1419483
86	0x3b82d473	0.003992611
87	0x3c69c29b	0.014267589
88	0x3bd2743b	0.006422547
89	0x3e123f9c	0.14282078
90	0x3e0f0f7b	0.13970749
91	0xbec3e220	-0.38258457
92	0xbdbce9ca	-0.09224279
93	0x3ddb018d	0.10693655
94	0xbd7c79f5	-0.061639745
95	0xbe51d60c	-0.20491809
96	0x3cda68c7	0.02666129
97	0xbc291f7e	-0.01032245
98	0xbe54b7e0	-0.20773268
99	0x3e03f55b	0.12886564
100	0xbe088f30	-0.13335872
101	0xbd592a75	-0.053019006
102	0xbe3ddde0	-0.1854167
103	0xbe2cc984	-0.16873747
104	0xbb877851	-0.004134216
105	0x3c85ade9	0.016318278
106	0xbe3d0277	-0.18457972
107	0xbd904c55	-0.07045809
108	0xbe7f9a9c	-0.24961323
109	0x3dec1db9	0.11529107
110	0xbd504c15	-0.050853807
111	0x3e5eed53	0.2177022
112	0xbd55559d	-0.0520836
113	0x3db34f35	0.08755342
114	0xbdd7a223	-0.10528972
115	0x3e0221d0	0.12708211
116	0xbddd7013	-0.10812392
117	0x3dbc503e	0.091949925
118	0x3e257beb	0.16160552
119	0xbdc28b56	-0.094992325
120	0xbe2d4dd2	-0.16924217
121	0xbe0397b6	-0.12850842
122	0xbe826880	-0.25470352
123	0xbb519086	-0.0031977012
124	0x3c0b6419	0.008507752
125	0xbd87db7d	-0.06633661
126	0x3e1dd8ea	0.15414777
127	0xbe55c41f	-0.20875596
128	0x3db25c21	0.087089784
129	0xbe1ba990	-0.15201402
130	0xbe9c7d16	-0.30564183
131	0x3de97f35	0.11401216
132	0x3c434223	0.011917624
133	0x3ea0304d	0.3128685
134	0x3d8ea2b6	0.069646284
135	0xbdebd206	-0.11514668
136	0xbcce0f9c	-0.025153928
137	0x3e07bf11	0.1325648
138	0xbca30e05	-0.019904146
139	0x3c3beca8	0.011469997
140	0xbd908dea	-0.07058318
141	0x3e6fa056	0.23401007
142	0x3da35609	0.07975394
143	0xbdcf226d	-0.10113988
144	0x3daff39c	0.08591387
145	0x3ca07308	0.019586101
146	0x3d9e6f5c	0.07736084
147	0x3bb146e3	0.0054100617
148	0x3e3f12a2	0.18659452
149	0xbe08eb83	-0.1337109
150	0xbd820421	-0.06348444
151	0xbda06c6c	-0.0783318
152	0xbcd1229f	-0.025529204
153	0x3c757260	0.014980882
154	0xbb0b328d	-0.0021239847
155	0xbe02103a	-0.12701502
156	0xbd5404ae	-0.051762275
157	0x3d081ddc	0.0332316
158	0xbe3df884	-0.18551832
159	0xbd007043	-0.03135706
160	0x3ccaf24d	0.024773741
161	0xbd398735	-0.04529496
162	0xbd0bf18b	-0.0341659
163	0xbddbec03	-0.10738375
164	0xbe0073f2	-0.1254423
165	0x3de3d5a6	0.111247346
166	0x3e02b4c3	0.12764268
167	0xbdd5f9af	-0.10448014
168	0x3c71ebf8	0.014765732
169	0xbe21443e	-0.15748689
170	0xbe187261	-0.14887382
171	0xbd4b3547	-0.049611356
172	0x3d102a37	0.03519651
173	0xbe6522f7	-0.2237662
174	0x3e9381ae	0.28809875
175	0xbeb38e8d	-0.35069695
176	0x3d830752	0.063978806
177	0x3d1eb4ef	0.03874677
178	0x3d03f0c0	0.03221202
179	0x3e2c71f4	0.16840345
180	0x3e1a3cf9	0.15062322
181	0x3e6a37bb	0.22872822
182	0x3d963d52	0.07335915
183	0xbe42bc67	-0.19017182
184	0xbd37265f	-0.044714328
185	0xbe5d9ab7	-0.2164105
186	0xbdc11f7b	-0.094298325
187	0x3e06c9fb	0.13162987
188	0x3da0039a	0.07813187
189	0xbe4cbfac	-0.19994992
190	0xbd565faa	-0.052337326
191	0xbd2f4ce6	-0.042797945
192	0xbc993de5	-0.018706271
193	0xbb774a3d	-0.0037733458
194	0x3c152b84	0.009104613
195	0x3da78923	0.08180454
196	0xbe577602	-0.2104111
197	0x3e4a52a4	0.19758087
198	0x3e8d9ff9	0.27661112
199	0xbc2b0ad6	-0.010439595
200	0xbd87831d	-0.06616805
201	0xbbc71eef	-0.0060766856
202	0xbd407882	-0.046989925
203	0x3d750e25	0.059827942
204	0x3d8fe8a2	0.07026793
205	0xbc3bbe7f	-0.011458992
206	0x3b51138d	0.0031902522
207	0x3e967014	0.29382384
208	0x3dc2291c	0.09480497
209	0xbdccf645	-0.1000791
210	0x3dfdbccf	0.12389528
211	0xbddc863a	-0.10767789
212	0xbe15b858	-0.14621103
213	0x3d1c6a8a	0.03818754
214	0xbe11b5db	-0.14229529
215	0x3d91ff21	0.0712874
216	0x3dcbfb5d	0.09960053
217	0xbe87c595	-0.2651793
218	0x3d9a56ab	0.07536062
219	0xbe1f099d	-0.15531011
220	0xbe494738	-0.19656074
221	0x3e3cd434	0.18440324
222	0x3e2f4cd9	0.17119159
223	0x3e48563b	0.19564144
224	0xbd89778f	-0.06712257
225	0xbc4119b5	-0.011785914
226	0xbe11d6c1	-0.14242078
227	0xbe7e0ecc	-0.24810332
228	0x3d74ca8a	0.05976347
229	0x3e036db4	0.12834817
230	0x3d02f27b	0.03196953
231	0xbd380f02	-0.044936188
232	0xbdb66bc2	-0.08907272
233	0x3d891171	0.0669278
234	0xbbeed334	-0.007288361
235	0x3d5da3b8	0.054111212
236	0x3c091bf1	0.008368478
237	0xbe6a9d0f	-0.22911476
238	0x3d7a00a9	0.061035786
239	0xbce1555f	-0.027506528
240	0xbd9b4a79	-0.07582564
241	0xbdc592ba	-0.096471265
242	0x3e3ce67c	0.18447298
243	0x3b360053	0.002777119
244	0xbe0ff835	-0.14059527
245	0xbe514ec4	-0.20440203
246	0xbde3b34c	-0.111181825
247	0xbd1e43cc	-0.038638875
248	0x3d60d196	0.054887377
249	0x3d446b1a	0.047953703
250	0x3da840f4	0.08215514
251	0x3cd9168a	0.026500005
252	0xbe2e8db5	-0.17046244
253	0xbe0d2b21	-0.13785984
254	0xbcf42024	-0.029800482
255	0x3e843508	0.2582171

network_body._body_endoder.seq_layers.2.bias f4 [256]
0	0x3c5411c2	0.012943687
1	0xbb4e8aad	-0.0031515763
2	0x3b1017f8	0.0021986943
3	0x3c436739	0.011926466
4	0x3c65dee8	0.014030196
5	0xbb7df046	-0.003874795
6	0xbc4cea50	-0.012507036
7	0xbc041564	-0.008061741
8	0xbcb3622b	-0.021897396
9	0x3ba223a7	0.0049480977
10	0xbbd869a0	-0.0066043884
11	0xbca962af	-0.020676939
12	0xbb8449c5	-0.0040371143
13	0xbb198990	-0.002342794
14	0xbbb61fb8	-0.0055579804
15	0x3c64e867	0.013971425
16	0xbc5feee6	-0.013667798
17	0xbcacf8d5	-0.021114746
18	0xbc93854e	-0.0180079
19	0x3c0d3309	0.008618125
20	0xbc97db41	-0.018537166
21	0xbc808ef6	-0.01569317
22	0xbcafe710	-0.021472484
23	0x3c2935a1	0.0103277275
24	0xbc46dda4	-0.012137804
25	0xbc56a5a9	-0.01310102
26	0xbbcc6864	-0.0062380303
27	0x3c97bb7c	0.018522017
28	0x3c6d9a4e	0.014502121
29	0xbc7303f7	-0.014832488
30	0x3b25a4b7	0.002527518
31	0xbc14ca8b	-0.009081493
32	0xbcda1126	-0.026619505
33	0x3b5f8ce5	0.003411108
34	0x3bf3adf4	0.0074365083
35	0x3b0907e8	0.0020909254
36	0x3bb0b779	0.0053929654
37	0x3b1c25c3	0.0023826219
38	0xbcb8106e	-0.022468772
39	0x3c5028c9	0.012705036
40	0x3bfc2c8c	0.00769574
41	0x3be0bbe8	0.0068583377
42	0xbc11b62e	-0.008893533
43	0x3bb8de57	0.0056417393
44	0xbc83d2eb	-0.016091784
45	0x3b06c64b	0.002056497
46	0x3b9d3640	0.004797727
47	0xbaa85b2b	-0.0012844553
48	0xbcc34660	-0.023837268
49	0xba63a8b3	-0.0008684501
50	0x3c9855e0	0.018595636
51	0x3bb16599	0.0054137227
52	0x3bc48af7	0.005998011
53	0x3c4e9885	0.012609606
54	0x3c63c320	0.013901502
55	0x3b770438	0.0037691724
56	0xbc8f6a70	-0.017506808
57	0x3c536cfc	0.012904402
58	0xbc05d44d	-0.008168292
59	0xb9df59e0	-0.00042600837
60	0xbc65452a	-0.013993541
61	0x3ca249a7	0.01981051
62	0xbc51596f	-0.01277767
63	0xbc9c6d5b	-0.019095114
64	0x3c633ab7	0.013868979
65	0x3a3dd8c0	0.0007242076
66	0x3c0bb925	0.008528029
67	0x3a88db3e	0.0010441316
68	0x3c3f3b47	0.011671848
69	0xbc95737a	-0.01824354
70	0xbc143073	-0.009044754
71	0x3c157709	0.0091226185
72	0x3c15a522	0.009133609
73	0xbce9bebc	-0.028533332
74	0xb9856035	-0.00025439417
75	0x3cce6b13	0.025197541
76	0x3cb6b076	0.02230094
77	0xbc08f6c5	-0.008359616
78	0x3bd2e236	0.006435658
79	0xbc730633	-0.014833021
80	0xbc24c673	-0.01005708
81	0xba076f39	-0.0005166415
82	0xbc1de6d4	-0.009637553
83	0x3af35296	0.0018564041
84	0x3c206a99	0.00979104
85	0xbc94f649	-0.018183844
86	0x3bc5f90a	0.0060416507
87	0xbb4f6315	-0.003164475
88	0x3b69079a	0.003555751
89	0x3bb9bb65	0.005668091
90	0x3c5fb126	0.013653075
91	0xbc6c7959	-0.014433228
92	0x3cd41f10	0.025893718
93	0xbc8495f4	-0.016184784
94	0xbc0dd4e2	-0.008656712
95	0xbc359129	-0.011081972
96	0x3b7bbbed	0.0038411573
97	0x3ab27693	0.001361566
98	0xbc35e960	-0.011103004
99	0xbac407c9	-0.0014955933
100	0xbc976129	-0.018478947
101	0x3ba1fdb5	0.0049435743
102	0xbbcdfc24	-0.006286161
103	0xbccfab82	-0.025350336
104	0x3a797ffa	0.0009517666
105	0x3c2bfeba	0.010497743
106	0xbc853f1f	-0.01626545
107	0x3ca3d404	0.019998558
108	0x3c3865d1	0.011254744
109	0x3cafa6bf	0.021441815
110	0xbc2e6396	-0.01064386
111	0xbc176594	-0.009240527
112	0x3bab00a6	0.005218583
113	0x3bebe247	0.007198605
114	0xbc2bcb30	-0.010485455
115	0x3c03860e	0.008027567
116	0xbc5929fe	-0.013254641
117	0xbbe957cf	-0.0071210633
118	0x3c1aea0d	0.009455216
119	0xbc9a5d5a	-0.018843342
120	0x3acaf7e6	0.0015485256
121	0x3c2867ed	0.010278684
122	0x3ccb3981	0.024807693
123	0xbc7023d4	-0.01465698
124	0xbba770b3	-0.0051098703
125	0xbb246b9c	-0.0025088554
126	0xbc25381b	-0.010084177
127	0xbcafef2a	-0.021476347
128	0x3b74f3d3	0.0037376776
129	0x3b882457	0.0041547227
130	0x3b356360	0.002767764
131	0x3c246684	0.010034207
132	0xbc4fdf36	-0.012687495
133	0xbc76525b	-0.0150342835
134	0xbcb8d6bc	-0.02256333
135	0xbbf6d8e8	-0.0075331815
136	0xbb6dd3e1	-0.003628962
137	0xbc1e347e	-0.00965607
138	0x3c184b56	0.009295305
139	0xbcb1bcf4	-0.021696545
140	0x3c301bf0	0.010748848
141	0xbc99391d	-0.018703992
142	0x3c2c0af7	0.010500661
143	0xbcff5310	-0.031167537
144	0x3c57d55b	0.0131734265
145	0xbbb36b90	-0.005475469
146	0xbc9d260d	-0.019183183
147	0xbcba21d9	-0.022721218
148	0xbbf9ae49	-0.0076196534
149	0xbb25f0c3	-0.0025320507
150	0x3c44cbbd	0.012011466
151	0xbc4ace87	-0.0123783415
152	0xbc9df0a8	-0.019279793
153	0xbcc2316e	-0.02370521
154	0x3c9c8b77	0.01910947
155	0xbc8300f2	-0.015991662
156	0x3c824164	0.015900321
157	0x3b2cc77b	0.0026364017
158	0xbcfbf2c5	-0.03075541
159	0xbc167783	-0.009183767
160	0xbc9892fc	-0.018624775
161	0x3b261182	0.0025340025
162	0xbb314ef7	-0.0027055123
163	0xbc79a1f4	-0.015236367
164	0xbc6a75a3	-0.014310273
165	0xbc717032	-0.014736222
166	0xbb6ba442	-0.003595606
167	0xbcaa527f	-0.02079129
168	0xbc6ca888	-0.014444478
169	0xbc9b88a0	-0.018986046
170	0x3c9888ab	0.018619856
171	0xbaa9f8be	-0.0012967808
172	0xbb5b9b2e	-0.0033509242
173	0xbbc01da4	-0.0058629084
174	0xbc41137c	-0.011784431
175	0xba1c9ba8	-0.00059741223
176	0x3a855a8c	0.001017408
177	0x3c6f030c	0.014588129
178	0xbc44090d	-0.0119650485
179	0x3b736057	0.003713628
180	0x3c851800	0.016246796
181	0xbc140a18	-0.00903561
182	0xbc9ced92	-0.019156251
183	0xbc1de493	-0.009637016
184	0x3b4d4996	0.0031324378
185	0xbc7ed09e	-0.015552668
186	0x3ca663fb	0.020311346
187	0xbc501c30	-0.012702033
188	0xbbd5d6c0	-0.0065258443
189	0xbc5b55ed	-0.0133871855
190	0x3c01851e	0.007905273
191	0x3c9024c7	0.017595662
192	0xbc83afa6	-0.016074967
193	0x3c13623e	0.008995591
194	0xbc4e8ba3	-0.012606534
195	0x3bc48170	0.0059968755
196	0xbbbe23eb	-0.0058026216
197	0xbc2e9596	-0.010655781
198	0x3c017460	0.007901281
199	0xbc33f742	-0.010984244
200	0xbc8560f5	-0.016281584
201	0xbcb0d912	-0.021587882
202	0xbc2b52a8	-0.0104567185
203	0xbc2deab3	-0.010615039
204	0xbc5dd0da	-0.013538564
205	0xbbb1dea9	-0.0054281545
206	0x3c9b9ff4	0.01899717
207	0x3c282cb8	0.010264568
208	0x3b80af50	0.003927149
209	0xbc75c449	-0.015000411
210	0x3b16ace1	0.0022991227
211	0xbb0015bf	-0.0019544212
212	0xbcab783f	-0.020931361
213	0xbc192550	-0.009347275
214	0x3b955b79	0.0045580235
215	0xbc60ac30	-0.013712928
216	0xbceb92f3	-0.028756594
217	0x3bb51499	0.005526137
218	0xbc67bf7a	-0.014144773
219	0xbc8bb7a4	-0.01705534
220	0xbbe0810e	-0.006851322
221	0x3c44b0f9	0.012005084
222	0xbcc7ebc0	-0.024404407
223	0xbbfe5ca8	-0.0077625103
224	0x3ca4d7cb	0.02012243
225	0xbc1a845b	-0.00943097
226	0xbc54c1ea	-0.012985686
227	0x3c2f82f7	0.010712377
228	0xbc119fde	-0.008888213
229	0xbc87db35	-0.016584018
230	0xbb2c1f2d	-0.00262637
231	0xbbfefa3d	-0.0077812956
232	0xbb715992	-0.003682707
233	0x3c197bff	0.009367942
234	0xbb6cd0fe	-0.0036135311
235	0xbc7f2ec2	-0.015575113
236	0x3be82696	0.007084678
237	0x3bd15225	0.006387966
238	0xbc9675ab	-0.018366655
239	0xbc5f0d52	-0.013614016
240	0xbbad9c50	-0.005298175
241	0x3bc9538d	0.006143993
242	0x3c9452f7	0.018105967
243	0xbca64bf8	-0.020299897
244	0x3bd62152	0.006534734
245	0x3b7c3cc7	0.0038488375
246	0x3cbed40a	0.023294467
247	0xbce81101	-0.02832842
248	0x3c1fcae4	0.009752963
249	0x3b567797	0.003272509
250	0xba4a0a6d	-0.0007707242
251	0xbb06feaa	-0.002059857
252	0x3cb35e5e	0.021895584
253	0xbd0a1b2f	-0.03371733
254	0xb9d3e588	-0.0004041607
255	0xbc9d4d49	-0.019201891

network_body._body_endoder.seq_layers.2.weight f4 [256, 256]
0	0x3d671b07	0.05642226
1	0xbd111c97	-0.035427656
2	0x3d58ae4f	0.05290061
3	0x3d96f7f8	0.07371515
4	0xbd97d69b	-0.074139796
5	0x3be9c863	0.0071344837
6	0x3d95b97e	0.073107705
7	0xbaa5b91b	-0.0012643667
8	0xbd1bc986	-0.038033985
9	0xbdc7308f	-0.09726059
10	0xbd248784	-0.0401683
11	0x3de4614a	0.11151369
12	0x3d015d11	0.031582896
13	0x3e063701	0.1310692
14	0xbddc3f7b	-0.107542954
15	0x3d15f913	0.03661449
16	0x3d9d1341	0.07669688
17	0xbd43f2f7	-0.04783913
18	0xbd1a4da9	-0.03767172
19	0xbd08ce4f	-0.033399876
20	0x3d10f363	0.03538836
21	0xbce3d42a	-0.027811129
22	0xbd86b522	-0.06577517
23	0xbd209bcf	-0.03921109
24	0xbd5ff4b8	-0.05467674
25	0xbd51192a	-0.05104939
26	0x3de17b52	0.110098496
27	0x3c75443f	0.014969884
28	0xb96af3c9	-0.00022406796
29	0xbde3b457	-0.111183815
30	0x3ca61265	0.020272443
31	0xbdb44272	-0.08801736
32	0x3cac791e	0.021053847
33	0xbcaecf18	-0.021338984
34	0x3c94966f	0.018138139
35	0x3d27fe8f	0.04101425
36	0x3b5c61ce	0.0033627632
37	0xbd2c761c	-0.042104825
38	0xbdbcc1dd	-0.09216664
39	0x3d0d6ebe	0.03452944
40	0xbd998442	-0.07495929
41	0x3d84ac5e	0.06478189
42	0xbc97407d	-0.018463368
43	0xbdb22870	-0.08699119
44	0xbd2e85c3	-0.042608034
45	0xbcfcb6cf	-0.030848889
46	0x3d73faa7	0.059565213
47	0xbd9de709	-0.07710082
48	0x3dce1f0e	0.10064517
49	0x3c087b45	0.008330171
50	0x3c91716c	0.01775428
51	0x3caa67b8	0.02080141
52	0x3cfc762f	0.030818073
53	0xbd4a2b73	-0.049357843
54	0xbda38da3	-0.079859994
55	0xbbe441bb	-0.0069658435
56	0xbd8448ab	-0.06459173
57	0x3c9a4aaa	0.01883443
58	0xbde79ee0	-0.113096
59	0x3d03621b	0.032075983
60	0xbd9517bf	-0.0727992
61	0xbe09318c	-0.13397807
62	0xbb879edd	-0.004138811
63	0xbd119659	-0.035543773
64	0xbc9b111a	-0.018929053
65	0xbdfc54f1	-0.12320889
66	0xbc712e4c	-0.014720511
67	0x3c9944c6	0.018709552
68	0xbac96dbf	-0.001536779
69	0xbd1a2acf	-0.03763848
70	0xbdbc8375	-0.09204761
71	0xbcb13dff	-0.021636007
72	0xbd7fa1f8	-0.062410325
73	0x3c505c5d	0.012717334
74	0xbdb14111	-0.086549886
75	0x3ccbaa08	0.02486135
76	0x3e41b196	0.189154
77	0x3dd59c2d	0.10430179
78	0x3d4a71d5	0.049424965
79	0x3d89a2df	0.06720518
80	0xbce815f0	-0.028330773
81	0x3c7c5b7c	0.015402671
82	0xbd752c5c	-0.059856758
83	0xbdb4bcb8	-0.08825058
84	0x3d931e7d	0.071835496
85	0xbcb8e9b3	-0.022572374
86	0xbdbb1dfa	-0.09136577
87	0xbcb9ccd8	-0.022680685
88	0xbd577b00	-0.052607536
89	0xbd985838	-0.074387014
90	0xbdb4c787	-0.08827119
91	0x3d9d5fd5	0.07684294
92	0xbdf56add	-0.11983273
93	0xbd477268	-0.04869309
94	0x3d01d2aa	0.031695046
95	0x3d51725d	0.051134456
96	0xbd967d4f	-0.073481195
97	0x3c98d339	0.018655406
98	0xbd49fbf1	-0.049312536
99	0x3dc6f5a3	0.0971482
100	0x3d3b5f08	0.045744926
101	0x3d07e908	0.03318122
102	0x3db0fbbb	0.08641764
103	0xbd674377	-0.056460824
104	0xbdcbc284	-0.0994921
105	0x3cf8ec53	0.030386126
106	0xbd820dc1	-0.063502796
107	0xbe54f4f8	-0.20796573
108	0xbc91ae8e	-0.01778343
109	0xbda10e85	-0.078640975
110	0x3d5798f7	0.052636113
111	0xbc0d4219	-0.008621716
112	0xbe02852f	-0.12746118
113	0xbd189c7c	-0.03725861
114	0xbd5f81ae	-0.05456703
115	0x3c870a0d	0.016484285
116	0xbc95083a	-0.0181924
117	0x3cea56bf	0.028605817
118	0xbd2499c5	-0.04018571
119	0xbda4b8f7	-0.08043092
120	0xbcfb0792	-0.030643258
121	0xbd40b99a	-0.047052003
122	0xbd6a64bc	-0.057224974
123	0x3bd1a435	0.006397749
124	0x3d1a78fa	0.03771303
125	0xbe469d66	-0.1939598
126	0xbd9d8d28	-0.07692939
127	0xbd8ec0d1	-0.069703706
128	0xbd04e6ae	-0.032446556
129	0xbc9f5a26	-0.019452166
130	0x3cbe8aea	0.023259599
131	0xbc2ab3ed	-0.010418874
132	0xbc3c7068	-0.011501409
133	0xbb2277a7	-0.0024790557
134	0xbd8bdc95	-0.06829182
135	0x3dd8a68f	0.105786435
136	0xbd07d518	-0.033162206
137	0xbcbe4a2c	-0.023228727
138	0xbc5af674	-0.013364423
139	0xbc5c49eb	-0.013445358
140	0x3c569932	0.013098048
141	0xbb9d387d	-0.0047979937
142	0xbe124450	-0.14283872
143	0xbc4730a6	-0.012157595
144	0xbcebbe85	-0.02877737
145	0xbdc53eda	-0.096311286
146	0xbd71d6df	-0.059042808
147	0x3cddfd97	0.02709846
148	0xbd539144	-0.051652208
149	0xbe2af191	-0.16693713
150	0x3cfb6990	0.030689985
151	0xbc94cc7a	-0.018163908
152	0xbd2c0053	-0.041992497
153	0xbdfad72d	-0.12248073
154	0xbd42d857	-0.0475696
155	0xbcbce643	-0.023059016
156	0xbceb2740	-0.02870524
157	0x3c1e5a45	0.009665077
158	0x3d12fedd	0.035887588
159	0xbc61f82d	-0.01379208
160	0xbc989be0	-0.018629014
161	0x3ca81e95	0.020522395
162	0x3b8c2091	0.004276343
163	0x3b5538f6	0.0032535172
164	0xbcbcb40d	-0.023035074
165	0xbde63534	-0.112406164
166	0xbc141543	-0.009038272
167	0x3cf7637d	0.030198807
168	0xbd2c8790	-0.04212147
169	0xbd092344	-0.033480898
170	0xbd6af50e	-0.05736261
171	0x3c26b2b4	0.010174442
172	0x3d5e37da	0.054252483
173	0xbd9869ac	-0.0744203
174	0xbdd87882	-0.1056986
175	0x3df3cc10	0.11904156
176	0x3c4c8f1d	0.012485293
177	0xbd5b505d	-0.053543437
178	0x3e0266da	0.12734547
179	0x3b71149c	0.0036785966
180	0x3dca4227	0.09875899
181	0x3da43e2f	0.08019673
182	0xbd6d674a	-0.057959832
183	0xbde49ef4	-0.111631304
184	0x3d116110	0.035492957
185	0xbe154276	-0.14576134
186	0x3e111487	0.14167987
187	0xbcebab6f	-0.02876827
188	0xbce356b6	-0.027751308
189	0x3dc90f46	0.09817366
190	0xbd8b6974	-0.06807223
191	0x3d61bdee	0.05511277
192	0x3c7e8962	0.015535684
193	0xbcc25688	-0.023722902
194	0xbd60b2ac	-0.054857895
195	0xbe1cd49b	-0.15315478
196	0xbd90194e	-0.070360765
197	0x3df9a275	0.12189189
198	0xbc934112	-0.017975364
199	0x3d34d357	0.044146862
200	0xbd828db5	-0.06374685
201	0x3dd006f3	0.101575755
202	0xbc24238b	-0.01001824
203	0xbd6cbfa0	-0.057799935
204	0xbe1e7f27	-0.15478192
205	0xbd21d403	-0.03950883
206	0x3cfea9b6	0.031086784
207	0xbd9d0d53	-0.07668557
208	0xbc96cd3e	-0.018408414
209	0x3c39aa6d	0.011332137
210	0xbdbb5c96	-0.09148519
211	0xbbfb6577	-0.0076720077
212	0x3d88dbff	0.06682586
213	0xbe19943b	-0.14997952
214	0xbbc74fcd	-0.006082511
215	0xb8a418f5	-7.824778e-05
216	0xbe006613	-0.12538938
217	0xbd858d3b	-0.06521078
218	0xbdc81aa7	-0.097707085
219	0xbd8653b1	-0.065589316
220	0x3b34cc55	0.0027587612
221	0xbcf5f586	-0.030024301
222	0xbd2e2a26	-0.042520665
223	0xbd16d89b	-0.036827665
224	0xbdf50ab1	-0.1196493
225	0xbd0af749	-0.033927236
226	0x3dd85dd9	0.10564775
227	0x3ce9d53c	0.02854406
228	0x3ce707eb	0.028202018
229	0x3d5dc916	0.05414685
230	0xbd57cfed	-0.052688528
231	0xbd2cb168	-0.042161375
232	0xbd9850e6	-0.07437305
233	0x3d656afa	0.056010224
234	0xbc77fd60	-0.015136093
235	0x3de1e0a0	0.11029172
236	0xbd85365c	-0.06504509
237	0x3cfc8cef	0.030828921
238	0x3d865b5f	0.065603964
239	0xbe51bbfa	-0.20481864
240	0x3caf7624	0.021418639
241	0xbd65c0a9	-0.05609194
242	0x3de3d6c6	0.11124949
243	0xbc8f9b05	-0.017529974
244	0xbd14c0e9	-0.036316786
245	0xbd2650db	-0.040604454
246	0xbd07c177	-0.033143487
247	0x3cef9143	0.02924407
248	0xbd93c709	-0.07215697
249	0x3e0efa66	0.13962707
250	0xbbb806e0	-0.005616054
251	0xbd82aed3	-0.06381001
252	0xbce96b27	-0.028493477
253	0x3da6f855	0.08152834
254	0xbc502847	-0.012704915
255	0xbc86c2af	-0.016450254

network_body._body_endoder.seq_layers.4.bias f4 [256]
0	0x3b86b314	0.0041107032
1	0x3a81b01b	0.0009894402
2	0xbc163e19	-0.009170079
3	0xbb2310f1	-0.0024881924
4	0xbc37f2cd	-0.011227322
5	0x3c951ad1	0.018201264
6	0x3c426e26	0.011867082
7	0xbcdd93ae	-0.027047958
8	0xbc7291ad	-0.01480524
9	0xbd0bbf16	-0.03411778
10	0x3cadba7f	0.021207092
11	0xbcc34c0c	-0.023839973
12	0xb9c1e112	-0.0003697952
13	0x3c91ce4f	0.01779857
14	0xbcc7e2ff	-0.024400232
15	0xbc7165f1	-0.014733777
16	0x3c86c573	0.016451573
17	0xbc7bfd05	-0.015380149
18	0xbcaa580c	-0.020793937
19	0x3c835f18	0.016036555
20	0x3cb747ba	0.02237307
21	0x3c80fd48	0.015745774
22	0xbcbfaa76	-0.023396712
23	0x3ab53c0c	0.00138271
24	0xbcebb028	-0.028770521
25	0xbbd855ee	-0.0066020405
26	0xbca83bb3	-0.02053628
27	0xbb98aa70	-0.0046589896
28	0xbd019141	-0.031632666
29	0xba09a5e0	-0.00052508526
30	0xbc295a72	-0.010336505
31	0xbc9cb0fe	-0.019127365
32	0xbcc475de	-0.023981985
33	0x3c312dee	0.010814173
34	0xbc7af4ff	-0.015317201
35	0x3c801d54	0.015638985
36	0x3bcdd749	0.0062817675
37	0x3c0b885d	0.008516398
38	0xbc77e64d	-0.015130592
39	0x3b985420	0.0046487004
40	0xbcb77675	-0.022395352
41	0xbc995a08	-0.018719688
42	0x3b6f82a0	0.0036546364
43	0xbcb11ad2	-0.021619234
44	0x3c52b079	0.012859457
45	0xbb08c9da	-0.0020872266
46	0x3bb7b39b	0.0056061274
47	0x3cc9cd5b	0.024634054
48	0x3be0d5a7	0.006861407
49	0x3ca029da	0.019551206
50	0xbc927b44	-0.017881043
51	0xbd0124eb	-0.03152935
52	0x3c4d2852	0.01252182
53	0x3be5ac72	0.0070090825
54	0xbba4baa4	-0.005027132
55	0xbbeb490c	-0.0071803387
56	0xbcc1684a	-0.0236093
57	0x3bad5c48	0.005290542
58	0xbccf8b75	-0.025335053
59	0xbc7832ed	-0.01514886
60	0x3cb161ad	0.02165302
61	0x3c3ac7e1	0.011400194
62	0x3bc83854	0.0061102305
63	0xbbd545f6	-0.006508584
64	0xbcb8c29c	-0.022553734
65	0xbc5d0a73	-0.013491261
66	0xbced3a5f	-0.028958498
67	0x3cb78362	0.022401515
68	0x3979f106	0.00023836279
69	0xbcace7a9	-0.021106558
70	0xbc3adb82	-0.011404874
71	0x3c924899	0.017856883
72	0xbc9995d9	-0.01874821
73	0xbcfa0ee0	-0.030524671
74	0x3b889d25	0.0041691237
75	0xbc8cbc11	-0.01717952
76	0x3c00eafb	0.007868524
77	0xbcb2d951	-0.02183214
78	0xbc6adb13	-0.014334458
79	0xba66ae1d	-0.00087997486
80	0xbc9d05b4	-0.019167759
81	0xbc0cd750	-0.008596256
82	0x3c162eb5	0.009166409
83	0xbc892805	-0.016742716
84	0x3c1f4254	0.009720404
85	0xbc7c1144	-0.015384976
86	0x3ca981db	0.020691803
87	0xbbb746ab	-0.005593141
88	0xbca66ccc	-0.02031555
89	0x3ca1e998	0.019764706
90	0x3b7edee1	0.003889017
91	0xbd13bfb4	-0.036071494
92	0xbc8b3a49	-0.016995566
93	0xb8d07d06	-9.9415e-05
94	0xbc9d6fc6	-0.019218337
95	0xbcacf9fa	-0.021115292
96	0xbcadccc2	-0.0212158
97	0xbc737674	-0.014859784
98	0x3cbd2fef	0.023094146
99	0xba729aca	-0.0009254633
100	0xbc928f2a	-0.017890532
101	0xbc9f0ce1	-0.01941532
102	0x3c714322	0.014725478
103	0xbc0ba128	-0.008522309
104	0xbcbf117e	-0.02332377
105	0x3c71ca25	0.014757668
106	0x3ced0828	0.028934553
107	0xbc8279b6	-0.015927177
108	0x3c49cd04	0.012316946
109	0x3c39c6c5	0.011338894
110	0xbc809cf1	-0.015699835
111	0xbcad5f6f	-0.02116367
112	0xbccdc20d	-0.025116945
113	0xbc2ba0e1	-0.010475368
114	0xbc81a3a2	-0.015825097
115	0xbcba0741	-0.022708537
116	0x3c2b4749	0.010454007
117	0x3c686625	0.014184509
118	0x3be5b5c5	0.007010194
119	0xbc471b38	-0.012152486
120	0x3c652251	0.013985232
121	0xbac14e80	-0.0014748126
122	0x3c146815	0.009058018
123	0xbca510f7	-0.020149691
124	0xbb24bb0b	-0.00251359
125	0xbc82ae6b	-0.01595231
126	0xbcb94ba8	-0.022619084
127	0xbd028004	-0.031860366
128	0xbbcd9a7e	-0.0062745204
129	0xbc165150	-0.00917466
130	0xbca89a29	-0.020581322
131	0xbc625835	-0.0138149755
132	0x3c23ead2	0.010004716
133	0xbce0c1f4	-0.027436234
134	0xbc09347a	-0.008374328
135	0x389b86d4	7.41609e-05
136	0x3ba86d06	0.0051399497
137	0xba88584e	-0.0010402293
138	0x3cd70ab2	0.026250217
139	0x3c0124fb	0.007882352
140	0xb980b69e	-0.00024550123
141	0xbc9fe648	-0.019518986
142	0xbcebb4f0	-0.028772801
143	0xbb07a38f	-0.0020696854
144	0xbbde2eed	-0.0067804963
145	0x3a9926e6	0.0011684566
146	0x3ae9d768	0.0017840685
147	0x3b9ae41b	0.0047268993
148	0xbc66f320	-0.014096051
149	0x3c982068	0.01857014
150	0xbc95a45c	-0.01826685
151	0xbc486cda	-0.0122329835
152	0x3c21fcca	0.00988693
153	0xbbdf1674	-0.0068080965
154	0xbcdc5e23	-0.026900357
155	0xbc5684de	-0.013093201
156	0x3c48cc0d	0.012255681
157	0xbba2e1cb	-0.0049707643
158	0x3c414956	0.01179727
159	0x3c17a82d	0.009256405
160	0xbc8427b0	-0.016132206
161	0xbc683ebf	-0.014175116
162	0xbc8de145	-0.017319331
163	0xbb75e142	-0.0037518297
164	0xbc7851f3	-0.015156257
165	0x3cc94282	0.024567846
166	0xbc117e72	-0.008880245
167	0x3b18e022	0.0023326953
168	0xbb456e80	-0.0030125678
169	0xbad2ed5c	-0.0016092467
170	0x3c222bdd	0.009898153
171	0xbc2f3ea6	-0.010696089
172	0xbc9fa9d0	-0.019490153
173	0xbce01b88	-0.027356878
174	0xbc937e06	-0.018004429
175	0xbcde615b	-0.027146032
176	0xbc4b5979	-0.012411469
177	0x3b96111b	0.004579676
178	0x3bcda26c	0.0062754657
179	0xbce2fc0c	-0.027708076
180	0x3c5e492d	0.013567251
181	0xbb893933	-0.004187727
182	0x3bff2dd0	0.0077874437
183	0xbb472ea7	-0.0030392797
184	0xbaf3a09b	-0.0018587293
185	0xbc80dc55	-0.015730062
186	0x3c48a793	0.012246984
187	0x3c6a3477	0.014294735
188	0xbc619ef7	-0.01377081
189	0xbcf8d4d5	-0.030374924
190	0xbd000e52	-0.031263657
191	0xbb950d92	-0.004548737
192	0x3c85f213	0.016350782
193	0xbcf19e35	-0.029494384
194	0x3bd60849	0.0065317494
195	0x3c121c07	0.008917815
196	0xbc40238e	-0.011727227
197	0xbb4743d8	-0.0030405428
198	0x3baa4f67	0.005197454
199	0xbcb69821	-0.022289338
200	0xbc6d8b3f	-0.014498531
201	0xbcaf58c4	-0.021404631
202	0xbc77ff2c	-0.015136521
203	0xbd0aa675	-0.033850152
204	0x3c6396a8	0.0138909
205	0x3a5d0779	0.00084315945
206	0xbc8bae87	-0.017050995
207	0xbc955fdc	-0.018234186
208	0xbc21ec16	-0.009882947
209	0xbc564aa5	-0.01307932
210	0x3c10452f	0.008805557
211	0x3c04fdef	0.008117183
212	0xbc09da67	-0.008413888
213	0xbca32f5c	-0.019920044
214	0x3c98f6ad	0.018672312
215	0xbc6c0b05	-0.014406924
216	0x3c8d9390	0.017282277
217	0x3c55eb1c	0.013056543
218	0xbc879e5b	-0.016555002
219	0xbc89ba98	-0.016812608
220	0xbb9b375c	-0.004736824
221	0xbd21c0a3	-0.039490353
222	0xbc92695b	-0.017872503
223	0xbc97e503	-0.018541818
224	0xbca93835	-0.020656684
225	0xbc3a77b2	-0.011381077
226	0xbc36832b	-0.011139671
227	0xbb755c4d	-0.0037439049
228	0x3cbed9b2	0.023297165
229	0xbbbde4ed	-0.0057951123
230	0xbc7dbc27	-0.015486754
231	0x3caaf504	0.020868786
232	0x3bb989a5	0.0056621605
233	0xbb890da7	-0.0041825357
234	0xbc4d3ab2	-0.012526201
235	0xbbe65644	-0.0070293266
236	0xbb89c737	-0.0042046565
237	0xbcabed15	-0.020987073
238	0xbc2ece32	-0.010669278
239	0x3b9360f7	0.004497643
240	0xbce80c9c	-0.028326325
241	0xbc891ee7	-0.016738368
242	0xbcb1a0da	-0.021683145
243	0x3c795c13	0.015219706
244	0xbcc2298d	-0.023701454
245	0x3ca11035	0.019661048
246	0xbccf6dbe	-0.025320884
247	0x3c08ee88	0.0083576515
248	0x3c4445ef	0.011979564
249	0x3a82e4b4	0.0009986372
250	0xbccc0d92	-0.024908815
251	0xbccbba4c	-0.024869107
252	0xbcedb384	-0.029016264
253	0xbc8416a3	-0.016124075
254	0x3c3789d6	0.011202296
255	0xbc06a175	-0.008217205

network_body._body_endoder.seq_layers.4.weight f4 [256, 256]
0	0xbcaeb796	-0.021327775
1	0x3ce5c63a	0.028048623
2	0xbd421bff	-0.04738998
3	0x3d4186dc	0.047247753
4	0xbd718e8f	-0.058973845
5	0xbde1f9bd	-0.11033962
6	0xbb98530c	-0.004648572
7	0x3d308a6c	0.04310076
8	0xbba27236	-0.0049574627
9	0x3de4820d	0.11157618
10	0x3d352575	0.044225175
11	0xbc63ffc4	-0.01391596
12	0xbcd7c612	-0.026339564
13	0xbc18c9c8	-0.009325452
14	0xbddda35c	-0.10822174
15	0xbe36d7e5	-0.17855795
16	0x3d2717dd	0.040794242
17	0xb9aba2ae	-0.00032736867
18	0x39b12ae8	0.00033792038
19	0x3d4661b0	0.048433006
20	0x3d0ab9be	0.033868544
21	0x3d3378e1	0.04381645
22	0x3bbbf0f3	0.0057355105
23	0x3d1b1e93	0.037870955
24	0xbd1acb94	-0.037791803
25	0xbd3a0008	-0.045410186
26	0xbb95d2cb	-0.0045722476
27	0xbd9b13b0	-0.075721145
28	0xbcc7cc3c	-0.024389379
29	0xbc8fd0f8	-0.017555699
30	0x3d83baf5	0.064321436
31	0xbdb2af70	-0.08724868
32	0xbd1ae814	-0.037818983
33	0xbd2b292c	-0.04178731
34	0x3da83819	0.08213825
35	0xbe158b77	-0.14603983
36	0xbd1970fc	-0.037461266
37	0xbc5f7027	-0.013637579
38	0xbe069500	-0.13142776
39	0x3d974bcb	0.07387503
40	0xbd06777c	-0.032828793
41	0xbd15a692	-0.036535807
42	0xbd2c8ec9	-0.042128358
43	0x3d23fc5d	0.040035594
44	0x3d14b453	0.036304783
45	0xbdebb586	-0.11509232
46	0x3dbe0015	0.092773594
47	0x3c8655b3	0.016398286
48	0x3dd07673	0.101788424
49	0xbc76323f	-0.015026628
50	0xbd7223fa	-0.05911634
51	0xbd5d1600	-0.05397606
52	0x3d65a99a	0.056069948
53	0xbd20946d	-0.03920405
54	0x3c0827ca	0.008310268
55	0xbd823e47	-0.06359535
56	0x3d850282	0.06494619
57	0x3e03c3c3	0.12867646
58	0xbcdd1c3b	-0.026991
59	0x3dba8604	0.09107593
60	0xbbdfed59	-0.006833714
61	0xbde33185	-0.110934295
62	0x3b035718	0.0020040926
63	0xbd9387f7	-0.072036676
64	0x3c8722e9	0.016496139
65	0xbe053585	-0.13008697
66	0x3cbadb59	0.022809671
67	0xbd4ca242	-0.04995943
68	0xbd6d51ed	-0.05793946
69	0x3be844d4	0.007088283
70	0xbd67ae25	-0.05656256
71	0xbd97db20	-0.07414842
72	0x3e10f39a	0.14155427
73	0x3cdf7f96	0.027282517
74	0xbdf1d2ab	-0.1180776
75	0xbde6ef4e	-0.112761125
76	0xbd8bd45f	-0.06827616
77	0xbd0eb4d5	-0.034840424
78	0xbc8f9a28	-0.017529562
79	0x3d2e33bb	0.042529803
80	0x3e1fc20a	0.15601364
81	0x3d836646	0.064159915
82	0xbd27fd8a	-0.041013278
83	0xbdb248cb	-0.087052904
84	0xbcc6bd6d	-0.024260247
85	0x3d86f7bc	0.0659022
86	0xbc5d03dc	-0.01348969
87	0x3d173e7d	0.036924828
88	0x3b9117e9	0.004427899
89	0x3ddedeb8	0.10882324
90	0xbcd7dc9c	-0.026350312
91	0xbda4bed5	-0.08044211
92	0xbcfdfc0b	-0.031003973
93	0x3a48d2b5	0.00076607923
94	0xbd5cdba8	-0.053920418
95	0xbd42e0e9	-0.047577772
96	0xbca08372	-0.019593928
97	0xbd9a3879	-0.075303026
98	0x3d4967b4	0.049171165
99	0x3d5d2851	0.053993527
100	0x3c8c8c8b	0.01715686
101	0x3e1b2abb	0.15153019
102	0xbc0018b7	-0.0078183925
103	0x3d9d9f9a	0.07696457
104	0xbdf3105d	-0.118683554
105	0x3da0dbaf	0.07854401
106	0x3d50a921	0.050942544
107	0x3d8cab5a	0.0686862
108	0xbccdf73d	-0.025142306
109	0xbcce37fe	-0.025173184
110	0xbd36d210	-0.044633925
111	0xbd8d7b73	-0.06908312
112	0x3d950449	0.07276208
113	0x3da988a1	0.08278013
114	0xbdcb1c72	-0.09917535
115	0xbc325143	-0.010883632
116	0x3ca65a51	0.020306738
117	0xbdb373fb	-0.08762356
118	0xbd76a9fe	-0.06022071
119	0xbd54a4c1	-0.051914934
120	0xbcb353d3	-0.021890556
121	0xbda4d9b9	-0.0804934
122	0xbb42229c	-0.002962268
123	0x3d9ab162	0.07553364
124	0x3ca08e7e	0.019599196
125	0x3de0c9d1	0.109759934
126	0xbdbcb5aa	-0.09214337
127	0x3d02963e	0.031881563
128	0x3dac7387	0.084204726
129	0x3c95cefe	0.018287178
130	0x3d0931b1	0.033494655
131	0xbd6c025d	-0.05761944
132	0x3c7b35d5	0.015332659
133	0x3cf4f4b1	0.029901834
134	0xbca04924	-0.019566126
135	0x3d3a6caa	0.045513786
136	0xbd86efae	-0.06588684
137	0xbc99c6d7	-0.018771572
138	0xbdaa077c	-0.08302209
139	0xbc52244c	-0.012826037
140	0xbb683f71	-0.0035438205
141	0xbd2690ee	-0.04066556
142	0xbcf21834	-0.029552557
143	0xbdef7a52	-0.116932526
144	0x3c44b946	0.012007063
145	0xbd31d71b	-0.04341803
146	0x3ce53f35	0.027984241
147	0xbd858e10	-0.06521237
148	0x3cbe28e6	0.023212861
149	0xbd60aff6	-0.05485531
150	0x3b20c76f	0.0024532934
151	0x3c5de7d2	0.01354404
152	0x3db888de	0.0901048
153	0x3da8f000	0.08248901
154	0x3d8c6d90	0.06856835
155	0x3d8ccfd3	0.06875577
156	0xbd17091e	-0.03687393
157	0xbc2cc176	-0.010544172
158	0xbd225c94	-0.03963907
159	0x3d8a0e37	0.067409925
160	0xbbf61e8b	-0.007510965
161	0xbd8b1016	-0.067901775
162	0xbd4de888	-0.050270587
163	0x3d3e1076	0.046402417
164	0xbd1535d2	-0.03642828
165	0x3ba6da47	0.0050919387
166	0xbd977bc7	-0.073966555
167	0xbd76cdff	-0.060255047
168	0x3d585c85	0.05282261
169	0xbdb8d81f	-0.09025597
170	0x3cbde009	0.023178117
171	0xbd478a28	-0.04871574
172	0x3ca49e6c	0.020095073
173	0xba2249c1	-0.00061908
174	0x3de4a729	0.11164696
175	0x3c4449df	0.011980503
176	0xbc61ee77	-0.013789765
177	0x3d37c1d3	0.04486258
178	0xbc096cda	-0.008387769
179	0x3cde2d17	0.02712111
180	0x3d5abeed	0.053404737
181	0x3d1ec8a6	0.038765572
182	0x3d636a11	0.055521075
183	0x3d6a4708	0.057196647
184	0xbcbffe81	-0.023436787
185	0xb9d541a0	-0.0004067542
186	0x3d0d4f46	0.03449943
187	0xbd647243	-0.05577303
188	0xbd4dc94e	-0.050240807
189	0x3d66101d	0.05616771
190	0x3d2186e7	0.039435294
191	0x3bfc0d88	0.0076920427
192	0x3a41bc6e	0.0007390444
193	0x3ca2aaac	0.019856773
194	0x3dd9261d	0.10602973
195	0xbd0fbea8	-0.035093933
196	0xbd0e0020	-0.034668088
197	0x3db91737	0.09037631
198	0xbdae098e	-0.08497916
199	0xbdcb4d1a	-0.09926815
200	0xbdaf97db	-0.08573886
201	0xbbe353d8	-0.006937485
202	0xbdb41095	-0.08792225
203	0x3aa27373	0.0012394026
204	0xbda5dbb6	-0.08098547
205	0x3d676668	0.056494147
206	0x3d0cbffc	0.034362778
207	0xbd8ab441	-0.06772662
208	0xbd0143df	-0.031558868
209	0x3d235b28	0.039881855
210	0x3d9647aa	0.073378876
211	0xbb14a7f2	-0.002268311
212	0xbdc461f8	-0.095889986
213	0xbd1babad	-0.03800552
214	0xbde98f90	-0.114043355
215	0x3e0f84d5	0.14015515
216	0x3c44b5ab	0.012006204
217	0xbd83f441	-0.06443072
218	0x3c0e1370	0.008671626
219	0xbba3cfc3	-0.0049991324
220	0x3c2d41ac	0.010574739
221	0x3c004044	0.007827822
222	0x3ceecc51	0.02915016
223	0x3d3e55db	0.046468597
224	0x3aacf875	0.0013196605
225	0x3da42727	0.0801528
226	0xbcaefab6	-0.021359783
227	0x3db5b6aa	0.08872731
228	0x3d6fec35	0.058574874
229	0x3cbcd440	0.023050427
230	0xbd01038d	-0.031497527
231	0xbb6a6e00	-0.0035771132
232	0xbd0e58a2	-0.034752496
233	0x3c847307	0.01616813
234	0x3d72b69f	0.059256192
235	0x3d0a2a02	0.033731468
236	0x3dc8e989	0.09810168
237	0xbd30d39c	-0.043170556
238	0xbb8bad2c	-0.004262587
239	0x3ba0b3ec	0.004904261
240	0x3d552165	0.0520338
241	0xbd4fc539	-0.050725196
242	0x3c2b578e	0.010457886
243	0xbc9f8f51	-0.019477518
244	0xbd6c31c3	-0.057664644
245	0x3dc24549	0.09485871
246	0x3c7d2ecb	0.015453051
247	0xbd0e9187	-0.034806754
248	0x3d5d32cf	0.054003533
249	0xbd6e6a59	-0.05820689
250	0xbd833341	-0.0640626
251	0xbc06528f	-0.008198394
252	0xbbcc5a53	-0.0062363534
253	0xbe44e9e4	-0.19229847
254	0xbdfd689b	-0.123734675
255	0x3d54b87f	0.05193376
