Assets/Training/results/track3_learned/config_track4/config_track4-999970.onnx (onnx, 600385 bytes, 9 tensors)

action_model._continuous_distribution.log_sigma f4 [1, 2]
000000 65 3e 69 be 0b 26 eb be
       -0.22777708 -0.45927462

action_model._continuous_distribution.mu.bias f4 [2]
000000 0a bb be 3c b7 f2 d6 3b
       0.023282547 0.0065596956

action_model._continuous_distribution.mu.weight f4 [2, 256]
000000 2a cd 1f 3b 5f 74 09 bd ff 15 1d ba 04 f0 23 3b
       0.0024383762 -0.033558246 -0.00059923524 0.0025014887
000010 ba d8 46 bc 94 c1 00 3d 78 14 a4 bc d4 3c eb bc
       -0.012136633 0.03143461 -0.020029292 -0.028715529
000020 dd 9c 1c bd 82 77 07 bd 67 8b 77 3c 06 6a 1d bd
       -0.038235534 -0.033072956 0.01510892 -0.03843119
000030 a3 5f 91 bb e2 ed a8 3c f0 76 1e bd 7e 77 23 bd
       -0.0044364496 0.020621244 -0.038687646 -0.03990888
000040 a7 63 de 3c dd fc 97 bc 81 13 13 bd 17 53 c9 3c
       0.027147127 -0.018553192 -0.035907272 0.024575753
000050 c5 fc bf 3c ad 6e 0e bc 1d e6 aa bc 0a 16 9d 3c
       0.02343596 -0.008693379 -0.02086168 0.019175548
000060 45 20 dc bc 69 d9 83 bc 2a 08 93 bc 8b 84 0d bd
       -0.026870856 -0.01609488 -0.017948229 -0.03455023
000070 b4 f7 92 bc 5b df da 3b ea 2b e5 bc 56 08 98 bc
       -0.01794038 0.006679458 -0.027975041 -0.018558662
000080 1d ad 28 bd f8 26 0a 3c d8 9f 94 ba 3b 45 84 3b
       -0.04118072 0.008432142 -0.0011339141 0.004036573
000090 fb d0 36 3c 3a 0b bd 3b b3 ed 56 3b 9f 09 d8 ba
       0.011158223 0.0057691606 0.0032795488 -0.001648236
0000a0 0d 2a c9 bc b1 96 db bc 54 ad fc 39 6f 2d ca bc
       -0.024556184 -0.026805254 0.00048194325 -0.024679868
0000b0 c7 cb 8f bd 75 5b 65 bc 28 39 b3 ba 6d e6 07 3c
       -0.07021289 -0.013998856 -0.001367365 0.008294684
0000c0 c6 cf 66 3c e5 72 a6 3c 78 3c 7e bc 91 4f b8 bc
       0.014087623 0.020318458 -0.015517347 -0.022498878
0000d0 a9 9d 26 3c 02 5c 41 3c ab 23 fb bc 21 a3 c4 bc
       0.010169425 0.0118017215 -0.030656656 -0.024003567
0000e0 28 1b ab bc 3d 05 f6 bc 95 be b6 bc 93 12 30 bd
       -0.020886973 -0.030031795 -0.022307673 -0.042986464
0000f0 ea cf 76 3c f6 19 90 3c 9c cd f1 3a 81 65 07 bd
       0.015064219 0.017590504 0.0018448117 -0.033055786
000100 86 48 bc bc 32 9c c1 bb 04 60 d9 bc d0 53 db 3c
       -0.0229838 -0.0059085125 -0.026535042 0.026773363
000110 e4 2f 53 bc f2 3d 91 bc de 8c cb bc 23 a0 a0 3c
       -0.012889836 -0.017729733 -0.024847444 0.01960761
000120 87 60 4b bd 86 6d 27 bc 96 6c 9c 3b ac 98 0e bd
       -0.049652603 -0.0102189835 0.0047736866 -0.034813568
000130 98 b7 8f 3c b1 46 be bc d6 ea fe bc 38 87 df bb
       0.017543599 -0.023227068 -0.031117838 -0.0068215393
000140 c4 bf 95 bc 1a 15 bb bc 3c f0 94 bc 8d e2 c5 bb
       -0.018279918 -0.02283721 -0.018180959 -0.00603897
000150 9b 64 ad 3c e6 05 6a bb 34 09 18 3d a0 a7 ac bb
       0.021166136 -0.0035709082 0.03711815 -0.005269006
000160 1c 7f 1e bd db 47 93 3c 88 33 d2 bc a9 7e de bc
       -0.03869544 0.0179786 -0.025659338 -0.027160006
000170 3d 6c 4d bc c9 01 a4 bc ac 48 c0 bc be 5c f0 bb
       -0.012538013 -0.020020382 -0.023472153 -0.0073352745
000180 f4 1a 36 bc 22 4a b7 39 1f 14 fd 3c a0 65 e1 3b
       -0.011114825 0.00034959713 0.030893384 0.0068785697
000190 69 df cc bc 29 39 39 bd 10 e0 e0 bb 3b be 55 bc
       -0.025008874 -0.045220528 -0.006862648 -0.013045843
0001a0 da fd 18 bd 8d b5 f0 3b 9a 39 12 3d 5d 3c 86 bc
       -0.037351467 0.0073458613 0.035699464 -0.016386205
0001b0 55 5e 6e 3c 1c f2 82 3c 94 13 33 bd ab ad ed bc
       0.014548858 0.015984587 -0.043719843 -0.029013475
0001c0 1c 06 8e bc 0c d9 14 bb 64 32 84 bc 55 a1 a2 bc
       -0.017336898 -0.0022712378 -0.01613731 -0.01985232
0001d0 c9 ae 1a 3c a3 e2 52 3c 07 c0 1c 3c c0 26 17 bd
       0.009441086 0.012871417 0.009567267 -0.03690219
0001e0 74 25 5f 3c 00 b1 6c bd 56 31 c2 3b ec 32 15 bd
       0.013619769 -0.057785988 0.0059262915 -0.036425516
0001f0 db f1 12 3a cd 2d 93 bc 9d 67 a4 bc 3f 3a d9 bc
       0.0005605497 -0.017966175 -0.020068938 -0.026517032
000200 fb e1 17 bb 06 52 05 3b b1 10 29 bc 23 42 d2 bc
       -0.0023175466 0.002034308 -0.010318921 -0.025666302
000210 4b 79 3d 3c 92 ab 18 bd 71 89 46 bd 97 46 13 3b
       0.011564563 -0.037272997 -0.048470918 0.0022472495
000220 a5 4d 89 3c fc 9b e8 b8 d4 d1 13 3d 56 17 86 3a
       0.016760657 -0.000110916764 0.03608878 0.0010230343
000230 5d 9e 11 bc 9e c7 d3 bc ad 44 fe bc a6 e2 4f bc
       -0.008887854 -0.02585202 -0.031038607 -0.012688315
000240 15 a0 0e bd e0 06 15 bc d6 95 8f 3b aa 57 bc ba
       -0.034820635 -0.009095877 0.0043818755 -0.0014369388
000250 99 8f 38 3b cd d6 af 3c fb a8 c5 bc cc 47 c9 bc
       0.0028161763 0.02146473 -0.024128428 -0.024570368
000260 3d cd a1 b9 2e 91 1c 3c ce af 3a bd 60 cf cc bc
       -0.00030861227 0.009556098 -0.045577817 -0.025001228
000270 c9 4b 78 bb bc bd 8e bc e6 7f f3 b9 c8 a5 9b ba
       -0.0037886968 -0.017424457 -0.00046443864 -0.0011874968
000280 c1 86 25 bd ee d7 64 bc 1c e9 db bc ab 81 8d ba
       -0.040411714 -0.013967497 -0.026844554 -0.001079609
000290 9d 75 40 bc b1 fc 94 3c e8 c8 6f bc 28 e3 9a 3c
       -0.011746791 0.018186899 -0.014635302 0.018907145
0002a0 3c 3c ec 3a 3f f3 21 bb c9 9e 5d 3c c1 71 71 38
       0.0018023322 -0.0024711636 0.013526627 5.756482e-05
0002b0 3d c3 8b bc 3e cf 16 bd a1 7b aa bc 75 c8 ef bc
       -0.01706087 -0.036818735 -0.020810904 -0.02927039
0002c0 d1 6b 0c bd e9 be 1f 3c 1e ad 14 3c 8d 79 01 bd
       -0.03428251 0.009750106 0.0090744775 -0.03161006
0002d0 fd ed 33 3c 11 44 39 bc 65 47 c7 ba 33 58 82 3a
       0.010982034 -0.011307732 -0.0015203772 0.0009944498
0002e0 fe 43 bd 39 d3 38 80 bc ec 77 a6 3c f0 17 6e 3c
       0.00036099547 -0.015652096 0.020320855 0.014532074
0002f0 0a e6 36 3b 75 08 16 bd 71 18 fa bc e7 30 dd ba
       0.002790811 -0.03662916 -0.030529233 -0.0016875536
000300 c6 7d 91 3c 99 79 07 bd 4c 72 99 bc 3e 00 38 3c
       0.017760169 -0.03307495 -0.018731259 0.0112305265
000310 26 9c 8f bc 8a 8a b2 3b 9a 35 c2 bb e2 97 be bc
       -0.017530512 0.005448644 -0.0059268 -0.023265783
000320 19 61 c7 bc f5 46 01 bc 5f 26 0d bd f2 27 a4 bc
       -0.024338292 -0.007890453 -0.03446042 -0.020038579
000330 d9 12 ee 3b ad 22 1f bd f7 61 16 bd 06 e7 ad bc
       0.0072654304 -0.03885143 -0.03671452 -0.021228325
000340 ea be 2b ba 59 3c a0 bc 6e b1 f2 bc cb 3b a7 3c
       -0.0006551581 -0.019560026 -0.02962562 0.020414254
000350 42 a1 99 bc af fa aa bc e7 f1 a2 3c a5 c6 bc bc
       -0.018753652 -0.020871488 0.019890739 -0.02304394
000360 da ab ce 3c a8 0e 9c bb 82 d6 28 bd b9 b8 da bc
       0.02522843 -0.0047624893 -0.041220196 -0.02669941
000370 03 1e 9e 3a e9 c5 90 bc 8e 9c 81 bb 90 4a a6 bc
       0.0012063388 -0.017672496 -0.0039554304 -0.020299226
000380 7e fd a7 bc a2 c2 a5 bb 54 1a 3a bd 5b 68 1c bd
       -0.020506617 -0.0050586024 -0.045435265 -0.03818546
000390 ae 02 de 3c 12 84 c3 3b 21 97 ed bb ad 60 16 3c
       0.027100887 0.0059666717 -0.007250682 0.009178323
0003a0 ef 42 48 bc 29 90 a4 bc c9 f7 5c bc 7d 4f c2 3b
       -0.012222989 -0.020088272 -0.013486811 0.005929886
0003b0 c6 c2 5f bc 2a b2 91 bb d4 07 aa 3b dc 95 60 3a
       -0.013657277 -0.0044462876 0.0051889215 0.00085672527
0003c0 3f f3 b4 bc b4 31 a6 bc 51 53 ac 3b 45 12 a3 3c
       -0.022088645 -0.020287372 0.0052589555 0.019906173
0003d0 ba e3 9a bc 63 2e db 3c 62 79 95 bc b7 f4 cc 3b
       -0.018907417 0.026755517 -0.018246356 0.006254758
0003e0 1a e3 47 3c c3 41 e1 bb 94 df 36 bd e3 fc 06 bd
       0.012200141 -0.0068742945 -0.044646814 -0.032956015
0003f0 e9 d8 26 bd 11 1f 2e bd 41 2c cb 3b 54 2b ce bb
       -0.040734205 -0.042510096 0.006200344 -0.006291786

network_body._body_endoder.seq_layers.0.bias f4 [256]
000000 9c 68 9e bc 76 fd 09 bd 02 a1 cb 3c 6a 2a 1e bc
       -0.019336991 -0.033688985 0.024857048 -0.009653667
000010 f7 1f 1b 3c 68 37 78 bc 6a 10 9c 3c 59 9a 8c 3c
       0.00946807 -0.015149929 0.019050796 0.017163442
000020 c4 9f 14 3c 27 c6 37 3c c7 2a 7c bc 79 f8 0b bc
       0.009071294 0.011216677 -0.015391058 -0.008543127
000030 56 01 ae 3b 8c a5 5e bc 70 f9 88 bb 8c ec 1c 3d
       0.005310218 -0.013589274 -0.004180126 0.038311526
000040 b8 c5 40 bc 10 0d 97 3c c2 c7 20 3c 7a 7e d3 3c
       -0.01176589 0.018438846 0.009813251 0.025817145
000050 89 db 35 3c b5 a9 f5 ba a9 a8 0a bb 2a 39 f8 bb
       0.011099705 -0.0018742593 -0.0021157658 -0.007575174
000060 de 33 57 bc 98 bf 9b bc a9 26 d7 bc b1 54 ab 3c
       -0.013134925 -0.019012257 -0.026263552 0.020914407
000070 23 01 6e bb b6 f7 09 bc f3 21 3b 3c 14 3a 90 3a
       -0.0036316596 -0.008420875 0.011421668 0.0011003637
000080 46 f7 91 bc 9a 2e 66 bc fa 5f 1b bc d1 af 09 bb
       -0.017818104 -0.014049197 -0.009483332 -0.0021009336
000090 3b 16 ca bc b3 a6 66 3b 2c 1f 8c 3a 13 e3 0d bb
       -0.024668803 0.0035194575 0.0010690442 -0.002165024
0000a0 c9 27 72 bc 23 3a 86 3c af 4f 4d bc 16 f2 94 3c
       -0.014779993 0.016385144 -0.012531205 0.018181842
0000b0 f9 94 6f 3c 60 1b 53 bb b8 db 14 bd f2 5c b8 bb
       0.01462292 -0.0032212362 -0.036342353 -0.0056263143
0000c0 f7 65 74 3b 7e d6 7d bc b8 33 b5 3a 51 14 85 3c
       0.003729222 -0.015493033 0.0013824617 0.01624504
0000d0 b4 49 b7 bb f9 6e 81 bb d0 92 4f 3c 71 4d b9 3b
       -0.005593503 -0.0039499965 0.01266928 0.0056549837
0000e0 0b bc 25 bb 8e 43 38 bc d4 ea 6e 3c 1f 16 16 3c
       -0.0025289084 -0.011246575 0.014582355 0.0091605475
0000f0 5f 3a a3 3c 3b 88 5c bb 66 01 21 3b 58 b5 19 bc
       0.019925294 -0.0033650536 0.0024567484 -0.009381615
000100 32 2d f5 ba 17 75 38 3c a1 5c aa 3a 5f 7d a7 bb
       -0.0018705486 0.011258385 0.0012997576 -0.005111381
000110 c3 a0 98 bb 85 2e 3a 3c 1a 01 ed 3b 53 af 1d 3c
       -0.004657836 0.01136363 0.0072327973 0.00962432
000120 9a 27 b2 bc 91 8e 7c ba 26 0e 45 3c 71 03 04 39
       -0.0217474 -0.0009634281 0.012027299 0.00012589783
000130 6c b6 d4 3b b0 d3 41 bc 2a 49 4e bc d6 81 89 bb
       0.006491473 -0.011830255 -0.012590686 -0.004196386
000140 31 66 57 3c 44 89 cb bc e4 19 98 3b 4b 7d b0 3c
       0.013146923 -0.024845727 0.0046417583 0.02154412
000150 b0 29 11 bd 77 ec f4 bb f5 a6 e1 bc 4e 55 91 3c
       -0.035440147 -0.007474478 -0.027545432 0.017740872
000160 91 d5 83 3b b6 86 de 3a d0 12 30 37 85 4a a7 bc
       0.004023262 0.0016977403 1.0494798e-05 -0.020421276
000170 9e f6 08 3d cd c9 84 bc 8b af 8b bc f4 98 8f bc
       0.033438317 -0.016209507 -0.017051479 -0.017528988
000180 f4 79 b9 3c 49 2a b2 bc af bf d7 bb 3e 02 9f 3a
       0.02264116 -0.021748679 -0.0065841298 0.0012131406
000190 fc 4e b8 bb 7f bf 85 bc ba a9 e7 bb de 56 16 bc
       -0.00562465 -0.016326664 -0.0070697935 -0.009175984
0001a0 16 72 2b 3c 59 6e 76 3b c1 74 90 3c d1 2f d8 3c
       0.010464212 0.0037602393 0.017633798 0.026389988
0001b0 ea fb 19 3d d2 cb 00 3b 97 64 85 bc 39 0a 8c bc
       0.03759376 0.0019652736 -0.016283317 -0.017094718
0001c0 61 70 f1 3a 8a c0 0b 3c 3e fd c0 3c 0f 20 f0 3a
       0.0018420332 0.008529792 0.023558255 0.0018320101
0001d0 49 7c 50 bb d8 86 07 3c 39 0b bd bb 00 0c 46 bb
       -0.003181236 0.008271895 -0.00576916 -0.0030219555
0001e0 bf 80 68 bc 19 08 b8 bc 90 5b 59 bc 7d e9 48 bb
       -0.014190852 -0.022464799 -0.013266459 -0.0030656748
0001f0 90 94 23 3d 4b 83 89 3c e8 e2 d9 bc 87 25 d3 bb
       0.039936602 0.016786238 -0.026597455 -0.0064436826
000200 a1 77 ab bb 59 94 43 bc 26 4d 32 ba fb 2b e8 bc
       -0.0052327667 -0.011937224 -0.0006801657 -0.028341284
000210 57 f2 41 bc 3c 2f 55 bc 6e b6 d2 bc b5 c5 d0 39
       -0.0118375635 -0.01301175 -0.025721755 0.00039820155
000220 6b 57 14 3c 61 3e 5d bc da 78 18 3c ee 3d 3f bb
       0.009054045 -0.013503642 0.009306157 -0.00291812
000230 30 70 25 39 70 23 e3 bc 14 05 ce bc bd d6 05 3c
       0.0001577742 -0.027726859 -0.025148906 0.008168873
000240 06 b5 48 bc f9 6e 5c 3a c7 07 bc bc d2 59 f4 3a
       -0.012250191 0.000840887 -0.022952927 0.0018642491
000250 ee fa e4 3b 01 83 d8 3c 89 e6 ba 3a 52 5e ba 3b
       0.006987921 0.026429655 0.0014259379 0.0056875134
000260 43 68 80 bc d0 1f 61 bc 02 90 6c bb ff 18 83 bc
       -0.015674716 -0.013740495 -0.0036096578 -0.01600313
000270 b3 2a 9c 3c eb 9f 03 3b 9d 65 36 3c f3 99 53 3c
       0.01906333 0.0020084332 0.011132625 0.012915122
000280 f7 dd 4c bc 99 b3 1f 3c ae 82 7e 3b ce bf 89 3a
       -0.012504092 0.009747409 0.0038835215 0.0010509433
000290 0b 75 08 bb 3b 8f 07 3d d7 c8 60 bb c2 8b 08 bb
       -0.0020821716 0.03309558 -0.0034299397 -0.0020835255
0002a0 0b 7a 0a bc a6 ef 94 3b 90 fc 8b bc 23 47 53 bb
       -0.008451949 0.00454517 -0.017088205 -0.0032238446
0002b0 76 67 de 38 32 b5 5a 3c b5 69 b1 3c 7b 7b 8f 3c
       0.00010605056 0.013348864 0.02165685 0.017514935
0002c0 b5 99 18 bc 1f 30 d5 3b 31 18 66 3b 29 27 a5 3c
       -0.00931399 0.0065059806 0.0035109634 0.020160275
0002d0 64 73 30 bb 9e 8e 97 bc 7f 5f 48 bc 6c d6 27 3c
       -0.0026924247 -0.018500622 -0.012229799 0.010243993
0002e0 8e af 53 3c 37 17 ba bb e2 5c 4d bb 2d 10 f4 bb
       0.0129202735 -0.005679037 -0.003133588 -0.0074482174
0002f0 72 5f 00 3b 66 9b b6 bc fe 35 f3 3a 76 d5 75 bc
       0.001958814 -0.022290897 0.001855552 -0.015004506
000300 a3 9a 5b 3c 21 79 c0 bc ba ad 98 bc 58 4f 8c ba
       0.0134035675 -0.023495259 -0.018637527 -0.0010704799
000310 c4 aa 5d 3c de ba 6d b9 7f 02 9b bc a5 68 d1 bc
       0.013529483 -0.00022671695 -0.018922089 -0.025562594
000320 22 8d c4 ba b7 86 15 bd 8d 32 62 3c 60 5a b0 bb
       -0.0014995674 -0.036505427 0.013805998 -0.0053818673
000330 08 72 fd bb 43 9d da 3c cd 71 ac bb 18 ae a6 3c
       -0.007734541 0.026686316 -0.0052625895 0.020346686
000340 c9 e4 cb 3b a1 0a 40 bc ca ca 60 bb 2e 29 cc 3b
       0.0062223417 -0.011721284 -0.003430056 0.006230495
000350 b5 15 48 bb 33 c9 57 bc cf b0 2d bc 87 68 a5 bb
       -0.0030530517 -0.013170528 -0.0106012365 -0.005047861
000360 c8 fb 47 bb d6 61 72 bb 32 95 dc b9 65 d8 d6 3c
       -0.0030515064 -0.0036984584 -0.0004207283 0.026226232
000370 5b 62 50 3c 19 fd 3e 3b 86 f3 2c 3d 24 d6 63 bc
       0.012718762 0.0029142557 0.04222443 -0.013906036
000380 0b 71 41 bc 5c 3b 48 bc e5 f5 80 ba 2b b0 40 bb
       -0.011806737 -0.012221184 -0.0009838907 -0.002940188
000390 31 da 24 bc f7 f4 82 bc 72 19 7b 3c 3f 62 b6 bb
       -0.0100617865 -0.015985949 0.015325891 -0.005565911
0003a0 7b 8a c5 bc 04 96 04 3c bd 3c 77 bb 82 93 15 3c
       -0.024113884 0.008092407 -0.0037725412 0.009129407
0003b0 e7 e8 72 bc c5 df d7 bb a0 36 32 3c cb 15 87 3c
       -0.014826036 -0.0065879547 0.010877281 0.016489884
0003c0 2b 2a 1c 3c ed 03 48 bc 1e 1e 64 3c 82 45 2f bb
       0.009531538 -0.012207967 0.013923196 -0.002674431
0003d0 62 5a 32 3a 2b 21 a4 3c ed 5e a8 bb ec 7c 0a bd
       0.0006803629 0.020035347 -0.005138269 -0.03381054
0003e0 74 1c bf 3b 48 4f 10 b8 67 c0 c8 3b 58 34 93 bb
       0.0058322493 -3.440611e-05 0.006126452 -0.004492324
0003f0 5c c4 6f bc 88 f8 6e 3b 0f 06 d8 3c b4 8f 24 3c
       -0.014634218 0.0036464054 0.026370076 0.010044027

network_body._body_endoder.seq_layers.0.weight f4 [256, 67]
000000 22 42 07 3d 3c 84 05 3e 48 54 d9 3b ae 3b ff bb
       0.033022054 0.13038725 0.0066323616 -0.007789097
000010 46 31 21 bd 9c 0a 47 3e 10 47 04 3e 6f 64 c6 bd
       -0.03935363 0.19437641 0.12917733 -0.09687125
000020 58 1b 57 3d 68 5f 95 bd bf ea 5c bb c1 d1 c4 3d
       0.05251631 -0.07293588 -0.0033709256 0.0961032
000030 50 b8 85 bd 82 8c 7d 3e 40 e7 4b 3e 5d 47 db 3d
       -0.065292954 0.2476063 0.19912434 0.10706971
000040 6c e8 c3 bd 37 02 8c bc 76 d3 af 3c f2 27 c3 3c
       -0.09565815 -0.0170909 0.021463137 0.023822758
000050 47 2e 04 3e f1 67 51 be 9a fb b2 bd b0 8e 8a bc
       0.12908278 -0.20449807 -0.087393954 -0.016913742
000060 8f cf 27 be f8 dc c1 3c 21 29 17 3e 71 cb a3 bd
       -0.16387771 0.023664936 0.14761783 -0.07997788
000070 18 da 90 3d 8a 8a 4d bd 53 f1 07 3e 1e fb 8c 3d
       0.07072848 -0.05018095 0.13275652 0.06883834
000080 58 12 96 be 3c f8 bd bc 1b 1f c1 39 9f b4 a7 bc
       -0.2931087 -0.023189656 0.00036835004 -0.020471869
000090 6c 88 07 be d9 9c b0 3c 94 3a a8 3e 9c 80 49 bd
       -0.13235635 0.021559166 0.32857192 -0.049194917
0000a0 73 e0 e7 bc e8 1f c3 bc f6 7d 06 be 42 4f 90 bc
       -0.028305268 -0.023818925 -0.13133988 -0.017615918
0000b0 c0 b4 43 3e 5b 13 b2 bd 0a c1 99 bb 05 38 a2 bd
       0.1911192 -0.08695098 -0.0046922015 -0.07920841
0000c0 b2 d9 14 3d b3 61 31 bc 56 17 78 bb 8f ed 04 3c
       0.036340423 -0.010826516 -0.0037855706 0.008113279
0000d0 8a 59 17 3e 12 8b 04 be f1 8f 0f 3e 76 b3 85 3c
       0.1478025 -0.12943676 0.14019753 0.016320925
0000e0 31 31 4a bd 49 33 59 be f3 04 ef bd e2 ed 0c bd
       -0.04936332 -0.2121097 -0.11670866 -0.03440655
0000f0 d8 17 ad be 07 59 30 3d 2b b1 1a bc 37 6b 27 3e
       -0.33807254 0.043053653 -0.009441654 0.16349493
000100 4a 41 87 3d 12 64 03 3d 63 89 f8 bd 4d ab 46 be
       0.0660425 0.032077856 -0.121355794 -0.19401284
000110 f5 df 50 3c 53 16 87 3d 18 b8 92 be b0 75 be bb
       0.012748708 0.06596055 -0.28656077 -0.0058123693
000120 f4 d8 07 3c c3 a2 48 3e d4 1b 04 be 24 c4 02 3c
       0.008291472 0.19593339 -0.1290124 0.007981334
000130 4d 96 38 be a2 c0 98 bd ce 10 18 3d 6f 9f ac bb
       -0.18026085 -0.07458617 0.0371254 -0.0052680294
000140 5a 5b e4 bc 08 ed 03 be 91 45 81 3d 07 9c dc bd
       -0.027875591 -0.12883389 0.06312097 -0.10771947
000150 af b9 3e 3e 0b df 18 be d4 68 e5 3c bd 19 ba 3c
       0.1862552 -0.14928834 0.028004088 0.022717351
000160 61 a0 97 3c c4 b3 10 3e 55 8b 07 3e 4a 48 a8 be
       0.018509092 0.14131075 0.13236745 -0.32867652
000170 e5 1a 9a bd ae 57 84 3d c8 72 76 bd 32 5a 59 be
       -0.07524661 0.06462036 -0.060168058 -0.21225813
000180 9d 39 13 3d f9 d5 0a bc 11 af 3f be 78 32 0a 3e
       0.035943616 -0.008473867 -0.18719126 0.13495815
000190 56 13 10 be 82 f9 da bc ad db 3d be 74 70 17 be
       -0.14069876 -0.026730303 -0.18540831 -0.14788991
0001a0 73 57 50 39 46 19 13 3c 58 b8 23 be 53 e1 73 bd
       0.00019869003 0.008978194 -0.1598829 -0.059541058
0001b0 88 63 84 be 66 80 e4 3d b5 5c 6e bd a1 cd 5d 3e
       -0.25857186 0.111573026 -0.05819388 0.21660472
0001c0 b3 3e 86 bd 75 74 99 3d ab f0 cb bd 5a 3b f5 3d
       -0.06554928 0.074929155 -0.09958013 0.11974211
0001d0 7f 1a 84 bd f7 a7 d1 3d f5 3e 21 3e 2d f9 cf bd
       -0.06450366 0.10237115 0.15746672 -0.101549484
0001e0 f8 d1 34 be 0d a9 01 be 44 e9 75 be c8 8b 60 3a
       -0.17658222 -0.12662144 -0.24014765 0.0008565751
0001f0 bc 8a ea bc 45 ab a5 bd d2 4c 1a 3e 19 0e 48 be
       -0.028630607 -0.08089308 0.15068367 -0.19536628
000200 fe d4 0b 3d 53 2f f4 bd d7 68 a1 be dc 69 c0 3d
       0.034138672 -0.11923089 -0.315253 0.09395191
000210 1e fc 82 3c 4d 30 a0 3e dd 01 8b 3d c1 a2 0c be
       0.01598936 0.3128685 0.06787465 -0.1373396
000220 8e d2 d4 bc dc f7 00 3e e6 8c b1 3c b7 e0 83 3c
       -0.025979307 0.12594551 0.02167363 0.016098363
000230 c1 52 44 bc 94 fb 6d 3e a6 c7 95 3d 87 52 5c bd
       -0.011982621 0.232405 0.073134705 -0.05378964
000240 85 85 ca 3d 0d 07 3c 3c 02 8e 8c 3d b9 7f 9e ba
       0.09888748 0.01147629 0.06863023 -0.0012092508
000250 e7 86 5a 3e 23 3e 11 be b8 73 ba bc 0b 9b 9e bd
       0.21340524 -0.1418386 -0.022760257 -0.07744416
000260 23 ae 03 bd f1 17 84 3d c8 dc 22 3c 72 c2 03 be
       -0.03214849 0.06449879 0.009940334 -0.12867144
000270 8c ec 7a bd 0f 02 da 3c 22 8b 09 be 0a d2 0b bd
       -0.061260745 0.02661231 -0.13431981 -0.034135856
000280 4e 4d eb bc b0 e7 38 bd 5d 0e 27 bd d1 a9 70 bd
       -0.028723385 -0.04514283 -0.040785182 -0.0587557
000290 9f 66 ff bd ab 43 d3 3d 37 88 02 3e 12 88 e3 bd
       -0.12470745 0.10315641 0.12747274 -0.11109938
0002a0 18 c5 33 3d fd ae 36 be 84 d3 30 be 93 e6 42 bd
       0.043889135 -0.1784019 -0.17268187 -0.047583174
0002b0 c4 1a ea 3c 7d b4 21 be f8 55 98 3e fe a1 b2 be
       0.028577216 -0.15791507 0.2975309 -0.34889215
0002c0 f6 b0 58 3d 1d 98 03 3d 08 bb 03 3d 94 cb 10 3e
       0.052903138 0.03212749 0.03216079 0.14140159
0002d0 45 c2 ec 3d c5 49 6c 3e ef ae 88 3d a9 74 ec bd
       0.115604915 0.23075016 0.06673991 -0.11545689
0002e0 fd df 54 bd c0 f8 43 be 69 1e b6 bd c6 02 00 3e
       -0.051971424 -0.1913786 -0.08892519 0.12501058
0002f0 31 9d cc 3d c6 a0 4a be e7 be 58 bd c5 e0 80 bd
       0.099909194 -0.19787893 -0.052916434 -0.062928714
000300 94 35 aa bc 72 f7 ea ba e2 cf 5f 3c 2d 77 46 3d
       -0.020777501 -0.0017926528 0.013660403 0.0484535
000310 c6 a6 3b be e3 d7 33 3e d1 e5 53 3e ad d6 33 bc
       -0.18325338 0.17562823 0.20693137 -0.010976476
000320 1d 83 87 bd 35 70 86 bb f5 de 0d bd 3a 9d 81 3d
       -0.06616805 -0.0041027316 -0.034636457 0.06328817
000330 1d c7 8f 3d 4d ea 6d bd 57 9a 33 3c 42 97 6a 3e
       0.070204 -0.058084775 0.01096209 0.22909263
000340 bc 2a c0 3d ca 17 cd bd 2f 2e 65 3d 2e 06 db bd
       0.09383151 -0.10014303 0.055952247 -0.10694538
000350 ed 8d 17 be 71 cb 2e 3d 95 c6 11 be 3a 16 d1 3c
       -0.14800234 0.042674486 -0.1423591 0.025523294
000360 ea f3 df 3d c5 8d a1 be 22 30 9a 3d 57 1a 1f be
       0.10935195 -0.31553474 0.07528712 -0.15537392
000370 13 5f 78 be 3a 4b 37 3e 61 f4 47 3e c5 a4 52 3e
       -0.24255018 0.1789979 0.19526817 0.20570667
000380 14 99 89 bd 71 af 58 bd 53 6e 0e be 49 3a 50 be
       -0.067186505 -0.05290169 -0.13909273 -0.20334734
000390 2b 82 7c 3d fa 5c 03 3e 04 f8 39 bc ad f7 1f bd
       0.061647575 0.12828436 -0.011350635 -0.03905456
0003a0 c8 8a aa bd 01 e7 81 3d 33 eb f0 bb d2 35 38 3a
       -0.08327252 0.063428886 -0.0073522567 0.0007027063
0003b0 85 47 a1 3c 01 b7 46 be 60 44 7c 3d 5f db e1 bc
       0.019687423 -0.19405748 0.061588645 -0.027570425
0003c0 4d 74 06 be 62 55 c5 bd 52 b0 36 3e 53 95 da 3b
       -0.13130303 -0.09635426 0.17840698 0.006670633
0003d0 ef 08 10 be 7d 0d 76 be 7e d2 d0 bd 43 ef 42 bc
       -0.14065908 -0.24028583 -0.10196398 -0.011897865
0003e0 e6 2b 65 3d 1c 28 44 3d 74 e0 c0 3c 96 d8 0d 3d
       0.055950068 0.047889814 0.023544528 0.03463038
0003f0 99 e8 41 be 2e 99 0e be 24 a6 f4 bc 3f 63 66 3e
       -0.18936385 -0.13925621 -0.029864378 0.22498797

network_body._body_endoder.seq_layers.2.bias f4 [256]
000000 8a 4f d6 3b b7 0a 98 bb 88 c8 ef b9 83 0d 1d 3c
       0.0065402435 -0.004639949 -0.0004573504 0.009585741
000010 06 ea 00 3c 4a 31 96 3b 87 41 38 bc b1 7f 99 bb
       0.007868296 0.0045835124 -0.011246092 -0.0046844115
000020 c8 c7 76 bc 96 3d d7 3b 4c 2f 70 bb bb c7 68 bc
       -0.01506228 0.006568621 -0.0036649285 -0.014207776
000030 27 1a 5c bb 27 23 fc ba 9d b5 aa 3a 9f 10 74 3c
       -0.0033584924 -0.001923655 0.0013024096 0.014896541
000040 e3 55 43 bc 39 33 80 bc 54 a2 9b bc ce 17 13 3b
       -0.011922332 -0.015649425 -0.018998303 0.0022444609
000050 f3 87 76 bc a4 f0 87 bc 13 af b0 bc 6d 4f 3d 3c
       -0.015047061 -0.016594239 -0.021567857 0.011554581
000060 c0 0a ed bb 04 36 3f bc 89 47 81 3b 15 8d 6f 3c
       -0.0072339475 -0.011670593 0.0039452952 0.014621039
000070 3d a5 a6 3b 14 17 86 bb 16 9b 55 bb 69 14 03 bc
       0.005085616 -0.0040921066 -0.003259366 -0.008000472
000080 d3 9e b5 bc 11 07 80 3b 53 5e 9b 3b 1a 80 93 3a
       -0.02217046 0.0039070924 0.004741469 0.0011253387
000090 7f 03 68 3b fd fd 91 3b 89 c8 93 bc bd 88 88 3c
       0.0035402474 0.0044553266 -0.018039959 0.016666764
0000a0 75 13 a7 3b 60 da 02 3c 7b 1e 04 bc 49 11 68 ba
       0.005098755 0.007986635 -0.008063908 -0.00088526733
0000b0 7c a5 82 bc 99 9e 97 3b db ea 75 3a 48 3b 56 bb
       -0.01594805 0.0046270606 0.00093810045 -0.0032689143
0000c0 ae f2 b8 bc 18 a9 f6 3b fc 8c 8a 3c b6 32 66 3b
       -0.022576656 0.0075274818 0.01691293 0.003512544
0000d0 63 cc f2 3b 8f 59 66 3b 33 91 71 3c f3 4c 24 bb
       0.0074096187 0.0035148596 0.014744091 -0.002507028
0000e0 8c 35 4c bc 79 b6 1c 3c 1e 31 bb bb 2c 13 d2 bb
       -0.012463938 0.009564989 -0.0057126423 -0.006410977
0000f0 61 a5 28 bc 91 fb 69 3c f7 f5 44 bc 75 14 85 bc
       -0.010293336 0.0142811695 -0.012021533 -0.016245106
000100 75 f0 f7 3b 57 93 f5 3b 75 62 9e 3b b5 b5 ff 3a
       0.0075665065 0.007494371 0.0048335143 0.0019509109
000110 47 44 30 3c 57 54 8c bc 09 34 ac bb 60 60 d0 3b
       0.010758466 -0.01713006 -0.0052552265 0.006359145
000120 ec ce 1d 3c a5 81 bd bc 3b 8e cd 3b 30 13 5d 3c
       0.009631854 -0.023133108 0.0062730587 0.013493344
000130 13 d9 32 3c 5b 6d f8 bb 61 ad 74 ba ca 89 32 bc
       0.010916012 -0.0075813956 -0.0009333697 -0.010897109
000140 b9 d0 36 bc 18 e5 be 3b 8e 89 0f bc 6d 5c 12 bb
       -0.011158162 0.00582565 -0.008760823 -0.0022332922
000150 59 b0 24 3b d8 00 4c bc 87 e3 0a 3b f1 07 32 b9
       0.0025129525 -0.012451373 0.0021192746 -0.00016978361
000160 1e 3b 91 3b 79 63 ff 3b 57 35 39 3c 0d 1c 32 bc
       0.004432096 0.0077938405 0.011304221 -0.010870946
000170 8e ab 9c 3c f5 ce 81 bc db ce 1f bc 4a 4b 18 bb
       0.019124772 -0.015845755 -0.009753908 -0.0023238235
000180 5c 49 c7 3b 06 21 46 3b 23 dc 90 bc c7 03 d3 3b
       0.006081743 0.0030232086 -0.017683094 0.0064396593
000190 12 0d 6f bc da aa e8 3b bb d3 82 bb 6a c6 9d bc
       -0.014590519 0.007100445 -0.0039925254 -0.01925965
0001a0 a7 35 12 b9 ae 34 1f 3c 28 17 88 bc 96 21 43 3c
       -0.00013943632 0.00971715 -0.016612604 0.011909863
0001b0 b1 69 2d 3c 4c 87 84 3c 67 53 42 bc 70 6a a4 bb
       0.010584281 0.016177796 -0.011860705 -0.005017571
0001c0 f7 50 cb 3b 92 5a c8 3b ad f3 f2 bb 0c 74 80 3c
       0.00620472 0.0061143124 -0.0074143023 0.015680335
0001d0 7d e1 11 bc d9 26 00 bc 30 dc fc 3b 0a dc 91 bc
       -0.008903858 -0.007821762 0.007716678 -0.017805118
0001e0 31 5b b8 3b 6f a4 e2 3a 25 a6 92 3c 26 c6 78 bc
       0.0056261052 0.0017291437 0.01790149 -0.015183961
0001f0 78 98 af bc a8 f7 27 3b 56 5d 0c bc 0d 86 7b bc
       -0.021435007 0.0025629792 -0.008567175 -0.015351784
000200 34 81 b3 3b 29 95 51 3b c4 a2 3e 3b e0 54 06 3c
       0.0054780487 0.0031979776 0.0029088715 0.008198947
000210 75 6a 3d bc fb c8 2e bc 3c 4b 7b bc e9 71 91 bb
       -0.011561026 -0.010668035 -0.0153377615 -0.004438628
000220 33 7c 3b 3b 23 07 41 bc 44 39 3a 3c f8 93 96 bc
       0.0028607964 -0.011781487 0.011366192 -0.018381104
000230 6a a9 42 3c 41 33 76 bc 9b 7f 70 3b f8 6d bb bc
       0.011881212 -0.015026868 0.0036697153 -0.022879586
000240 6d b7 4b 3c a4 f5 31 bb 00 c5 83 bc 16 8e 7f bc
       0.012433869 -0.002715447 -0.016085148 -0.015597841
000250 87 59 b4 bb 7a 53 44 bb 12 bb 5d 3c 4f c5 65 bc
       -0.0055038366 -0.0029956982 0.013533371 -0.014024093
000260 c8 b3 87 bc 3a 2e a9 bc 84 aa ca bb d6 c3 53 bc
       -0.016565219 -0.020651925 -0.006184878 -0.012925109
000270 9a af 12 3c 33 39 7f bb b8 91 c8 bc f3 d8 ef bb
       0.0089529995 -0.0038944006 -0.024483547 -0.0073195635
000280 ad 51 72 bc 79 54 ac 3b b7 ad 2e 3b 33 00 7e bc
       -0.014789981 0.0052590934 0.0026653835 -0.015502977
000290 ff ac 62 bc e9 d3 0e bc eb 5c 39 bc bf 6c 99 bc
       -0.013835191 -0.0087175155 -0.011313657 -0.018728612
0002a0 25 98 89 bc 40 3e 88 bc 3f 11 5f 3c a9 92 e5 38
       -0.016796181 -0.016631246 0.013614952 0.000109468885
0002b0 6e 36 f4 ba 7a d8 2c ba 54 50 02 bc 35 de 5e 3a
       -0.0018631944 -0.0006593537 -0.007953722 0.00085017394
0002c0 3c f8 4d bb 65 75 21 3c e6 57 07 bc b4 99 0f 3a
       -0.0031428477 0.009854649 -0.008260703 0.00054779206
0002d0 d8 a0 c5 3b a2 2f 7d bb 2f d2 37 bc 14 2d 04 bb
       0.006031137 -0.0038633128 -0.011219545 -0.002016847
0002e0 cc ca a0 ba 1c 89 4b bc f7 7d 3e 3c 76 10 f3 bb
       -0.001226747 -0.012422826 0.011626712 -0.007417734
0002f0 a7 ce b7 bb b8 ed b0 bb 46 e5 ab 3b c6 84 59 3c
       -0.0056093517 -0.005399432 0.0052458374 0.013276285
000300 14 28 ec bb 96 ea 1b bc c8 83 cc bb 6b 23 43 3b
       -0.007206926 -0.009516379 -0.0062412955 0.002977575
000310 e0 76 41 bb 67 6f d4 bb 8a 2c af 3a 04 5e e6 bb
       -0.0029520318 -0.0064830068 0.0013364714 -0.0070302505
000320 f1 d1 65 bc 0e 67 7c bc b6 e7 ae bb 65 a2 4e bc
       -0.014027105 -0.0154054295 -0.0053376807 -0.01261196
000330 76 3f f9 bb 88 b1 31 bc 82 81 40 3c c9 82 22 3c
       -0.007606442 -0.010845549 0.011749627 0.009918877
000340 56 f2 3f 3a 4b 8c 7a bc 27 9b 55 bb 3b 58 4b bb
       0.00073221826 -0.0152922375 -0.0032593699 -0.0031027931
000350 c7 09 98 bc ef ff 73 bb f5 80 5d 3c 4e 2a 2e bc
       -0.01855935 -0.0037231406 0.013519515 -0.010630203
000360 37 fc b1 bc 13 2f 96 3b 0f 4c 45 bc b1 06 87 bc
       -0.02172671 0.0045832484 -0.01204206 -0.016482683
000370 d2 d7 8d b9 29 27 38 3c b7 b5 97 bc 6c 58 ad bb
       -0.00027054414 0.011239805 -0.018519266 -0.0052900817
000380 3c 51 3d 3c cb 81 52 bb af 72 85 bc 7e a5 1d 3c
       0.011555012 -0.003212082 -0.016290037 0.009621976
000390 82 02 7c bb 3a fe 5c bc fd 12 2f bb 17 24 fe bb
       -0.0038453643 -0.013488347 -0.0026714199 -0.007755767
0003a0 31 31 8a 3b 62 b3 18 3c 9f 7c e5 ba 76 12 95 bc
       0.00421729 0.009320112 -0.0017508453 -0.01819728
0003b0 f6 7a 09 3a ca 71 f8 3b d8 c8 4e bc e1 56 24 bc
       0.0005244458 0.007581924 -0.012621127 -0.010030479
0003c0 ce 1b 8d bb 0c f5 93 3a 93 e3 9f 3c 43 49 81 bc
       -0.004306293 0.001128824 0.019517696 -0.015782004
0003d0 28 62 de 3b d4 c5 ae 3b a0 92 a1 3c 83 7a a1 bc
       0.0067866035 0.0053336415 0.019723237 -0.019711738
0003e0 d6 37 bd 3b 72 de 3d 3b 56 19 6d bb 43 03 f4 3b
       0.0057744784 0.00289717 -0.0036178431 0.007446678
0003f0 55 67 aa 3c 89 7d be bc 5b a7 91 bb 15 6a 73 bc
       0.020801226 -0.02325322 -0.004444999 -0.014856835

network_body._body_endoder.seq_layers.2.weight f4 [256, 256]
000000 c5 c9 7e 3d ea 6d b3 bc 94 55 28 3d c9 bf 98 3d
       0.06220414 -0.021902997 0.04109724 0.07458455
000010 f2 be 81 bd 48 5d 48 3c 12 61 96 3d f5 4e 56 3c
       -0.06335248 0.012229271 0.073427334 0.013080348
000020 dc e6 cd bc 9c 69 a9 bd 5f 44 b3 bc f4 19 f7 3d
       -0.025134496 -0.082720965 -0.021883188 0.12065497
000030 b2 b7 17 3d 76 24 01 3e 9a 8a e0 bd bd 1b 0e 3d
       0.03704042 0.12611565 -0.10963936 0.034694422
000040 5d 2c 94 3d 4b 98 ed bc d2 03 0c bd 0e 21 94 bc
       0.07235024 -0.029003283 -0.03418333 -0.018082168
000050 9c 42 55 3d 78 e6 b9 bc d3 af 8a bd 3d a8 02 bd
       0.052065477 -0.022692904 -0.06771817 -0.031898726
000060 65 16 28 bd 02 0e 1b bd 60 9b ec 3d a4 ae 33 3c
       -0.041036982 -0.037855156 0.11553073 0.010966931
000070 fd d8 47 3b 5a 9d 05 be 2c bd d6 3c b5 7f b5 bd
       0.0030494325 -0.13048306 0.026213251 -0.08862249
000080 50 f1 5b bc 09 43 95 bd 9f 40 a3 bb f4 ee 34 3d
       -0.013424233 -0.072881766 -0.0049820687 0.044173196
000090 21 a2 3f bb 37 2d 81 bd f5 bb c5 bd fa 68 00 3d
       -0.0029240923 -0.06307452 -0.096549906 0.031350113
0000a0 34 d9 4b bd e2 94 97 3d aa d1 e3 bb 1c 0f 3c bd
       -0.049767688 0.07401444 -0.006952484 -0.045912847
0000b0 00 1b f0 bc 32 53 d9 bc de 78 8a 3d 04 ac 85 bd
       -0.02930975 -0.026528928 0.06761335 -0.0652695
0000c0 56 d4 c0 3d cd 5d 15 3c 4c 22 bb 3c 06 54 23 3c
       0.094155 0.009116602 0.022843502 0.009968763
0000d0 af a7 15 3d e1 df 1b bd a8 b8 81 bd ef 9b be 3c
       0.03653687 -0.038055304 -0.063340485 0.023267714
0000e0 d7 92 22 bd d1 21 f7 3c fb 38 e9 bd 85 41 4f 3d
       -0.03969082 0.030167492 -0.11387821 0.050599594
0000f0 f9 16 95 bd 97 c7 0b be e0 63 8c bc a8 cb 19 bd
       -0.07279772 -0.13650356 -0.017137468 -0.037547737
000100 6a fe b9 bc 7b dd dc bd 2e f2 00 bc 35 1b e9 3c
       -0.022704322 -0.107844315 -0.00787024 0.028455356
000110 ed 06 8f bc 75 7f 39 bd bb 5c bc bd 4e 37 b9 bc
       -0.017459357 -0.045287568 -0.091973744 -0.02260938
000120 9b 32 5f bd 95 75 32 3c 95 4c 8a bd 02 8a 2e 3c
       -0.05449162 0.010892292 -0.06752888 0.010653021
000130 66 98 3a 3e c5 52 ea 3d 55 54 74 3d 6f 71 9e 3d
       0.18222198 0.11441568 0.059650738 0.077364795
000140 81 18 9e bc 77 92 ac 3c f1 84 34 bd 22 7c ca bd
       -0.019298794 0.021065934 -0.044072095 -0.09886958
000150 fc 9f a6 3d c3 82 40 bc 32 09 93 bd fb 75 ca bc
       0.08135983 -0.011749926 -0.07179488 -0.02471446
000160 9a f7 40 bd 67 68 8a bd 77 37 a9 bd e1 5d 7a 3d
       -0.04711113 -0.067581944 -0.08262532 0.061124686
000170 9c 26 b5 bd 14 52 21 bd d1 9f ba 3c ad 6f 6f 3d
       -0.08845255 -0.039384916 0.022781285 0.05845611
000180 91 f2 70 bd ce 94 8d 3c ba 2f bc bc 4d b8 ab 3d
       -0.05882508 0.01728287 -0.022971977 0.08384762
000190 c1 14 36 3d 4b 4e 2b 3d 65 3b b2 3d f8 cc 53 bd
       0.044453386 0.041822713 0.08702735 -0.051709145
0001a0 16 7e a6 bd d3 d3 36 3d c7 b8 58 bd 54 98 30 be
       -0.08129518 0.044635605 -0.052910592 -0.17245609
0001b0 02 0a 0c bd ef 9c bb bd 56 89 35 3d ad 5f a1 bc
       -0.03418923 -0.09160792 0.044320427 -0.019698942
0001c0 93 0e d4 bd b8 da 21 bd 06 e4 40 bc a3 07 a8 3c
       -0.10354342 -0.039515227 -0.011773115 0.020511454
0001d0 b0 70 c1 bb b6 48 57 3d 26 2c 18 bd 1a 77 af bd
       -0.005903326 0.052559577 -0.03715148 -0.08567639
0001e0 87 3e 15 bd 0c cf 8b bd fb 7a 53 bd b6 95 25 bc
       -0.036436584 -0.068266004 -0.051630955 -0.010106495
0001f0 d3 b8 77 3d 59 64 50 be 0a 65 57 bd c3 fc 85 bd
       0.060478996 -0.2035078 -0.052586593 -0.06542351
000200 e7 96 bb bb 6d aa ce bc b1 a1 fd 3c b9 14 a3 bb
       -0.005724776 -0.02522775 0.03096089 -0.0049768356
000210 89 ca 2f 3c 4f 51 2c 3c 89 94 85 bd 00 9d d9 3d
       0.0107294405 0.010517432 -0.065224715 0.106256485
000220 fc 59 17 bd 29 a0 95 bc 58 8d 63 bc 07 84 fa bc
       -0.03695105 -0.018264847 -0.013888679 -0.030580534
000230 37 e8 bb 3c e0 71 2e bc 29 1d 06 be cd bf 2c bb
       0.022937877 -0.010647267 -0.13097061 -0.002635944
000240 aa 11 1e bd f4 12 c2 bd d4 3a 9b bd 26 11 2a 3c
       -0.038591065 -0.09476271 -0.0757958 0.010380065
000250 f8 23 16 bd b0 7f 15 be b0 b1 14 3d 4b 7c 41 3b
       -0.036655396 -0.1459949 0.03630227 0.0029523547
000260 c9 c8 01 bd 25 29 e3 bd 8c 65 15 bd 0f 9d 4e bd
       -0.031685624 -0.11091832 -0.036473796 -0.05044275
000270 92 e3 18 bd 7c 53 56 3c 6e 2f 66 3d 3a 97 63 bc
       -0.037326403 0.013081428 0.056197576 -0.013891036
000280 e0 cf 9e bc c7 68 05 3d ab b3 55 3c d8 8b d1 3b
       -0.019386232 0.032570627 0.013043324 0.0063948445
000290 62 4b 3d bc 3f 65 ef bd 47 bc ea b9 36 50 00 3d
       -0.011553617 -0.11689233 -0.00044772236 0.031326495
0002a0 69 d5 26 bd eb ee 2a bd 83 c5 3a bd 3d cf a9 3b
       -0.040730868 -0.041731756 -0.045598518 0.0051821754
0002b0 7e 82 88 3d bd b5 9d bd d7 2a e5 bd a0 fd a7 3d
       0.066655144 -0.077006795 -0.11189812 0.08202672
0002c0 84 b8 5e 3c 2d 06 5d bd 5a 13 08 3e 7b 76 d6 3c
       0.013593797 -0.053960968 0.13288632 0.026179543
0002d0 1b 42 aa 3d 0a 7b a7 3d 82 ed 8f bd 1a 88 b9 bd
       0.0831339 0.08177765 -0.07027723 -0.090591624
0002e0 bc c9 18 3d c9 92 cb bd da 1e 05 3e 1d be 60 bd
       0.037301764 -0.099401064 0.1300005 -0.054868806
0002f0 79 63 a9 bc 34 bf b5 3d 1a da a3 bc 04 34 4a 3d
       -0.020677315 0.0887436 -0.02000146 0.049366012
000300 6c fa aa 3b 8e 26 6b bc 9e 1e 39 bd c0 97 18 be
       0.005217841 -0.014352454 -0.045195214 -0.14901638
000310 7a 68 31 bd 78 ab b1 3d 47 6c 9f bc 69 8b 61 3d
       -0.043312527 0.08675283 -0.01946081 0.055064593
000320 bd 60 89 bd b3 93 bf 3d c2 d8 97 3b 13 14 ae bd
       -0.067079045 0.09354343 0.004633994 -0.084999226
000330 7b 10 2a be 81 01 85 bd e8 75 2d 3d 27 52 8c bd
       -0.1660785 -0.064944275 0.042348772 -0.06851607
000340 76 a5 91 bc ee 70 09 3d 74 c5 ae bd 2a fc bf 3a
       -0.017779093 0.033554964 -0.08533755 0.0014647294
000350 59 fc 6f 3d e6 04 0f be e0 14 96 3b 34 92 21 3c
       0.058590267 -0.13966712 0.004580125 0.009861518
000360 ad ca 0b be 0f 45 7f bd c2 67 be bd bd c1 15 bd
       -0.13651533 -0.06232172 -0.09297134 -0.036561716
000370 c9 67 d5 3c db 1e b1 bb f6 22 31 bd e6 b7 e8 bc
       0.026050465 -0.0054052896 -0.043246232 -0.028408002
000380 fe 14 d5 bd 94 75 07 bc 30 6a f0 3d 1a 30 2b 3d
       -0.104043946 -0.008267779 0.11739004 0.04179392
000390 a8 a2 44 3c 59 b4 41 3d 9b d1 72 bd 8f ec e9 bc
       0.012001671 0.047291134 -0.059281927 -0.028555183
0003a0 71 9d 77 bd 52 bb 80 3d 52 6d 89 3b d9 54 f4 3d
       -0.060452882 0.062857285 0.00419394 0.11930246
0003b0 e2 9e 7c bd 11 75 fa ba 94 f2 86 3d d7 9d 27 be
       -0.06167496 -0.0019108375 0.06589237 -0.16368805
0003c0 1e 59 10 3d 82 20 d6 bc be cd f8 3d 51 bf 81 bd
       0.03524124 -0.026138548 0.12148617 -0.06335319
0003d0 40 3d 15 bd 5e ee 2b bd fb f5 5b bd 80 92 22 3d
       -0.036435366 -0.04197537 -0.053701382 0.039690495
0003e0 f3 04 64 bd 77 90 12 3e 10 9d 0d bc e0 56 56 bd
       -0.055668782 0.14312921 -0.008643404 -0.052328944
0003f0 5d 57 e7 bc 66 37 d4 3d 2e 93 a4 bc 01 e3 cc bc
       -0.0282399 0.10362129 -0.020089712 -0.025010588

network_body._body_endoder.seq_layers.4.bias f4 [256]
000000 e5 20 b6 3b 05 0a 3c bb 66 82 e8 bb b4 c3 be bb
       0.0055581206 -0.0028692496 -0.007095623 -0.0058216695
000010 c8 d9 2a bc 72 ac 5b 3c 05 69 0e 3b 01 db 03 bd
       -0.0104279 0.013407813 0.0021730077 -0.03219128
000020 07 55 60 bc 0e cb b0 bc 68 a2 8b 3c 78 82 91 bc
       -0.013692147 -0.021581199 0.017045215 -0.017762408
000030 73 6a 90 bb 80 4a 39 3c 8b 84 ae bc 5c be 8e bc
       -0.004407221 0.011309266 -0.021303436 -0.017424755
000040 dc aa 51 3c 88 e5 67 bc 91 85 ae bc b0 5c 45 3c
       0.012797084 -0.014153846 -0.021303924 0.012046024
000050 50 e9 8b 3c 41 18 3c 3c 74 1d b8 bc 65 99 7b 3b
       0.017079026 0.011480392 -0.022474982 0.003839099
000060 15 c8 cd bc 78 cf 0f bc 6f f6 63 bc fc d0 5b bc
       -0.02511982 -0.008777492 -0.013913735 -0.013416525
000070 d2 7d bf bc b7 a6 b0 bb f7 f6 41 bc 2a 4e 9c bc
       -0.023375425 -0.0053909677 -0.011838666 -0.01908024
000080 55 ab b2 bc a3 30 19 3c 4d 4f e4 bb fc 8f 54 3c
       -0.021810213 0.009349975 -0.006967461 0.012973782
000090 40 0d e2 3b 74 cb 95 3b e8 58 74 bc c5 90 f4 3b
       0.006898552 0.0045713726 -0.014913775 0.007463547
0000a0 87 92 ae bc ae 90 b1 bc ac 64 96 3a a5 80 99 bc
       -0.021310104 -0.021675434 0.0011474094 -0.0187381
0000b0 c7 58 31 3b be b6 ab bb 42 04 b2 3b 6f 86 b1 3c
       0.0027060972 -0.0052402904 0.0054326365 0.021670548
0000c0 b4 ef b9 3b a1 f9 6c 3c e3 39 7e bc 36 1d ed bc
       0.005674327 0.014463813 -0.015516731 -0.028944593
0000d0 4e 8e 1e 3c 6e 63 f2 3b 77 9f 4c bc bd 85 3c bc
       0.009677483 0.007397107 -0.012489191 -0.011506495
0000e0 f3 a7 8c bc 08 05 1a bb bf 39 81 bc 93 0f 40 bc
       -0.017169928 -0.0023501534 -0.015774606 -0.011722463
0000f0 9e 12 83 3c 82 8a 1c 3c 54 95 06 3c 10 d6 38 bc
       0.016000088 0.009554507 0.008214314 -0.011281505
000100 22 c1 af bc f7 c7 20 bc 9e c2 bc bc af b9 8a 3c
       -0.021454398 -0.0098133 -0.02304202 0.016934244
000110 29 11 62 3b 47 90 6a bc c2 78 68 bc 11 c0 5d 3c
       0.0034495092 -0.014316625 -0.014188947 0.013534562
000120 c9 ce ae bc 46 eb ba bc 27 f3 06 3b 5f 9b ae bc
       -0.021338837 -0.022817265 0.0020591707 -0.021314321
000130 be cd a5 3b 5d 9a 8d bc a8 ce 92 bc 99 8d 25 3b
       0.005059927 -0.01728552 -0.017920807 0.00252614
000140 93 24 8f bc 51 78 55 bc 80 2f 15 3b be 2f 0f bc
       -0.017473495 -0.013029174 0.0022763908 -0.00873941
000150 f4 8a b5 3b f6 4d 2f bc a8 2b 85 3c ef ce f1 bb
       0.005540246 -0.01069974 0.016256168 -0.0073794047
000160 c9 ab 8e bc cf 23 86 3c d1 9f 8d bb 3d 5b e3 bc
       -0.017415898 0.016374497 -0.00432203 -0.027753467
000170 06 98 6c bc 83 3b 6a bb 04 ac 91 bc 72 9f 56 bc
       -0.014440542 -0.0035741038 -0.017782219 -0.013099538
000180 78 83 88 bc 60 64 4f bc ba 23 97 3c 46 21 ac ba
       -0.016664252 -0.012658209 0.018449653 -0.0013132475
000190 f4 99 bf bc 79 70 96 bc da 54 30 3c d0 33 15 bc
       -0.02338884 -0.018364178 0.010762418 -0.009106591
0001a0 c4 93 a7 bc 68 70 5a 3c 24 25 aa 3c 48 a0 5c bc
       -0.020456202 0.013332464 0.020769663 -0.013465948
0001b0 a9 9e 38 3c da c8 51 3c 74 8a a1 bc 9f a0 a4 bc
       0.011268296 0.012804234 -0.01971934 -0.020096121
0001c0 ea ec d2 bc 55 f9 a6 bb 60 ad 2f bc f6 d3 87 bc
       -0.025747735 -0.0050956407 -0.010722488 -0.016580563
0001d0 11 5d 3f 3c 22 32 60 3c 0e c7 1b 3c 96 ba 0e bc
       0.011679904 0.013683828 0.009507908 -0.008711478
0001e0 d4 03 64 3c 6b 6e 30 bc 5e d4 1f 3c ce c3 aa bc
       0.013916928 -0.010768513 0.009755222 -0.02084532
0001f0 1d ec f8 ba ff 8b 90 bc 8b ae 87 bc 63 37 eb bc
       -0.0018991266 -0.01764488 -0.01656272 -0.028712934
000200 21 81 d6 bb 93 e2 04 bc 56 5d 83 bc 91 fe 8d bc
       -0.006546155 -0.00811066 -0.016035717 -0.0173333
000210 31 1f 19 3c 98 86 d1 bc a3 96 83 bc 29 00 97 3b
       0.0093458155 -0.025576875 -0.01606304 0.0046081734
000220 a4 6d 35 3b 93 98 7d bb 69 fa 9b 3c fa 5d 1c 3b
       0.002768376 -0.0038695678 0.019040303 0.0023859725
000230 14 aa 35 3b f9 67 9b bc 38 02 b3 bc 3f fd 3a bb
       0.0027719783 -0.018970476 -0.021851644 -0.0028532294
000240 b6 24 68 bc c0 4f 3f 3a 9c 44 26 38 c3 27 de 3b
       -0.014168909 0.00072979555 3.964138e-05 0.0067796423
000250 3a cb 09 bc fc ee 51 3c 24 fb b7 bc 39 5b 46 bc
       -0.008410269 0.012813326 -0.02245862 -0.01210671
000260 8a 0d 20 3c 8a 0a ac bb 3a 4a b8 bc 10 5c 93 bc
       0.009768853 -0.00525028 -0.022496331 -0.017988235
000270 d2 34 cf 3b e1 13 fb bb 7d 24 f5 3b ca 13 23 3c
       0.0063234353 -0.007662282 0.0074811564 0.009953449
000280 6f 71 8d bc 9b b9 8a bc 48 c2 9e bc fe da d2 bb
       -0.017266003 -0.016934207 -0.01937975 -0.0064347973
000290 2d 7b 2e bc 4a eb 94 3c 2e cd cf bb a3 e3 66 3b
       -0.010649485 0.0181786 -0.006341598 0.0035230897
0002a0 de 29 4e bb 34 4c 44 3b 13 52 04 3c ef ea 05 bc
       -0.003145806 0.0029952647 0.008076209 -0.008173688
0002b0 0a ee a8 bc d0 d8 bc bc d4 4e 81 bc da ff ae bc
       -0.020621318 -0.023052603 -0.015784658 -0.021362234
0002c0 d7 64 86 bc 44 c2 56 3b 78 a6 a2 3b 14 b9 99 bc
       -0.016405506 0.00327696 0.0049636923 -0.01876501
0002d0 f7 6a 5c 3c 73 97 db bb 75 81 68 3b db fe 36 bb
       0.013453237 -0.0067014038 0.0035477553 -0.0027922902
0002e0 39 97 86 ba a6 71 3f bc 4b 3e 0f 3c 2d 90 4d 3c
       -0.0010268457 -0.011684811 0.008742879 0.012546581
0002f0 bf 54 23 bc 70 ab c7 bc f5 60 e0 bc cb 8c 08 ba
       -0.0099689355 -0.02437374 -0.027389983 -0.0005208968
000300 e5 b0 63 3c a9 2c 8c bc 04 3d af 3b 73 b3 9a 3b
       0.013897155 -0.01711114 0.00534785 0.004721099
000310 c9 1e 78 bc bc cd 58 b8 c1 1e 74 3b 3b 67 d4 bc
       -0.0151440585 -5.1690018e-05 0.0037249776 -0.02592813
000320 5a 6d a2 bc c2 9c 9b bc e9 fe a6 bc fd f7 c7 bc
       -0.019827534 -0.018995646 -0.020385223 -0.024410242
000330 0a ba 38 3c 35 a2 0d bc 94 4b 8a bc 6a 64 b8 bc
       0.011274824 -0.00864463 -0.016881742 -0.022508819
000340 a6 85 31 bc bd c7 43 bc 7e 52 e0 ba b5 37 ee 3b
       -0.010835087 -0.011949477 -0.0017114428 0.0072698244
000350 15 23 32 bc 01 c6 9c bc 9b c5 7d 3c ce 5d 90 bc
       -0.010872622 -0.019137384 0.015489007 -0.017622855
000360 3c 93 79 3c 74 a7 20 3c 57 8b a8 bc 8e ca bd bc
       0.015232857 0.009805549 -0.020574255 -0.023167875
000370 28 a4 de bb a1 dc ee bc 36 12 2b bc 9c 10 9e bc
       -0.0067944713 -0.029157938 -0.010441354 -0.01929503
000380 ac 4a b1 bc 8f 42 0d bc dd a9 8f bc 8d 66 2b bc
       -0.021642052 -0.008621826 -0.017537052 -0.010461462
000390 56 22 93 3c 21 f4 4d bb 67 02 85 bc fa 57 91 3c
       0.017960709 -0.003142603 -0.016236497 0.017742146
0003a0 8b 07 7b 3b 50 f6 3b bc 46 73 79 bc db 98 1e ba
       0.0038304057 -0.0114723 -0.015225237 -0.0006049999
0003b0 db 68 ca bb 2d dc 88 bc 2a 1e 01 bc 14 19 b2 3b
       -0.0061770505 -0.01670655 -0.007880727 0.0054351185
0003c0 82 fb 96 bc 3e 6d dc bc d6 0d 98 bc 87 16 6a 3c
       -0.018430475 -0.02690756 -0.018561285 0.0142875975
0003d0 18 5f fd bc 73 fb 83 3c 52 41 9a bc 0e ed 05 3c
       -0.030929133 0.016111111 -0.018829975 0.008174194
0003e0 86 51 2c 3c 70 58 0a 3b 56 7a c9 bc cc 91 dc bc
       0.010517484 0.0021109842 -0.024594467 -0.02692499
0003f0 48 dd b2 bc 02 71 a2 bc dc f3 2c 3c ce 81 a3 bb
       -0.02183403 -0.019829277 0.0105561875 -0.004989839
