Assets/Training/results/track3_learned/config_track4/config_track4-1499982.onnx (onnx, 600385 bytes, 9 tensors)

action_model._continuous_distribution.log_sigma f4 [1, 2]
0	0xbe8ae5ce	-0.27128452
1	0xbf213fdd	-0.6298807

action_model._continuous_distribution.mu.bias f4 [2]
0	0x3cddd18c	0.027077459
1	0x3c0c1351	0.008549527

action_model._continuous_distribution.mu.weight f4 [2, 256]
0	0x3a622b10	0.00086276326
1	0xbd161270	-0.036638677
2	0x3a153d86	0.00056930666
3	0x3b598dac	0.0033196015
4	0xbca150da	-0.019691873
5	0x3d15a1d3	0.03653128
6	0xbccd77d3	-0.02508155
7	0xbd053df4	-0.032529786
8	0xbd29f2eb	-0.04149143
9	0xbd18a702	-0.037268646
10	0x3c9f4660	0.019442737
11	0xbd29fef9	-0.041502926
12	0xbbc04a30	-0.005868219
13	0x3cd241d0	0.025666147
14	0xbd320738	-0.043463916
15	0xbd331dad	-0.043729473
16	0x3d06e7ba	0.032935835
17	0xbcb42f60	-0.021995246
18	0xbd20636b	-0.039157312
19	0x3cec22c1	0.028825166
20	0x3ce899ca	0.028393645
21	0xbc857dd5	-0.016295353
22	0xbccb154d	-0.02479043
23	0x3c9fe959	0.019520449
24	0xbcfd7e0d	-0.030943895
25	0xbc8bdb60	-0.01707238
26	0xbcb3f54d	-0.021967554
27	0xbd293f77	-0.04132029
28	0xbcaf1b3e	-0.021375295
29	0x3c2ae9f2	0.0104317535
30	0xbd0bee17	-0.034162607
31	0xbcd291ef	-0.025704352
32	0xbd383573	-0.04497285
33	0x3c4686db	0.012117113
34	0xbb0a07d9	-0.0021061806
35	0x3c2601ff	0.010132312
36	0x3c1476dd	0.009061542
37	0x3bc93e46	0.006141457
38	0xb9425014	-0.00018531113
39	0xbb2a8e34	-0.00260247
40	0xbce8741e	-0.028375681
41	0xbd012220	-0.031526685
42	0xb9f2ade8	-0.00046287407
43	0xbcf03430	-0.02932176
44	0xbd95f435	-0.073219694
45	0xbc9e12b9	-0.019296037
46	0x3a205eed	0.00061176607
47	0x3c1670c4	0.009182159
48	0x3c92c7d3	0.01791755
49	0x3cfc5d16	0.030806106
50	0xbcaabfaf	-0.020843355
51	0xbcd10080	-0.025512934
52	0x3c48ad96	0.012248417
53	0x3c827507	0.015924944
54	0xbd19b34c	-0.037524506
55	0xbcef1eab	-0.029189428
56	0xbccc08c4	-0.024906524
57	0xbd1671f7	-0.03672978
58	0xbd12baae	-0.035822563
59	0xbd4155c1	-0.047200922
60	0x3ca152d5	0.019692818
61	0x3cb32c93	0.02187184
62	0xbadbd4f7	-0.0016771842
63	0xbd1ba08f	-0.037994917
64	0xbcd90aa2	-0.026494328
65	0xbc0ba6b2	-0.00852363
66	0xbcf350a5	-0.02970154
67	0x3d037846	0.032097124
68	0xbca8b0a8	-0.020592049
69	0xbcad1732	-0.021129224
70	0xbcf50361	-0.029908838
71	0x3cc28e0c	0.023749374
72	0xbd53bf56	-0.051696144
73	0xbc298f8e	-0.0103491675
74	0x3b850d73	0.004060441
75	0xbd267de6	-0.04064741
76	0x3cbe3ee1	0.023223342
77	0xbcdf0128	-0.027222231
78	0xbd141d3e	-0.0361607
79	0xbc94a67c	-0.018145792
80	0xbcafc652	-0.021456871
81	0xbcc5999d	-0.0241211
82	0xbd12f2cf	-0.03587609
83	0xbbbf0a54	-0.0058300886
84	0x3ce86ac8	0.02837123
85	0xbb652e37	-0.0034970173
86	0x3d2a7b39	0.04162142
87	0xbba1d817	-0.00493909
88	0xbd2f3e0d	-0.042783786
89	0x3cb19303	0.021676546
90	0xbd02684c	-0.031837747
91	0xbcff1857	-0.031139536
92	0xbc95ed0f	-0.018301515
93	0xbcbbec10	-0.022939712
94	0xbcd9150a	-0.02649929
95	0xbc5abb7b	-0.013350363
96	0xbc0cf1dd	-0.008602587
97	0xbb9f6c4e	-0.004865206
98	0x3d12d07b	0.035843354
99	0x3c19b208	0.009380825
100	0xbcfa6849	-0.030567305
101	0xbd4690ac	-0.048477814
102	0xbbe55ab5	-0.0069993385
103	0xbc943872	-0.018093321
104	0xbd26b266	-0.040697478
105	0x3b8a77de	0.004225715
106	0x3d3e27c1	0.04642463
107	0xbcbe275a	-0.023212124
108	0x3c721c61	0.014777274
109	0x3c6be53e	0.014397917
110	0xbd43e3d2	-0.04782469
111	0xbd03dd2c	-0.032193348
112	0xbca3eb73	-0.020009732
113	0xbbb3f4ae	-0.0054918146
114	0xbcd7f9eb	-0.026364287
115	0xbcc6542c	-0.024210058
116	0x3c17ef1b	0.009273316
117	0x3c87f970	0.016598433
118	0x3c22673d	0.009912309
119	0xbd264540	-0.040593386
120	0x3c608069	0.01370249
121	0xbd7f2ec3	-0.062300455
122	0x3c202c27	0.009776152
123	0xbd2562a7	-0.040377285
124	0x3997a570	0.00028924225
125	0xbcc86352	-0.024461422
126	0xbcc65b9e	-0.024213608
127	0xbd034782	-0.032050617
128	0xbb720769	-0.0036930686
129	0x3c0a79e4	0.008451913
130	0xbc8af826	-0.01696403
131	0xbcf51042	-0.029914979
132	0x3c5a6d43	0.013331714
133	0xbd265922	-0.040612347
134	0xbd59b483	-0.053150665
135	0x39f9ffaf	0.0004768348
136	0x3cac3dca	0.021025557
137	0xb9b29eb6	-0.00034069055
138	0x3d2cf543	0.042226087
139	0xb946140e	-0.00018890222
140	0xbcafe7c9	-0.021472828
141	0xbceed4aa	-0.02915414
142	0xbd0ee5f9	-0.034887288
143	0xbcbadfe5	-0.02281184
144	0xbd19a9ed	-0.03751557
145	0xbba84414	-0.0051350687
146	0x3ad99403	0.0016599897
147	0xbb178568	-0.0023120288
148	0x3b22f76d	0.0024866716
149	0x3cda1356	0.026620548
150	0xbce8336c	-0.028344832
151	0xbd01b265	-0.03166427
152	0xba13ae13	-0.0005633544
153	0x3c6a67bd	0.01430696
154	0xbd488ba1	-0.048961286
155	0xbcf4cb50	-0.029882103
156	0xbc87e526	-0.016588759
157	0xbcfd2c52	-0.030904923
158	0x379f96a4	1.9024425e-05
159	0xbb133aff	-0.0022465584
160	0xbd3123a9	-0.0432469
161	0xbc974133	-0.018463707
162	0xbd265504	-0.04060842
163	0x3b841880	0.004031241
164	0xbc90b409	-0.017663972
165	0x3cc4b1eb	0.02401062
166	0xbc8f3651	-0.017481955
167	0x3cb16d0f	0.021658449
168	0x3b90c1a5	0.0044176155
169	0xbc4abf05	-0.012374644
170	0x3c8a4493	0.016878402
171	0x3b87273c	0.00412455
172	0xbcb86e3c	-0.022513501
173	0xbd25191a	-0.04030714
174	0xbd08d7ac	-0.033408806
175	0xbd2e60db	-0.042572837
176	0xbd1c84c3	-0.03821255
177	0x3c3a1080	0.011356473
178	0x3c7a3faf	0.015273972
179	0xbd419c3d	-0.04726814
180	0x3c4d83ef	0.012543662
181	0xbc3100a2	-0.0108033735
182	0x3ba613f4	0.0050682966
183	0x3b2ebd40	0.0026663095
184	0x3abec4ba	0.0014554479
185	0xbc9c6b5f	-0.019094167
186	0x3ceaf621	0.028681817
187	0x3c9a8536	0.018862348
188	0x3b9d657d	0.004803358
189	0xbd24a39b	-0.04019509
190	0xbd0859db	-0.033288818
191	0xbb4da083	-0.003137619
192	0x3ca7793b	0.02044355
193	0xbd158d76	-0.03651186
194	0xbd1814b1	-0.037129108
195	0x3c93817d	0.01800608
196	0xbced4b75	-0.028966645
197	0x3b77ef43	0.003783182
198	0xbc49dc45	-0.012320583
199	0xbcf5bf00	-0.029998302
200	0xbcee752d	-0.029108608
201	0xbc803821	-0.015651764
202	0xbd1d6f50	-0.038436234
203	0xbcd0d6ab	-0.025492987
204	0x3ba7a487	0.0051160487
205	0xbd41f39b	-0.04735146
206	0xbd2472d7	-0.040148582
207	0xbce6e386	-0.028184664
208	0xba90b39e	-0.0011039858
209	0xbce9d8fa	-0.028545845
210	0xbcfed112	-0.031105552
211	0x3cc7fe7c	0.02441334
212	0xbcb170a5	-0.021660158
213	0xbcbf24f9	-0.02333306
214	0x3cbfed0d	0.023428464
215	0xbcdb1518	-0.026743457
216	0x3ce3773c	0.027766816
217	0xbc987ee8	-0.018615201
218	0xbd3c0435	-0.04590245
219	0xbcf99598	-0.03046684
220	0x3a0f814b	0.0005474283
221	0xbcb4169a	-0.021983434
222	0xbb9bf721	-0.0047596847
223	0xbcc9f3a9	-0.024652319
224	0xbcd9947a	-0.026560057
225	0xbc775a82	-0.015097262
226	0xbd503ad9	-0.05083737
227	0xbd2ea879	-0.042641137
228	0x3d137091	0.035996024
229	0x3b035dbb	0.0020044881
230	0xbbec89db	-0.007218582
231	0x3c407918	0.011747621
232	0xbc7a6036	-0.015281728
233	0xbcd6d3d4	-0.026224054
234	0xbc79f502	-0.015256168
235	0x3b96475e	0.0045861444
236	0xbc9d0f0f	-0.01917222
237	0xbbbc7e7a	-0.005752382
238	0x3c491364	0.0122726895
239	0x3a15ec11	0.00057190756
240	0xbcd29994	-0.025707997
241	0xbcbc6269	-0.022996144
242	0x3c2c0801	0.010499955
243	0x3ca90cb4	0.02063594
244	0xbc9ff0c4	-0.019523986
245	0x3cee28d5	0.029072205
246	0xbcde5c7e	-0.027143713
247	0x3bb38f98	0.005479764
248	0x3c67ec11	0.014155404
249	0xbc5e4805	-0.0135669755
250	0xbd479989	-0.048730407
251	0xbd124c79	-0.03571746
252	0xbd353d0b	-0.04424767
253	0xbd726a0b	-0.05918316
254	0x3c5d3c2b	0.013503115
255	0xbc720383	-0.014771345

network_body._body_endoder.seq_layers.0.bias f4 [256]
0	0xbc984bbf	-0.018590806
1	0xbd1193a9	-0.03554121
2	0x3cdca388	0.026933447
3	0xbc22c107	-0.009933717
4	0x3bab7749	0.0052327258
5	0xbca5cd8b	-0.020239612
6	0x3ca1992b	0.019726356
7	0x3cbc0add	0.022954399
8	0x3cf28d0a	0.029608268
9	0x3cc72e05	0.024313936
10	0x3ba965b0	0.005169593
11	0xbc0730a7	-0.008251346
12	0x3c59d5ae	0.013295574
13	0xbcc06332	-0.0234848
14	0xbb369d58	-0.002786478
15	0x3d47162c	0.04860513
16	0xbc7ce198	-0.015434645
17	0x3d09d288	0.033648044
18	0x3c461c86	0.012091761
19	0x3cf3d8a2	0.029766385
20	0x3c5c93f0	0.013463005
21	0xbb9c53a5	-0.0047707134
22	0xbb81e05a	-0.0039635124
23	0xb8c85136	-9.55187e-05
24	0xbc615111	-0.013752238
25	0xbcb02393	-0.021501338
26	0xbd061e0d	-0.032743502
27	0x3cc29749	0.023753779
28	0xbc58367d	-0.013196585
29	0xbb1dbb31	-0.0024067874
30	0x3c79cbd3	0.015246349
31	0x3bab1827	0.005221385
32	0xbb9ddc48	-0.0048175193
33	0xbc9fd208	-0.01950933
34	0xbba3cc72	-0.004998737
35	0xbbc8a6b1	-0.006123387
36	0xbcfaa99f	-0.03059846
37	0xbb6d5126	-0.0036211698
38	0x3b920c68	0.0044570453
39	0xb9bd59a6	-0.00036115682
40	0xbc768be0	-0.015047997
41	0x3c9b8deb	0.01898857
42	0xbca21c31	-0.019788833
43	0x3c9cdb27	0.019147469
44	0x3ca1d929	0.01975687
45	0xbbf55f10	-0.007488139
46	0xbd0d4788	-0.034492046
47	0x3b254471	0.0025217796
48	0x3b755b90	0.0037438609
49	0xbc95ddb9	-0.018294202
50	0x3b95ef04	0.004575612
51	0x3cb3548c	0.021890901
52	0xbc384152	-0.011246042
53	0xbb598c28	-0.0033195112
54	0x3d0ba780	0.034095287
55	0x3c9b67cd	0.018970395
56	0xbb7176e4	-0.0036844546
57	0xbb730914	-0.0037084268
58	0x3c83d8e5	0.016094634
59	0x3c43f6c3	0.011960688
60	0x3cb9271b	0.022601655
61	0xbba62e7d	-0.00507146
62	0x3c702124	0.014656339
63	0xbb30756c	-0.0026925458
64	0xbb28723d	-0.0025702857
65	0x3bde0802	0.006775857
66	0x3c615efd	0.013755557
67	0x3b490714	0.0030674385
68	0xbbdc7792	-0.006728121
69	0x3c74f265	0.0149503695
70	0x3b59cc44	0.0033233324
71	0x3c14f2c5	0.009091084
72	0xbcf2a591	-0.029619964
73	0xbb399e3e	-0.002832308
74	0x3c58dc57	0.013236127
75	0xb9db2f6f	-0.00041806276
76	0x3b991ca9	0.004672606
77	0xbc8479ce	-0.016171362
78	0xbc40378e	-0.011731995
79	0xbbd42da4	-0.0064751673
80	0x3c944d56	0.018103283
81	0xbd0323d7	-0.0320166
82	0x3b98c83c	0.0046625417
83	0x3ca78455	0.020448843
84	0xbd03bb77	-0.032161202
85	0xbc056e95	-0.008144041
86	0xbcc9c8ab	-0.024631819
87	0x3cab6e7f	0.020926712
88	0x3b7d3c9f	0.003864087
89	0x3a1bf5d0	0.00059494097
90	0xbb2a7912	-0.0026012105
91	0xbcc65681	-0.02421117
92	0x3d8102a5	0.062993325
93	0xbc8e8b4b	-0.017400404
94	0xbc97690b	-0.018482706
95	0xbc904f5c	-0.017615966
96	0x3ccac0a4	0.024750061
97	0xbcf38657	-0.029727144
98	0xbc0471a3	-0.008083734
99	0x3c011fd8	0.007881127
100	0xbc686f26	-0.014186656
101	0xbca1e68c	-0.019763254
102	0xbc05be96	-0.008163115
103	0xbc32fa3b	-0.010923917
104	0x3c4be48d	0.0124446275
105	0x3b47163e	0.0030378248
106	0x3ce10320	0.02746731
107	0x3d8cea6e	0.068806514
108	0x3d30927b	0.043108445
109	0x3a28c735	0.00064383756
110	0xbc7f668f	-0.015588417
111	0xbcedd38c	-0.029031537
112	0x3a8574fc	0.0010181959
113	0x3c570b24	0.013125215
114	0x3ce45f21	0.027877392
115	0xba825c89	-0.000994579
116	0xbba7f872	-0.0051260525
117	0x3c359dc3	0.011084977
118	0x3a3c5f10	0.0007185796
119	0xbbd89da9	-0.0066105914
120	0xbcd3a165	-0.025833795
121	0xbcaf56ff	-0.021403788
122	0xbc5610c3	-0.01306552
123	0xbb1ad8c2	-0.0023627733
124	0x3d2934b0	0.041310012
125	0x3c0e3c6f	0.008681401
126	0xbbbcb3c5	-0.005758735
127	0xbc237b52	-0.009978132
128	0xbc1632ad	-0.0091673555
129	0xbcaaba1a	-0.020840693
130	0xbbc73088	-0.0060787834
131	0xbcf600e3	-0.03002972
132	0xbc2e4e17	-0.010638735
133	0xbbbc2703	-0.0057419552
134	0xbd00a93d	-0.0314114
135	0x3a000df7	0.00048848934
136	0x3c0dbbf9	0.008650773
137	0xbc607836	-0.0137005355
138	0x3c20cde6	0.009814715
139	0xbbcaa168	-0.006183792
140	0xba3020ac	-0.00067187357
141	0xbd144d61	-0.036206607
142	0xbcc7879f	-0.024356661
143	0x3b7ff331	0.0039054865
144	0xbc7fbe14	-0.015609283
145	0xbbee9bfa	-0.0072817774
146	0xbcd0120e	-0.025399234
147	0x3bd26d82	0.0064217458
148	0x3c83cab6	0.016087871
149	0x3cce2119	0.025162267
150	0xbaeb0fcc	-0.0017933785
151	0x3c7ad56c	0.015309673
152	0xbc6be21f	-0.014397173
153	0xbc7336aa	-0.014844576
154	0xbaecd1f8	-0.0018067947
155	0xbc4af1f5	-0.012386789
156	0x3cbfbb81	0.023404839
157	0x3b94164a	0.0045192586
158	0x3c0b1249	0.008488246
159	0x3c46b3d6	0.012127837
160	0xbcb113f5	-0.021615962
161	0x3c3cb76d	0.0115183415
162	0x3b742e51	0.0037259052
163	0xbb1d83f3	-0.0024034947
164	0x3b855aaa	0.004069646
165	0x3d0bfe28	0.03417793
166	0xbb39b94a	-0.00283392
167	0xbb63c293	-0.0034753426
168	0xbc66d91e	-0.014089851
169	0x3bdc5362	0.006723807
170	0xbcc19c37	-0.02363406
171	0xbc67c8a0	-0.014146954
172	0x3bf4ec03	0.007474424
173	0x3c76194d	0.015020681
174	0x3caa4430	0.020784467
175	0x3c9ef5d7	0.019404335
176	0xbc63c258	-0.013901316
177	0x3bbcc698	0.005760979
178	0x3c0667b8	0.008203439
179	0x3cb93ecb	0.02261295
180	0xbaffa1a4	-0.0019503129
181	0xbce3be71	-0.02780077
182	0xbc92a8e9	-0.017902808
183	0x3c3012a3	0.010746631
184	0x3c691522	0.01422623
185	0xbb6a15e3	-0.0035718612
186	0xbb493d4f	-0.0030706709
187	0xbbb2c022	-0.005455033
188	0x39d0b0cc	0.00039804575
189	0xbcb53ea4	-0.022124596
190	0x3b0c09a7	0.0021368058
191	0xbcb6a877	-0.022297127
192	0x3c842e5b	0.016135385
193	0xbce03f96	-0.02737407
194	0xbc9585ed	-0.018252337
195	0xbbd4c0b3	-0.006492698
196	0x3c63d561	0.013905854
197	0xbb152991	-0.0022760371
198	0xbcbf1b62	-0.023328487
199	0xbcc5da71	-0.024152013
200	0xbc2e0dc1	-0.010623396
201	0xbd0fdbe6	-0.03512182
202	0x3cbbe54a	0.022936482
203	0xbc09902a	-0.008396188
204	0xbbe86195	-0.007091711
205	0x3cc381bf	0.023865579
206	0xbc13d4e5	-0.009022926
207	0x3c055e64	0.00814018
208	0x3b53f0e8	0.0032339636
209	0xbc86986a	-0.016430099
210	0xbc276253	-0.010216313
211	0x3be7f991	0.007079311
212	0xbc3cc7c5	-0.011522238
213	0xbc927205	-0.017876634
214	0xbc0859bc	-0.008322176
215	0xbc6e26bf	-0.014535605
216	0xbb9b31d9	-0.004736167
217	0xbbab642c	-0.0052304473
218	0x3b411f03	0.0029467947
219	0x3d359942	0.04433561
220	0x3c75a862	0.014993759
221	0x3b429934	0.0029693367
222	0x3d41e844	0.047340646
223	0xbc86ee61	-0.01647109
224	0xbbd214e4	-0.0064111818
225	0x3beff232	0.007322573
226	0x3b6a139a	0.003571725
227	0xbb7363c4	-0.0037138322
228	0xbbbdace8	-0.0057884343
229	0xbc095214	-0.008381385
230	0x3c7b5fa8	0.01534263
231	0xbad9a7c1	-0.0016605781
232	0xbc9856a9	-0.01859601
233	0x3c58e9d8	0.013239346
234	0x3ca7304e	0.020408776
235	0x3c56defe	0.013114689
236	0xbc9ce424	-0.019151755
237	0xbbe0d73a	-0.0068615945
238	0x3c403a96	0.011732718
239	0x3c9473b0	0.01812157
240	0x3c94561b	0.018107465
241	0xbc42fdee	-0.011901362
242	0x3c3a60d2	0.011375623
243	0xba3d91e2	-0.0007231516
244	0x3ae6b994	0.0017602914
245	0x3cf42219	0.029801415
246	0xbc5bc3f0	-0.013413414
247	0xbd22e76a	-0.039771475
248	0x3c790b29	0.015200415
249	0xbb624794	-0.0034527527
250	0x3c6eda0a	0.014578352
251	0xbbc5faab	-0.006041845
252	0xbc8bda98	-0.017072007
253	0x3c16d686	0.00920642
254	0x3cf15cf7	0.029463274
255	0x3c2ace9a	0.010425234

network_body._body_endoder.seq_layers.0.weight f4 [256, 67]
0	0x3cfe7e9d	0.031066233
1	0x3df26e12	0.118374005
2	0x3c02e59d	0.007989314
3	0xba77b482	-0.00094492
4	0xbd0b438c	-0.033999965
5	0x3e426f95	0.18987878
6	0x3e0fad7c	0.14031023
7	0xbdc2b016	-0.09506242
8	0x3d7323f5	0.059360463
9	0xbd91dcfe	-0.07122229
10	0xbc0119b0	-0.0078796595
11	0x3da650a6	0.08120851
12	0xbd80a85b	-0.06282111
13	0x3e82474f	0.2544503
14	0x3e5c6288	0.21521962
15	0x3dc674c4	0.0969024
16	0xbd55d55f	-0.05220544
17	0xbc745349	-0.014912435
18	0x3ce7e4b7	0.028307302
19	0x3c8f00c3	0.017456418
20	0x3dfb5ecc	0.122739404
21	0xbe511703	-0.20418935
22	0xbda8008f	-0.082032315
23	0xbc24fad0	-0.010069564
24	0xbe25c153	-0.16187029
25	0x3d1e55ab	0.038655918
26	0x3dd9fea2	0.106442705
27	0xbda6678b	-0.08125218
28	0x3d9ede5c	0.077572554
29	0xbd96b8b0	-0.07359445
30	0x3e03631f	0.1283078
31	0x3da012cc	0.07816085
32	0xbe93b123	-0.28846082
33	0xbc85e6fb	-0.016345492
34	0x3cc92a0e	0.024556186
35	0xbc1525b8	-0.009103231
36	0xbe00bef1	-0.12572838
37	0x3cab7cea	0.020933587
38	0x3eabbba1	0.33541587
39	0xbd99b58d	-0.07505331
40	0xbd026fc9	-0.031844888
41	0xbcba2f50	-0.022727638
42	0xbe027e8b	-0.12743585
43	0xbc307bf4	-0.01077174
44	0x3e6516db	0.22372
45	0xbd9ee7f8	-0.07759088
46	0xbc1e40d6	-0.009659013
47	0xbda24d98	-0.07924956
48	0x3d30e24f	0.043184575
49	0xbd144f9d	-0.036208738
50	0xbb463f35	-0.0030250077
51	0x3ce2a1e2	0.027665082
52	0x3e17af38	0.14812934
53	0xbdfb11e4	-0.12259272
54	0x3e1484c5	0.14503773
55	0x3c2d065b	0.010560597
56	0xbd4739d2	-0.048639126
57	0xbe49c9c2	-0.19705871
58	0xbde338e2	-0.11094834
59	0xbd0ce0bc	-0.03439401
60	0xbeae616d	-0.34058705
61	0x3c913449	0.017725127
62	0x3b59575f	0.003316365
63	0x3e17c40b	0.14820878
64	0x3d7b7420	0.061390042
65	0x3d06729a	0.032824136
66	0xbdf88963	-0.121355794
67	0xbe422d31	-0.18962552
68	0x3ce3806c	0.027771197
69	0x3d7c30b0	0.06156987
70	0xbe8ef60a	-0.27922088
71	0xbcc3bc98	-0.02389364
72	0xbc1ec6dd	-0.009690967
73	0x3e482e28	0.19548857
74	0xbdffa5df	-0.12482809
75	0x3c7b06b7	0.015321425
76	0xbe3f758d	-0.18697186
77	0xbd9c615b	-0.076357566
78	0x3d65734c	0.05601816
79	0xbbe43755	-0.006964604
80	0xbca83a1b	-0.02053552
81	0xbe13e3c9	-0.14442362
82	0x3d5f9b9d	0.054591764
83	0xbe0bf388	-0.13667119
84	0x3e3ee3a9	0.18641533
85	0xbe115ae5	-0.1419483
86	0x3c999695	0.01874856
87	0x3c8e5230	0.017373174
88	0x3c3e39ba	0.011610443
89	0x3e12d1a2	0.14337781
90	0x3e0f0f7b	0.13970749
91	0xbeb7718b	-0.35828814
92	0xbdaf3021	-0.08554102
93	0x3ddc4784	0.10755828
94	0xbd779ff3	-0.060455274
95	0xbe51d60c	-0.20491809
96	0x3cef6314	0.029222049
97	0xbc1384b5	-0.009003808
98	0xbe51e3fe	-0.20497128
99	0x3e06a8c1	0.13150312
100	0xbe088f30	-0.13335872
101	0xbd11bf03	-0.035582554
102	0xbe372df5	-0.17888625
103	0xbe2b4cee	-0.16728565
104	0xbb2de0e9	-0.0026531762
105	0x3c85ade9	0.016318278
106	0xbe2dd240	-0.16974735
107	0xbd873ccc	-0.06603393
108	0xbe84416c	-0.25831163
109	0x3de68f35	0.11257783
110	0xbd504c15	-0.050853807
111	0x3e65bbf0	0.22434974
112	0xbd5c3dfb	-0.053770047
113	0x3d9cecbe	0.076623425
114	0xbdd28c61	-0.102806814
115	0x3e0221d0	0.12708211
116	0xbdb3f10f	-0.08786213
117	0x3dc5a152	0.0964991
118	0x3e1b9a21	0.15195514
119	0xbdc894f4	-0.097940356
120	0xbe2d4dd2	-0.16924217
121	0xbdff7bad	-0.12474761
122	0xbe801208	-0.25013757
123	0xba7ca283	-0.0009637253
124	0xbbdb29ac	-0.0066883173
125	0xbd91358e	-0.07090293
126	0x3e1b111e	0.15143248
127	0xbe50ef1f	-0.20403717
128	0x3da909b4	0.08253804
129	0xbe219cab	-0.1578242
130	0xbe8ea332	-0.27858883
131	0x3de9ebcc	0.11421928
132	0x3c679ec9	0.014136978
133	0x3ea0304d	0.3128685
134	0x3d99edfe	0.075160965
135	0xbdd55bee	-0.10417925
136	0xbcd67b53	-0.026181852
137	0x3e07bf11	0.1325648
138	0x38af217f	8.3508894e-05
139	0x3c070981	0.008242012
140	0xbd49005d	-0.049072612
141	0x3e72b796	0.23702845
142	0x3da35609	0.07975394
143	0xbd9997eb	-0.07499679
144	0x3dc15788	0.094405234
145	0x3d0ef938	0.034905642
146	0x3d97189e	0.07377742
147	0x3bb146e3	0.0054100617
148	0x3e4b2bef	0.19840978
149	0xbe02604d	-0.12732048
150	0xbd9ecbe1	-0.077537306
151	0xbda008bb	-0.07814165
152	0xbcd1229f	-0.025529204
153	0x3d1778e5	0.03698053
154	0x3ac1f5c9	0.0014797981
155	0xbe10c016	-0.14135775
156	0xbd553e0a	-0.05206112
157	0x3d081ddc	0.0332316
158	0xbe230225	-0.15918787
159	0xbd0af5c7	-0.033925798
160	0x3d498d0f	0.04920679
161	0xbd315500	-0.043293953
162	0xbd0bf18b	-0.0341659
163	0xbdbe277d	-0.092848755
164	0xbe012b3f	-0.12614153
165	0x3de82ded	0.11336885
166	0x3e0684ba	0.13136569
167	0xbdd5f9af	-0.10448014
168	0x3d074348	0.03302315
169	0xbe1cd885	-0.1531697
170	0xbe160041	-0.14648534
171	0xbd46a715	-0.048499186
172	0x3d102a37	0.03519651
173	0xbe489689	-0.19588675
174	0x3e9749ca	0.29548484
175	0xbeb2892b	-0.34870276
176	0x3d69663e	0.05698227
177	0x3d1eb4ef	0.03874677
178	0x3d168b99	0.036754224
179	0x3e292ed5	0.16521771
180	0x3e097cce	0.13426515
181	0x3e6c22af	0.23060106
182	0x3d963d52	0.07335915
183	0xbe2926b7	-0.16518675
184	0xbd2f896d	-0.04285567
185	0xbe6cc645	-0.23122509
186	0xbdc03408	-0.09384924
187	0x3e06c9fb	0.13162987
188	0x3db4ab12	0.088216916
189	0xbe4c14bb	-0.19929783
190	0xbd501d60	-0.050809264
191	0xbd56dbcc	-0.05245571
192	0xbc9e95d1	-0.019358547
193	0xbba0f0c7	-0.0049115154
194	0x3c4c2275	0.012459387
195	0x3d8eea2d	0.06978259
196	0xbe3ae4a3	-0.1825128
197	0x3e3515e6	0.17684135
198	0x3e862459	0.26199606
199	0xbc11d195	-0.008900066
200	0xbd87831d	-0.06616805
201	0xbbded62c	-0.0068004336
202	0xbd50d25b	-0.05098186
203	0x3d835934	0.064134985
204	0x3d8fe8a2	0.07026793
205	0xbd19bd55	-0.037534077
206	0x3c47c476	0.012192836
207	0x3e86750a	0.2626117
208	0x3dbdcd3c	0.09267661
209	0xbdccf645	-0.1000791
210	0x3da94281	0.08264638
211	0xbdde70de	-0.108613715
212	0xbe295134	-0.16534883
213	0x3d308a75	0.043100793
214	0xbe11b5db	-0.14229529
215	0x3d4dd7cd	0.05025463
216	0x3dc72455	0.09723727
217	0xbe8202a6	-0.25392646
218	0x3da1ce59	0.07900686
219	0xbe1f099d	-0.15531011
220	0xbe5df451	-0.2167523
221	0x3e3c17f1	0.18368508
222	0x3e466896	0.19375834
223	0x3e4da09e	0.20080802
224	0xbd89778f	-0.06712257
225	0xbcefa7e1	-0.029254856
226	0xbe0a554d	-0.13509102
227	0xbe8baa68	-0.27278447
228	0x3d77ac53	0.060467076
229	0x3e036db4	0.12834817
230	0x3c68205b	0.01416787
231	0xbd273f97	-0.04083213
232	0xbdb93213	-0.09042754
233	0x3d856c85	0.06514839
234	0xbbeed334	-0.007288361
235	0x3d106160	0.035249114
236	0x3c0af6c7	0.008481688
237	0xbe6c5d0e	-0.23082373
238	0x3d821ccb	0.06353148
239	0xbce1555f	-0.027506528
240	0xbddab6ef	-0.10679423
241	0xbdc5271e	-0.09626602
242	0x3e36c406	0.17848215
243	0x3bd29b57	0.0064272094
244	0xbe0ff835	-0.14059527
245	0xbe57ab75	-0.210615
246	0xbde2419b	-0.110476695
247	0xbcd02b30	-0.025411218
248	0x3d69f86f	0.05712169
249	0x3d446b1a	0.047953703
250	0x3d803d44	0.062616855
251	0x3ce3333c	0.027734391
252	0xbe207958	-0.15671289
253	0xbe098129	-0.13428177
254	0xbcf42024	-0.029800482
255	0x3e7afaf7	0.24509798

network_body._body_endoder.seq_layers.2.bias f4 [256]
0	0x3c38b214	0.011272926
1	0xbb395c5e	-0.0028283815
2	0x3ad76434	0.0016433061
3	0x3c4577c5	0.012052481
4	0x3c33d0dd	0.01097509
5	0xb9713f04	-0.00023007026
6	0xbc4382c5	-0.011933033
7	0xbbe08882	-0.0068522105
8	0xbc8f2131	-0.017471882
9	0x3bdbb4d5	0.0067049065
10	0xbbb5b017	-0.005544673
11	0xbca17f5e	-0.019714054
12	0xbb104f27	-0.0022019835
13	0xbb94f9d9	-0.0045463857
14	0xbb3fc4ed	-0.0029261664
15	0x3c84724d	0.016167784
16	0xbc4f073b	-0.012636001
17	0xbc948f94	-0.01813487
18	0xbca49ad5	-0.02009336
19	0x3be31ebd	0.0069311545
20	0xbc8e22ac	-0.017350517
21	0xbc84c1bb	-0.01620566
22	0xbcafa078	-0.021438822
23	0x3c4343c4	0.011918012
24	0xbc387bd3	-0.011259991
25	0xbc46f7e5	-0.012144064
26	0xba631ac7	-0.0008663353
27	0x3c87f154	0.016594566
28	0x3c469595	0.012120624
29	0xbc55947e	-0.013035892
30	0x3aa62308	0.0012675235
31	0xbc43dd71	-0.011954651
32	0xbcdfa068	-0.027298167
33	0x3b998c1f	0.004685893
34	0x3c01b162	0.0079158265
35	0x3b56d8de	0.0032783072
36	0x3b8951c0	0.0041906536
37	0x3b94045e	0.004517122
38	0xbca0162b	-0.01954182
39	0x3c894c2f	0.01675996
40	0x3bf89e55	0.007587234
41	0x3c110cd5	0.008853157
42	0xbc0b0d1c	-0.008487012
43	0x3b44be9e	0.0030020843
44	0xbc79717e	-0.015224813
45	0x3b916472	0.004437023
46	0x3bd32230	0.0064432845
47	0xbb88aee4	-0.004171239
48	0xbcc4c2e8	-0.02401872
49	0x3b750141	0.003738478
50	0x3c9b76de	0.018977579
51	0x3b816fb6	0.0039500846
52	0x3be50951	0.006989636
53	0x3c2a8b53	0.010409194
54	0x3c6f32c6	0.014599508
55	0x3ab0418c	0.0013447269
56	0xbc79ed09	-0.0152542675
57	0x3c563287	0.01307357
58	0xbbf4ab17	-0.0074666846
59	0xbb1d09d0	-0.0023962148
60	0xbc4c8fa7	-0.012485421
61	0x3c9a76b0	0.018855423
62	0xbc66bd97	-0.014083288
63	0xbc95df41	-0.018294932
64	0x3c4361cc	0.011925172
65	0x3b971832	0.0046110386
66	0x3be87e76	0.0070951534
67	0x3b2bbe15	0.0026205827
68	0x3c660d49	0.014041253
69	0xbc86d156	-0.016457241
70	0xbc04ac3c	-0.0080977045
71	0x3c22c7ff	0.009935378
72	0x3c329ed6	0.010902127
73	0xbcdc513a	-0.0268942
74	0x3b57e351	0.0032941888
75	0x3cab5883	0.02091623
76	0x3ca0c8b4	0.019626953
77	0xbc1dffcf	-0.009643509
78	0x3b96032f	0.004578016
79	0xbc6e018c	-0.014526736
80	0xbc61980c	-0.013769161
81	0x3b5fbd38	0.0034139883
82	0xbc18d26c	-0.009327512
83	0xbaa2d267	-0.0012422324
84	0x3bf77fb9	0.0075530675
85	0xbc5ea0ba	-0.013588125
86	0x3bc6eaea	0.0060704844
87	0xbb7097a0	-0.003671147
88	0x3b9aea79	0.0047276584
89	0x3bf4b91a	0.007468355
90	0x3c4e4a2b	0.012590925
91	0xbc5f7794	-0.0136393495
92	0x3cc4d0f6	0.024025422
93	0xbc8e53a1	-0.017373862
94	0xbc240a08	-0.010012157
95	0xbbddaa74	-0.0067647044
96	0x3bc13b34	0.00589695
97	0x3b526a1d	0.0032106705
98	0xbc7994c1	-0.01523322
99	0x3b0ff936	0.002196861
100	0xbc7c8077	-0.015411488
101	0x3bc3f72a	0.005980392
102	0xbb4e18fe	-0.0031448002
103	0xbcc38908	-0.023869053
104	0x3a2881db	0.00064280414
105	0x3c33b564	0.01096854
106	0xbc82466a	-0.015902717
107	0x3ca23173	0.01979897
108	0x3c3924a0	0.011300236
109	0x3cb03c84	0.021513231
110	0xbc3e928a	-0.011631617
111	0xbc06915e	-0.008213369
112	0x3c01b2ec	0.007916193
113	0x3bcf2ed7	0.0063227224
114	0xbc1a54a8	-0.009419598
115	0x3c5fbde7	0.013656116
116	0xbc666c19	-0.014063858
117	0xbbd8f585	-0.006621065
118	0x3c304ec9	0.010760971
119	0xbc934617	-0.017977757
120	0x3ba96cc2	0.0051704356
121	0x3c066a48	0.00820405
122	0x3ccb7f47	0.024840964
123	0xbc8049c0	-0.015660167
124	0xbc378839	-0.011201912
125	0x38532117	5.0337138e-05
126	0xbc1b2786	-0.009469872
127	0xbc941669	-0.018077092
128	0x3bba9f62	0.0056952694
129	0x3b962231	0.0045817127
130	0x3b51eb84	0.0032031247
131	0x3c2d5972	0.010580407
132	0xbc355cb7	-0.011069468
133	0xbc4a7082	-0.0123559255
134	0xbc97f2d8	-0.018548414
135	0xbbf849a5	-0.0075771385
136	0xbb3f6b76	-0.0029208339
137	0xbc30c94d	-0.010790181
138	0x3c3d6e50	0.011561945
139	0xbca8f033	-0.020622348
140	0x3c3d3ce4	0.011550162
141	0xbc88c5ca	-0.016695876
142	0x3c1c9250	0.009556368
143	0xbce4349c	-0.027857117
144	0x3c6baa28	0.01438383
145	0xbb895365	-0.0041908496
146	0xbc9588a8	-0.01825364
147	0xbcb89d43	-0.022535926
148	0xbbb6d06b	-0.0055790446
149	0xbb59cad8	-0.0033232477
150	0x3c67f06f	0.014156445
151	0xbc7242e5	-0.014786457
152	0xbc8a5d7d	-0.016890282
153	0xbcafa63b	-0.02144157
154	0x3c02f404	0.007992748
155	0xbc716778	-0.0147341415
156	0x3c8b6395	0.017015258
157	0x3af025de	0.0018321832
158	0xbcd7d473	-0.02634642
159	0xbc119c53	-0.008887368
160	0xbc980611	-0.01855758
161	0x3ab9aa70	0.0014165174
162	0x3a21f063	0.0006177483
163	0xbc6b99c6	-0.014379924
164	0xbc6e0cb5	-0.014529397
165	0xbc64fc47	-0.013976163
166	0xbbff8718	-0.007798087
167	0xbca5202b	-0.02015694
168	0xbc5043c4	-0.012711469
169	0xbc9aba2f	-0.018887607
170	0x3c9988d9	0.018742012
171	0xbaef3354	-0.001824955
172	0xbb33dd60	-0.0027445182
173	0xbbd880a7	-0.0066071334
174	0xbc2a66bc	-0.01040047
175	0x39bae78d	0.00035649203
176	0xba84b346	-0.0010124228
177	0x3c6f08bf	0.014589488
178	0xbc0b5229	-0.008503475
179	0x3b2abf53	0.002605398
180	0x3c7825b8	0.015145712
181	0xbc14e37b	-0.009087439
182	0xbc819a6e	-0.015820708
183	0xbbc83160	-0.0061094016
184	0x3b6cbb23	0.0036122284
185	0xbc8e8533	-0.017397499
186	0x3c9b86d3	0.018985188
187	0xbc20b004	-0.00980759
188	0xbbafcf20	-0.0053652674
189	0xbc229ca9	-0.009925046
190	0x3bd7dfc5	0.0065879547
191	0x3c9223e9	0.017839389
192	0xbc56d763	-0.013112876
193	0x399ec426	0.0003028225
194	0xbc1245b5	-0.008927752
195	0x3bb4a366	0.0055126427
196	0xbb160d69	-0.0022896177
197	0xbc120feb	-0.008914928
198	0x3bcc192f	0.006228588
199	0xbc19dce5	-0.009391044
200	0xbc848a0f	-0.016179113
201	0xbca28c46	-0.019842278
202	0xbc1bf046	-0.009517735
203	0xbc45dc98	-0.012076519
204	0xbc36d624	-0.011159454
205	0xbc03c21e	-0.008041887
206	0x3c8653c4	0.016397364
207	0x3c3c5205	0.011494164
208	0x3b1f339b	0.0024292234
209	0xbc875c63	-0.016523546
210	0xbb46d7ac	-0.0030340953
211	0x38073c16	3.2242468e-05
212	0xbcac1aae	-0.021008816
213	0xbc185e84	-0.009299878
214	0x3c1ff1a4	0.009762201
215	0xbc43ced8	-0.011951171
216	0xbcd8d330	-0.02646789
217	0x3af39e5f	0.0018586627
218	0xbc501e95	-0.012702604
219	0xbc948973	-0.018131947
220	0xbb3dea41	-0.0028978738
221	0x3c512a8a	0.01276649
222	0xbca84e77	-0.020545227
223	0xbbc07cc1	-0.005874247
224	0x3c9c458f	0.019076137
225	0xbbe7ff0b	-0.007079964
226	0xbc89d2f2	-0.01682422
227	0x3c367d79	0.011138313
228	0xbbf3ca76	-0.0074399067
229	0xbc5d9bff	-0.013525962
230	0xbb05a093	-0.00203899
231	0xbc130677	-0.008973709
232	0xb77c9814	-1.5055779e-05
233	0x3c116f3a	0.008876616
234	0xbbac5d09	-0.005260114
235	0xbc877469	-0.016535
236	0x3bb2e0ab	0.0054589114
237	0x3bf2b123	0.0074063702
238	0xbc8c1452	-0.017099533
239	0xbc26af52	-0.010173636
240	0xbb329460	-0.0027249083
241	0x3b8a3e1c	0.00421883
242	0x3ca3bd9f	0.01998788
243	0xbcb0aa12	-0.02156547
244	0x3bffc480	0.007805407
245	0x3b9dab49	0.0048116785
246	0x3cbe7321	0.023248257
247	0xbcb73413	-0.022363698
248	0x3c26e6bd	0.010186848
249	0x3b307200	0.0026923418
250	0xbab69117	-0.0013928738
251	0x3b390b38	0.0028235447
252	0x3cba85c8	0.02276887
253	0xbce5f3a5	-0.02807028
254	0xbb8a8570	-0.004227333
255	0xbc9c996c	-0.019116126

network_body._body_endoder.seq_layers.2.weight f4 [256, 256]
0	0x3d6ef240	0.058336496
1	0xbcf97d28	-0.030455187
2	0x3d53a663	0.05167235
3	0x3d957bbc	0.07298991
4	0xbd919ffb	-0.07110592
5	0x3c36c7a7	0.011155999
6	0x3d9c4ace	0.07631455
7	0x3c457c3a	0.012053544
8	0xbd0778ad	-0.03307407
9	0xbdc31d9c	-0.09527132
10	0xbd0c03fe	-0.034183495
11	0x3ded6e3c	0.11593291
12	0x3d0a9fcf	0.03384381
13	0x3e08c2bf	0.1335554
14	0xbdca3dc5	-0.09875063
15	0x3d163ad6	0.036677204
16	0x3d924aec	0.071431965
17	0xbd2ffc52	-0.04296524
18	0xbd0e6c02	-0.034770973
19	0xbcf12644	-0.029437192
20	0x3d2d7c9f	0.042355176
21	0xbc9669de	-0.018361028
22	0xbd7f8888	-0.062386066
23	0xbd10215a	-0.035188057
24	0xbd4c3b31	-0.049861137
25	0xbd3c6ede	-0.04600417
26	0x3de41869	0.11137468
27	0x3ce7e64f	0.028308062
28	0x3b4486e0	0.0029987618
29	0xbdf55b99	-0.119803615
30	0x3c947e65	0.018126676
31	0xbdc0e46c	-0.09418568
32	0x3a8461c9	0.0010099943
33	0xbd292266	-0.04129257
34	0xba96bff0	-0.0011501294
35	0x3d2cd1e5	0.04219236
36	0xb9331ca0	-0.00017081434
37	0xbd4f7556	-0.05064901
38	0xbdc21efc	-0.09478566
39	0x3d29540c	0.04133992
40	0xbd847fda	-0.06469698
41	0x3d89aeda	0.067228034
42	0xbc6e4b16	-0.014544269
43	0xbd82d94b	-0.063891016
44	0xbd4e5884	-0.050377384
45	0xbcda2151	-0.026627215
46	0x3d7e259d	0.06204759
47	0xbd96f6e6	-0.07371311
48	0x3dcd8f7b	0.10037132
49	0x3c32e23d	0.010918197
50	0x3c6ca1be	0.014442859
51	0x3c9e02ba	0.01928841
52	0x3d04c7d3	0.03241713
53	0xbd2dc4d4	-0.042424038
54	0xbd986974	-0.074419886
55	0xbc76968e	-0.0150505435
56	0xbd499b94	-0.049220636
57	0x3cc69b8f	0.024244098
58	0xbdedb356	-0.11606471
59	0x3d233977	0.039849725
60	0xbd982d11	-0.07430471
61	0xbe089664	-0.1333862
62	0xbc3a916e	-0.011387212
63	0xbd19098d	-0.037362624
64	0xbc9c2af8	-0.019063458
65	0xbe009dcb	-0.12560193
66	0xbc6c28d0	-0.014414027
67	0x3cac41ea	0.021027524
68	0xbc2bd8bc	-0.010488685
69	0xbd1263c1	-0.035739664
70	0xbdb79c22	-0.08965327
71	0xbcaa8855	-0.020816961
72	0xbd807285	-0.06271843
73	0x3c51d2ed	0.012806636
74	0xbd8a22f0	-0.06744945
75	0x3cc5349c	0.024072938
76	0x3e3f5a01	0.18686678
77	0x3de98d1f	0.1140387
78	0x3d58eb89	0.052959
79	0x3d8f0ab2	0.06984462
80	0xbcfd7494	-0.030939378
81	0x3c88fd5c	0.016722374
82	0xbd6248ba	-0.05524514
83	0xbdbb4acf	-0.09145128
84	0x3d9c90e1	0.07644821
85	0xbcb82e40	-0.022482991
86	0xbda94dbe	-0.08266781
87	0xbccdde09	-0.025130289
88	0xbd3c886b	-0.046028536
89	0xbd8c4a48	-0.068501055
90	0xbdb18496	-0.08667867
91	0x3d8d91c6	0.0691257
92	0xbdde87b2	-0.108657256
93	0xbd36dd73	-0.044644784
94	0x3cf5aaf3	0.029988742
95	0x3d5b921c	0.053606138
96	0xbd8972b9	-0.06711335
97	0x3cb48fb2	0.022041176
98	0xbd116390	-0.03549534
99	0x3da6fa21	0.08153177
100	0x3d3c1af9	0.04592416
101	0x3d14e8e0	0.0363549
102	0x3daf11ab	0.08548292
103	0xbd65972e	-0.05605238
104	0xbdc79e46	-0.09746985
105	0x3d4cbf35	0.049987037
106	0xbd47e53d	-0.048802603
107	0xbe490256	-0.19629797
108	0xbcbfc43d	-0.023409003
109	0xbdadbdb1	-0.084834464
110	0x3d40507c	0.046951756
111	0xbc1f7493	-0.009732383
112	0xbdf6cd50	-0.12050879
113	0xbd285c5d	-0.04110371
114	0xbd68d37c	-0.056842312
115	0x3cb51d80	0.022108793
116	0xbc247fb5	-0.010040213
117	0x3cfba641	0.030718924
118	0xbd1ebd65	-0.03875484
119	0xbda427fd	-0.0801544
120	0xbcf638eb	-0.030056437
121	0xbd4e0ccc	-0.050305173
122	0xbd621250	-0.055193245
123	0xbb9a0557	-0.0047003436
124	0x3d354fb0	0.04426545
125	0xbe4c909e	-0.19977042
126	0xbd89bb82	-0.067252174
127	0xbd8978f7	-0.06712525
128	0xbcc1476b	-0.023593625
129	0xbc9af2d9	-0.018914627
130	0x3cd1b2e8	0.025598004
131	0xbc2c892d	-0.010530752
132	0x3c125cb9	0.00893324
133	0x3b62dec7	0.003461765
134	0xbd87c44e	-0.06629239
135	0x3de393df	0.111121885
136	0xbd0c3ca9	-0.034237538
137	0xbcc5feee	-0.024169412
138	0x3a180e19	0.00058004406
139	0xbccecc05	-0.025243768
140	0x3c778c5d	0.015109149
141	0xbac1fa5e	-0.0014799347
142	0xbe0c33b6	-0.13691601
143	0xbc3d9982	-0.011572244
144	0xbced7090	-0.028984338
145	0xbdbd5fea	-0.0924681
146	0xbd7d3f35	-0.061827857
147	0x3c421a5d	0.011847106
148	0xbd3ee14d	-0.046601582
149	0xbe204e7d	-0.15654941
150	0x3d0f5b3d	0.03499912
151	0xbcae9962	-0.021313373
152	0xbd233731	-0.039847557
153	0xbdf16791	-0.11787332
154	0xbd2c4760	-0.042060256
155	0xbd55d403	-0.052204143
156	0xbcc20666	-0.023684692
157	0x3c4b79b8	0.012419157
158	0x3d45be01	0.048276905
159	0xbc56c8a9	-0.013109365
160	0xbc8d176a	-0.017223079
161	0x3ce061b3	0.027390337
162	0x3c168b77	0.009188524
163	0x3b650945	0.0034948152
164	0xbc9ec810	-0.019382507
165	0xbddc22fd	-0.10748861
166	0xbb5c4feb	-0.003361697
167	0x3cf6b0ae	0.030113544
168	0xbd28a9e1	-0.041177634
169	0xbd1c5393	-0.03816564
170	0xbd54aef4	-0.05192466
171	0x3c1db5cd	0.009625864
172	0x3d886354	0.0665957
173	0xbd9dec53	-0.07711091
174	0xbdd8e06b	-0.10589679
175	0x3dccacdf	0.0999391
176	0x3c5f8066	0.013641452
177	0xbd5c8405	-0.05383684
178	0x3e02a8df	0.12759732
179	0x3c3955fb	0.011312003
180	0x3dcb4449	0.09925134
181	0x3dac38cf	0.08409273
182	0xbd7605b8	-0.060064048
183	0xbdd96c01	-0.10616303
184	0x3d13ed5f	0.036115047
185	0xbe0b894f	-0.13626598
186	0x3e0f219a	0.13977662
187	0xbccf0070	-0.025268763
188	0xbcad83d5	-0.021181026
189	0x3dbf9bd5	0.093558945
190	0xbd49bf4d	-0.049254704
191	0x3d5df3ae	0.05418747
192	0x3c70e1ed	0.014702302
193	0xbca92355	-0.02064673
194	0xbd589d22	-0.05288423
195	0xbe1c0e91	-0.15239932
196	0xbd80e3c2	-0.06293441
197	0x3de0c8e4	0.10975817
198	0xbc6a83b3	-0.014313626
199	0x3d4610bf	0.048355814
200	0xbd81504d	-0.06314144
201	0x3dafe12a	0.085878685
202	0x3a6d1c0c	0.0009045012
203	0xbd95d998	-0.07316893
204	0xbe2609c9	-0.1621467
205	0xbd2f69d6	-0.042825542
206	0x3d1962ae	0.037447624
207	0xbd984bb2	-0.07436313
208	0xbcb0a5e1	-0.021563472
209	0x3cc44acb	0.023961445
210	0xbdb689eb	-0.089130245
211	0xba32da2f	-0.0006822673
212	0x3d83122f	0.063999526
213	0xbe14999d	-0.14511724
214	0xbbe9bada	-0.00713287
215	0x3ba6db54	0.005092064
216	0xbe03a2fa	-0.1285514
217	0xbd7e119c	-0.062028512
218	0xbdd811d7	-0.10550278
219	0xbd680da3	-0.05665363
220	0x3d02e742	0.031958826
221	0xbcb243e5	-0.02176089
222	0xbd115fc3	-0.035491716
223	0xbd06bcfc	-0.032895073
224	0xbde6df65	-0.11273078
225	0xbce5b276	-0.028039198
226	0x3ddfcd31	0.10927809
227	0x3d30b5d1	0.043142144
228	0x3c9e6090	0.019333154
229	0x3d539eb6	0.05166503
230	0xbd5f90c8	-0.054581434
231	0xbd270b45	-0.04078223
232	0xbd8ee22d	-0.06976733
233	0x3d650715	0.055914957
234	0xbc1ba7e7	-0.00950048
235	0x3dedf3f9	0.116188
236	0xbd8505e4	-0.06495264
237	0x3c7e6431	0.015526817
238	0x3d9199ea	0.07109435
239	0xbe4d673e	-0.20058915
240	0x3cfe4edd	0.031043464
241	0xbd1b6ba0	-0.037944436
242	0x3de5768c	0.11204252
243	0xbd1302ae	-0.035891227
244	0xbd17c160	-0.03704965
245	0xbd3bb4c6	-0.045826696
246	0xbd2acfa4	-0.041701928
247	0x3d092752	0.033484764
248	0xbd87b244	-0.06625798
249	0x3e0f871d	0.14016385
250	0xbbf9d6f8	-0.007624503
251	0xbd7af0b5	-0.061264712
252	0xbce8f5d2	-0.028437529
253	0x3da6313e	0.08114861
254	0xbc124447	-0.008927411
255	0xbc6f44a1	-0.014603765

network_body._body_endoder.seq_layers.4.bias f4 [256]
0	0x3b8cb302	0.0042938003
1	0xbb3b8cd5	-0.0028617878
2	0xbc2b89e5	-0.010469888
3	0xbb9ae551	-0.0047270437
4	0xbc265154	-0.010151226
5	0x3c891ed7	0.016738338
6	0x3c0c98f1	0.008581386
7	0xbcf26e3d	-0.029593581
8	0xbc804d1a	-0.015661765
9	0xbcf1f0c5	-0.029533753
10	0x3cad75cc	0.021174334
11	0xbcb42928	-0.021992281
12	0xbb1451d5	-0.0022631784
13	0x3c7b56ff	0.015340566
14	0xbcb1f61d	-0.021723801
15	0xbc980f72	-0.018562052
16	0x3c7b8ede	0.015353886
17	0xbc87e290	-0.016587526
18	0xbcb0d96c	-0.02158805
19	0x3c85307e	0.016258474
20	0x3cab2f4d	0.020896578
21	0x3c57c9b6	0.01317065
22	0xbcb5450d	-0.022127653
23	0x3b48d837	0.0030646452
24	0xbcd58401	-0.02606392
25	0xbc184c13	-0.009295481
26	0xbc6d2e08	-0.014476307
27	0xbc087164	-0.008327816
28	0xbcce3ac8	-0.025174513
29	0xbae99837	-0.0017821853
30	0xbc2ac656	-0.010423264
31	0xbc9f3574	-0.019434668
32	0xbcbf77fc	-0.023372643
33	0x3c4406f3	0.011964547
34	0xbc384a3b	-0.011248167
35	0x3c7215c3	0.014775696
36	0x3bc9c4f6	0.006157513
37	0x3bf3b31f	0.0074371244
38	0xbc85517f	-0.016274212
39	0x3bd8957d	0.0066096173
40	0xbcabe629	-0.020983772
41	0xbc9fc272	-0.019501898
42	0x3b154d09	0.0022781512
43	0xbca15804	-0.01969529
44	0x3c07bf86	0.008285409
45	0xbb7d1987	-0.0038619952
46	0x3b8e2267	0.004337597
47	0x3cc9ed1b	0.024649194
48	0x3bc93412	0.0061402405
49	0x3c9a0149	0.018799441
50	0xbc84b388	-0.016198888
51	0xbcf590d4	-0.029976286
52	0x3c5087f3	0.012727725
53	0x3bf09fbf	0.007343262
54	0xbc039902	-0.008032085
55	0xbc113640	-0.008863032
56	0xbc99d090	-0.018776208
57	0x3b1ddbd3	0.0024087324
58	0xbcaba39c	-0.020952038
59	0xbc60769c	-0.013700154
60	0x3ca5668b	0.020190498
61	0x3c2aaeda	0.010417664
62	0x3bdc523f	0.0067236717
63	0xbc1e6b10	-0.00966908
64	0xbcad9610	-0.02118972
65	0xbc49c605	-0.012315278
66	0xbce12542	-0.027483586
67	0x3cad6070	0.021164149
68	0x3aa1b7e5	0.001233813
69	0xbc897dee	-0.01678368
70	0xbc4ff66c	-0.012693029
71	0x3c8a8435	0.016908744
72	0xbc9cf815	-0.019161263
73	0xbcd6ed7c	-0.026236288
74	0x3b70da46	0.0036751195
75	0xbc9f8c0d	-0.019475961
76	0x3be3102e	0.006929419
77	0xbc7b4267	-0.015335656
78	0xbc8b1fca	-0.016982932
79	0xba05aac4	-0.00050989934
80	0xbca253b9	-0.019815313
81	0xbc4b3de2	-0.012404891
82	0x3bcd9a39	0.0062744883
83	0xbc487a43	-0.012236181
84	0x3bf80263	0.007568644
85	0xbc516eb3	-0.01278274
86	0x3ca0585b	0.019573381
87	0xbbe39baf	-0.006946049
88	0xbc9830e4	-0.018578
89	0x3c9cba67	0.019131852
90	0xba456b6c	-0.0007530961
91	0xbcfe881f	-0.031070767
92	0xbc7d0379	-0.0154427225
93	0xba32f339	-0.0006826404
94	0xbc9bf1b4	-0.019036151
95	0xbc949346	-0.018136632
96	0xbc95de20	-0.018294394
97	0xbc4ac8ae	-0.012376947
98	0x3cb4c19b	0.022064975
99	0xbad06e0f	-0.0015901941
100	0xbc96c535	-0.018404583
101	0xbca60bd6	-0.020269316
102	0x3c693482	0.01423371
103	0xbbfd80f1	-0.0077363183
104	0xbcc24a20	-0.023716986
105	0x3c71f1ae	0.014767094
106	0x3cdf839b	0.027284434
107	0xbc6f4ada	-0.014605248
108	0x3c5e91bb	0.01358455
109	0x3c589c45	0.013220851
110	0xbc8c3dd4	-0.017119326
111	0xbcab7d10	-0.020933658
112	0xbcd3d90c	-0.025860332
113	0xbbd0d5b5	-0.006373132
114	0xbc50ddca	-0.012748191
115	0xbca98533	-0.020693397
116	0x3c3a1093	0.011356491
117	0x3c81283d	0.015766257
118	0x3c00ef86	0.007869607
119	0xbc3e03ab	-0.011597554
120	0x3c779a90	0.015112534
121	0xbbaf4a2a	-0.005349417
122	0x3c1e1405	0.009648328
123	0xbcb8aac7	-0.02254237
124	0xbb71d629	-0.003690133
125	0xbc7badb5	-0.015361239
126	0xbca2977f	-0.01984763
127	0xbce656f6	-0.028117638
128	0xbc0135ee	-0.007886393
129	0xbbfe5574	-0.0077616517
130	0xbc98887a	-0.018619765
131	0xbc87dd7e	-0.016585108
132	0x3c1adfc1	0.009452761
133	0xbcce6c55	-0.025198141
134	0xbc62842c	-0.013825458
135	0x3995c5c0	0.0002856683
136	0x3b80d7e7	0.0039319876
137	0x390b6ff2	0.00013297776
138	0x3cc25d5c	0.023726158
139	0x3b904ffc	0.004404066
140	0x3a532a8e	0.00080553524
141	0xbca5e09d	-0.020248706
142	0xbcc770fb	-0.024345865
143	0xbab0c0ee	-0.0013485232
144	0xbc2861b1	-0.010277198
145	0xb904a1fb	-0.00012648843
146	0x3aaba71b	0.0013096066
147	0x3b921112	0.0044576013
148	0xbc4c5a21	-0.01247266
149	0x3c8c3318	0.017114207
150	0xbcbcf7a4	-0.023067303
151	0xbc599081	-0.013279081
152	0x3c345c5e	0.01100835
153	0xbbdc94bd	-0.006731598
154	0xbcd8fbbf	-0.02648723
155	0xbc6e875d	-0.01455864
156	0x3c27b3b3	0.010235715
157	0xbbe12273	-0.0068705617
158	0x3c3280b7	0.010894946
159	0x3c291f30	0.010322377
160	0xbca03af7	-0.019559367
161	0xbc5c1575	-0.01343285
162	0xbc971e0d	-0.018446947
163	0xbb9bc75d	-0.0047539906
164	0xbc6f6064	-0.014610384
165	0x3cc100b5	0.023559907
166	0xbc09b0e6	-0.008403992
167	0x3b54aba5	0.003245094
168	0xbb7f8025	-0.0038986292
169	0xb9b46e82	-0.0003441461
170	0x3c29da1c	0.010366943
171	0xbc06df62	-0.00823197
172	0xbc9b3f3e	-0.018951055
173	0xbcc856ba	-0.024455417
174	0xbc95a811	-0.018268617
175	0xbcd244bb	-0.025667539
176	0xbc79c9d2	-0.015245872
177	0x3ba88e31	0.0051439037
178	0x3bad6ba6	0.0052923737
179	0xbccc6767	-0.02495165
180	0x3c6b4dad	0.014361781
181	0xbbb59d9f	-0.0055424715
182	0x3befc9ac	0.0073177423
183	0xbb31cf85	-0.0027131748
184	0xbb256c00	-0.0025241375
185	0xbc6fade1	-0.014628858
186	0x3c31bb5f	0.010847895
187	0x3c6c9958	0.014440857
188	0xbc42c4e4	-0.011887763
189	0xbce386e2	-0.027774278
190	0xbcffe5bd	-0.031237477
191	0xbb6888f1	-0.0035482014
192	0x3c813e18	0.015776679
193	0xbcd0591e	-0.02543312
194	0x3b912232	0.004429125
195	0x3bd45d97	0.0064808833
196	0xbc50d8dc	-0.012747016
197	0xbb0bb1d6	-0.0021315715
198	0x3b87892d	0.0041362257
199	0xbcce53eb	-0.0251865
200	0xbc7fccf2	-0.015612828
201	0xbca0d27e	-0.01963162
202	0xbc976fdb	-0.018485954
203	0xbcefd227	-0.029275013
204	0x3c634289	0.013870844
205	0xbb0dbca3	-0.0021627329
206	0xbc82ef79	-0.01598333
207	0xbca7df69	-0.020492272
208	0xbc1c1e95	-0.009528776
209	0xbc310d94	-0.01080646
210	0x3ac376f3	0.0014912769
211	0x3bf7f093	0.0075665205
212	0xbc569c5a	-0.013098801
213	0xbc8efd57	-0.017454786
214	0x3c92d1de	0.017922338
215	0xbc8bd9eb	-0.017071685
216	0x3c90eb8e	0.017690446
217	0x3c335d76	0.010947576
218	0xbc9c041a	-0.019044925
219	0xbc9d4725	-0.019198963
220	0xbb8c1b71	-0.004275732
221	0xbd101a01	-0.03518105
222	0xbc5d158f	-0.0134939095
223	0xbcacbff6	-0.021087628
224	0xbcb28fd8	-0.021797106
225	0xbc152693	-0.009103435
226	0xbc5c2939	-0.013437563
227	0xbc060c82	-0.008181693
228	0x3cb019d6	0.021496695
229	0xbbacf996	-0.0052787764
230	0xbc8b4a1d	-0.017003113
231	0x3c9fcf94	0.01950816
232	0x3b5d2bd7	0.0033748054
233	0xbbf6f301	-0.0075362925
234	0xbc2fd99d	-0.010733035
235	0xbb82cb4f	-0.0039915214
236	0xbba3bdda	-0.0049969973
237	0xbc9da64c	-0.019244336
238	0xbc1d1cf7	-0.009589425
239	0x3bad633b	0.00529137
240	0xbcb3627e	-0.02189755
241	0xbc969f5f	-0.018386541
242	0xbca7f552	-0.02050272
243	0x3c80d90d	0.015728498
244	0xbcc84fd1	-0.024452122
245	0x3c9b58d7	0.01896326
246	0xbcb206b7	-0.021731718
247	0x3c17d082	0.009266021
248	0x3c545cb0	0.012961552
249	0x3acc6302	0.0015593471
250	0xbcd79ab7	-0.026318891
251	0xbcc60aee	-0.024175134
252	0xbcdadf97	-0.026717944
253	0xbca8751c	-0.020563655
254	0x3c4167a1	0.011804492
255	0xbbd5f6f9	-0.0065296856

network_body._body_endoder.seq_layers.4.weight f4 [256, 256]
0	0xbca9da22	-0.020733897
1	0x3cec42c2	0.028840426
2	0xbd3a2a17	-0.045450296
3	0x3d4777f9	0.0486984
4	0xbd6e37bc	-0.05815862
5	0xbde0952b	-0.109659515
6	0xbba48810	-0.0050211027
7	0x3d2d3c55	0.042293865
8	0xbbb48dbc	-0.00551006
9	0x3de9c4ea	0.114145115
10	0x3d27acf6	0.040936433
11	0xbc74d869	-0.014944174
12	0xbcfad3cf	-0.030618576
13	0xbca072d7	-0.01958601
14	0xbdddbd51	-0.10827125
15	0xbe35ce87	-0.17754565
16	0x3d2ba308	0.041903526
17	0xbb218378	-0.0024645012
18	0x3a405fc6	0.000733849
19	0x3d5b65ae	0.053563766
20	0x3d127329	0.035754357
21	0x3d35d99e	0.04439699
22	0x3bf8b16d	0.00758951
23	0x3d193687	0.037405517
24	0xbd1857f0	-0.03719324
25	0xbd3b4d0d	-0.04572778
26	0xbb43cb30	-0.0029875748
27	0xbd94206b	-0.07232746
28	0xbcb92b07	-0.022603525
29	0xbc8c7b08	-0.01714851
30	0x3d83d85c	0.06437752
31	0xbdb24390	-0.08704293
32	0xbd1b79d6	-0.03795799
33	0xbd2319e1	-0.039819602
34	0x3daf5502	0.08561136
35	0xbe15e247	-0.14637099
36	0xbd0fc7bf	-0.035102602
37	0xbc6586d7	-0.014009199
38	0xbe0627ae	-0.13101074
39	0x3d97e6ca	0.074170664
40	0xbd0489a0	-0.032357812
41	0xbd1ebaa9	-0.03875223
42	0xbd2c3f7d	-0.042052735
43	0x3d1cec12	0.03831107
44	0x3d128bf7	0.035778012
45	0xbdea1fb6	-0.1143183
46	0x3dbd0802	0.09230043
47	0x3c8297b2	0.015941475
48	0x3dcfec78	0.10152525
49	0xbc6e54e5	-0.014546608
50	0xbd806507	-0.062692694
51	0xbd5109f4	-0.051034883
52	0x3d6c6f23	0.057723176
53	0xbd0be469	-0.034153376
54	0x3bff53ab	0.0077919564
55	0xbd816a4f	-0.06319105
56	0x3d818e82	0.06326009
57	0x3e04f3d7	0.12983643
58	0xbce36de7	-0.027762366
59	0x3db7b410	0.08969891
60	0xbbe243fc	-0.006905077
61	0xbdd49f76	-0.10381977
62	0x3b173613	0.0023073002
63	0xbd9a3e52	-0.07531418
64	0x3c9446d2	0.018100176
65	0xbe049540	-0.1294756
66	0x3cb470b1	0.022026392
67	0xbd494e96	-0.04914721
68	0xbd6ad781	-0.057334427
69	0x3be0b80a	0.0068578767
70	0xbd62b058	-0.055343956
71	0xbd97f026	-0.074188516
72	0x3e11c0e1	0.14233734
73	0x3ce03bca	0.02737226
74	0xbdf2f732	-0.11863555
75	0xbde5c1d8	-0.112186134
76	0xbd9552e8	-0.07291204
77	0xbd12f248	-0.03587559
78	0xbc546024	-0.012962375
79	0x3d3007a3	0.042976033
80	0x3e1fab2c	0.1559264
81	0x3d840056	0.064453766
82	0xbd230a3e	-0.03980469
83	0xbdbf73b2	-0.09348239
84	0xbcd0bb17	-0.025479836
85	0x3d856e6b	0.06515201
86	0xbc4e010c	-0.012573492
87	0x3d153fe2	0.036437877
88	0x3ba4cbc0	0.0050291717
89	0x3ddf5a22	0.10905863
90	0xbccaffb8	-0.02478014
91	0xbda5fe31	-0.08105124
92	0xbd080d74	-0.033215955
93	0x3a5dfd3a	0.00084682147
94	0xbd61597b	-0.055016976
95	0xbd3fef1a	-0.046858884
96	0xbc8651ae	-0.01639637
97	0xbd9ea61e	-0.07746528
98	0x3d42bdac	0.047544166
99	0x3d5b3fcb	0.053527635
100	0x3c8ab7a7	0.016933275
101	0x3e1a71ea	0.15082517
102	0xbc1c3142	-0.009533228
103	0x3d99bbd4	0.075065285
104	0xbdf7448b	-0.120736204
105	0x3da328d3	0.07966771
106	0x3d54b723	0.051932465
107	0x3d8f4fad	0.06997619
108	0xbccd69c4	-0.025074847
109	0xbcb5ab1d	-0.02217632
110	0xbd36ab62	-0.044597037
111	0xbd8cf7d3	-0.06883206
112	0x3d963c2c	0.073356956
113	0x3da45a9f	0.08025097
114	0xbdca362c	-0.09873614
115	0xbc4429ab	-0.011972825
116	0x3cab6aa8	0.020924881
117	0xbdb18ab3	-0.08669033
118	0xbd752632	-0.05985088
119	0xbd56c798	-0.05243644
120	0xbcb7eaf8	-0.022450909
121	0xbd9faa35	-0.07796136
122	0xbabf3650	-0.001458833
123	0x3d9b5163	0.07583883
124	0x3ca04f7f	0.019569157
125	0x3ddd9b34	0.10820618
126	0xbdb8eedb	-0.09029933
127	0x3cf40663	0.029788202
128	0x3daebcd7	0.08532112
129	0x3c80db99	0.015729712
130	0x3d10a992	0.035317965
131	0xbd71a1c4	-0.058992162
132	0x3c779f64	0.015113685
133	0x3cdac8f7	0.026707156
134	0xbca8ddc6	-0.020613562
135	0x3d3b59ad	0.04573982
136	0xbd858ab4	-0.06520596
137	0xbc988e30	-0.018622488
138	0xbda518c7	-0.080613665
139	0xbc59ea9d	-0.013300565
140	0xbb806e6f	-0.0039194147
141	0xbd20ce31	-0.03925914
142	0xbd131fb4	-0.035918906
143	0xbdeff40d	-0.11716471
144	0x3c59492a	0.013262073
145	0xbd36a561	-0.04459131
146	0x3ce798b1	0.028271051
147	0xbd85b1c3	-0.06528046
148	0x3cc032d2	0.023461733
149	0xbd66ebf5	-0.05637737
150	0x3b32f699	0.0027307628
151	0x3c473b88	0.012160189
152	0x3db81906	0.08989148
153	0x3da8e41d	0.08246634
154	0x3d8a20d2	0.06744541
155	0x3d91adec	0.07113251
156	0xbd1cd40e	-0.03828817
157	0xbc422173	-0.011848795
158	0xbd2080e7	-0.03918543
159	0x3d8bbda9	0.06823284
160	0xbbf8d8fd	-0.0075942264
161	0xbd89bd04	-0.06725505
162	0xbd526ee2	-0.051375277
163	0x3d47403a	0.048645236
164	0xbd15554c	-0.0364583
165	0x3b066510	0.0020507015
166	0xbd9afa53	-0.07567277
167	0xbd775202	-0.060380943
168	0x3d558d9d	0.052137006
169	0xbdb89115	-0.09012047
170	0x3cc85e39	0.024458991
171	0xbd49d476	-0.049274884
172	0x3ca52f37	0.020164115
173	0xb9ef08c0	-0.00045592152
174	0x3de60422	0.11231257
175	0x3c193a1f	0.009352236
176	0xbc43c5b1	-0.011948989
177	0x3d36a364	0.044589415
178	0xbc1dcd7c	-0.009631511
179	0x3ce4eb3e	0.027944203
180	0x3d4eb1b2	0.050462432
181	0x3d2098f9	0.039208386
182	0x3d5b9c9c	0.05361615
183	0x3d727a73	0.059198808
184	0xbcb23b74	-0.021756865
185	0xbb0928f5	-0.0020928953
186	0x3d14afd7	0.036300506
187	0xbd59ae3f	-0.05314469
188	0xbd500149	-0.050782476
189	0x3d696110	0.05697733
190	0x3d1ff02c	0.039047405
191	0x3c173cba	0.009230787
192	0xba994a66	-0.0011695146
193	0x3ca06d30	0.019583315
194	0x3dd4399c	0.103625506
195	0xbd06036d	-0.03271811
196	0xbd175a28	-0.036951214
197	0x3db868de	0.09004377
198	0xbdaebf3a	-0.08532567
199	0xbdca67c1	-0.09883071
200	0xbdb1af0c	-0.08675966
201	0xbbe1cf33	-0.006891155
202	0xbdbb4708	-0.091444075
203	0x3b52b22b	0.0032149653
204	0xbda60c0f	-0.08107769
205	0x3d6b0ab5	0.057383258
206	0x3d16c96e	0.036813192
207	0xbd8a9a39	-0.06767697
208	0xbd02d165	-0.031937975
209	0x3d24acc7	0.040203836
210	0x3d95acf0	0.07308376
211	0xbb0ba914	-0.0021310495
212	0xbdc67cb8	-0.09691757
213	0xbd1a46cc	-0.037665173
214	0xbde7706d	-0.113007404
215	0x3e0b288e	0.13589689
216	0x3c42b428	0.011883773
217	0xbd842bf8	-0.06453699
218	0x3c124741	0.008928121
219	0xbbe4a93e	-0.006978183
220	0x3c38531e	0.011250285
221	0x3c1edd50	0.00969632
222	0x3cecab21	0.028890194
223	0x3d32945f	0.04359853
224	0x3b436829	0.0029816723
225	0x3d9ede2f	0.07757222
226	0xbcaab3a2	-0.020837609
227	0x3dbbd5bd	0.09171627
228	0x3d6ac847	0.057319906
229	0x3cc924cf	0.024553685
230	0xbd0f34a6	-0.03496232
231	0xbb67646e	-0.0035307663
232	0xbd0a6fcd	-0.033798028
233	0x3c8deaf9	0.017323958
234	0x3d74a704	0.05972959
235	0x3cffdfe9	0.031234698
236	0x3dca736c	0.09885296
237	0xbd2a632f	-0.041598495
238	0xbbc8dd8c	-0.006129926
239	0x3bd88369	0.006607462
240	0x3d611914	0.054955557
241	0xbd54477c	-0.051825985
242	0x3c2bf692	0.010495799
243	0xbca2cd53	-0.019873297
244	0xbd66cbee	-0.056346826
245	0x3dc3fe01	0.09569932
246	0x3c969a46	0.01838411
247	0xbd104220	-0.03521931
248	0x3d610158	0.054932922
249	0xbd6af5a3	-0.057363164
250	0xbd82d55b	-0.063883506
251	0xbbfeb0ab	-0.0077725253
252	0xbb6e1518	-0.003632849
253	0xbe44a962	-0.1920524
254	0xbe02fed8	-0.12792528
255	0x3d540ee4	0.051772013
