Assets/Training/results/track3_learned/config_track4/config_track4-499961.onnx (onnx, 600385 bytes, 9 tensors)

action_model._continuous_distribution.log_sigma f4 [1, 2]
0	0xbdc57d46	-0.09643035
1	0xbe97fe43	-0.29686174

action_model._continuous_distribution.mu.bias f4 [2]
0	0x3c4f001b	0.0126343025
1	0x3b381aa3	0.0028092049

action_model._continuous_distribution.mu.weight f4 [2, 256]
0	0x3ba1a547	0.0049330327
1	0xbcb22cd0	-0.021749884
2	0x3aed8da4	0.0018123877
3	0x3b014966	0.0019727587
4	0xbb341803	-0.0027480132
5	0x3cc986b8	0.024600372
6	0xbbf9e0e5	-0.0076256865
7	0xbc960726	-0.018313956
8	0xbcdacc3e	-0.026708718
9	0xbcb5ceb6	-0.022193294
10	0x3c4f59ce	0.012655688
11	0xbcd8a27b	-0.026444664
12	0x3aba26b4	0.0014202208
13	0x3c3177f2	0.01083182
14	0xbcda135f	-0.026620565
15	0xbcd70739	-0.026248561
16	0x3cac6a24	0.021046706
17	0xbc2005f0	-0.009767041
18	0xbccb10e4	-0.024788328
19	0x3c5b6d9b	0.013392831
20	0x3c939ea1	0.018019976
21	0x3afe4a96	0.001940089
22	0xbc263a59	-0.010145747
23	0x3c8f7d26	0.01751573
24	0xbc8a38c3	-0.01687277
25	0xbc19089d	-0.0093404325
26	0xbbf50cde	-0.0074783405
27	0xbcac22d3	-0.0210127
28	0xbc239aff	-0.009985684
29	0x3b79eade	0.0038134377
30	0xbc70edd9	-0.014705145
31	0xbc304b2b	-0.010760109
32	0xbcf99cc3	-0.030470258
33	0x3c1d5a06	0.009603983
34	0xbabd432f	-0.0014439578
35	0x3b0f9aea	0.0021912404
36	0x3c2971d3	0.010342079
37	0x3bd9c702	0.006646038
38	0xbb35a856	-0.0027718744
39	0x3bb25cfe	0.0054432144
40	0xbc4dc214	-0.012558479
41	0xbc7d2fe2	-0.015453311
42	0x3aff9d5c	0.0019501853
43	0xbc2f720a	-0.010708341
44	0xbd66324d	-0.056200314
45	0xbbc612f1	-0.0060447385
46	0x3beba62e	0.007191441
47	0x3c46d0ae	0.012134714
48	0x3bfd5389	0.0077309054
49	0x3c22a612	0.00992729
50	0xbbd7e907	-0.0065890583
51	0xbc4a9ae7	-0.012366033
52	0x3c27aaf5	0.01023363
53	0x3c266f91	0.010158435
54	0xbc93720e	-0.017998721
55	0xbc3e3390	-0.011608973
56	0xbc395a15	-0.011312981
57	0xbc82ddc2	-0.015974883
58	0xbc4d0191	-0.0125125805
59	0xbd04148a	-0.03224615
60	0x3c3a235d	0.01136097
61	0x3c4150f5	0.011799087
62	0x3b6bb7e6	0.0035967766
63	0xbca198f4	-0.019726254
64	0xbc3a5034	-0.011371661
65	0xbaa325b7	-0.0012447153
66	0xbc8125e6	-0.015765142
67	0x3cb2d92f	0.021832077
68	0x3a03fc52	0.0005034852
69	0xbbed2995	-0.007237623
70	0xbc54d63f	-0.012990533
71	0x3c68dddb	0.014213051
72	0xbd1b286d	-0.03788035
73	0xbc139c74	-0.009009469
74	0x3bc33209	0.0059568924
75	0xbcc74ede	-0.024329599
76	0x3c237f33	0.009979057
77	0xbc4f604e	-0.012657238
78	0xbc93bab7	-0.018033369
79	0x3b08fa8b	0.0020901288
80	0xbc1da87f	-0.009622692
81	0xbc56f7bb	-0.013120587
82	0x3a52ad78	0.0008036713
83	0xbbb50cf8	-0.0055252276
84	0x3bfa92ce	0.007646895
85	0xbb09a14b	-0.002100068
86	0x3cfbb666	0.030726623
87	0xbb759033	-0.0037469983
88	0xbd0d1bb8	-0.034450263
89	0x3c5169f9	0.0127816135
90	0xbc3ae950	-0.011408165
91	0xbc8a69e8	-0.016896203
92	0xbbcc4c74	-0.0062347
93	0xbc02d7ba	-0.0079860035
94	0xbc4e928f	-0.0126081845
95	0xb8f2de0a	-0.00011580817
96	0xbc19d294	-0.009388585
97	0xbb9721f6	-0.0046122028
98	0x3cc8a0e9	0.02449079
99	0x3bd5f052	0.0065288926
100	0xbc6ed42f	-0.014576956
101	0xbd08d1bb	-0.03340314
102	0x3a8b3dfa	0.0010623329
103	0xbb875726	-0.004130262
104	0xbcde75db	-0.027155807
105	0x3c8012f2	0.015634034
106	0x3cc06e70	0.02349016
107	0xbc513f90	-0.012771502
108	0x3c758587	0.014985449
109	0x3c928d5b	0.01788967
110	0xbd039774	-0.03212686
111	0xbc9c49e4	-0.019078203
112	0xbc218a15	-0.0098595815
113	0x381af83f	3.694766e-05
114	0xbc1f560f	-0.009725108
115	0xbc2f69ac	-0.0107063465
116	0x3c217c5f	0.009856313
117	0x3c7aa0dd	0.015297142
118	0x3bfe24a0	0.007755831
119	0xbcd05d2d	-0.025435055
120	0x3c28cd5b	0.010302867
121	0xbd38b232	-0.045091815
122	0x3b431bdd	0.0029771246
123	0xbcd71c18	-0.026258513
124	0x39a3c833	0.00031238943
125	0xbbddd637	-0.006769921
126	0xbc64d353	-0.013966399
127	0xbc8b64f6	-0.017015915
128	0xba9d94e9	-0.0012022528
129	0xba6896e2	-0.0008872581
130	0xbb8eee7e	-0.0043619266
131	0xbc5429c2	-0.012949409
132	0x3c1e42e1	0.0096595
133	0xbcdfd427	-0.027322842
134	0xbd192f1e	-0.03739845
135	0x3b97e5dc	0.0046355557
136	0x3c395fbb	0.011314328
137	0x3b687f8d	0.0035476417
138	0x3cf75048	0.030189648
139	0x3b584217	0.0032998377
140	0xba9a3f2d	-0.0011768095
141	0xbc5ae9a3	-0.013361367
142	0xbc9b68c0	-0.018970847
143	0xbbd70e44	-0.00656298
144	0xbcc43aa3	-0.023953741
145	0xbb4b31a1	-0.0031004923
146	0xba0d6f01	-0.0005395264
147	0x3ae0a875	0.0017140048
148	0xbb7a0b03	-0.0038153536
149	0x3c430117	0.011902115
150	0xbc6f3f36	-0.014602473
151	0xbc12e848	-0.008966513
152	0x39282c3a	0.00016038204
153	0x3b33ebe8	0.0027453844
154	0xbd09cb9b	-0.03364144
155	0xbc423ae4	-0.011854861
156	0x3b3512a1	0.0027629512
157	0xbb9de1ef	-0.004818193
158	0x3aff8f5b	0.0019497679
159	0xba616910	-0.00085987244
160	0xbd003978	-0.031304806
161	0xbbec1d42	-0.0072056362
162	0xbc812ea9	-0.01576932
163	0xbb6e3b51	-0.0036351273
164	0xbc0ac687	-0.008470184
165	0x3c78e6d3	0.0151917515
166	0xbc0dcda1	-0.008654983
167	0x3c7eac51	0.015544013
168	0x3a5b9e24	0.0008377752
169	0x3b30761b	0.0026925865
170	0x3c424e6b	0.011859517
171	0xbbacd2d6	-0.005274157
172	0xbc204173	-0.009781229
173	0xbccccf86	-0.025001299
174	0xbc25716b	-0.010097842
175	0xbcc8ea5a	-0.02452581
176	0xbcbaae87	-0.0227883
177	0x3ba3aaf5	0.004994745
178	0x3be947a2	0.007119135
179	0xbc90c33b	-0.017671218
180	0x3c3f65b3	0.011681962
181	0xbc0f912a	-0.008762637
182	0xbab8edff	-0.0014109014
183	0x3ab1daf7	0.0013569285
184	0x3ad576d3	0.0016286023
185	0xbbdf14b1	-0.0068078865
186	0x3bebe9b0	0.0071994886
187	0x3c4b9e1f	0.012427836
188	0xba6d9654	-0.0009063233
189	0xbcd04120	-0.025421679
190	0xbc9fe8be	-0.01952016
191	0xb90865ac	-0.00013007846
192	0x3c8696e8	0.01642938
193	0xbcb9fce7	-0.022703601
194	0xbaa23cdb	-0.0012377755
195	0x3c031336	0.008000186
196	0xbbd8b46b	-0.0066133044
197	0x3bb3578e	0.005473084
198	0x3ac1305e	0.0014739146
199	0xbc4857ba	-0.012227947
200	0xbc56371a	-0.013074661
201	0xbbe3750f	-0.0069414447
202	0xbcbb712b	-0.022881111
203	0xbc5025a9	-0.012704291
204	0x3c15762f	0.009122415
205	0xbcd1d532	-0.025614355
206	0xbcd3afcd	-0.025840664
207	0xbc44af21	-0.012004645
208	0xbb3e486e	-0.002903487
209	0xbbe2f8a3	-0.0069266125
210	0xbc8d6509	-0.017260091
211	0x3c2ed5ca	0.0106710885
212	0xbc1c7b5a	-0.009550894
213	0xbc2522a5	-0.010079061
214	0x3ca774c4	0.02044142
215	0xbc24c62f	-0.010057016
216	0x3ca91e1c	0.02064424
217	0x3b46a458	0.003031036
218	0xbce99529	-0.028513508
219	0xbc829ada	-0.01594298
220	0xbaad68dc	-0.0013230103
221	0xbc4b6ea2	-0.012416514
222	0xbad04a65	-0.0015891312
223	0xbc5df111	-0.013546244
224	0xbc27edf9	-0.010249608
225	0xb9a90306	-0.00032236445
226	0xbd0917af	-0.033469852
227	0xbcd3254e	-0.025774624
228	0x3c91a23d	0.017777557
229	0x3b547493	0.0032418116
230	0xbc02855d	-0.007966367
231	0x3c1d6ab7	0.009607962
232	0xbacb02aa	-0.0015488465
233	0xbc05896a	-0.008150438
234	0xbb98a708	-0.0046585836
235	0x3bd890c8	0.006609056
236	0xbb8278ef	-0.0039817016
237	0xbb777ded	-0.0037764267
238	0xb9011e87	-0.00012313771
239	0x3bd8f738	0.0066212676
240	0xbc1ca9bd	-0.009561953
241	0xbc289ebb	-0.010291751
242	0xbafe4ba5	-0.0019401206
243	0x3c9b836f	0.01898357
244	0xbc322301	-0.010872603
245	0x3cc810a0	0.02442199
246	0xbc47c169	-0.012192109
247	0x3c2fe500	0.01073575
248	0x3c21c2ec	0.009873133
249	0x3a50370c	0.0007942773
250	0xbd088d1b	-0.033337694
251	0xbcb1c2db	-0.02169936
252	0xbcec643c	-0.02885639
253	0xbce6ca7f	-0.02817273
254	0x3c32afdc	0.010906186
255	0x3aa1f438	0.0012356108

network_body._body_endoder.seq_layers.0.bias f4 [256]
0	0xbc818fc3	-0.015815621
1	0xbcc8d0f8	-0.024513707
2	0x3b55697f	0.0032564101
3	0xbc18ca4c	-0.009325575
4	0x3c55adbd	0.013041911
5	0x3c4bf351	0.012448148
6	0x3c3d8d17	0.011569283
7	0x37532e00	1.258729e-05
8	0xbc236e4e	-0.009975029
9	0x3a50689a	0.0007950157
10	0xbd0f554b	-0.03499345
11	0xbc390f5c	-0.011295166
12	0x3b9bcc89	0.004754607
13	0xbc1ab9ce	-0.009443713
14	0xbbf4568b	-0.007456606
15	0x3c0dfd40	0.008666337
16	0xbc3aa8a0	-0.011392742
17	0xbc18e095	-0.009330888
18	0x39f903a2	0.00047495688
19	0x3ccfd2aa	0.025369007
20	0x3c1e362c	0.00965647
21	0x3b034b46	0.002003388
22	0x3b751fe9	0.0037403053
23	0xbc6b0ad6	-0.014345845
24	0xbc5c4d65	-0.013446187
25	0xbc4068fd	-0.011743781
26	0xbc1b0cc3	-0.009463492
27	0x3bd8b997	0.006613921
28	0x3b6e15ec	0.0036328984
29	0xbc487b93	-0.012236494
30	0x3bb3bd27	0.005485195
31	0xbb24f957	-0.0025173032
32	0xbc8a79b9	-0.016903745
33	0xbc4c7cc3	-0.012480917
34	0xbc731f86	-0.014839059
35	0x38790796	5.937329e-05
36	0xbc7e6e59	-0.015529239
37	0xba607256	-0.0008561959
38	0xbb567b8a	-0.0032727444
39	0xbbf0d0f4	-0.007349128
40	0xbc5ad7a3	-0.013357076
41	0xbb5d58a6	-0.0033774762
42	0x3b164eed	0.0022935227
43	0x3be75d7b	0.0070607043
44	0x3bd470cf	0.0064831744
45	0xbb95ac12	-0.0045676315
46	0xbcc76f65	-0.02434511
47	0xbc915ac0	-0.017743468
48	0x3b4fb483	0.0031693287
49	0xbb5c6c17	-0.0033633763
50	0x3b80580f	0.0039167474
51	0x39a9528d	0.00032295697
52	0x3acac306	0.0015469498
53	0xbb2656ba	-0.0025381283
54	0xbb66981a	-0.0035185874
55	0xbc7933d9	-0.015210115
56	0x396c0c69	0.00022511337
57	0xbc2e7ed1	-0.010650353
58	0xba457f35	-0.0007533909
59	0x3bae2d7a	0.00531548
60	0x3c1c1978	0.009527557
61	0x3b85612a	0.0040704207
62	0xbc5c8d00	-0.013461351
63	0xbc1ce13e	-0.009575186
64	0xbb548870	-0.0032429956
65	0x3c2679a3	0.010160836
66	0xbc03aa17	-0.008036158
67	0xbb67c297	-0.0035363787
68	0x3b461135	0.0030222659
69	0x3b2047a2	0.002445676
70	0xba34ae6c	-0.0006892446
71	0x3c3995ff	0.011327266
72	0xbb97aa04	-0.0046284217
73	0x381c07ae	3.720045e-05
74	0x3c332f47	0.010936565
75	0x38f593ad	0.00011710017
76	0x3bd1825e	0.006393715
77	0xbc276428	-0.01021675
78	0xbab06109	-0.0013456653
79	0xba1ff76a	-0.0006102236
80	0x3c2ecf36	0.01066952
81	0xbbf5b466	-0.007498312
82	0x3bf83a70	0.0075753257
83	0x3c4fd4bb	0.012684996
84	0xbc9bea0d	-0.019032503
85	0xbb84b1a2	-0.004049496
86	0xbc938a35	-0.018010238
87	0x3c550e85	0.01300395
88	0x3a8fddc1	0.0010976122
89	0x3bfd134d	0.007723248
90	0x3c1e3f0f	0.009658589
91	0xbc4815a0	-0.012212187
92	0xbb09dbfc	-0.0021035662
93	0xbc3643c3	-0.011124554
94	0xbc414b47	-0.011797733
95	0xba9fb09b	-0.001218337
96	0x3ba33c1b	0.0049815304
97	0xbc4dc89c	-0.012560036
98	0x3af1068d	0.0018388793
99	0xbc2e31ab	-0.010631959
100	0x3b01f1f0	0.0019828044
101	0xbb233249	-0.0024901798
102	0xbba48279	-0.0050204364
103	0x3afb46da	0.0019170896
104	0x3c2e7bad	0.010649604
105	0x3b93c3fb	0.0045094467
106	0x3bab6007	0.005229953
107	0xbcadd245	-0.021218428
108	0x3bb699ed	0.0055725486
109	0xbb7527cd	-0.0037407756
110	0xbc4d5037	-0.012531332
111	0xbc6b45bf	-0.0143598905
112	0x3bcecc28	0.0063109584
113	0x3c269116	0.010166427
114	0x3c017839	0.0079021985
115	0x3b055c73	0.0020349293
116	0xba8ae51d	-0.0010596846
117	0x3bc87abb	0.0061181462
118	0xbc29796d	-0.010343892
119	0xba680355	-0.0008850594
120	0xbc323af4	-0.010878313
121	0xbc5e24cb	-0.013558577
122	0xbc160106	-0.009155517
123	0xbbdd975a	-0.0067624273
124	0x3c59f6b1	0.013303445
125	0x3c852e8f	0.016257552
126	0xbcdafdf1	-0.026732417
127	0x3b9504b7	0.004547681
128	0xbc1c95bf	-0.009557187
129	0xbc158772	-0.009126531
130	0xba60c929	-0.0008574897
131	0xbc9ae98d	-0.018910194
132	0xbc35cc59	-0.011096084
133	0xbc732f51	-0.014842824
134	0xbc84451d	-0.016146237
135	0xba0cc21a	-0.00053694996
136	0x3c4bbc6c	0.01243506
137	0xbbad2bce	-0.005284763
138	0x3af87e49	0.0018958534
139	0xbc3bffb2	-0.011474537
140	0xbb01160f	-0.0019696986
141	0xbc90dd4a	-0.017683644
142	0xbcbf3a4c	-0.023343228
143	0x3c1f0570	0.009705886
144	0xbc2682ee	-0.010163052
145	0x3b89af6b	0.0042018197
146	0xbc80f480	-0.015741587
147	0xbbb42078	-0.0054970346
148	0xbc8ea34f	-0.017411856
149	0x3c849523	0.016184395
150	0x3b8f4253	0.00437192
151	0x3a3e2282	0.0007253067
152	0xbc01e106	-0.007927185
153	0xbc975959	-0.018475221
154	0xbc28ad22	-0.010295184
155	0xbc4f051a	-0.012635494
156	0x3ab53047	0.0013823592
157	0xbc0b6215	-0.008507271
158	0x3982bf3e	0.0002493802
159	0x3ca3b130	0.01998195
160	0xba81e4ab	-0.0009910067
161	0xba671ef6	-0.0008816564
162	0x3c0a2de8	0.008433796
163	0x3bf50837	0.007477786
164	0xbbc2d510	-0.005945809
165	0x3b6a6478	0.003576545
166	0x3752ec04	1.2571927e-05
167	0x3b2b4e96	0.002613937
168	0xbad3d684	-0.0016161953
169	0xbbed4496	-0.007240842
170	0xbbe36427	-0.0069394293
171	0x389a72d2	7.364679e-05
172	0x3b2a6ef4	0.0026006075
173	0x3be23701	0.0069035296
174	0x3c927a5e	0.017880615
175	0x3b7491be	0.0037318314
176	0x3ab06045	0.0013456425
177	0x3b0b3391	0.0021240453
178	0xbb8c26ae	-0.004277072
179	0x3bf6d463	0.0075326427
180	0xbba4d2ee	-0.0050300276
181	0xbc21eabd	-0.009882626
182	0xbbc55c4e	-0.0060229665
183	0x3c3ccce9	0.011523464
184	0x3b3cb562	0.0028794636
185	0xba3d58e5	-0.0007223024
186	0xbafdfc6b	-0.0019377595
187	0xbc541daa	-0.012946526
188	0x3b9ae033	0.0047264337
189	0xbc9d01be	-0.01916587
190	0x3afc9ece	0.0019273402
191	0xbbb260e8	-0.005443681
192	0x3b0ada8c	0.0021187393
193	0xbc857cfb	-0.016294947
194	0xbc8ddb08	-0.017316356
195	0xbb2f4737	-0.0026745328
196	0x3b9be061	0.0047569727
197	0x3aca36ad	0.0015427672
198	0xbc430eaf	-0.011905356
199	0xbc93c5e3	-0.018038696
200	0x3b5e3ad6	0.003390958
201	0xbd238276	-0.03991934
202	0x3c071d3b	0.008246715
203	0xbc826512	-0.015917335
204	0xbc6be14c	-0.014396977
205	0x3cc0762e	0.023493852
206	0x3b447050	0.002997417
207	0x3c5f123c	0.013615187
208	0x3c059df5	0.008155336
209	0xbc31d394	-0.010853667
210	0xbb5452c0	-0.0032397956
211	0x3b4d240e	0.0031302008
212	0x3b5769b2	0.0032869396
213	0xbb0f45ee	-0.002186175
214	0xbbf9ad75	-0.0076195546
215	0x3c0aaaec	0.0084636025
216	0xbafa9496	-0.0019117768
217	0xbbf9d92c	-0.007624766
218	0xbb3683ea	-0.0027849623
219	0xbc263009	-0.010143288
220	0x3bad7941	0.0052939956
221	0xb51ce5c0	-5.844886e-07
222	0x3c8e9d41	0.017408969
223	0xbc85632d	-0.016282642
224	0xbc4c8ec7	-0.012485213
225	0xbd061cdc	-0.032742366
226	0xbb8cb9e3	-0.0042946204
227	0x3b94b3c5	0.0045380318
228	0xbc992dcd	-0.018698597
229	0xbc9d4536	-0.019198041
230	0x3c27bdda	0.010238135
231	0xbb9ea80b	-0.0048418096
232	0xbcdbfdf6	-0.026854496
233	0x3bd08781	0.0063638096
234	0xbc8e0d15	-0.017340222
235	0x3c5ddf46	0.013542002
236	0xbc20c9c3	-0.009813729
237	0xba79bff7	-0.0009527201
238	0xb9b98ab6	-0.00035389297
239	0x3bb9dff4	0.0056724492
240	0x3c5571a7	0.013027585
241	0xbb1da83c	-0.0024056574
242	0x3b6712e0	0.0035259053
243	0xbb50dcb6	-0.0031869835
244	0xbc046f24	-0.008083139
245	0x3bfe6231	0.00776317
246	0xbbe1f419	-0.006895554
247	0xbc4216be	-0.0118462425
248	0xba204b1e	-0.0006114709
249	0x3bbc0494	0.0057378504
250	0xbc03bf59	-0.008041226
251	0x3b7b6e82	0.0038365428
252	0xbc272ee4	-0.010204051
253	0x39975ee9	0.00028871678
254	0x3be89b91	0.007098623
255	0x3bdcab2e	0.0067342734

network_body._body_endoder.seq_layers.0.weight f4 [256, 67]
0	0x3d213efa	0.0393667
1	0x3de88bb1	0.11354769
2	0x3c0cb9a8	0.008589186
3	0xbc3ec738	-0.011644177
4	0xbd72721b	-0.05919085
5	0x3e51eb2f	0.20499872
6	0x3e1b0459	0.15138377
7	0xbdc5b03f	-0.09652757
8	0x3d4750ff	0.04866123
9	0xbda49b50	-0.08037436
10	0xbb998398	-0.0046848767
11	0x3dd55cac	0.104180664
12	0xbd7a22b8	-0.061068267
13	0x3e7999ed	0.24375124
14	0x3e450366	0.19239578
15	0x3e07deb6	0.13268551
16	0xbde92a08	-0.1138497
17	0xbca080eb	-0.019592723
18	0x3c903ec0	0.017608047
19	0x3c4e49d5	0.012590845
20	0x3dfdca4c	0.12392101
21	0xbe4ab35d	-0.19794984
22	0xbda5022d	-0.080570556
23	0xbcaa2367	-0.020768834
24	0xbe34a325	-0.1764036
25	0x3d581e54	0.0527633
26	0x3e099214	0.1343463
27	0xbdaa0ef7	-0.083036356
28	0x3d88f4e5	0.06687335
29	0xbd318430	-0.043338954
30	0x3e0884f8	0.13331974
31	0x3dd03191	0.10165704
32	0xbe9485de	-0.29008383
33	0xbcdd8cf3	-0.027044749
34	0xbc393c82	-0.01130593
35	0x3c47ac1c	0.01218703
36	0xbdf5f6a5	-0.12009934
37	0x3c9cce6e	0.019141402
38	0x3ea64145	0.32471672
39	0xbd0ea33c	-0.03482364
40	0xbd143b9d	-0.036189664
41	0xbbbd14bd	-0.0057702945
42	0xbdfbf4f7	-0.12302583
43	0xbcafe3f8	-0.021471009
44	0x3e428f7e	0.1900005
45	0xbd606f76	-0.054793797
46	0x3c3462e5	0.011009906
47	0xbda67838	-0.08128399
48	0x3d050f59	0.03248534
49	0x3c45621b	0.012047316
50	0xbc35d11e	-0.011097221
51	0x3ce8ddab	0.028426012
52	0x3e20f870	0.15719771
53	0xbe087da7	-0.13329183
54	0x3e12d4c6	0.14338979
55	0x3d1364fb	0.035984974
56	0xbd3bd9dd	-0.045862067
57	0xbe5f7d41	-0.21825124
58	0xbe0ba551	-0.13637282
59	0xbd180ca6	-0.037121437
60	0xbea996e3	-0.3312293
61	0x3c3d395c	0.01154932
62	0x3cea6e9d	0.028617198
63	0x3e023511	0.12715556
64	0x3da5ec83	0.08101752
65	0x3d11d1ed	0.03560059
66	0xbdf88963	-0.121355794
67	0xbe3fbab5	-0.18723567
68	0x3d11b117	0.035569277
69	0x3d98a241	0.074528225
70	0xbe949693	-0.2902113
71	0x3ca4b923	0.020107811
72	0x39c93600	0.0003837794
73	0x3e3844a9	0.17994942
74	0xbdf13a9b	-0.11778756
75	0x3b8de9f1	0.0043308665
76	0xbe152b76	-0.1456736
77	0xbd92501a	-0.071441844
78	0x3ce8b868	0.028408244
79	0x3b7b2913	0.0038324043
80	0xbd01217c	-0.031526074
81	0xbdcb0dd7	-0.09914749
82	0x3d8ab5f5	0.06772987
83	0xbdd425e7	-0.10358792
84	0x3e480e27	0.19536649
85	0xbe1c9c02	-0.15293887
86	0x3d2b4230	0.04181117
87	0x3d1e8d73	0.038709115
88	0x3d160a63	0.036631
89	0x3e178b94	0.14799339
90	0x3e03ce5d	0.1287169
91	0xbe9a647b	-0.30154786
92	0xbda2161b	-0.079143725
93	0x3d860262	0.06543423
94	0xbd4fe6cd	-0.05075722
95	0xbe5d1729	-0.21590866
96	0x3d42b79f	0.047538396
97	0x3c6d12ec	0.014469843
98	0xbe562b3f	-0.20914935
99	0x3e0c791b	0.13718073
100	0xbe13d04d	-0.14434929
101	0xbb56f84a	-0.00328018
102	0xbe52d941	-0.20590688
103	0xbe2521f5	-0.16126235
104	0x3c3b189b	0.011419441
105	0x3bae9431	0.0053277244
106	0xbe1ac6d8	-0.15114915
107	0xbd7f614f	-0.06234866
108	0xbe88a25c	-0.2668637
109	0x3df50bf3	0.1196517
110	0xbd7d508e	-0.0618444
111	0x3e7d837c	0.24757189
112	0xbdd059ea	-0.101734
113	0x3d5a4b88	0.05329469
114	0xbdb1fc1a	-0.08690663
115	0x3dedc172	0.116091624
116	0xbd7a25a1	-0.061071042
117	0x3e071705	0.13192375
118	0x3e065aff	0.1312065
119	0xbdd25706	-0.10270505
120	0xbe388eef	-0.18023275
121	0xbdea8be4	-0.11452463
122	0xbe5f6b3a	-0.21818247
123	0x3c2461c0	0.010033071
124	0xbcf58da0	-0.029974759
125	0xbdd2a733	-0.10285797
126	0x3e1102b5	0.14161189
127	0xbe3545f1	-0.17702462
128	0x3d683b42	0.056697138
129	0xbe1cee6f	-0.1532533
130	0xbe8fe84c	-0.28106916
131	0x3d8552a8	0.06509906
132	0x3cce2929	0.025166111
133	0x3ea0304d	0.3128685
134	0x3d5a4128	0.053284794
135	0xbe0ec09a	-0.13940659
136	0xbd3c144a	-0.045917787
137	0x3df0cafe	0.11757468
138	0x3d0e4e1d	0.034742463
139	0xbb3f603e	-0.0029201652
140	0x3cb10cf0	0.021612614
141	0x3e59f0a5	0.21283205
142	0x3d84a2ed	0.06476388
143	0xbcf7e908	-0.030262485
144	0x3dad6e07	0.08468252
145	0xbca9dc98	-0.02073507
146	0x3d4885d6	0.04895576
147	0xbc1cf58c	-0.009580027
148	0x3e6943e7	0.22779809
149	0xbe0ea899	-0.13931502
150	0xbdb2e6a8	-0.087354004
151	0xbdd43b4b	-0.10362872
152	0xbd25f787	-0.040519264
153	0x3d805964	0.0626705
154	0xbbfcebde	-0.0077185472
155	0xbd917c34	-0.07103768
156	0xbda21000	-0.07913208
157	0x3c956f48	0.01824154
158	0xbe0767b7	-0.13223158
159	0xbd28c323	-0.041201722
160	0xbd7717d5	-0.060325462
161	0xbd8b1dd6	-0.067928
162	0xbd4957c1	-0.049155954
163	0xbd3adaf7	-0.045618977
164	0xbdf316c2	-0.11869575
165	0x3dbc91f0	0.09207523
166	0x3dc411ec	0.09573731
167	0xbdf4accb	-0.1194702
168	0x3d0f3cf8	0.034970254
169	0xbe426da9	-0.18987145
170	0xbe4703df	-0.1943507
171	0xbd8d0bbd	-0.068870045
172	0x3ca587fd	0.020206446
173	0xbe1b4900	-0.15164566
174	0x3e8b8ae2	0.27254397
175	0xbea569e2	-0.32307345
176	0x3d236381	0.039889816
177	0x3cc29d7e	0.023756739
178	0x3d3ce86a	0.046120085
179	0x3dc94cd1	0.09829105
180	0x3e106c00	0.14103699
181	0x3e5f3c2f	0.21800302
182	0x3d6f1473	0.05836911
183	0xbde22fe2	-0.11044289
184	0xbd8e39d3	-0.06944623
185	0xbe82e09f	-0.25561997
186	0xbddc1562	-0.10746266
187	0x3deee0d2	0.11663975
188	0x3dd3c9ad	0.10341201
189	0xbe49b61f	-0.1969838
190	0xbd986c3d	-0.0744252
191	0xbd90cd2a	-0.07070382
192	0xbcb18a7e	-0.021672484
193	0x3c85db7a	0.016340006
194	0x3b100d0e	0.0021980437
195	0x3d4954ed	0.049153257
196	0xbe55417c	-0.20825762
197	0x3e71bbdf	0.23606823
198	0x3de6d9f5	0.11272041
199	0xbd057104	-0.032578483
200	0xbd87831d	-0.06616805
201	0xbba72f75	-0.005102093
202	0xbd4aeacd	-0.04954033
203	0x3d82d9ab	0.06389173
204	0x3d75fd9d	0.060056318
205	0xbdc51817	-0.096237354
206	0x3cf267a3	0.029590433
207	0x3e461390	0.193434
208	0x3db5cba2	0.088767305
209	0xbde1e019	-0.11029071
210	0x3c031248	0.007999964
211	0xbdce5503	-0.100748084
212	0xbdebf282	-0.11520864
213	0x3d22c23e	0.039736025
214	0xbe1c2ac2	-0.15250686
215	0x3a7da916	0.000967638
216	0x3de88b84	0.113547355
217	0xbe83a056	-0.25708264
218	0x3d97d048	0.07412773
219	0xbe297e84	-0.16552168
220	0xbe8b8935	-0.27253118
221	0x3e3524f5	0.17689879
222	0x3e0c0b32	0.13676146
223	0x3e53aef5	0.2067221
224	0xbd9e6165	-0.0773342
225	0xbd957692	-0.07298006
226	0xbde55a63	-0.111988805
227	0xbe2ba2c9	-0.16761316
228	0x3d60437d	0.05475186
229	0x3df1f19e	0.11813663
230	0xbd0aa23f	-0.033846136
231	0xbd6e23c6	-0.058139585
232	0xbd6ec8e8	-0.058297068
233	0x3d95b635	0.07310144
234	0xbc8f5c39	-0.01750003
235	0xbc4e20b8	-0.012581043
236	0x3d5e05fd	0.05420493
237	0xbe2dbb96	-0.1696609
238	0x3d5bff37	0.05371019
239	0xbd1a7e67	-0.037718203
240	0xbe0a148c	-0.134844
241	0xbdd066d2	-0.101758614
242	0x3e206072	0.15661791
243	0x3c03f16d	0.008053166
244	0xbe1a6d1b	-0.15080683
245	0xbe8343e4	-0.25637734
246	0xbd29b30b	-0.041430514
247	0xbd3b3eb1	-0.045714084
248	0x3d370206	0.044679664
249	0x3d1a9767	0.037742045
250	0x3d1726a6	0.036902092
251	0x3cc14a70	0.023595065
252	0xbe039846	-0.12851056
253	0xbe0a3f2d	-0.13500662
254	0xbd23e3c9	-0.040012155
255	0x3e5926fb	0.21206276

network_body._body_endoder.seq_layers.2.bias f4 [256]
0	0x3b85687e	0.0040712943
1	0xbc036711	-0.008020178
2	0xbb32a894	-0.0027261125
3	0x3b92a211	0.004474886
4	0x3bcfba90	0.0063393787
5	0x3bca553b	0.006174711
6	0xbbf0b125	-0.007345336
7	0xbbc887b2	-0.0061196918
8	0xbbf25332	-0.0073951716
9	0x3b1c9c56	0.0023896894
10	0x39f15da7	0.00046036878
11	0xbc0c0f0d	-0.00854851
12	0xbbcf90a1	-0.00633438
13	0xbcd817a1	-0.026378455
14	0x3a6258df	0.00086344586
15	0x3bf3413a	0.007423547
16	0xbbfa7741	-0.0076436107
17	0xbc2cba13	-0.01054241
18	0xbc3a95d8	-0.011388265
19	0xbb81d0e2	-0.0039616683
20	0xbc20bf26	-0.009811198
21	0xbc3f1cc9	-0.011664578
22	0xbc85d8e6	-0.016338777
23	0x3bffc087	0.0078049335
24	0xba7fe172	-0.0009761072
25	0xbc072d66	-0.00825057
26	0x3bb45816	0.0055036647
27	0x3bd90c28	0.0066237636
28	0xbb316727	-0.002706954
29	0xbbe43303	-0.006964089
30	0xbbbad7aa	-0.0057019787
31	0xba934383	-0.001123533
32	0xbc3ff433	-0.0117159365
33	0x3bd7428d	0.006569213
34	0xbbc8c127	-0.006126541
35	0x39614f61	0.00021487243
36	0x3b469b86	0.0030305102
37	0xba0bc5db	-0.0005331912
38	0xbb2be157	-0.0026226842
39	0x3bdb3e06	0.0066907434
40	0x3bab4387	0.0052265557
41	0x3bc1e498	0.005917143
42	0xbc0570cb	-0.008144568
43	0xbb79c8bf	-0.0038114039
44	0xbc144728	-0.009050168
45	0x3b9a6ee7	0.0047129276
46	0xbb999edd	-0.0046881274
47	0x3a6d6df3	0.0009057216
48	0xbc8536b5	-0.016261438
49	0x3bdb3d87	0.0066906842
50	0x3b79ee0d	0.0038136274
51	0x3b01eefe	0.0019826288
52	0x3b7a6a9f	0.0038210524
53	0xbb5b1b95	-0.0033433188
54	0x3bed414b	0.0072404495
55	0x3b89bfc2	0.0042037675
56	0xbb81fcfc	-0.0039669257
57	0x3ba9a8e0	0.005177602
58	0x3a9339f1	0.0011232478
59	0xb9d5b374	-0.0004076023
60	0xbc07b0d2	-0.008281903
61	0x3c2d3daf	0.010573789
62	0xbbc9b4e3	-0.0061555966
63	0xbc2cc22c	-0.010544341
64	0xbb1e31ca	-0.0024138563
65	0x3b879ccc	0.0041385647
66	0x3b617ea5	0.0034407761
67	0x3a37b5cf	0.00070079876
68	0x3b98a192	0.0046579326
69	0xbc4f76eb	-0.01266263
70	0xbafa2e02	-0.0019087198
71	0xbb06e539	-0.0020583405
72	0x3bc0f88c	0.005889004
73	0xbc843216	-0.016137164
74	0x3aea9fa7	0.0017900363
75	0x3c2fb069	0.010723212
76	0x3bb839b5	0.0056221136
77	0xbb9dea36	-0.00481918
78	0xbb43ff32	-0.0029906747
79	0xb9800e7c	-0.00024424854
80	0xbb480ded	-0.0030525879
81	0x3bce7a9d	0.0063012377
82	0xbbc42faa	-0.0059871273
83	0xbc0cd337	-0.008595279
84	0xbb379cb7	-0.0028016993
85	0xbc220a6e	-0.009890182
86	0x3b3ffa2f	0.0029293408
87	0x3b90a142	0.0044137547
88	0x3bd312c9	0.0064414483
89	0x3bde06fc	0.006775735
90	0x3b8b3c2f	0.004249118
91	0xbc03ef8c	-0.008052718
92	0x3c11390d	0.0088637
93	0xbc3551ba	-0.011066848
94	0xbbdddf63	-0.0067710145
95	0xbb314b0f	-0.0027052795
96	0x3b627fdc	0.0034561073
97	0x3bce9064	0.006303834
98	0xbc63310f	-0.013866677
99	0x3bba6f44	0.0056895334
100	0xbc139a62	-0.009008976
101	0x3bd99a76	0.0066407276
102	0xba99f285	-0.001174525
103	0xbc2d81aa	-0.010589996
104	0xba39089b	-0.0007058472
105	0x3bbe7305	0.0058120512
106	0xbc43dc45	-0.011954372
107	0x3b37bd10	0.0028036274
108	0x3c2c0c34	0.010500956
109	0x3bfbd6cb	0.0076855174
110	0xbc0ffd16	-0.008788368
111	0x3ac1ab7b	0.0014775837
112	0xb9ea87ef	-0.00044733236
113	0xb906dfc6	-0.00012862598
114	0xbbe4e973	-0.006985837
115	0x3b4772e7	0.0030433477
116	0xbc1bfa57	-0.009520135
117	0xbbed6014	-0.0072441194
118	0x3ad24e30	0.001604503
119	0xbc9accad	-0.018896425
120	0x3c052140	0.008125603
121	0xbba09311	-0.004900344
122	0x3c272362	0.010201307
123	0xbbd3f5df	-0.006468519
124	0xbc7063ed	-0.014672262
125	0x39bd4144	0.00036097516
126	0xbbb17339	-0.005415347
127	0xbc366c01	-0.011134149
128	0x3b5313ae	0.0032207775
129	0xbb087abf	-0.0020825115
130	0x3b12a41b	0.0022375647
131	0x3b26c029	0.0025444126
132	0xbbfc34fb	-0.0076967455
133	0xbc13e0ff	-0.009025811
134	0xbbede920	-0.0072604567
135	0xbbe6896f	-0.0070354263
136	0x3b7e94dc	0.0038846051
137	0xbbbcfa62	-0.0057671526
138	0x3bec835f	0.007217809
139	0xbc3106e8	-0.010804869
140	0x3b21d924	0.0024696076
141	0xbc43bba2	-0.011946591
142	0x3a255971	0.00063075783
143	0xbc4810b5	-0.0122110145
144	0x3b9e2884	0.004826607
145	0xbb83d5f5	-0.0040233084
146	0xbc1f1b65	-0.009711121
147	0xbc33e400	-0.010979652
148	0xbb8faa4f	-0.004384316
149	0xbb86d250	-0.0041144267
150	0x3bc10559	0.00589053
151	0xbc0bc188	-0.008530028
152	0xbc1b815f	-0.009491294
153	0xbc4fa1fc	-0.012672897
154	0xbb994d50	-0.004678406
155	0xbc221474	-0.009892572
156	0x3b444fea	0.002995486
157	0xbc006c77	-0.00783836
158	0xbc896489	-0.016771572
159	0xbb817d27	-0.003951687
160	0xbc675583	-0.014119509
161	0x3bf1be09	0.0073773903
162	0x3a9be85b	0.0011894809
163	0xbc5f8cf7	-0.0136444485
164	0xbc4ea404	-0.012612347
165	0xbc0cbe56	-0.0085903015
166	0xbc45c82a	-0.012071649
167	0xbc5fb32c	-0.013653558
168	0xbc178653	-0.009248334
169	0xbc1c95a7	-0.009557164
170	0x3af69286	0.0018811978
171	0xbb2b77c8	-0.0026163924
172	0x3a1860cf	0.00058127654
173	0x3aac064f	0.0013124439
174	0xba899b75	-0.00104986
175	0x3a2d9026	0.0006620906
176	0xbc033989	-0.008009323
177	0x3b0d074e	0.0021519247
178	0xbbc0e703	-0.0058869137
179	0xbb04a8d2	-0.0020242226
180	0xba90c6ee	-0.0011045614
181	0x3b849185	0.0040456676
182	0xbbe1a5a1	-0.0068861996
183	0xba9053d3	-0.001101131
184	0xbbaf160d	-0.005343205
185	0xbbf57092	-0.007490226
186	0x3bc2d405	0.005945685
187	0xbb81d292	-0.0039618695
188	0xbbefcdbc	-0.0073182266
189	0xbb91e8ec	-0.0044528153
190	0xbb65d61a	-0.0035070241
191	0x3c0cd9cf	0.0085968515
192	0xbb999614	-0.00468708
193	0xbc0d6289	-0.00862945
194	0xbb5e1af5	-0.003389058
195	0x3a63c00d	0.00086879806
196	0xbbd16ccf	-0.006391145
197	0xbb6f92fe	-0.003655612
198	0xbb31b810	-0.0027117766
199	0xbb68a11d	-0.0035496422
200	0xbc0492bb	-0.008091624
201	0xbb6a1293	-0.0035716638
202	0xb9c0dcf2	-0.0003678571
203	0xbc2c413e	-0.010513602
204	0xbc2149bd	-0.009844241
205	0xbbd05504	-0.006357791
206	0x3ae68c7f	0.0017589479
207	0x3bb250e6	0.0054417728
208	0x3a818630	0.000988191
209	0xbbbb4d58	-0.005716007
210	0xbbea171e	-0.007143869
211	0xbc06429c	-0.008194592
212	0xbc5fb720	-0.0136545
213	0x3b0c119a	0.0021372796
214	0x3bf32771	0.0074204733
215	0xbb7dc88f	-0.0038724279
216	0xbc43370e	-0.0119149815
217	0x3ba9a776	0.0051774336
218	0xbb35b968	-0.002772892
219	0xbc39ce20	-0.011340648
220	0xb961975e	-0.00021514061
221	0x3b8ea95a	0.0043536844
222	0xbc043933	-0.008070278
223	0xbb9de93d	-0.004819064
224	0x39206b6a	0.00015298804
225	0xbb501a33	-0.0031753897
226	0xbc28ccfd	-0.010302779
227	0x3b231e51	0.0024889896
228	0x3ae0205d	0.0017099489
229	0xbbe7080f	-0.007050521
230	0x3ba407ce	0.005005813
231	0xb9da74c2	-0.00041667192
232	0x3bd579ad	0.006514749
233	0x3bc5fa2b	0.0060417852
234	0x3b907964	0.004409002
235	0xbc61ac03	-0.013773921
236	0xbacacb9e	-0.001547206
237	0x3c0b944a	0.008519242
238	0xbc237d7d	-0.009978649
239	0xbbaa2f6d	-0.005193642
240	0xba79b0b0	-0.00095249247
241	0x3abe9355	0.0014539758
242	0x3c3bd293	0.011463779
243	0xbc11ddae	-0.00890295
244	0x3bd2f29e	0.0064376136
245	0x3b61b524	0.0034440244
246	0x3bd6e2fb	0.00655782
247	0xbc2a52ad	-0.010395688
248	0x3a870348	0.001030066
249	0xbb71ef6f	-0.0036916395
250	0xbc446895	-0.011987825
251	0x3c0d416f	0.008621558
252	0x3c38a55d	0.011269894
253	0xbc268bc7	-0.010165161
254	0xbaf8b747	-0.0018975519
255	0xbb19cb07	-0.002346696

network_body._body_endoder.seq_layers.2.weight f4 [256, 256]
0	0x3d899df2	0.06719579
1	0xbc436a52	-0.011927204
2	0x3d9fc5a9	0.078013726
3	0x3d712fad	0.058883358
4	0xbd2dc183	-0.042420875
5	0x3c88fc7f	0.016721962
6	0x3d54c1fd	0.051942814
7	0x3d8929fa	0.066974595
8	0xbc22a98f	-0.009928121
9	0xbdb4d033	-0.08828773
10	0x3b0002fd	0.001953303
11	0x3ddcddf8	0.10784525
12	0x3d5120ba	0.0510566
13	0x3e04e33f	0.12977313
14	0xbdd2dced	-0.102960445
15	0x3d4b3714	0.049613073
16	0x3d612e90	0.054976046
17	0xbb5efd5c	-0.0034025526
18	0xbcfb88f5	-0.030704955
19	0x3ba9885b	0.0051737255
20	0x3da2ecda	0.07955332
21	0xbcc56b91	-0.024099143
22	0xbda32a6c	-0.07967076
23	0xbd1206fb	-0.03565119
24	0xbca7887c	-0.020450823
25	0xbd1ff772	-0.03905434
26	0x3dee8126	0.11645727
27	0x3d12842b	0.035770576
28	0xbba4a61e	-0.0050246855
29	0xbe019a38	-0.12656486
30	0x3c457e51	0.012054042
31	0xbd9a0bd1	-0.07521785
32	0xbb6bcbdf	-0.003597967
33	0xbd8ed1a7	-0.06973582
34	0x3b1b49f9	0.0023695214
35	0x3d178c51	0.03699905
36	0xbc0f129b	-0.008732463
37	0xbd4a1bf0	-0.04934305
38	0xbd9a6c6f	-0.07540213
39	0x3d61bfb7	0.055114474
40	0xbd5c6d71	-0.05381531
41	0x3dd376bd	0.10325382
42	0x3bc9983f	0.0061521824
43	0xbcc5f33c	-0.024163835
44	0xbbb76c4f	-0.005597628
45	0xbb3327b9	-0.002733691
46	0x3d98862b	0.074474655
47	0xbd5402cf	-0.05176049
48	0x3dfbd976	0.12297337
49	0xb78f0390	-1.7048587e-05
50	0x3d5d531f	0.05403435
51	0x3d10e631	0.035375778
52	0x3d29de80	0.04147196
53	0xbd4578e7	-0.048211005
54	0xbd155ed2	-0.03646738
55	0x3bc8c45c	0.0061269235
56	0xbd28ab6f	-0.041179117
57	0x3d212645	0.039343137
58	0xbdbb7820	-0.091537714
59	0x3da756bf	0.081708424
60	0xbd951031	-0.07278479
61	0xbe01f59b	-0.12691347
62	0x3bd9debf	0.006648868
63	0xbd0dcab8	-0.034617156
64	0xbcafa8aa	-0.02144273
65	0xbdde9eb0	-0.10870111
66	0x39b77860	0.00034994166
67	0x3d4e582c	0.050377056
68	0xbcb175c9	-0.02166261
69	0xbcf66712	-0.030078445
70	0xbd8c16c2	-0.06840278
71	0xbd01182c	-0.031517193
72	0xbd5f4ca1	-0.05451644
73	0x3c037371	0.008023129
74	0xbd1a9a17	-0.037744608
75	0x3bc30807	0.0059518847
76	0x3e348998	0.17630613
77	0x3dec71d8	0.115451515
78	0x3d881d23	0.066461824
79	0x3da9c07a	0.08288665
80	0xbce51b95	-0.027967254
81	0x3ce4799f	0.027890025
82	0xbd2c2a0d	-0.04203229
83	0xbdaeaa72	-0.085286036
84	0x3db6cbe0	0.08925605
85	0xbd233b57	-0.039851513
86	0xbd6c6df4	-0.057722047
87	0xbc779e5e	-0.015113441
88	0xbd2844aa	-0.04108111
89	0xbda32cc2	-0.07967521
90	0xbd832d6d	-0.06405149
91	0x3d525f4f	0.051360425
92	0xbd609d40	-0.054837465
93	0xbce5d8f5	-0.028057555
94	0x3c87dedf	0.016585765
95	0x3d82bad3	0.0638329
96	0xbd3a7b1f	-0.045527574
97	0x3cf3e055	0.029770056
98	0xbb7c5de2	-0.0038508107
99	0x3db6ca11	0.0892526
100	0x3d240e5a	0.04005275
101	0x3d37044d	0.044681836
102	0x3dcf208f	0.10113632
103	0xbd775bad	-0.060390163
104	0xbd8217cb	-0.063521944
105	0x3d161b1b	0.036646944
106	0xbd303e20	-0.043027997
107	0xbe016120	-0.12634706
108	0x3b1b14ff	0.0023663638
109	0xbd8f7634	-0.07004967
110	0x3d25a66b	0.04044191
111	0xbc979697	-0.018504424
112	0xbe08d319	-0.13361777
113	0xbd41dc3b	-0.04732917
114	0xbc8e1c3f	-0.017347453
115	0x3c7465ca	0.0149168465
116	0xbb956156	-0.0045587225
117	0x3d82a21a	0.06378575
118	0xbb1823d7	-0.0023214722
119	0xbdbde71e	-0.09272598
120	0xbd136bdc	-0.035991535
121	0xbd835bea	-0.064140156
122	0xbd5b523f	-0.053545233
123	0x3b2c775b	0.0026316259
124	0x3dbf849d	0.09351466
125	0xbe6bfe8a	-0.23046318
126	0xbd038ff8	-0.03211972
127	0xbda60dd5	-0.08108107
128	0x3c70f7b2	0.014707493
129	0xbcb57c1c	-0.022153907
130	0x3cdc6731	0.026904674
131	0x3ba281bd	0.0049593137
132	0x3c42d78b	0.01189221
133	0x3cf78655	0.030215422
134	0xbd9c6ef9	-0.07638354
135	0x3da018c5	0.078172244
136	0xbcced1e9	-0.025246577
137	0xbc3ad755	-0.011403878
138	0xba1072d6	-0.0005510276
139	0xbc9b2eb9	-0.018943178
140	0x3d26e522	0.04074586
141	0xbc447742	-0.011991324
142	0xbdf8adc7	-0.121425204
143	0x3d0ac67b	0.033880692
144	0xbd29d0a7	-0.041458752
145	0xbdc37649	-0.095440455
146	0xbd9327b7	-0.071853094
147	0x3d147b5d	0.03625046
148	0xbcbaa07e	-0.022781607
149	0xbdb6c7a6	-0.08924799
150	0x3cd90332	0.026490781
151	0x3bc7d764	0.0060986746
152	0xbbe412f0	-0.0069602653
153	0xbdd50450	-0.10401213
154	0xbd1e5cb2	-0.03866262
155	0xbd2b3656	-0.041799866
156	0xbcb4bc16	-0.022062343
157	0x3cbffdc7	0.02343644
158	0x3d886f52	0.06661858
159	0xbd1bf7f7	-0.038078275
160	0xbcda4e66	-0.026648711
161	0x3cae14cb	0.02125015
162	0xbb8b451d	-0.0042501823
163	0x3ab81535	0.0014044406
164	0x3b8fa264	0.004383372
165	0xbd86bd0e	-0.06579028
166	0xbb5c95e8	-0.0033658687
167	0x3d29c6f1	0.04144949
168	0xbd4591b9	-0.048234675
169	0xbd4d4994	-0.050118998
170	0xbd258b73	-0.040416192
171	0x3bd0ab21	0.0063680564
172	0x3d8571cd	0.065158464
173	0xbda701a5	-0.081546105
174	0xbde819dc	-0.11333057
175	0x3dcd4ef5	0.100248255
176	0x3c1fbe16	0.00974991
177	0xbd5c4333	-0.053775024
178	0x3e09e056	0.13464484
179	0x3d2948bb	0.041329127
180	0x3db76700	0.089551926
181	0x3d9b6106	0.07586865
182	0xbd8d61d1	-0.069034226
183	0xbd6535ab	-0.055959385
184	0x3d3b4fb7	0.04573032
185	0xbd8b60a7	-0.06805544
186	0x3e0add2f	0.13560937
187	0xbcc6c6c0	-0.024264693
188	0xbcb2fccb	-0.021849057
189	0x3db5fd0a	0.08886154
190	0xbcc85a2e	-0.024457064
191	0x3d38ef91	0.045150343
192	0x3cba242d	0.022722328
193	0xbbf401b6	-0.007446493
194	0xbd08eee6	-0.033430956
195	0xbe01ecce	-0.1268799
196	0xbd032a03	-0.032022487
197	0x3db8988d	0.09013472
198	0xbcd695ec	-0.026194535
199	0x3d7862e7	0.060641196
200	0xbd9137db	-0.07090732
201	0x3de22fe1	0.110442884
202	0xbae9f45c	-0.0017849314
203	0xbd8c7a40	-0.06859255
204	0xbe1a4c61	-0.15068199
205	0xbd42eea8	-0.04759088
206	0x3d282289	0.04104856
207	0xbd9744f3	-0.07386198
208	0xbcaccdbe	-0.0210942
209	0x3d38d245	0.045122404
210	0xbd930157	-0.0717799
211	0x3c83b447	0.016077174
212	0x3d76154c	0.060078904
213	0xbe0d375e	-0.13790652
214	0xbb204b6e	-0.0024459022
215	0x3c1c1f0a	0.009528885
216	0xbe03be98	-0.12865674
217	0xbd81dde4	-0.063411504
218	0xbd6ff78a	-0.05858568
219	0xbbcfee95	-0.00634558
220	0x3ccdc3bf	0.025117753
221	0xbd0e82d0	-0.03479272
222	0xbba2a68c	-0.0049637016
223	0xbcb15f98	-0.021652028
224	0xbddd03f4	-0.107917696
225	0x3c800b0c	0.015630268
226	0x3e089c45	0.13340862
227	0x3d07c7d7	0.033149567
228	0x3cc8a018	0.024490401
229	0x3d8b0707	0.0678845
230	0xbd80c01f	-0.06286644
231	0xbbf96a39	-0.0076115397
232	0xbd2b6a7a	-0.04184959
233	0x3d2eb602	0.042654045
234	0x3cac23ba	0.02101313
235	0x3e235a97	0.15952526
236	0xbd58e5ca	-0.05295352
237	0xbc0ea7a3	-0.00870696
238	0x3d894ec9	0.0670448
239	0xbe25866c	-0.16164559
240	0x3d2ef8b8	0.042717665
241	0xbaa4a447	-0.0012561165
242	0x3dcc776d	0.09983716
243	0xbd4d171a	-0.05007086
244	0xbd3ccf89	-0.04609636
245	0xbc50eb1b	-0.012751366
246	0xbd279e37	-0.04092237
247	0x3d5760f0	0.05258268
248	0xbd03edea	-0.032209314
249	0x3e01952f	0.12654565
250	0xbb824042	-0.0039749453
251	0xbd5308d4	-0.05152209
252	0xbd086eed	-0.033308912
253	0x3de245aa	0.110484436
254	0x3cdf144d	0.02723136
255	0xbbd725b9	-0.006565776

network_body._body_endoder.seq_layers.4.bias f4 [256]
0	0x3c0c2aee	0.008555157
1	0xbbf99b37	-0.00761738
2	0xbbda4f2c	-0.00666227
3	0xbb97d884	-0.004633965
4	0xbba58245	-0.0050509297
5	0x3bdca317	0.006733309
6	0x3b197216	0.0023413948
7	0xbcc81507	-0.02442409
8	0xbc0a2e11	-0.008433835
9	0xbc308739	-0.010774427
10	0x3c1859eb	0.009298782
11	0xbc5ac557	-0.013352714
12	0xbb5dacbb	-0.003382488
13	0x3b950fc9	0.004549001
14	0xbc4a4809	-0.012346276
15	0xbc5d1c55	-0.013495524
16	0x3bdbbc93	0.0067058294
17	0xbbe935de	-0.007117017
18	0xbc5b7530	-0.013394639
19	0x3ba99519	0.0051752445
20	0x3c0e16d4	0.008672435
21	0x3bf1b585	0.007376375
22	0xbc14e3e3	-0.009087536
23	0x3b163932	0.0022922275
24	0xbc66f6b6	-0.014096906
25	0xbb8f36e5	-0.0043705576
26	0xbbca34cb	-0.006170844
27	0xbc52b046	-0.01285941
28	0xbc409c44	-0.011756007
29	0xbb04cf9a	-0.0020265342
30	0xbbdaaac4	-0.006673189
31	0xbbe217cf	-0.006899811
32	0xbc522dea	-0.01282833
33	0x3ba63c4c	0.005073106
34	0xba9212b7	-0.0011144493
35	0x3c384086	0.011245852
36	0x3bb823e3	0.0056195124
37	0x3b0b5836	0.0021262295
38	0xbbdc34a4	-0.0067201424
39	0x3b5fc94b	0.003414708
40	0xbc2daf1f	-0.010600834
41	0xbc1d77ae	-0.009611053
42	0x3b130236	0.0022431738
43	0xbc444c42	-0.011981072
44	0xbbd53986	-0.0065071015
45	0xbae4e4e2	-0.0017463232
46	0x3b889702	0.004168392
47	0x3c6f8f6a	0.014621595
48	0x3b07be20	0.0020712689
49	0x3c03bd68	0.008040763
50	0xbc0621b0	-0.008186743
51	0xbc6dcd09	-0.014514216
52	0x3bab45e1	0.005226836
53	0x3bae9abe	0.0053285053
54	0xbc1c8630	-0.009553477
55	0xbbba2c39	-0.0056815413
56	0xbc03492d	-0.008013052
57	0xbad2a73d	-0.0016071569
58	0xbbf13c8e	-0.007361955
59	0xbc0d3b47	-0.00862009
60	0x3c10366d	0.008802039
61	0x3bc58d2f	0.0060287933
62	0x3c22340b	0.009900103
63	0xbc25fa86	-0.01013053
64	0xbc25285e	-0.010080425
65	0xbb9701b1	-0.004608356
66	0xbc3ea012	-0.011634843
67	0x3c1fca84	0.009752873
68	0x3b5c7a30	0.0033642165
69	0xbbcd9253	-0.0062735467
70	0xbc3e93cc	-0.011631917
71	0x3be92589	0.0071150702
72	0xbc8417f7	-0.016124709
73	0xbc63eba9	-0.013911166
74	0x3b1fa9c2	0.0024362658
75	0xbc4606c3	-0.012086573
76	0x3ae708dd	0.0017626543
77	0xbc34c185	-0.011032467
78	0xbc7ec0f3	-0.015548932
79	0x3a26a4ea	0.00063569716
80	0xbc22a2ee	-0.009926541
81	0xbc0311ac	-0.007999819
82	0x39970193	0.00028802137
83	0xbba0f16c	-0.004911592
84	0x3af6ad85	0.0018820023
85	0xbbd0c050	-0.0063705817
86	0x3c11f9be	0.008909641
87	0xbbc190e8	-0.0059071667
88	0xbc1db15c	-0.009624805
89	0x3c323382	0.010876538
90	0xbabb29cc	-0.0014279424
91	0xbc6c1d78	-0.014411323
92	0xbb830b4a	-0.0039991485
93	0x39610f04	0.00021463266
94	0xbbedcdf4	-0.0072572175
95	0xbb8e65db	-0.004345638
96	0xbc226984	-0.009912852
97	0xbbe3e4b9	-0.006954756
98	0x3c21380e	0.009840025
99	0x3a1e0dbd	0.0006029269
100	0xbc63d064	-0.013904665
101	0xbc4b225b	-0.012398328
102	0x3b9c323b	0.00476673
103	0xbb1bb5c7	-0.002375947
104	0xbc3d75f3	-0.011563766
105	0x3c0361a3	0.008018884
106	0x3c35c211	0.011093632
107	0xbc05887b	-0.008150215
108	0x3bba9940	0.0056945384
109	0x3c03a78e	0.008035554
110	0xbc4591ef	-0.012058719
111	0xbc24baa9	-0.010054269
112	0xbc529fe6	-0.012855506
113	0xbb478cce	-0.0030448916
114	0xbab1c11e	-0.0013561582
115	0xbbafdcc3	-0.005366893
116	0x3bf9096e	0.007600001
117	0x3bdcda14	0.006739864
118	0x3bdbe233	0.0067103147
119	0xbbc22951	-0.0059253355
120	0x3c0200a5	0.007934724
121	0xbc2d3c7b	-0.010573502
122	0x3c5249bd	0.012834963
123	0xbc516253	-0.01277979
124	0xba9b3bf8	-0.0011843434
125	0xbc30f266	-0.01079998
126	0xbc1629ca	-0.009165237
127	0xbc93dbb6	-0.018049102
128	0xbb8e883f	-0.004349738
129	0xbb762ecc	-0.0037564514
130	0xbc0750d9	-0.008259022
131	0xbc387c68	-0.0112601295
132	0x3bd89257	0.006609242
133	0xbc80fa1c	-0.015744261
134	0xbc4d9df2	-0.012549864
135	0x3ba4f008	0.005033497
136	0x3a8cc635	0.0010740223
137	0xbb4da2da	-0.0031377585
138	0x3c24a8cf	0.010050013
139	0x3b238662	0.0024951925
140	0xb9cd3c0a	-0.0003914538
141	0xbc488bd9	-0.0122403735
142	0xbc6e66d3	-0.014550882
143	0xbb3e3f1c	-0.0029029315
144	0xbc247e84	-0.010039929
145	0x3af13029	0.0018401194
146	0xbacdf29b	-0.0015712561
147	0x3bb02806	0.005375865
148	0xbb90bedc	-0.0044172835
149	0x3bb3f672	0.005492025
150	0xbc2c1e88	-0.010505326
151	0xbbe7770a	-0.007063751
152	0x3c1a119f	0.009403615
153	0xbb525209	-0.0032092354
154	0xbc5177e3	-0.012784931
155	0xbc235c45	-0.009970729
156	0x3a91caef	0.0011123101
157	0xbb8059a9	-0.0039169383
158	0x3b62afdb	0.0034589681
159	0x3c3cd7bb	0.0115260435
160	0xbc1ac43c	-0.0094462
161	0xbb994fbe	-0.0046786955
162	0xbc3604fe	-0.011109589
163	0xbb8d390c	-0.004309779
164	0xbbdf2bf3	-0.006810659
165	0x3c3dc3e8	0.011582352
166	0xbb992e3b	-0.0046747006
167	0x3b10d911	0.0022102038
168	0xba7085de	-0.0009175221
169	0x3bf356cc	0.0074261185
170	0x3b4abca1	0.0030935185
171	0xbbc8d0db	-0.006128413
172	0xbc2795a0	-0.0102285445
173	0xbc86a032	-0.016433809
174	0xbc062fe1	-0.008190126
175	0xbc49512e	-0.012287421
176	0xbc563607	-0.013074405
177	0x3a7af701	0.00095735496
178	0x3b59a37d	0.003320902
179	0xbc40b410	-0.01176168
180	0x3c175251	0.009235934
181	0xbbcbc100	-0.0062180758
182	0x3ab96765	0.0014145194
183	0xbbb03126	-0.0053769527
184	0x3b14b90a	0.00226933
185	0xbbfa10d0	-0.0076313987
186	0x3b876633	0.004132056
187	0x3bee8ad2	0.0072797323
188	0xbbaa3068	-0.0051937588
189	0xbc8a6cbc	-0.016897552
190	0xbc57b61a	-0.013165975
191	0x3a97863e	0.0011560393
192	0x3c0b7835	0.008512546
193	0xbc382190	-0.011238471
194	0x3bae7894	0.0053244326
195	0x3b506f4d	0.0031804622
196	0xbbe2b50b	-0.0069185547
197	0x3a9322b2	0.001122555
198	0x3af95395	0.0019022102
199	0xbc4b9f8b	-0.012428175
200	0xbc4d0994	-0.012514491
201	0xbc2e6b92	-0.010645764
202	0xbc8b5771	-0.017009469
203	0xbc3d44ea	-0.011552075
204	0x3be198eb	0.0068846843
205	0xbc17a82d	-0.009256405
206	0xbc258c46	-0.010104245
207	0xbc34c7fe	-0.01103401
208	0xbc236f15	-0.0099752145
209	0xbb853d88	-0.004066173
210	0xbbbb1be5	-0.0057101124
211	0x3b6a7645	0.003577606
212	0xbb0aefbd	-0.0021200024
213	0xbc0cc3d1	-0.008591608
214	0x3c14ccdb	0.0090820445
215	0xbc0341bb	-0.008011277
216	0x3c0a68fd	0.008447883
217	0x3bb5969f	0.005541637
218	0xbc4693a7	-0.012120164
219	0xbc726ff9	-0.014797204
220	0xbbc35f80	-0.005962312
221	0xbc6aa509	-0.014321574
222	0xbb959ddc	-0.0045659374
223	0xbc30fee2	-0.010802956
224	0xbc48c53a	-0.012254054
225	0x3b29cd2a	0.002590964
226	0xbc3ed5b5	-0.011647631
227	0xbc03e68f	-0.008050575
228	0x3c3072a2	0.010769518
229	0xba3f0fbf	-0.0007288418
230	0xbc295a99	-0.010336542
231	0x3c4dcb00	0.012560606
232	0x3a82868a	0.0009958309
233	0xbba3196e	-0.0049773967
234	0xbaea8cd0	-0.0017894749
235	0x398862f1	0.00026013658
236	0x3ab6bdf4	0.0013942108
237	0xbc23b261	-0.009991259
238	0xbb91486f	-0.0044336836
239	0x3bac9b94	0.00526757
240	0xbbc32a12	-0.005955943
241	0xbc859db7	-0.016310556
242	0xbc2aee7d	-0.010432837
243	0x3c0549b2	0.008135246
244	0xbc96f291	-0.018426212
245	0x3c15a9c5	0.0091347145
246	0xbc328f13	-0.010898369
247	0x3b988636	0.004654671
248	0x3baf347a	0.005346832
249	0x3b889773	0.004168445
250	0xbc7aeb86	-0.015314942
251	0xbc8b16b8	-0.016978607
252	0xbc417fa7	-0.01181022
253	0xbc4e1bf6	-0.012579909
254	0x3ba90a6b	0.0051587126
255	0xbb4cd5e3	-0.0031255416

network_body._body_endoder.seq_layers.4.weight f4 [256, 256]
0	0xbcaca9e8	-0.021077111
1	0x3cf3535b	0.029702833
2	0xbd3518c1	-0.04421306
3	0x3d543d45	0.051816244
4	0xbd6a6ef1	-0.05723471
5	0xbdc9a314	-0.09845558
6	0xba1b7694	-0.000593045
7	0x3d28aa00	0.04117775
8	0xbc41de22	-0.011832746
9	0x3e01557c	0.12630266
10	0x3d1498f3	0.036278676
11	0xbcaaf5fe	-0.020869251
12	0xbd4b7081	-0.04966784
13	0xbd4d0a81	-0.050058845
14	0xbdd2aedb	-0.10287257
15	0xbe2d3f82	-0.16918758
16	0x3d7a153c	0.061055407
17	0xbb13b8f2	-0.0022540656
18	0xbb29dd29	-0.0025919175
19	0x3d306062	0.043060668
20	0x3d3f4fc5	0.046706934
21	0x3d3fc029	0.046814118
22	0x3cc62bba	0.024190772
23	0x3d3dfadd	0.04638182
24	0xbd30365d	-0.043020595
25	0xbd15b715	-0.036551554
26	0x3c208123	0.009796414
27	0xbd646f40	-0.05577016
28	0xbd02283f	-0.031776663
29	0xbcab2224	-0.020890303
30	0x3d84eea3	0.06490829
31	0xbdc07d9c	-0.09398958
32	0xbd37720c	-0.044786498
33	0xbcdf0516	-0.027224105
34	0x3dd66f6b	0.1047047
35	0xbe103821	-0.14083911
36	0xbc9202bb	-0.017823568
37	0xbb9c396f	-0.004767589
38	0xbe069dc6	-0.13146123
39	0x3d9fe2b9	0.07806916
40	0xbcdb6f1e	-0.026786383
41	0xbd13dd84	-0.036099926
42	0xbd3535b2	-0.04424066
43	0x3d2645b5	0.04059382
44	0x3d07dc78	0.03316924
45	0xbdec0694	-0.11524692
46	0x3db34517	0.08753412
47	0x3c339815	0.010961552
48	0x3dc49a23	0.09599712
49	0x3b9114bf	0.004427522
50	0xbd7eb410	-0.06218344
51	0xbd1d6498	-0.03842601
52	0x3d8b99b7	0.06816428
53	0xbd3013b8	-0.042987555
54	0x3c936287	0.017991317
55	0xbd86da5b	-0.06584617
56	0x3d7e5996	0.062097155
57	0x3e0f1618	0.13973272
58	0xbd052a68	-0.032511145
59	0x3db29095	0.08718983
60	0xbbd9a8b1	-0.006642424
61	0xbdc35253	-0.095371865
62	0x396812ac	0.000221322
63	0xbd904552	-0.07044472
64	0x3ce4b5ff	0.027918814
65	0xbdf9c3f6	-0.1219558
66	0x3c9093b6	0.017648559
67	0xbd0b237d	-0.03396939
68	0xbd56329a	-0.05229435
69	0x3a48a3a3	0.00076537783
70	0xbd261e8d	-0.04055648
71	0xbd9c6d99	-0.076380916
72	0x3e1a02e2	0.15040162
73	0x3ca66907	0.020313753
74	0xbdf246bd	-0.118298985
75	0xbde15722	-0.110029474
76	0xbd9c296b	-0.07625087
77	0xbcd8b2fc	-0.026452534
78	0xbc20f997	-0.009825132
79	0x3d286f96	0.04112204
80	0x3e190a98	0.14945447
81	0x3d944026	0.07238798
82	0xbcdd5c4e	-0.027021553
83	0xbdc33383	-0.095313095
84	0xbcb7e598	-0.022448346
85	0x3d74639d	0.05966531
86	0xbcc2086c	-0.023685656
87	0x3cff2720	0.031146586
88	0x3b07dae2	0.002072983
89	0x3dfa07e4	0.12208536
90	0xbc860e5d	-0.01636427
91	0xbdaa931d	-0.08328841
92	0xbd125a3d	-0.03573059
93	0xbbcbae88	-0.006215874
94	0xbd792f94	-0.06083639
95	0xbd1dbe47	-0.03851154
96	0xbbc7cff2	-0.006097787
97	0xbd9f24ae	-0.07770668
98	0x3d3c561a	0.04598055
99	0x3d780918	0.060555547
100	0x3c6fbc40	0.014632285
101	0x3e2d627e	0.16932103
102	0xbbe4e2b4	-0.006985033
103	0x3d9d864d	0.076916315
104	0xbdff0fe5	-0.124542035
105	0x3db92071	0.09039391
106	0x3d59bb68	0.05315724
107	0x3d78f752	0.060782738
108	0xbcaa8898	-0.020817086
109	0xbca57743	-0.02019847
110	0xbd4f502e	-0.050613575
111	0xbd926025	-0.07147244
112	0x3d98aa9e	0.07454418
113	0x3db939f4	0.09044257
114	0xbdba1808	-0.09086615
115	0xbb8948f5	-0.0041896054
116	0x3c889e01	0.016676905
117	0xbdac7767	-0.08421212
118	0xbd710996	-0.058847032
119	0xbd3b36ea	-0.045706667
120	0xbc9a398b	-0.018826267
121	0xbd9237d5	-0.07139555
122	0x3b8467b0	0.004040681
123	0x3d914b78	0.07094473
124	0x3c76589e	0.015035776
125	0x3dca69db	0.098834716
126	0xbdabfce8	-0.083978474
127	0x3c901d58	0.017592117
128	0x3db980f2	0.090577975
129	0x3c4f7adb	0.012663568
130	0x3d370e2e	0.044691257
131	0xbd865b9f	-0.06560444
132	0x3c2e8eee	0.010654194
133	0x3ce32049	0.027725356
134	0xbcf11bb8	-0.029432163
135	0x3d2fd148	0.042924196
136	0xbd86fdd2	-0.06591381
137	0xbcb41ea8	-0.021987274
138	0xbd7e7431	-0.062122528
139	0xbc86e16d	-0.016464913
140	0xbc4afed6	-0.012389859
141	0xbc9554eb	-0.018228969
142	0xbd29933c	-0.04140018
143	0xbdfa56b8	-0.122235715
144	0x3d17dfea	0.037078775
145	0xbd257f05	-0.04040434
146	0x3cfad93f	0.03062117
147	0xbd8f1795	-0.0698692
148	0x3cef3874	0.029201724
149	0xbd5f2172	-0.054475255
150	0x3bd5950c	0.006518012
151	0x3c511932	0.012762355
152	0x3dad8a9a	0.08473702
153	0x3d9cfe29	0.07665665
154	0x3d887b05	0.06664089
155	0x3dad1257	0.08450764
156	0xbd3f8c10	-0.046764433
157	0xbcf5c357	-0.030000372
158	0xbd28a5f9	-0.04117391
159	0x3da9931f	0.08280014
160	0xbc58c9a0	-0.013231665
161	0xbd94ae8f	-0.07259857
162	0xbd5a81e0	-0.053346515
163	0x3d3edc6d	0.046596933
164	0xbd1e8e20	-0.03870976
165	0x3aa905f6	0.0012895453
166	0xbd9fe43a	-0.07807203
167	0xbd83b900	-0.0643177
168	0x3d536f00	0.05161953
169	0xbdc132f7	-0.09433549
170	0x3cd9008f	0.026489524
171	0xbd59df84	-0.053191677
172	0x3c8bbf92	0.017059121
173	0xbb54b43e	-0.0032456066
174	0x3ddf5bbd	0.109061696
175	0x3c43d351	0.011952237
176	0xbb6f7d46	-0.0036543175
177	0x3d014758	0.03156218
178	0xbc8c0c19	-0.017095612
179	0x3d160110	0.036622107
180	0x3cf5bbb2	0.029996727
181	0x3d0b98ec	0.034081385
182	0x3d36e76e	0.044654302
183	0x3d89357a	0.06699653
184	0xbcc49136	-0.023995023
185	0xbaff3316	-0.0019470181
186	0x3d679e77	0.05654761
187	0xbd2b55f2	-0.04183001
188	0xbd2d6e78	-0.04234168
189	0x3d28ff3b	0.04125903
190	0x3d5b0ac8	0.05347708
191	0x3be28897	0.0069132554
192	0x3a8b3d6c	0.0010623164
193	0x3c753eaa	0.014968554
194	0x3de19bbc	0.11016032
195	0xbcd6791a	-0.026180793
196	0xbcd999a8	-0.026562527
197	0x3dc3b566	0.095560834
198	0xbda7c2a5	-0.081914224
199	0xbdaafbd2	-0.08348812
200	0xbdbfe186	-0.09369187
201	0xbc1ab152	-0.0094416905
202	0xbdb11ac6	-0.08647685
203	0x3cb426b3	0.02199111
204	0xbdab9aa3	-0.08379104
205	0x3d5ce6dc	0.053931102
206	0x3d2e1ea9	0.04250971
207	0xbd8b0628	-0.067882836
208	0xbcff537a	-0.031167734
209	0x3d1f79fa	0.038934685
210	0x3d84d9fc	0.0648689
211	0x3b405360	0.002934657
212	0xbdd8b64b	-0.105816446
213	0xbd2d9c40	-0.04238534
214	0xbdc8b0ae	-0.09799324
215	0x3df7c376	0.12097828
216	0x3ba28e56	0.0049608154
217	0xbd8dce46	-0.06924109
218	0x3bc3a0ba	0.005970088
219	0xbc52064c	-0.012818884
220	0x3ca92e0d	0.020651842
221	0x3cbec6e5	0.0232882
222	0x3ccbb693	0.024867332
223	0x3d2a3461	0.04155386
224	0xbc0d6899	-0.008630895
225	0x3da76831	0.0817417
226	0xbcba6258	-0.022751972
227	0x3dd66159	0.10467786
228	0x3d7d6fe1	0.061874274
229	0x3c99a106	0.01875354
230	0xbcffa17f	-0.031204937
231	0xbb920c3e	-0.004457026
232	0xbcb00d23	-0.02149064
233	0x3ce11697	0.027476592
234	0x3d6719a8	0.056420952
235	0x3ccccd1b	0.025000146
236	0x3dbff801	0.09373475
237	0xbcb2a60e	-0.021807697
238	0xbb520282	-0.0032044952
239	0x3c60e094	0.013725419
240	0x3d490e0e	0.04908567
241	0xbd5c767b	-0.05382393
242	0x3c9948c2	0.018711451
243	0xbcd74c7a	-0.026281584
244	0xbd47c535	-0.048772056
245	0x3ddae773	0.10688677
246	0x3c9a61df	0.018845497
247	0xbd240a6b	-0.040048998
248	0x3d5a1830	0.053245723
249	0xbd632c61	-0.055462245
250	0xbd83408a	-0.06408794
251	0x3a71645e	0.0009208376
252	0x3c130d2e	0.00897531
253	0xbe491d1f	-0.19640015
254	0xbe054482	-0.13014415
255	0x3d434c47	0.047680166
