Assets/Training/results/run3/config.onnx (onnx, 588060 bytes, 9 tensors)

action_model._continuous_distribution.log_sigma f4 [1, 2]
000000 c7 e2 87 b9 b6 9e e7 bb
       -0.0002591817 -0.0070684804

action_model._continuous_distribution.mu.bias f4 [2]
000000 7c b1 81 bb f6 c4 44 3b
       -0.0039579254 0.0030024624

action_model._continuous_distribution.mu.weight f4 [2, 256]
000000 ac 06 04 3c 08 b2 d9 bc 0c c4 bd bc b6 7e 67 bb
       0.008058231 -0.02657415 -0.023164771 -0.0035323328
000010 ab ad 96 3c 48 36 17 3c ab eb 52 bc 14 62 68 3b
       0.018393358 0.00922925 -0.01287357 0.003545885
000020 18 f2 84 bc 55 cc b7 3b 97 d8 97 bc 99 e3 41 3c
       -0.01622872 0.005609075 -0.018535895 0.011834049
000030 06 16 8c 3c 13 d9 87 3b 86 6a fb bb 64 94 f8 bc
       0.017100345 0.0041457503 -0.0076726107 -0.030344196
000040 b5 e7 54 bb 3a dc ca bc 0f 69 79 3c 26 19 aa 3b
       -0.003248674 -0.024763215 0.015222802 0.005190986
000050 34 88 c7 3c 11 79 a4 bb 3e 17 5d bc 35 6e 30 bb
       0.024356939 -0.005019315 -0.013494311 -0.0026921157
000060 d8 a7 52 bb 4e 7e c7 3c 0d fc b1 3c f0 fd 43 bc
       -0.00321435 0.024352219 0.021726632 -0.011962399
000070 2d e1 f9 3b 61 f4 fb 3b 8d fa 0e 3c 5d 3b 94 3c
       0.00762572 0.0076890443 0.008726728 0.018094713
000080 2c b9 07 3b 5c ba f0 3b e4 42 2e 3c f2 cf 62 3c
       0.0020709736 0.0073464345 0.010636065 0.013843523
000090 37 4c cb 3c 6f ef 00 3c c1 47 80 bc dc aa ba bc
       0.024816616 0.007869585 -0.015659215 -0.02278655
0000a0 52 e8 51 3c 81 a9 dd bb 6f 98 48 3c 75 77 1a bb
       0.012811737 -0.006764591 0.012243374 -0.0023569737
0000b0 8b 4e 45 bc 49 8d 0f bb 56 17 a7 39 1d c8 02 3c
       -0.012042652 -0.002190428 0.0003187011 0.007982281
0000c0 99 30 ea 3c e6 d2 ea 3b 93 10 47 3c 40 8d bd bc
       0.028587626 0.0071662543 0.012149948 -0.023138642
0000d0 8f 3d af bc 8c cf ee bc ab a8 a9 3b 7f f8 81 3b
       -0.021391658 -0.0291517 0.0051775775 0.0039663906
0000e0 c0 65 c4 bc c6 c8 01 3d 18 c5 89 3c 07 5f 7c 3c
       -0.0239743 0.031685613 0.016817614 0.015403516
0000f0 06 3b b6 ba c0 ae 27 3c d9 2b 33 3c 1e cf 9b 3c
       -0.0013903088 0.010234535 0.010935747 0.01901966
000100 41 fb 44 39 0e b3 cd bb e5 51 c7 3b 8b de 66 ba
       0.00018785616 -0.0062774485 0.0060827606 -0.0008806965
000110 96 85 8d bc 86 bd 66 3c 43 0e 85 ba 49 10 06 3c
       -0.017275613 0.014083272 -0.0010151345 0.008182594
000120 e5 c6 c3 bb f2 95 f4 39 00 df cb bb 57 3d dd 3b
       -0.005974638 0.00046651025 -0.006221652 0.006751697
000130 97 5f 58 3b f0 01 b1 3c aa 92 40 bc dc 29 5e bb
       0.003301596 0.02160737 -0.011753717 -0.0033899462
000140 8b 68 7d 3b 5e 79 b7 bb 1b 4d 3e 3c 13 58 88 bb
       0.0038667049 -0.005599185 0.011615063 -0.00416089
000150 cc c4 aa bb cb 25 d9 bc a7 d2 12 bc 2d ae 4c bc
       -0.0052114483 -0.026507279 -0.008961356 -0.012492699
000160 e9 8c ba bc 62 00 10 3b 21 4e 91 3c e2 e5 a6 3c
       -0.02277227 0.0021972884 0.01773745 0.020373289
000170 56 06 96 3c f8 5f 31 3c 1a 43 ca bb b5 98 85 3c
       0.018313568 0.010826103 -0.00617255 0.016308168
000180 48 d8 83 3c 91 b2 52 bc a4 4c 88 3a dc b1 3f 3c
       0.016094342 -0.012859956 0.0010398817 0.01170012
000190 10 68 4c bc 64 b2 5e 3c 62 46 23 bb 95 7b 3e bc
       -0.012475982 0.013592336 -0.0024913778 -0.011626144
0001a0 fc 27 04 3a 53 57 6f 3c 9c 3f 71 bc d0 53 bb bc
       0.00050413585 0.014608222 -0.014724638 -0.022867113
0001b0 a3 93 cc bb 05 05 cd 3c 0a f8 0e 3c 7a bf 36 3c
       -0.0062431856 0.025026808 0.008726129 0.01115405
0001c0 ae e0 42 38 db fc 14 3c 32 70 b0 3b 2b 3e a9 39
       4.6462454e-05 0.009093489 0.0053844685 0.0003228051
0001d0 dc 9f 25 bd 11 31 45 3c 39 5e 92 3c 60 6b c4 bc
       -0.040435657 0.012035624 0.017867194 -0.023976982
0001e0 a6 6d f1 3b 5b 99 84 3c 51 68 f4 bb 44 62 3a bc
       0.0073678074 0.016186407 -0.0074587245 -0.011375967
0001f0 94 45 d8 3b aa 1b 79 3c d7 38 4d 3c 29 1e 98 3a
       0.0066000912 0.0152043495 0.012525759 0.0011605668
000200 b3 25 1b bc e3 ea 69 3b 05 7b 82 bc e1 e2 41 3c
       -0.009469437 0.0035692982 -0.0159278 0.011833877
000210 4d 47 38 3c e8 f5 20 3c 6f 90 24 bc bd 72 6d 3c
       0.011247468 0.009824254 -0.010044201 0.014492688
000220 ae af 14 3c 69 30 b9 bc 68 35 e6 3a 50 4e 62 3c
       0.009075088 -0.022606092 0.0017563524 0.0138126165
000230 7e d3 8b bb 6c 93 73 bc 8b 78 a7 3c 01 d8 5c bc
       -0.004267155 -0.014866691 0.020443222 -0.013479234
000240 7f a2 65 bb 24 54 91 bc eb 3a 7a bb de 08 33 3c
       -0.0035039482 -0.017740317 -0.003818209 0.010927407
000250 99 3c 6d bc 00 d3 09 bd 16 52 b8 bc b3 63 15 3c
       -0.01447978 -0.03364849 -0.02250008 0.009118008
000260 c6 9f 2a bc 96 24 b1 bc ac 34 dd bc 08 61 da bc
       -0.0104140695 -0.02162389 -0.027002655 -0.026657596
000270 a7 fe 44 3c 11 6d f0 3b 1f 64 2c bc 7d 8c 2f bc
       0.0120236045 0.0073372205 -0.010521918 -0.010714647
000280 1c 53 ea 3b ab 44 bc bc bc 83 5b bb 76 48 37 bc
       0.0071510207 -0.022981962 -0.0033495268 -0.01118671
000290 0a 9d 8d ba 8e f7 84 3b 93 4d 97 bb 19 66 c9 3b
       -0.0010804248 0.004057831 -0.004617402 0.006146204
0002a0 f4 6f d5 bb 9d 75 0a bc a4 a5 3b ba 0d 93 96 3c
       -0.00651359 -0.008450893 -0.0007158166 0.018380666
0002b0 e0 01 11 3c 52 b8 00 bc 18 39 c0 bc bc ed 97 bc
       0.008850545 -0.007856445 -0.023464724 -0.018545978
0002c0 f9 15 8d 3c 58 79 30 3c 5c 72 6c bb 5a 04 ec bb
       0.017222391 0.010771118 -0.0036078906 -0.007202667
0002d0 d9 56 04 3b 60 bf 14 3c dc bb 81 bc 37 f0 16 3c
       0.0020193367 0.0090788305 -0.015836649 0.009212545
0002e0 04 54 0a 3c 58 f0 64 3c c0 90 4d 3b 00 f0 62 3c
       0.008442882 0.013973318 0.0031366795 0.013851166
0002f0 df 31 1e 3c 75 d8 4e ba f7 8f 00 3c 02 0d 5e bc
       0.009655445 -0.0007890531 0.007846824 -0.013552906
000300 20 d5 4a bc 40 34 ef bb fd 59 52 3c 56 5d 95 38
       -0.0123799145 -0.00729993 0.012838838 7.122259e-05
000310 b6 80 70 bc f8 40 24 3c 81 90 dd ba a9 77 89 bc
       -0.014679125 0.010025255 -0.0016904027 -0.016780691
000320 31 e5 88 bc 1b 79 24 3b ed 42 95 bc ed 82 19 3c
       -0.01671085 0.0025096599 -0.01822039 0.009369594
000330 d5 a3 97 bc 92 f2 39 bc ab 90 9d bc 63 87 4f bc
       -0.018510738 -0.011349337 -0.019234022 -0.012666556
000340 87 e2 f6 bc a3 c2 80 3b 25 fb 26 3b 69 10 95 bc
       -0.030137314 0.0039294525 0.0025479284 -0.018196302
000350 ce ee 10 3c 16 4e 16 bc 51 e8 1c 3c ee 2e 65 3b
       0.008845998 -0.009173891 0.009576873 0.00349706
000360 2a 09 5e 3c 0a 1c 92 bc a7 4a 52 bc bf f7 b0 ba
       0.01355199 -0.017835636 -0.012835181 -0.0013501568
000370 dd 7e 62 3c 16 5f 6e 3b 11 4a 1c bc 2b 5b 8f 3c
       0.013824192 0.0036372594 -0.009539143 0.017499527
000380 db 8c ba bc 0b 88 0f 3c 1e 16 9f 3b 27 ee aa bc
       -0.022772243 0.0087604625 0.0048549315 -0.020865513
000390 2d e2 cb bc 7a c9 06 3c df c9 f9 3c c1 da 80 bc
       -0.024888122 0.008226747 0.030491767 -0.01572931
0003a0 5f 30 d9 ba 85 f5 3a 3c 3c 83 99 bb c6 14 2b 3c
       -0.0016570202 0.0114110755 -0.004684834 0.0104419645
0003b0 ae d1 55 bc a4 63 ee 3a 2a 10 f7 bb e9 4d 6d 3a
       -0.01305048 0.0018187654 -0.0075397687 0.0009052442
0003c0 f1 8c 6e 3c 42 6c 1f 3c 00 64 0e 3c 3d cb 7d bc
       0.01455997 0.0097304005 0.008690834 -0.01549035
0003d0 bc 4e 89 bb 46 53 ab bb 87 30 83 3b 10 02 a9 3b
       -0.004190294 -0.005228433 0.0040035876 0.0051577166
0003e0 31 33 ca 3c 10 8a bb bb e4 97 8a bb 5d a5 b5 bc
       0.024682613 -0.0057232454 -0.0042295326 -0.022173578
0003f0 d5 09 38 3a 90 13 2c 3c b0 5c 0d 3c 28 44 5b 3b
       0.0007020508 0.010502711 0.008628055 0.0033457372

network_body._body_endoder.seq_layers.0.bias f4 [256]
000000 12 d4 e6 ba 7d 8e 6a ba b3 98 a5 39 40 6f 61 3b
       -0.0017610809 -0.0008947624 0.00031585022 0.0034398586
000010 e2 7e a3 3b 3a 32 12 3a 64 d4 aa 3b 35 3a b6 3b
       0.004989491 0.00055769423 0.005213307 0.005561138
000020 f5 7d 91 bb 22 9b f4 3a 6e 3c a8 bb 97 87 ad 3b
       -0.004440064 0.0018661956 -0.005134157 0.0052957046
000030 f5 0f ba bb 2a d4 a3 39 df dd 19 3b 73 96 bb 39
       -0.0056781718 0.00031247857 0.0023478193 0.00035779513
000040 28 d3 03 bb fc f9 a9 bb a8 15 c3 bb 9c d7 00 3b
       -0.0020114873 -0.005187271 -0.0059535094 0.0019659763
000050 39 ce 7f 3b 0e 80 16 3b 35 82 5d 3b 72 ed 7e bb
       0.003903283 0.002296451 0.0033799533 -0.0038898853
000060 12 7e a3 3b 48 99 9b 3b d4 45 8f 3b 59 e5 3b 3a
       0.004989394 0.004748497 0.004372338 0.00071676594
000070 5e b5 1b 3b 61 fa ba 3b e4 95 5b 3b ee aa 3d bb
       0.0023759226 0.005706117 0.003350609 -0.0028940993
000080 5a c3 07 bb 0d 76 86 3a 12 90 83 3a 37 dc 33 3b
       -0.0020715804 0.001025857 0.0010037443 0.002744449
000090 c2 1c aa 3b 05 65 c3 3b 52 99 e0 ba 5e 9d 32 3b
       0.0051914165 0.00596297 -0.0017135537 0.0027254443
0000a0 b3 6a 76 3b 82 62 51 ba cf fb 35 bb 33 8e 5c bb
       0.0037600219 -0.0007987396 -0.0027768498 -0.0033654093
0000b0 92 c8 bc 3b bc 25 7e 3b 40 a3 79 bb 10 30 2c bb
       0.0057612145 0.0038779816 -0.003809169 -0.0026273765
0000c0 cc 17 c6 bb d1 54 d5 bb 45 2f 52 3b 34 35 c8 ba
       -0.0060453173 -0.006510355 0.0032071632 -0.0015274645
0000d0 21 10 64 ba 1d 60 07 3b 4e 69 e0 b8 19 08 9f 3b
       -0.0008699913 0.0020656653 -0.00010700767 0.0048532602
0000e0 5f 28 c6 3b 40 d9 83 bb 2f fa 9d 3b 10 0d c4 3a
       0.006047293 -0.004023701 0.004821084 0.0014957506
0000f0 f1 df 98 3b d5 76 a2 bb 0a 96 4e b9 e9 dc e5 ba
       0.004665368 -0.0049580135 -0.00019701585 -0.001753715
000100 ef ef c8 3a 5d 3a 7c 3b df 1f 88 3b 88 d4 fd 3b
       0.0015330295 0.0038486936 0.00415419 0.007746283
000110 2e d4 1c bb ca 25 b4 3b a5 21 88 3b 0f e5 6c 3b
       -0.002393018 0.005497669 0.0041544014 0.0036147272
000120 30 ee a9 3b fd 7f c1 3a 1b 92 d7 3b 2b 67 da ba
       0.005185865 0.0014762875 0.0065786964 -0.0016662827
000130 66 e9 b7 3b c6 16 83 bb ba f8 aa bb 15 d1 b5 3b
       0.00561254 -0.0040005175 -0.005217639 0.005548606
000140 dd 1e b7 3b f0 32 0b 3b 72 6b b9 3b d0 b1 8e bb
       0.005588396 0.0021240078 0.0056585604 -0.004354693
000150 e0 31 a0 bb 56 b4 67 3b 56 35 06 ba 43 d7 2f 3b
       -0.004888758 0.0035355291 -0.0005119642 0.0026831187
000160 00 c6 e0 b9 4d a6 66 bb b1 6d 44 bb 73 27 8b bb
       -0.0004287213 -0.0035194338 -0.0029972608 -0.004246646
000170 bd 3b bf 3b 68 a9 b2 3b bf 1e 17 3b af dc 93 bb
       0.005835979 0.0054523237 0.0023059098 -0.0045123915
000180 3e da 4d 39 c5 42 c5 3b 21 33 3b bb 78 a4 b6 bb
       0.00019631625 0.0060199224 -0.002856441 -0.0055738054
000190 e4 23 3b 3b 2b c6 c5 3b 64 56 90 bb 59 9b 71 bb
       0.0028555328 0.0060355864 -0.00440483 -0.0036866276
0001a0 38 70 c3 ba c7 b5 b4 bb 3f 76 6e bb 8b 4a 58 bb
       -0.0014910763 -0.0055148336 -0.0036386398 -0.0033003415
0001b0 14 a6 64 3b ae 8d 43 3b 55 a4 25 3b 29 b3 7f 3b
       0.003488903 0.0029839086 0.0025274951 0.00390167
0001c0 6b ce 67 3b fd 27 ad 3a cc 58 be ba fd 7d 52 bb
       0.0035370837 0.001321077 -0.0014522313 -0.0032118552
0001d0 34 2f 45 3b 65 4f 44 3b a1 7c 11 bb 86 e4 75 bb
       0.003008795 0.002995455 -0.0022199529 -0.0037520244
0001e0 22 54 66 bb 2b 88 73 bb 9f 17 8e bb 0c 90 81 39
       -0.0035145362 -0.003716002 -0.004336312 0.0002471212
0001f0 c5 67 b5 3b be 26 d5 ba 3b 9c 03 bb d7 e9 7a 3b
       0.005536052 -0.0016262156 -0.0020082134 0.0038286352
000200 0d 3c 81 3b 51 5c 24 39 e0 41 68 bb 89 3c 61 bb
       0.003943926 0.0001567465 -0.0035439655 -0.0034368357
000210 22 75 35 3b e8 7f 0c bb ad 99 59 3b 94 32 e0 3b
       0.0027688225 -0.0021438543 0.003320317 0.006841967
000220 75 0b b8 3b 10 cc cf ba 19 b0 ce ba 59 57 d2 3a
       0.0056166 -0.0015853662 -0.0015769034 0.001604776
000230 7b 6a b8 3b 5c 5c ce 3a 8d 03 84 bb 9e b2 1a bb
       0.005627928 0.0015744078 -0.0040287436 -0.0023605
000240 65 c2 76 bb 98 c5 a4 3b 5f 5d d4 3b f3 be d3 ba
       -0.003765249 0.005028438 0.0064808573 -0.001615493
000250 12 83 96 3b 21 a6 b5 3b 52 c3 a8 3b 86 b7 ac 3b
       0.0045932615 0.0055434857 0.005150237 0.005270901
000260 41 c0 75 bb 4f 84 4f 3b ce b4 1b 3b f0 20 c6 bb
       -0.0037498625 0.0031664555 0.002375889 -0.006046407
000270 54 9a e0 ba 68 fb ea 3b 6c 05 aa 38 d5 ba 68 bb
       -0.0017135837 0.0071710832 8.1072416e-05 -0.0035511751
000280 e7 be ee bb 1a 76 71 3b 87 a2 62 bb 24 2f 97 3b
       -0.007285941 0.0036844076 -0.0034581737 0.004613774
000290 65 06 3f 3b 6c f1 98 3b 82 e7 cc 3b cb ce 94 ba
       0.0029148099 0.0046674516 0.006253184 -0.0011353133
0002a0 7e 69 dc b9 f8 3a b8 39 45 d9 fb 3a fe d1 82 3b
       -0.00042040268 0.0003513915 0.0019214532 0.003992318
0002b0 a7 1c 49 3b da 4d c5 3a 76 73 7c 3b 90 f9 ac 3a
       0.0030687244 0.0015053109 0.0038520969 0.0013196934
0002c0 10 50 d3 3b d4 0f bb 3a 2c d3 e9 bb 77 ef 0a bb
       0.006448753 0.0014271685 -0.0071357694 -0.002119986
0002d0 44 93 6a 3b d0 b5 3a bb 3d 28 82 bb 32 a6 d4 3b
       0.0035793344 -0.0028489716 -0.003972082 0.0064895386
0002e0 9e 14 52 ba ec d9 5a 3b 6a 5b 4e bb a6 24 af bb
       -0.00080139365 0.0033394052 -0.0031487592 -0.005344945
0002f0 84 4c 74 bb 69 c1 49 3b f0 4d f2 3b 60 e6 19 bb
       -0.0037277052 0.0030785447 0.007394545 -0.0023483261
000300 42 df 90 bb 8b 09 1e bb da 94 33 bb 73 53 be 3a
       -0.0044211457 -0.0024114575 -0.0027401955 0.0014520719
000310 0e 1d 09 bb d4 6f 0e bb da 8a 62 3b 04 37 15 ba
       -0.002092186 -0.0021734135 0.0034567625 -0.0005692097
000320 86 8d 94 bb 41 9d 88 bb 49 71 69 bb 7b f3 bb ba
       -0.0045334725 -0.0041691368 -0.0035620502 -0.0014339531
000330 f9 26 a8 3b 02 c9 cc 3a b3 7a 58 bb f9 53 95 3b
       0.005131599 0.001562387 -0.0033032119 0.0045571295
000340 a0 8e cf ba de a1 1f ba 07 ff bf 3b ab 44 7d 3b
       -0.0015835352 -0.0006089489 0.005859259 0.0038645666
000350 2c 26 94 bb 5a 4d bb 39 16 f4 a6 b9 a5 3d 58 b9
       -0.004521152 0.0003572505 -0.00031843845 -0.0002062233
000360 86 20 5e 3b 2f df 20 ba 30 df 01 3b dc b4 bd ba
       0.0033893897 -0.00061367726 0.0019816868 -0.0014473456
000370 18 23 c1 3b 1b cc 82 3b 71 fb 9c 3a cb ed 80 3b
       0.005894076 0.0039916164 0.0011976791 0.003934597
000380 0c 53 5f bb 55 16 6e 3b 2d 3e 53 3b d0 3d 99 3a
       -0.00340766 0.003632923 0.0032233105 0.0011691395
000390 4b b7 7a 3b 98 33 a7 bb 58 0f c5 3b 3a e0 be bb
       0.0038256224 -0.005102586 0.006013792 -0.0058250697
0003a0 dc c5 ad bb 00 68 80 bb 92 f9 80 3b 6c 69 72 bb
       -0.0053031277 -0.0039186478 0.003936001 -0.0036989106
0003b0 b4 56 95 3b 25 a1 c8 b9 e6 38 8d bb e1 ef 2d 3b
       0.004557455 -0.00038267035 -0.0043097613 0.0026540684
0003c0 9b 0f 83 bb 5b 73 33 3b 35 01 1f 3b ad 6a ac 3b
       -0.003999663 0.002738199 0.0024262194 0.00526174
0003d0 68 99 21 3b 72 27 b6 3b 9d fc 82 bb 8e 96 a1 3b
       0.0024658088 0.0055589015 -0.003997399 0.0049312776
0003e0 8a 82 93 3b b8 6c 0c 3b f2 a7 81 3b 86 28 3f ba
       0.0045016455 0.0021427106 0.003956788 -0.000729211
0003f0 00 54 b3 3b 39 35 d0 bb fe 6c e7 3a 15 0b 21 3b
       0.00547266 -0.006354001 0.0017656384 0.0024573256

network_body._body_endoder.seq_layers.0.weight f4 [256, 55]
000000 a3 f3 05 3e 76 34 a5 3d 9a 24 95 bd 0a d2 7f be
       0.13081221 0.08066647 -0.07282372 -0.24982467
000010 06 de 2f bd 2b 3a 07 be 9f 90 db bc 95 78 b3 3c
       -0.042936347 -0.13205783 -0.02680236 0.021908084
000020 25 10 09 bd 46 25 1b 3e 13 c0 24 3e e2 6d 95 bd
       -0.033462662 0.15150937 0.16088895 -0.07296349
000030 a9 89 71 bd 10 b4 7e bb cc 1f 8d 3e 0a ad b8 3d
       -0.058969174 -0.003886465 0.27563322 0.090173796
000040 6b 2c 48 3a db 39 16 3e c1 e5 a3 3d f6 a0 81 3e
       0.00076360133 0.14670508 0.080028065 0.25318116
000050 5f 94 16 3e 28 95 89 bc 20 3f ae bd db 2d 28 be
       0.14705037 -0.016794756 -0.08508134 -0.16423742
000060 68 ea 1c be 21 3f 76 be 9e ff 8c 3e d5 2b 53 bd
       -0.15323794 -0.2404752 0.2753877 -0.051555473
000070 60 f9 b5 3a 51 57 53 3e 7f 05 4a 3c d3 0c bd 3d
       0.0013883524 0.20638777 0.012330412 0.09230962
000080 ba cf 5d bd 28 34 88 3b f4 bc 83 3d 0a 95 25 be
       -0.05415318 0.004156608 0.06432524 -0.16170135
000090 ee 49 3a 3c 61 64 65 3e 0d 50 03 3c 63 4d 13 be
       0.011370165 0.22401573 0.008014691 -0.1438499
0000a0 e3 d5 da bd b7 aa 06 bd be 03 3d 3c 86 d3 fd 3d
       -0.10685327 -0.03287765 0.011536537 0.123938605
0000b0 21 4f 69 3e c1 7d ca 3d 7f b4 1a 3e f2 46 5f be
       0.22784092 0.09887267 0.15107916 -0.21804407
0000c0 2c 08 30 be 64 35 7e 3c c5 20 95 3c d5 2c 67 3d
       -0.17190617 0.015515659 0.018204102 0.05643924
0000d0 3c 36 66 bd 8a 13 26 3e 9b 0c 16 3e 4b 5c 31 3e
       -0.056204066 0.16218391 0.14653246 0.17320363
0000e0 eb 1d 80 bd 52 35 93 3d cb 7d f3 bd 90 35 a2 be
       -0.062557064 0.071879044 -0.118892275 -0.3168149
0000f0 86 9a 4a be 6d 65 ff 3d ac 2a 2a 3d 63 7a de bd
       -0.19785509 0.12470517 0.0415446 -0.10863187
000100 16 f2 8c bd 1a df 16 be f9 f4 d6 3c 2a ed ba 3d
       -0.06882112 -0.14733544 0.026239859 0.09127267
000110 a6 68 c5 3d 18 10 b0 3d ab 04 a0 bb 2d b7 c1 be
       0.09639101 0.0859682 -0.004883369 -0.37835065
000120 60 32 13 be 8a 96 cf bd 89 85 f9 bd e4 d5 24 bc
       -0.14374685 -0.10136135 -0.12183673 -0.010060761
000130 bf 61 6c be c7 39 00 be 1d df 89 bd 6e f2 c0 bd
       -0.23084162 -0.1252204 -0.067320086 -0.0942124
000140 80 27 68 3e 77 37 bb 3d 6c bc b6 3b 0b e6 82 be
       0.22671318 0.091414385 0.005576661 -0.25566134
000150 50 af 4a 3d 88 e6 0f be 9a 8b b5 3d b2 60 8e bd
       0.049483597 -0.14052784 0.088645175 -0.06952037
000160 d4 c4 33 3c c1 7f 06 3e 2b b6 aa 3d cb 7f c3 bc
       0.01097222 0.13134672 0.08335527 -0.023864647
000170 eb 18 a9 bd 92 1f 44 3d 1f 4b 7a be 71 c6 cc bd
       -0.08256706 0.04788167 -0.24442719 -0.09998787
000180 80 a1 35 be 0a 60 51 be 2b 38 32 3d 5a d6 b2 3d
       -0.17737389 -0.20446792 0.043510597 0.087322906
000190 40 ff 57 bc 39 47 b7 3c 4d f7 43 3e 93 83 58 3e
       -0.013183415 0.022372829 0.19137307 0.21143942
0001a0 ff b7 82 bd 46 1f 88 be 83 07 5e be 21 b1 72 3e
       -0.06382751 -0.2658636 -0.21682553 0.23700382
0001b0 9c 1d a4 bc a7 0b 88 bd 19 8a 95 3b 6c e9 6a 3e
       -0.02003365 -0.066428475 0.0045635817 0.22940606
0001c0 4f e4 58 3d 05 0e 10 bd ec 22 6a 3d d4 e9 09 be
       0.052952107 -0.03516962 0.05716221 -0.13468105
0001d0 b8 45 26 3c 1a 9b b0 bc 70 df 5d 3e ec 60 da bd
       0.010148458 -0.021558333 0.21667266 -0.10663018
0001e0 ba 12 54 3d fb a3 cd 3e e0 a6 20 be 77 08 d7 bd
       0.05177567 0.4016417 -0.15688658 -0.104996614
0001f0 60 82 ec 3d db ab 1e bd d6 fd d0 3b b4 3a ae 3d
       0.115483046 -0.038738113 0.006377916 0.085072905
000200 ad 02 21 3e f9 83 3f be 79 5e 96 bd 20 20 c4 bc
       0.15723677 -0.18702687 -0.07342238 -0.0239411
000210 04 86 50 be 39 3e a2 3d 0d 2a 2a be 70 9d 27 bd
       -0.20363623 0.07922024 -0.16617604 -0.04092163
000220 31 fd 9d bd be 72 04 be 9e 3f dc 3d e7 f6 9a 3d
       -0.07714308 -0.12934396 0.107543215 0.07566624
000230 72 47 3a bd 1c c5 79 be 94 a7 95 bb 76 b2 a2 3d
       -0.04547829 -0.24391598 -0.004567096 0.07944195
000240 11 a7 0b 3e 89 e8 96 3d 51 ee cc bd 23 c7 50 3d
       0.1363795 0.07368571 -0.10006393 0.05097116
000250 e0 46 ff bd 7d 8e 07 3d ac ca 33 3d c5 01 88 bc
       -0.1246469 0.03309487 0.043894455 -0.016602406
000260 a6 2f 79 be 89 16 27 3c 26 65 bd bc 68 8e 58 3e
       -0.24334583 0.010198244 -0.02311952 0.21148074
000270 6c b4 89 3d 30 19 98 bd 7e be ec bd 44 1c e1 bd
       0.06723866 -0.07426679 -0.11559771 -0.10991719
000280 e6 b9 d7 3d a6 fc 9a 3e 37 37 8e 3c 20 d6 cc bb
       0.10533504 0.3027088 0.017360313 -0.0062511116
000290 e9 09 63 bd 79 35 90 3d 3f 33 8f bd c5 ca 9e bc
       -0.055429373 0.07041449 -0.06992196 -0.019383797
0002a0 7a 14 ea bc 1e 45 21 be 64 fa 9e bd e6 5e 56 3d
       -0.028574217 -0.15749022 -0.07762602 0.052336596
0002b0 a8 d5 92 3d ed dc 0b 3d 73 2e fc 3d 44 5f bf bd
       0.07169658 0.034146238 0.12313547 -0.09344342
0002c0 f2 39 40 3e 21 77 26 bc 66 99 8e 3e a3 dd 71 3e
       0.18772104 -0.0101602385 0.2785141 0.23619704
0002d0 10 4e 19 be 50 12 de 3c ba cb 12 3e bb 6f 1d 3e
       -0.14971185 0.027108341 0.14335528 0.15374653
0002e0 89 55 b6 3d 12 18 05 3e b9 24 52 bd 48 f3 72 3e
       0.08903033 0.12997463 -0.051304553 0.23725617
0002f0 47 d6 97 be 8f f4 a1 bd 7c 0e 65 bd 01 c0 4c 3e
       -0.29655668 -0.07907974 -0.055922017 0.19995119
000300 11 ef 20 3e 25 89 a2 bc 61 6f b3 bd 99 ab 35 bc
       0.15716197 -0.019840786 -0.08761478 -0.011088275
000310 ea 59 f4 bc 79 34 1f 3e b1 af 49 bd a9 99 08 3e
       -0.02982803 0.1554736 -0.049239818 0.13339867
000320 ed 05 57 be 1f d0 7f 3e cd 65 52 3b 37 76 ef bd
       -0.20998354 0.24981736 0.0032104135 -0.116924696
000330 57 6d e8 bd a8 65 7a 3e 7b 4f 25 3d 9d a6 aa bd
       -0.1134898 0.24452841 0.040359 -0.0833256
000340 8b dd a2 3d 8a 64 61 be e8 ac 18 3e 68 77 e6 bd
       0.07952412 -0.22011009 0.14909708 -0.11253244
000350 9c 05 55 bb 04 64 c8 bd 94 b6 5e 3d b9 01 08 bc
       -0.0032504564 -0.097847015 0.05437334 -0.008301192
000360 ac 01 d3 bd b2 7d b5 ba 3a 9f 8b bc 33 3e 0b 3e
       -0.10303053 -0.0013846664 -0.017043699 0.13597946
000370 cc 40 8a 3d 73 6f 9e 3e 8d ab 17 3e 2a 96 d0 bd
       0.0675064 0.30944404 0.14811535 -0.101848915
000380 29 ba 0c be 68 98 31 3d 42 aa d6 3c fe e8 98 3d
       -0.1374289 0.043358237 0.026204232 0.07466315
000390 0a 7c 8d bd 81 a2 a3 bd e7 df 5c bd c2 bb 7d bd
       -0.06908424 -0.079899795 -0.053924467 -0.061946638
0003a0 23 12 8a bd 17 d6 12 3e 96 a7 37 3e 2f 32 76 bd
       -0.067417406 0.14339481 0.17935023 -0.060106453
0003b0 04 62 6d be f9 62 e1 bd 07 4f 14 3e 31 3b 77 bd
       -0.23181921 -0.11005206 0.14483272 -0.060359184
0003c0 50 83 90 bd da 1b ad 3d 81 0e ba 3d d3 1e 7b 3d
       -0.07056296 0.08452578 0.09084798 0.061308693
0003d0 3e d4 43 3e 86 b7 b2 bd 17 00 30 3d 5e 27 d7 3d
       0.19123933 -0.087264106 0.042968836 0.105055556
0003e0 7c a7 1c be 42 c1 b5 bc c0 72 50 3e 96 e6 84 bc
       -0.15298265 -0.022186879 0.20356274 -0.016223233
0003f0 d0 26 10 be 5c 20 2b bd bb b1 d3 bd 5b cd 9d 3d
       -0.14077306 -0.041778907 -0.10336634 0.07705184

network_body._body_endoder.seq_layers.2.bias f4 [256]
000000 b1 12 6f 3b af c7 68 ba b3 07 aa bb fb ce c6 3a
       0.0036479647 -0.0008879853 -0.005188906 0.0015167886
000010 37 bc f0 b8 5d c3 a7 3b 40 28 19 ba 85 54 f6 3a
       -0.000114791495 0.0051197247 -0.00058424845 0.0018793499
000020 b9 cc 61 bb bb c5 aa 39 e5 37 9f bb 45 09 70 3b
       -0.00344543 0.00032572247 -0.004858958 0.0036626619
000030 29 88 a7 b9 f0 06 b7 bb 7a 50 c5 3b 49 aa 20 bb
       -0.0003195417 -0.005585544 0.0060215564 -0.002451556
000040 e2 1d 34 3b 46 a5 28 bb f5 a6 0b bb 98 81 df 3a
       0.0027483632 -0.0025733276 -0.002130923 0.0017052172
000050 f8 4b 01 3b 8f 11 4d bb 95 39 75 bb dd 0d 16 39
       0.0019729119 -0.0031290983 -0.0037418355 0.00014310279
000060 72 97 34 3a 99 e3 75 bb d8 ba 65 3b ee 2e 9a 3b
       0.0006889022 -0.0037519692 0.0035053995 0.0047053015
000070 98 b8 8c bb 5d 3f a8 3b 80 53 31 ba 34 01 01 3b
       -0.004294466 0.0051345066 -0.00067644566 0.0019684555
000080 40 ac b7 3a a6 22 41 bb 58 a1 3c 3b 78 65 af bb
       0.0014013126 -0.0029470115 0.0028782692 -0.005352672
000090 41 ba 93 bb 81 32 85 3b 3d 86 81 bb dc a2 a7 3b
       -0.004508287 0.0040648584 -0.00395277 0.00511585
0000a0 ee e8 29 3b 1c 86 71 3b 5c b6 a3 bb 1a 59 a2 bb
       0.002592619 0.0036853617 -0.004996104 -0.0049544694
0000b0 e7 2c e0 ba f4 1b c5 ba bd aa 91 3b 28 e1 ce ba
       -0.0017103226 -0.0015038238 0.0044454024 -0.0015783655
0000c0 48 1c 9a bb 46 95 63 3b c9 db c5 3a d3 bf f5 3b
       -0.0047030784 0.0034726425 0.0015095408 0.007499674
0000d0 3d 82 a6 3b 8d 8e 82 bb e3 e1 88 bb 5e d8 ff 39
       0.0050814436 -0.0039842785 -0.0041773184 0.00048798596
0000e0 b3 f8 46 3b e6 59 a8 ba 8a 4d 9e 3b ee c2 31 39
       0.0030360639 -0.0012844175 0.0048310207 0.00016952652
0000f0 cc b2 59 3b 69 1a 79 ba 72 b7 87 3b fc e7 95 bb
       0.0033218144 -0.00095025316 0.0041417414 -0.004574774
000100 8d e3 c0 bb 3e eb 0b 3b 7a a7 96 bb be 58 87 3b
       -0.005886501 0.0021349932 -0.0045976015 0.004130452
000110 df 12 08 bb d7 f4 25 bb 63 f8 be 3b b6 87 60 bb
       -0.0020763201 -0.0025322938 0.00582795 -0.0034260578
000120 56 f7 02 bb bb 82 b5 3b 4f 4e 87 3b a9 c5 67 bb
       -0.001998385 0.005539266 0.004129208 -0.0035365617
000130 9d ca 5e bb 90 53 e9 3a fe 8b a4 3a 3e c8 17 3b
       -0.0033995279 0.0017801393 0.0012553928 0.0023160125
000140 42 46 92 bb fe c5 4e bb ed 7b 6c bb f1 f5 33 3b
       -0.004463942 -0.0031551118 -0.0036084608 0.0027459825
000150 62 cc 87 3b 0b cc 8a bb a0 bb 05 bb eb ed c4 3b
       0.0041442374 -0.0042357496 -0.0020406023 0.0060098073
000160 58 7e 9c 3b 49 55 9a bb bd b4 b4 3b 0a 66 73 bb
       0.0047758035 -0.004709874 0.0055147097 -0.0037139677
000170 65 8d 41 3b fa 39 59 3b 0b be 03 3b b1 b4 65 3b
       0.002953374 0.003314613 0.0020102288 0.0035050327
000180 65 34 50 3b c8 be ab bb 05 e0 8a 3b ec 08 a4 bb
       0.003176951 -0.0052412488 0.004238131 -0.0050059464
000190 3c 5d a2 b9 e5 9e 91 3b ff e8 8a 3b 19 71 b2 3b
       -0.00030968513 0.0044439905 0.004239201 0.005445611
0001a0 74 c1 93 bb 20 b5 b3 3b 53 a2 04 bb 55 67 a4 bb
       -0.0045091454 0.0054842383 -0.0020238354 -0.005017201
0001b0 96 7b f6 3a df ec a6 bb 21 2d 2b bb 10 d0 3a 3b
       0.0018805142 -0.005094155 -0.0026119428 0.0028505363
0001c0 5e a8 93 bb 04 1c 11 3b 3c e9 95 ba 72 73 45 bb
       -0.004506155 0.0022141943 -0.0011437307 -0.0030128625
0001d0 d7 1e 75 bb 11 5c 2f bb 76 64 77 3b 16 46 4c 3b
       -0.0037402415 -0.0026757757 0.0037749088 0.0031169704
0001e0 04 fd b4 3a fa 64 95 3b bf f9 f5 38 2d c5 90 bb
       0.0013808315 0.0045591565 0.00011729029 -0.0044180364
0001f0 65 b6 82 bb d8 c3 9d 3b 68 e6 a0 3b 85 31 9d 3b
       -0.0039890283 0.004814606 0.004910279 0.004797163
000200 75 70 94 3b 53 c8 a4 3b 77 6d 45 3b 64 a6 74 b9
       0.0045300075 0.0050287633 0.003012506 -0.00023331639
000210 f6 98 91 bb 9f e4 d6 3b 38 f0 8b 3a 0b 17 e6 ba
       -0.004443283 0.0065580155 0.0010676449 -0.0017554475
000220 a2 99 5c 3b c9 ac 9f bb ba 4d c3 39 a6 7c 7d bb
       0.0033660908 -0.0048728925 0.0003725121 -0.0038679033
000230 22 c8 36 3a 2a 9d 59 3b 5f 0c 9c 3b 6d 40 87 3b
       0.0006972571 0.003320525 0.004762217 0.004127553
000240 55 57 57 3b 8f 28 8f bb a6 de 7c bb b0 e2 4b bb
       0.003285845 -0.0043688486 -0.0038584857 -0.0031110458
000250 ea 01 9c b8 56 d7 25 3b 9a 20 c3 3b 87 4a 6c 3b
       -7.439016e-05 0.0025305352 0.005954814 0.0036055164
000260 5b 6f 66 bb 4f 82 b6 3b b5 79 95 bb 34 bb 96 3b
       -0.0035161588 0.005569733 -0.0045616277 0.004599953
000270 35 c6 9f 3b 40 82 6e bb 5c b9 9f ba 82 a8 7e bb
       0.004875923 -0.0036393553 -0.0012185979 -0.0038857763
000280 c2 28 8e bb 10 a0 88 3b ab 37 85 39 4f 82 2c bb
       -0.004338355 0.0041694716 0.00025409213 -0.0026322787
000290 6f 9f 86 3b 7a 63 9c 3b 7a fb 30 bb dd dd 81 3b
       0.0041083614 0.0047726007 -0.002700536 0.0039632157
0002a0 75 b2 42 bb 28 ed 39 3b 3d d8 6d bb 63 67 ae 3b
       -0.002970842 0.0028370116 -0.0036292218 0.0053223833
0002b0 a5 b8 4b ba 90 94 a8 3a b1 d2 b8 bb f8 a3 6f 3a
       -0.00077713496 0.0012861658 -0.0056403507 0.000914156
0002c0 d0 4e 9c 3b 9f fb ba 3a ae 4a 71 bb 34 0b a7 3b
       0.0047701374 0.0014265663 -0.0036818194 0.005097771
0002d0 27 2d 30 3b 9a a1 9e bb 90 30 24 bb a3 ff 63 bb
       0.0026882382 -0.0048410418 -0.002505336 -0.0034789823
0002e0 7c 93 46 3b 33 4d ae 3b 5f 70 2b bb 19 dd 88 bb
       0.003030031 0.0053192615 -0.0026159508 -0.0041767475
0002f0 fc 97 85 bb 96 cf 11 3b a5 5f 86 3b 2b 2e 78 3b
       -0.004076956 0.0022248975 0.004100757 0.0037869315
000300 b6 6d 94 bb 47 33 91 bb e6 6f 53 3b 16 cb b4 3b
       -0.00452968 -0.0044311616 0.0032262742 0.005517374
000310 8a 02 8e 3b a9 16 43 bb 38 bf 9d 3b e5 7c 55 bb
       0.004333799 -0.0029768145 0.004814055 -0.0032575664
000320 42 1f a3 3b d0 04 af 3b 06 56 a5 b9 86 fa f2 ba
       0.0049780915 0.00534115 -0.00031535345 -0.0018537797
000330 ba 66 83 3b 5d 36 86 3b d7 8b 16 3b b4 58 9d 3b
       0.0040100487 0.004095836 0.0022971535 0.004801834
000340 b4 d4 f7 3a 2e 96 b9 3a f9 00 a5 3b ce af 89 bb
       0.0018907995 0.0014159137 0.0050355163 -0.0042018658
000350 c0 d3 21 bb 1f d6 8d 3b cb f9 1f 3b 17 8f 86 3b
       -0.0024692863 0.0043285037 0.0024410363 0.004106413
000360 10 06 a0 3b a6 6b a5 bb 65 16 5c bb 74 37 88 3b
       0.004883535 -0.005048233 -0.0033582684 0.004157001
000370 0c 44 a2 3a e4 80 94 bb 94 dd ba 39 76 65 33 3b
       0.0012379899 -0.0045319665 0.00035641773 0.0027373708
000380 99 28 4c bb f9 a0 7f bb 6f c8 92 bb d0 80 1b ba
       -0.0031152128 -0.003900586 -0.00447946 -0.00059319753
000390 ae db 9f 3b 25 7f 83 3b 5f 99 1f bb 27 a3 b2 3a
       0.004878483 0.0040129595 -0.002435289 0.0013628945
0003a0 13 76 b3 3b b8 25 8d 3b ae 8a 8a 39 f3 40 6b bb
       0.005476722 0.004307475 0.00026424736 -0.0035896867
0003b0 e1 2e 8e bb af 71 23 ba 0a 47 13 3b 95 dc 07 ba
       -0.0043390845 -0.0006234897 0.0022472763 -0.00051827106
0003c0 da 36 41 3a 38 99 e5 ba f3 f4 9a bb e2 6a be 3b
       0.0007370539 -0.0017516976 -0.0047289073 0.0058110813
0003d0 82 7d f0 b7 f3 31 8d bb d1 49 93 3a 96 82 03 39
       -2.8668674e-05 -0.004308933 0.0011237209 0.0001254178
0003e0 4e 89 5b bb 3e 51 91 bb ad 2a 56 bb 01 bf ab 3b
       -0.0033498588 -0.0044347337 -0.0032679245 0.0052412753
0003f0 5c 3e 8a ba ce 44 93 b7 79 a9 47 3b d2 a5 73 bb
       -0.0010547149 -1.7555805e-05 0.0030466004 -0.0037177694

network_body._body_endoder.seq_layers.2.weight f4 [256, 256]
000000 23 33 38 3d f6 2f 26 3c ca d8 89 3d a1 92 f7 3c
       0.044970643 0.010143271 0.06730802 0.030221285
000010 ab 06 9e bc 8c 19 2b bd e0 53 91 3d 03 05 2a 3d
       -0.019290289 -0.04177241 0.07096076 0.041508686
000020 6b f9 6b 3d da f4 d8 bd b9 69 a2 bc cb 8e 9e bd
       0.05761091 -0.10593577 -0.019825803 -0.07742079
000030 0b 50 fd bd ab c8 c5 bb 5e 3f 31 bd 6e 25 79 3d
       -0.123687826 -0.0060358844 -0.043273322 0.06082671
000040 74 b0 97 3d 2d e6 bd bc 37 3a 3a bd c1 68 e5 3b
       0.07406703 -0.023181045 -0.045465674 0.007001013
000050 b1 e2 fc 3d 4b a5 af 3d 2b ad 06 bb 54 cf 7c bd
       0.123479255 0.08576449 -0.0020549993 -0.06172116
000060 44 8b 25 3d ec 45 c7 bc 91 f4 62 bb 27 70 93 bd
       0.040416017 -0.024325334 -0.0034630636 -0.07199126
000070 63 ad 80 3d 4e 79 4a bd 00 5a dc bc e8 fa 09 bd
       0.06283071 -0.04943209 -0.026898384 -0.03368655
000080 d6 3d 78 bd b2 9b 76 bd 92 e7 a1 3b a8 00 0b bd
       -0.060605846 -0.060207076 0.0049409354 -0.033936173
000090 3e c5 15 be 5d fa 6c bd b7 36 a9 bc b3 96 8e bc
       -0.14626023 -0.057855953 -0.020655973 -0.017405843
0000a0 e6 cd 61 3d 89 13 78 3d 3c 47 02 3d 28 c7 7b bd
       0.055128 0.060565505 0.031806216 -0.061469227
0000b0 12 cc 96 3d ee 02 4f 3c cf 19 d1 bd 37 1c 4a bd
       0.07363142 0.012634976 -0.10210001 -0.049343314
0000c0 f8 17 3e 3b 18 30 93 3b b7 e9 4e bd 6d c4 a9 3c
       0.0029005986 0.004491817 -0.050515857 0.020723546
0000d0 42 51 49 3d 76 c3 82 3c 61 67 57 3d cc 30 a7 bc
       0.04914976 0.015962344 0.052588824 -0.02040901
0000e0 e0 f6 fc bb 57 8b ac bd 00 dd 66 3d ba 62 cf 3d
       -0.0077198595 -0.084250145 0.056363106 0.101262525
0000f0 02 e0 c8 bd 1f 7b 29 3d 61 3d e3 bb 90 d0 b0 3c
       -0.09808351 0.041377183 -0.006934807 0.021583825
000100 c0 6e 55 3d e5 3a fd 3b 8c 1a fc bc dd 0d f5 3b
       0.052107573 0.007727968 -0.030774377 0.0074784593
000110 d6 a5 1b bd 4a 42 07 3e c9 ce d5 3c 5f e3 cc 3d
       -0.03799995 0.13208881 0.02609958 0.10004305
000120 90 47 2d bd d4 96 e8 3c 40 c8 38 3b 30 57 46 3d
       -0.042304575 0.028392233 0.002819553 0.048422992
000130 e0 58 90 3d 5c 5f 53 bd 8e 55 89 ba 05 0a 42 3c
       0.070482016 -0.051604614 -0.0010477768 0.011843209
000140 6b 4b 90 3d 27 da fb 3d f9 d0 14 bc ba ec 83 bc
       0.07045635 0.12297469 -0.009083026 -0.016104091
000150 c1 03 9c 3d 13 cf 82 bd cf e9 64 3c ab c5 0b 3d
       0.076179035 -0.063871525 0.01397176 0.034124058
000160 41 26 1c 3d bb 30 03 be 55 f0 5e 3b 35 90 09 bd
       0.03812242 -0.12811558 0.003401776 -0.033584792
000170 35 72 66 bd 1f c8 19 3c 51 92 1e 3d 01 8e 1b bd
       -0.05626126 0.0093860915 0.038713757 -0.037977222
000180 be 75 7b bd 86 20 c4 3c 8f 04 19 3c a9 b8 be bc
       -0.061391585 0.02394129 0.009339466 -0.023281412
000190 f2 a1 6f bd b2 52 ee 3c 63 6a 3a bd 63 6c 53 3d
       -0.058504052 0.029092167 -0.045511615 0.051617038
0001a0 a2 28 d8 3d e8 10 80 3d ee 15 87 3c 75 9a 44 3d
       0.10554625 0.062532246 0.01648995 0.047998864
0001b0 50 b5 27 3d 28 9a c0 3d b4 40 b4 bc 1e 84 bc bb
       0.040944397 0.09404403 -0.02200351 -0.0057530543
0001c0 b1 ff 98 bc 50 d6 fc bb 88 62 88 bb d4 0b 1b bd
       -0.01867661 -0.0077159777 -0.0041621365 -0.037853077
0001d0 87 71 48 bb b3 91 8a bd b4 7c 4f bd 6c bd 49 bd
       -0.0030585246 -0.06766071 -0.050656036 -0.049252912
0001e0 96 42 8b 3c 06 fb aa 3d fc 02 88 bc 4b d2 5f 3d
       0.016999524 0.0834866 -0.016602986 0.05464391
0001f0 cd d6 6a bd 64 53 10 be cd bd 61 bc 64 cf d2 bd
       -0.057333756 -0.14094311 -0.013778162 -0.10293463
000200 5b 02 7c 3b 57 4b 77 3c cd 5f 47 bd 12 fa 88 bd
       0.0038453552 0.015093646 -0.048675347 -0.06688322
000210 75 0c 14 3c 6a a9 8e ba 5a e0 96 3d 93 94 96 3d
       0.009036173 -0.001088423 0.073670104 0.07352557
000220 8a b3 fa 3d 7e 17 bb bd 75 fa c7 bc d5 ef 21 bd
       0.122412756 -0.0913534 -0.02441142 -0.039535362
000230 28 bd c1 3b 8a 04 d3 3d 66 6b b1 3d 3e 76 9c bd
       0.0059124418 0.103036 0.08663063 -0.076397404
000240 c6 91 d7 bd b3 ec d0 3b 39 c7 b6 3c 0d 7c c9 3c
       -0.10525851 0.006375873 0.022311794 0.024595285
000250 da e8 e7 3c bf db b5 bd ea 16 26 3d b9 75 b9 3d
       0.028309274 -0.08879804 0.040549196 0.09055657
000260 6d 85 75 3c bd 7a 5b bc b3 de d1 3c 28 48 37 bd
       0.0149854245 -0.013395962 0.025618887 -0.044746548
000270 2c 2c af bd ab da 92 3d 85 06 37 3c 80 df a4 bd
       -0.08553347 0.07170614 0.011170988 -0.08050442
000280 76 fa 7e bd 9a a4 1d 3c 42 b0 21 3d 48 f5 3b bd
       -0.062250577 0.009621764 0.039474733 -0.045888215
000290 8b 46 f1 3c 90 78 c5 bc aa 82 9b bd 71 db cf 3d
       0.029452583 -0.02410534 -0.075932816 0.10149277
0002a0 df ce 41 3d 12 5b 6f bd f4 32 01 bd 84 c8 6f 3d
       0.04731643 -0.05843646 -0.031542733 0.058540836
0002b0 51 c3 a6 3d 48 52 0a be 28 69 f0 3a 5f da 16 3d
       0.081427224 -0.1350795 0.0018341886 0.03682935
0002c0 5a 62 c3 bc ba c3 90 bc 9c 64 c2 3c 2b 09 2e 3c
       -0.023850609 -0.017671455 0.023729615 0.010622303
0002d0 eb 99 aa 3c 90 ed 92 3d 16 e8 2a bd 90 f2 af 3d
       0.020825347 0.07174218 -0.04172524 0.08591187
0002e0 09 e9 1c bd 1c 7c 89 bc e2 0d 80 bb d3 2b a5 3d
       -0.038308177 -0.016782813 -0.003907905 0.080649994
0002f0 7a 4d 51 3c ce f0 e2 3b e8 f2 9d 3d cc 41 72 bd
       0.0127748195 0.006925679 0.07712346 -0.05914478
000300 f9 36 8c bd a1 48 45 bc 6e c7 c4 bd 0e fa 78 bc
       -0.06846423 -0.012041242 -0.09608351 -0.015196336
000310 d3 16 a7 bd 75 84 d4 bc da 54 48 bd 70 e6 ba bd
       -0.0815865 -0.025942067 -0.048909046 -0.09125984
000320 0d 94 48 bd 58 e9 8b bd 37 af cc bd 41 b5 f1 3c
       -0.048969317 -0.06831616 -0.09994357 0.029505374
000330 c7 2c 02 3d 78 9b 29 3d 06 c1 8f 3d 81 6d 52 bc
       0.031780984 0.041408032 0.07019238 -0.012843491
000340 94 6d 8f 3d e6 48 2e bd 63 5f a3 3d bf ce 1a 3d
       0.07003322 -0.04254999 0.07977178 0.037794825
000350 4e e8 ed bc 3e 88 ef 3c cb b3 d8 bd 72 08 80 3d
       -0.029041436 0.02923977 -0.10581168 0.06251611
000360 0e 18 0b 3d ae c0 8b bc e4 f9 a0 3c 80 55 ac 3c
       0.033958487 -0.01705965 0.019650407 0.021036863
000370 6d 64 9d 3d 30 8d 12 3e fd d6 a6 3d e6 34 1c bd
       0.0768517 0.14311671 0.081464745 -0.038136385
000380 d9 f9 7c bd 58 47 94 bd d7 8b 97 3c 3c 8a 20 bd
       -0.06176171 -0.0724017 0.018499298 -0.03919433
000390 67 be 1b 3e 1a 40 21 3d 40 5c 97 bb b4 f1 be 3c
       0.15209351 0.039367773 -0.0046191514 0.023308612
0003a0 61 d7 65 3d 96 c1 a4 bd 41 18 97 bd 98 c5 c9 3d
       0.056113604 -0.08044736 -0.07377673 0.09852141
0003b0 9f 10 9b bc 26 42 86 bd 1e a7 0c 3d 77 c9 c5 bd
       -0.018928824 -0.065555856 0.034339063 -0.09657567
0003c0 c0 0b 76 3c bd ee c6 bd f3 1e 02 bd 6d d4 82 3d
       0.01501745 -0.097135045 -0.031767797 0.06388173
0003d0 0e 1a 99 3d 5f 3b da 3c 50 d9 cd bc ee ea ae bc
       0.07475673 0.026639638 -0.025128037 -0.021352258
0003e0 54 e2 45 bd c3 28 87 b9 76 7d f1 bd b1 0d 7a bc
       -0.048311546 -0.00025779576 -0.11791508 -0.015262053
0003f0 c0 e1 31 3d c4 fd 9e 3d 48 a3 80 bd ed 11 1c bd
       0.043428183 0.07763246 -0.062811434 -0.038103033

network_body._body_endoder.seq_layers.4.bias f4 [256]
000000 fb 52 52 bb 35 74 a4 3b af a6 ac 3b bc c8 aa 3a
       -0.0032092917 0.005018736 0.0052688937 0.0013029794
000010 d4 3e 9f bb d8 f2 aa ba 91 87 98 3b 6c 59 a7 3a
       -0.0048597846 -0.0013042344 0.0046548326 0.0012767739
000020 d3 2e a5 3b 22 15 91 ba 53 36 ac 3b ab 54 50 b9
       0.0050409823 -0.001106892 0.0052554994 -0.00019867967
000030 f8 8a 9a bb 3f 4d 80 bb 2e d1 4d 3b 22 16 9c 3b
       -0.0047162734 -0.0039154585 0.0031405198 0.0047633806
000040 6b c7 d3 ba 3b a0 ae 3b 29 0a 9c bb ff d9 7a bb
       -0.0016157454 0.0053291596 -0.0047619534 -0.0038276908
000050 4c 94 69 bb e9 df 68 3b 94 27 96 3b 0e 39 56 3b
       -0.003564137 0.0035533851 0.004582355 0.0032687816
000060 38 cf a8 38 a5 24 98 bb 42 c0 11 bb 4c bc 59 3b
       8.049462e-05 -0.0046430402 -0.0022239839 0.0033223806
000070 02 8c 6c bb 0c f7 7f bb e4 b6 92 bb 42 5d c6 b9
       -0.0036094193 -0.0039057164 -0.0044773687 -0.00037834985
000080 0a 1c 2b 3b cb 22 74 bb 28 e7 d5 3a ae 5e 92 ba
       0.0026109242 -0.0037252184 0.00163195 -0.0011167133
000090 44 b0 89 bb 0e dc 60 ba e1 8e 84 3b 70 01 e2 3a
       -0.0042019207 -0.00085777126 0.004045353 0.001724286
0000a0 ca ad 64 bb 45 bd 6a 3b 11 46 52 bb c6 6f 2c bb
       -0.0034893625 0.003581838 -0.003208522 -0.002631174
0000b0 fa 4b 9a 3b c0 2f aa 3a d3 98 3e 3a ba 4d 84 bb
       0.004708764 0.0012984201 0.00072706974 -0.004037586
0000c0 d7 77 40 bb 5a 89 52 bb 33 11 9a bb 8f 52 af 3b
       -0.0029368305 -0.0032125325 -0.0047017573 0.005350418
0000d0 ed b5 ad 3b 55 86 29 3b 83 0d 45 bb 8e 20 e1 3a
       0.0053012283 0.0025867422 -0.0030067868 0.001717584
0000e0 a1 5d a7 3b 2e 4b 95 bb 68 10 99 bb 3f 45 d0 ba
       0.005107597 -0.0045560813 -0.004671145 -0.0015889778
0000f0 99 d5 4a bb 36 d2 74 bb d6 96 04 3a 83 e6 d7 ba
       -0.0030950068 -0.003735674 0.00050578767 -0.0016471896
000100 15 86 8b b9 d9 ed 59 3b 20 6a 9b bb af 54 0c 3b
       -0.00026612045 0.003325334 -0.0047428757 0.002141278
000110 7e ef 9c 3b 08 68 88 ba 92 d7 5f 3b a9 2c 36 bb
       0.004789292 -0.001040698 0.003415559 -0.0027797616
000120 89 c6 7b 3b c6 8d 10 3b 2d a1 6c 3b f1 4b 37 3a
       0.0038417897 0.002205716 0.003610681 0.0006992212
000130 bb 04 23 bb 3b 82 69 bb d6 fe 8c 3b 56 a3 a9 ba
       -0.0024874646 -0.0035630602 0.0043028397 -0.0012942355
000140 4e 0c 81 bb bc 91 89 3b 66 36 7f bb 6f 8e 0c bb
       -0.0039382344 0.004198281 -0.0038942336 -0.0021447202
000150 30 87 7c 3b ad 0f a9 3b 28 bd 95 3b 7e 08 ad 3b
       0.0038532726 0.0051593394 0.0045696683 0.0052805534
000160 f0 d3 a9 3b 21 63 47 bb d6 29 54 ba 91 ba c2 ba
       0.0051827356 -0.0030424076 -0.0008093392 -0.0014856627
000170 b9 f0 a2 bb e6 53 9d bb 30 e2 76 3b 56 1b 29 b9
       -0.004972544 -0.0048012612 0.003767144 -0.0001612728
000180 78 93 06 bb 48 5a 15 3b 7b b4 e1 3a 92 81 7d bb
       -0.0020534676 0.0022789408 0.0017219925 -0.0038681966
000190 e0 34 95 3b a4 42 6f b8 e4 7b ea 3a 13 03 a6 3b
       0.0045534223 -5.7044104e-05 0.0017889705 0.0050662844
0001a0 aa 8f 87 3a 08 4e 8e bb 3f 98 a8 3b 53 a6 91 3b
       0.0010342498 -0.004342798 0.0051451023 0.004444876
0001b0 68 fa 7f 3b fd 29 8b bb 10 2a 95 bb 47 1f 78 bb
       0.0039059166 -0.0042469488 -0.0045521334 -0.003786044
0001c0 c5 13 c6 ba c0 f8 14 bb da 85 05 ba 7a 3a 14 bb
       -0.0015112093 -0.0022731274 -0.0005093493 -0.0022617863
0001d0 2a a8 6d 3b dc 3a 9c bb e5 ff 8d bb 89 dc ae 3b
       0.0036263564 -0.004767759 -0.0043334835 0.0053363484
0001e0 b9 c5 3d ba 93 4c 89 bb dc a8 d8 b9 01 e0 9e 3b
       -0.0007239241 -0.0041900366 -0.0004132454 0.0048484807
0001f0 a9 f8 83 bb bd 65 0c bb 0f ab 8a bb d6 ba 45 bb
       -0.0040274453 -0.0021422945 -0.0042318176 -0.0030171177
000200 1d e4 ae 3b 23 f8 61 3a 84 9c a5 3b e2 55 8a bb
       0.005337252 0.0008620044 0.0050540585 -0.004221664
000210 17 84 87 bb 7f 13 5b ba 97 60 86 3b 2a 30 f8 ba
       -0.0041356194 -0.0008357092 0.00410087 -0.0018935252
000220 5b d2 83 bb 07 6b a9 3b a2 e7 4c 3a 48 41 97 bb
       -0.004022879 0.0051702294 0.00078164984 -0.0046159364
000230 75 a8 9b 3b 1d 76 a6 3b c9 f6 9b bb 0e 3b 9f 3b
       0.0047503063 0.005079998 -0.0047596437 0.004859335
000240 44 c2 47 3b 31 1f 65 3b db dc 57 3b f5 6a cf 39
       0.0030480782 0.0034961218 0.0032938037 0.00039561806
000250 02 93 7c 3b 18 c2 02 3b c3 77 af 3b 21 be 60 bb
       0.0038539772 0.0019952115 0.005354853 -0.0034293013
000260 42 60 a0 3b 27 9e 71 3b ff 18 b7 3b d5 98 4b 3b
       0.0048942873 0.0036867948 0.0055876966 0.0031066437
000270 b9 1f 93 bb 89 59 80 bb 85 2b 83 3b 83 91 80 3b
       -0.0044898656 -0.0039169234 0.0040029907 0.0039235963
000280 36 1d 56 ba 8b 12 b6 3b 7f 92 cf ba 2f 63 9d 3a
       -0.0008167805 0.0055564097 -0.0015836506 0.0012007708
000290 7e ab 5c ba 01 b3 49 3b 71 ca a9 ba 46 d7 a2 bb
       -0.00084178883 0.003077686 -0.0012954009 -0.0049695102
0002a0 ed 93 0f ba ea c2 88 3b 6e 2a 2c 3b 35 1c 8b bb
       -0.000547706 0.004173626 0.0026270407 -0.004245306
0002b0 47 fe 31 bb 23 96 9c 3b 3d 51 1a 3b 1a 9d 9f 3b
       -0.0027159618 0.00477864 0.0023546957 0.004871023
0002c0 6f ec 82 bb f8 d6 9b bb d4 26 47 3b 8b fe 9b 3b
       -0.0039954702 -0.004755851 0.0030388134 0.0047605685
0002d0 c0 e3 08 bb cd e1 12 3b 3d 5a 19 3a 40 bb 94 bb
       -0.0020887703 0.002241242 0.00058499334 -0.0045389235
0002e0 d8 d3 74 b9 fd f8 9c bb 4e b8 8c 3a 5c 48 69 bb
       -0.00023348571 -0.004790424 0.001073608 -0.0035596108
0002f0 71 36 53 39 c4 6b 93 bb a3 47 9a 3a 4b bd e7 b9
       0.00020142809 -0.0044989306 0.0011770617 -0.00044200788
000300 e6 30 99 3b e5 b3 93 3b bc b5 9c bb c9 18 01 ba
       0.0046750186 0.004507529 -0.0047824066 -0.0004924653
000310 23 5e 9d 3b 41 ba 98 bb 86 c2 18 bb b3 2e aa 3b
       0.0048024817 -0.004660875 -0.0023309304 0.0051935553
000320 a1 0a a3 3b 3f 45 e6 39 f1 61 a5 3b 99 f2 6b bb
       0.0049756323 0.0004392061 0.005047076 -0.0036002754
000330 0a 69 40 3b 49 bc 8d 3b 38 fd 99 3b e3 c4 96 3b
       0.0029359483 0.004325424 0.0046993755 0.0046011074
000340 97 c5 36 3b a0 a9 47 bb ec 7e 61 bb 0a 39 a9 3b
       0.0027888769 -0.0030466095 -0.0034407927 0.0051642703
000350 7a 5d 87 bb f6 da 13 3b ed 3f 9c bb a8 f8 4b 3b
       -0.0041310163 0.002256093 -0.0047683627 0.0031123552
000360 d9 84 96 bb 9e f7 5f 3b 1b b6 a5 3b e2 97 38 bb
       -0.0045934734 0.003417469 0.005057109 -0.00281667
000370 f2 c4 e4 b9 1f 51 69 bb b6 ed 6f 3b d8 f0 90 bb
       -0.00043634285 -0.003560133 0.0036610193 -0.004423242
000380 c0 0c 31 3b 8b 16 90 bb 8d 16 87 bb 2e 15 af 3b
       0.0027015656 -0.0043972186 -0.0041225613 0.005343101
000390 f0 fa ae 3b dc 5d 90 bb f2 89 88 bb e7 55 a1 3b
       0.0053399727 -0.00440572 -0.004166835 0.0049235704
0003a0 b6 a7 20 3b 1b bb 15 ba 81 d6 6e ba 78 b1 86 bb
       0.0024514026 -0.000571178 -0.0009110943 -0.0041105114
0003b0 0a 5a a5 3b 07 b3 ab ba 7e 62 b7 3a 1b af 11 bb
       0.005046134 -0.0013099619 0.0013991145 -0.0022229615
0003c0 3a fb 92 bb f7 46 41 bb fc fb 9f bb 58 0e 3a b9
       -0.004485515 -0.0029491761 -0.004882334 -0.00017743686
0003d0 de b0 d5 b9 ce e9 34 3a 35 64 4b 3a 01 89 48 bb
       -0.00040758302 0.00069012947 0.00077587675 -0.0030599239
0003e0 32 4e 8c bb 38 89 96 3b 8d 96 6f 3b 20 d2 10 3b
       -0.0042817825 0.0045939945 0.003655824 0.00220979
0003f0 8c ca 27 3b ec ab ef ba c2 f6 96 bb c8 2c 28 3a
       0.0025602905 -0.001828549 -0.0046070525 0.00064153643
