Assets/Training/results/track1_2/config_track1.onnx (onnx, 601409 bytes, 9 tensors)

action_model._continuous_distribution.log_sigma f4 [1, 2]
00000000: f1a7 e0bb b646 473d
-0.0068559577 0.04865142

action_model._continuous_distribution.mu.bias f4 [2]
00000000: f978 363b 7afc 923b
0.0027843101 0.004485664

action_model._continuous_distribution.mu.weight f4 [2, 256]
00000000: a9ca 16ba 51e2 97bc bf43 babb 0007 6ebb
00000010: 0748 723c 6ffc 203b cddb d03a 0f71 e73b
00000020: 5292 dabb 0437 b8bc 81c8 50bc 6ac2 783b
00000030: 62ca 12bc 6097 fbba 2e91 fcb9 8330 a6bc
00000040: 9b47 f5bb fc68 2bba d4e2 34ba ecbe 5ebb
00000050: 6342 1abc 8338 f1bb d3d4 dfbb da94 d73b
00000060: 9370 6ebb 6c07 47bc 178f bbba 812b 39bc
00000070: 77fc 3a3c 688d 953b b803 86bc 942f 4e3c
00000080: b28b 1c3c d275 3d3b 6b09 273a 4a89 18bc
00000090: f1db a63b bee7 b8bc 3fed 683c c2b0 21bc
000000a0: 0165 493c b1c5 3b3c ca6e 003b 7f50 bbbb
000000b0: cbe8 bcba a4b1 ae3c fa71 0bba ffae 283b
000000c0: 6e15 a93b 0d56 99bc 82ee 3b3c d90c c63b
000000d0: 652b c2bc 7092 9b3c 96b4 fa39 13ff 0fbc
000000e0: ce7b f43c c559 3f3c c2c2 933c db9d 4abb
000000f0: 2f6f 913b a63f 3a3c e47f 443b 5355 a03b
00000100: fdf8 163c 7f04 1a38 7035 92bc 08ed 893c
00000110: 4146 10bb 1cdb bb3b eaba 26bc ab6e d93b
00000120: d81c 9e3c 4283 fa3b c603 c9bb 0404 8bbb
00000130: ebea 4cb9 ac7e 8fbc e1ae 0dbc 01fd 473c
00000140: 564f 8e3c 1ac8 58bc 5d26 42b9 8735 93bb
00000150: 9a3b a6bb 2ff0 d33b 73a3 ddbb cf9e ba3c
00000160: 7d04 b03a eea7 c43b 897e 6dbc aa33 c6bb
00000170: eef1 bc3c 8147 c33c e99b f13b 6814 23bb
00000180: 145c ab3b a755 2a3c 3f4e dabb a9cc 9f3c
00000190: 1670 ddbb f7a3 22bc 1f0b 56bc 85e6 a4bc
000001a0: cdee 14bc 428a 45bb 0aae 3c3b 505d 32bc
000001b0: acad c2bc b4e6 523a 2a22 bd3c 0b99 c5bb
000001c0: 008a aebc 2c00 45bc 07b8 443c f757 89bc
000001d0: 291f f7bb 2ba2 553c 07f6 203a 8563 323c
000001e0: 2c4a 0fbc fdaa f9bb 54ac 51bc f0d3 d8bb
000001f0: 50d5 be3b c158 513c a0b5 0abc e560 b63c
00000200: 11af 1ebc f7eb 80bc 9587 09bb 2d87 fc3b
00000210: 2542 43bc 42da 523b e557 813c 56bb afbc
00000220: abc8 f7b9 fb6d 693c b95f 233c 5cbb 763b
00000230: 3386 9cbc 3376 f7bb c528 73bc 2ce0 b7bb
00000240: 1e50 b43b ed39 df3c 7835 7e3c 733a 76bc
00000250: 45a9 bcbc 652d b4bb e13d 32bc 8eda 823b
00000260: 52f0 353b 6595 05bc c8a8 da3c 299a 553c
00000270: 7108 36bc f9a7 85bb 6cd5 e43b f685 2f3c
00000280: e1a8 4bba 2e3d a4bb 3cc8 d13a ff99 533c
00000290: 53de dbbb f024 d1bb 5605 803c 0b68 86ba
000002a0: ede1 d3bb cc09 923b 1ee3 93bc fc58 d83b
000002b0: d9fd c83c d8c5 db3b 7829 5a3c 9a06 323b
000002c0: 7b54 973c 500e 3ebc a987 233c 29a1 fc3b
000002d0: 4a91 88bb 8e8e 32bb 130e bc3a 75e0 5b3b
000002e0: 3407 9bbc c9ce c23c 6410 39bb f87d bdbc
000002f0: 5bb1 e8b9 782a 8e3c 38db c2b7 a69c 47bc
00000300: e70f 863c c840 633c 1645 b33a 1d7f f63b
00000310: 4384 f43c de9f 2cbb dc00 a4bb f48f 903c
00000320: 2932 a03b c9f6 37bc a9e2 723c 230a 9a3b
00000330: 505d 913c f46d 0c3c bea4 643c be56 7abc
00000340: 1b48 83bb da49 5b3c 203c e2bb 6faa 81ba
00000350: 8c5a b23b 5702 16bc 4437 923a 127d 9fbc
00000360: d183 d6b9 485a 723c 7426 1cbc ae36 643b
00000370: 0264 8bbc cf61 643c c6f7 22ba 1f3f c13b
00000380: d910 9fba f1d4 9b3c d67b b03c 5331 afbb
00000390: bf68 ca3c ddcf 94bc e4e5 b039 028f f2bb
000003a0: 6dd0 55bb 4c37 e13b 7010 183c af52 a03b
000003b0: a280 9e3a 46b7 5fbc a135 84bc 8ab3 1e3c
000003c0: 5404 82bc aa52 13bc 2e99 abbc 5bd2 ff3b
000003d0: 3e44 c4bb e52a 4dbc 62e1 973b ebd2 42bb
000003e0: 1785 b839 d048 3dbc b327 263c e6af af39
000003f0: 3729 79bb 22e8 af3b 6f41 44bc 143e 843c
-0.00057522446 -0.018540533 -0.0056843455 -0.003632009 0.0147876805 0.0024564525 0.0015934646 0.007063038
-0.006670275 -0.022487171 -0.012743116 0.0037957677 -0.008959385 -0.0019194894 -0.00048173353 -0.020286804
-0.0074853427 -0.0006538776 -0.0006900255 -0.003398831 -0.009415242 -0.007361473 -0.0068307905 0.006579024
-0.0036383017 -0.012147766 -0.0014309612 -0.011301876 0.011412731 0.004563976 -0.016359195 0.012584586
0.00955479 0.0028909338 0.0006371948 -0.009310076 0.005092137 -0.02257144 0.01421672 -0.0098688025
0.012292148 0.0114607075 0.0019597285 -0.005716383 -0.001441264 0.02132494 -0.0005319413 0.0025739071
0.0051600253 -0.01871779 0.011470439 0.006044012 -0.023702333 0.018990725 0.00047818263 -0.008788842
0.02984419 0.011679118 0.018037204 -0.0030916843 0.004438303 0.011367714 0.0029983455 0.004892984
0.009214637 3.672065e-05 -0.017847747 0.016836658 -0.002201453 0.005732907 -0.0101764 0.006635507
0.019300863 0.0076450417 -0.006134483 -0.004242422 -0.0001954247 -0.017516457 -0.008647651 0.012206317
0.017371815 -0.013231302 -0.00018515573 -0.004492465 -0.005073023 0.006467841 -0.0067638694 0.022780804
0.0013429072 0.006001464 -0.0144955 -0.0060486393 0.02306458 0.023837807 0.0073733223 -0.002488399
0.0052294824 0.010396398 -0.0066621597 0.01950677 -0.0067577465 -0.009926788 -0.013064175 -0.020129452
-0.009090138 -0.0030142223 0.0028790259 -0.010886505 -0.023764454 0.00080452417 0.02308758 -0.006030207
-0.021306038 -0.012023967 0.012006766 -0.016765578 -0.0075415564 0.013039152 0.00061401766 0.010887985
-0.008745711 -0.0076192603 -0.012797434 -0.006617062 0.0058237687 0.012777508 -0.008466154 0.022263
-0.009685294 -0.015737517 -0.0020985354 0.007706544 -0.011917626 0.0032173549 0.015788982 -0.021451633
-0.0004726102 0.014247413 0.0099715525 0.0037648296 -0.01910696 -0.0075519322 -0.014841263 -0.00561144
0.005502715 0.0272493 0.015515678 -0.015028584 -0.023029933 -0.0054985755 -0.010879011 0.003993339
0.002776165 -0.008153294 0.02669181 0.013037243 -0.011110411 -0.004078862 0.0069834497 0.010713091
-0.00077690004 -0.005012176 0.0016005109 0.0129151335 -0.0067098527 -0.006382577 0.015627544 -0.0010254396
-0.0064661414 0.0044567343 -0.018052634 0.0066024046 0.024535106 0.0067069344 0.013315551 0.002716458
0.0184729 -0.011600092 0.009981074 0.0077096415 -0.0041677104 -0.0027245614 0.0014347456 0.0033550535
-0.018924333 0.023780243 -0.002823853 -0.023131356 -0.00044382628 0.017354235 -2.3228684e-05 -0.012183344
0.016365005 0.0138704255 0.0013677205 0.0075224773 0.029848224 -0.0026340405 -0.0050049853 0.017646767
0.004888792 -0.011228272 0.014824548 0.0047009154 0.01774469 0.008571137 0.013955293 -0.01527947
-0.0040063984 0.013384307 -0.00690414 -0.0009892712 0.005442923 -0.009155831 0.0011155386 -0.019468818
-0.00040915472 0.014792033 -0.009530652 0.003482263 -0.01701546 0.013939335 -0.00062167307 0.005897417
-0.0012135758 0.019022437 0.021543425 -0.005346456 0.02470815 -0.018165523 0.00033740618 -0.0074023018
-0.0032625452 0.006873047 0.009281263 0.004892669 0.0012092779 -0.013654536 -0.016138854 0.00968636
-0.015871204 -0.008991877 -0.020947065 0.0078070587 -0.0059895804 -0.012522434 0.004635022 -0.0029727768
0.00035194375 -0.011553004 0.010141301 0.00033509656 -0.003801895 0.0053682486 -0.011978491 0.016142882

network_body._body_endoder.seq_layers.0.bias f4 [256]
00000000: c126 b8bb 6025 a8ba 7175 c9ba 6c0a aa3b
00000010: 88d0 333b 1d3f a9bb 1c8b 2b3c e7d5 333c
00000020: dd96 553a 6df5 8fbb 8052 193b af1d 753a
00000030: 04ad dfbb 7b0b 85bb bbb7 28bb 53ea 25bb
00000040: c5af d6bb ca79 8eba d99c 98bb d425 9bba
00000050: 4cf9 abba a709 8c3b dfe3 d6bb 766e 7b39
00000060: 3b85 d93a c2a6 6b3b 5ef7 7cba f257 e7bb
00000070: f79e 4ebb aa4a 193c 912a e2bb 9031 1fbb
00000080: 6cc0 3e3b d3e0 983a 282b ccba 832c a5bb
00000090: ffbe 7639 c727 9a3b ea69 90ba 8dda 123b
000000a0: 1944 a63b 39df 213c 77f5 a13b 74c9 41bb
000000b0: be8a 41ba 6d1f 9c38 91d8 883b 3d15 b4bb
000000c0: 4250 09bc 59c8 b53a 4d93 a439 a936 8ebb
000000d0: 7a78 1b3c 10cf 87bb fd29 a5ba 8f83 a7bb
000000e0: 4a4f 13bc 2e74 52bb 94d9 28ba e588 7e3a
000000f0: 57a5 a7ba e204 3fbb 2470 293b 03d3 aaba
00000100: 194c 993b ad31 81bb e770 5c3a 8741 55ba
00000110: 6bd8 86bb 166f df3b ab8f 63bb 35e2 cfbb
00000120: e5a2 24ba 163d 95bb 02a9 093c 2579 283a
00000130: dca8 d6bb c063 dc3a e90c 6a3b ca5a 5a3b
00000140: 38db d73b 4601 43bb 6dcb 0abb f3f4 bcbb
00000150: 58a3 18bb 5be0 3fbb dd54 7b3b 708f 19bb
00000160: 09d3 933a fd15 4e3b 1328 9dbb 2806 5dbb
00000170: f4f4 c4ba 1b8c 813b fcee 9d3a 62f0 29bb
00000180: 8708 02bc e095 373b a479 183b 8667 fdb9
00000190: 59fa e53a b4a9 85ba 62fc c1bb e72c ae3a
000001a0: 5d8e a6bb 6dce 053b e49d c03b b07e 963b
000001b0: 2ca7 8bbb a01f f5ba fcc9 afb8 4797 7fb9
000001c0: d9ec 6b3c 1574 17bb 6507 e73b 9cba 88ba
000001d0: a4dd 63bb 70d3 ba3b 7509 c1bb 7294 0abc
000001e0: c776 fbbb 3bfe 80bb cb7e cb3b 448b 95ba
000001f0: 2659 913c 53cd 7b3a 9893 bdbb 43a4 99bb
00000200: d1e9 04bb 1d68 6f3a d23e af3b f118 a63a
00000210: a5c6 6a3b dbed a03b 436e 2c3b 953b 04b9
00000220: 8e8e d03a 6c54 a43b 9646 daba 69d0 a2ba
00000230: 616b 9c3b c1e1 a63c 8888 af3b 0a75 ceba
00000240: 7913 703b 5ea1 5a3a 5109 6fbb 4af2 8dba
00000250: 2d69 24bb 3147 9ebb e474 bfba acea 88bb
00000260: 71c2 cdbb 5cfa 60bb 2d95 94bb 37cf 02bc
00000270: b858 893b 125c 86bb aae5 27bb 6e0b ecbb
00000280: 391e d1bb 6eb5 94bb bbf8 9939 5848 31ba
00000290: 161c 213b bdcd 773a 87d6 94bb 1bcc 533b
000002a0: 7bfb b0bb 1a11 b63b 07bc 763b f898 2c3b
000002b0: 1249 72ba 7e91 293a e9ba a93b 2274 10bc
000002c0: 8ec3 f53b 7494 51bb b216 30bb e783 9ebb
000002d0: 12dd 983b b741 a0bb f7b8 683b c690 433b
000002e0: 4549 dd39 5d3b 2dbc 3f2f 943b 399d 6abb
000002f0: 778d 1e3b 5820 623b 5e96 4bbb f51a ce3b
00000300: 9042 ad3a bd71 b53b f13b 493a fb15 09bc
00000310: bb6b 463b 2d1a 91ba 0d99 083c 6bce 7ebb
00000320: f953 8abb 9257 223b dd16 cfbb a431 6b3b
00000330: b04c bdb7 7a2c 84bb 0521 8abb 2eff 00bc
00000340: 83db 62bb 4dfb 8a39 d1e6 88bb 844b 57bb
00000350: 3bb3 de3a d1b0 f1bb 107e 58b9 2ac2 653b
00000360: 072b 80bb 4fd8 86ba 0396 6c3b 68fe 05bb
00000370: c3ed c83b f330 efbb a36f 9dba 5ffa 1a3b
00000380: cdca 98ba 1075 5c3a 92d2 f7ba 759d ea39
00000390: 4581 b53b d1a3 c2bb 077b 90bb 4f9d e1bb
000003a0: 17b7 b73a 1228 9a38 1cad e83a 2e55 8339
000003b0: 3c35 9b39 4748 f6ba e9d5 cebb 2be3 fdbb
000003c0: 5779 413b 947f c9b9 1623 2a3a e9fc 44bb
000003d0: 7293 113b a890 05bc 10b8 f739 8e0c 9c3b
000003e0: 05bd 953b 8863 85bb c7b9 9cbb c4e9 bdbb
000003f0: 702c 3e3a e67d 9cbb c868 233b 7739 69bb
-0.005619854 -0.0012828521 -0.0015370083 0.0051892307 0.0027437527 -0.0051649944 0.010470178 0.010976291
0.00081477856 -0.0043932707 0.002339512 0.00093504315 -0.006826045 -0.0040602065 -0.0025744278 -0.002531667
-0.006551715 -0.0010870036 -0.0046573696 -0.0011836835 -0.0013120561 0.0042736116 -0.006557926 0.00023978375
0.0016595492 0.003595755 -0.00096498977 -0.0070600444 -0.0031527856 0.00935618 -0.006902047 -0.0024291016
0.0029106392 0.0011663683 -0.0015576826 -0.0050407066 0.0002353154 0.004704449 -0.0011017893 0.0022408098
0.005074036 0.009879881 0.004942592 -0.0029569538 -0.000738304 7.444513e-05 0.0041762074 -0.005495696
-0.008380951 0.0013868912 0.00031390265 -0.004340012 0.009489173 -0.004144557 -0.0012601014 -0.0051121186
-0.008991072 -0.0032112706 -0.0006441113 0.000970973 -0.0012790364 -0.0029147197 0.0025854195 -0.0013032857
0.004678261 -0.0039426894 0.0008409158 -0.00081350695 -0.0041151545 0.0068186624 -0.0034723084 -0.0063441047
-0.00062803767 -0.004554401 0.008402111 0.00064267433 -0.0065508913 0.0016814396 0.0035713261 0.0033318275
0.006587412 -0.0029755398 -0.002117838 -0.005766505 -0.002329072 -0.0029278013 0.0038350143 -0.0023431443
0.0011278103 0.0031446212 -0.004796037 -0.0033725593 -0.0015026615 0.0039534695 0.0012049372 -0.0025930633
-0.007936603 0.0028012916 0.0023265863 -0.0004833305 0.0017545923 -0.001019767 -0.005919979 0.0013288528
-0.005082889 0.0020417229 0.005878197 0.004592739 -0.004261872 -0.0018701442 -8.382273e-05 -0.0002437505
0.014399731 -0.0023109962 0.007050442 -0.001043159 -0.003476956 0.005701475 -0.00589102 -0.008458244
-0.0076740715 -0.0039365566 0.0062101833 -0.0011409302 0.017742705 0.0009605486 -0.005785417 -0.004688771
-0.0020280967 0.00091326406 0.005348065 0.0012672228 0.0035823968 0.004911167 0.0026310838 -0.00012610697
0.0015911625 0.0050149467 -0.0016653116 -0.001242173 0.0047735428 0.02037132 0.005356852 -0.0015751433
0.00366327 0.00083400856 -0.003647406 -0.0010829654 -0.0025087104 -0.004830264 -0.001460698 -0.0041783657
-0.0062792827 -0.0034328913 -0.0045343847 -0.007983974 0.0041914843 -0.004100331 -0.0025619068 -0.007203511
-0.0063817766 -0.0045382297 0.00029367753 -0.0006762794 0.002458339 0.00094529596 -0.004542175 0.0032317701
-0.0054010726 0.005556238 0.0037648694 0.0026336294 -0.00092424557 0.00064685184 0.005179752 -0.008816751
0.0075001186 -0.0031979354 -0.0026868996 -0.0048375013 0.0046650255 -0.0048906463 0.0035510638 0.002984093
0.00042206995 -0.010573235 0.0045222337 -0.0035799278 0.0024193206 0.0034504142 -0.0031064968 0.0062898346
0.001321869 0.0055372403 0.00076764735 -0.008367057 0.0030276615 -0.0011070423 0.008337271 -0.003888036
-0.004221436 0.0024771434 -0.006319864 0.0035887742 -2.2566266e-05 -0.0040336223 -0.004215362 -0.00787334
-0.0034615702 0.00026508645 -0.004177906 -0.0032851407 0.0016990671 -0.0073758145 -0.00020646327 0.0035058358
-0.0039113793 -0.0010287854 0.0036100156 -0.0020445827 0.006131859 -0.0072995364 -0.001201142 0.0023647768
-0.0011657119 0.00084097777 -0.0018907359 0.00044749273 0.005539092 -0.0059399386 -0.0044091973 -0.0068852077
0.0014016357 7.350756e-05 0.0017751786 0.0002504973 0.00029603567 -0.0018789851 -0.006312121 -0.007748028
0.0029521787 -0.0003843276 0.00064902136 -0.0030057973 0.0022213128 -0.0081521645 0.00047248648 0.004762239
0.004569652 -0.004070703 -0.0047828886 -0.0057956893 0.00072545465 -0.0047757505 0.002493428 -0.003558723

network_body._body_endoder.seq_layers.0.weight f4 [256, 68]
00000000: 4996 3dbe f171 5dbe e275 8a3d 8ba2 d93d
00000010: 2249 013e 2547 2dbe 5cde eb3c ba80 6e3e
00000020: b6f6 6abd cb2a df3d 0116 eb3d 23d3 f13d
00000030: 9c6d 483d ef36 8a3d af18 623d edb8 3c3d
00000040: cd10 353e 02cb c5bd 0fd4 213d 9671 0b3e
00000050: eff2 41bc e0d4 febd 5625 02bd 6523 97bd
00000060: af89 14bd 9fb9 2dbe 454e 713e 9980 fdbc
00000070: 6852 d9bd 5d32 be3d da3e b03d 324a 1f3c
00000080: 2aab 3d3d 09e4 ba3b e629 c33d 9954 b93e
00000090: 0b9b 3fbd 36df f33d 4d95 033e bd3f 74be
000000a0: 63b5 81bc 817d 2a3e ddc5 633d 0362 66bd
000000b0: 0a8a a7be ccb7 033d 27c7 07bb 4c69 3f3e
000000c0: ee00 debd fdb1 ddbc fd66 a93c 1c25 38be
000000d0: 5eca 263b 2004 04be 12e0 febd 887c a43d
000000e0: a49d 343e f199 f83d 9076 2c3e 94ce 92bd
000000f0: 2ca5 3abe 515b 013e 3407 80bd 6880 3a3c
00000100: ec32 373d fdf4 123e 1153 083d fdb3 133e
00000110: 0019 31bd 1ebb c6bc 1626 db3c 9e2a e33c
00000120: 4873 0dbe 4fc2 083e ad38 5d3d 9d1f edbc
00000130: 360b b03d 3397 39bd 2c07 323d 84a0 45bd
00000140: aaf3 dcbc e4a6 9dbc 3626 ed3c f1c3 02be
00000150: 43b0 013e 3259 f23c 46de ad3d 8642 20be
00000160: 15e7 1b3e 48b0 8abc 23d3 4f3d f8e5 1e3e
00000170: 5ce6 243d 3307 b5bd 1add a3bd 2d79 02be
00000180: 0658 b4bd 4840 aabc 4615 5bbe 71f6 15bd
00000190: ca5d 38bc a884 083e 9bfb 98bd 98e3 34bc
000001a0: d0e8 893c 3bd6 02be b280 35bc a57c e23d
000001b0: ebfc 033e 457f b63d 93b7 19be 8461 5f3e
000001c0: 28c7 0fbd 8798 37be a324 213e 783d 3bbe
000001d0: ac3e 943d 0341 54be 8528 86bd c399 843d
000001e0: 1be6 28be f9e9 72be 87be e6bb 03ef 27bd
000001f0: a350 603e 57e1 fdbd 49a3 c23c 87fb c1bc
00000200: 97b6 3ebe 54f2 163e 338b 4e3e bdf3 633d
00000210: 5311 b5bd 7e77 a0bb a7c7 10be 58ae f4bc
00000220: 1c17 303d 918c c43d 4937 8e3b c192 7e3d
00000230: d652 b7bd af05 0b3c b58a c1bc 666f fdbd
00000240: 7863 83bc 0baa c5bd 4605 a63c e97a 3bbd
00000250: 24bd 353e 6051 8c3c 729d 7c3d e6fc a7bd
00000260: e581 a13d 5c34 73be e618 afbd ff45 debc
00000270: 5406 483e c517 73bd 0f7b 413d b794 c93c
00000280: 5246 05be 9026 8cbd 0576 6bbd 51c8 2a3d
00000290: e68a e43d 2114 20be d815 e4bd 466b 49bd
000002a0: f525 ea3d df8f d4bc 3113 9ebd 25b2 1d3e
000002b0: 95d0 743d e5aa afbd c958 dd3d 6e28 913c
000002c0: 8c65 0ebe bc34 0cbe fc4a 3dbe 9f26 3c3e
000002d0: 5cac 453c ef0c fb3d d806 a73d aeff 9f3d
000002e0: 78cb 603d 567b 453e d285 0a3c 5f6c 5dbd
000002f0: 8c64 84bd f407 093e 14b0 a5bc 78e4 74be
00000300: 1822 cc3d d45b 5f3d 76d4 bd3e 2fa1 08bc
00000310: 2116 d83d 7efd 61bd 6ff6 8b3d 5775 f1bc
00000320: b282 99bd 17d7 383e 99e4 053d 89d3 6cbe
00000330: f29f 293d 1506 37be a160 e43c 9771 5fbc
00000340: 9e82 283d 4ac9 eb3d ec88 4abe 780a 3a3d
00000350: 1059 f23d cfb9 eebd 49cf 863d c231 7e3d
00000360: 5074 353e 28f1 2e3e 3ed8 2cbe 772a 483c
00000370: 056e b2bd 6f96 f6bd 384c d4bd 9031 a93c
00000380: eaed 14be 409d 723d be1b 26bd db45 013e
00000390: eab5 0f3e d1f9 0cbe d218 68be c603 d9bd
000003a0: 8176 95bd 7daa 77bd 60cc 17be f580 7abb
000003b0: 2dde e33d 84a9 873e 1b3f f63c bcd7 8d3c
000003c0: e731 183d feac bfbd 1a2c d8bd 90b4 4d3e
000003d0: 8ba4 49be 220a 1f3d bf8d 9e3d 81f0 323d
000003e0: 203a ca3e f185 23be 4dfe 81be 54da 323d
000003f0: f45a 7d3d c6ce 23ba 71bb 88be fab9 43bd
-0.1851436 -0.21625496 0.067607656 0.10626706 0.12625554 -0.1692167 0.028792553 0.23291293
-0.057364188 0.10896834 0.11478806 0.11807849 0.048932657 0.06748759 0.05519932 0.046074796
0.1768219 -0.09657861 0.039508875 0.13617548 -0.011837705 -0.124429464 -0.031773888 -0.07379798
-0.036264118 -0.1696534 0.23565014 -0.03094511 -0.10611421 0.0928695 0.08605738 0.009722279
0.046305813 0.0057034534 0.09529476 0.36197355 -0.04677872 0.119078085 0.12849922 -0.23852439
-0.015833562 0.16649438 0.05560862 -0.056245815 -0.32722503 0.032157704 -0.002071807 0.18692511
-0.10840021 -0.02706241 0.020678991 -0.17982906 0.002545021 -0.12892199 -0.12445082 0.08031565
0.1763826 0.12138737 0.16842103 -0.07168308 -0.1822707 0.1263249 -0.06251374 0.0113831535
0.044726297 0.14351268 0.033282343 0.14424129 -0.043236732 -0.024259146 0.02675156 0.027730282
-0.13813508 0.13355373 0.05400913 -0.028945738 0.08595888 -0.04531021 0.04346387 -0.048248783
-0.026971657 -0.019244619 0.028948884 -0.12770058 0.12664895 0.029583547 0.08489661 -0.15650377
0.1522487 -0.01692976 0.050738465 0.15517414 0.04025875 -0.08839264 -0.08001156 -0.12741537
-0.08805852 -0.020782605 -0.21394834 -0.036611978 -0.01125283 0.13331854 -0.07469865 -0.011040591
0.016834646 -0.12777035 -0.011078047 0.1105893 0.1288945 0.089109935 -0.15011434 0.21814543
-0.03510204 -0.17929278 0.15736632 -0.18285167 0.07238516 -0.20727925 -0.06550697 0.0647464
-0.16494028 -0.23722066 -0.0070417556 -0.040999424 0.2190576 -0.12396496 0.023759501 -0.023679508
-0.1862434 0.14740878 0.20170288 0.05565237 -0.08841195 -0.004897057 -0.14138661 -0.02986829
0.04299079 0.095971234 0.0043400866 0.062151674 -0.089513466 0.008485242 -0.023625711 -0.12374763
-0.016038641 -0.09651574 0.020266186 -0.045771513 0.17747933 0.017128646 0.06167359 -0.082025334
0.078861035 -0.23750442 -0.08549671 -0.027132986 0.19533664 -0.05934884 0.0472365 0.024607046
-0.13015106 -0.06843293 -0.0574856 0.041694943 0.11159305 -0.15632679 -0.11136979 -0.04917457
0.11433021 -0.02594751 -0.07718504 0.15399988 0.05976923 -0.085775174 0.1080795 0.017719474
-0.13905925 -0.13691992 -0.18485636 0.18374108 0.012065019 0.12258326 0.08155602 0.07812439
0.054881543 0.1928533 0.008454757 -0.05405843 -0.0646449 0.1338194 -0.020225562 -0.23915279
0.0996744 0.054530933 0.37076157 -0.00833921 0.10551096 -0.05517339 0.06834113 -0.029474897
-0.07495631 0.180508 0.03268871 -0.2312757 0.0414123 -0.17873414 0.027878108 -0.013637922
0.04114019 0.11513002 -0.19778794 0.04542014 0.118333936 -0.11656534 0.06582505 0.06205917
0.17720151 0.17084181 -0.16879365 0.012217156 -0.08712391 -0.12040412 -0.103661 0.020653516
-0.14543882 0.059231997 -0.0405538 0.12624304 0.14034238 -0.13767172 -0.22665718 -0.10596423
-0.072979935 -0.060465325 -0.14824057 -0.0038223837 0.11126361 0.26496518 0.030059388 0.017314784
0.037156966 -0.093591675 -0.10555287 0.2008841 -0.19691674 0.038828023 0.0774188 0.043686394
0.3949747 -0.15969063 -0.2538933 0.043665245 0.061854318 -0.0006248768 -0.26705506 -0.047784783

network_body._body_endoder.seq_layers.2.bias f4 [256]
00000000: 4af2 9b3b 98b9 333b 35a3 0fbc e6f8 babb
00000010: 7c45 f03b dab0 cabb 58d7 c3ba 1fa7 963b
00000020: b7a6 99ba cb86 cebb 9d81 5739 619e ccbb
00000030: f042 9bbb 0c2c efb9 3330 f9ba 47ed 133b
00000040: 905c cbbb e6ca 18b9 9397 853b 406f 46bb
00000050: 91c4 223b ea8b 7f3a 6895 a43b 06e1 90bb
00000060: 4365 d1bb a610 f0bb 96b3 c6ba d1e9 41bb
00000070: d0a8 c43b 08fe 0fbb 90e8 16bb fb97 53bb
00000080: 736a a0ba 59d0 183b 1a9a 18bb d626 9bbb
00000090: d0d9 803b 779f 5cbb 0c95 9f3b 217b 63bb
000000a0: 216c 1bbb 0d8e 9cbb a931 3a3b 06da 3bba
000000b0: c604 6cbb 784d 89bb 7449 f33a 9fdb 733b
000000c0: 9ff9 9d3b 18b2 bb3b a05c 3a3b 3ae4 b1ba
000000d0: 2a3d 0a39 c657 393b bc3d 9fbb 1518 053c
000000e0: cf10 223b 160a 06bb a30c 75bb 556b 863b
000000f0: ca94 4239 7092 ccba 566c 1e3a b78d 34ba
00000100: c5fa a63b f271 deba 7215 e4ba 8791 b5bb
00000110: 3e2c 9bbb c4b2 0ebb 9f99 e3bb b84e 5c3b
00000120: 1e81 a8ba b85d aa3b 8909 81ba 6d41 a43b
00000130: 2c78 8cbb 4d38 b9ba f866 bcbb 7354 f9bb
00000140: 28b0 36bb 5b79 05bb 5de4 4cbb dfab a13b
00000150: 889e af3a 018c 3dba 9963 80ba aa56 20bb
00000160: f998 a639 0d87 3aba 30fd 673b c353 68bb
00000170: af8b b5ba c474 ce3a a4eb 6ebb c014 80b9
00000180: f68c 2e3a b2a7 a4bb f678 6ebb c0b6 a2ba
00000190: 5eae 8e3a 5173 5d3b caa5 f33b 9fbb 243a
000001a0: d5ce babb 84f5 f13a c3ab 90bb 27d9 543b
000001b0: 6d79 273b ed59 0c3b 364a 9f3b 26cc 41bb
000001c0: 9ee2 a03b 96aa 31bb b711 6439 ef80 c1bb
000001d0: 310f 30ba f7ef b53b 7332 c83a 8787 5cbb
000001e0: b8d9 21ba d6e6 80bb 2201 213b 4d35 88bb
000001f0: cb58 133b 1ded 72bb 5bd1 89bb b098 8abb
00000200: cf5a 873b b96f 0cbb b349 0b3c adee 8abb
00000210: f1d2 35bb 58d8 8dba df8d 6c3b 9b45 e73b
00000220: 8ec0 9cbb 9b2b 9539 11b5 f3ba 1e04 c8bb
00000230: b9ba 84bb 00a3 9fbb cfc7 4c3b 1c70 363a
00000240: 337b 5bbb 0415 ee39 4ffd a4bb 4565 c6bb
00000250: 0eed 02ba 74a8 373b 2541 573b ebad 3bbb
00000260: 5876 bd3b 649a 31ba 81c4 0aba 1566 763b
00000270: 4a43 08bc 78fe 8a3b dcee 963a 220e e03b
00000280: 7f1f 653a b443 253b 9577 34bb 4efe 14bb
00000290: fa5e b5bb 2630 703a d491 39bb 4fab 9bb9
000002a0: 481e 033b d8f4 7fbb a695 d8bb 9ece 003b
000002b0: e2a3 7cba 4cf4 be3b 900b b3bb df31 803a
000002c0: e9c3 97bb 8686 80bb e2f5 803b 6a42 f039
000002d0: 902e 393b 07cb 9fba 1d17 743a 90d3 36bc
000002e0: 8499 543b 5edc a3bb a5b5 b33a 67d2 83bb
000002f0: 20db 8fbb 0f05 b8bb 5108 fabb f93a b9bb
00000300: e91b 94bb 0e2e ecbb a861 4abb 2fcd abbb
00000310: 0320 02bb 08c2 35ba b2b9 12bb 407d e93a
00000320: 0474 443b ca10 e63b fe51 e6b8 0ea6 66bb
00000330: 92b6 043b 3eee c5ba 9766 5339 903c 44ba
00000340: e842 17bb dd98 0abb 584a 0f3b 0e21 2a3b
00000350: bc78 68bb 2244 c9bb 0a64 c53a 2861 983a
00000360: 0766 a2ba 0345 20bb 3b6f 673a e05d 5cbb
00000370: e36b 6f3b 4b55 e1bb 2fdf 62bb 9d37 ec3b
00000380: 56a7 83bb dde9 3c3b 8070 163b 75c8 c7bb
00000390: b46e cbbb 24ee aa3b 2042 6e3b 3ad1 a0bb
000003a0: b2e0 903b 7f75 70ba da51 003c 6af1 6a3b
000003b0: 1124 87bb 014e b9ba 7a3a 0abb 935e 41bb
000003c0: ede1 d63b 674c 9cba 915a 8aba 5bed abbb
000003d0: 7bd0 de3a 42b4 9fbb 7f9a 80ba dcc1 03ba
000003e0: 3a0b 253b bcaa 2a3a d7a7 87ba ad3b 133b
000003f0: dbe6 3bbb 84c5 2bbb de96 0aba 9a2b cfba
0.0047591077 0.0027423855 -0.008766939 -0.0057059405 0.007332502 -0.006185633 -0.0014941497 0.004597559
-0.0011722659 -0.0063026897 0.00020552283 -0.006244466 -0.004738204 -0.0004561845 -0.0019011557 0.0022571848
-0.0062061027 -0.00014571435 0.004076907 -0.0030278713 0.00248364 0.0009748327 0.0050226934 -0.004421356
-0.006390245 -0.0073262034 -0.0015159722 -0.0029588828 0.0060015693 -0.0021971483 -0.0023026802 -0.0032286632
-0.0012238756 0.0023317544 -0.002328521 -0.004734854 0.0039322153 -0.0033664384 0.0048700627 -0.0034710842
-0.0023715573 -0.004777676 0.0028410947 -0.0007165972 -0.0036013587 -0.004190143 0.001856132 0.0037209762
0.004821017 0.0057280175 0.0028436556 -0.0013572045 0.00013183491 0.0028281077 -0.0048596542 0.008123417
0.0024729257 -0.002045279 -0.0037391565 0.0041021504 0.0001855671 -0.0015607607 0.0006043365 -0.0006887572
0.005095812 -0.0016971214 -0.0017401411 -0.00554103 -0.0047354987 -0.0021774033 -0.0069458033 0.0033616256
-0.0012855863 0.0051991604 -0.0009844761 0.005012682 -0.0042867865 -0.0014131159 -0.0057495795 -0.007608944
-0.0027875993 -0.0020366523 -0.0031264045 0.0049338187 0.0013398686 -0.000723064 -0.0009795307 -0.0024465718
0.0003177596 -0.0007115461 0.0035398714 -0.0035450316 -0.0013850833 0.0015751352 -0.003645637 -0.00024429522
0.0006658578 -0.0050248737 -0.0036388016 -0.0012414083 0.0010885706 0.0033790658 0.007435535 0.0006284061
-0.005700926 0.001846001 -0.004415007 0.0032478066 0.0025554553 0.0021415905 0.0048611416 -0.0029571145
0.0049098274 -0.0027109734 0.00021750374 -0.0059052627 -0.0006716131 0.0055522877 0.0015273824 -0.0033650117
-0.0006174105 -0.003933768 0.0024567326 -0.0041567446 0.0022483345 -0.00370676 -0.0042058653 -0.0042296275
0.0041306983 -0.0021428897 0.008501458 -0.004239878 -0.002774414 -0.0010821922 0.0036095304 0.007057858
-0.0047836965 0.00028451983 -0.0018593391 -0.0061040064 -0.0040505794 -0.004871726 0.0031247025 0.00069594546
-0.003349018 0.00045410555 -0.0050350795 -0.0060545527 -0.00049944303 0.002802399 0.0032845226 -0.0028637599
0.00578193 -0.000677502 -0.00052935636 0.0037597467 -0.008316824 0.004241761 0.0011515277 0.0068376223
0.000874035 0.0025217356 -0.0027537097 -0.0022734585 -0.0055350037 0.0009162448 -0.002831568 -0.0002969154
0.0020007063 -0.003905585 -0.0066096364 0.0019654403 -0.00096374576 0.0058274623 -0.005464025 0.0009780488
-0.0046315086 -0.0039222864 0.0039355615 0.0004582585 0.0028256513 -0.0012191244 0.00093113055 -0.011158839
0.0032440135 -0.005000635 0.001371075 -0.0040228846 -0.0043901354 -0.0056158374 -0.007630386 -0.005652782
-0.0045199287 -0.0072076386 -0.0030880962 -0.0052429656 -0.0019855506 -0.0006933515 -0.0022388515 0.0017813817
0.0029976377 0.0070210444 -0.00010982527 -0.003519419 0.0020250422 -0.0015100909 0.00020160746 -0.0007485831
-0.002308065 -0.0021148243 0.002186438 0.0025959644 -0.0035472354 -0.0061421553 0.0015059721 0.0011625635
-0.0012390026 -0.0024455197 0.00088285253 -0.003362529 0.0036532811 -0.006876623 -0.003461789 0.007208778
-0.0040177507 0.0028825917 0.0022955239 -0.0060968944 -0.006208265 0.005216377 0.0036355332 -0.0049077542
0.004421317 -0.0009172782 0.007832015 0.003584946 -0.0041241725 -0.0014137627 -0.0021091984 -0.0029505834
0.006557694 -0.0011924625 -0.0010555555 -0.005246801 0.0016999388 -0.0048737833 -0.0009811668 -0.0005026141
0.0025183694 0.0006510427 -0.0010349703 0.002246599 -0.0028671536 -0.0026210258 -0.0005286763 -0.0015805841

network_body._body_endoder.seq_layers.2.weight f4 [256, 256]
00000000: b222 8f3d acff 043c 0337 f33c d316 973c
00000010: c45d b0bd 4c2d cfbd 8034 9f3c 070d 99bd
00000020: 7013 fdbd 527b 2c3d e75e 283c 4ec1 a33b
00000030: b4be 8abd 584e 50bc 3019 163d 11be dabb
00000040: 6e50 623d 7eb8 773c 6449 b5bd 5274 f6bb
00000050: 011e 113e ad90 ba3c 183d 48bc 9dc1 903d
00000060: 61f4 ce3c 0022 a03d c46f 4b3d 25cb 993c
00000070: d6ce 9c3c e274 52bd 7958 17be d4f3 1e3d
00000080: 59b8 90bd 9e53 0dbd 5fbd 4b3d f09f 37bc
00000090: 11e9 f5bd 635d 1dbd a6b5 4b3d b2a6 c23d
000000a0: 56f4 07bd b89c a2bd 35f5 63bd cb5e 2e3d
000000b0: c493 903d 4de4 3abd cb86 8dbc b197 2a3c
000000c0: 6506 c53b a766 c33d 3afa 93bc 1c32 1a3d
000000d0: 43e9 2fbe 8e24 a43c daac 7e3b 04ac 4f3d
000000e0: 780d 8d3b 471c 093d c354 513c 104e 4e3d
000000f0: 1274 6e3b 2955 fa3d b8a1 8cbd 5d83 ac3b
00000100: 866f 23bd 7abf f6bb f3c8 553d 1879 88bd
00000110: fecb 6d3d 4b3a 933d 796c 7b3d 268b c43c
00000120: cc88 193d 26af b03d e3b9 aa3d b7bc 81bd
00000130: f1ec 83bd ffac 643c eb8e adbd bc3b a93d
00000140: 6c3f 8bbc 0580 1b3e bbdc 95ba 9ff0 debd
00000150: 2e99 7e3d 33ec 1bbd 089e ed3d b6e0 cbbd
00000160: 2e04 d4bd 9dab a9ba e94d 56bc ff91 2abd
00000170: 1a9b 563d 94fc 79bd 54b5 eabc b541 f13c
00000180: fbed b7bc 789c c5bc 2936 61bd fd43 1cbc
00000190: f106 06bd bdd0 2abe 0d20 4ebd 37ee 9b3d
000001a0: c0a2 4cbd f926 703d ae12 2b3d 14e0 90bd
000001b0: 7e60 783d dd8d c43b 66e0 113e ecc2 73bd
000001c0: 69bc b7bd 3860 85bd 74bf 66bc ebcf 723d
000001d0: 6994 943d f86e 2bbd 2206 4d3d 0171 cb3d
000001e0: b233 553d 178f d43b 650b f43d 3395 463d
000001f0: 7927 3e3d 3ece 92bc dc3b 2bba a599 3cbd
00000200: 0c4c 393c 3be3 1e3b bc51 24be 8e17 73bd
00000210: e4c1 553c faf9 8dbd b44d 453d dca2 ddbc
00000220: 54ce 133d 6941 96bc 218f 0b3d dd7c eabc
00000230: cd01 b3bc 6fed 25bd 5351 21bd ad8a bf3d
00000240: 66ef cb3c c7c7 03bd cea8 5fbd 74a3 7f3c
00000250: 7ddf b8bd a843 ae3c 02e5 903d 1a6b d53d
00000260: 67a7 5f3d 152e 9a3d aec4 5dbd c494 e83c
00000270: 0930 7f3d 8818 97bd 2727 673b 562a 28be
00000280: f550 083e 29c7 25bc 606c 8ebd fbc6 b73d
00000290: f234 813c 1f9c 3dbd a490 6bbc e779 c3bc
000002a0: da18 00be bf56 81bc 025d 963d 22f0 1f3c
000002b0: 20cd 7a3d 07a5 41bd a5f9 bdbc 6f90 983d
000002c0: 2faf 603c cfc7 b53d 4336 8d3d 834d 0dbd
000002d0: 8629 2abd 9e21 983d 4c6e 6b3a 48c8 f9bd
000002e0: 9b31 1c3d 8bc1 a6bb 97b3 6cbc 9904 5e3d
000002f0: b347 42bb ca46 e53d 9e29 77bd c38d ca3d
00000300: 05cb 0f3d eb75 9f3c 539f dd3d 25c6 4fbd
00000310: 7b81 7d3b a5bb db3d 8cba 67bb 80a8 19be
00000320: 62cd 86bc 216d 4c3d cbd6 cebd 3df3 e5bc
00000330: 39d8 c0bc 38b8 2d3e dd3e 203a 736b 0b3c
00000340: ea85 0fbd b9d2 cabd fd7b 0d3e 06c0 c73b
00000350: 5485 a83d f178 e4bd 6ccb d5bd 4ec4 62bd
00000360: 5683 92bd ca3e c8bc 55a1 0f3d db81 84bd
00000370: ba1c c73d 94df 3d3d fb83 683d 8c3e b1bc
00000380: 4cc7 303d 2e23 5ebd 4271 48bc 4b74 123d
00000390: f2c3 4ebc 97ca 54bd 8385 bc3d 799c 8fbd
000003a0: 6d18 373d 75b0 083d b9d4 0b3d b957 0e3d
000003b0: 881c abbd 8a5d 623b 55df 0c3d 5ce4 00bd
000003c0: d385 323d 9e11 903c 04ac 07bd 2be8 87bc
000003d0: 4cdb 39bd 4a18 b5bb be1d a03c 4627 523d
000003e0: 20fa eb3c 204a 19bd b1e9 413d 274a 9c3d
000003f0: a8d6 1dbe 0336 21bd f083 843d 048a 0ebc
0.069890395 0.008117598 0.029689318 0.0184435 -0.086116344 -0.101160616 0.019434214 -0.07473188
-0.12357223 0.042109795 0.010276533 0.004997409 -0.06774655 -0.012713991 0.036645114 -0.0066754897
0.055252485 0.01511967 -0.08851889 -0.0075211907 0.14171602 0.022774065 -0.012221597 0.07068179
0.025263013 0.07818985 0.049667135 0.018773625 0.019141596 -0.051381 -0.14779843 0.03880675
-0.070664115 -0.03450357 0.049741145 -0.011207566 -0.120073445 -0.03841914 0.04973378 0.09504451
-0.033192 -0.07940048 -0.05565377 0.04257087 0.07059434 -0.04562788 -0.017276188 0.010412143
0.006012725 0.09541064 -0.018063653 0.037645444 -0.17178826 0.020036962 0.0038860352 0.050701156
0.004304584 0.033474233 0.012776556 0.050367415 0.0036385101 0.12223274 -0.06866783 0.005264683
-0.03990128 -0.00753015 0.052193593 -0.06663722 0.05805587 0.07188853 0.061382744 0.023992132
0.037483975 0.08627157 0.08336236 -0.063348226 -0.06441677 0.013957261 -0.08474525 0.082633466
-0.016998015 0.15185554 -0.0011433581 -0.108857386 0.062157802 -0.038067054 0.11602408 -0.099549696
-0.1035236 -0.0012944822 -0.013080099 -0.04164314 0.05239401 -0.061031893 -0.028650917 0.029450277
-0.022452345 -0.024122462 -0.05498329 -0.009537694 -0.032721464 -0.1668119 -0.050323535 0.07613795
-0.049959898 0.058630917 0.04176586 -0.070739895 0.060638897 0.0059983567 0.14245757 -0.059512064
-0.08971483 -0.06512493 -0.014083732 0.059280317 0.072548695 -0.041853875 0.050054677 0.09933663
0.052051254 0.006486784 0.11916236 0.04848213 0.046424363 -0.01792061 -0.0006532052 -0.046044964
0.011309635 0.0024244327 -0.16046804 -0.059348635 0.013046715 -0.06932445 0.048169807 -0.027055196
0.03608544 -0.018341737 0.034072045 -0.028623993 -0.021851445 -0.040509637 -0.039384197 0.09352622
0.024894428 -0.032172944 -0.054604344 0.015602935 -0.09027002 0.021272495 0.0707493 0.104208186
0.054603007 0.07528321 -0.054142646 0.02839125 0.06230167 -0.07377726 0.003527114 -0.164224
0.13312133 -0.010118284 -0.06954265 0.089734994 0.015772317 -0.046291467 -0.014377747 -0.023861839
-0.1250948 -0.015788434 0.073419586 0.009761842 0.06123078 -0.047276523 -0.023190329 0.074494235
0.013713642 0.08876001 0.06895115 -0.03449775 -0.041543506 0.07428287 0.0008980974 -0.12196404
0.038133245 -0.00508899 -0.014447114 0.054203603 -0.0029644787 0.111951426 -0.060342424 0.0989032
0.035105724 0.019465407 0.10821404 -0.050726075 0.0038681913 0.1072915 -0.0035358993 -0.15005684
-0.016455356 0.04990876 -0.10099562 -0.028070087 -0.023540603 0.16964805 0.0006112883 0.008509505
-0.03503982 -0.099034734 0.13816829 0.006095889 0.08228555 -0.1115588 -0.1043919 -0.055362992
-0.071539566 -0.024444003 0.035065968 -0.064700805 0.09722276 0.0463558 0.05676649 -0.02163627
0.043158814 -0.05423277 -0.012234034 0.035755437 -0.012619959 -0.051951017 0.09205153 -0.07012267
0.04470103 0.033371408 0.034138415 0.034751628 -0.08355051 0.0034540617 0.034392674 -0.03146778
0.043584656 0.017586526 -0.03312303 -0.016590199 -0.045375153 -0.005526577 0.019545432 0.051306985
0.028805792 -0.037424207 0.047342006 0.07631331 -0.15413916 -0.03935815 0.064704776 -0.008699898

network_body._body_endoder.seq_layers.4.bias f4 [256]
00000000: d932 95bb 43e8 09bb e402 d7bb 1f33 b7bb
00000010: 4b88 5c3b 7a32 36ba 5459 563a 1b5f 443c
00000020: 195d 5abb 9e3f 87bb 51e9 8d37 0b5f 0d3a
00000030: 361c aaba d862 de3b f611 eabb a161 0cbb
00000040: 6921 bdbb b2c8 ebbb 0d85 8dbb 90cc 13bb
00000050: f894 5cbb 1121 2339 2b2f a8bb 27be abbb
00000060: 5f9a 4f3b b219 653a d00f 5e3b 2362 84bb
00000070: b3ab bdba 1090 19bb 783c 57bb c87f 9a3a
00000080: aa57 12bb b309 4d38 7394 45bb 42bb b53a
00000090: 3a89 c23b 473e 4d3b bf28 a23b cde5 b0ba
000000a0: a9ff 53bb b6ef 053b 3ff8 5ebb 4a93 9e3b
000000b0: 0465 b83b 12a6 803a b912 a3ba 6a18 16bb
000000c0: ff30 f63a a23a b1bb 3467 e8bb 87dc 86ba
000000d0: 634a 8ebb 13ea aa3a 838c 4e3b 5c9c cbba
000000e0: 76f3 4bb9 4c78 8d3a 5a7a e039 26d9 fabb
000000f0: 9cda 7cb8 800c ccbb 31c8 95bb 7691 f83b
00000100: 86df a9b9 2310 16bb 845b 613b c75a c3ba
00000110: 0205 d9ba 9229 983b 9ff3 52bb 388b a13b
00000120: c92e 123c 4fd1 bdba 053d a2b9 61a7 cd3a
00000130: 1169 7c3b 6090 a43a a638 afbb 79dd 55bb
00000140: 3711 1fbb 6d20 bb3b e32c 143b 7922 b7bb
00000150: 0f0d b93a cad5 2c3b 6421 babb 2091 173c
00000160: c3c2 943b 8096 c43b 6105 7ebb cd2f 563a
00000170: 4d0c bdba 5c25 83ba 8e86 8fbb b8f8 37bb
00000180: ecb2 9c3b 560f 983b 2032 a13a 1f1a b33a
00000190: fbef a7b9 851f b6bb 33d9 75ba a35c 9ebb
000001a0: 6f89 0c3b 06a7 1f3a 6e23 34bb 5628 853b
000001b0: c57d 453b 9d4d 8ebb 0994 5a3b 1d3f d3b9
000001c0: 08cb da3b e819 a8bb 68bb cb3a 72fd 4d3b
000001d0: e916 c1bb 4c2a 8b3b 88c4 0eb7 a635 3dbb
000001e0: 15a4 b6bb 3342 58bb e4a6 3dbb e95d f2bb
000001f0: d1cc c4ba 2847 65bb ddbb 29bb 7917 d13a
00000200: ff64 02bb 0e18 8a3b 24a4 9bbb 599a a43b
00000210: 6727 183b 599c 913b eec0 f7b9 ca49 643a
00000220: e66d 93bb 34e6 5a39 40a2 853b 3bf9 7739
00000230: d578 383b 5ca2 183b 7180 fdba c5c7 93bb
00000240: 9c70 f5ba fe86 5a39 304b 5239 bb1c 043a
00000250: d317 ecb9 404e 033b cd2a f33a c8db f8ba
00000260: 5bcf a73b a0a0 33bb 9a7e 853b c9e8 c0ba
00000270: bd9d f4b9 7a64 343a d0cc 4dba ea47 29bb
00000280: fa81 29ba ae8c a039 b507 903a 4f66 473b
00000290: 96ac 163b bd1b 733a 565f cb3a 59f8 453a
000002a0: 2dd8 c6bb 4fbe 0cbb abcb bcba 60a3 ebbb
000002b0: b0f3 ccba a2b4 ca3b 405e 88b9 2fb7 a03b
000002c0: 40c1 7db9 9cd4 8abb a69e 1fbb 08b8 ad3b
000002d0: 094f 3b3b 885f 17bb 7b5c 4cba 3652 0aba
000002e0: 2511 ddb9 1cc5 c139 3efd 0cba 705c d53b
000002f0: ec73 c139 a180 b43b 88fe bb3a 0b24 663b
00000300: 9770 293b 6a0e 36bb a5a3 293a 489d 853b
00000310: 295b 9738 1c95 563b 0e9f bab9 4ea0 00bb
00000320: 73cc c13b eb71 b43b daa9 95ba 2e2a d63a
00000330: 4141 a0ba 8ed8 faba 216f e6ba e18b 7cb9
00000340: 04b5 bdba 5272 073b 7f4d 453b a2ad 94bb
00000350: cdf9 a93b 42ef b4bb 4294 09ba a5cc 34bb
00000360: c5e0 8d3b 8c94 2fbb 9366 89bb 263e 3f3b
00000370: 4bf2 b539 043f 8a3b 21d5 02bc 7964 d1ba
00000380: 4eb7 b2bb cb55 123c 240d d4ba b092 6cbb
00000390: a989 f4b9 0fba 40bb b079 473b 4c49 8fbb
000003a0: 2f21 c4bb 5a42 893a 7b59 9fb9 a055 cdbb
000003b0: 67d8 8abb e332 613a 71e7 9ebb 5bae b53b
000003c0: c119 ed3b 7d54 293b 1588 753b 7484 b738
000003d0: e8d4 46bb fd12 913b 2d59 91ba 2d41 e3bb
000003e0: 5332 a4bb 86ff 1f3a 5a8b 573a ea25 8b3b
000003f0: 544b a5bb 11ae 863b 52f3 b9ba d427 873b
-0.0045531807 -0.002104298 -0.006561624 -0.005590811 0.0033650573 -0.00069502706 0.0008176763 0.011985566
-0.003331965 -0.004127457 1.6917156e-05 0.00053928857 -0.0012978378 0.0067866854 -0.0071432544 -0.0021420496
-0.005771805 -0.0071955556 -0.0043188394 -0.0022552349 -0.0033658128 0.0001555721 -0.005132576 -0.005241174
0.0031677706 0.00087394856 0.0033883937 -0.004040019 -0.0014470726 -0.0023431815 -0.0032842439 0.0011787349
-0.0022330084 4.888484e-05 -0.0030148297 0.0013865011 0.005936769 0.0031317638 0.004948705 -0.001349622
-0.003234843 0.0020437068 -0.0034022478 0.0048393356 0.0056272764 0.0009815118 -0.0012441493 -0.0022902736
0.0018782913 -0.005408601 -0.007092381 -0.0010289111 -0.0043423637 0.001303973 0.0031516857 -0.001553427
-0.00019450285 0.0010793298 0.00042815768 -0.0076552806 -6.0285078e-05 -0.006227076 -0.004570984 0.0075856997
-0.0003240073 -0.0022897802 0.0034386823 -0.0014904373 -0.0016557279 0.0046436274 -0.0032188667 0.0049299262
0.008922287 -0.0014481934 -0.0003094451 0.0015690142 0.0038514773 0.0012555234 -0.005347329 -0.0032633229
-0.0024271735 0.0057106526 0.0022609762 -0.0055888263 0.0014118272 0.0026372545 -0.00568025 0.009250909
0.004539819 0.0059993863 -0.003876053 0.0008170575 -0.0014423222 -0.0010005641 -0.004380054 -0.0028071832
0.0047820713 0.0046405 0.0012298264 0.0013664401 -0.00032031522 -0.0055579566 -0.00093783735 -0.0048328205
0.0021444221 0.0006090257 -0.0027486938 0.0040636463 0.003013478 -0.0043427483 0.0033352396 -0.0004029208
0.0066770352 -0.0051300414 0.0015543522 0.0031431583 -0.0058926237 0.0042469855 -8.509618e-06 -0.0028871088
-0.0055737593 -0.0032998442 -0.0028938586 -0.007396449 -0.0015014653 -0.003498504 -0.0025899329 0.001595243
-0.0019896624 0.0042142933 -0.0047497917 0.0050232825 0.0023216845 0.004443687 -0.00047255255 0.0008708505
-0.004499185 0.00020875857 0.0040781796 0.00023648601 0.0028148193 0.0023290133 -0.0019340647 -0.0045098984
-0.0018725577 0.00020840389 0.0002005517 0.00050396816 -0.00045031178 0.0020035654 0.0018552184 -0.0018986398
0.0051211542 -0.0027408972 0.00407393 -0.0014717813 -0.0004665683 0.0006881427 -0.0007850649 -0.0025830218
-0.00064662064 0.00030622393 0.0010988625 0.003042597 0.0022991053 0.00092738477 0.0015516083 0.00075519603
-0.0060682506 -0.0021475737 -0.001440396 -0.0071911067 -0.0015636589 0.006186084 -0.00026010163 0.0049046497
-0.00024199951 -0.004236771 -0.0024356036 0.0053014793 0.0028581044 -0.0023097713 -0.0007795763 -0.00052765326
-0.00042165178 0.00036958687 -0.0005378312 0.0065112635 0.00036898197 0.005508498 0.0014342824 0.0035116698
0.0025854462 -0.0027779588 0.00064712233 0.0040775873 7.217221e-05 0.0032742685 -0.0003559519 -0.00196268
0.005914265 0.005506744 -0.0011418418 0.0016339475 -0.0012226478 -0.0019138025 -0.0017580726 -0.00024084702
-0.0014473503 0.0020667505 0.0030106006 -0.0045373 0.0051872493 -0.005521686 -0.00052482274 -0.0027587798
0.004329773 -0.0026791422 -0.004193136 0.002918133 0.00034703533 0.004218938 -0.007985384 -0.0015975378
-0.0054539805 0.008931587 -0.0016178233 -0.0036098175 -0.0004664187 -0.0029407775 0.0030437522 -0.0043727513
-0.005985401 0.0010472045 -0.0003039351 -0.006266311 -0.004237223 0.00085906516 -0.0048493673 0.0055444664
0.007235736 0.0025837712 0.0037465144 8.750791e-05 -0.0030339304 0.0044273124 -0.0011089199 -0.00693526
-0.005010882 0.00061034446 0.0008222364 0.004246463 -0.00504438 0.004110106 -0.0014186895 0.004124621

network_body._body_endoder.seq_layers.4.weight f4 [256, 256]
00000000: 47b8 ec3d ee20 1ebd 7da5 6cbd 4a12 d3bc
00000010: 8f4d ba3d 238a 70bd ae4a d23c 6d3d 01bd
00000020: 1b42 4abd 31ca 9d3c a778 243d 0e1b debc
00000030: 11c7 943d 2abd 6b3a 59f6 233c 1854 233d
00000040: 63a8 5e3d b8b4 0abe 4fd7 88bd 82a4 a43d
00000050: 093e 453c 90b7 46bc 2fa3 3abc a9c3 80bc
00000060: edbe 15bd 8cc7 b3bc 51cb 3d3d 399e 423d
00000070: f2bc e2bd 33e5 8abd a977 3ebd b180 213d
00000080: 1949 abbd 21ec 8cbd ede8 ed3a 0945 d53b
00000090: f8eb bb3c 29ef 1b3d 102f ee3c cd06 8e3d
000000a0: f006 3abd fa4f a7bd f9b6 e23d 46a3 a93c
000000b0: 837b a03d 8574 a13d feb4 963d 6af3 60bc
000000c0: 19fe af3c 6971 e23c 48c5 5e3c 856f 9f3d
000000d0: a9c9 e93c bc5c 6b3d 44d1 0ebe cab4 05bd
000000e0: 013e 44bc f949 373e ca77 5bbd cc8b e23c
000000f0: a5d1 f93b aa60 ba3c 6bd9 593d 7497 f33c
00000100: d30b 133c c360 11be e93d 0c3e c808 d1bd
00000110: c3f2 debc 7102 2bbd 39d7 4fbd 13ea 4f3c
00000120: 3ada 0b3d fb40 23bd 0884 c43d 7676 ca3c
00000130: 28f4 b2bc cdf8 2fbc 00ec b83d 7c38 d93d
00000140: c41a 973d eb0e 39bc 2ff2 453d 9e09 c23b
00000150: cb31 97bc f0a6 cd3c 675a 2cbe be2d b1bb
00000160: 1732 32bd 208d 70bd 7256 af3d c448 3f3d
00000170: 8fb9 d6bd 7d5c a93d dc8f b5bb 5f8f 013e
00000180: a303 3c3e b669 9fba 0217 02be bc0d 1fbd
00000190: 59fa ad3d 9708 61bc 2f5a 073d 1d39 503c
000001a0: b629 1cbd 6c2a 26bd 0d9d 26bd e019 463d
000001b0: 0e11 933c 0d08 10bd 56b0 81bb a7c5 a53d
000001c0: 2a28 55bc 8dca 823d bdc6 fe3c 78f9 9a3d
000001d0: af23 403d 7b42 6dbd 35bc a3bd 9548 ef3c
000001e0: 1ecd f63b 5e48 663c e05d 9dbc bbe2 36bd
000001f0: e117 c53d a2da fbbc f3d3 3e3c a4e9 febc
00000200: a9ca 143d 72a8 243d e4ce f63c 30dc 083c
00000210: 65e8 e13c 8780 26bd ecc5 0bbd e7ea 2d3e
00000220: c9ff f3bb 3357 05bd 2254 f5bb 89ad 493d
00000230: b33d 96bd f19e ab3d b2dc 95bd e73e 06bd
00000240: 5f98 1c3e e3b7 963d 829b 633d e497 653c
00000250: be7e 73bd df3c fd3c ae20 bebd 6620 cf3b
00000260: 34b1 2dbd 2ed1 4a3b 87d2 0b3d b1c7 00be
00000270: 3e75 5f3c 0314 34bd ca81 16bd 0ccc a0bc
00000280: 64da 623d 6446 693c 99e6 293c 8116 03bc
00000290: 2018 b73d d7e8 89bc caf9 13be 84ea f83c
000002a0: 70e8 cdbd 9b83 8ebd 7b28 e7bd 0f04 14bd
000002b0: 1f92 033d 2d28 3e3d f89a 80bb 2800 a1bd
000002c0: 33f1 0a3e 8f73 5cbd 21f4 fc3c 89f0 e2bb
000002d0: 88eb b33d f539 22bd 151d c43c dc0d 173c
000002e0: 0c49 693d 8da6 3d3d a0aa 263b 643a af3d
000002f0: 402a 2e3d 5a88 e9bc 3a73 8f3d 7d5e f33b
00000300: c501 f13c bcac d4bc 1b4e 1c3d 233b d3ba
00000310: a54f 48bc 4ef4 0a3e 0db1 34bd 642d 6dbd
00000320: 1c06 a03d c2fb c4bc 09f8 e13d 3cbd 663d
00000330: 5d65 cfbd 524e ddbb 1491 75bb 22dd 0c3c
00000340: 7ba1 9bbd 9840 33bd ff9e a63b f2e1 093e
00000350: 3cce a4bd 390c cf3d d843 533d d845 91bc
00000360: 8043 02bd c04e 913b cefc 42bd 0b3f 743d
00000370: 2404 d038 350f 293b 5a88 a4bc 513e ca3c
00000380: 0353 b5bc ccb3 d6bd 19fe af3d b48d a03d
00000390: 07a8 a9bc 202c 38bd 8949 2a3d 7574 25bd
000003a0: 7ad0 4c3d e5a1 1cbd 937f c0bb 0b14 263d
000003b0: 2a68 33bd bb33 103b 49ef c5bb 5e94 3abd
000003c0: 1378 ad3c abc4 adbc 7012 b83d cb16 2a3d
000003d0: 0f52 89bc a7c9 73bd b5d7 e33c 57ee e43c
000003e0: 8296 9dbd 335a 193d b497 ac3d 074f 843d
000003f0: 8aa1 0b3e 8af2 c13d a12e 0d3c c41f fb3c
0.115585856 -0.038605623 -0.05777501 -0.025765557 0.090968244 -0.058725487 0.025670376 -0.03155272
-0.04937945 0.019261451 0.040154126 -0.02711251 0.072645314 0.0008992726 0.010007464 0.03987512
0.054359805 -0.13545501 -0.06681692 0.0803919 0.012038716 -0.012128726 -0.011391445 -0.015718298
-0.036559034 -0.021945737 0.046336476 0.047514174 -0.11071195 -0.067819975 -0.046500836 0.03942937
-0.08363552 -0.068809755 0.0018151082 0.006508474 0.022939667 0.038069878 0.029075176 0.06934891
-0.045416772 -0.08169551 0.110700555 0.020707738 0.07836058 0.078835525 0.0735874 -0.013729909
0.021483468 0.027641969 0.01359684 0.077849425 0.028538542 0.057461485 -0.13947016 -0.032643117
-0.0119776735 0.17899312 -0.053581037 0.027654551 0.0076238685 0.022751171 0.05318586 0.029735304
0.008974987 -0.14197068 0.13695492 -0.10206753 -0.027215367 -0.041750375 -0.05074236 0.012690085
0.034143664 -0.039856892 0.095954955 0.02471469 -0.021844938 -0.010740471 0.090293884 0.10606477
0.07378152 -0.011295061 0.048326667 0.0059215566 -0.01845636 0.025104016 -0.16831361 -0.005407064
-0.0435048 -0.058728337 0.0856141 0.046700254 -0.10484611 0.08269594 -0.005540831 0.12652348
0.18360762 -0.0012162242 -0.1270409 -0.038831457 0.08495016 -0.013734958 0.03304499 0.012708929
-0.038125716 -0.0405678 -0.04067712 0.04836452 0.017952468 -0.035163928 -0.0039577885 0.0809434
-0.013010064 0.0638629 0.031100625 0.07567114 0.04690903 -0.05792473 -0.07994882 0.029209414
0.007531776 0.01405534 -0.019209802 -0.04464982 0.09623695 -0.0307439 0.011647212 -0.031117268
0.036326084 0.040199704 0.03012795 0.008353278 0.027576635 -0.040649917 -0.0341243 0.1698414
-0.0074462635 -0.032553863 -0.007486836 0.04923776 -0.07335987 0.08379925 -0.07317485 -0.032774832
0.152925 0.07359292 0.055568226 0.014013264 -0.059447043 0.030912815 -0.09283577 0.006321001
-0.042405322 0.0030947435 0.03413632 -0.12576176 0.013638793 -0.043964397 -0.03674487 -0.019628547
0.055384055 0.014237974 0.01036992 -0.008000971 0.08940148 -0.01683466 -0.14450756 0.030385263
-0.100540996 -0.069586955 -0.11287018 -0.036136683 0.032121774 0.046425033 -0.0039247237 -0.07861358
0.13568573 -0.053821143 0.030878128 -0.0069256467 0.087851584 -0.039606053 0.023939649 0.009219613
0.05695443 0.046301413 0.002543129 0.08556059 0.04252076 -0.0285074 0.070043996 0.0074270354
0.02941979 -0.025961272 0.038160425 -0.0016115647 -0.01222602 0.13569757 -0.04411416 -0.057904616
0.07813665 -0.024045829 0.11033637 0.05633281 -0.101267554 -0.0067537213 -0.0037470507 0.008597644
-0.07599159 -0.043762773 0.005084872 0.13465098 -0.080471486 0.10109753 0.051578373 -0.0177335
-0.031802654 0.0044344366 -0.047604375 0.059630435 9.918984e-05 0.0025796418 -0.020084549 0.024687918
-0.02213431 -0.10483512 0.08593387 0.07839528 -0.020710004 -0.044963956 0.041574035 -0.040394265
0.050003506 -0.038240332 -0.005874583 0.04054646 -0.04380051 0.002200349 -0.006040488 -0.04555165
0.02117542 -0.021211943 0.08987892 0.041525643 -0.016762761 -0.059518483 0.027812818 0.02794568
-0.07694723 0.037439536 0.084273726 0.06460386 0.13635841 0.09470089 0.008617074 0.030654795
