Assets/Training/results/track1_5/config_track1/config_track1-613821.onnx (onnx, 601409 bytes, 9 tensors)

action_model._continuous_distribution.log_sigma f4 [1, 2]
000000 65 9b 81 bd 4b 2e 2c be
       -0.06328467 -0.16814534

action_model._continuous_distribution.mu.bias f4 [2]
000000 08 52 78 bb e2 98 0b b8
       -0.0037890691 -3.3282566e-05

action_model._continuous_distribution.mu.weight f4 [2, 256]
000000 13 b1 4a bb b6 8e e7 3b 44 79 f4 3a 3f 27 ad 3c
       -0.0030928298 0.007066573 0.0018651863 0.021136878
000010 aa 15 20 3d 2c 46 43 3b 25 2c af bb 62 73 91 bc
       0.03908316 0.0029796464 -0.0053458386 -0.017755214
000020 0d 1f 58 3c f6 37 aa bc aa d0 12 3c d6 c2 2e bc
       0.013190997 -0.020778637 0.008960882 -0.01066657
000030 68 ff ab 3b 24 1a 65 bc 07 bf c1 bb 4b 79 74 3c
       0.0052489527 -0.013983283 -0.005912665 0.014921497
000040 ee d8 cf 3c 35 82 0e 3d 2a 26 8a 3c f5 c5 85 3c
       0.025371995 0.034792144 0.016863901 0.016329745
000050 10 6d 70 bc dc 85 c0 3c 0c 38 c4 3c 81 44 26 bb
       -0.01467444 0.02350133 0.023952506 -0.0025370421
000060 e8 b9 6d bb 60 31 8f bc a2 8c 8a bc b3 97 09 3b
       -0.003627414 -0.017479599 -0.016912762 0.002099496
000070 b8 a6 65 bb 23 76 82 bc 4c af c8 3c 03 a3 41 3b
       -0.0035042 -0.015925473 0.02449765 0.0029546625
000080 45 af c9 3b c9 05 22 bc fb 5b 97 bb 25 8e 70 3c
       0.006154927 -0.009889075 -0.004619119 0.014682327
000090 67 c7 fc 3c b7 1f 05 3d ff 08 d7 ba 5f d2 87 3c
       0.030856801 0.03250095 -0.0016405879 0.016579805
0000a0 e8 5b 52 bb 82 07 09 bc 91 d9 97 3a 22 c3 9d 3c
       -0.0032098237 -0.008363606 0.0011585226 0.019258086
0000b0 25 ab 86 3b 0a 17 d8 3c c3 ea 10 3c b8 3e be bb
       0.0041097575 0.026378173 0.008845034 -0.0058058165
0000c0 78 b4 2f bd 6d 71 86 3c 4f 47 f7 3b 0b e5 6e bb
       -0.042896718 0.016411508 0.0075463424 -0.0036452438
0000d0 ab 28 2d 3c e8 48 4a bc ba 4f 6e bc e8 08 c5 3c
       0.010568778 -0.012346484 -0.0145453755 0.024052098
0000e0 37 57 64 3b 66 2a 61 3c 97 3a fb 3c 90 73 0c 3c
       0.0034842023 0.013743019 0.030667586 0.008572474
0000f0 b2 9f ba 3c d1 ee c2 bb 69 d1 0b bc f0 04 0e 3c
       0.022781227 -0.0059488793 -0.008533814 0.008668169
000100 1a 31 66 bb 31 db 1e 3c aa 20 87 3c 86 84 ae 3b
       -0.0035124482 0.009695814 0.016495068 0.0053258566
000110 99 ef a7 3c 0d f0 3a 3c 69 00 56 bc 9f 12 52 bb
       0.020499991 0.011409772 -0.013061621 -0.0032054556
000120 3e 69 7c bb 12 33 32 3c 55 49 3e bc d0 30 45 3c
       -0.0038514878 0.010876434 -0.011614163 0.012035564
000130 10 92 a1 bb 8e 09 d9 3b 6a 58 1a bc 0e e4 18 3c
       -0.004930742 0.0066234535 -0.009420494 0.009331716
000140 2a 2f 84 3c 80 a8 98 3c c6 c1 12 3c 57 e4 19 3b
       0.01613577 0.018635035 0.008957332 0.0023482048
000150 c5 2f 98 3c 32 d3 37 bb 89 18 2a 3c 9d 3b a0 3a
       0.018577466 -0.0028049466 0.010381826 0.0012224797
000160 01 7b d4 bb 24 a6 3e bd 4a 0a 15 3c 0f 53 c2 3c
       -0.00648439 -0.046545163 0.009096691 0.023721246
000170 46 39 18 bb 88 4b d2 3c a7 82 84 3c cb be a8 3c
       -0.0023227497 0.025670782 0.016175581 0.02059879
000180 54 be 25 3b c2 3d 0b 3b 93 74 13 3c b1 58 68 bc
       0.0025290446 0.0021246527 0.008999961 -0.014181302
000190 44 be 43 3b 2b 55 71 ba 98 45 99 3b 47 a0 90 bb
       0.0029868046 -0.00092061114 0.0046774857 -0.004413638
0001a0 4b cd 64 bb f6 12 02 bb 1e e5 94 3c f6 6d 97 3c
       -0.0034912403 -0.0019847727 0.018175658 0.01848505
0001b0 13 50 2a bc 91 65 47 bc bc 08 df 3c ca 46 a4 3c
       -0.010395068 -0.012170211 0.027225845 0.020053286
0001c0 ad f3 dc 3c b7 bb c6 3c 97 4e 15 3a ae 39 ee bc
       0.026971662 0.024259431 0.000569561 -0.029080238
0001d0 c9 01 a0 3b 11 84 06 3b 49 dd 66 bc 36 78 7c bc
       0.0048830253 0.0020525495 -0.014090844 -0.01540952
0001e0 01 39 1c 3c fe 26 00 3b 0b 8a 00 bd 6d 59 90 3c
       0.009535075 0.001955449 -0.031381648 0.017620767
0001f0 31 99 24 3d a3 4f eb 3a 5f 4c 1b 3c 12 c9 13 3c
       0.040185157 0.0017952811 0.0094786575 0.009020107
000200 31 5f 26 ba ff c6 42 3b c9 61 a8 3b ca f3 c7 ba
       -0.0006346582 0.0029720662 0.00513861 -0.001525515
000210 38 3e c9 bb 12 a8 66 3b a7 1b 2f 3c 3c 35 e9 3c
       -0.0061414503 0.0035195393 0.010687745 0.028467767
000220 a4 fb b7 bb 77 dd a2 3c 92 db 01 3c 0b 5c 4d ba
       -0.0056147147 0.019880993 0.007925885 -0.0007833845
000230 a6 08 6f 3c a2 84 0d 3b d7 d3 aa b9 1d 4e dc 3b
       0.014589464 0.0021593948 -0.0003258276 0.006723179
000240 ed 77 18 3c de 90 e1 3a 74 f2 88 3b 73 e5 8b 3c
       0.009305936 0.0017209311 0.0041792933 0.017077183
000250 d0 1b 22 bc 93 a8 83 3c 03 ca 79 3c 8a 00 22 bc
       -0.009894326 0.016071593 0.015245917 -0.009887824
000260 49 5c 6c 3c f8 40 ae 3c 28 11 ad 3c 32 d9 8a bc
       0.014426299 0.021271214 0.021126345 -0.01694927
000270 ea 66 77 3c 59 90 92 b9 e7 91 a1 3b bf 94 9c 3c
       0.01510022 -0.00027954837 0.004930723 0.019113896
000280 a8 05 e7 3c 7c 3b 10 3c 60 0f cc bb bc a0 1f 3d
       0.02820094 0.008803245 -0.006227419 0.038971648
000290 30 d3 2e 3c 02 cd 98 3b cc d9 11 3c 23 29 a2 3c
       0.010670468 0.0046631107 0.0089020245 0.019795006
0002a0 61 89 0c 3c 28 35 02 3d b4 dd fa 3c 83 ae af bb
       0.008577676 0.031788975 0.030623294 -0.0053613796
0002b0 ad 47 e6 b9 c0 c4 ee bb 41 0d 28 bc 54 bd 1d bc
       -0.0004392242 -0.007286638 -0.010257066 -0.009627659
0002c0 c3 15 3a bb a0 93 ca bb bb bc 71 bc de bb 00 3c
       -0.0028394319 -0.006182149 -0.0147544695 0.007857291
0002d0 55 c0 0d bd c9 5a 2e 3c 9d 6c af bb 0e 46 ec 3c
       -0.03460725 0.010641762 -0.005353524 0.028841998
0002e0 56 86 9b bb 72 31 8e 3b 45 86 a1 bc 3b c5 47 bc
       -0.0047462387 0.0043393904 -0.019717345 -0.0121930195
0002f0 3d 17 9a 39 e1 7d 65 3a 60 aa 82 bc a5 a8 b4 3c
       0.00029390483 0.0008754414 -0.015950382 0.022053072
000300 c2 b3 4b bc 89 ec 2c bc 1c 0e b5 3c 47 a3 4d bb
       -0.012432994 -0.010554441 0.022101454 -0.0031377838
000310 86 f4 1c 3c 1c 51 cc 3c 6e c9 41 3c ea 77 8b 3c
       0.009579783 0.02494102 0.01182781 0.017024953
000320 b6 94 77 ba d7 ce 05 3d c5 bd 05 3c ae 81 11 bc
       -0.0009444462 0.03266796 0.00816292 -0.008881016
000330 81 4f fe 3c 5c 0a 78 3c c8 39 94 bc 00 5b 0a 3b
       0.03104377 0.015139189 -0.018093958 0.002111137
000340 e9 58 69 3c 70 7d 45 bc d6 a1 87 bb 55 09 ff 3b
       0.014242389 -0.012053832 -0.0041391654 0.007783095
000350 d1 c6 3f 3d 4a 74 5c 3a 75 26 b1 3c bb 2d 5b bc
       0.046820465 0.00084096624 0.021624783 -0.013377602
000360 85 4c d4 3b 4c 22 c1 bb 36 71 02 3a a4 f8 0e 3c
       0.0064788484 -0.005893981 0.0004975976 0.008726273
000370 0e 41 90 3b 91 47 29 bb 48 35 ca b9 e2 3b 0f bb
       0.0044022864 -0.002583001 -0.0003856814 -0.0021855761
000380 40 7c 88 3c b3 c9 0a 3c 76 98 80 3c 6e ea bc bb
       0.01666081 0.00847094 0.015697699 -0.005765251
000390 e2 a4 c3 bb 97 d9 70 3b 07 1c 1c 3c 0c 57 1c 3c
       -0.0059705833 0.0036750787 0.009528167 0.009542238
0003a0 ee 02 9b 3b cb 8c 48 bb 1e 0c a7 b9 87 0f a0 ba
       0.004730574 -0.0030601497 -0.0003186175 -0.0012211659
0003b0 d3 c9 44 3b a9 64 c4 bb 49 38 96 3c 82 4e 80 3b
       0.0030027523 -0.005993445 0.018337386 0.003915609
0003c0 3c ec 72 3c e6 26 3b 3b 74 e9 ed bb 38 16 94 3b
       0.0148268305 0.002855712 -0.007260496 0.0045192502
0003d0 4a a5 ac 3b 34 96 8c 3c ef 66 30 bc f2 67 04 3d
       0.0052687274 0.017161466 -0.010766729 0.032325692
0003e0 3c 70 4a 3c 93 d6 d3 3c ae 95 f3 bc b1 f3 b5 bb
       0.01235586 0.025859153 -0.029734459 -0.005552732
0003f0 3f e3 25 3c 52 6f 35 bb 91 be d3 ba bd d1 ab 3b
       0.0101249805 -0.002768476 -0.0016154816 0.0052435086

network_body._body_endoder.seq_layers.0.bias f4 [256]
000000 1c b4 27 bb 01 6a 25 bb a2 18 71 3b df b6 0c 39
       -0.0025589531 -0.0025240185 0.0036788364 0.00013419565
000010 80 e9 dc 3b ae 4a 97 3b 49 31 cd 3a cf ce b5 bb
       0.0067417026 0.004617057 0.0015654947 -0.005548335
000020 63 99 b2 bb b5 be a8 3a e8 a9 06 bc 68 c2 0d 3d
       -0.005450414 0.0012874218 -0.00821922 0.03460923
000030 72 f1 3c bc 31 6e c2 3b bf cc 98 bb d7 ed 18 bc
       -0.011532174 0.005933546 -0.0046630795 -0.009334049
000040 29 8b f8 bb 3f 77 ec bb 82 cb 46 3b 9f d2 0e bb
       -0.0075849486 -0.0072163637 0.0030333702 -0.002179302
000050 92 75 29 bb 72 a6 89 bb fa 2c 7e 3b fa 7e 0d 3b
       -0.002585743 -0.00420075 0.0038784132 0.0021590577
000060 79 9a 09 bb 0a cb 80 bb df d9 86 3a a0 c7 8c 3c
       -0.0020996614 -0.003930454 0.0010288319 0.017185032
000070 6e e7 ad 39 fe de 34 ba 3f 0d 60 3b cf 50 b2 ba
       0.0003316956 -0.00068996835 0.0034187583 -0.0013604405
000080 08 dc cd 3c 73 90 a5 3b b8 25 5c ba 3a 25 7c 3b
       0.025129333 0.00505262 -0.00083979545 0.0038474337
000090 a9 a5 3c 3c 33 a6 18 3c 6b 70 73 ba 86 a9 3f bb
       0.011514106 0.009316969 -0.0009286466 -0.002924533
0000a0 7e d1 bf 3b e3 b7 a8 3b 0e 3e 4b 3a 8c 1c cb bb
       0.005853831 0.005148874 0.00077530823 -0.0061984714
0000b0 84 35 8b 3c cd f7 8c 3a fd 42 c4 3a 9f 48 80 38
       0.016993292 0.0010755003 0.0014973577 6.117042e-05
0000c0 d6 6b 28 3b 0f af 6b bc 62 8f a8 ba 0e 85 d0 3b
       0.002569904 -0.014384999 -0.0012860114 0.0063635176
0000d0 35 7a fd 3a 6b 97 df 3b d6 a5 7e 3b 38 d9 78 3a
       0.0019338789 0.0068234704 0.003885617 0.00094928173
0000e0 20 96 5b bb b4 63 02 bc 2a ae 0d 3c b0 0f a4 bb
       -0.003350623 -0.007958341 0.008647481 -0.005006753
0000f0 1a 38 80 b9 3d 09 08 3d 1d ef c5 39 4d 4f 54 bb
       -0.0002445586 0.033211935 0.0003775292 -0.00323959
000100 56 f6 a0 ba 0f 9a 5f bb 6e d6 d1 bb 74 64 2d bb
       -0.0012280445 -0.0034118926 -0.006403736 -0.002645758
000110 74 a5 83 3b 2d ba 88 ba db 88 1a bb e5 08 74 bb
       0.0040175263 -0.0010431461 -0.0023580107 -0.0037236747
000120 46 e1 34 3b 8f 11 54 bb 5c 12 4d 3b d9 22 c3 bb
       0.0027600094 -0.0032359099 0.003129146 -0.005955082
000130 0a 7f 54 ba 54 a8 82 3b d6 7f 9f 3a 41 f9 a0 bb
       -0.00081060885 0.0039873514 0.0012168835 -0.004912526
000140 ae cd 28 3b 91 5d 6c 3b b6 29 b6 ba 0a 37 2e bb
       0.002575736 0.0036066512 -0.0013897929 -0.0026583099
000150 8d 43 ae bb 7d 71 a6 3c c7 d7 05 bc f7 66 07 3c
       -0.0053181113 0.020317787 -0.008169121 0.008264295
000160 c7 03 a8 3b de 66 de bb c5 97 e2 3c 07 bf 73 bb
       0.0051274034 -0.006787165 0.02766026 -0.0037192719
000170 83 56 f2 3a 4e 23 3c 3c 4c 1b 62 39 af d7 a6 3b
       0.0018488917 0.011483027 0.00021563208 0.0050916295
000180 ff 83 a4 3b 95 66 d4 3c 5b 5e 60 3c e4 03 c1 bb
       0.005020618 0.025927821 0.013694371 -0.0058903564
000190 63 26 7e bb c4 31 70 ba 0a 71 05 3b 04 b3 5a 3a
       -0.0038780204 -0.0009162689 0.0020361566 0.00083427154
0001a0 55 d7 a0 3a 4e 94 ac bb ee 8a a5 3b d2 35 9b 3c
       0.0012271205 -0.0052667027 0.005051962 0.018946562
0001b0 89 20 4c 3b 8f 98 10 bc d5 a6 35 bb 31 b6 27 3d
       0.0031147322 -0.008825435 -0.0027717848 0.040945236
0001c0 49 ac 29 3a ca 1c 29 3b d3 0b 43 3c 6a 8a 9f b9
       0.0006472511 0.0025804513 0.011904675 -0.0003042997
0001d0 d9 03 56 bb 8d 14 9d bb 1a 5f 05 3d 16 8d 1f bc
       -0.0032656102 -0.0047937096 0.0325614 -0.009738227
0001e0 48 49 94 bb 24 f8 82 3a 83 5a 48 39 af 13 89 3b
       -0.0045253374 0.0009992165 0.00019107205 0.0041832547
0001f0 ab 5c 18 bc 66 90 5a bb 11 4c 80 bb ad dc 1e bb
       -0.0092994375 -0.0033350228 -0.003915318 -0.002424042
000200 c2 dc 96 bb ff dc 89 3c 86 b4 6d 3b fa 9d 89 3a
       -0.004603953 0.016829012 0.003627093 0.0010499351
000210 fa 5d 58 3b 1b 71 91 3b 46 95 b2 bb 27 43 26 bb
       0.0033014999 0.004438532 -0.0054499237 -0.0025369616
000220 06 ee 34 3a 5b fa b7 3c 70 06 9d 39 c3 1e 5d bb
       0.00069019233 0.022458246 0.0002995017 -0.003374026
000230 3b 0f 3d 3a 06 26 69 bb a8 52 c7 3b 8e 48 27 bb
       0.00072120473 -0.0035575642 0.0060828514 -0.0025525424
000240 16 f4 37 3b 53 6c 3b bb 01 37 19 3b 89 1b 64 bb
       0.002806907 -0.0028598502 0.0023378732 -0.0034806451
000250 77 51 4c bb 18 d3 9d 3a 34 70 85 ba ea af 06 bc
       -0.0031176487 0.001204106 -0.0010180534 -0.008220652
000260 6a a6 88 3b 52 09 ea bb d2 b8 79 bc dc cf 1b bc
       0.0041702287 -0.0071422243 -0.0152418185 -0.009510007
000270 61 85 80 3c 41 d6 96 bb d7 df 7c 3b a7 11 eb bb
       0.0156886 -0.004603178 0.0038585567 -0.007173735
000280 ac ae b1 3c 06 bd 2a 3c e2 9c 21 3c 79 e8 63 3b
       0.021689735 0.010421043 0.009864064 0.0034776016
000290 1e 99 00 bc 23 63 ba 3c 7d db 29 bb 71 41 7b bb
       -0.007849006 0.02275235 -0.0025918179 -0.0038338567
0002a0 a4 26 09 bb d0 7c a2 3b 99 62 a1 bb d7 2e 5d bc
       -0.0020927573 0.0049587265 -0.004925084 -0.013499937
0002b0 05 ea 80 bb 56 8a 95 3c 9c 4e 70 bb ad 50 68 3b
       -0.0039341473 0.01825444 -0.0036667949 0.0035448477
0002c0 03 8b b7 3b e7 51 93 bb c6 40 b4 3c ae 61 c3 bb
       0.0056012883 -0.0044958475 0.022003543 -0.005962572
0002d0 c5 f0 d2 bb e2 dd 74 bb e1 f0 85 ba 20 c1 82 3a
       -0.0064373934 -0.0037363698 -0.0010218882 0.0009975769
0002e0 14 68 95 3c 74 ec 09 bb 69 06 80 3c 26 d3 dc bb
       0.018238105 -0.0021045478 0.015628057 -0.006739038
0002f0 53 d5 d0 b9 cd 6b 5b ba 2a e3 b6 3c 9c 44 a6 3c
       -0.0003983179 -0.00083702506 0.022325117 0.020296387
000300 cb 7d 96 ba e2 19 b7 3b 73 6c 0c 3b 22 bb d7 3a
       -0.0011481581 0.0055878023 0.0021426945 0.0016458968
000310 40 df 84 3b 65 cd d6 bb 36 25 9d ba 17 fa 2a 3c
       0.004054934 -0.0065552467 -0.0011989239 0.010435603
000320 26 1f 80 bc 84 28 95 bb dc bc 83 bc f7 a2 08 bb
       -0.015639853 -0.004551949 -0.016081266 -0.0020849088
000330 63 ea d8 3b 42 09 1d 3c 97 7b ab bb c4 7e 69 bc
       0.006619738 0.009584727 -0.005233239 -0.014251415
000340 6e af 59 39 66 9d 90 bb 98 d1 36 bb 7b 54 36 3b
       0.00020760085 -0.0044132946 -0.0027895924 0.002782135
000350 6e c1 45 3b 7d 2c 71 bb 64 a9 8e b9 76 e0 2b 3c
       0.0030175108 -0.0036800199 -0.00027210556 0.010490527
000360 27 c7 75 3c fa 98 3c bb d5 fd a7 3b 47 a8 31 bb
       0.015001095 -0.0028777705 0.0051266947 -0.0027108358
000370 65 a4 bd 3b 95 8f 53 3b 59 87 fd 3b 87 ff f0 3b
       0.0057874196 0.0032281626 0.007737082 0.00735468
000380 ff 79 6a 3c a6 05 10 3c 63 30 b8 3a ea 6b 67 3b
       0.014311313 0.008790409 0.0014052506 0.0035312125
000390 9d d0 28 bb 48 21 b7 3b 4a db c4 bb 4a 21 0b 3b
       -0.0025759109 0.005588684 -0.0060075866 0.0021229559
0003a0 b4 84 9b 3c 74 7d 4d 3c dc 12 92 3a 94 ef af 3c
       0.018984176 0.012542117 0.0011144537 0.021476544
0003b0 09 38 47 3b 82 b5 fb 3b 85 a9 43 bb a3 ae 18 bc
       0.003039839 0.0076815495 -0.002985568 -0.00931898
0003c0 93 24 bc 3a 50 31 be bb e3 fa 37 bc f1 2a 3f bc
       0.0014354162 -0.0058042184 -0.01122925 -0.011667953
0003d0 27 f0 b2 3b 53 1e f2 3b 2e 37 dd 3b ac 29 37 bc
       0.0054607573 0.007388869 0.0067509627 -0.011179369
0003e0 e8 9b 9e bb 78 6d 8e bb 8f e4 51 bb 65 dd 8d bb
       -0.004840363 -0.004346546 -0.00320271 -0.004329371
0003f0 3f 80 6c 3a 18 c5 47 ba 8c 2e d8 ba 1c 37 17 3b
       0.00090217957 -0.0007620617 -0.0016493364 0.002307362

network_body._body_endoder.seq_layers.0.weight f4 [256, 68]
000000 49 a2 ca bd d2 68 0a 3e 2b 6d ff 3d 7e a5 04 bc
       -0.09894235 0.13516548 0.12471994 -0.008096097
000010 86 78 5f bd 70 d9 a6 3d 23 67 1d be 78 95 5b bd
       -0.0545583 0.08146942 -0.15371375 -0.05360934
000020 c8 d5 81 3e 66 e6 63 bd 04 a6 9e 3c e7 28 45 bc
       0.25358415 -0.055639647 0.019366272 -0.012033678
000030 26 19 6f be 66 dc 81 be 76 db 8f 3d ae 49 07 bc
       -0.23349437 -0.25363463 0.07024281 -0.008257313
000040 4a 17 40 3d bf be 8e be 98 31 67 be 31 b8 3f 3d
       0.04689721 -0.27879903 -0.22577512 0.046806518
000050 0c bb 81 bd ab 17 da bc 48 3c a2 3d 6e 50 02 3e
       -0.063345045 -0.026622614 0.07921654 0.12725994
000060 09 d4 cc bb bf 7b 25 3d 46 c7 81 bb 6a f9 3b be
       -0.0062508625 0.040401217 -0.003960523 -0.18356863
000070 25 70 f3 bd 67 84 49 bb 38 ce 13 be 01 df 3f 3e
       -0.11886624 -0.0030749084 -0.14434135 0.18737413
000080 96 a9 6e bb 7d 45 02 3d ae 7c ff bb d8 34 6a 3d
       -0.0036417 0.03180455 -0.0077968454 0.057179302
000090 09 a2 ad 3d d8 14 fd 3d 28 e7 7c 3e 34 ed 41 3e
       0.084781714 0.12357491 0.24697554 0.18938142
0000a0 fd 90 6e 3d 39 7d ea bd e0 13 06 3d 36 12 45 3c
       0.05824374 -0.114496656 0.032733798 0.012028268
0000b0 cf 92 c0 bd 8a fb d9 bd d1 0f 22 3e 00 1d 5c 3c
       -0.094030015 -0.106436804 0.15826346 0.0134346485
0000c0 7f 31 46 bd 60 3b ce 3c 21 75 31 bd 5a 7f 45 be
       -0.048387047 0.025174797 -0.043324593 -0.19286862
0000d0 12 8f 23 bd 1e 6a aa bd d5 80 55 bd 7b c3 73 3e
       -0.039931364 -0.083210215 -0.052124817 0.23805039
0000e0 85 43 9b bd 66 10 df bd c1 e6 30 3e d9 61 84 bd
       -0.07581238 -0.108918 0.17275526 -0.064639755
0000f0 99 e4 1e 3e c1 7d c0 bd f8 f3 38 be c6 35 3f 3e
       0.1551689 -0.09398986 -0.18061817 0.18672857
000100 2b f2 a4 3d 54 1b a8 bd 67 73 5e bc 38 44 8a bd
       0.080540024 -0.082083374 -0.013577319 -0.06751293
000110 36 99 7e 3e 63 41 70 be 1d 74 13 be fb 4c 9b 3d
       0.24863133 -0.23462443 -0.14399762 0.07583042
000120 9f 42 27 3e 38 b7 8d 3c 8a 75 b1 bd fd 3e c1 bd
       0.16334008 0.01729928 -0.08664997 -0.09435842
000130 f3 a2 de 3d 4f 40 46 bd b2 f4 94 bc 3d 5b c2 bc
       0.10870924 -0.048401173 -0.018183086 -0.023725146
000140 fa ef 82 3e 78 d4 79 be f5 45 7f 3d a5 75 34 3d
       0.25573713 -0.24397457 0.062322576 0.044057507
000150 08 19 39 be 27 47 b3 3d 9e ce 00 3e 99 0a fe bd
       -0.18075955 0.087538056 0.12578818 -0.12404365
000160 ba 42 c0 bd c3 e5 3c 3d 94 31 71 3e 14 c5 3c 3d
       -0.09387727 0.046117555 0.23554069 0.046086386
000170 48 19 82 bd fa 5d e4 3d f5 c0 4f 3e e4 df 24 3e
       -0.06352478 0.11150737 0.20288451 0.16101032
000180 42 03 08 be 7b c8 d9 bd 48 33 82 bc ac 7e 8c bc
       -0.13282493 -0.10633942 -0.015893593 -0.017150246
000190 67 7c 03 3e 2a 80 24 3e b9 47 0f be 39 15 d8 3d
       0.12840424 0.16064516 -0.13992204 0.10550923
0001a0 ad 63 87 bc c4 93 df bd 01 47 89 bd e0 c5 a7 3c
       -0.016527021 -0.10916856 -0.06702996 0.020480096
0001b0 87 1d 5b 3d 6f a5 5d 3e 64 a2 09 bb f0 16 4b bd
       0.053494956 0.21645139 -0.0021001333 -0.04958242
0001c0 33 8e 04 3e e4 b8 51 3e bc bd e0 3d 4f 51 b4 3d
       0.1294487 0.20480686 0.10973689 0.08804571
0001d0 98 88 58 3d b0 49 44 be 35 4d 8e bd ba 5c 8e 3d
       0.05286464 -0.19168735 -0.0694832 0.0695128
0001e0 7a a7 04 bd a6 0f bd bd b4 11 91 3d 64 58 10 3e
       -0.03238628 -0.092315 0.07083455 0.14096218
0001f0 f4 e3 0c be 6e a4 c6 bc 70 48 80 be f5 66 5b bd
       -0.13758832 -0.024248328 -0.25055265 -0.053564984
000200 7a 43 f0 3d b4 81 ca 3d a3 e3 bc bd bc 61 2a bc
       0.1173162 0.0988802 -0.09223106 -0.010399278
000210 c5 46 44 be ec 75 4c 3e 44 cd c4 bd f1 4c 7d 3d
       -0.19167621 0.19966859 -0.09609464 0.061840955
000220 77 bb 71 bd 79 ce 37 3e 56 ab 52 bd ee c6 c6 3b
       -0.05901667 0.17949857 -0.05143293 0.0060661947
000230 77 b8 ab bc 98 bf 42 3d cf 53 1e be 75 50 e1 bc
       -0.020961983 0.047546 -0.15461658 -0.027504185
000240 68 37 45 3e 6b b7 43 3e 8d b6 b7 bc 8b 80 ca bd
       0.19259417 0.19112937 -0.022425914 -0.09887799
000250 59 e0 28 be c6 2a 55 3e fa 0e f5 bd 59 9b 5e bd
       -0.16491832 0.20817098 -0.11965747 -0.05434737
000260 40 e3 43 3e 83 2e 59 bc ef 06 37 3e 12 1f 3f 3e
       0.19129658 -0.013255718 0.17873739 0.18664196
000270 10 0a d3 3d 74 a7 2e 3e 41 2a 4e bd 4e 0e f0 3d
       0.10304654 0.17056066 -0.050333265 0.117214784
000280 cf 35 33 bd 6a fc cb bc bd 15 37 be 6e fd 29 3d
       -0.043752488 -0.024900634 -0.17879386 0.041501455
000290 90 63 22 3d 97 5e 3c 3e 27 2d 87 3d d8 82 61 bd
       0.03964573 0.18395458 0.06600409 -0.055056423
0002a0 09 ae 4d 3e ee cd 2d be e0 24 46 3d 76 b6 06 be
       0.2008592 -0.16973087 0.04837501 -0.13155541
0002b0 24 61 3d be fd 54 2f bd 16 d9 98 3d 1a 98 de bd
       -0.18494087 -0.04280566 0.07463281 -0.10868855
0002c0 bd 90 fd 3d ec d6 0d 3c e2 ef 21 be 9e ba 40 bd
       0.12381122 0.008657198 -0.15814164 -0.047052972
0002d0 2f cf 2b 3e 09 63 a5 be c3 5d ea bd 1e 30 27 3d
       0.16778253 -0.3230212 -0.11443665 0.040817373
0002e0 4a 85 04 bc 05 e3 ba bd 15 63 e1 3d 76 4a 8f bc
       -0.008088419 -0.09125332 0.110052265 -0.01749156
0002f0 d2 21 3e bd 24 ea 0a bd 68 26 bf 3d 0c 4c c8 3c
       -0.046418972 -0.0339147 0.09333497 0.024450324
000300 64 5c b7 bd 7f 40 ab 3d 87 3e a4 be 58 f5 06 be
       -0.08953169 0.08361911 -0.32078955 -0.13179529
000310 27 a0 89 3d 17 ec 6d 3b 32 d4 02 3c 43 80 1b be
       0.0672 0.003630405 0.007985162 -0.15185647
000320 ad 56 14 3d 0c 2a 56 3d 4c 26 d9 3d 91 2d 2c 3e
       0.036215473 0.052286193 0.10603008 0.16814257
000330 cb c8 e8 bd ab 27 7d 3d 67 2d b1 bc 39 3f eb bb
       -0.11366423 0.06180541 -0.021628095 -0.0071791676
000340 03 14 1e bd 73 33 9a 3d be a8 8c bd a0 75 96 3d
       -0.038593303 0.075293444 -0.068681225 0.07346654
000350 e3 dc 37 3e ea 12 34 3d bd 27 c8 3d 84 83 3a 3e
       0.17955355 0.04396335 0.097732045 0.18214232
000360 16 79 06 bc 0d 72 e4 bd 70 9e 0d 3c b6 80 c4 bd
       -0.00820758 -0.11154566 0.0086437315 -0.09594862
000370 be 8f 1b 3d 70 0d a6 3d ba 69 da bd d3 1c a0 3c
       0.03797888 0.08108032 -0.10664697 0.019544994
000380 c3 d4 e6 bd 09 77 08 3e 9c 2d 1e be 17 a6 d9 bd
       -0.1127105 0.13326658 -0.15447086 -0.10627382
000390 22 fe d0 3d 0d 10 b3 3d 7f 22 45 bc aa 1c 2f be
       0.10204722 0.08743296 -0.01203215 -0.17100778
0003a0 ed fe 2a 3e 68 1d ac 3d ff 6c 1e bd 4c b9 28 bd
       0.16698809 0.08404046 -0.038678166 -0.041192338
0003b0 af 05 5a 3e c1 51 4e 3d 2d cb 4b 3e 96 9d 8e bd
       0.2129123 0.050370935 0.19901724 -0.06963651
0003c0 e2 6d 81 bd e8 b9 fa 3c 05 2d 9c bd f6 6f 24 3d
       -0.063197866 0.030606225 -0.07625774 0.040145837
0003d0 d9 f0 43 bd 24 16 fe 3b 9d 68 b0 3c 82 75 e8 bc
       -0.047837112 0.007754104 0.021534258 -0.028376345
0003e0 07 11 a5 3d 92 34 e4 bd 7a 7e c8 bd b4 28 22 bc
       0.08059888 -0.111428395 -0.097897485 -0.0098974
0003f0 22 22 a1 bd 99 d1 94 3d e7 50 34 3e 7b a0 1d 3d
       -0.078678384 0.0726654 0.17608987 0.038483124

network_body._body_endoder.seq_layers.2.bias f4 [256]
000000 03 4d 8f ba 76 89 98 bb 3b 82 cc bb 68 52 61 ba
       -0.0010932985 -0.0046550585 -0.0062411106 -0.00085953483
000010 84 58 f0 ba 37 db 98 bb b6 70 d4 3a 79 7d 8f bb
       -0.0018336927 -0.0046648043 0.0016207907 -0.004378971
000020 6e 34 66 bb 5f b5 b7 3a 21 59 1e 3b 9c ba 54 3c
       -0.0035126465 0.0014015845 0.0024162012 0.012983944
000030 b8 54 d9 3a dc 07 08 bb 05 ad 4b bb bf 60 09 bb
       0.0016581034 -0.0020756638 -0.003107847 -0.0020962206
000040 34 22 71 3a ee db a7 3b ec 2c 85 3b 4a bb ba 3a
       0.0009198517 0.005122653 0.004064193 0.001424649
000050 2f 07 7d 3b fe 53 5b 3a 99 c7 10 ba c2 03 68 3b
       0.0038609018 0.0008366703 -0.00055229064 0.003540263
000060 c1 5a 95 ba e7 e0 38 3b fb 95 7f ba b5 af 8a 3c
       -0.0011394845 0.0028210224 -0.0009749827 0.016929487
000070 4c be 12 ba e2 22 44 bb 88 80 06 bb 1f 7a 84 ba
       -0.00055978145 -0.0029928018 -0.0020523388 -0.0010107196
000080 fe 10 ab bb a2 75 98 3a 1f c6 71 bb 8a 46 21 3c
       -0.0052205315 0.0011631737 -0.003689177 0.009843478
000090 6a 39 10 3b 06 b2 5e bb 95 22 d4 b9 d8 ca 31 3c
       0.0022006878 -0.0033980622 -0.00040461557 0.010851584
0000a0 c9 6a 05 bb a4 1a 69 3a 01 cd 35 3b 24 c5 83 39
       -0.0020357838 0.00088922144 0.00277406 0.00025133148
0000b0 1d 23 21 3b 7a 8f f5 ba ac bf 4c bb 77 3a 19 3c
       0.002458758 -0.0018734776 -0.0031242175 0.009352318
0000c0 7e c2 ad ba 03 ff 3e bb 14 a3 25 3c 14 3f b2 3b
       -0.0013256816 -0.0029143698 0.010109682 0.0054396484
0000d0 17 80 1c ba cf 39 58 ba ec 67 8c bb 18 74 b1 bb
       -0.00059700146 -0.000824836 -0.0042848494 -0.005415451
0000e0 67 18 75 bb fe 50 7c 3b 80 74 51 3b 0a c4 82 3b
       -0.0037398578 0.0038500424 0.0031960309 0.003990655
0000f0 98 c4 cf 3a d5 7b 89 3a 6b 2c 6b 3c 6e cf 68 3c
       0.0015851436 0.0010489175 0.014353852 0.014209611
000100 c5 47 29 3b aa ee 1b bb ff 18 94 3b bb 1c e8 3b
       0.0025830131 -0.0023793378 0.0045195813 0.007083503
000110 6d 1b 81 b9 2e 1c 80 bb 08 fa 5d 39 27 27 4f 3b
       -0.0002462523 -0.0039096093 0.00021169346 0.003160903
000120 76 d1 9b bb 80 d6 a0 bb 8c 5d a6 bb 33 19 fa bb
       -0.0047551943 -0.004908383 -0.0050770696 -0.0076323985
000130 e3 4b 97 bb f1 4d c6 ba 3c e3 a3 3b ed 20 25 3b
       -0.0046172007 -0.001512943 0.0050014537 0.0025196627
000140 ce 5b 2d 3b cc 84 c7 39 92 43 3e 3c 96 e7 4b 3b
       0.0026452425 0.0003805518 0.01161279 0.0031113378
000150 bf 37 1c 3c 73 f2 81 3c 1f 91 be 3b d4 d9 f2 3a
       0.009534775 0.01586268 0.0058156396 0.0018528053
000160 d0 15 06 bb c7 5a f8 3a b8 4b 52 3c 5d 18 7d bb
       -0.0020459779 0.0018947952 0.012835436 -0.0038619258
000170 27 34 d8 39 58 f5 fc 3b a0 00 3f ba 7c 5e e7 bb
       0.00041237587 0.007719677 -0.0007286165 -0.007060824
000180 81 5d fd 3a 60 69 58 3c 99 b4 18 3b f2 9b 33 3b
       0.0019330234 0.013208717 0.0023301004 0.0027406183
000190 55 7a 61 ba fc ed c9 bb f0 dc 94 bb a7 49 06 3c
       -0.0008601298 -0.006162403 -0.0045429394 0.008196271
0001a0 2c d0 56 3b a5 d4 ab 3a 0e 9f 4e 3b 1b 30 7f 3b
       0.0032777889 0.0013109638 0.003152791 0.0038938585
0001b0 29 0e 52 3c 14 64 58 39 21 e1 4b 3c f2 90 4a 3b
       0.012820759 0.00020636647 0.012443812 0.0030909148
0001c0 9e 19 3d 3b 54 98 4c bb 98 00 68 bb 78 50 95 bb
       0.002885438 -0.0031218724 -0.0035400745 -0.0045567118
0001d0 eb e6 25 39 4a 1b cb bb e7 56 64 3b f1 fc 1a 3b
       0.0001582165 -0.0061983215 0.0034841837 0.00236493
0001e0 66 ec 4e bb 03 22 cf 3a 22 ed a0 37 d2 71 59 ba
       -0.003157401 0.0015802983 1.918391e-05 -0.00082948536
0001f0 a6 b7 da 3a 01 c7 ff 3a d6 68 b0 3b 91 c8 68 bb
       0.0016686812 0.0019514264 0.005383591 -0.0035519938
000200 7d 03 2b 3b 66 62 a8 39 1e 56 69 3a 63 30 07 3a
       0.0026094608 0.0003211677 0.0008901077 0.00051570515
000210 bd a4 ee ba fc 11 eb ba d0 fa 04 bb 37 93 29 3c
       -0.0018207055 -0.0017934437 -0.0020291097 0.01035004
000220 f9 9c 4b ba 73 63 0b 3b 5b d6 86 3b ec de 53 3b
       -0.0007767226 0.0021268993 0.0041149086 0.0032328917
000230 d9 9b 46 3b 83 76 19 ba 63 9a 4c bb 94 81 97 bb
       0.0030305295 -0.00058541464 -0.0031219951 -0.004623601
000240 92 57 29 3b ac 8f b9 bb 8b d2 57 3c 89 40 d9 3a
       0.002583955 -0.005662879 0.013172756 0.0016575019
000250 b9 49 14 3b 12 07 84 bb 93 88 ad b7 d1 81 53 bb
       0.002262695 -0.004029163 -2.0686804e-05 -0.0032273422
000260 9e b0 c3 3a 74 f1 a1 bb bb ab cf 3a 9e 7f 70 bb
       0.0014929955 -0.0049421135 0.0015844026 -0.003669716
000270 a8 7d cc bb ff fd 37 bb a0 bf 5b bc 4a 21 cd 39
       -0.0062405653 -0.0028074977 -0.013412386 0.0003912545
000280 4a 1d c1 3b 08 93 0b b9 89 a5 be ba 3a 2f 19 bb
       0.005893384 -0.00013310846 -0.0014545183 -0.0023374096
000290 af ee 33 3c 38 61 90 bb e1 9f 71 bb 9a f2 a6 3b
       0.0109822 -0.0044061206 -0.0036868977 0.0050948383
0002a0 fb 5d 15 bb e4 9d 3e bb c1 d4 24 3b ff 71 72 3c
       -0.0022791612 -0.002908581 0.0025151225 0.014797687
0002b0 ad 5d 2b bc db c2 7c ba 6f 58 b5 bb ff a4 bc bb
       -0.010459346 -0.0009642073 -0.0055342237 -0.0057569738
0002c0 77 89 0d 3b 5f 9c e6 bb ef d2 bc 3b 8d 6c f9 bb
       0.0021596828 -0.007037684 0.00576245 -0.007611817
0002d0 62 9b 47 bb 03 51 8d bb 14 c0 7f ba 7b 78 99 ba
       -0.0030457606 -0.004312636 -0.00097561 -0.001170888
0002e0 1a 26 ad 3b 25 f8 5f 39 36 f9 11 bb c4 8d 59 3b
       0.005284083 0.00021359378 -0.0022273785 0.003319607
0002f0 fb c5 b8 bb dd 0a 78 3a 06 ee d3 3b b7 db a8 bb
       -0.0056388355 0.0009462068 0.0064675836 -0.005153145
000300 ff 75 72 3b c4 fa 2e bb 38 23 26 3c 7d 27 c9 3b
       0.00369966 -0.002669976 0.010140233 0.0061387406
000310 3b 0e bc b8 39 ec ce 3b 99 48 5d bb 07 f3 bd bb
       -8.967189e-05 0.006314781 -0.0033765195 -0.0057967934
000320 2f 64 20 3a ac 51 08 ba 6a de 13 3c 47 92 98 bb
       0.0006118444 -0.00052001583 0.009025196 -0.0046561095
000330 08 34 a4 3b a5 c7 86 bb b6 a3 6e 3b 1e 53 2d bb
       0.0050110854 -0.004113155 0.0036413497 -0.0026447247
000340 46 2b 76 bb 33 76 e8 ba a2 d1 be bb f2 15 7e b9
       -0.0037562414 -0.0017735421 -0.00582333 -0.00024231503
000350 bb 53 23 3b 21 f7 35 3c c6 90 8c bb ee dc 08 3c
       0.0024921733 0.011106283 -0.0042897193 0.008353455
000360 c9 cd 40 bb de d1 3a 3c 2c 0d 81 bb a7 1c 15 bb
       -0.0029419533 0.011402575 -0.003938338 -0.0022752674
000370 ed b6 27 ba bd bd 3a bb 7f 8f c6 3a e6 05 4c bb
       -0.00063978025 -0.002849444 0.0015148966 -0.0031131445
000380 47 50 78 bc 3c 7d f7 3a 31 82 42 bb 8e 12 58 3b
       -0.015155858 0.0018881927 -0.002967965 0.0032970044
000390 8c 69 7c bb 48 5b e1 3a e1 11 1a 3b 57 7f 86 3c
       -0.003851506 0.0017193342 0.0023509192 0.016418142
0003a0 ca e9 a5 bb ae 95 7c 3c 65 c2 11 bc 55 a6 56 3a
       -0.00506327 0.015416546 -0.008896445 0.00081882376
0003b0 5e b9 81 bb 62 e3 25 ba a0 ff 16 3c 49 10 57 3c
       -0.003958865 -0.0006328133 0.009216219 0.013126441
0003c0 ca fb 4c 3b 43 b4 94 3b f8 e7 c5 b9 79 2c 3c bb
       0.0031278008 0.0045380904 -0.00037747598 -0.0028713031
0003d0 95 25 8b b9 d6 78 d8 bb 31 19 32 3b 41 80 13 3c
       -0.00026540147 -0.0066062016 0.002717566 0.009002746
0003e0 98 3b 48 3b ea 10 9f bb 07 06 9f bb fc ca 65 3b
       0.0030553099 -0.0048543112 -0.0048530134 0.0035063615
0003f0 ca 21 12 3b 31 de 27 bb ab 7c 59 3c e3 3e 8f 3a
       0.0022297972 -0.0025614614 0.013274352 0.0010928776

network_body._body_endoder.seq_layers.2.weight f4 [256, 256]
000000 cf d1 b3 bd 54 42 86 bd d5 ff d8 bd 58 6f 09 3d
       -0.08780252 -0.0655562 -0.10595671 0.03355345
000010 c4 f3 91 3d 0a 05 ef 3c 7e 42 a9 3d 33 fa d3 bd
       0.07126573 0.029177207 0.082646355 -0.10350456
000020 67 84 7a 3c e4 71 ca 3a 91 98 12 3e 3e 51 9f ba
       0.015290356 0.0015445319 0.14316012 -0.0012154949
000030 f0 3f eb 3d 5f f3 ba bd eb c1 6d 3d 3c 09 8c 3c
       0.114868045 -0.091284506 0.058046263 0.017094247
000040 a4 c3 3f 3d 08 50 58 3d 82 b0 84 3d 51 1d 7b 3d
       0.046817437 0.0528107 0.06478979 0.061307255
000050 e8 da 23 3d 4f fb 84 3d ac e1 16 bd 5e 14 ff bc
       0.040003687 0.06493246 -0.03683631 -0.031137642
000060 6d 5a 1c 3d 67 1e d9 bc 7a e7 98 bc c8 2e bd bb
       0.038172174 -0.026503755 -0.018665064 -0.005773399
000070 56 f8 e2 3d d6 5e d0 3b 0d 15 7d 3d 4f 82 30 bd
       0.110825226 0.0063589616 0.061787654 -0.043093022
000080 22 31 3d bd d1 11 ab 3d ef 98 2b 3d 18 e5 ca 3d
       -0.046189435 0.083530076 0.041893896 0.099069774
000090 d6 73 e1 3d c4 77 f7 bd 03 d1 da 3c 91 0d c9 bc
       0.11008422 -0.1208339 0.026710993 -0.024542602
0000a0 b0 5e 5d bc 66 05 30 3c 6f 9d a8 bc cf dd 1c 3d
       -0.013511345 0.010743475 -0.020582883 0.03829747
0000b0 73 29 5d bd c6 5b f6 bd d4 bb 24 3c 6d 2f dd bc
       -0.053994607 -0.12029223 0.010054547 -0.027000153
0000c0 b7 6f a6 bc 72 1c 28 bd fd 53 32 bd 00 24 d9 3d
       -0.020316942 -0.041042753 -0.04353713 0.106025696
0000d0 6a 38 b8 bd e2 df 94 3d 55 47 96 bd be e9 f2 bc
       -0.08995135 0.07269265 -0.07337824 -0.029652473
0000e0 46 5e 46 bd d8 17 9f 3d cc 6f 37 bd bb 3e 26 3d
       -0.04842975 0.0776822 -0.044784352 0.04058717
0000f0 ea aa d9 3d 0a f0 e3 3b d4 bf c3 3d 32 0f 15 bb
       0.106283024 0.006956105 0.09558073 -0.0022744653
000100 7d 2e 53 bc b0 94 35 3c 34 d8 88 bd 59 2d 8e 3d
       -0.012889502 0.011082813 -0.066818625 0.06942243
000110 9d 7a 88 bd aa 76 83 3d 62 ec cd bd 5f 67 35 3d
       -0.066640116 0.06419118 -0.10054852 0.044288035
000120 ca 87 f2 3c 48 c6 9b ba 85 d5 5e bd ec 28 b2 3c
       0.029605765 -0.0011884654 -0.054402847 0.021748029
000130 a0 35 62 3d e7 ba 3f 3d ec c9 03 3d c6 58 83 3d
       0.055226922 0.046809103 0.03217499 0.064134166
000140 6c 8e 06 bd ac 02 b1 3d 97 ea 18 3e 59 e5 8c 3c
       -0.032850668 0.08643088 0.14933239 0.017199205
000150 03 dd 59 3d b8 5c 78 3d 6f 1c c3 3c 80 83 6d 3c
       0.05318929 0.0606353 0.02381727 0.014496684
000160 7b b0 1f bd 59 8e 93 bd 82 6e ec bc 9e ce 23 be
       -0.038986664 -0.07204885 -0.028861288 -0.15996787
000170 08 ac 36 3d b6 52 86 bd 7a f3 44 3d d7 d0 e1 bd
       0.044597656 -0.065587446 0.04808376 -0.11026161
000180 9e bd a8 bc e6 f6 41 3c 42 43 af bc 02 56 0d 3d
       -0.020598229 0.01183865 -0.021394376 0.03450585
000190 b2 85 ff 3c 98 e5 66 bd fc 01 a9 bd 5c c0 a7 bc
       0.03119168 -0.0563713 -0.082523316 -0.020477466
0001a0 8c 70 d2 bc 51 2b 38 3d e0 4f 31 3d 80 f9 02 3c
       -0.025688432 0.044963185 0.043289065 0.007994056
0001b0 48 f5 2e bd c8 ee 28 bd 40 61 a2 3d 80 7d a2 bd
       -0.042714387 -0.041243345 0.07928705 -0.079340935
0001c0 6b e9 a4 bd e5 f8 13 3e e1 59 b3 bc 81 6e 44 bc
       -0.080523334 0.14450414 -0.021893444 -0.011989237
0001d0 e9 ad 97 bc c2 56 57 3b fa 19 b4 bc fe 46 c9 3d
       -0.018515544 0.0032858108 -0.021985043 0.09827994
0001e0 6e 7c 6d bc 21 9b 7c bc 6a dc 17 3c fb 84 fa bd
       -0.014494998 -0.015417845 0.009268859 -0.12232395
0001f0 f5 93 ce 3c fe 71 4b bd bf ae e7 bc b2 0a 9b bd
       0.025217036 -0.04966926 -0.028281568 -0.07570399
000200 64 30 1d bd 75 5e 95 bb 3f 3c 4a 3c 0f 6e 0c be
       -0.038376227 -0.0045583793 0.012343465 -0.13713859
000210 88 34 b1 bc f6 45 15 3d 77 cd 60 bd c5 61 a2 bd
       -0.021631494 0.036443673 -0.054883447 -0.07928804
000220 48 85 a1 bc 4b 49 3d 3d 5e 0b 84 3d 33 d6 25 3d
       -0.019716874 0.046212476 0.064474806 0.04048748
000230 f9 e7 c6 bd fd b4 72 bd b3 28 19 bc 14 45 58 3d
       -0.09712214 -0.059254635 -0.009348082 0.052800253
000240 dc 31 be bc ca 27 f5 3c 7a d9 0b bd af f4 6c 3d
       -0.023217134 0.0299262 -0.03414295 0.057850536
000250 0a 07 9a bd 3a 64 30 bd 78 9d d1 bc fc d9 b6 bd
       -0.07520874 -0.043064333 -0.025587782 -0.08928296
000260 82 8a 0c bd b5 c4 6a bd 3d 74 ce 3c bc 15 03 3d
       -0.03431178 -0.0573165 0.025201911 0.03200315
000270 76 af f0 bc e9 dc b4 bc 08 aa 2e bd 5b fd 3b 3c
       -0.029380541 -0.022077994 -0.042642623 0.011473979
000280 76 35 20 bc 17 1b 22 3d 29 1f 92 bd f5 c8 e9 bd
       -0.009778371 0.039576616 -0.071348496 -0.11415283
000290 1a 38 d1 bd 32 3d 59 bd 75 77 11 ba 06 17 3b bd
       -0.10215779 -0.053036876 -0.00055491115 -0.045676254
0002a0 1a 60 85 3d 69 26 b0 3d 07 47 24 3c 48 c8 cd 3c
       0.065124705 0.08601076 0.0100267 0.025119916
0002b0 c7 12 2c bd e8 44 64 bd 9a a0 5a bc 3e 64 a9 3d
       -0.042010095 -0.055729777 -0.013343954 0.08271073
0002c0 75 d4 01 bc 0f 5b d0 bc 4d 47 84 3d f4 6b 01 bd
       -0.007924189 -0.025434045 0.06458912 -0.031597093
0002d0 37 33 df 3c 51 bf ab bd 54 c4 c1 3d af d5 07 3c
       0.0272461 -0.083861 0.09461275 0.008290692
0002e0 b8 8f f8 bc 44 63 8c 3c 93 52 d4 bc e4 06 05 3e
       -0.030341968 0.017137177 -0.02591828 0.1299091
0002f0 21 2e 8d bc 32 b9 d2 bd 5f ee 61 bd ea 5f b2 bb
       -0.01723391 -0.102892295 -0.05515897 -0.0054435628
000300 c1 eb 1b 3d 87 51 7f 3d c7 26 b3 bd 83 6d 70 bb
       0.03806663 0.06233361 -0.087476306 -0.0036686368
000310 dc 42 1f bd 78 d4 29 3d c0 37 f9 3c 06 62 4d be
       -0.03888212 0.04146239 0.030422091 -0.20056924
000320 5a d0 20 bc 83 46 a0 bd 7a e1 36 3d 66 df 12 bd
       -0.0098153 -0.07825949 0.044648625 -0.03585758
000330 70 76 10 3d aa 74 a0 3d a0 be b7 bd 6a 14 1d bd
       0.0352692 0.07834752 -0.08971906 -0.038349546
000340 90 6e 3e be dc af cd bd 38 5c 51 3d 15 4c 17 3c
       -0.18596864 -0.10043308 0.051113337 0.009234448
000350 3b b8 4e 3d 26 88 52 3b 99 89 33 bd 43 e0 62 3d
       0.050468665 0.0032124608 -0.043832395 0.055389654
000360 fd 11 47 3c 38 85 15 bd 31 bb ee 3c e4 9b 21 bd
       0.012150285 -0.036504 0.029141994 -0.03945531
000370 92 4a 4a 3c 41 86 a0 3d 8b 0b 61 3b 3b 70 de 3d
       0.0123468805 0.07838107 0.0034339156 0.1086125
000380 58 60 63 3c f1 09 09 bd bb d0 90 bc bd e5 61 bd
       0.013877951 -0.033456746 -0.017677655 -0.055150736
000390 80 6c c9 3c b2 06 27 3d 6e 77 aa bd 34 e6 05 be
       0.02458787 0.04077787 -0.08323561 -0.13076097
0003a0 4d bd 85 b7 ff 2b 32 3d 94 ab a5 bc 2c 4b f8 3d
       -1.5942986e-05 0.04349899 -0.020223416 0.12123713
0003b0 43 f0 63 3d f6 cf 8a bc 71 71 ea 3d 16 a1 8a bd
       0.055649053 -0.016944867 0.114474185 -0.06769006
0003c0 6b 40 8a bc d6 bc 09 b9 ee 68 d5 3d f4 5f 04 3c
       -0.01687642 -0.00013135685 0.104204044 0.008079518
0003d0 12 66 b4 3d ba ea 83 bb 4b 1e 10 3e 58 69 ca bc
       0.08808531 -0.0040257843 0.14074056 -0.024708435
0003e0 74 66 3b be 98 d4 8b 3d f1 51 0f bd 58 a4 b1 bd
       -0.18300802 0.068276584 -0.034990255 -0.08673924
0003f0 ff af 25 bc fc 9c c7 bd 6a 93 e4 bd 5c 00 f0 3c
       -0.0101127615 -0.09746739 -0.111609295 0.029297046

network_body._body_endoder.seq_layers.4.bias f4 [256]
000000 3e b1 3f ba 09 fd 59 bb 30 41 13 3c 2d 84 96 bb
       -0.0007312483 -0.0033262393 0.00898771 -0.0045933933
000010 d7 b1 5f bb ff 60 70 bb 0b f1 ba b9 95 e2 f3 bb
       -0.00341331 -0.0036678908 -0.00035656276 -0.007442782
000020 36 eb 51 3b 26 a4 62 3b bf 52 62 bb 16 30 99 3a
       0.0032031066 0.0034582703 -0.0034534184 0.0011687304
000030 0c aa c5 3b 04 32 8b bb 0c 41 3d 3b e0 75 82 ba
       0.006032234 -0.0042479057 0.0028877882 -0.0009953342
000040 13 11 07 3b 7e ca 93 3b ba 37 5b bb f6 33 28 bb
       0.0020609542 0.004510223 -0.0033449964 -0.0025665737
000050 ab 3a 5b 3b 9c 76 1c bc e1 90 ea 3a ed 94 07 3a
       0.0033451717 -0.009549763 0.001789596 0.0005172033
000060 47 06 5c 3a df 83 48 3c b8 29 98 3b 71 22 a6 ba
       0.00083932694 0.012238472 0.004643645 -0.0012675059
000070 49 92 57 3a fc ee 89 3b 0f 5b c3 3b 21 c1 ae ba
       0.00082233973 0.0042093974 0.0059617828 -0.0013332703
000080 34 60 d4 bb 97 ce 45 3b 2c 28 95 3a 3e 07 72 bb
       -0.006481195 0.0030182952 0.001137977 -0.0036930586
000090 2d 49 85 b9 f6 ca 62 ba a0 a0 ae 3b af 18 55 bb
       -0.00025422257 -0.00086514594 0.0053292066 -0.0032515933
0000a0 83 e0 b7 3a ca 7a fe 3a b8 3a 07 bb e7 e8 89 3b
       0.0014028702 0.0019415256 -0.0020634364 0.0042086723
0000b0 42 3c 80 bb 1d 18 03 ba 61 35 a1 bb 76 5d 1b 3b
       -0.0039134333 -0.00050008466 -0.0049196933 0.002370683
0000c0 7f c3 6a 3c 8d 66 40 bb 79 73 23 3a 52 14 f2 b7
       0.014328836 -0.0029358 0.00062351633 -2.885811e-05
0000d0 ca 92 a3 bb e7 1b 51 3b 15 5d 76 3b 7a f2 80 3b
       -0.004991864 0.00319075 0.0037592102 0.0039351555
0000e0 cd a0 04 bc 23 a1 76 bb df 8c 6f bb b5 dd d7 bb
       -0.0080949785 -0.0037632666 -0.0036552472 -0.006587709
0000f0 01 51 85 bb 6c 69 27 3b 78 05 c7 ba 08 d3 30 3b
       -0.0040684943 0.0025545014 -0.0015184125 0.0026981253
000100 18 ff f8 3a 7b c2 07 3b e0 49 84 bb bc eb ee ba
       0.0018996922 0.0020715285 -0.004037127 -0.0018228213
000110 96 0c 27 3b ad db 1f bb 34 50 bd bb 4a f6 c3 3a
       0.002548968 -0.0024392412 -0.005777383 0.0014950719
000120 a8 2b 3a 3a 56 f6 10 bc e4 66 6c 3b c9 86 73 bb
       0.0007101842 -0.008847794 0.003607207 -0.0037159196
000130 e7 03 15 3b 60 af 8a bb 82 fd 07 3a 16 6b 54 bb
       0.0022737922 -0.004232332 0.0005187617 -0.003241246
000140 16 64 6f bb 3f b2 ca bb 0a 64 b7 39 77 1d 04 bc
       -0.0036528162 -0.0061857994 0.00034979015 -0.008063666
000150 b6 ed ed 3a d4 59 bd bb 5f db 41 3b b1 02 80 38
       0.0018152508 -0.0057785306 0.0029580218 6.104017e-05
000160 d8 1b ba 3a e8 22 76 3c 3b 0f 3a bb 71 04 cc 3b
       0.0014198972 0.015022971 -0.0028390426 0.0062261154
000170 23 a8 8b b9 ff 23 72 ba 72 f7 c4 b8 63 30 bb ba
       -0.00026637418 -0.0009236931 -9.3920986e-05 -0.0014281388
000180 f0 7d 3d bb d2 4c eb 3a 8d 6d 5c bb 18 3e 01 3b
       -0.0028914176 0.0017951971 -0.0033634633 0.0019720849
000190 08 cf 5b 3c 47 75 06 38 8d 58 49 bb 10 1d cc 39
       0.013416059 3.2057313e-05 -0.0030722946 0.00038931565
0001a0 ee 76 8f 3a f6 41 4c 38 4d 45 62 bb cd b3 a7 3c
       0.0010945478 4.869882e-05 -0.003452617 0.020471478
0001b0 dc 3b ed 3b cd d7 0c 3b cc 8a 94 3b 38 05 ae ba
       0.007239802 0.0021490932 0.0045331474 -0.0013276702
0001c0 64 d2 0a 3c 6f af b5 b8 cf 7e 93 bb af a1 84 3b
       0.008473013 -8.6634296e-05 -0.0045012007 0.0040475945
0001d0 45 75 0d 3b 65 6b 26 bb 3f 3b 5e 3b 05 e1 a7 bb
       0.002158479 -0.0025393602 0.0033909825 -0.00512326
0001e0 cc 47 7a bb fc 38 d5 bb 32 a9 64 3b 84 f8 09 bb
       -0.0038189767 -0.006507037 0.0034890887 -0.0021052668
0001f0 2a 38 89 3b c6 af 98 ba ad 48 98 3a f2 d8 88 bb
       0.0041876035 -0.0011649064 0.0011618339 -0.0041762525
000200 df ce 71 ba e1 6e 35 bb 3b fe 3e b9 88 66 36 bb
       -0.00092242466 -0.0027684497 -0.0001821452 -0.002783211
000210 67 a2 c3 3a 83 7b 80 ba a8 67 81 bb f7 3e c1 3b
       0.0014925719 -0.0009802434 -0.0039491244 0.0058973986
000220 19 a8 85 3a 2b d0 8c 3b 0c 52 db ba e7 c1 0f 3c
       0.0010197192 0.0042972765 -0.0016732826 0.008774257
000230 0c 0b 72 bc f3 c8 4d bb d1 cf 00 bb 22 3b 92 bb
       -0.014773142 -0.0031400293 -0.0019655118 -0.0044626156
000240 fc dd 83 3a 3e 61 d0 ba d6 b8 1a bb 7d 34 92 ba
       0.0010060663 -0.0015898121 -0.0023608706 -0.0011154559
000250 4c 2f 9a 3b 5d 78 61 3b a9 41 24 bb 80 cc 45 3b
       0.0047053453 0.0034404017 -0.002506355 0.0030181706
000260 a2 e6 6d bb 72 8e 01 3c 5c c0 6b bb ef 4b 69 3b
       -0.0036300798 0.007907497 -0.003597281 0.0035598238
000270 25 9d e8 ba e8 10 13 bb 63 e1 09 bb 4b 2e 48 bc
       -0.0017747028 -0.0022440497 -0.0021038882 -0.012218068
000280 ed 76 f6 3a ce 53 84 bb f5 9a b6 bb 81 dc 0f 3c
       0.0018803753 -0.0040383106 -0.0055726715 0.0087806
000290 c4 10 90 bb 80 a7 91 bb 85 51 68 bb 6b 96 aa bb
       -0.00439653 -0.0044450164 -0.003544898 -0.0052059195
0002a0 b4 53 07 bc 4c 67 63 bb fe 4f 19 3a 4e c9 02 3c
       -0.0082597025 -0.003469902 0.00058484066 0.007982565
0002b0 9b e3 79 bb 55 58 65 3b 1e 9f 3f bb b9 2a d6 3a
       -0.0038130048 0.0034995277 -0.0029239128 0.0016339637
0002c0 93 e9 59 ba 86 16 e1 3a d6 00 4e ba 5f f5 93 bb
       -0.00083126983 0.001717285 -0.0007858401 -0.0045153345
0002d0 1f ab 17 3c da 8c f9 39 1a a0 0f bc 60 35 ad 3b
       0.009257107 0.00047597924 -0.0087661985 0.005285904
0002e0 22 11 87 3a 08 6f 9c 39 6e 47 24 3c 98 30 13 3b
       0.0010304789 0.00029837363 0.010026796 0.0022459384
0002f0 12 95 2e bb 0f fd b7 bb b7 48 4f 3b 58 ea 1b 3b
       -0.0026639146 -0.0056148837 0.0031629035 0.0023790803
000300 f8 19 57 3b 6c de 67 bb 3d ed 7b bb 10 c2 e7 3a
       0.0032821875 -0.0035380377 -0.0038440966 0.0017681736
000310 ee 49 2e bb 50 2e 20 3b 2e 15 04 bb 25 b7 ff ba
       -0.0026594358 0.0024441667 -0.0020154226 -0.0019509537
000320 fe c1 9e ba d0 44 a7 ba 49 44 56 bb 1d 55 2e 3b
       -0.0012112258 -0.0012761597 -0.003269451 0.0026601024
000330 4d 17 91 3b 80 f0 26 3a 62 db 68 3b 8d 5a 49 bb
       0.0044278265 0.0006368235 0.0035531153 -0.0030724138
000340 03 4e 2f 3c f2 3d ee 3a 39 e5 aa 3a 34 76 85 bb
       0.010699752 0.001817642 0.0013038284 -0.004072929
000350 74 5b 78 3b 4d 4c 97 ba 4e b2 c5 bb 7b 87 64 3b
       0.0037896307 -0.0011543125 -0.0060332185 0.0034870792
000360 fb ca 92 bb ba 00 27 3a 00 ca 57 ba 83 40 2d 3c
       -0.0044797636 0.00063706527 -0.00082316995 0.010574463
000370 41 b4 e8 b9 b4 6a 09 bb c8 9b a0 ba 26 24 22 3b
       -0.00044384788 -0.002096814 -0.0012253458 0.0024740784
000380 38 1b 3c bb 7c 88 92 3b 28 bb 67 bb ef 47 8f 3a
       -0.0028702747 0.0044718366 -0.0035359357 0.0010931472
000390 19 03 fc bb 00 3b 7b bb 81 00 8c bb b2 a1 30 39
       -0.007690799 -0.0038334727 -0.004272521 0.00016844904
0003a0 ff 03 b7 39 f6 82 c8 3a 7f b6 bc 3b f1 4c d3 b9
       0.00034907457 0.0015297818 0.00575906 -0.00040302382
0003b0 26 76 19 bb 1b 7e 08 3b 20 3c d6 3b 48 e7 bc ba
       -0.002341637 0.0020827118 0.006537929 -0.0014412189
0003c0 58 37 53 bb 73 f9 48 bb 93 fe 48 3b a9 71 08 bb
       -0.0032229032 -0.0030666261 0.0030669316 -0.00208197
0003d0 27 7f 03 bb 67 9d 9d b9 57 ca f5 3a 93 e0 d4 3b
       -0.0020064802 -0.00030062647 0.0018752319 0.006496498
0003e0 55 16 b3 3a b5 82 20 3b b9 3e d5 3b 9d cd b5 bb
       0.0013663272 0.002449197 0.0065077213 -0.0055481927
0003f0 7b f2 d7 ba c9 d5 92 bb 52 f9 19 b9 0d 49 bb 3b
       -0.0016475463 -0.0044810516 -0.00014684096 0.0057154954
