Assets/Training/results/track1_5/config_track1/config_track1-499957.onnx (onnx, 601409 bytes, 9 tensors)

action_model._continuous_distribution.log_sigma f4 [1, 2]
0	0xbd519a68	-0.051172644
1	0xbd91c368	-0.07117349

action_model._continuous_distribution.mu.bias f4 [2]
0	0xbb63b8ce	-0.0034747603
1	0xba685bf5	-0.00088638003

action_model._continuous_distribution.mu.weight f4 [2, 256]
0	0xbb3ca385	-0.0028783989
1	0x3bea6384	0.0071529765
2	0x3b5690e8	0.003274018
3	0x3caa7d17	0.0208116
4	0x3d1fe40d	0.039035846
5	0x3b4b4b5b	0.0031020257
6	0xbba31cb0	-0.004977785
7	0xbc851960	-0.016247451
8	0x3c5c9091	0.013462202
9	0xbcab3f28	-0.020904139
10	0x3c022477	0.007943264
11	0xbc2f1e75	-0.010688414
12	0x3bb7e85a	0.0056124153
13	0xbc5ee242	-0.013603749
14	0xbbba7544	-0.0056902487
15	0x3c446967	0.0119880205
16	0x3ca8f1a4	0.020623036
17	0x3d08b744	0.0333779
18	0x3c8388ff	0.016056536
19	0x3c85ab82	0.016317133
20	0xbc70aa46	-0.014689034
21	0x3cb24e13	0.021765744
22	0x3cb87d47	0.022520674
23	0xbb28bf1a	-0.002574867
24	0xbb663fc7	-0.003513323
25	0xbc42c4a6	-0.011887705
26	0xbca11238	-0.019662008
27	0x3b16dd9e	0.0023020278
28	0xbb652811	-0.0034966508
29	0xbc819f39	-0.015822994
30	0x3cbf982c	0.02338799
31	0x3b1e255e	0.002413116
32	0x3c08e2b4	0.0083548315
33	0xbc1c35e1	-0.00953433
34	0xbb978b69	-0.0046247733
35	0x3c79fe9c	0.0152584575
36	0x3cfacf94	0.03061656
37	0x3cc9d81b	0.02463918
38	0xbb4ef3ef	-0.0031578501
39	0x3c9139db	0.017727783
40	0xbb8cd705	-0.0042980933
41	0xbc05bfb6	-0.008163383
42	0x39a9a98b	0.0003236051
43	0x3c954ec3	0.018226033
44	0x3b85d5e0	0.004084334
45	0x3cd37e3e	0.025817033
46	0x3bc74e3d	0.006082325
47	0xbbbd6196	-0.0057794554
48	0xbd10f7e7	-0.035392668
49	0x3c8780fd	0.016540999
50	0x3c032bce	0.008006049
51	0xbba95437	-0.00516751
52	0x3c0557b1	0.008138583
53	0xbc4de293	-0.012566227
54	0xbc69b836	-0.014265111
55	0x3cb8feb2	0.022582386
56	0x3b318214	0.002708559
57	0x3c1bf917	0.009519837
58	0x3cfaee72	0.030631278
59	0x3bc9ca82	0.006158174
60	0x3cb9b7ef	0.022670714
61	0xbbc11a19	-0.0058930037
62	0xbbb1d46a	-0.005426933
63	0x3c128214	0.008942146
64	0xbb713c80	-0.0036809742
65	0x3c10c7b5	0.008836676
66	0x3c875f1c	0.016524844
67	0x3be43607	0.0069644484
68	0x3ca14979	0.019688355
69	0x3c2d4213	0.010574835
70	0xbc49e245	-0.012322013
71	0xbb5a2b48	-0.0033289958
72	0xbb79cc2a	-0.0038116076
73	0x3c28add8	0.010295354
74	0xbc3cc50b	-0.011521588
75	0x3c4654f2	0.0121052135
76	0xbbac3a42	-0.0052559683
77	0x3bd82ea4	0.006597357
78	0xbc19857b	-0.009370203
79	0x3c1bc951	0.009508447
80	0x3c77b46c	0.0151186995
81	0x3bd08e9d	0.006364657
82	0x3bfe6fb1	0.0077647795
83	0x39f9597c	0.00047559652
84	0x3c886041	0.01664746
85	0xb9fd5b84	-0.00048324105
86	0x3c00bc21	0.007857353
87	0x3b0f6764	0.0021881694
88	0xbbe8cce6	-0.007104504
89	0xbd2630f6	-0.040574037
90	0x3c0c6e1d	0.008571175
91	0x3cb2af6d	0.021812165
92	0xbb0f46a8	-0.0021862183
93	0x3cccc99d	0.02499848
94	0x3c712e98	0.0147205815
95	0x3cacd62e	0.021098223
96	0x3b82ef44	0.003995808
97	0x3a04f022	0.0005071183
98	0x3c12dfcd	0.008964491
99	0xbc6a13ac	-0.014286917
100	0x3b61adbf	0.0034435836
101	0xba487a6c	-0.0007647637
102	0x3b9baa51	0.004750528
103	0xbb8af7ae	-0.0042409515
104	0xbb812d47	-0.003942165
105	0xbb0e7a00	-0.0021740198
106	0x3c95f796	0.018306535
107	0x3c85e278	0.01634334
108	0xbbd97670	-0.0066364333
109	0xbc487d8c	-0.012236964
110	0x3cd843dd	0.026399547
111	0x3ca3a804	0.019977577
112	0x3cd93baf	0.026517717
113	0x3cbe59b5	0.023236135
114	0x3b0d0c8a	0.0021522366
115	0xbced10c3	-0.028938657
116	0x3bd4b88f	0.0064917277
117	0x3aaeb060	0.001332771
118	0xbc64d5d3	-0.013966995
119	0xbc87bab0	-0.016568512
120	0x3c185fd6	0.009300193
121	0x3b051380	0.0020305812
122	0xbd00ce6d	-0.031446863
123	0x3c8f760a	0.01751234
124	0x3d1edcb2	0.03878469
125	0x3aea74c6	0.0017887584
126	0x3c2c38a3	0.01051155
127	0x3c166cb9	0.009181195
128	0xb9b56f23	-0.00034605814
129	0x3b0b1893	0.0021224364
130	0x3b75cf5b	0.0037507627
131	0xb9dce43d	-0.0004213172
132	0xbbcf4066	-0.0063248156
133	0x3b5e5476	0.0033924854
134	0x3c30e6b2	0.01079719
135	0x3cdeca34	0.027196027
136	0xbbae4fa5	-0.005319553
137	0x3c8f0b4b	0.01746144
138	0x3c17b512	0.009259479
139	0x3afd1e60	0.0019311421
140	0x3c8254e8	0.015909627
141	0x3b16f80e	0.0023036036
142	0xb97476e5	-0.00023313945
143	0x3bdd4cc5	0.0067535364
144	0x3c2c0434	0.010499049
145	0x3ab88286	0.0014076985
146	0x3b6f6578	0.0036528986
147	0x3c7efb76	0.015562883
148	0xbbafe0f1	-0.0053673913
149	0x3c77fecc	0.015136432
150	0x3c825e85	0.015914211
151	0xbc217715	-0.0098550515
152	0x3c70ace0	0.014689654
153	0x3ca6eab3	0.020375585
154	0x3cad039e	0.021119889
155	0xbc8a4ba4	-0.016881771
156	0x3c6344a5	0.013871347
157	0x39007a1a	0.00012252518
158	0x3ba2922b	0.0049612722
159	0x3c86c3c8	0.016450778
160	0x3cd86366	0.026414584
161	0x3c11ee03	0.008906844
162	0xbbcf4d78	-0.0063263737
163	0x3d14f457	0.036365833
164	0x3c2f398e	0.010694874
165	0x3b9b2b6c	0.004735401
166	0x3c10efc7	0.00884623
167	0x3c92b5af	0.0179089
168	0x3bd130e1	0.0063840006
169	0x3d020bb4	0.031749442
170	0x3cefd329	0.029275494
171	0xbb85f5b5	-0.0040881285
172	0xba50e022	-0.00079679687
173	0xbc00a61e	-0.007852105
174	0xbbe69e33	-0.007037902
175	0xbc43efa4	-0.01195899
176	0xbb4093bf	-0.0029384939
177	0xbbc2aa77	-0.005940731
178	0xbc5cb0ea	-0.013469914
179	0x3c1176cf	0.008878424
180	0xbce51bf5	-0.027967433
181	0x3c48fe96	0.012267729
182	0xbbec1878	-0.0072050653
183	0x3ce8e1ac	0.028427921
184	0xbba41095	-0.0050068595
185	0x3b74761f	0.003730185
186	0xbc9e3416	-0.019311946
187	0xbc47b6ff	-0.012189626
188	0xb90a0e44	-0.0001316602
189	0x3a811744	0.0009848853
190	0xbc85b6c4	-0.016322501
191	0x3cb341c2	0.021881942
192	0xbc4d0f43	-0.012515846
193	0xbc3221fe	-0.010872362
194	0x3cb5d3ec	0.022195779
195	0xbb5c447f	-0.0033610163
196	0x3c1739d9	0.009230101
197	0x3cbd4c22	0.023107592
198	0x3c10b18f	0.008831396
199	0x3c933f56	0.017974537
200	0xba2fd208	-0.00067070173
201	0x3d00a33d	0.031405676
202	0x3c0453fc	0.008076664
203	0xbc14f86f	-0.009092434
204	0x3cf1cf4d	0.029517794
205	0x3c87e351	0.016587885
206	0xbc93bd72	-0.01803467
207	0x3b16db02	0.0023018722
208	0x3c6d2a0f	0.01447536
209	0xbc440bc8	-0.0119656995
210	0xbb8c85fd	-0.0042884336
211	0x3bf9fa11	0.007628687
212	0x3d3bcba8	0.04584852
213	0x3a704498	0.00091654947
214	0x3cabd10c	0.020973705
215	0xbc63bd35	-0.013900091
216	0x3bd32737	0.0064438838
217	0xbbd6bd50	-0.0065533295
218	0x39cb5bfa	0.00038787705
219	0x3bf8cd00	0.0075927973
220	0x3b894d5a	0.004190129
221	0xbb2e7585	-0.002662034
222	0xb9235de0	-0.00015579863
223	0xbb1b4479	-0.0023691936
224	0x3c884c39	0.016637908
225	0x3c03e2bf	0.008049666
226	0x3c80d634	0.01572714
227	0xbb6abddc	-0.0035818731
228	0xbbc75160	-0.0060826987
229	0x3bb5cf1b	0.0055483705
230	0x3c1a6938	0.0094245
231	0x3c149e14	0.009070892
232	0x3b94ab46	0.004537019
233	0xbb4696a8	-0.00303022
234	0xbb2a022c	-0.0025941236
235	0xbaa1a43d	-0.0012332272
236	0x3b68175b	0.0035414312
237	0xbbc48f4c	-0.0059985276
238	0x3c8286c8	0.01593341
239	0x3b128ff8	0.0022363644
240	0x3c66658c	0.014062297
241	0x3b3089a6	0.0026937514
242	0xbbeeae92	-0.007283994
243	0x3ba12543	0.004917772
244	0x3ba5de82	0.0050619254
245	0x3c727ca5	0.014800225
246	0xbc29f249	-0.010372707
247	0x3cffd8ba	0.031231273
248	0x3c1fb64e	0.009748055
249	0x3cc2e2f2	0.023789857
250	0xbcee6251	-0.029099615
251	0xbbabfcfe	-0.005248665
252	0x3c1bb598	0.009503745
253	0xbab434a1	-0.0013748595
254	0xbad9dcc5	-0.001662158
255	0x3b3d301e	0.0028867791

network_body._body_endoder.seq_layers.0.bias f4 [256]
0	0xb9f85527	-0.0004736569
1	0xbb9c948d	-0.004778451
2	0x3b46c3d5	0.0030329127
3	0xba4abb08	-0.00077335583
4	0x3bf537f3	0.0074834763
5	0x3b1c38c5	0.0023837548
6	0x3ad430f6	0.0016188908
7	0xbbaa37ac	-0.005194625
8	0xbb8881d0	-0.0041658655
9	0x3a990c3a	0.0011676617
10	0xbbb46231	-0.0055048694
11	0x3cd1a41c	0.025590949
12	0xbc29f859	-0.010374152
13	0x3b410493	0.002945219
14	0xbb46f3b0	-0.0030357651
15	0xbc011b03	-0.007879975
16	0xbbf29409	-0.007402901
17	0xbbec404a	-0.0072098123
18	0x3b379edf	0.0028018279
19	0xb9c24c88	-0.00037059584
20	0xbae4d316	-0.0017457928
21	0xbb5d47f1	-0.0033764804
22	0x3b16afd7	0.0022992992
23	0x3b858fbd	0.004075973
24	0xbad13084	-0.0015959893
25	0xbb4af645	-0.0030969542
26	0x3a416300	0.0007377118
27	0x3c0092ca	0.007847497
28	0xba6c18ee	-0.00090064004
29	0xbb08c883	-0.0020871467
30	0x3a0b5c0d	0.0005316146
31	0xba8a3aa1	-0.0010546037
32	0x3ca2aff8	0.019859299
33	0x3b836b86	0.0040106205
34	0x397c14bc	0.00024040317
35	0x3b2eb1ff	0.0026656387
36	0x3c0c6a62	0.0085702855
37	0x3bd74583	0.0065695657
38	0xbab981af	-0.0014153029
39	0xbb46e3ed	-0.0030348257
40	0x3ba2f6f0	0.004973285
41	0x3bc1e1c5	0.0059168064
42	0x3bb83521	0.005621568
43	0xbba85233	-0.005136752
44	0x3c23dd13	0.010001439
45	0x38fefdb1	0.000121589175
46	0x3b0e5875	0.0021720205
47	0xb9c06033	-0.00036692768
48	0xbb472043	-0.003038422
49	0xbc6b4852	-0.014360504
50	0xba247738	-0.00062738685
51	0x3b261bbc	0.002534612
52	0xba56de89	-0.00081966125
53	0x3ae2c4ef	0.0017301122
54	0x3b2f8621	0.0026782828
55	0x3a953416	0.0011383321
56	0xbb4db435	-0.003138793
57	0xbbd30125	-0.0064393454
58	0x3b92f45d	0.004484697
59	0xbb973956	-0.0046149893
60	0xba097252	-0.00052431703
61	0x3c98f53a	0.01867162
62	0xb9bd98bc	-0.00036162685
63	0xbb04ee56	-0.002028366
64	0xbb9f0d8d	-0.0048539103
65	0xbbe0bea3	-0.006858663
66	0xbbff006f	-0.007782034
67	0xbb1c3d65	-0.0023840305
68	0x3b080d37	0.002075983
69	0xb9cb8aaf	-0.00038822505
70	0xba82d867	-0.0009982706
71	0xbb29700a	-0.0025854134
72	0x3b39b5c1	0.0028337094
73	0xbac0081c	-0.0014650854
74	0x3b1a0ef9	0.002350746
75	0xbb8f1153	-0.004366079
76	0xba9b799e	-0.0011861806
77	0x3b26b8f2	0.0025439826
78	0x3af749e2	0.0018866623
79	0xbb802640	-0.0039108098
80	0x3b1b0b2c	0.0023657782
81	0x3b56cbb9	0.0032775237
82	0xbaa8ac06	-0.001286865
83	0xbb084a9b	-0.0020796421
84	0xbb8ffa8e	-0.004393882
85	0x3c02f4a0	0.007992893
86	0xbbc85f97	-0.006114911
87	0x3bb7848b	0.005600517
88	0x3b5b896a	0.0033498653
89	0xbba0030b	-0.0048831753
90	0x3ca329c9	0.019917386
91	0xbb6eb0eb	-0.003642137
92	0xbb3e799d	-0.0029064186
93	0x3bfbf98c	0.0076896604
94	0x3931e1bc	0.00016964128
95	0x3baa4e9a	0.0051973583
96	0x3b1b78b6	0.0023723072
97	0x3ca29af6	0.019849282
98	0x3bcddf83	0.006282748
99	0xbba78dca	-0.005113338
100	0xbb476270	-0.0030423664
101	0xbac61668	-0.0015112879
102	0x3aea90e9	0.001789597
103	0x39dd637d	0.0004222653
104	0xba457c9c	-0.0007533522
105	0xbb5f4221	-0.0034066516
106	0x3b968afd	0.0045942054
107	0x3c8e3e04	0.017363556
108	0x3b5f4d11	0.0034073035
109	0xbc07bd64	-0.0082849
110	0xbad4acda	-0.001622583
111	0x3cd2b8a2	0.025722805
112	0x3a728cb7	0.00092525355
113	0x3ad958a0	0.0016582198
114	0x3c14b71d	0.009076861
115	0xb8d224a8	-0.00010020408
116	0xbacb1fe5	-0.0015497176
117	0xbb86fd60	-0.00411956
118	0x3c84e63b	0.016223064
119	0xbbf4e37b	-0.007473407
120	0xbb77c439	-0.0037806167
121	0x3a98af4a	0.001164892
122	0x39b28080	0.00034046546
123	0x3b83a687	0.0040176543
124	0xbc00548e	-0.007832659
125	0xbb3d5fde	-0.0028896253
126	0xbb2d5283	-0.0026446886
127	0xbaa6257e	-0.0012675968
128	0xbb73c9de	-0.003719918
129	0x3ca33d4c	0.01992669
130	0x3b2db477	0.002650527
131	0x3a86a6de	0.0010273119
132	0x3ab4e080	0.0013799816
133	0x3b20f19f	0.002455808
134	0xbb947720	-0.0045308024
135	0xbb2441ac	-0.0025063558
136	0x3a628a23	0.00086418
137	0x3c9c78a2	0.019100491
138	0xbb64ab90	-0.0034892298
139	0xbb61e0e2	-0.0034466316
140	0x3a6a1257	0.00089291245
141	0xbb7184e4	-0.003685289
142	0x3bcf413e	0.006324916
143	0xbb3b2a99	-0.0028559326
144	0x3b659d7e	0.00350365
145	0xbacf8a6a	-0.0015834097
146	0x3b3d06fc	0.0028843274
147	0xbb3459a8	-0.002751926
148	0xbb3a7f64	-0.0028457278
149	0x3a5ed8ea	0.00085009506
150	0xbb80161d	-0.003908886
151	0xbbb465d9	-0.0055053052
152	0x3b5052a3	0.0031787537
153	0xbbd51f7f	-0.006503999
154	0xbc37d4be	-0.011220155
155	0xbba29aca	-0.0049623
156	0x3c21f171	0.009884224
157	0xbb8cfaad	-0.004302344
158	0x3b634b46	0.0034682318
159	0xbbfde537	-0.007748272
160	0x3c6ca804	0.014444355
161	0x3c59214a	0.013252566
162	0x3bf6d403	0.007532598
163	0x3a91082e	0.001106506
164	0xbbbb0499	-0.005707335
165	0x3c9da25f	0.019242464
166	0xba3443bc	-0.0006876548
167	0xbb6df79c	-0.0036310917
168	0xb99a66a8	-0.00029449654
169	0x3b9f65c5	0.004864427
170	0xbb648274	-0.0034867795
171	0xbc39d169	-0.011341431
172	0xbb52ae73	-0.0032147437
173	0x3c62cfbb	0.013843472
174	0xbb41651c	-0.0029509729
175	0x3b1ef8ce	0.0024257186
176	0x3bc719e8	0.0060760863
177	0xbb803a7d	-0.0039132223
178	0x3c9f777b	0.019466152
179	0xbbab639f	-0.0052303816
180	0xbb921f35	-0.0044592866
181	0xbb7bdd9b	-0.0038431648
182	0xbb80115e	-0.0039083203
183	0x38ce5b6e	9.8398756e-05
184	0x3c84a56b	0.016192159
185	0xbb6c0900	-0.0036016107
186	0x3c3a927f	0.011387466
187	0xbba97be9	-0.005172242
188	0xb9b8dbaf	-0.00035258892
189	0xb65df2f8	-3.3072993e-06
190	0x3cad47ec	0.02115246
191	0x3cbfa003	0.02339173
192	0xb9195ec3	-0.00014626519
193	0x3bc820d1	0.0061074276
194	0x3b4d9566	0.0031369566
195	0xbabd0e3e	-0.00144238
196	0x3b920f24	0.0044573713
197	0xbc005749	-0.00783331
198	0xbafab0f0	-0.0019126218
199	0x3bd6fd07	0.006560925
200	0xbc55a9c2	-0.013040962
201	0xbb87a7d2	-0.004139879
202	0xbc8ca337	-0.01716767
203	0x39d2cf20	0.0004020864
204	0x3be51bfc	0.0069918614
205	0x3c4e08fe	0.012575386
206	0xbc01c444	-0.0079203285
207	0xbc3c9ed2	-0.011512475
208	0x3a7f2c07	0.00097340386
209	0xbb750ecc	-0.0037392853
210	0xbc35441c	-0.011063602
211	0x3a1f9348	0.0006087315
212	0x3adc653c	0.0016814838
213	0xbb01ba64	-0.0019794935
214	0x3aa5c6e1	0.0012647772
215	0x3bc95ce5	0.006145107
216	0x3c01598a	0.007894883
217	0xbb674f23	-0.0035294972
218	0x3aa4dde4	0.0012578336
219	0xbb1e74a6	-0.0024178415
220	0x3b292ca0	0.0025813952
221	0x3a9b2a7e	0.0011838225
222	0x3bdf3ac5	0.006812426
223	0x3bbbb710	0.00572861
224	0x3bccafb6	0.0062465323
225	0x3be49307	0.006975535
226	0x3ab226de	0.0013591906
227	0x3b57f7f8	0.0032954197
228	0xbb1dc8eb	-0.0024076055
229	0x3b8de523	0.0043302937
230	0xbbcac0c0	-0.0061875284
231	0x3a6e35e2	0.00090870087
232	0x3c42d9f2	0.0118927825
233	0x3c36729a	0.011135722
234	0x3b2fa04b	0.0026798423
235	0x3c9a8be5	0.018865535
236	0x3b24ec54	0.0025165277
237	0x3bcc5bb6	0.0062365187
238	0xbb486e58	-0.0030583348
239	0xbc4c4259	-0.01246699
240	0x3adfe545	0.0017081877
241	0xbbe9e335	-0.007137681
242	0xbc52f52e	-0.012875838
243	0xbc1bf31a	-0.009518409
244	0x3b3faa9b	0.0029245976
245	0x3c070244	0.008240286
246	0x3c0bea3c	0.008539733
247	0xbbc59dac	-0.006030759
248	0xbbb33b83	-0.005469741
249	0xbb21121f	-0.0024577451
250	0xbb58bde2	-0.0033072163
251	0xbb63b3e9	-0.0034744686
252	0xbb1b3810	-0.002368454
253	0x3a3c6be0	0.00071877055
254	0xbaecaac2	-0.0018056261
255	0x3ab28029	0.0013618517

network_body._body_endoder.seq_layers.0.weight f4 [256, 68]
0	0xbdba7750	-0.09104788
1	0x3e0a68d2	0.13516548
2	0x3dffc830	0.124893546
3	0xbc2cd321	-0.010548384
4	0xbd799fb2	-0.060943313
5	0x3d9eeb19	0.07759685
6	0xbe14a7da	-0.14517155
7	0xbd4ceeac	-0.050032303
8	0x3e809462	0.25113207
9	0xbd6cad93	-0.05778272
10	0x3cbf16b3	0.023326254
11	0xbc19d569	-0.00938926
12	0xbe6db2a5	-0.23212679
13	0xbe831dcc	-0.2560867
14	0x3d91ddeb	0.071224056
15	0xbc7b2262	-0.015328022
16	0x3d4300b9	0.04760811
17	0xbe8c62f1	-0.27419236
18	0xbe69b46e	-0.22822735
19	0x3d42c089	0.047546897
20	0xbd4b1ed0	-0.049589932
21	0xbcdcfe7e	-0.02697682
22	0x3d9d6d35	0.07686845
23	0x3dff9b2d	0.12480769
24	0xbbeb21f0	-0.0071756765
25	0x3d28838d	0.04114108
26	0xbb6ea64f	-0.0036415046
27	0xbe396d71	-0.18108155
28	0xbdf875ca	-0.121318415
29	0xbb6c4033	-0.0036049008
30	0xbe07c34f	-0.13258098
31	0x3e3d8820	0.18508959
32	0xbbb2d02c	-0.005456945
33	0x3cf07430	0.029352278
34	0xbb8d029c	-0.0043032896
35	0x3d6a6532	0.057225414
36	0x3dc9b271	0.09848488
37	0x3e00f153	0.12592058
38	0x3e7a6452	0.24452332
39	0x3e426124	0.18982369
40	0x3d875438	0.0660786
41	0xbde15906	-0.11003308
42	0x3d04d090	0.032425463
43	0x3c1ce492	0.00957598
44	0xbdbd80bb	-0.09253069
45	0xbdd54a3e	-0.10414551
46	0x3e19fe9e	0.15038535
47	0x3c79683d	0.015222606
48	0xbd4f9755	-0.05068143
49	0x3d040388	0.03222993
50	0xbd42f7b8	-0.047599524
51	0xbe43e7d7	-0.19131409
52	0xbd123075	-0.035690743
53	0xbdaa6a1e	-0.083210215
54	0xbd5dd64e	-0.054159455
55	0x3e6e8c2d	0.2329566
56	0xbd96f6bf	-0.07371282
57	0xbde42707	-0.111402564
58	0x3e361e0f	0.17784904
59	0xbd899f31	-0.067198165
60	0x3e213da2	0.15746167
61	0xbdc1eadf	-0.09468626
62	0xbe3e5c32	-0.18589857
63	0x3e43389f	0.19064568
64	0x3da51b3b	0.080618344
65	0xbd9dacbc	-0.07698962
66	0xbc3ceeab	-0.011531512
67	0xbd852d97	-0.06502836
68	0x3e80fb87	0.251919
69	0xbe704163	-0.23462443
70	0xbe185a34	-0.1487816
71	0x3d9b4cfb	0.07583042
72	0x3e2606e1	0.16213562
73	0x3bd585fe	0.0065162173
74	0xbdb1756c	-0.086649746
75	0xbdb90b64	-0.09035376
76	0x3ddea2f3	0.10870924
77	0xbd572070	-0.05252117
78	0xbc50926a	-0.01273022
79	0xbcc25b3d	-0.023725146
80	0x3e802e4e	0.25035328
81	0xbe79d478	-0.24397457
82	0x3d835104	0.06411937
83	0x3d03a442	0.03213907
84	0xbe391908	-0.18075955
85	0x3dbd2359	0.09235258
86	0x3e00ce9e	0.12578818
87	0xbe01f134	-0.12689668
88	0xbdbf363a	-0.09336515
89	0x3d3ce5c3	0.046117555
90	0x3e6ee908	0.23331082
91	0x3d3cc514	0.046086386
92	0xbd7796a3	-0.060446393
93	0x3dcd2760	0.10017276
94	0x3e4fc0f5	0.20288451
95	0x3e28da45	0.16489513
96	0xbe080342	-0.13282493
97	0xbde4e116	-0.11175744
98	0xbbfd747b	-0.007734833
99	0xbc8c7eac	-0.017150246
100	0x3dfad6f1	0.12248028
101	0x3e24802a	0.16064516
102	0xbe0c34ad	-0.13691969
103	0x3dc9aa62	0.09846951
104	0xbc8763ad	-0.016527021
105	0xbddd1bb5	-0.107963
106	0xbd894701	-0.06702996
107	0x3c502f09	0.012706527
108	0x3d7abd4a	0.061215676
109	0x3e5da56f	0.21645139
110	0xbc02be2e	-0.007979913
111	0xbd4b16f0	-0.04958242
112	0x3e0878a6	0.13327274
113	0x3e527531	0.20552517
114	0x3de0bdb5	0.10973684
115	0x3dad6ebf	0.08468389
116	0x3d588898	0.05286464
117	0xbe4abd06	-0.19798669
118	0xbd768b00	-0.060191154
119	0x3d8e5cba	0.0695128
120	0xbd1c35df	-0.038137313
121	0xbdbd0fa6	-0.092315
122	0x3d9c103e	0.076202855
123	0x3e155065	0.1458145
124	0xbe0f2ad2	-0.13981178
125	0xbcb7c70e	-0.022433784
126	0xbe82c471	-0.25540498
127	0xbd56b5af	-0.05241936
128	0x3dec1890	0.115281224
129	0x3de5d3d5	0.112220444
130	0xbdb33d01	-0.0875187
131	0xbbede8dc	-0.007260425
132	0xbe40b827	-0.18820249
133	0x3e477deb	0.19481628
134	0xbdc9969e	-0.09843181
135	0x3d75de39	0.06002638
136	0xbd7716cf	-0.060324486
137	0x3e37ce79	0.17949857
138	0xbd5415e5	-0.051778693
139	0x3ac46fc9	0.0014986928
140	0xbcad14af	-0.021128027
141	0x3d5ba685	0.053625602
142	0xbe16fd1b	-0.1474499
143	0xbcf5e2cc	-0.030015372
144	0x3e408a08	0.18802655
145	0x3e4674ae	0.19380447
146	0xbcd8706e	-0.026420798
147	0xbdcac2d9	-0.099004455
148	0xbe286765	-0.16445692
149	0x3e507d66	0.20360336
150	0xbdfd56a9	-0.12370045
151	0xbd30eaab	-0.043192547
152	0x3e560dd6	0.20903715
153	0xbc8a0e85	-0.016852627
154	0x3e32598f	0.17416976
155	0x3e43c11d	0.19116636
156	0x3dc50a00	0.09621048
157	0x3e2e5021	0.17022754
158	0xbd4881f4	-0.048952058
159	0x3de6b398	0.112647235
160	0xbd5680d9	-0.052368972
161	0xbc4e2fc2	-0.012584629
162	0xbe3710f2	-0.17877558
163	0x3d1c9e52	0.038236924
164	0x3d0fae35	0.035078246
165	0x3e43f1f1	0.19135262
166	0x3d666b2c	0.05625455
167	0xbd5cfce0	-0.053952098
168	0x3e507163	0.20355754
169	0xbe327b4e	-0.1742985
170	0x3d18563b	0.03719161
171	0xbde04cd7	-0.10952156
172	0xbe2e677e	-0.17031667
173	0xbd432799	-0.047645185
174	0x3d8f7e60	0.07006526
175	0xbdce7491	-0.10080827
176	0x3de2b562	0.11069752
177	0xbb1ebe77	-0.0024222413
178	0xbe1dd508	-0.15413296
179	0xbd536ff9	-0.051620457
180	0x3e1e1793	0.1543868
181	0xbe97c6c2	-0.29643828
182	0xbde4a4b2	-0.11164226
183	0x3d1244e9	0.03571025
184	0xbc4d516c	-0.0125316195
185	0xbda4c583	-0.08045485
186	0x3db80c84	0.08986762
187	0xbce18f64	-0.027534194
188	0xbd23cc86	-0.03998997
189	0xbd0aea24	-0.0339147
190	0x3da1254d	0.07868443
191	0x3ca783cc	0.020448588
192	0xbdb8b4c4	-0.09018853
193	0x3da9334c	0.08261737
194	0xbea23200	-0.31678772
195	0xbe05ea2f	-0.13077615
196	0x3d89f5ce	0.06736337
197	0xbaaeb1be	-0.0013328118
198	0x3c46d5a2	0.012135895
199	0xbe2251d0	-0.15851521
200	0x3d140e53	0.036146473
201	0x3d668e26	0.056287907
202	0x3dd7e35f	0.105414145
203	0x3e2d3429	0.16914429
204	0xbde996a8	-0.114056885
205	0x3d7d27ab	0.06180541
206	0xbcb9bc35	-0.022672752
207	0xbaee4b52	-0.0018180406
208	0xbd102e46	-0.03520038
209	0x3d9b9a6b	0.07597812
210	0xbda0b52b	-0.07847055
211	0x3d93c1d8	0.07214707
212	0x3e3d5a41	0.1849146
213	0x3d3999b2	0.04531259
214	0x3dcabb85	0.09899048
215	0x3e3ad647	0.18245803
216	0xbc2129b9	-0.009836608
217	0xbdd97748	-0.10618454
218	0x3c1cc875	0.009569277
219	0xbdb9454c	-0.090464205
220	0x3d2ebf97	0.042663183
221	0x3da0f417	0.078590564
222	0xbdcf6ef5	-0.10128585
223	0x3ca955e4	0.020670839
224	0xbdf1bb47	-0.118032984
225	0x3e0862b7	0.13318907
226	0xbe1d941e	-0.15388533
227	0xbdceab52	-0.100912705
228	0x3dd35824	0.10319546
229	0x3db3fe98	0.08788794
230	0xbc4a9575	-0.012364735
231	0xbe306c72	-0.17228869
232	0x3e307c4b	0.17234914
233	0x3db4595a	0.08806105
234	0xbd30ef93	-0.043197226
235	0xbd12c783	-0.0358348
236	0x3e5a67c8	0.21328652
237	0x3d64474e	0.055732064
238	0x3e48db20	0.1961484
239	0xbd798ee8	-0.0609273
240	0xbd9e4635	-0.07728235
241	0x3ce67158	0.028130218
242	0xbd913240	-0.070896626
243	0x3d30ed42	0.043195017
244	0xbd5e9eaa	-0.054350533
245	0x3bd64cd6	0.0065399213
246	0x3cbb2bdd	0.022848064
247	0xbcbc8a77	-0.023015244
248	0x3d9f8959	0.07789869
249	0xbdce3bdb	-0.1007001
250	0xbdb05672	-0.08610238
251	0xbc4a4881	-0.012346388
252	0xbd9693bb	-0.07352396
253	0x3d97c4e1	0.074105985
254	0x3e2ee3f3	0.17079143
255	0x3cc1e775	0.023669938

network_body._body_endoder.seq_layers.2.bias f4 [256]
0	0xba974d9e	-0.0011543517
1	0xbb99fc94	-0.004699299
2	0xbb51e896	-0.00320295
3	0xb98a0f57	-0.0002633284
4	0xbb091b55	-0.0020920832
5	0xbb8ccdc4	-0.00429699
6	0xb7841a87	-1.5747979e-05
7	0xbb549774	-0.0032438906
8	0xbb1dd957	-0.0024085843
9	0x3b021be1	0.0019853043
10	0x3af48386	0.001865492
11	0x3c433f4b	0.011916946
12	0x3b0b993d	0.0021301054
13	0xbadd53c4	-0.0016885926
14	0xbb5710b3	-0.003281635
15	0xba8bc92f	-0.0010664816
16	0x3ab9471b	0.0014135571
17	0x3c007c6d	0.007842165
18	0x3a4aa51a	0.00077302905
19	0x3a840eb0	0.0010075178
20	0x3b508a7b	0.0031820822
21	0x39c22d52	0.0003703633
22	0xbb06712b	-0.002051423
23	0x3b1b34f0	0.0023682676
24	0x38aca9ed	8.23325e-05
25	0x3a62a586	0.0008645881
26	0xbb8aec4a	-0.0042395936
27	0x3c4d7475	0.012539973
28	0xbaa41601	-0.0012518765
29	0xbb02115c	-0.0019846773
30	0xbb5c1116	-0.003357952
31	0xbab0f25f	-0.0013499967
32	0xbbe4eeda	-0.006986481
33	0x3a9cbabe	0.0011957509
34	0xbb4d101d	-0.0031290122
35	0x3bc264da	0.0059324326
36	0x3b9c4f44	0.0047701914
37	0xbb10e1c7	-0.002210723
38	0xbab20deb	-0.001358447
39	0x3c0b9904	0.0085203685
40	0xbb7fe2b0	-0.0039045028
41	0x38c093e0	9.182817e-05
42	0x3ad0a61d	0.0015918646
43	0x3990c4ed	0.0002761254
44	0x3afb2825	0.0019161744
45	0xba79bca1	-0.0009526704
46	0xbb46c0ae	-0.0030327248
47	0x3c025a1a	0.007956052
48	0xba379c61	-0.0007004198
49	0xbb328c62	-0.002724432
50	0x3bf6d617	0.0075328457
51	0x3bada015	0.0052986243
52	0xbb0f04b3	-0.002182287
53	0xbb29bc6f	-0.0025899669
54	0xbb6bb4f5	-0.0035966013
55	0xbb8416b7	-0.004031028
56	0xbb77e6d9	-0.0037826805
57	0x3a6692a1	0.0008795653
58	0x3b4d5eaa	0.0031336942
59	0x3aab9619	0.0013090997
60	0x3b521cec	0.0032060696
61	0x3a35134b	0.0006907477
62	0x3c4361d9	0.011925184
63	0x3c2d524b	0.010578702
64	0x3aeed78b	0.0018222196
65	0xbb19ed1d	-0.0023487278
66	0x3b3428b5	0.0027490084
67	0x3b2e8fc5	0.0026635986
68	0xb9e0935c	-0.000428344
69	0xbb7d892a	-0.0038686492
70	0xba8e1d47	-0.0010842466
71	0x3b5bdbfd	0.0033547871
72	0xbb8dc525	-0.00432648
73	0xbb7bf198	-0.0038443562
74	0xbb8cba05	-0.004294636
75	0xbba43f80	-0.0050124526
76	0xbbb39dd9	-0.0054814634
77	0xb9ccfc99	-0.00039098112
78	0x3bb39b6c	0.005481174
79	0x3b18e094	0.0023327218
80	0x3b24989a	0.0025115372
81	0xba2d4424	-0.000660958
82	0x3c0d227e	0.008614181
83	0x3ac413fc	0.0014959569
84	0x3c0f1e7c	0.008735295
85	0x3c7a914a	0.015293429
86	0x3bbe1ae6	0.0058015464
87	0x3aab2d2a	0.0013059725
88	0xbae517de	-0.0017478426
89	0x3b0b0601	0.0021213295
90	0x3c25c337	0.010117344
91	0xbb805fcb	-0.0039176694
92	0xb9c7986a	-0.00038069795
93	0x3b3f5c4e	0.0029199305
94	0xbaa38df0	-0.0012478214
95	0xbbaf095f	-0.0053416933
96	0x3a23925b	0.0006239765
97	0x3c34b5c5	0.011029665
98	0x3b0dc04a	0.0021629506
99	0x3ad92a4a	0.0016568389
100	0xbb69fab1	-0.0035702402
101	0xbb76b2a4	-0.00376431
102	0xbb5d5b8f	-0.0033776497
103	0x3bda380a	0.0066595124
104	0x3b52e71c	0.003218121
105	0x3a55673f	0.000814069
106	0x3b428c87	0.0029685812
107	0x3b2afccb	0.0026090618
108	0x3c285c64	0.010275934
109	0x3a7fa395	0.00097518536
110	0x3bfb3a86	0.0076668886
111	0x3b43736d	0.0029823438
112	0xbb4a1837	-0.0030837187
113	0xbb40d0ee	-0.0029421407
114	0xbb7554b5	-0.0037434523
115	0xbb4c434f	-0.0031168049
116	0x3a404f2c	0.0007336016
117	0xbbbb40e5	-0.005714523
118	0xbb10432e	-0.0022012698
119	0x3b2ff64f	0.0026849692
120	0xbb061838	-0.0020461213
121	0x3ac64f77	0.0015129884
122	0xba4dd63c	-0.0007852053
123	0xb8000f94	-3.0532086e-05
124	0x3a7f6598	0.00097426167
125	0x3a9bc1d4	0.0011883327
126	0x3be45fbb	0.00696942
127	0xbb69454d	-0.0035594285
128	0x3b5c9644	0.0033658901
129	0x3ab5e319	0.0013876884
130	0xb7593da4	-1.294856e-05
131	0x3a880395	0.0010377044
132	0x3a78c499	0.00094897446
133	0xbb1727de	-0.0023064534
134	0xbb0a08ef	-0.0021062454
135	0x3c1d469b	0.009599353
136	0xba80f0b9	-0.0009837366
137	0x3af8bec6	0.0018977753
138	0x3bb51200	0.0055258274
139	0x3b04bf1a	0.0020255507
140	0x3b0ff742	0.0021967446
141	0xb9dd74fc	-0.00042239565
142	0xbb015a4e	-0.0019737664
143	0xbb733378	-0.0037109535
144	0x3a58ad18	0.0008265539
145	0xbb822f87	-0.003972951
146	0x3c3740a7	0.011184848
147	0x3aba388e	0.0014207528
148	0x3a6cf0d6	0.0009038573
149	0xbbacf2c0	-0.0052779615
150	0x3a2167ef	0.000615715
151	0xbb566973	-0.0032716661
152	0x3ac3573b	0.0014903316
153	0xbb8da6a8	-0.0043228455
154	0x3b175e88	0.0023097117
155	0xbb59bbb7	-0.003322346
156	0xbb92f325	-0.0044845515
157	0xbb5dc197	-0.0033837312
158	0xbc2d004d	-0.010559154
159	0x388c0839	6.677252e-05
160	0x3b98cfb9	0.0046634343
161	0xba2c71a8	-0.00065782154
162	0xbafcee19	-0.0019297033
163	0xbb33d65a	-0.0027440996
164	0x3c36461c	0.011125114
165	0xbb977335	-0.004621888
166	0xbb7c0bba	-0.0038459138
167	0x3b756aea	0.003744776
168	0xbb16582e	-0.0022940743
169	0xbbcf0a81	-0.006318391
170	0x3b16de78	0.0023020785
171	0x3c1b2616	0.00946953
172	0xbc210988	-0.009828933
173	0xba416aa6	-0.00073782576
174	0xbba48f16	-0.00502194
175	0xbb5dd64b	-0.0033849652
176	0x3a9b0b1c	0.0011828872
177	0xbc026149	-0.007957765
178	0x3b34d841	0.0027594718
179	0xbc04d13f	-0.008106529
180	0xbb1cc24d	-0.0023919523
181	0xbb7e49ae	-0.003880124
182	0xbb3c019c	-0.0028687483
183	0xbac554a8	-0.0015055137
184	0x3b9e1a45	0.004824909
185	0xba08e63e	-0.0005222297
186	0xbb26da13	-0.0025459572
187	0x3b850a30	0.0040600523
188	0xbb93d1f7	-0.0045111137
189	0x370fad19	8.563767e-06
190	0x3bba841f	0.0056920196
191	0xbb9d050f	-0.004791863
192	0x3af41e92	0.0018624833
193	0xbb3bff87	-0.0028686242
194	0x3c278e56	0.010226807
195	0x3b931dbb	0.004489628
196	0x3829860b	4.0417577e-05
197	0x3bdbfbd4	0.00671337
198	0xbb600d0c	-0.0034187464
199	0xbb93ce7d	-0.0045106993
200	0x394a39f5	0.00019285812
201	0xba2ca146	-0.0006585311
202	0x3c09759f	0.008389859
203	0xbb6db0f2	-0.0036268798
204	0x3bb0983b	0.005389241
205	0xbb080d28	-0.0020759795
206	0x3b4fa250	0.003168244
207	0xba4ea08a	-0.00078821986
208	0xbb40d4e9	-0.002942378
209	0xbb15f5ef	-0.0022882184
210	0xbb975907	-0.004618767
211	0x396cd2c5	0.00022585232
212	0xb99082f4	-0.00027563388
213	0x3c1b3b58	0.009474598
214	0xbb57ec4a	-0.0032947236
215	0x3bcdfaf8	0.0062860213
216	0xbadbd46f	-0.0016771684
217	0x3c02d9c8	0.007986493
218	0xbbb37391	-0.005476423
219	0xbb139835	-0.0022521142
220	0xb95c32c5	-0.00020999748
221	0xbb7ea215	-0.0038853933
222	0x3aa8bad2	0.001287306
223	0xbb894243	-0.004188807
224	0xbc7c2a65	-0.015390967
225	0xba8b32a5	-0.0010619952
226	0xbb1c65a5	-0.0023864296
227	0x3b54ef8d	0.0032491416
228	0xbb752091	-0.0037403444
229	0x3a837a7a	0.0010031008
230	0x3aaac9ee	0.001303015
231	0x3c73574e	0.014852358
232	0xbb41a750	-0.002954919
233	0x3c74f059	0.0149498815
234	0xbc0a9266	-0.008457756
235	0x3a7dc390	0.0009680325
236	0xbb3fb0a3	-0.002924957
237	0x3a55cc69	0.00081557647
238	0x3c0958fd	0.008383033
239	0x3bffa117	0.007801186
240	0x3b321397	0.002717232
241	0x3babb13b	0.0052396334
242	0xb970b659	-0.00022956113
243	0xbb1eec45	-0.0024249714
244	0xbadd5e39	-0.0016889042
245	0xbbc64315	-0.0060504773
246	0xb8b61ac7	-8.683424e-05
247	0x3be353a9	0.0069374633
248	0x3b39bcf6	0.002834139
249	0xbb92558a	-0.0044657635
250	0xbb73afc0	-0.0037183613
251	0x3b08d88d	0.0020881027
252	0x3a83c17b	0.0010052169
253	0xbbacd46a	-0.005274345
254	0x3c498c61	0.012301535
255	0x3a8fc41d	0.001096848

network_body._body_endoder.seq_layers.2.weight f4 [256, 256]
0	0xbdb37d8e	-0.08764182
1	0xbd87dd28	-0.06633979
2	0xbdcd6926	-0.10029821
3	0x3cf97228	0.030449942
4	0x3d87024f	0.06592237
5	0x3cebc25f	0.028779207
6	0x3dad4be1	0.084617384
7	0xbdd5baa4	-0.104359895
8	0x3c79f28b	0.015255581
9	0x3aa59ea8	0.0012635784
10	0x3e13802c	0.14404362
11	0xbba61fea	-0.0050697224
12	0x3ded0bf1	0.11574543
13	0xbdb172c4	-0.08664468
14	0x3d7d2009	0.06179813
15	0x3c7cc847	0.015428609
16	0x3d248782	0.040168293
17	0x3d48b710	0.049002707
18	0x3d8b1955	0.06791941
19	0x3d682196	0.056672655
20	0x3d21f2c5	0.039538164
21	0x3d74e323	0.059786927
22	0xbd12f0ac	-0.035874054
23	0xbd12feb1	-0.035887424
24	0x3d174c26	0.036937855
25	0xbcc4c2ac	-0.024018608
26	0xbc93efca	-0.018058676
27	0xbbfc83b8	-0.007706132
28	0x3de4cf29	0.11172325
29	0x3b985771	0.0046490957
30	0x3d6b6312	0.057467528
31	0xbd3334c3	-0.04375149
32	0xbd3b1335	-0.045672614
33	0x3dae562f	0.08512532
34	0x3d1fc2aa	0.039004005
35	0x3dc84c98	0.09780234
36	0x3dde6d7f	0.108607285
37	0xbdf71bb1	-0.120658286
38	0x3ce97af1	0.028501006
39	0xbcc34de6	-0.023840856
40	0xbc4f7300	-0.0126616955
41	0x3c6e2683	0.014535549
42	0xbcaee7ea	-0.02135082
43	0x3d1de591	0.03854901
44	0xbd512e5f	-0.051069614
45	0xbdeee5a2	-0.11664893
46	0x3c0400ad	0.008056802
47	0xbca678fd	-0.020321364
48	0xbcbca1f8	-0.023026451
49	0xbd26a3fc	-0.04068373
50	0xbd0c3b21	-0.034236077
51	0x3dccb5fa	0.09995647
52	0xbdbc412c	-0.09192118
53	0x3d900024	0.07031277
54	0xbd96fbb7	-0.073722295
55	0xbcbffd27	-0.023436142
56	0xbd436b0e	-0.047709517
57	0x3d9d85b5	0.07691518
58	0xbd2e608c	-0.042572543
59	0x3d2481b6	0.040162764
60	0x3ddf717d	0.10910318
61	0x3cf204da	0.029543329
62	0x3dc16556	0.094431564
63	0xbb0afbb4	-0.0021207156
64	0xbc85f4f5	-0.016352156
65	0x3c69458a	0.014237771
66	0xbd88a55a	-0.06672163
67	0x3d8d8ac9	0.06911237
68	0xbd5f3033	-0.054489326
69	0x3d854da2	0.06508948
70	0xbdcc60db	-0.09979411
71	0x3d3877fa	0.045036294
72	0x3cf7c9d4	0.030247606
73	0xbb255aca	-0.0025231116
74	0xbd44f168	-0.048081785
75	0x3ca5d67c	0.020243876
76	0x3d66468e	0.05621963
77	0x3d5ce886	0.05393269
78	0x3d08a1f7	0.033357587
79	0x3d81eb47	0.06343704
80	0xbd01ac14	-0.031658247
81	0x3db38fbb	0.08767649
82	0x3e144800	0.14480591
83	0x3c84a447	0.016191615
84	0x3d856157	0.06512707
85	0x3d62afd8	0.05534348
86	0x3cb448ee	0.022007432
87	0x3c83e626	0.016100954
88	0xbd31d182	-0.043412693
89	0xbd917f5c	-0.0710437
90	0xbbf47a18	-0.007460844
91	0xbe236ae5	-0.15958746
92	0x3d5d54d6	0.054035984
93	0xbd891630	-0.06693685
94	0x3d431295	0.047625143
95	0xbddeaa20	-0.108722925
96	0xbcc782e5	-0.024354408
97	0x3c2ed2ac	0.010670345
98	0xbca79bbf	-0.020460008
99	0x3d0df309	0.034655605
100	0x3cf74885	0.030185947
101	0xbd5eb03e	-0.054367296
102	0xbda388a5	-0.07985047
103	0xbca531e1	-0.020165386
104	0xbcd627bf	-0.026142
105	0x3d31c36d	0.043399263
106	0x3d112407	0.03543475
107	0x3c87dfda	0.016586233
108	0xbd29cd8b	-0.041455787
109	0xbd292cc2	-0.04130245
110	0x3da49059	0.08035345
111	0xbd978ac7	-0.073995166
112	0xbda92326	-0.08258657
113	0x3e12a1a7	0.14319478
114	0xbcc99a6b	-0.024609765
115	0xbc35cc3c	-0.011096057
116	0xbc867b6a	-0.01641627
117	0x3b61aba0	0.0034434572
118	0xbcbcad23	-0.023031777
119	0x3dc88ecd	0.09792862
120	0xbc8038c4	-0.015652068
121	0xbc7d4511	-0.015458361
122	0x3c3508e2	0.011049481
123	0xbdfbc716	-0.12293832
124	0x3c9640c4	0.01834143
125	0xbd4abc98	-0.049496263
126	0xbcea1bd9	-0.028577732
127	0xbd9bb64c	-0.0760313
128	0xbd20be28	-0.039243847
129	0xbc097db1	-0.008391784
130	0x3c67d313	0.014149445
131	0xbe0966ba	-0.13418093
132	0xbcd852f1	-0.026406737
133	0x3d13053a	0.035893656
134	0xbd63e8c8	-0.05564192
135	0xbda7fbe8	-0.08202344
136	0xbc9b39f3	-0.01894853
137	0x3d2fdc57	0.04293474
138	0x3d8208d7	0.06349342
139	0x3d2e265f	0.042517062
140	0xbdc84000	-0.09777832
141	0xbd5f96de	-0.054587238
142	0xbc23b205	-0.009991174
143	0x3d6987f2	0.057014413
144	0xbcd540aa	-0.02603181
145	0x3cf8c3df	0.030366836
146	0xbd079c21	-0.03310788
147	0x3d7ca505	0.061680812
148	0xbd956a5f	-0.07295679
149	0xbd293502	-0.041310318
150	0xbcbdad3f	-0.0231539
151	0xbdc12a9f	-0.094319575
152	0xbcf861a4	-0.030319996
153	0xbd670a8e	-0.05640655
154	0x3cbff640	0.02343285
155	0x3cf7d415	0.030252496
156	0xbce4f494	-0.027948655
157	0xbd0b4b7a	-0.034007527
158	0xbd0e567c	-0.034750447
159	0x3c4b8213	0.012421149
160	0xbc8e130a	-0.017343063
161	0x3d20f666	0.039297484
162	0xbd8ef6ff	-0.069807045
163	0xbde7fd01	-0.113275535
164	0xbdcf2ec7	-0.10116344
165	0xbd63200b	-0.05545048
166	0xb90629ec	-0.00012794853
167	0xbd3da020	-0.046295285
168	0x3d85f93c	0.06541678
169	0x3db482e5	0.08814029
170	0x3c1fe732	0.009759711
171	0x3ce24d09	0.027624624
172	0xbd2b3bd8	-0.04180512
173	0xbd505c97	-0.05086955
174	0xbc6bc99a	-0.014391327
175	0x3dafb27c	0.08578965
176	0xbbeb34b4	-0.0071779136
177	0xbcce2978	-0.025166258
178	0x3d7cf73e	0.061759226
179	0xbd09a960	-0.033608794
180	0x3cbce1e9	0.023056941
181	0xbdaf6801	-0.08564759
182	0x3dc0864c	0.09400615
183	0x3bb2bd8d	0.005454725
184	0xbc3dbdd7	-0.011580906
185	0x3cc4ea93	0.024037635
186	0xbd02c433	-0.03192539
187	0x3e0494c0	0.12947369
188	0xbc8aec1b	-0.016958287
189	0xbdd1741a	-0.10227223
190	0xbd6a3cb5	-0.0571868
191	0xbb76b3e1	-0.0037643837
192	0x3d1e3791	0.03862721
193	0x3d786e59	0.06065211
194	0xbdb0424a	-0.08606394
195	0xbbbe6d7a	-0.0058113905
196	0xbd0d0eee	-0.034438066
197	0x3d229701	0.03969479
198	0x3d1bb80f	0.03801733
199	0xbe4cedb2	-0.20012549
200	0xbc493355	-0.012280305
201	0xbd9edec2	-0.077573314
202	0x3d3239d5	0.043512184
203	0xbd1954fe	-0.03743457
204	0x3d2a2601	0.04154015
205	0x3d9f5e52	0.07781662
206	0xbdbd084c	-0.09230098
207	0xbd230c3a	-0.039806582
208	0xbe37d4a5	-0.17952211
209	0xbdc529df	-0.09627127
210	0x3d328c7b	0.043591004
211	0x3be363e4	0.006939398
212	0x3d657d8e	0.05602794
213	0x3ad9d921	0.0016620496
214	0xbd362b5e	-0.044474952
215	0x3d575f9c	0.052581415
216	0x3c2d4345	0.01057512
217	0xbd128a75	-0.035776574
218	0x3d0a3a90	0.033747256
219	0xbd27e081	-0.040985588
220	0x3ba02e9b	0.0048883683
221	0x3d9f05c2	0.0776477
222	0x3b61cc4d	0.0034454048
223	0x3ddb0699	0.10694618
224	0x3c1a49da	0.009417022
225	0xbd0b7f16	-0.034056745
226	0xbc8b237e	-0.016984697
227	0xbd627c17	-0.055294123
228	0x3ca666f0	0.020312756
229	0x3d1cd5d4	0.03828986
230	0xbda41683	-0.08012106
231	0xbdf31682	-0.118695274
232	0x3aa9a804	0.0012943749
233	0x3d240c82	0.04005099
234	0xbc88e3bf	-0.01671016
235	0x3e0710e9	0.13190044
236	0x3d75810f	0.059937533
237	0xbc97caeb	-0.018529376
238	0x3de33cc0	0.110955715
239	0xbd8f0b98	-0.06984633
240	0xbc8c3076	-0.017112952
241	0x3aeddf88	0.0018148283
242	0x3dca87b1	0.09889162
243	0x3c274ceb	0.01021121
244	0x3db0311d	0.086031176
245	0xbb98c271	-0.004661851
246	0x3e08e623	0.1336904
247	0xbcd27638	-0.025691137
248	0xbe41b851	-0.18917967
249	0x3d8c1bfe	0.068412766
250	0xbd13666f	-0.03598636
251	0xbdb6bc4f	-0.08922636
252	0xbc58be49	-0.013228961
253	0xbdc63cc2	-0.096795574
254	0xbddc867f	-0.107678406
255	0x3d2061a3	0.039155614

network_body._body_endoder.seq_layers.4.bias f4 [256]
0	0xbaa3fb24	-0.0012510759
1	0xbb66337a	-0.0035125897
2	0x3c058c19	0.008151078
3	0xbb9e0dd6	-0.0048234267
4	0xbb51f35e	-0.0032035927
5	0xbb6d7ef6	-0.0036239005
6	0x3aa0cf96	0.0012268897
7	0xbbe9080d	-0.0071115554
8	0x3a6d61fb	0.0009055433
9	0x3b54498c	0.003239247
10	0xbb45f1c0	-0.0030203909
11	0x3a1c5fa1	0.00059651776
12	0x3bbf1a00	0.005831957
13	0xbaad5e40	-0.0013226941
14	0x3b88afb4	0.004171336
15	0xbb1735fc	-0.0023072949
16	0xbb33ecd8	-0.0027454402
17	0x3af96709	0.0019027899
18	0xbb78e8f6	-0.0037980652
19	0xbb40590f	-0.0029349958
20	0x3b34f672	0.0027612713
21	0xbc244aeb	-0.010027627
22	0xb99dac84	-0.00030073908
23	0x3ab88a8f	0.001407938
24	0x3abbbdaf	0.0014323498
25	0x3c1d4515	0.00959899
26	0x3bc8fd32	0.006133699
27	0xbaed38dc	-0.001809861
28	0x39697195	0.00022262924
29	0x3b5a2aa3	0.0033289574
30	0x3bb55290	0.005533524
31	0xbac61bd6	-0.0015114497
32	0xbb8c5371	-0.004282408
33	0x3b062cfe	0.0020473595
34	0x39bd1529	0.00036064655
35	0xbb581cd4	-0.0032976167
36	0xb9efe573	-0.00045756585
37	0xbb836fec	-0.004011145
38	0x3bcbdf23	0.0062216683
39	0xbb53a3dd	-0.0032293715
40	0x3a4cc62d	0.0007811513
41	0x3ab6255e	0.0013896634
42	0xbac989b8	-0.0015376126
43	0x3b5a6f2f	0.003333043
44	0xbb2e2cba	-0.0026576952
45	0xbaa524ef	-0.0012599508
46	0xbbc08add	-0.005875929
47	0x3b07cf37	0.0020722875
48	0x3c4c5fb9	0.012473994
49	0xbb39530c	-0.002827826
50	0xb97695f8	-0.00023516256
51	0x3a027d62	0.000497779
52	0xbb79e532	-0.0038130996
53	0x3b2a7f66	0.0026015877
54	0x3b47b16b	0.003047074
55	0x3b455dcc	0.0030115722
56	0xbbc384ec	-0.0059667733
57	0xbbb807df	-0.0056161727
58	0xbb679ee6	-0.0035342514
59	0xbc023c97	-0.007949016
60	0xbb5ee630	-0.0034011714
61	0x3b048cb4	0.0020225467
62	0xbbbb0875	-0.0057077953
63	0x3b1c9302	0.0023891334
64	0x3ab4c523	0.0013791661
65	0x3a2b561a	0.00065359625
66	0xbb76bf73	-0.0037650734
67	0xba7f128f	-0.00097302435
68	0x3b310e1f	0.0027016473
69	0xbb4f6a97	-0.0031649226
70	0xbb8b72e9	-0.0042556417
71	0x3b0a2ee7	0.0021085085
72	0x38af0302	8.3452105e-05
73	0xbbea10d2	-0.0071431184
74	0x3b4098a3	0.0029387854
75	0xbb71f45d	-0.0036919334
76	0x3ae13b6f	0.001718385
77	0xbb84236d	-0.0040325434
78	0xb7db99f4	-2.6178524e-05
79	0xbb59f1eb	-0.0033255767
80	0xbb93da52	-0.00451211
81	0xbbc91886	-0.0061369566
82	0xba0b0d59	-0.0005304418
83	0xbbce9d51	-0.0063053747
84	0xba5466ed	-0.00081024953
85	0xbbd2ded7	-0.006435256
86	0x3ab3e4ff	0.0013724862
87	0x39e27442	0.00043192698
88	0x3b0e369c	0.002170003
89	0x3c6496e0	0.013951987
90	0xbb4b0346	-0.0030977293
91	0x3b81b92e	0.0039588427
92	0xba6a0f96	-0.0008928714
93	0xba8b0395	-0.0010605926
94	0xbabbfd87	-0.0014342525
95	0xbb23367d	-0.0024904304
96	0xbab6c33b	-0.0013943681
97	0x3b02d595	0.001996373
98	0xbb29250e	-0.002580944
99	0x3b2846b9	0.002567692
100	0x3c360bd1	0.011111216
101	0x3a2cae6e	0.00065872713
102	0xbb592b07	-0.0033137219
103	0xb971aeca	-0.00023048665
104	0x3adf4b03	0.0017035905
105	0x3a892aa1	0.0010464975
106	0xbb3a9278	-0.002846865
107	0x3c7f2f1b	0.015575196
108	0x3bcb9044	0.006212266
109	0x3abb0fb4	0.0014271648
110	0x3b64be7d	0.003490358
111	0xbaba6b48	-0.0014222646
112	0x3b85df2c	0.004085442
113	0xba9c9b05	-0.0011948055
114	0xbb9f9ed8	-0.0048712306
115	0x3b579f67	0.0032901408
116	0x3aee5698	0.0018183766
117	0xbb1cddb8	-0.0023935866
118	0x3b4e4b12	0.003147785
119	0xbbb3d104	-0.005487563
120	0xbb464f3e	-0.0030259634
121	0xbbb7c643	-0.0056083514
122	0x3b1552a2	0.0022784849
123	0xbb1196b5	-0.0022215073
124	0x3abadee7	0.0014257104
125	0xb8d5cfd6	-0.00010195344
126	0x3a8cb26e	0.0010734329
127	0xbb83494b	-0.00400654
128	0xbaadfb02	-0.0013273659
129	0xbb408988	-0.002937885
130	0xba507c90	-0.00079531316
131	0xbb238bec	-0.0024955226
132	0x3b10c53c	0.0022090217
133	0xb8eb24be	-0.00011212517
134	0xbb574b07	-0.0032851116
135	0x3bb03685	0.005377593
136	0x398c3b08	0.00026746863
137	0x397c9e78	0.00024091627
138	0xbb22d890	-0.002484832
139	0x3bffbb6f	0.0078043262
140	0xbc63edc7	-0.013911671
141	0xbb093bbe	-0.002094015
142	0xbb4592f1	-0.0030147398
143	0xbb8ee6bf	-0.004361003
144	0x3aa60438	0.0012666052
145	0xb905a215	-0.00012744249
146	0xbad7b6d4	-0.0016457685
147	0xba9cf4fe	-0.0011974869
148	0x3b87f874	0.004149491
149	0x3b8d41db	0.004310829
150	0xbb36e5f6	-0.0027908063
151	0x3b486ed8	0.0030583646
152	0xbb58c08f	-0.0033073758
153	0x3bd34476	0.00644737
154	0xbb499912	-0.0030761403
155	0x3b3bfb61	0.002868377
156	0xbababc96	-0.0014246877
157	0xbadfafba	-0.001706592
158	0xbb210eaa	-0.002457539
159	0xbc402c59	-0.011729323
160	0xb9ed8942	-0.00045306428
161	0xbb9d135d	-0.004793568
162	0xbb9dc2f5	-0.0048145005
163	0x3bdb9d65	0.0067021125
164	0xbb829a09	-0.0039856476
165	0xbb8df01f	-0.004331603
166	0xbb48b2d2	-0.0030624163
167	0xbbbf6258	-0.005840581
168	0xbc1f5c1c	-0.00972655
169	0xbb49e58a	-0.0030806982
170	0xba700def	-0.00091573497
171	0x3bc1f4a4	0.005919056
172	0xbb293353	-0.0025817945
173	0x3b7f86bc	0.003899022
174	0xbad048cc	-0.0015890836
175	0x3adcb781	0.0016839356
176	0xba031bce	-0.00050013966
177	0x3b15bc65	0.0022847888
178	0x3a8b5c3d	0.0010632348
179	0xbb7a96c7	-0.0038236843
180	0x3bf0234c	0.0073284265
181	0x3ad8ed42	0.00165502
182	0xbbd7dc90	-0.0065875724
183	0x3b74b9a6	0.00373421
184	0x3a9c5979	0.001192852
185	0x3a18877a	0.00058185274
186	0x3c1ac22a	0.009445706
187	0x3b29143e	0.0025799419
188	0xbb04d703	-0.0020269759
189	0xbbb61b7e	-0.0055574765
190	0x3b3e72b4	0.0029060068
191	0x3b9a7015	0.0047130683
192	0x3b1d5d78	0.002401201
193	0xbaee8ee2	-0.0018200541
194	0xbb6c8b39	-0.0036093725
195	0x3ab685a5	0.0013925327
196	0xbb274387	-0.0025522427
197	0x3b13b3ba	0.0022537545
198	0xbaff9e3e	-0.0019502116
199	0x38e95cb1	0.00011127571
200	0xbae190e4	-0.0017209318
201	0xbb6453da	-0.0034840018
202	0xbb40f4af	-0.0029442718
203	0x3b2bdb08	0.0026223082
204	0x3b5a6be4	0.0033328468
205	0x3b70e045	0.0036754769
206	0x3b3291bd	0.0027247511
207	0xbb039ecc	-0.0020083664
208	0x3bef0e84	0.0072954316
209	0x3ac2a508	0.0014850209
210	0x3b021d04	0.001985372
211	0xbb4616ab	-0.0030225914
212	0x3b01e8ea	0.0019822665
213	0xbadd5d64	-0.0016888794
214	0xbbec331c	-0.007208241
215	0x3b6285a4	0.003456452
216	0xbb63a49c	-0.0034735566
217	0x3addcad7	0.0016921413
218	0xbacf0b04	-0.001579613
219	0x3b93d8e3	0.004511939
220	0x39ccd5b1	0.00039069125
221	0xba672267	-0.0008817077
222	0xba4fa1f7	-0.0007920558
223	0x3b0c993f	0.0021453646
224	0xbb1d5a4f	-0.0024010127
225	0x3b2a6d83	0.0026005215
226	0xbb5d33ca	-0.0033752793
227	0xbaba873b	-0.0014230976
228	0xbc0e7e2a	-0.008697072
229	0xbb9a44c8	-0.0047079064
230	0xbb5d43c6	-0.003376232
231	0xbacbec27	-0.001555805
232	0xba188663	-0.0005818365
233	0x3b03be4f	0.0020102446
234	0x3b4eb010	0.0031538047
235	0x3a1b7db9	0.0005931515
236	0x3aa13baf	0.0012301112
237	0x3a838894	0.001003521
238	0x3ba7721d	0.005110039
239	0xbaf744a9	-0.0018865067
240	0xba9e6890	-0.0012085605
241	0xbb4fb60f	-0.0031694209
242	0x3b21daed	0.002469714
243	0xbaa82651	-0.0012828802
244	0xbb2ffef2	-0.002685484
245	0xbb2e2059	-0.0026569574
246	0x3aa69429	0.001270895
247	0x3ba84248	0.0051348545
248	0x3acf6d2c	0.0015825382
249	0xb85aff23	-5.2212865e-05
250	0x3bde42e9	0.0067828787
251	0xbc041b97	-0.008063219
252	0xba386b62	-0.0007035044
253	0xbbad9088	-0.0052967705
254	0x3a51f273	0.0008008845
255	0x3b90639c	0.0044064056

network_body._body_endoder.seq_layers.4.weight f4 [256, 256]
0	0x3d834630	0.064098716
1	0x3d2d844b	0.042362493
2	0x3cf96918	0.03044562
3	0xbcbfa76b	-0.02339526
4	0x3dae8b47	0.08522659
5	0x3d228b81	0.039683823
6	0x3dab762d	0.083721496
7	0xbd2a5c52	-0.04159195
8	0xbd2a40bd	-0.041565645
9	0xbca00183	-0.01953197
10	0x3b858514	0.004074702
11	0xbdebcd6d	-0.11513791
12	0xbcc11c23	-0.023572987
13	0xbd0c4434	-0.03424473
14	0xbdb3b20f	-0.08774196
15	0x3d11d36c	0.03560202
16	0xbc77809b	-0.0151063455
17	0xbd8c77ff	-0.06858825
18	0xbc9ea0a1	-0.019363703
19	0xbc94cd97	-0.01816444
20	0xbd498c7c	-0.049206242
21	0x3d03cad6	0.03217586
22	0x3d04569c	0.03230916
23	0xbe0210e0	-0.1270175
24	0x3dacb7e6	0.08433513
25	0x3c531513	0.012883442
26	0xbc09b036	-0.008403828
27	0x3d1a21b3	0.037629794
28	0x3d6453ec	0.055744097
29	0xbc9ed60d	-0.019389177
30	0xbd8821f8	-0.06647104
31	0xbba8898c	-0.00514335
32	0xbd06e3b4	-0.032932
33	0xbdccb662	-0.09995724
34	0x3caa7280	0.020806551
35	0x3d46153d	0.0483601
36	0xbd4acc10	-0.049511015
37	0x3d444277	0.04791495
38	0x3dda633e	0.1066346
39	0x3da6d971	0.081469424
40	0x3e026f3b	0.12737744
41	0x3cb74bdb	0.022375038
42	0xbd1ea14d	-0.038728047
43	0x3ad2e4a5	0.001608987
44	0xbc99f735	-0.018794635
45	0xbdabdd7c	-0.08391854
46	0x3c0eed95	0.008723636
47	0x3db4afc7	0.08822589
48	0xbd4f4d63	-0.05061091
49	0x3ccbd1e7	0.024880363
50	0x3d8f55b8	0.069987714
51	0xbcef0043	-0.02917493
52	0xbd25bf45	-0.040465612
53	0xbd826b9e	-0.063681826
54	0x3b1ea55b	0.0024207446
55	0x3d7a88be	0.061165564
56	0xba946bb4	-0.0011323602
57	0x3cd06ef4	0.025443532
58	0x3d0e05ef	0.034673627
59	0x3cb345c4	0.021883853
60	0xbc9f05f9	-0.019412028
61	0x3ce06a52	0.027394447
62	0xbd9d5a72	-0.07683267
63	0xbc519df2	-0.012794005
64	0xbc97d230	-0.018532842
65	0x3d7fd1ac	0.062455818
66	0x3dcac891	0.09901536
67	0xbd721b51	-0.059108082
68	0xbbf73dbd	-0.0075452016
69	0xbb8319d7	-0.004000883
70	0x3d96dfb6	0.07366888
71	0x3c07c59f	0.008286863
72	0xbc59de59	-0.013297641
73	0xbd7ae476	-0.061253034
74	0x3c16eec6	0.009212201
75	0xbdc31799	-0.09525985
76	0xbd218615	-0.03943451
77	0x3bab658b	0.0052306107
78	0xbc61fcc8	-0.013793178
79	0xbd1a9aed	-0.037745405
80	0xbd1ed4ab	-0.038777035
81	0xbd9bd28c	-0.07608518
82	0x3da4d96f	0.08049285
83	0xbd119f2b	-0.035552185
84	0x3cca1508	0.024668232
85	0x3cf0a144	0.029373772
86	0xbc10b105	-0.008831267
87	0xbce74099	-0.028229045
88	0xbcdc74bd	-0.026911134
89	0x3cb2881c	0.021793418
90	0xbc69d984	-0.014273051
91	0x3d869c2a	0.06572755
92	0x3cbd3f77	0.023101551
93	0x3de91a31	0.11381949
94	0xbd2d8ed9	-0.04237256
95	0xbd7d6983	-0.061868202
96	0x3c336ffb	0.010951991
97	0x3dc27a50	0.094959855
98	0x3c6da793	0.014505285
99	0x3deafb1b	0.11473676
100	0xbdaf2556	-0.08552043
101	0xbd3256de	-0.043539874
102	0x3d5b506d	0.053543497
103	0x3d4a42d7	0.04938015
104	0xbd73fa1f	-0.059564706
105	0x3e30443a	0.17213526
106	0x3d8a2ec3	0.067472
107	0xbd4ee17f	-0.05050802
108	0xbd5adcc6	-0.053433202
109	0x3da7114d	0.08157597
110	0xbc8b5dd6	-0.017012518
111	0xbda76ce2	-0.081750646
112	0x3c8f2bb3	0.017476892
113	0x3d8444bf	0.06458425
114	0x3c81d02a	0.01584633
115	0x3a48dc20	0.0007662196
116	0xbb64b7b7	-0.0034899542
117	0xbbd2ff3e	-0.0064391186
118	0xbd81c60c	-0.063366026
119	0xbc9b69be	-0.01897132
120	0x3a83c17e	0.0010052172
121	0x3cee14f9	0.029062735
122	0xbcb59534	-0.022165872
123	0xb753fee2	-1.2635925e-05
124	0x3a50929f	0.00079564186
125	0x3c8dec74	0.017324664
126	0x3d0032d6	0.03129848
127	0xbd8c5598	-0.06852263
128	0x3b974fd5	0.004617671
129	0xbd0a90ab	-0.033829372
130	0xbd24070d	-0.040045787
131	0x3de58a5d	0.11208031
132	0xbbfc4016	-0.0076980693
133	0x3cf2a948	0.029621735
134	0x3cdd98f2	0.02705047
135	0x3d3de217	0.046358194
136	0xbc17ee20	-0.009273082
137	0x3ba1e4c5	0.0049406015
138	0x3d28f6d2	0.04125101
139	0xbc40f00a	-0.01177598
140	0x3bcb5024	0.006204622
141	0xbdd0b6e9	-0.10191137
142	0xbd81d24d	-0.0633894
143	0xbcd807ca	-0.026370902
144	0x3d6b6867	0.057472613
145	0x3d7c1be2	0.06155003
146	0x398267c5	0.00024872847
147	0x3cf9cf08	0.030494228
148	0x3af26a89	0.0018494885
149	0xbcbf8fe8	-0.02338405
150	0x3d375b1c	0.044764623
151	0x3c657873	0.014005768
152	0x3a9da66e	0.0012027749
153	0xbe08c96a	-0.13358083
154	0xbbca517b	-0.006174264
155	0xbda6a417	-0.081367664
156	0xbdccbfca	-0.09997518
157	0xbc907fee	-0.017639127
158	0xbcc1f961	-0.023678483
159	0x3e0df2ca	0.13862148
160	0xbc945571	-0.018107148
161	0x3db3282e	0.08747898
162	0x3d10a643	0.03531481
163	0x3d6881ab	0.056764286
164	0x3cf6c241	0.030121924
165	0x3de675de	0.1125295
166	0x3c813623	0.015772885
167	0xbd556bb7	-0.052104678
168	0x3e0f1fea	0.13977018
169	0x3c6c477c	0.01442134
170	0x3d412491	0.047154013
171	0x3da714e2	0.0815828
172	0x3bd9d31f	0.006647482
173	0xbcca6196	-0.024704736
174	0x3dadafaa	0.08480771
175	0x3d3b2f89	0.04569963
176	0xbd75cb95	-0.060008604
177	0x3d36af64	0.04460086
178	0xbb9feb22	-0.004880325
179	0xbcb335fb	-0.021876326
180	0xbd0bdea5	-0.034147877
181	0xbba3a190	-0.004993625
182	0x3cb6cfbd	0.022315854
183	0xbc4602fe	-0.012085674
184	0xbd1f800d	-0.038940478
185	0x3d1efdc2	0.03881622
186	0xbde4daa4	-0.11174515
187	0x3cc61853	0.02418152
188	0x3cba0f27	0.022712303
189	0xbcc85461	-0.024454297
190	0x3d479cac	0.0487334
191	0xbd731991	-0.059350554
192	0x3d2fc386	0.042911075
193	0x3d71e064	0.059051886
194	0xbae777e7	-0.0017659635
195	0x3d1204a3	0.035648953
196	0x3cdf7404	0.027277
197	0xbc48dab0	-0.01225917
198	0xbd2050c7	-0.039139535
199	0xbd205467	-0.039142992
200	0xbc4bb530	-0.012433335
201	0xbcdbca4c	-0.026829861
202	0xbd90af75	-0.07064716
203	0x3cf5683e	0.029956933
204	0xbddfad51	-0.10921729
205	0xbbc50f24	-0.006013768
206	0xbc47a025	-0.0121841775
207	0xbca02fa0	-0.01955396
208	0x3c022fca	0.007945964
209	0x3d9b9c8b	0.075982176
210	0xbda89b99	-0.08232803
211	0x3d610329	0.054934654
212	0xbd7a7b1a	-0.061152555
213	0xbd8b590c	-0.06804094
214	0xbd7212d7	-0.0591
215	0x3d83a858	0.064285934
216	0xbd440b37	-0.047862258
217	0x3daa5c34	0.083183676
218	0x3dbd9b45	0.09258131
219	0x3e1573cc	0.14594954
220	0x3cd56ee5	0.026053855
221	0x3c1b96ad	0.009496373
222	0xbbc34183	-0.0059587373
223	0x3d31fb89	0.043452773
224	0x3dd0fd98	0.10204619
225	0xbd73adda	-0.05949197
226	0x3d866e9e	0.06564067
227	0xbd692800	-0.056922913
228	0x3df2beff	0.11852836
229	0xbcf8d6e9	-0.030375915
230	0x3e049b76	0.12949929
231	0x3dbe57a4	0.0929406
232	0xbcc98324	-0.024598666
233	0xbd9c5c37	-0.07634776
234	0xbd6b16c2	-0.05739475
235	0x3dddbf14	0.10827461
236	0x3d44643d	0.047947157
237	0xbda9a8c2	-0.08284141
238	0xbd17072e	-0.03687208
239	0x3a564299	0.0008173376
240	0xbd7688ae	-0.06018894
241	0x3d83a75c	0.06428406
242	0xbba64197	-0.005073737
243	0x3dd3f94a	0.103502825
244	0x3c1552ae	0.009113951
245	0x3c7cdc6b	0.015433411
246	0x3d65f657	0.05614313
247	0xbe066e67	-0.13128053
248	0x3ccb7149	0.024834292
249	0xbd2ccfd7	-0.0421904
250	0xbde96ae2	-0.113973394
251	0xbd640f77	-0.05567881
252	0xbddf65b1	-0.10908068
253	0x3b782e83	0.003786952
254	0xbc56d97e	-0.013113378
255	0xbd8302fe	-0.06397055
