Assets/Training/results/track2_learned/config_track2/config_track2-499921.onnx (onnx, 600385 bytes, 9 tensors)

action_model._continuous_distribution.log_sigma f4 [1, 2]
0	0xbd83adc0	-0.064296246
1	0xbebca7c0	-0.36846733

action_model._continuous_distribution.mu.bias f4 [2]
0	0x3c27f14f	0.010250404
1	0x39791a46	0.00023756278

action_model._continuous_distribution.mu.weight f4 [2, 256]
0	0x3ca43ae4	0.020047612
1	0xbbeea9e2	-0.007283435
2	0xbc9366ea	-0.01799341
3	0xbcbc3e78	-0.022979006
4	0x3b1af3a8	0.0023643766
5	0xbcca1dfe	-0.024672505
6	0xbcb9ae9d	-0.02266627
7	0xbc4785a3	-0.012177858
8	0x3c58b67d	0.013227102
9	0xbc60229f	-0.013680129
10	0xbcb218bf	-0.021740315
11	0xbc337364	-0.010952804
12	0x3c4c2301	0.012459517
13	0xbc88b44c	-0.016687535
14	0x3c066025	0.008201634
15	0xbb965083	-0.0045872345
16	0xbcb85dc9	-0.022505658
17	0xbcb799b9	-0.022412168
18	0xbc115689	-0.008870729
19	0x3bcc2812	0.0062303627
20	0xbcfd6ca8	-0.0309356
21	0xbaee4b78	-0.001818045
22	0xbba64d59	-0.0050751385
23	0x3b86906a	0.004106571
24	0xbd5037d7	-0.050834503
25	0xbbb11716	-0.0054043634
26	0xbd17caa6	-0.037058495
27	0xbca171b6	-0.019707542
28	0xbc4ed1e4	-0.012623284
29	0x3c490ef1	0.012271629
30	0x3c0db44f	0.008648946
31	0x3c7a27af	0.01526825
32	0xbbbdb2aa	-0.0057891207
33	0x3bc97c15	0.006148825
34	0x3bbcf399	0.005766344
35	0xba290051	-0.00064468855
36	0xbb976387	-0.004620019
37	0x3c04b8c5	0.008100693
38	0x3c735b5f	0.014853328
39	0x3cca8e37	0.024726016
40	0xbcb982c2	-0.022645358
41	0xbba0f5cf	-0.004912115
42	0xbad26f39	-0.0016054875
43	0x3ae97545	0.0017811438
44	0x3c96cc4e	0.018407967
45	0xbcc4e033	-0.024032688
46	0x3c6ce27b	0.014458294
47	0xbcb36cba	-0.02190243
48	0xbcd51ff1	-0.026016207
49	0xbbcade41	-0.0061910455
50	0x3c337278	0.010952584
51	0x3c27795d	0.010221806
52	0xbb80b6d8	-0.0039280467
53	0x3b44ce31	0.0030030126
54	0xba2ecb63	-0.000666788
55	0xbc1e1c83	-0.009650352
56	0x39c0021f	0.00036622674
57	0xbbfc6338	-0.0077022575
58	0xbc9062b1	-0.017625185
59	0xbbadddfb	-0.005306003
60	0xbd1f192e	-0.038842373
61	0xbc0a7741	-0.008451284
62	0xbcf1049b	-0.029421141
63	0x3c1fc08a	0.009750495
64	0xbb687001	-0.003546715
65	0x3c72cae0	0.014818877
66	0x3c22189b	0.009893562
67	0xbc0bea17	-0.008539698
68	0xbcfdc352	-0.030976925
69	0xbcb73bcc	-0.02236738
70	0xbc05e7f1	-0.008172975
71	0xbcd7e76d	-0.02635547
72	0xbc6c423c	-0.014420088
73	0xbcde52f4	-0.027139165
74	0xba709f61	-0.0009179023
75	0xbc499b6c	-0.012305122
76	0xbb4aa9ef	-0.0030924042
77	0x3ca98593	0.020693576
78	0x3cfb8bad	0.030706251
79	0xbc25809c	-0.010101464
80	0x3c97385e	0.018459495
81	0x3b94510b	0.0045262626
82	0xbc2f7050	-0.01070793
83	0xbc3d1e54	-0.011542875
84	0x3a8ac643	0.0010587651
85	0xbd00ab22	-0.031413205
86	0x3bcf6fc3	0.0063304617
87	0xbcfd7f09	-0.030944364
88	0xbb8241a3	-0.0039751097
89	0xbd357fa8	-0.044311196
90	0x3b6eccc4	0.0036437968
91	0xbc8caa44	-0.017171033
92	0xbc5a1404	-0.013310436
93	0x3c82f833	0.015987491
94	0xbbb5281e	-0.005528464
95	0x3b01de18	0.0019816216
96	0xbd232418	-0.039829344
97	0xbb28b6b8	-0.0025743674
98	0x3c8b1c8e	0.01698139
99	0xbc18caa2	-0.009325655
100	0xbaca001b	-0.0015411408
101	0xbcd6accd	-0.026205445
102	0xbb97d87f	-0.0046339626
103	0x3c88e5be	0.016711112
104	0x3a9b113e	0.00118307
105	0xbcfd4499	-0.030916499
106	0xbb501683	-0.00317517
107	0x399cdf35	0.0002992094
108	0x3b395cd9	0.0028284101
109	0x3cab0dd2	0.020880613
110	0xbb6539ea	-0.0034977146
111	0xbcbd9031	-0.023140045
112	0x3c3bcd74	0.011462558
113	0xbcd20267	-0.025635911
114	0xbb29e45f	-0.0025923473
115	0x3c63dba0	0.013907343
116	0xbc671dae	-0.014106197
117	0xbc899745	-0.016795764
118	0x3b11d20e	0.0022250446
119	0xbb066782	-0.0020508473
120	0xbcad6831	-0.021167846
121	0xbc0ad4e2	-0.008473607
122	0xba0cf6ce	-0.0005377353
123	0x3ca4b6bb	0.020106664
124	0xbbb94754	-0.005654255
125	0xbd55834c	-0.052127168
126	0xbc3c918e	-0.011509312
127	0xbc27639d	-0.010216621
128	0x3bab334d	0.0052246214
129	0x3c98dbef	0.01865956
130	0xbcfcb78b	-0.030849239
131	0xbcdaa96b	-0.026692113
132	0x3c4f2ea3	0.012645396
133	0xbc24db97	-0.01006212
134	0x3c3fd5b3	0.011708665
135	0x3c146c41	0.009059013
136	0xbb968c53	-0.0045943647
137	0x3c77a6fb	0.015115495
138	0x3b19300f	0.0023374592
139	0x3ca76c97	0.020437522
140	0xbc6afc25	-0.0143423425
141	0xbb1a77bc	-0.0023569902
142	0xbc5a0b53	-0.013308364
143	0x3b9e6ed1	0.0048349877
144	0xbc8807ab	-0.016605219
145	0xbd202e34	-0.039106563
146	0xbc4d8dc4	-0.012546007
147	0xbc0fca39	-0.008776241
148	0xbc5865ee	-0.013207896
149	0xbb04253c	-0.0020163795
150	0x3b8f947f	0.004381716
151	0x3bea18fc	0.0071440917
152	0xbcd8f669	-0.026484685
153	0x3c75ecc5	0.015010064
154	0xbcec0fab	-0.028816065
155	0xbbc6d4d6	-0.0060678525
156	0x3bddfbf4	0.00677442
157	0x3c8cbfb0	0.017181247
158	0x3a877914	0.0010335767
159	0x3bc46d8c	0.0059945043
160	0x3b463275	0.0030242477
161	0x3a878019	0.0010337859
162	0xbb23ede7	-0.0025013627
163	0x3c8a7189	0.01689984
164	0x3c997745	0.01873363
165	0x3c2b77af	0.0104655465
166	0x3b66a18d	0.0035191507
167	0x3ba0a8f3	0.004902953
168	0xbc3f36ee	-0.011670811
169	0x3c822188	0.01588513
170	0xbce80073	-0.028320527
171	0xbc994781	-0.018710854
172	0x3b685125	0.0035448757
173	0xbce1b738	-0.027553186
174	0xbcd9b657	-0.026576204
175	0xbc9e2ed8	-0.019309446
176	0x3c33adfb	0.010966773
177	0xbb86e276	-0.0041163517
178	0xbb286d62	-0.0025699963
179	0xbc98182c	-0.018566214
180	0xbabc1851	-0.0014350509
181	0xbb990c84	-0.0046706814
182	0xbb948836	-0.004532839
183	0xbcbdfa82	-0.02319074
184	0x3c9bd7ed	0.01902386
185	0x3c6d19b0	0.014471456
186	0xbcf3d2ca	-0.029763598
187	0xbcd5e0d6	-0.026108187
188	0xbbab95e8	-0.005236376
189	0x3b30dae3	0.0026985935
190	0x3c1e7eba	0.009673769
191	0xba017ca4	-0.00049395324
192	0xbd4a40f6	-0.049378358
193	0xba042faa	-0.0005042503
194	0x3b0eb476	0.0021775044
195	0x3c267d92	0.010161774
196	0x3c842fd5	0.01613609
197	0xbbfc0223	-0.0076906844
198	0x3ad8c413	0.0016537927
199	0xbd0289cc	-0.031869695
200	0x3c9f5a02	0.019452099
201	0x3cb0bc7b	0.02157425
202	0x3c38c5de	0.011277644
203	0x3c4672ae	0.012112303
204	0xbbe40de6	-0.0069596646
205	0xbc424360	-0.011856884
206	0xbd2a51de	-0.04158198
207	0xbb12d5f1	-0.002240535
208	0xbc3f2c85	-0.011668329
209	0xbcde51a2	-0.027138535
210	0xbca0e37e	-0.019639727
211	0xbd09e092	-0.033661433
212	0x3c7e57ea	0.01552389
213	0x3caa8455	0.020815054
214	0xbbcd1328	-0.006258387
215	0xbb8d0bef	-0.004304401
216	0xb9f6a73a	-0.0004704537
217	0xbc443c37	-0.011977247
218	0x3b416ab7	0.002951307
219	0x3c76214f	0.01502259
220	0x3c5ef6a0	0.013608605
221	0xbba7dfc8	-0.0051231124
222	0x3c0c3e25	0.008559738
223	0xbba9c4a6	-0.005180913
224	0x3a98f9fc	0.0011671181
225	0x3c8234b3	0.01589427
226	0xbc71d83c	-0.014761027
227	0xbc998eae	-0.018744793
228	0x3c0d8015	0.008636494
229	0x3c04fe68	0.008117296
230	0xba0da4b7	-0.00054032676
231	0xbc6484c1	-0.013947667
232	0xbaee53ff	-0.0018182992
233	0xbc3529ed	-0.011057359
234	0xbcdebd88	-0.027189985
235	0x3a81d336	0.0009904865
236	0x3c91fa83	0.017819649
237	0x3cce2964	0.025166221
238	0xbcda885b	-0.026676347
239	0x3c7ee1e0	0.0155567825
240	0xbbe87fc8	-0.007095311
241	0xbcc17a81	-0.023617985
242	0xbc927a04	-0.017880447
243	0xbcb1c7f6	-0.021701794
244	0xbb5670df	-0.0032721085
245	0x3c57870e	0.013154758
246	0x3c45143a	0.012028748
247	0xbc445669	-0.011983492
248	0x3c8d2a95	0.017232219
249	0xbc60f2ee	-0.013729794
250	0xbc26188b	-0.010137687
251	0xbcdde04b	-0.02708449
252	0xbcb92dd0	-0.022604853
253	0x3c39f97f	0.011350988
254	0xbd46db6f	-0.048549112
255	0xbc9c567d	-0.01908421

network_body._body_endoder.seq_layers.0.bias f4 [256]
0	0x3ae300b5	0.0017318936
1	0xbc6c0932	-0.014406489
2	0xbd0a02dd	-0.033694137
3	0xbbd2dbd4	-0.006434897
4	0xbba93c0f	-0.0051646302
5	0xba063706	-0.00051198935
6	0x3c90bb54	0.01766745
7	0x3c77a3b1	0.015114711
8	0xbb04573d	-0.00201936
9	0xbb53744a	-0.0032265359
10	0xbc36dee6	-0.011161542
11	0x3b829e28	0.003986139
12	0xbd011f83	-0.031524193
13	0x3c1a4b21	0.009417326
14	0xbba4a454	-0.0050244723
15	0x3bb674a1	0.0055681025
16	0xbc1b5660	-0.009481043
17	0xbc74052c	-0.014893811
18	0x3c64f4bd	0.013974366
19	0x3a389dcd	0.0007042557
20	0x3b37a270	0.0028020404
21	0xbbf6008c	-0.0075073894
22	0x3c09c3d1	0.008408503
23	0x3cf3efef	0.029777495
24	0x3b529dba	0.003213747
25	0x3c303da8	0.0107568875
26	0xbc40ceb4	-0.011768032
27	0x3b8e6223	0.004345195
28	0xbc5968d7	-0.013269625
29	0x3c55ebaf	0.01305668
30	0x3c533391	0.012890712
31	0xbbe67920	-0.007033482
32	0xbc0180a0	-0.007904202
33	0xbbe5c52d	-0.0070120306
34	0xbc9a8e6c	-0.01886674
35	0x3c09a239	0.008400493
36	0x3ccd80f4	0.025085904
37	0x3cd5238d	0.026017928
38	0x3bab0d50	0.005220093
39	0xb9ce3ef6	-0.0003933829
40	0xb9f71c9b	-0.00047132824
41	0xbc8e3d93	-0.017363345
42	0xbb66b1a2	-0.0035201092
43	0xbc647396	-0.013943573
44	0xbc657e18	-0.014007114
45	0x3b10f77a	0.0022120164
46	0x3cbfe05c	0.023422413
47	0xbcbf00e9	-0.023315864
48	0xbb9ae396	-0.0047268374
49	0xbbd47143	-0.0064832284
50	0x3cf03fde	0.02932733
51	0xbbe9c3d6	-0.007133941
52	0xbb091796	-0.00209186
53	0xbca1aa25	-0.019734452
54	0xb9d2f613	-0.0004023766
55	0x3b2a2aff	0.002596557
56	0x3cae6ffc	0.021293633
57	0x3903df51	0.00012576325
58	0xbb8dc9b4	-0.0043270234
59	0xbc041e89	-0.008063921
60	0xbaff6150	-0.0019483957
61	0x3c895113	0.016762292
62	0xbadcbd55	-0.0016841093
63	0x3abb21b9	0.0014277018
64	0x3af5c9fb	0.0018752211
65	0x3ba23214	0.0049498174
66	0x3bdcfe8b	0.006744211
67	0xbc0022b7	-0.007820777
68	0xbbb6b903	-0.0055762543
69	0x3c9e05ca	0.01928987
70	0x3ca23faa	0.019805748
71	0x3ca42f2e	0.020042028
72	0xbc569d95	-0.013099094
73	0xbb080b4b	-0.0020758684
74	0x3ac1f37c	0.0014797295
75	0xbb3271c5	-0.0027228456
76	0xbb8d4030	-0.0043106303
77	0xbbd783a5	-0.0065769725
78	0xbbfb5194	-0.007669637
79	0x3a6c76a8	0.00090203667
80	0x3bdb61b8	0.0066949986
81	0x3c4a6f2a	0.012355605
82	0x3b9b317d	0.004736124
83	0xbc2c09a5	-0.010500346
84	0x3c8a68f1	0.016895743
85	0x3c9d3712	0.019191299
86	0x3b8ad29b	0.004236532
87	0xbbb27a5d	-0.0054467157
88	0xbc71798f	-0.0147384545
89	0x3c4cf902	0.01251054
90	0xbbb3ae52	-0.005483427
91	0xbbc95fe1	-0.006145463
92	0x3d26c691	0.04071671
93	0xbc2855e3	-0.010274383
94	0x3c4c0ae5	0.012453769
95	0x3be7f75b	0.0070790476
96	0x3c14f5c4	0.009091798
97	0xba6a6356	-0.0008941194
98	0x3bc13ec9	0.005897377
99	0x3ce56059	0.028000044
100	0x3bd3af1f	0.006460085
101	0xb9328f9c	-0.00017028901
102	0x3b82e6e6	0.0039948104
103	0xbb0d30d4	-0.0021543996
104	0xbad48ea8	-0.0016216831
105	0x3d12fd76	0.03588625
106	0x3c05029f	0.008118301
107	0xb83861bc	-4.396004e-05
108	0x3cc9833b	0.024598708
109	0xbc2eba52	-0.010664539
110	0xbc5407e7	-0.012941337
111	0x3c8d15a7	0.017222239
112	0xbc320ebc	-0.010867771
113	0xba196fe9	-0.0005853163
114	0xbb474175	-0.0030404006
115	0xbb5e0360	-0.0033876523
116	0xbc0a4724	-0.008439813
117	0xba6e726f	-0.00090960314
118	0xbbb07171	-0.005384617
119	0x3c3ffe80	0.011718392
120	0xbb46f169	-0.0030356294
121	0xba0d2376	-0.0005384007
122	0x3c4fae84	0.012675885
123	0xbb8a5456	-0.0042214794
124	0xbbe63f83	-0.007026614
125	0x3bb986e8	0.005661834
126	0x3c9f30e6	0.019432496
127	0xbc3f605b	-0.011680688
128	0xbc5bff88	-0.013427623
129	0xbc613320	-0.013745099
130	0x3aa9fb4e	0.0012968571
131	0xbc37abb4	-0.011210371
132	0xbc47fbef	-0.012206062
133	0x3c897c39	0.016782867
134	0xbb94ba09	-0.0045387787
135	0xbb8fdab9	-0.0043900874
136	0xbc070f6e	-0.008243425
137	0xbca9b97c	-0.020718329
138	0xbc0e60f6	-0.0086901095
139	0xbb281fd3	-0.0025653734
140	0xbcaeb883	-0.021328216
141	0xba8d6234	-0.0010786713
142	0xbc1df274	-0.009640325
143	0xb9c7f1e0	-0.0003813645
144	0xb9517b23	-0.00019977665
145	0xbc7a7dfb	-0.015288825
146	0x3c18244b	0.009285997
147	0x3b9201bb	0.0044557727
148	0x3ca7fc7f	0.020506142
149	0x3d06ad99	0.0328804
150	0x3a4abbf9	0.00077336986
151	0x3caa2f9d	0.020774657
152	0x398ba66f	0.0002663615
153	0xbabe1a47	-0.0014503681
154	0x3c4f8c71	0.012667761
155	0xbc359a7a	-0.011084193
156	0x3b755083	0.0037432022
157	0xbb0ea951	-0.00217684
158	0xbc3a482a	-0.011369744
159	0xbb96ad75	-0.0045983144
160	0x3c3300ef	0.010925516
161	0x3c948efd	0.018134588
162	0xbbc6a8b0	-0.0060625896
163	0xbc19a5df	-0.009377926
164	0xbb9216fa	-0.0044583054
165	0xba914e49	-0.0011085953
166	0xbc3d221f	-0.01154378
167	0xbc097efa	-0.00839209
168	0xbc3b60f1	-0.011436687
169	0xbbb8be3c	-0.005637912
170	0xbbed7a00	-0.0072472095
171	0x3c063502	0.008191349
172	0x3c18f9c3	0.009336892
173	0xbb9bcb86	-0.0047544865
174	0xbbaa3621	-0.005194441
175	0x3a7d8056	0.00096703076
176	0x3cb1f893	0.021724975
177	0xbb3a00d1	-0.0028381834
178	0xbb64b9a8	-0.0034900699
179	0x3a121e08	0.0005573933
180	0xbbd8b766	-0.0066136597
181	0x3992bcf7	0.0002798808
182	0x3b86ab54	0.0041097794
183	0x3c062c70	0.008189306
184	0x3cf9e4c6	0.030504595
185	0xbcda89a0	-0.026676953
186	0x3b820b51	0.003968634
187	0xbb71a23a	-0.0036870376
188	0xbc4ba676	-0.012429824
189	0xb9a9ca93	-0.0003238512
190	0x3cd3066b	0.025759896
191	0xbb71bb38	-0.0036885273
192	0xbb513403	-0.003192187
193	0x3c2f36c6	0.010694211
194	0x3a15b852	0.0005711365
195	0xbaab76f7	-0.0013081719
196	0x3b58fa76	0.003310827
197	0x3b213072	0.0024595526
198	0xbab8dbaf	-0.0014103557
199	0xbb4d2613	-0.0031303212
200	0xba9120ed	-0.0011072435
201	0xbaca322d	-0.001542633
202	0xbb336b73	-0.0027377277
203	0xbbe193bd	-0.006884067
204	0xbcccbada	-0.024991442
205	0xbb60bcdb	-0.0034292254
206	0xbc16900e	-0.009189619
207	0xbbc97993	-0.006148526
208	0xb82b8c54	-4.0900268e-05
209	0xbcb8d047	-0.022560252
210	0xbbf4ba03	-0.0074684634
211	0xbc420baa	-0.011843601
212	0xbb18a849	-0.0023293665
213	0xbc8da228	-0.017289236
214	0x3c746067	0.014915562
215	0xbbdf8b79	-0.0068220464
216	0x3a96156b	0.0011450475
217	0xbbb9df22	-0.0056723515
218	0x3b62f393	0.0034630045
219	0xbb9b16a9	-0.004732926
220	0x3b349a60	0.0027557835
221	0xbc00f3cb	-0.007870625
222	0xbaec08ab	-0.0018007954
223	0xbc0b7017	-0.008510611
224	0x3bcbafb2	0.006216013
225	0xbabfafca	-0.0014624533
226	0xbb682778	-0.0035423916
227	0x3a3226c2	0.00067959365
228	0x3c26e363	0.010186049
229	0x3adc8126	0.0016823157
230	0xbbcbe696	-0.0062225563
231	0x3bfc0b11	0.007691749
232	0x3c251394	0.010075469
233	0xbbcbc63b	-0.0062186993
234	0xbba32ec6	-0.004979941
235	0xb9298b02	-0.0001616888
236	0xbca30296	-0.019898694
237	0x3bf5efb3	0.007505381
238	0xbba4dc3c	-0.005031137
239	0xbbc94c99	-0.0061431644
240	0xbc800eaa	-0.015631992
241	0xbc883bc6	-0.016630065
242	0xbc8aa05f	-0.016922174
243	0x3a39638b	0.0007072023
244	0xbb8a4fce	-0.0042209392
245	0xbc12c9c1	-0.008959235
246	0xbba62955	-0.005070845
247	0x3b04a84e	0.002024192
248	0xbb78d747	-0.0037970112
249	0xbbadef85	-0.005308094
250	0x3c14d012	0.009082811
251	0xbc10f75f	-0.00884804
252	0xbbb0c1fd	-0.005394219
253	0xbc7059bf	-0.014669835
254	0x3bea789c	0.007155491
255	0x3b46a42a	0.0030310252

network_body._body_endoder.seq_layers.0.weight f4 [256, 67]
0	0xbe35cba4	-0.17753464
1	0xbe44719e	-0.19183967
2	0x3d7d88a2	0.06189788
3	0x3daa9697	0.08329504
4	0x3e3285b4	0.17433816
5	0x3d8e1738	0.069380224
6	0xbd53295b	-0.05155311
7	0xbe35ee86	-0.1776677
8	0x3e033230	0.12812114
9	0xbe17ec64	-0.1483627
10	0xbe070a75	-0.13187583
11	0x3d669e25	0.056303162
12	0x3da0fe87	0.07861047
13	0x3e54dfa1	0.20788433
14	0xbdcffa75	-0.10155193
15	0x3cd4c04d	0.025970602
16	0x3dab9422	0.083778635
17	0xbe3b0045	-0.18261822
18	0xbe15696b	-0.14590995
19	0xbd9b6615	-0.0758783
20	0xbd5c1598	-0.05373153
21	0x3d3faafe	0.04679393
22	0x3dcb6970	0.0993222
23	0xbd0924a5	-0.033482213
24	0xbde08c94	-0.10964313
25	0x3cc1cf43	0.0236584
26	0xbdcf454d	-0.1012064
27	0x3e3658ba	0.17807284
28	0x3e61d912	0.22055462
29	0xbd1f38dd	-0.03887259
30	0xbc291e11	-0.01032211
31	0x3bacbf0f	0.0052717994
32	0xbe29ee20	-0.16594744
33	0xbcd538af	-0.026028005
34	0xbc9a1aba	-0.018811572
35	0x3d89b83b	0.06724592
36	0xbe192f14	-0.14959365
37	0x3e863a0f	0.2621617
38	0xbdeba5e8	-0.115062535
39	0xbb2f85f9	-0.0026782735
40	0x3e626202	0.221077
41	0x3e0c77f0	0.13717628
42	0x3e896dab	0.26841483
43	0x3d2fa698	0.042883486
44	0x3d1d15b6	0.038350783
45	0xbe44c1cb	-0.19214551
46	0xbc250785	-0.010072594
47	0x3e1349bb	0.14383595
48	0x3d5893ed	0.052875448
49	0xbd564b82	-0.052318104
50	0xbe05f550	-0.1308186
51	0xbd1aebed	-0.037822653
52	0x3ddc1a66	0.107472226
53	0xbe15eb86	-0.14640626
54	0x3e4ad9fc	0.19809717
55	0xbd3a5d3d	-0.045499075
56	0x3e6fea2f	0.23429178
57	0xbea843cd	-0.32864228
58	0xbd552327	-0.052035477
59	0x3e4cdd0c	0.20006198
60	0x3c0a3b9e	0.008437065
61	0xbdb9d514	-0.090738446
62	0xbdf9d7ac	-0.12199339
63	0x3e3c06a2	0.18361905
64	0xbc0adefe	-0.008476017
65	0xbc6a2caf	-0.01429288
66	0x3b040de9	0.0020149893
67	0x3cf8aef8	0.03035687
68	0x3d2da4d5	0.042393524
69	0x3df6dbfa	0.12053676
70	0x3c56789e	0.013090281
71	0xbd2f04f8	-0.042729348
72	0x3959525c	0.00020725414
73	0xbdd1c88c	-0.102433294
74	0x3ce81518	0.02833037
75	0xbca61b0f	-0.020276574
76	0x3e4317fb	0.19052117
77	0xbce900d0	-0.02844277
78	0x3d883ed0	0.066526055
79	0xbd410c98	-0.04713115
80	0xbca6300c	-0.020286582
81	0xbdec5046	-0.115387484
82	0xbe39772b	-0.18111865
83	0x3db832c9	0.089940615
84	0x3e032141	0.12805654
85	0xbe314f72	-0.17315462
86	0x3de105c4	0.10987428
87	0xbd530c1c	-0.05152522
88	0x3db21422	0.08695246
89	0xb9917c01	-0.00027748945
90	0xbd903eae	-0.07043205
91	0x3d724cca	0.059155263
92	0x3e41c48c	0.18922633
93	0xbdc3508d	-0.09536848
94	0xbe38dbd2	-0.18052605
95	0xbcd7d3d7	-0.02634613
96	0x3d387a47	0.045038488
97	0x3df73539	0.12070698
98	0x3e9c04a9	0.30472305
99	0x3da64102	0.08117868
100	0xbe07f503	-0.13277058
101	0xbe075289	-0.13215078
102	0xbe2c54d3	-0.16829233
103	0xbe54fbfa	-0.20799246
104	0x3c12d2aa	0.008961359
105	0xbe118467	-0.14210664
106	0xbe819065	-0.25305477
107	0xbd38ffb1	-0.04516572
108	0xbe059618	-0.13045537
109	0xbe0b9982	-0.13632777
110	0x3e35bdcc	0.17748183
111	0x3c9ba74a	0.019000668
112	0xba80fbe4	-0.0009840694
113	0x3da40fc1	0.08010817
114	0x3e1f0f64	0.15533215
115	0xbe5b3325	-0.21406229
116	0xbe29727f	-0.16547583
117	0xbdcc5fcd	-0.0997921
118	0x3e7be3cb	0.24598615
119	0xba901833	-0.001099354
120	0x3d9f7a44	0.07786992
121	0x3e1f0efa	0.15533057
122	0xbdea8274	-0.11450663
123	0xbe40736b	-0.18794028
124	0x3e01ddda	0.12682286
125	0x3da0473e	0.07826088
126	0xbda08170	-0.07837188
127	0x3e43dbc3	0.19126801
128	0xbe9d0205	-0.30665603
129	0x3e31f8ce	0.17380068
130	0x3dde5876	0.10856716
131	0xbd00370e	-0.031302504
132	0x3dee322b	0.116306625
133	0x3db477a8	0.08811885
134	0xbd815123	-0.06314304
135	0x3e156eb0	0.14593005
136	0xbe92d75d	-0.28679934
137	0x3d97da6d	0.07414708
138	0xbdd19a84	-0.1023455
139	0x3e4b7d83	0.19872098
140	0x3d2c39c8	0.042047292
141	0x3dd0870a	0.10182007
142	0xbe590fba	-0.21197405
143	0x3ce2b200	0.027672768
144	0xbb18cb68	-0.00233146
145	0xbcd45be9	-0.025922732
146	0xbdb5f14b	-0.088839136
147	0xbda173a3	-0.07883384
148	0xbdb9d1e3	-0.09073236
149	0x3d5e8f2d	0.05433576
150	0x3d972f7d	0.073821045
151	0x3d71cf95	0.059035856
152	0x3db96eb1	0.09054316
153	0xbe0edca7	-0.1395136
154	0xbd8be374	-0.068304926
155	0x3d21fc4a	0.039547242
156	0x3eae5bb6	0.34054345
157	0x3e55c883	0.2087727
158	0x3e27e196	0.16394648
159	0xbe834046	-0.25634974
160	0xbd706eca	-0.058699407
161	0xbd81f8a7	-0.06346255
162	0xbcc0b257	-0.023522539
163	0xbe6340fc	-0.22192758
164	0xbd871873	-0.0659646
165	0x3e5123d0	0.20423818
166	0xbdddb8f9	-0.10826296
167	0xbc9c38cc	-0.019070052
168	0xbe1cce0f	-0.1531298
169	0x3d50d9f8	0.05098912
170	0xbb87b93f	-0.004141956
171	0x3dadf563	0.084940694
172	0x3dda5f0c	0.1066266
173	0x3d8cecb1	0.06881083
174	0x3dc73699	0.097272106
175	0xbe42f154	-0.19037372
176	0xbe0d6ac3	-0.13810258
177	0xbd6a05f9	-0.057134602
178	0xbde53190	-0.11191094
179	0x3d37ae53	0.044843983
180	0xbc2f63ae	-0.010704918
181	0x3cae1a42	0.021252755
182	0x3ca11548	0.019663468
183	0xbe370409	-0.17872633
184	0xbcc16c5b	-0.023611238
185	0x3e519049	0.20465197
186	0x3de6ae0b	0.11263665
187	0xbd5b1f9b	-0.05349694
188	0x3e9fb54f	0.31193015
189	0xbd86ed70	-0.06588256
190	0xbe2a22d9	-0.16614856
191	0x3d5111e8	0.051042467
192	0xbdd4dbab	-0.10393461
193	0x3ca57bf8	0.020200714
194	0xbdfb130b	-0.122594915
195	0xbdd289b7	-0.10280173
196	0x3dec7bf0	0.11547077
197	0x3bb0bab8	0.0053933524
198	0xbb5db173	-0.0033827692
199	0xbe0d29d8	-0.13785493
200	0x3d494f05	0.049147625
201	0x3d981992	0.07426752
202	0xbccd9066	-0.025093269
203	0xbbb272f3	-0.005445832
204	0xbd5ddd19	-0.054165933
205	0xbd883034	-0.06649819
206	0x3d2249eb	0.039621275
207	0x3e39bb2d	0.18137808
208	0xbdcaecec	-0.099084705
209	0x3e0113fc	0.1260528
210	0xbdaeb86f	-0.08531272
211	0x3e3053ab	0.17219417
212	0xbdf45b1e	-0.11931442
213	0xbaf44b4e	-0.0018638165
214	0xbd900cfb	-0.07033726
215	0xbde9d7c0	-0.11418104
216	0x3d81be30	0.063351035
217	0x3c91aac2	0.017781619
218	0xbdda6c7c	-0.10665223
219	0x3e3ae0ed	0.18249865
220	0x3e4056b0	0.18783069
221	0x3d74a42b	0.059726875
222	0xbe50625c	-0.20350021
223	0x3dd4f570	0.10398376
224	0xbdf3b4f9	-0.11899752
225	0xbe7e21b7	-0.24817549
226	0x3d3227e0	0.04349506
227	0xbd2e1286	-0.042498134
228	0x3d66fa68	0.05639115
229	0xbe205fee	-0.15661594
230	0xbcc9e617	-0.024645848
231	0x3e2d97ec	0.16952485
232	0x3dc0ed68	0.09420282
233	0xbd45bea2	-0.048277505
234	0x3a3fadeb	0.00073119876
235	0xbc875af1	-0.016522856
236	0x3e2bf6ec	0.16793412
237	0x3d971129	0.0737632
238	0x3da4b869	0.08042986
239	0x3e05b41d	0.13056989
240	0x3e112807	0.14175425
241	0x3b63c1e9	0.003475303
242	0x3ded604b	0.11590632
243	0x3e52f222	0.20600179
244	0x3e7c6037	0.24646078
245	0xbd7aa10b	-0.06118874
246	0xbdce47b5	-0.10072271
247	0x3e0a18b3	0.13485985
248	0x3d9398b8	0.07206863
249	0xbe31bfc6	-0.17358312
250	0x3d94d3b3	0.07266941
251	0xbde3d8a0	-0.11125302
252	0x3cd0194c	0.025402687
253	0xbdbce508	-0.09223372
254	0xbe353067	-0.17694245
255	0xbe22041f	-0.15821885

network_body._body_endoder.seq_layers.2.bias f4 [256]
0	0xbc02ee10	-0.007991329
1	0x3c7cc47f	0.015427708
2	0xbb1c0580	-0.002380699
3	0x3bef7bea	0.007308473
4	0x3b50d81b	0.003186709
5	0xbbdb16a3	-0.006686048
6	0x3ba5c6c0	0.0050590932
7	0xbba16bff	-0.004926204
8	0xba2ce37a	-0.0006595176
9	0xba8ec0e2	-0.0010891224
10	0xba84b2ba	-0.0010124065
11	0x3c0be466	0.008538341
12	0x3a58d3d5	0.00082713115
13	0xba0138e9	-0.000492944
14	0xb86e1a40	-5.676807e-05
15	0x39bb1048	0.0003567955
16	0x3b8b7b5f	0.0042566503
17	0xbbfc4663	-0.0076988204
18	0x3bb7c67e	0.005608379
19	0x3b032dc3	0.002001629
20	0xbb9f8804	-0.0048685092
21	0x3b2c1eac	0.00262634
22	0x3beba66b	0.0071914694
23	0xbbd3e294	-0.006466219
24	0xbb1a6ee3	-0.0023564629
25	0xbb9dec18	-0.0048194043
26	0x3b3056a3	0.0026907108
27	0xbbf13e3a	-0.0073621543
28	0xbbb5c454	-0.005547086
29	0xbb7aca25	-0.003826746
30	0xbbdaccd5	-0.00667725
31	0xbb7738eb	-0.0037723135
32	0x3ab8c1cc	0.0014095842
33	0xbb81c603	-0.0039603724
34	0x3b2d4ef6	0.002644477
35	0xbbc331db	-0.005956871
36	0x3b9adca1	0.004726008
37	0xbb9ef5b0	-0.0048510656
38	0xba1eba6b	-0.0006055
39	0xbc189621	-0.009313137
40	0x3c00f897	0.007871768
41	0x3a18510f	0.00058104185
42	0xbbc4d4ac	-0.006006798
43	0x3a97606d	0.0011549123
44	0xbb1d27ca	-0.0023980015
45	0x3bff23df	0.0077862586
46	0xbb9ca3a1	-0.0047802483
47	0xbb929f0a	-0.0044745253
48	0x3bc3faec	0.00598084
49	0xbbd0ce58	-0.0063722543
50	0x3be92721	0.00711526
51	0xba34e6fb	-0.0006900874
52	0xbb7f1ec6	-0.0038928255
53	0x3afbecdb	0.0019220369
54	0xb99e26c8	-0.00030165003
55	0x3bf3b485	0.007437291
56	0xbb57bd44	-0.0032919208
57	0xbbba4acb	-0.0056851855
58	0x3b6d46c3	0.0036205507
59	0xbb0492a1	-0.0020229
60	0x3bb5e106	0.0055505065
61	0x3c0e8f9c	0.008701231
62	0xb8bf3f5d	-9.119392e-05
63	0xbad96320	-0.0016585328
64	0x3c57c427	0.013169325
65	0x3c24b727	0.010053433
66	0xbbaf5707	-0.0053509506
67	0xbaaf1b03	-0.001335949
68	0xbbe7365b	-0.00705604
69	0x3b750363	0.0037386052
70	0xbb9c5aaa	-0.00477155
71	0x3b08a563	0.0020850531
72	0xbb104356	-0.0022012792
73	0xbb1d2f43	-0.002398447
74	0xbb5b59e9	-0.0033470339
75	0xba8abbf9	-0.0010584585
76	0xbca3c778	-0.019992575
77	0x3c301704	0.010747675
78	0x3a4fd308	0.00079278694
79	0xbba2d02b	-0.004968663
80	0xbc04a7a3	-0.008096608
81	0xbab48c4e	-0.0013774724
82	0x3a861992	0.0010231009
83	0xba5b1953	-0.00083579606
84	0xbc9b676f	-0.01897022
85	0xb90d50e0	-0.00013476936
86	0x3c9f2ddc	0.019431047
87	0xbb2e8f95	-0.0026635875
88	0xbc5a6ac7	-0.013331122
89	0xbb9efcfa	-0.0048519345
90	0x3bb55456	0.0055337353
91	0xbba72640	-0.0051009953
92	0x3b3a4a1f	0.0028425527
93	0x3a59e9cf	0.0008312733
94	0xbb213bd4	-0.002460231
95	0x3c65fbbf	0.014037072
96	0xbb38f8b1	-0.0028224404
97	0xbb8dc625	-0.004326599
98	0xbb5b3442	-0.0033447896
99	0xbb4805eb	-0.0030521106
100	0x3bdcebb7	0.0067419666
101	0xba899c0e	-0.0010498778
102	0xbb56e3cd	-0.0032789588
103	0x3c40f4b6	0.011777094
104	0x3b9f5e41	0.004863531
105	0xba6c15af	-0.00090059167
106	0xbb6109dc	-0.0034338152
107	0xba250690	-0.00062952284
108	0x3b638828	0.0034718607
109	0xbb99a71a	-0.0046891095
110	0xbbcef07a	-0.006315288
111	0xbbacbb03	-0.005271317
112	0xba804f61	-0.0009789282
113	0xbc663158	-0.01404985
114	0x395c55c2	0.00021012782
115	0x3ba8cb8d	0.0051512183
116	0x3c130926	0.008974349
117	0xbc5d8936	-0.013521483
118	0xbb98df4f	-0.0046652923
119	0xbb1a2bd9	-0.002352467
120	0xbb786e0b	-0.0037907388
121	0x3bfe2840	0.007756263
122	0xb9c65b17	-0.0003783337
123	0xbba2b205	-0.0049650692
124	0x3b651721	0.0034956413
125	0x3b9e6e53	0.004834929
126	0xb9f73a8c	-0.00047155132
127	0x3c91cec4	0.017798789
128	0xbcee6900	-0.029102802
129	0x3ad3ce72	0.0016159548
130	0x3b8869bf	0.0041629965
131	0xbb252c2d	-0.0025203333
132	0xbbed7816	-0.0072469814
133	0x3c1263df	0.008934944
134	0x3b8afe98	0.0042417757
135	0x39419097	0.00018459778
136	0xbc1995a3	-0.009374055
137	0xbb32915b	-0.0027247283
138	0xbb49caeb	-0.0030791115
139	0x3ace8279	0.0015755437
140	0xba1b5833	-0.00059259235
141	0x3c3f38a7	0.011671222
142	0x3c018109	0.0079043
143	0xbbe0d165	-0.0068608993
144	0x3bd3c9db	0.006463272
145	0xbc20bba7	-0.009810365
146	0x3b85ea2c	0.0040867534
147	0xba7cb5d0	-0.0009640129
148	0x3a834f35	0.0010018112
149	0xbadb22ba	-0.0016718723
150	0x3a0928a6	0.00052321923
151	0xbb07bcd4	-0.0020711916
152	0x3bd1656a	0.0063902633
153	0x3b845610	0.0040385798
154	0x3b0a913c	0.0021143695
155	0x3a7c952b	0.0009635265
156	0x3bd320dc	0.006443126
157	0x3a45e6cc	0.0007549345
158	0xbb486eb6	-0.0030583567
159	0x3ba7ed56	0.005124728
160	0x3c854b78	0.016271338
161	0x3c0298b9	0.007970982
162	0x3a49e554	0.0007701714
163	0x3bbe8c61	0.0058150743
164	0x3a767de3	0.0009402914
165	0xbb522106	-0.003206314
166	0xbb8c16ab	-0.004275163
167	0xb92ab5a8	-0.00016280136
168	0xbb08a0cb	-0.0020847793
169	0xba528a7d	-0.00080315006
170	0xbb7e2864	-0.00387814
171	0xbbb49cb5	-0.005511845
172	0x3c1144cc	0.0088665
173	0x3c1ca762	0.009561392
174	0x3bdd6daf	0.00675746
175	0x3bb137ed	0.005408278
176	0x384ecc36	4.9304414e-05
177	0xbb157df3	-0.0022810667
178	0x394c5282	0.00019485693
179	0xba80baaf	-0.0009821261
180	0xbba48aec	-0.0050214436
181	0xbba9c837	-0.005181338
182	0xbbd2931b	-0.0064262277
183	0xb956a5bc	-0.00020470371
184	0x3a33b5ba	0.00068553875
185	0x3c8a55da	0.01688664
186	0x3c2c1f49	0.010505506
187	0xba4f193f	-0.00079001853
188	0xba5121a6	-0.00079777313
189	0xbc8b2024	-0.0169831
190	0xbbb85e75	-0.0056264945
191	0xbbaf015a	-0.0053407373
192	0x3c7c2b5c	0.015391197
193	0x390f19cb	0.00013647151
194	0xba1ef745	-0.0006064068
195	0xbaf0f428	-0.0018383311
196	0xbb68f8dc	-0.0035548722
197	0xbb49f350	-0.0030815192
198	0xbc89ad19	-0.016806172
199	0xbbba49bf	-0.0056850608
200	0x3a5e79d2	0.00084867806
201	0xbb2ba514	-0.0026190924
202	0xba90e7b7	-0.0011055385
203	0xbbb68f17	-0.005571257
204	0xbbb9cd5b	-0.005670232
205	0xba7841a4	-0.00094702304
206	0x3b2bd7fe	0.002622127
207	0x3b9418e0	0.004519567
208	0xbb9eed22	-0.004850046
209	0xbb91cb83	-0.0044493093
210	0xba99c390	-0.0011731256
211	0xbafbad3d	-0.0019201409
212	0xbb9f90ef	-0.0048695724
213	0x3a5a7a2d	0.00083342456
214	0x3a2be42f	0.00065571343
215	0x3ac907eb	0.0015337443
216	0x3b0bb0ca	0.0021315091
217	0xbb946660	-0.0045288056
218	0x3a26b193	0.0006358858
219	0xbc8d6d56	-0.01726405
220	0x3c050811	0.008119599
221	0x3bd599ed	0.0065185935
222	0xbb985f42	-0.0046500275
223	0xbbd37a3e	-0.0064537814
224	0x385ff5a0	5.33961e-05
225	0xbb580a85	-0.0032965255
226	0xbb630274	-0.0034638913
227	0x39eb733e	0.00044908555
228	0xbb14969a	-0.0022672773
229	0x3b545030	0.0032396428
230	0xbb464083	-0.0030250854
231	0x3b3d4a1c	0.0028883284
232	0xbb129eb3	-0.0022372424
233	0xbc2a41bd	-0.01039165
234	0xbb4a0925	-0.0030828204
235	0xbc18f4f0	-0.009335741
236	0xbab16364	-0.0013533649
237	0x3c0417c2	0.008062305
238	0x3b135d59	0.002248606
239	0xbc89a956	-0.016804378
240	0x3c0a9ee1	0.008460731
241	0x3c20327e	0.009777663
242	0x3b46419c	0.0030251509
243	0xb955a536	-0.00020374809
244	0xbb146257	-0.0022641623
245	0xba3d4446	-0.00072199514
246	0xbbab746b	-0.005232384
247	0xbc81181c	-0.015758567
248	0xbb1227c8	-0.0022301544
249	0xbc09e4e5	-0.008416389
250	0xbb185560	-0.0023244247
251	0xbb98875a	-0.004654807
252	0x3a33ea48	0.0006863219
253	0xbb92abef	-0.0044760625
254	0xbb9dca97	-0.0048154104
255	0xba6f14b3	-0.0009120211

network_body._body_endoder.seq_layers.2.weight f4 [256, 256]
0	0xbc84e01c	-0.016220145
1	0x3d0a680f	0.033790644
2	0x3d524842	0.05133844
3	0xbd426c82	-0.047466762
4	0xba60b700	-0.0008572191
5	0xbd46b67f	-0.048513886
6	0xbd6cbd33	-0.057797622
7	0xbd95e461	-0.073189504
8	0x3d942c19	0.072349735
9	0x3e0ce1f6	0.13758072
10	0x3da4aa96	0.08040349
11	0xbd18aac6	-0.037272237
12	0x3bc7b571	0.0060946275
13	0x3c198bbb	0.009371693
14	0xbc7ae042	-0.015312256
15	0x3cd8298e	0.026387002
16	0xbc43f524	-0.011960302
17	0xbc19e13a	-0.009392077
18	0x3cbdbb41	0.023160579
19	0xbce8bc98	-0.028410241
20	0xbcf28ac1	-0.029607179
21	0x3da0c80a	0.078506544
22	0xbd863752	-0.0655352
23	0x3d78bc11	0.06072623
24	0xbdc9c6e0	-0.098523855
25	0x3d227b9f	0.039668676
26	0xbdbb6681	-0.091504104
27	0x3d613d13	0.054989886
28	0xbddff5dd	-0.109355666
29	0xbd9c5ce9	-0.07634909
30	0xbdd50425	-0.10401181
31	0x3d98cb27	0.07460623
32	0x3d348925	0.044076104
33	0x3cd91c90	0.026502877
34	0x3ceb8deb	0.028754195
35	0xbc61cbb4	-0.013781477
36	0xbc983675	-0.018580655
37	0x3d686755	0.05673917
38	0x3df7e728	0.121046364
39	0x3d3041df	0.04303157
40	0xbe0da55f	-0.13832615
41	0x3d53dbaa	0.05172316
42	0xbd07ffa6	-0.03320279
43	0xbd9922b7	-0.074773245
44	0xb8881390	-6.488629e-05
45	0xbd6cc711	-0.057807032
46	0xbc33ce9b	-0.010974552
47	0x3d52f5f2	0.051504083
48	0xbca412e1	-0.020028533
49	0x3d0290c9	0.03187636
50	0x3d96fa3f	0.073719494
51	0x3da81dcd	0.08208809
52	0xbd42f5b7	-0.047597613
53	0xbcf674a8	-0.030084923
54	0x3d91aa17	0.0711252
55	0xbc5339a7	-0.012892163
56	0xbd1272bf	-0.03575396
57	0x3c898251	0.016785773
58	0x3cbb2e38	0.022849187
59	0xbbbb6e51	-0.005719938
60	0x3cf5a3b7	0.029985292
61	0x3d355e88	0.044279605
62	0xbd87b739	-0.06626744
63	0x3e0ec767	0.13943253
64	0xbc9b7df7	-0.018980963
65	0xbd39a86e	-0.045326643
66	0xbc6236ee	-0.013807042
67	0x3c9d6173	0.019211506
68	0xbd8f9007	-0.07009893
69	0xbcb03502	-0.021509651
70	0x3cc898fb	0.02448701
71	0x3cfa54e9	0.030558066
72	0x3ddd06c6	0.107923076
73	0x3cc25016	0.023719829
74	0xbc520d51	-0.012820558
75	0x3cee9667	0.029124452
76	0x3d6b9954	0.057519272
77	0xbccc7dae	-0.024962272
78	0xbccea37d	-0.025224442
79	0xbb7852fb	-0.0037891257
80	0x3c04cfda	0.008106196
81	0xbca7aba4	-0.020467587
82	0x3d352783	0.044227134
83	0x3c6db1da	0.014507735
84	0x3d3ffc10	0.046871245
85	0x3d3c1a80	0.04592371
86	0x3bca4cfb	0.0061737276
87	0x3d6b868f	0.057501372
88	0x3d5c32f0	0.053759515
89	0xbd613661	-0.0549835
90	0x3d0dd768	0.034629256
91	0x3d3343cd	0.04376583
92	0x3db4f997	0.08836668
93	0x3cc5ecd7	0.024160786
94	0x3d7cd1ca	0.061723508
95	0x3e2cfaae	0.16892502
96	0x3daac1fd	0.083377816
97	0xbd1add26	-0.03780856
98	0x3d28b38c	0.041186854
99	0xbcd03ff1	-0.025421115
100	0x3d1b3273	0.03788991
101	0xbe0b598c	-0.13608378
102	0xbd70be04	-0.058774963
103	0xbe04b9fe	-0.12961575
104	0xbda78f72	-0.08181657
105	0x3cd3bd79	0.025847184
106	0x3cb01b12	0.021497283
107	0x3cee6bcd	0.029104138
108	0x3cdcbeb7	0.026946409
109	0xbbb61139	-0.0055562523
110	0x3b615439	0.0034382476
111	0xbd1e3546	-0.038625024
112	0xbc30086e	-0.010744197
113	0xbc215f94	-0.009849448
114	0x3c913eaf	0.017730085
115	0xbd8543b1	-0.06507052
116	0xbd689f12	-0.056792326
117	0xbd7135e6	-0.058889292
118	0xbd4eedb6	-0.050519668
119	0xbd30f758	-0.043204635
120	0x3d577af8	0.052607507
121	0xbc96bb64	-0.018399902
122	0x3d80e55e	0.06293748
123	0xbc0dbe23	-0.008651289
124	0xbba7f5d4	-0.0051257405
125	0xbc233d74	-0.009963382
126	0x3d791424	0.060810223
127	0x3ceca103	0.02888537
128	0x3da12481	0.07868291
129	0x3bdc9c59	0.0067325053
130	0x3d832dc1	0.06405211
131	0x3d69e752	0.05710537
132	0xbd5bcfa1	-0.053664807
133	0x3d8512e7	0.06497746
134	0xbd2792fb	-0.040911656
135	0xbd324963	-0.04352702
136	0x3c43fb17	0.01196172
137	0xbd45b65f	-0.048269626
138	0x3d99fcfe	0.075189576
139	0xbd13e2a0	-0.0361048
140	0x3cad5885	0.021160373
141	0x3bde6073	0.0067864
142	0x3becdfba	0.0072288187
143	0x3d252451	0.040317837
144	0x3d6dbe96	0.058043085
145	0x3d47eac9	0.048807893
146	0x3e38684d	0.18008538
147	0xbd501710	-0.050803244
148	0xbac0e0b5	-0.0014715405
149	0x3ca0fc34	0.01965151
150	0xbd6f9c08	-0.058498412
151	0x3baa7220	0.005201593
152	0x3bee6310	0.0072749928
153	0x3b536c57	0.003226062
154	0x3ccaf6f2	0.024775956
155	0x3c4d52e2	0.012531968
156	0x3d6e10c4	0.058121458
157	0xbd36b17b	-0.044602852
158	0x3ccd4d88	0.025061384
159	0xbd20513c	-0.03913997
160	0xbca965f9	-0.020678507
161	0xbcfc162a	-0.030772287
162	0x3d0212f8	0.03175637
163	0xbde39973	-0.111132525
164	0x3cd6ec5f	0.026235757
165	0x3db8ca64	0.09022978
166	0xbc3bed67	-0.011470175
167	0x3c5e845b	0.013581361
168	0xbd807dda	-0.06274004
169	0xbd101577	-0.03517672
170	0xbbc2df1b	-0.0059470064
171	0x3d33aa50	0.043863595
172	0xbc6f6604	-0.014611725
173	0x3d10df75	0.035369355
174	0xbc983b93	-0.018583095
175	0xbcaef173	-0.021355366
176	0x3e28bf5f	0.16479252
177	0xbd5ae1d4	-0.053438023
178	0xbd814f30	-0.06313932
179	0xbd25d033	-0.040481757
180	0xbd27a962	-0.04093302
181	0xbde8f2c7	-0.11374431
182	0x3ccc6e0c	0.024954818
183	0xbd9ad4d0	-0.07560122
184	0xbd163b68	-0.036677748
185	0xbc806ed1	-0.015677841
186	0xbdc7189f	-0.09721493
187	0x3d959130	0.07303083
188	0x3d607720	0.054801106
189	0xbdcf6612	-0.1012689
190	0xbd425a80	-0.04744959
191	0x3d12dd32	0.03585548
192	0x3c12878c	0.00894345
193	0xbd3f581c	-0.046714887
194	0x3d45e2ab	0.04831187
195	0xbd0ea964	-0.034829512
196	0xbd534aa2	-0.051584847
197	0x3db73221	0.08945108
198	0xbd01c9f3	-0.031686734
199	0x3c003c8f	0.007826938
200	0xbca563f0	-0.020189255
201	0x3dacf44d	0.08445034
202	0xbd5ffa07	-0.054681804
203	0x3cf4b49a	0.029871274
204	0xbd5c53f0	-0.053790987
205	0x3d391dbe	0.04519438
206	0xbcad5435	-0.021158317
207	0xbd57506f	-0.05256694
208	0xbd1df8a8	-0.038567215
209	0x3d4a4ca1	0.049389485
210	0x3d4f6b5c	0.050639495
211	0x3c97c7bb	0.018527856
212	0x3d5490c9	0.05189589
213	0x3e16ad92	0.1471465
214	0xbd4f91c8	-0.050676137
215	0xbdb7d172	-0.089754954
216	0x3d71b9c1	0.05901504
217	0x3d8bef7d	0.06832788
218	0xbe04d001	-0.12969972
219	0xbbbc3bc6	-0.0057444302
220	0x3c80e39b	0.01573353
221	0x3d6c969d	0.057760824
222	0xbd4e9c92	-0.050442286
223	0x3c80b1b5	0.015709737
224	0xbd3959b5	-0.045251567
225	0x3d388d57	0.045056667
226	0xbd87de29	-0.066341706
227	0x3c737c7f	0.014861225
228	0x3dda10a4	0.10647705
229	0xbd407785	-0.046988983
230	0x3c8465fd	0.016161913
231	0xbd7c37c1	-0.06157661
232	0x3d9590c1	0.07303
233	0x3d0a300a	0.03373722
234	0xbd1e7528	-0.038685948
235	0xbbb83764	-0.0056218375
236	0x3d844fa9	0.064605065
237	0x3d2da43a	0.042392947
238	0xbdcaa2ab	-0.09894308
239	0xbd393eee	-0.04522603
240	0xbccead8d	-0.02522924
241	0x3d1500ed	0.036377836
242	0xbb19c990	-0.0023466088
243	0xbd84ef25	-0.06490926
244	0x3d461899	0.048363302
245	0x3d39c91f	0.04535782
246	0xbd0dd7d7	-0.03462967
247	0x3d57bd4e	0.05267077
248	0xbbbaa744	-0.005696209
249	0xbd3af276	-0.045641385
250	0xbd5761e0	-0.052583575
251	0xbd22ee66	-0.039778136
252	0x3c0af412	0.008481042
253	0xbdabfda1	-0.08397985
254	0x3d8ab071	0.06771935
255	0xbca4b939	-0.020107852

network_body._body_endoder.seq_layers.4.bias f4 [256]
0	0x3b3333ed	0.0027344183
1	0xbc5902d1	-0.0132453
2	0xbc04f2ba	-0.008114511
3	0xbc067e4a	-0.008208821
4	0x3a898e63	0.0010494705
5	0x3b725f24	0.0036982978
6	0xbbe1770c	-0.0068806466
7	0xbbdb5dc7	-0.0066945287
8	0x3b3ecbf6	0.002911327
9	0xbbd30ae7	-0.0064405086
10	0xbb9f0f5b	-0.0048541254
11	0xbbb31673	-0.0054653226
12	0x3bcbb330	0.006216429
13	0xbbc19ef4	-0.0059088413
14	0x3a52c398	0.000804001
15	0xbb2214be	-0.0024731602
16	0xbc110e5d	-0.008853522
17	0xbc0c820d	-0.008575928
18	0xbb73cab3	-0.0037199676
19	0x3a5524fd	0.0008130817
20	0xbbc20248	-0.005920682
21	0xbc4b231b	-0.0123985065
22	0xbbcfe984	-0.006344976
23	0x3aab3eec	0.0013065017
24	0x3c8c2bec	0.017110787
25	0xbb9c1527	-0.0047632637
26	0x3ca2ba8e	0.019864347
27	0xb8036469	-3.1326348e-05
28	0xbbc20890	-0.005921431
29	0x3b9b8279	0.004745778
30	0x3bc9a799	0.0061540124
31	0x3b8a5375	0.0042213746
32	0xbbc0e113	-0.005886206
33	0xba4963a5	-0.00076823897
34	0x3bcbda60	0.0062211007
35	0xbb540da1	-0.0032356756
36	0xbb675f28	-0.003530452
37	0x3b3b6543	0.0028594292
38	0x3bc41021	0.005983368
39	0x3bc0b4c5	0.0058809244
40	0x3c40e924	0.011774335
41	0xbc10796c	-0.008818012
42	0xbb81e21f	-0.0039637233
43	0xba957220	-0.001140181
44	0x3b88193c	0.004153399
45	0xbbedc6c5	-0.007256361
46	0x3b639798	0.0034727808
47	0xbc2930d8	-0.010326587
48	0xbb6104a1	-0.0034335034
49	0xbbb9365e	-0.005652233
50	0x3a9ca163	0.0011949952
51	0x3b28d47a	0.0025761412
52	0xbb55575f	-0.0032553298
53	0x3a7c67b6	0.0009628491
54	0x3ad6c710	0.001638623
55	0xbb3a555a	-0.002843222
56	0xbc314a84	-0.010820989
57	0xbb925fa0	-0.004466966
58	0xbbb15834	-0.005412126
59	0xbc0d728d	-0.008633268
60	0x3bafa2bb	0.005359975
61	0xbc00eb9b	-0.007868673
62	0xbbc3ef51	-0.0059794565
63	0x3b7a123a	0.0038157837
64	0xbac5f6b6	-0.0015103433
65	0x3b7cd727	0.003858039
66	0x3b379b85	0.002801628
67	0xbba846b5	-0.005135382
68	0xbbd1ceb7	-0.006402816
69	0xbc1e365a	-0.009656513
70	0xbb9ea537	-0.0048414725
71	0xba93aded	-0.0011267044
72	0x3ba65869	0.0050764573
73	0xbbea28ae	-0.0071459627
74	0xbbd578ed	-0.0065146596
75	0xbbeca268	-0.007221509
76	0xbb38f9f1	-0.0028225149
77	0x3b473bba	0.003040059
78	0x3bc6b085	0.0060635232
79	0xbb4bcea3	-0.0031098507
80	0x3be89f16	0.0070990426
81	0x3b178690	0.0023120977
82	0xbb934bdb	-0.0044951267
83	0xbbcae8d3	-0.0061923056
84	0xbba264be	-0.004955857
85	0xbc1ba7e9	-0.009500482
86	0x3b6f4ce9	0.0036514348
87	0xbbb11bf7	-0.005404945
88	0x3a838818	0.0010035066
89	0x3bb2e3aa	0.0054592686
90	0xbae88679	-0.0017740271
91	0xbbe4f5b5	-0.0069872984
92	0xbbf478d1	-0.0074606915
93	0x3b192e60	0.002337359
94	0xbc560c18	-0.013064407
95	0xbb0bbba4	-0.002132156
96	0xbbfd3cf2	-0.0077282125
97	0xbc2283c6	-0.009919113
98	0x398bdae9	0.00026675247
99	0xbb2b132b	-0.0026103954
100	0xbb0469cc	-0.0020204661
101	0xbc05b1aa	-0.008160034
102	0xba6c3b9f	-0.000901157
103	0x3c180a9a	0.009279871
104	0x37ef1376	2.8500082e-05
105	0xbb7ab1d7	-0.0038252973
106	0x3b16174d	0.0022902072
107	0x3a31e05f	0.0006785448
108	0xbb37b9a1	-0.0028034227
109	0x3b82c63c	0.0039909165
110	0xb99d3e23	-0.0002999167
111	0xbb17b930	-0.0023151152
112	0x3be0880a	0.0068521546
113	0xbc1325de	-0.008981196
114	0xbb9489bb	-0.0045330203
115	0x3b62bb7c	0.0034596613
116	0xbc0c4e83	-0.0085636405
117	0xbc09ee7a	-0.008418674
118	0x3b217848	0.0024638344
119	0x3be49869	0.0069761765
120	0xbc0c55d7	-0.008565388
121	0xbbcd2dd2	-0.0062615657
122	0x3a48fa6d	0.0007666711
123	0x3ba9fa51	0.0051873107
124	0xbbc83d8e	-0.0061108535
125	0xbaa92f38	-0.0012907749
126	0xbc1b3361	-0.009472699
127	0xbb3f4c34	-0.0029189708
128	0x389c35f8	7.448712e-05
129	0x3b896b4c	0.004193699
130	0x3b93c4a0	0.0045095235
131	0xbbf3520e	-0.007425553
132	0x3c0863d2	0.00832458
133	0xbbf60100	-0.0075074434
134	0x3bad0ec3	0.0052813007
135	0x3b746d3a	0.003729655
136	0xbba99119	-0.0051747677
137	0x3b48d9de	0.0030647437
138	0x3b491bb9	0.003068669
139	0x3bb6fa7f	0.0055840607
140	0xbb9bdf8b	-0.004756873
141	0xbb70623c	-0.0036679646
142	0x3a63e66e	0.00086936995
143	0x3b12bf26	0.0022391765
144	0xbc185143	-0.009296718
145	0x3c12ebb0	0.008967325
146	0xbb46e1f4	-0.003034708
147	0xbc049039	-0.008091026
148	0xbc1bfcfd	-0.009520766
149	0xb95d7a6a	-0.00021121805
150	0xbb01d779	-0.001981227
151	0x3b887939	0.0041648415
152	0xbbde5668	-0.006785203
153	0x3b1dfc39	0.0024106635
154	0x3bfef923	0.0077811643
155	0xbb0be6e4	-0.0021347338
156	0x3bbc81d5	0.005752782
157	0x3c1fefa4	0.009761725
158	0x3bd0ed23	0.006375925
159	0x3c1bac93	0.009501594
160	0x3b1673d1	0.0022957216
161	0x3b4d703e	0.003134742
162	0xbbae5251	-0.0053198715
163	0x3be70134	0.007049704
164	0x3ba5f536	0.005064632
165	0xb909afdd	-0.00013130852
166	0xbb85d2ce	-0.004083968
167	0x3c0387c9	0.008027979
168	0xbbb9931b	-0.0056632883
169	0x3b8912a9	0.0041831327
170	0xbbdd2081	-0.0067482595
171	0x39dd53df	0.00042214894
172	0x3bf35367	0.007425714
173	0xbbf234ec	-0.0073915627
174	0xba0a5619	-0.0005277112
175	0xbc0c91d4	-0.00857969
176	0xbb196ee2	-0.0023412039
177	0xbb4a590b	-0.0030875828
178	0xbc1485d2	-0.009065108
179	0x3c6b78a8	0.014372028
180	0xbb6ad262	-0.0035830964
181	0xbbff9e44	-0.007800849
182	0xbaad9954	-0.0013244548
183	0xbc0c8826	-0.008577382
184	0x3ba65966	0.005076575
185	0x3bcaa3f6	0.0061840964
186	0xbb2cd726	-0.0026373356
187	0xbbf5ea69	-0.0075047505
188	0xbbe1e4b0	-0.0068937168
189	0x3a6d0d1d	0.00090427866
190	0x3b4f9f9a	0.0031680823
191	0x3bab37f4	0.005225176
192	0x3b71ae7e	0.0036877687
193	0x3b8573f7	0.004072662
194	0xbb3e2ea7	-0.0029019506
195	0x3b352769	0.0027641898
196	0x3ae5562d	0.0017496996
197	0xb9c3d191	-0.00037349437
198	0xbbad8acd	-0.0052960874
199	0xbb5bf9f7	-0.0033565739
200	0x3bab8a0f	0.0052349637
201	0x3bce1dae	0.006290159
202	0x3b381617	0.0028089338
203	0x3ba0b13d	0.004903941
204	0xbb8fc9c8	-0.004388068
205	0x3ba8a3d2	0.005146482
206	0xbb66009f	-0.0035095585
207	0xbbf447c2	-0.0074548433
208	0xbbfed086	-0.007776323
209	0x3c040ec5	0.008060162
210	0xbc0b7371	-0.00851141
211	0xbbb73a5e	-0.0055916747
212	0x3b3b03da	0.0028536231
213	0x3b834423	0.0040059253
214	0xbc363995	-0.011122127
215	0xbba5b858	-0.005057376
216	0x3a144ff8	0.0005657668
217	0xbc114cbc	-0.008868393
218	0x3bb52426	0.005527991
219	0x3b6501e8	0.0034943763
220	0x3aa20e69	0.0012363914
221	0xbc1818ed	-0.0092832865
222	0x3c35b120	0.011089593
223	0x3a91753a	0.0011097558
224	0x3997f863	0.00028986027
225	0x3b8dda7a	0.004329023
226	0xbbe82b64	-0.0070852507
227	0xbb903c50	-0.004401721
228	0x3b3ab01e	0.0028486322
229	0x3ac57d20	0.0015067197
230	0x38b0b3a2	8.425793e-05
231	0x3ba54344	0.005043419
232	0x3b69fec0	0.0035704821
233	0xbbb5f0ec	-0.0055524018
234	0xbc3d807d	-0.0115662785
235	0x3bd4ffe8	0.006500233
236	0x3bb7130a	0.0055869864
237	0x3be2f4ca	0.006926154
238	0xbbd38086	-0.00645453
239	0x3b5d8a87	0.0033804493
240	0xbb14acaa	-0.0022685924
241	0xbba4f9ec	-0.005034676
242	0xbc0bde9b	-0.00853696
243	0x3c3148d3	0.010820585
244	0xba710fa9	-0.0009195754
245	0x3b40aca0	0.0029399768
246	0x3b8a753a	0.0042254003
247	0xbbf60c0d	-0.007508761
248	0x3c0dc06c	0.008651834
249	0xbc27e3fe	-0.010247229
250	0xbb951a9c	-0.004550291
251	0xbb3c8f5f	-0.002877198
252	0xbb9c841c	-0.004776491
253	0x3b327b6c	0.002723421
254	0x3c1cf4a7	0.009579814
255	0xbbd84afe	-0.0066007366

network_body._body_endoder.seq_layers.4.weight f4 [256, 256]
0	0x3d29ef37	0.0414879
1	0xbc04ddd5	-0.0081095295
2	0x3ce8a9ab	0.028401216
3	0xbd36030d	-0.044436503
4	0xbd16d732	-0.03682632
5	0xbdd2517e	-0.1026945
6	0x3bf91295	0.007601092
7	0xbcd34bed	-0.02579304
8	0x3d5fb829	0.05461899
9	0x3db90695	0.090344585
10	0xbbb0c60c	-0.005394703
11	0xbdcde3f6	-0.10053246
12	0x3db1938f	0.08670723
13	0x3d5f77c5	0.05455758
14	0x3cc5a696	0.024127286
15	0x3dc2af4b	0.09506091
16	0xbda79a16	-0.081836864
17	0xbdae3f9e	-0.08508228
18	0x3de619bd	0.11235378
19	0xbd89cffd	-0.06729124
20	0xbdb7959d	-0.08964083
21	0x3db8371a	0.08994885
22	0xbd09cf68	-0.033645064
23	0xbabcf014	-0.001441481
24	0xbae21ae3	-0.0017250445
25	0xbdbb14a1	-0.09134794
26	0x3ddf1f92	0.108946934
27	0x3c68c684	0.014207486
28	0x3cedebfe	0.029043194
29	0x3c2a7df2	0.010406004
30	0xbbe32443	-0.006931813
31	0xbd32ba6b	-0.043634813
32	0xbd2a8591	-0.041631285
33	0x3d8b4107	0.06799512
34	0xbd7a9754	-0.061179474
35	0xbc929037	-0.017891033
36	0x3d5ad64c	0.053427026
37	0x3c349565	0.011021947
38	0x3daaf903	0.083482765
39	0xbcb63000	-0.022239685
40	0xbd0d5dc2	-0.034513243
41	0xbd863217	-0.06552523
42	0xbd17c557	-0.037053432
43	0x3d10de61	0.035368327
44	0x3d141c43	0.036159765
45	0xbdafe85f	-0.08589243
46	0x3c2b942d	0.01047234
47	0xbbe63bbb	-0.0070261634
48	0xbd909c21	-0.07061029
49	0x3d345f76	0.04403635
50	0xbe047d77	-0.12938486
51	0x3ca53bd4	0.02017013
52	0xbd298fbb	-0.041396838
53	0x3d172792	0.03690297
54	0x3cfaa6ae	0.030597057
55	0x3d10a00f	0.035308894
56	0xbcd533ad	-0.026025617
57	0xbda5f45d	-0.08103249
58	0x3d00d10b	0.03144936
59	0xbd6cc527	-0.057805207
60	0xbdb101c8	-0.08642918
61	0xbd8168d8	-0.063188255
62	0xbd1d5a52	-0.038416214
63	0xbc2eed4e	-0.010676695
64	0x3c95bbf3	0.018278098
65	0x3d75e16e	0.06002944
66	0xbcf1aea4	-0.02950222
67	0xbcadfdcb	-0.021239182
68	0x3b23621f	0.002493031
69	0x3d2295f2	0.03969378
70	0xbc5a7ddb	-0.01333567
71	0x3e0119a2	0.12607434
72	0xbd0d6853	-0.03452332
73	0x3c32fda3	0.0109247295
74	0xbcbf45b8	-0.023348674
75	0xbd23c96b	-0.03998701
76	0xbe0c511e	-0.13702819
77	0x3d8915d1	0.06693614
78	0x3c08e798	0.0083559975
79	0x3c027283	0.007961872
80	0x3ce6b2e1	0.028161468
81	0x3c781f7e	0.015144227
82	0x3b1975e8	0.0023416225
83	0x3cf647bd	0.030063504
84	0x3ca3f7a0	0.020015538
85	0x3d4780c2	0.048706777
86	0xbd00d888	-0.0314565
87	0x3dc29323	0.0950072
88	0x3d328cd7	0.043591347
89	0x3d1d66fd	0.038428295
90	0xbd13738c	-0.035998866
91	0xbb446887	-0.002996953
92	0x3d0f66d4	0.035010174
93	0x3da04439	0.078255124
94	0xbda71851	-0.08158935
95	0x3d007f01	0.03137112
96	0xbac15426	-0.001474981
97	0x3de1a9b0	0.110186934
98	0x3d14e9b3	0.036355685
99	0x3dab970c	0.08378419
100	0x3d0c6857	0.034279194
101	0x3d5b48c4	0.05353619
102	0x3dc411d7	0.09573715
103	0x3d09c34e	0.033633523
104	0x3d2acc91	0.041698996
105	0x3cea1fe3	0.028579658
106	0x3d653720	0.055960774
107	0xbdc4af94	-0.09603801
108	0xbcad18f7	-0.021130068
109	0x3ced96f2	0.02900264
110	0x3cd6ad32	0.026205633
111	0x3d838be6	0.06423168
112	0xbc5cc18b	-0.013473879
113	0x3d4dd5a4	0.05025257
114	0xbc1a7dd4	-0.009429414
115	0x3d959b63	0.07305028
116	0x3d30a789	0.043128524
117	0x3dba228c	0.090886205
118	0x3d612a15	0.054971773
119	0x3e61cc98	0.22050703
120	0xbcf798f8	-0.030224308
121	0x3c2fb5ad	0.010724467
122	0xbdbd5c89	-0.09246165
123	0x3dacf13c	0.08444449
124	0xbd854396	-0.065070316
125	0xbb0460f8	-0.00201994
126	0xbc5b7a3c	-0.013395842
127	0xbd205ed2	-0.039152928
128	0xbcb88fb1	-0.022529455
129	0x3d37cef4	0.0448751
130	0xbd261f25	-0.040557045
131	0x3d60ba2c	0.054865047
132	0x3cbc23e1	0.022966327
133	0xbcf7087a	-0.03015541
134	0x3ce275e3	0.027644103
135	0x3d7be6a9	0.06149927
136	0x3d203954	0.039117172
137	0x3cf47d9e	0.029845055
138	0xbde55b25	-0.11199025
139	0x3d360e3b	0.044447165
140	0xbd105c09	-0.03524402
141	0xbcaf9d18	-0.021437213
142	0xbd61dcfd	-0.05514239
143	0x3de71c26	0.11284666
144	0x3e16bccc	0.14720458
145	0x3d3fd7a7	0.04683652
146	0xbe200ec3	-0.15630631
147	0xbbc47f6c	-0.005996635
148	0xbdddd3b3	-0.10831394
149	0xbc4ffe08	-0.012694843
150	0x3c7f42ec	0.01557992
151	0xbc7642cf	-0.015030577
152	0xbc01b4b1	-0.007916615
153	0x3d3bbfb6	0.045837127
154	0xbd1a5eef	-0.037688192
155	0x3ccb365b	0.024806192
156	0xbc9a7129	-0.018852787
157	0x3dd07db0	0.10180223
158	0x3db76912	0.089555874
159	0xbd9c76b8	-0.07639831
160	0xbd705a30	-0.05867976
161	0x3ddbf4ca	0.10740049
162	0x3d0fcedd	0.03510939
163	0xbd6acae1	-0.057322387
164	0x3dbe7767	0.09300118
165	0x3d83bfb7	0.06433051
166	0x3c57af3c	0.013164338
167	0xbc5bf8b8	-0.013425998
168	0xbc94f35d	-0.01818245
169	0x3d639197	0.055558767
170	0xbc10f387	-0.008847124
171	0x3cd0dcbc	0.02549588
172	0x3d596424	0.053074017
173	0x3c8c2a5d	0.017110044
174	0x3d0413a4	0.032245293
175	0xbd127828	-0.03575912
176	0xbc87801c	-0.01654058
177	0xbdb72878	-0.08943266
178	0x3d9c420a	0.076297835
179	0x3d7d761d	0.06188022
180	0xbd51056c	-0.05103056
181	0xbcb268ff	-0.021778582
182	0xbd3ebc5f	-0.046566363
183	0xbd882b4b	-0.066488825
184	0x3cb77430	0.02239427
185	0xbb1f3c76	-0.0024297512
186	0x3de0b9db	0.10972949
187	0xbd8b8fe7	-0.068145566
188	0xbda27002	-0.0793152
189	0xbd95b9f1	-0.07310856
190	0xbbf915d4	-0.007601479
191	0xbc620329	-0.013794699
192	0xbdb72cb4	-0.08944073
193	0x3d8d53dd	0.06900761
194	0x3d9f7cb0	0.07787454
195	0xbd6564f8	-0.056004494
196	0x3d54b66c	0.051931784
197	0xbd15e279	-0.036592934
198	0x3e17a054	0.14807254
199	0xbd308afc	-0.043101296
200	0xbd6c23f3	-0.05765147
201	0xbc5d1ec8	-0.013496108
202	0xbd70cee2	-0.05879105
203	0x3daf0fd7	0.08547943
204	0x3d9c8e9b	0.07644387
205	0xbe171383	-0.14753537
206	0xbceddade	-0.029035028
207	0x3d43c637	0.047796454
208	0x3def7959	0.11693067
209	0x3cca03c5	0.02466
210	0xbd4d410d	-0.050110865
211	0xbd41e40a	-0.047336616
212	0xbd490fa6	-0.04908719
213	0xbd521187	-0.051286247
214	0xbb971f69	-0.0046118987
215	0xba8d5187	-0.0010781743
216	0x3d03e611	0.03220183
217	0x3daf748f	0.08567154
218	0x3b64d6ee	0.0034918147
219	0x3d0ba443	0.0340922
220	0x3d3a571b	0.045493226
221	0xbdbadbfa	-0.091239884
222	0xbdaeaeb7	-0.08529418
223	0xbd6e5b75	-0.05819269
224	0x3dabfdd6	0.08398025
225	0xbdbf06cb	-0.093274675
226	0x3bc70140	0.006073147
227	0x3db537c8	0.0884853
228	0xbb29c57c	-0.0025905063
229	0xbdb53607	-0.088481955
230	0x3e0b9329	0.13630356
231	0x3da088c5	0.07838587
232	0x3dc70a11	0.09718717
233	0x3db8e538	0.09028095
234	0xbd907330	-0.0705322
235	0x3c574665	0.013139342
236	0x3ba2a86d	0.0049639256
237	0xbd2d55d1	-0.04231817
238	0x3d62a7fe	0.05533599
239	0xbc2a3f70	-0.010391101
240	0x3beaf530	0.007170342
241	0x3d517f1e	0.05114662
242	0x3e290f9a	0.16509858
243	0xbd7a734f	-0.061145123
244	0x3d3b73e1	0.045764808
245	0xbc98ed80	-0.018667936
246	0x3d189e9e	0.037260644
247	0x3d03b847	0.032158162
248	0xbd67c0f2	-0.05658049
249	0xbd30ee31	-0.043195907
250	0x3da91ba7	0.082572274
251	0xbd48f454	-0.049061134
252	0xbd2fbb67	-0.04290333
253	0xbcf15a48	-0.029461995
254	0xbc91dcee	-0.017805543
255	0xbce3a56e	-0.027788844
