Assets/Training/results/track2_learned/config_track2/config_track2-999947.onnx (onnx, 600385 bytes, 9 tensors)

action_model._continuous_distribution.log_sigma f4 [1, 2]
000000 b8 9d 19 be a5 2a 18 bf
       -0.15001571 -0.5944007

action_model._continuous_distribution.mu.bias f4 [2]
000000 0a f7 b9 3c 3d b7 f8 ba
       0.022700805 -0.0018975508

action_model._continuous_distribution.mu.weight f4 [2, 256]
000000 e2 6e 8a 3c a6 59 98 bb 88 6b bf bc b2 92 d1 bc
       0.016898576 -0.004649359 -0.023366705 -0.025582645
000010 c0 4d 1a bc b4 8f 8b bc 1c c5 0b bd 2a 46 33 bc
       -0.009417951 -0.017036296 -0.034123525 -0.010942021
000020 a0 03 38 3c 3e 2f 95 bc c7 b8 ef bc 70 54 08 bb
       0.011231333 -0.018211003 -0.029262913 -0.0020802282
000030 ac a0 b0 3a 35 c8 9b bc d3 02 f2 3b ce f3 67 ba
       0.0013475618 -0.019016365 0.0073855906 -0.00088482804
000040 50 95 fb bc 95 1e de bc 36 27 08 bc a7 95 1a 3a
       -0.030710846 -0.027114192 -0.00831013 0.0005896934
000050 b8 33 33 bd 30 a2 49 ba f5 93 9d 3a 09 0a 60 3b
       -0.043750495 -0.00076917093 0.0012022244 0.003418567
000060 c9 a9 56 bd 8e 16 82 bb 02 ca f6 bc 35 27 e9 bc
       -0.052408013 -0.003969974 -0.030125622 -0.028461078
000070 10 3d 49 bc 35 be e9 3b c3 0f fe 3a 0c 19 6e 3c
       -0.012282625 0.00713327 0.001938336 0.014532339
000080 58 4a a5 bb 94 20 bf 3b cb 33 80 3b 46 4b 04 bb
       -0.005044263 0.005832741 0.003912424 -0.0020186468
000090 ac 6b 25 bc 1b 69 73 3a 41 4a 5e 3c ac 5d d1 3c
       -0.010096472 0.0009285376 0.013567508 0.025557362
0000a0 4a 31 f4 bc 7b e4 56 bb bd bc 8b bb d9 b0 f3 b9
       -0.02980866 -0.0032789994 -0.0042644427 -0.00046480334
0000b0 eb 0c 9c 3c d2 19 c6 bc dd 0b 39 3c 13 72 fd bc
       0.019049129 -0.024182234 0.011294332 -0.030938184
0000c0 2f 3f f9 bc a1 e6 d3 bb ff d6 4f 3c 80 9e 74 3b
       -0.030425636 -0.006466702 0.012685536 0.0037325919
0000d0 09 47 c4 ba 3f db 9c 3a 8b 16 18 ba 5d 0a 06 bc
       -0.0014974783 0.0011967196 -0.0005801699 -0.008181182
0000e0 95 d7 cc 3a ac e1 74 bc d1 f4 b3 bc bd 24 c5 bb
       0.0015628213 -0.0149463825 -0.021967323 -0.0060163424
0000f0 16 af f7 bc ae 4c 2c bb 3e f5 06 bd 59 b3 bf 3b
       -0.030234855 -0.0026290822 -0.032948725 0.0058502373
000100 46 f3 ff 39 d8 48 36 3c 88 4f d7 3b cc 02 59 bc
       0.00048818643 0.011125766 0.00657076 -0.013245296
000110 45 3d 9d bc 3c 09 da bc 85 bc a0 bb e8 56 d3 bc
       -0.019194255 -0.026615731 -0.004905286 -0.025798276
000120 9c 58 9d bc d8 a5 f6 bc 41 a6 1c 3b 82 8c a0 bc
       -0.019207291 -0.030108377 0.0023902806 -0.01959825
000130 c1 45 a1 ba ca 24 ad 3c 8e 11 05 3d 7e 93 2b bc
       -0.0012304113 0.021135706 0.032487445 -0.010472177
000140 9c 03 83 3c 20 ec c7 3a 0e 92 5f bc b4 98 fb bb
       0.015992932 0.0015252866 -0.013645662 -0.0076781157
000150 fa e2 2e 3a c9 f3 24 bd ec 05 38 ba 36 95 15 bd
       0.00066713954 -0.040271554 -0.00070199254 -0.03651925
000160 62 46 db 39 56 fc 40 bd 7d 0c dd ba ff 2d ae bc
       0.00041823374 -0.047115646 -0.0016864684 -0.021262167
000170 4d 2e a9 bc b4 16 81 3c a7 8d 15 39 a0 9d 7a bb
       -0.02065196 0.015757896 0.00014262517 -0.0038240924
000180 b1 c8 2a bd fc d5 8f 38 22 86 76 3c 9c eb 25 bc
       -0.0416953 6.858629e-05 0.015046628 -0.010126974
000190 de c3 34 b8 38 1e 09 bd e3 4d 38 ba e1 65 65 3c
       -4.309776e-05 -0.033476084 -0.0007030649 0.014001341
0001a0 78 dd 21 3b 8b 89 ee bc 9f 77 b6 39 e7 d1 a2 ba
       0.0024698656 -0.02911832 0.0003480287 -0.0012422175
0001b0 6f 82 c7 b9 38 70 b6 3c f8 04 b9 bb ac 3b 0a bd
       -0.00038053418 0.022270307 -0.0056463443 -0.033748314
0001c0 dc df 31 3c 5d d1 0c bd 0a 1c 46 bb 1b d7 7c 3c
       0.010856595 -0.034379352 -0.0030229115 0.0154321445
0001d0 d6 2c 28 bc c0 ee 97 bc 39 7e a2 3b 1b 37 94 ba
       -0.010264596 -0.018546462 0.0049588946 -0.0011307927
0001e0 27 dc de bc 2f 82 d5 bb ad 26 22 bb 69 e0 bb 3c
       -0.027204586 -0.0065157632 -0.002474229 0.022934156
0001f0 3b d6 0c bc 02 9c 72 bd c0 34 24 bb c9 34 8c bc
       -0.008595998 -0.059230812 -0.0025055856 -0.017115014
000200 45 ea d6 3b 3a 19 98 3c 53 bc f3 bc 22 f2 18 bd
       0.006558689 0.018566716 -0.029752886 -0.03734029
000210 67 51 c4 3b d9 92 1c bc e3 18 cc 3b f1 19 dd 3b
       0.005991149 -0.009556496 0.0062285527 0.006747477
000220 fc ad f8 bb 54 27 84 3c 71 af e1 bb a5 84 be 3c
       -0.0075891 0.016132034 -0.0068873693 0.02325661
000230 48 f8 61 bc 97 de be ba 5f a9 b9 bb 66 c0 15 b7
       -0.013792105 -0.0014562187 -0.0056659426 -8.925888e-06
000240 dc 98 8e bc 20 33 3a bd f4 10 21 bc c9 15 dc ba
       -0.017406873 -0.045458913 -0.009830702 -0.001679116
000250 60 98 37 bc 57 e0 a9 38 20 c2 c0 b9 1b 70 28 3b
       -0.011205763 8.1003345e-05 -0.00036765728 0.0025701586
000260 3e 4f 0a bd 2c ec 73 3c df 87 25 bd 07 87 62 3a
       -0.033766977 0.014887851 -0.04041278 0.00086413365
000270 07 93 b5 ba 53 c9 21 3c c8 06 f8 b9 f7 3d b6 3a
       -0.0013853022 0.00987466 -0.00047307299 0.0013903965
000280 f5 c5 18 39 30 3b 24 3b a0 20 c0 ba a2 03 15 3c
       0.00014569594 0.0025059693 -0.001465816 0.009095104
000290 bf e9 a5 3c c7 fc eb 3b 23 14 23 3a bd 02 23 3b
       0.02025306 0.0072017643 0.0006220957 0.0024873458
0002a0 78 f8 52 bc d9 32 57 3c f4 3c 15 bd 37 18 83 bc
       -0.012876622 0.013134682 -0.036435083 -0.016002757
0002b0 0a 53 61 3b f0 4b 04 bd 5b dc db bc e3 a1 60 bc
       0.003438177 -0.032298982 -0.026838472 -0.013710472
0002c0 bd 42 e1 3a c1 58 ba ba 47 c2 ba b9 5b 27 a5 bc
       0.0017186027 -0.0014217125 -0.00035621432 -0.020160368
0002d0 27 cb 36 ba 4a 2b f8 ba 4b ca c7 39 c2 1d a1 bc
       -0.0006973021 -0.00189338 0.00038106958 -0.01966751
0002e0 a4 62 9d 3c 53 1c a4 3b 98 81 aa bc 3d f8 05 bd
       0.019212075 0.0050082593 -0.020813748 -0.03270744
0002f0 d8 ed b8 ba ce e0 3b 3b 45 54 23 3c 1a 31 72 39
       -0.0014108969 0.002866793 0.009968822 0.0002309721
000300 80 8c 4b bd 7a 8a 20 ba 42 74 92 ba fc d8 1c 3c
       -0.049694538 -0.000612415 -0.0011173564 0.0095732175
000310 bd 8a 8c 3c ac f1 9f bb 07 86 1d 39 4f 07 1c bd
       0.017156 -0.0048811045 0.00015022616 -0.038092908
000320 92 d1 84 3c b1 59 c4 3c 94 8b 01 3c f7 7d 39 3c
       0.016213212 0.02396855 0.007906813 0.011321536
000330 47 0b 4e bb b0 cd 35 bc 82 b8 4a bd 48 1f 9a 38
       -0.0031439827 -0.011096403 -0.049492367 7.349119e-05
000340 93 ba 06 bc 05 ad cc bc 81 41 f4 bc 7f 9b 22 bd
       -0.008223194 -0.024984846 -0.029816391 -0.039699074
000350 9b d9 56 3c 7a 09 ad 3c 87 06 e6 ba ff 04 dc bb
       0.013113405 0.021122683 -0.0017549553 -0.006714463
000360 5a fa 3f bb 62 20 33 bc b8 1d 42 bb 2c a4 61 3c
       -0.0029293508 -0.010933014 -0.0029619765 0.013772052
000370 02 83 e3 3b c4 de 18 b7 b8 81 35 38 b7 c0 66 b9
       0.0069431076 -9.111773e-06 4.3274573e-05 -0.00022006301
000380 07 02 90 bb 95 e0 a0 3c 83 c6 97 bc 46 01 e8 bc
       -0.004394773 0.019638339 -0.018527275 -0.02832092
000390 14 fc 1a 3c a6 61 a3 3b 01 88 8d bb d2 65 1c bc
       0.009459514 0.004986006 -0.0043191914 -0.00954576
0003a0 4f 55 e4 bb a2 02 e3 ba 95 42 17 bd 97 63 02 39
       -0.0069681774 -0.001731951 -0.036928732 0.00012434866
0003b0 54 bc a9 3c d3 c2 bd 3c c8 eb 09 bd 9f e4 84 3c
       0.020719685 0.023164188 -0.033672124 0.016222296
0003c0 e6 fe 84 bc e6 29 f8 bc d2 1b 8b bc 32 34 d5 bc
       -0.016234826 -0.030293416 -0.01698104 -0.026025865
0003d0 7d 1c 5e 3a 66 d8 93 3b f3 fa 39 3c de 4b 8a bc
       0.0008472873 0.0045118807 0.011351335 -0.01688188
0003e0 8e ee 6d 3c 7a be 4b bc 40 60 51 bc 50 06 ff bc
       0.014522208 -0.01243555 -0.012779295 -0.03113094
0003f0 e5 4d c4 bc 09 ae 4d 3c fa 8b 53 bd 75 ed e0 bc
       -0.023962924 0.0125537 -0.051647164 -0.027456978

network_body._body_endoder.seq_layers.0.bias f4 [256]
000000 15 a4 bf 3b 27 4f 9e bc e5 92 42 bc 1d 87 0f bc
       0.0058484175 -0.019324852 -0.011875843 -0.008760241
000010 e7 b5 42 3c f1 e5 5b bc 2a ae a3 3b 11 d6 79 3c
       0.011884189 -0.0134215215 0.004995127 0.015248791
000020 4a ee de bb 49 2f 9c 3a 16 e2 00 bd 07 ba 33 3b
       -0.0068033086 0.0011915948 -0.031465612 0.0027424113
000030 39 37 0d bd af ba 5c 3c b8 81 5e bb 48 94 22 3c
       -0.034476493 0.013472243 -0.003395183 0.009923048
000040 56 40 53 bb 58 45 41 bc 10 05 a1 3c 96 0c 79 bc
       -0.0032234392 -0.011796318 0.019655734 -0.015200755
000050 d6 c7 d9 3b a4 fd 2e bc a2 de 4a 3c 54 f4 98 3c
       0.0066461368 -0.01068059 0.012382181 0.018671192
000060 ae 4e 01 bc 39 aa c6 39 ed 18 52 bb f3 6b 08 3c
       -0.007892294 0.0003789233 -0.0032058314 0.008326518
000070 c0 ab 07 bc 36 bd 99 3c 6e a6 2a bb 57 43 02 ba
       -0.0082806945 0.01876698 -0.0026039141 -0.0004969141
000080 3c a3 c9 bb 1c d2 90 bb 16 f2 08 bd d3 19 a7 3c
       -0.0061534923 -0.0044195782 -0.033433996 0.020398056
000090 2d 9d a3 3c 23 8f 33 3c d1 86 00 3c 31 41 ff 3b
       0.019972408 0.010959419 0.007844643 0.007789754
0000a0 0d c3 42 3b 7b 6e 77 bc f2 cf d3 3a f7 a2 5d bc
       0.002971831 -0.015102024 0.0016159995 -0.013527623
0000b0 0a 9f 9a 3a e6 20 bd 3b 54 55 d9 3c ac b4 3a bc
       0.0011796665 0.005771744 0.026529945 -0.011395615
0000c0 f8 51 98 bb fa fd fa b9 9f 6c 30 3d e2 11 27 bc
       -0.0046484433 -0.00047872943 0.04307234 -0.010197135
0000d0 bd 31 23 bb dd a6 8a bc db 49 34 3b 54 63 18 3c
       -0.0024901472 -0.01692527 0.0027509842 0.009301025
0000e0 a6 d7 fd 3c 90 d7 7e ba 2b 1f 24 bc 45 36 4d bc
       0.030986618 -0.00097214524 -0.010017197 -0.012525146
0000f0 39 4b 8c bb c0 27 20 3d 74 f7 e5 bb a7 90 a1 3a
       -0.004281428 0.03910041 -0.007018024 0.0012326435
000100 c8 50 91 3b b7 7b 9a 3c 60 e9 23 ba 2b f1 da bc
       0.0044346787 0.01885782 -0.0006252732 -0.026726326
000110 35 d9 9e bc 30 c4 84 3c 33 58 58 3c 22 71 58 3b
       -0.019390682 0.01620683 0.013204622 0.0033026417
000120 bf 59 9e bb a2 74 41 3b 96 85 a8 3c 73 e1 a0 3b
       -0.004832476 0.0029518981 0.020571511 0.004909688
000130 2a be a7 3b f9 03 76 bc 22 27 0b bc 82 88 99 3b
       0.005119105 -0.015015596 -0.008493217 0.0046854625
000140 61 45 8d bb eb 00 c5 3a 3a 8b fb bb b8 55 f5 bb
       -0.004311249 0.0015030181 -0.007676509 -0.007487025
000150 a5 79 2b 3c 6c 4a bf 3c 58 cd 3c 3b c1 d9 7c bc
       0.010466014 0.023350917 0.0028808918 -0.015432776
000160 04 7d a5 bc c0 5e 85 3c 4b 46 a9 bb 03 23 6a ba
       -0.020201214 0.016280532 -0.0051658503 -0.0008931609
000170 41 ab ff 3c 79 74 eb bb 16 8c ca 3b b8 f2 2f 3c
       0.03120959 -0.0071855155 0.0061812503 0.010739021
000180 c9 56 db 3a 2a ff 85 3b 9d 30 b7 3b c6 98 ba 3c
       0.0016734238 0.004089256 0.005590512 0.022777926
000190 44 b1 6b 3c 36 a1 e5 3b fe 03 f1 3b d1 f8 dd bb
       0.014385525 0.007007743 0.0073552122 -0.006774046
0001a0 f2 83 86 3b 07 e6 0d 3d ba af 63 3b a2 c1 23 3c
       0.0041050846 0.0346432 0.0034742192 0.009994896
0001b0 52 3a 11 3c 15 6e a6 bc 2b e9 14 bc a6 1f ba 3c
       0.008864002 -0.020316163 -0.009088795 0.02272017
0001c0 31 2e 3f bc 14 cc 98 3a f9 69 e3 ba 9f 14 1f 3b
       -0.011668728 0.00116575 -0.0017350308 0.0024273766
0001d0 a9 bf c6 bb 2b 2e 05 bc 48 27 83 bc 54 5c 91 3c
       -0.006065328 -0.008128683 -0.016009942 0.01774422
0001e0 25 38 60 bc 61 78 52 3b b2 77 40 3c 9b 04 3d 3a
       -0.013685261 0.0032115208 0.011747288 0.0007210464
0001f0 86 98 b3 bb 3e 0a a6 ba a0 50 1d 3c a7 ca 98 bc
       -0.0054808287 -0.0012667847 0.009601742 -0.01865132
000200 46 8e 58 bc c7 9e e4 bc 22 df 08 3c ae 39 65 bc
       -0.013217514 -0.027907742 0.00835398 -0.013990803
000210 9c b7 40 bc 06 fe 5a 3c f9 e4 02 bc 2c 7a 65 3a
       -0.011762526 0.013366228 -0.007989162 0.0008753862
000220 18 2a 82 bb 5f b9 f0 bc 6f 8c af bb 3b c5 05 bc
       -0.003972303 -0.029385267 -0.005357317 -0.008164699
000230 97 3b 02 bd 83 98 26 3c c3 4e 98 3b 67 c6 ab 3b
       -0.03179511 0.010168198 0.004648061 0.0052421573
000240 b6 0e 63 39 4e 77 6b bc 77 7f a5 3c 83 73 9c 3b
       0.00021653887 -0.014371706 0.020202382 0.0047745123
000250 ad 8f 80 3c 79 25 1b 3d f4 9e 25 bc 6f 59 91 3c
       0.01569351 0.037877534 -0.010108698 0.01774284
000260 23 0c ad 3b 86 57 52 3b 24 b2 97 3b 61 ce d0 3b
       0.005280988 0.0032095625 0.0046293903 0.0063722585
000270 ec 6f be 3c b8 4f ac 3a 31 79 fa bb 8e c7 f4 39
       0.023246728 0.0013146317 -0.0076438417 0.00046687986
000280 0e fa cc 3c 48 ea 6e 3b 8d 4e 60 bc 1b e4 04 bc
       0.02502158 0.003645556 -0.013690603 -0.008111025
000290 ab 6b ab ba c3 81 1b 3b 57 24 c1 bb 74 27 18 bc
       -0.0013078352 0.0023728467 -0.0058942246 -0.00928675
0002a0 e8 20 1f bb 9c 5d 33 bb 33 43 73 bc b3 cf 8e 3c
       -0.0024281088 -0.0027369028 -0.0148475645 0.017433023
0002b0 cb 59 c3 3c f1 d9 a2 bc af 59 64 bc 97 f1 07 3c
       0.023846528 -0.019879313 -0.013937398 0.008297346
0002c0 e5 53 2f 3c 13 65 15 bc 9f 0a 63 3b 44 47 1b bc
       0.010701154 -0.009118336 0.0034643782 -0.00947744
0002d0 d2 a5 09 bc 96 13 51 3b c9 64 11 3b 1a bc 58 bb
       -0.008401351 0.0031902543 0.0022185317 -0.0033071102
0002e0 9b ae 86 3c 2c 2c b2 bc d4 fb 0d 3b 02 22 37 bc
       0.01644068 -0.021749578 0.0021664994 -0.011177542
0002f0 9b 6c 7a bc af f1 1a 3c 13 53 9e 3c 3a 6f 17 bb
       -0.015284683 0.009457036 0.019326722 -0.0023107068
000300 15 fd 07 bc 84 1b 3b 3c 56 8a 49 3c c3 b2 97 3b
       -0.008300086 0.011420134 0.012301048 0.0046294644
000310 94 8f 70 3c 85 08 64 3b 1b e3 89 bc ef 02 cf bb
       0.014682669 0.0034795117 -0.016831925 -0.0063174884
000320 16 bd e4 3b 68 57 d3 38 4c 95 f6 3b d8 9f c1 39
       0.0069805486 0.00010077545 0.007525122 0.00036930921
000330 16 d3 e7 bb 81 01 74 3b 4d 0a c9 bb 15 70 d3 bb
       -0.007074724 0.0037232342 -0.006135261 -0.00645257
000340 fe 3a 4f bc 42 cc ee bc 3e 1b 7b bc 6b f3 1a bc
       -0.012648342 -0.029150132 -0.015326319 -0.009457449
000350 f9 e7 fe ba 33 79 1e bc e8 a4 b9 3c c0 63 55 bc
       -0.0019447795 -0.009672451 0.022661641 -0.013024271
000360 5c 0d 3a 3b 34 97 83 bc 89 b4 54 3c 09 06 e5 ba
       0.002838931 -0.01606331 0.012982496 -0.0017473112
000370 f8 84 31 3a c9 ea ac bc 9a d6 94 3a c4 14 0e bc
       0.0006771828 -0.021108048 0.001135546 -0.008671943
000380 ec 4a 0a 3c de 1c 10 bc ac 55 b4 ba a7 a5 fa 3b
       0.008440714 -0.008795945 -0.0013758442 0.007649142
000390 2f 51 13 bb b4 86 2e bc 88 ca 75 bc 54 c7 92 3c
       -0.002247881 -0.010652233 -0.0150019005 0.017917313
0003a0 ea 62 67 3c 7f 23 8f 3b a7 76 4c bc 60 23 47 3b
       0.014122704 0.004368245 -0.012479461 0.0030386075
0003b0 b7 a5 83 bc 35 3e a1 ba a1 da b1 bb ea 16 8e bc
       -0.01607023 -0.0012301864 -0.005427674 -0.01734491
0003c0 ac f9 66 bc 79 0b 4d bc 15 54 24 bc 26 e3 6d bc
       -0.014097612 -0.012514942 -0.010029812 -0.014519488
0003d0 ed 30 51 bc c9 90 7a bb dc 7a 06 39 09 89 6a 3b
       -0.0127680125 -0.0038233271 0.00012825005 0.0035787246
0003e0 f8 73 57 bc a4 03 53 3b 59 d7 bd 3a 79 85 1c ba
       -0.013150208 0.0032198215 0.0014483734 -0.0005970817
0003f0 19 e5 52 bc 3d 60 11 bd 0e ce 3d 3c 52 b7 3f bc
       -0.012872004 -0.03549217 0.011584772 -0.011701422

network_body._body_endoder.seq_layers.0.weight f4 [256, 67]
000000 8f 9c 3a be 92 16 59 be d8 48 8d 3d 97 96 aa 3d
       -0.18223785 -0.21200016 0.068986595 0.08329504
000010 de 4c 3f 3e d1 1f 9d 3d 08 96 a1 bd 0a aa 34 be
       0.18681666 0.07672084 -0.07889944 -0.1764299
000020 30 32 03 3e 41 d2 0f be 01 49 0b be 15 15 08 3d
       0.12812114 -0.14045049 -0.13602068 0.03322323
000030 fa 7d af 3d a1 df 54 3e a8 40 c0 bd 2c 69 c6 3c
       0.0856895 0.20788433 -0.09387332 0.024220072
000040 97 c3 f2 3d 32 11 35 be 6b 69 15 be 31 3f 93 bd
       0.11853712 -0.1768234 -0.14590995 -0.07189787
000050 37 52 48 bd 82 23 85 3b d3 ef d0 3d a5 24 09 bd
       -0.04890653 0.0040630708 0.10201993 -0.033482213
000060 97 6c db bd 47 00 fd 3c 27 51 af bd f2 66 38 3e
       -0.10714071 0.030883921 -0.085604005 0.1800802
000070 12 d9 61 3e 10 e9 28 bd 1d 93 42 bc a4 3e 1a 3d
       0.22055462 -0.04123789 -0.011875895 0.037657395
000080 6b 47 25 be af 38 d5 bc 93 1e a6 bc 11 89 90 3d
       -0.16140525 -0.026028005 -0.02027825 0.07057393
000090 b1 6e 06 be f4 d2 87 3e e8 a5 eb bd cd 0a 00 bc
       -0.13128163 0.26528132 -0.115062535 -0.007815075
0000a0 97 90 60 3e e1 16 02 3e 92 f6 8b 3e 98 a6 2f 3d
       0.21930157 0.1270404 0.27336556 0.042883486
0000b0 8c 36 01 3d d2 62 48 be 40 07 ea 3b 86 4a 18 3e
       0.03154616 -0.19568947 0.0071419775 0.14872178
0000c0 ed 93 58 3d 19 02 77 bd 9a 52 0a be c8 7d 79 bd
       0.052875448 -0.060304735 -0.13508072 -0.06091097
0000d0 3f b6 e7 3d 86 eb 15 be 47 53 40 3e 88 03 4b bd
       0.113140576 -0.14640626 0.18781768 -0.049563915
0000e0 dc 22 74 3e d7 86 a5 be dc 7c 44 bd 64 76 48 3e
       0.23841423 -0.32329437 -0.047970638 0.19576412
0000f0 f1 8d 20 3c e6 2b c8 bd f2 b2 d5 bd 0b 96 34 3e
       0.0097994665 -0.09773998 -0.10434522 0.17635362
000100 fe de 0a bc 94 df 3b bc e9 0d 04 3b 0d 6b de 3c
       -0.008476017 -0.011466879 0.0020149893 0.027150655
000110 bf ef d4 3c 16 92 ec 3d 9e 78 56 3c 61 87 2a bd
       0.025993226 0.11551301 0.013090281 -0.041633014
000120 74 c9 ee ba 4a 38 f8 bd fc 29 b8 3c 0f 1b a6 bc
       -0.0018217997 -0.12120111 0.022480957 -0.020276574
000130 47 eb 45 3e b0 4e 11 bd c7 7b 49 3d 3c f2 4e bd
       0.19328032 -0.035475433 0.04919031 -0.05052398
000140 0c 30 a6 bc 4b 6a fb bd f8 61 41 be cf d7 ba 3d
       -0.020286582 -0.12276133 -0.18885028 0.091231935
000150 3b 13 fe 3d 72 4f 31 be 9a 7f e2 3d 0a 85 78 bd
       0.12406012 -0.17315462 0.11059494 -0.06067375
000160 39 1d a7 3d 15 be 86 bb ae 3e 90 bd 58 31 2f 3d
       0.08159871 -0.004112015 -0.07043205 0.042771667
000170 6a 47 3a 3e 26 79 c0 bd 50 5e 3d be d7 d3 d7 bc
       0.18191305 -0.09398107 -0.18493009 -0.02634613
000180 a4 a4 38 3d 0e 2b e9 3d 9c ae 9a 3e 19 ea 9b 3d
       0.04507889 0.11385165 0.3021134 0.0761301
000190 03 f5 07 be 9f 61 21 be 7d cd 31 be 64 0b 57 be
       -0.13277058 -0.15759896 -0.17363544 -0.21000439
0001a0 d9 ec 8d 3b 67 84 11 be 70 df 80 be f1 92 54 bd
       0.004331213 -0.14210664 -0.2517047 -0.051897947
0001b0 22 c4 10 be cd 09 10 be cc bd 35 3e d1 7d 6e bc
       -0.14137319 -0.14066239 0.17748183 -0.014556364
0001c0 9a f3 46 bb b8 f9 a8 3d fc 30 1a 3e 25 33 5b be
       -0.00303576 0.08250755 0.15057749 -0.21406229
0001d0 59 23 2b be 33 51 d8 bd 71 23 7e 3e a0 b0 b4 bb
       -0.16712703 -0.105623625 0.24818207 -0.0055142194
0001e0 44 7a 9f 3d 49 e5 fa 3d d9 ec 08 be fb 79 45 be
       0.07786992 0.12250764 -0.133716 -0.19284813
0001f0 50 e6 02 3e 72 9e c7 3d 4d 36 97 bd 5c bb 3e 3e
       0.1278317 0.09747018 -0.07383404 0.1862616
000200 83 23 98 be f8 91 30 3e ae d7 ef 3d 0e 37 00 bd
       -0.29714593 0.17243183 0.117110595 -0.031302504
000210 ca a8 e9 3d a8 77 b4 3d 17 5e 59 bd 02 78 1d 3e
       0.11409147 0.08811885 -0.053068247 0.1537781
000220 5a c1 88 be 6d da 97 3d 35 80 a4 bd e3 d3 4a 3e
       -0.26710016 0.07414708 -0.08032266 0.19807391
000230 63 0a 56 3d a1 f1 00 3e ba 0f 59 be 5a 38 39 3d
       0.052256 0.12592174 -0.21197405 0.045219757
000240 3f b7 65 3b 4d fd 9a bc 5d 18 8c bd a3 73 a1 bd
       0.003505185 -0.018919611 -0.068405844 -0.07883384
000250 22 4e 93 bd 8c 30 6a 3d ab 0c 4d 3d 73 37 a3 3d
       -0.07192637 0.057175204 0.05006091 0.079695605
000260 b1 6e b9 3d 7c c8 f6 bd b0 15 98 bd 2c 02 97 3d
       0.09054316 -0.12049958 -0.074260116 0.07373461
000270 46 b4 ba 3e 83 c8 55 3e 02 f3 38 3e 56 4c 85 be
       0.36465663 0.2087727 0.1806145 -0.26034802
000280 f7 15 94 bd 64 63 1f bd 57 b2 c0 bc 58 4a 56 be
       -0.07230752 -0.038913146 -0.023522539 -0.20926797
000290 ea 0a 89 bd 7c c8 32 3e 7b 06 ae bd cc 38 9c bc
       -0.06691535 0.17459291 -0.0849733 -0.019070052
0002a0 03 df 12 be bc 18 fb 3c 4e f6 cd bc 21 5b e5 3d
       -0.14342885 0.030651443 -0.025141861 0.11199022
0002b0 0c 5f da 3d 56 ba 96 3d 68 7d b5 3d 0c 79 45 be
       0.1066266 0.073597595 0.0886181 -0.19284457
0002c0 c7 34 e9 bd f9 05 6a bd 28 03 d4 bd bb 5f 7c 3c
       -0.113870196 -0.057134602 -0.103521645 0.015403683
0002d0 2f 80 b4 bc 1a 49 48 3d 48 15 a1 3c fa 07 36 be
       -0.022033779 0.04889784 0.019663468 -0.1777648
0002e0 27 10 67 bd f7 62 60 3e de fd 0f 3e 9b 1f 5b bd
       -0.05641189 0.21912752 0.14061686 -0.05349694
0002f0 df 33 a5 3e ad 48 0e bd aa ce 13 be f8 d3 93 3d
       0.32266137 -0.034737278 -0.14434305 0.07218164
000300 64 52 0a be d6 1f 60 ba 4f 0b d9 bd dd ab ca bd
       -0.13507992 -0.0008549666 -0.1059786 -0.098960616
000310 d6 38 df 3d c0 41 29 3c 73 b1 5d bb 37 78 08 be
       0.108995125 0.010330617 -0.0033827692 -0.13327108
000320 05 4f 49 3d 75 8b 92 3d 25 9a 1a bd a5 cd e0 bb
       0.049147625 0.071555056 -0.03774466 -0.0068604522
000330 19 dd 5d bd e3 b0 92 bd 80 59 30 3d d3 16 24 3e
       -0.054165933 -0.07162645 0.043054104 0.16024332
000340 44 39 d6 bd fc 13 01 3e 6a 48 bb bd 13 30 2e 3e
       -0.10460141 0.1260528 -0.09144671 0.17010526
000350 c5 a3 0b be 3b 92 70 bb fb 0c 90 bd 12 6f ea bd
       -0.13636692 -0.0036708254 -0.07033726 -0.11446966
000360 ff c6 7c 3d 6e bb 37 3d 28 a0 de bd ed e0 3a 3e
       0.061713215 0.04485648 -0.10870391 0.18249865
000370 48 51 38 3e 04 d3 84 3d 48 2d 74 be 7a 90 c8 3d
       0.17999756 0.064855605 -0.23845398 0.09793182
000380 f9 b4 f3 bd 19 46 7a be fc 97 41 3d df 6f f1 bc
       -0.11899752 -0.24440803 0.047264084 -0.02947229
000390 a0 9e 53 3d ee 5f 20 be 81 ad 02 bd d3 01 2f 3e
       0.05166495 -0.15661594 -0.031903747 0.1709054
0003a0 82 ea f7 3d a6 24 57 bd eb ad 3f 3a e5 f8 fd bb
       0.12105276 -0.052525185 0.00073119876 -0.007750618
0003b0 ae 18 2e 3e 34 6e bb 3d 37 01 9d 3d 1d b4 05 3e
       0.17001602 0.09151879 0.07666247 0.13056989
0003c0 2e 8e 0b 3e f0 ac 48 3c 39 87 f7 3d 94 d6 4b 3e
       0.13628456 0.012248263 0.120863385 0.19906074
0003d0 37 60 7c 3e 80 d2 54 bd 0b 6d d5 bd a6 bc 19 3e
       0.24646078 -0.05195856 -0.10421189 0.1501337
0003e0 74 ed 90 3d c6 bf 31 be 2e 47 89 3d 52 3d d1 bd
       0.070765406 -0.17358312 0.067030296 -0.10216774
0003f0 e2 12 01 3c 1d 9b c9 bd 67 30 35 be 0a 73 1c be
       0.007878037 -0.09844039 -0.17694245 -0.15278259

network_body._body_endoder.seq_layers.2.bias f4 [256]
000000 cb b8 f3 bb 58 b4 ba 3b 3a 20 8f 3b 13 7f 62 ba
       -0.0074378005 0.005697768 0.0043678554 -0.00086401514
000010 b1 ef 12 bb ea e2 43 bb 40 fb 98 bb 22 ec 2d bc
       -0.00224207 -0.002988989 -0.004668623 -0.0106153805
000020 20 ce 56 bb 5e ce 0e 3b fa c3 58 ba 6e a6 04 bb
       -0.0032776669 0.0021790485 -0.0008268949 -0.0020240801
000030 95 e3 5f bb 09 6a d6 bb 33 9e a9 ba 72 59 f0 3b
       -0.003416275 -0.006543402 -0.0012940824 0.0073348815
000040 cc bc cd 3b ec f4 a5 bc 40 b8 d3 3b 0c 50 4d 3c
       0.00627861 -0.02025839 0.0064611733 0.012531292
000050 11 56 fd 38 f5 dc ce 3a ee c4 8b 3a 9f 32 95 bc
       0.00012080011 0.0015782403 0.0010663548 -0.018212615
000060 ca 2c 41 3a c7 3f cf bb 79 3c c5 bb 1f 64 96 bc
       0.000736904 -0.0063247415 -0.006019172 -0.018358288
000070 06 8a c6 bb 44 e6 b5 bb 89 e0 c0 bb e2 a3 98 bb
       -0.006058934 -0.0055511314 -0.0058861417 -0.004658208
000080 a9 47 47 bc 15 56 c7 bb 07 77 e0 3b 41 6f 7d bc
       -0.012163081 -0.00608326 0.0068501267 -0.0154684195
000090 f2 a5 c9 b7 8e 12 4b bc 40 ae 0c bc 48 68 0e bc
       -2.4038342e-05 -0.0123945605 -0.008586466 -0.008691855
0000a0 21 4d eb ba df 9b fb 3b 06 29 f9 bb a8 84 f1 3a
       -0.0017952063 0.0076784934 -0.0076037673 0.0018426375
0000b0 72 9c 34 bc 8e 07 fa 3b a6 51 85 bb 58 21 c5 ba
       -0.011023628 0.007630295 -0.004068571 -0.0015039844
0000c0 7f 3c 73 3a bf e3 82 bc 0f ea 3a 3c 96 87 55 3b
       0.0009278729 -0.015977738 0.011408343 0.0032582036
0000d0 a2 cc 81 bc f9 74 15 3c 29 79 9b 3a 38 23 85 bb
       -0.015844647 0.009122127 0.001186167 -0.0040630363
0000e0 06 b6 e2 ba ff d4 74 bc a6 e7 d1 3b 87 38 7c bb
       -0.0017296679 -0.01494336 0.0064057885 -0.0038485841
0000f0 f1 07 bd 3a d5 f2 80 bb fe ca c6 3b 45 9e 0d bb
       0.0014421922 -0.003935198 0.006066679 -0.0021609229
000100 38 36 49 3c ae 84 8e 3b 0c 66 ea 38 8d 04 ea ba
       0.012280993 0.0043493127 0.00011176997 -0.001785414
000110 32 b7 52 bc 29 6f 21 bb d9 52 80 bb dd 63 19 bb
       -0.01286106 -0.0024632907 -0.003916126 -0.002340547
000120 c7 a8 1e bc 5b 43 08 bc 0e a5 71 bb 9c e8 bb bb
       -0.009683794 -0.00831684 -0.0036872062 -0.0057345163
000130 8e 15 dc bc 17 3a 0d 3b 4b 1e e2 bb 43 3d 8d bc
       -0.026865747 0.0021549517 -0.006900584 -0.017241126
000140 e7 5f 08 bc 95 09 eb bb 7c 85 04 bc dc 3f 3b ba
       -0.008323646 -0.007172773 -0.008088466 -0.00071429997
000150 65 3a d1 bc c5 98 a8 3a 96 7a 12 3c 7c f9 65 3b
       -0.02554054 0.0012862912 0.00894036 0.0035091331
000160 31 97 88 bc b9 ee 92 bb 34 95 65 bb 5f 2a 0d bc
       -0.016673656 -0.0044840244 -0.003503156 -0.008616059
000170 1c 18 af 3b c2 15 4c bb af c3 30 3b 1a 43 88 3b
       0.0053434502 -0.0031140898 0.0026972105 0.0041583898
000180 b3 ae 43 bc 7d fe 16 bc 5b 27 c7 bb df 45 88 3b
       -0.011943507 -0.009215948 -0.0060776896 0.00415872
000190 99 03 10 3c 76 72 07 bc 51 20 58 bb 6d 00 34 3c
       0.00878992 -0.008267036 -0.0032978246 0.01098643
0001a0 4e 65 7f bb 28 cc 72 bb a4 a7 02 b7 40 23 0d 3c
       -0.0038970294 -0.0037047956 -7.787636e-06 0.008614361
0001b0 b3 84 2b bc 12 cd 46 bb 96 16 23 39 b3 7d 5b bc
       -0.01046865 -0.0030334634 0.00015553305 -0.013396668
0001c0 fa b2 0a bc e5 8a 93 bc c4 23 96 39 9e 94 9d bb
       -0.008465523 -0.018010566 0.00028636877 -0.0048089763
0001d0 0f 08 f2 3a 9d 9f 4e bc d4 f5 24 bc fb 82 e8 ba
       0.0018465536 -0.012611297 -0.010068376 -0.001773923
0001e0 b1 8a 07 bc 46 f0 11 bb 80 c9 75 b5 fb 7d 7c bc
       -0.008272813 -0.0022268458 -9.1562833e-07 -0.015410895
0001f0 83 f1 1c bc d8 7d 70 bb 9a 46 5e bc 52 16 9a 3c
       -0.009579065 -0.0036696102 -0.013566637 0.018809471
000200 50 42 4d bd db eb 2c 3a d5 4c 98 bb 6e cb e1 bb
       -0.05011207 0.00065964245 -0.004647831 -0.006890706
000210 b8 aa 12 37 de 38 93 bb ec 1b 3a 3c 43 1d cf 3b
       8.742027e-06 -0.004492863 0.011359196 0.006320627
000220 4a 8e 1d bc d1 58 7a bb 07 f6 5f bc 03 ab 2b 3c
       -0.009616444 -0.0038199911 -0.013669497 0.010477784
000230 a1 d4 58 bc 9d fb 5c 3b 4b f4 4f 3b e8 35 91 bb
       -0.013234288 0.003371931 0.0031731303 -0.004431475
000240 dd e2 98 3b 97 b1 c0 bc eb 6d bd 3b 76 42 66 3b
       0.004665716 -0.023522181 0.0057809255 0.0035134829
000250 bc d2 68 bb 2b 0d eb bb 4a 98 18 bc 87 fd 88 bb
       -0.0035525998 -0.0071732006 -0.009313652 -0.0041806134
000260 00 a2 9f bb 92 c6 b5 bb 9c 2b 46 bc 69 8f 0d 3c
       -0.004871607 -0.005547353 -0.012095358 0.008640149
000270 6a 73 6c 39 2f 2d 93 ba 5e 4a cb 3a f3 f8 07 3c
       0.00022549709 -0.0011228676 0.0015509834 0.0082991
000280 3f b4 d6 3b ec 7e 55 3c 7c f0 8a 3b ed c6 bf 3b
       0.0065522487 0.013030749 0.0042400938 0.005852571
000290 ed 3e 25 bb b4 20 fa bb 4a f0 1f bc aa 8a a0 3b
       -0.0025214509 -0.007633293 -0.009761879 0.0048993425
0002a0 23 55 24 bb bb 36 53 bc d6 db 40 bb 99 9f b3 3b
       -0.002507516 -0.012891467 -0.0029427907 0.005481672
0002b0 fa 57 94 bb 4b f1 56 3c db d9 ec bb 1d 0a 01 3b
       -0.004527089 0.013119052 -0.007228119 0.0019689866
0002c0 71 e8 65 3b 06 df 4f 3b 00 7d 1e bc 9f cd 11 bc
       0.0035081173 0.0031718626 -0.009673357 -0.008899122
0002d0 e6 d3 8e b9 03 03 c7 ba 6e fe 73 bc 06 13 fd bb
       -0.00027242227 -0.0015183393 -0.014892204 -0.007723215
0002e0 96 d3 9b 3a bc 36 c9 3b 37 f0 50 3c 45 b1 17 bc
       0.0011888619 0.006140558 0.012752584 -0.009258573
0002f0 c2 68 e4 ba d5 78 dd bc 5b 6a 8b bb 71 69 27 bc
       -0.001742624 -0.027035156 -0.004254622 -0.01021801
000300 c8 31 d6 3c cf 3c 06 bc d0 05 fb 3b 88 7a 35 3b
       0.026146784 -0.008193209 0.007660605 0.0027691443
000310 e5 f2 ee 3b c6 ae 14 3b ef c6 d4 bc 2b 69 51 bc
       0.007292139 0.002268718 -0.025973765 -0.012781422
000320 32 8e db bb 8e 63 0c bb 8e 8f 8c bb 6d 8b 2b bc
       -0.0067003006 -0.0021421644 -0.004289574 -0.010470253
000330 f4 ac 84 bc ad 28 ae bb 14 3b 34 3c 89 84 cd bb
       -0.016195752 -0.0053149075 0.011000413 -0.006271903
000340 f4 49 46 bc e3 77 b9 ba 7d 3f 81 bb db 5c 01 bb
       -0.012102593 -0.0014150109 -0.003944336 -0.0019739184
000350 a8 62 3b b9 94 5d 9d 3b a2 33 da b7 98 ef f5 bb
       -0.00017870462 0.004802415 -2.6011669e-05 -0.0075053684
000360 fa 09 15 3c bd 8f 89 bb 55 59 ea 3b 08 a9 92 bc
       0.009096617 -0.004198043 0.0071517625 -0.017902866
000370 1b 44 b0 bb 8e e3 2d bb e8 bf 80 bc e5 5d 92 ba
       -0.0053792126 -0.0026533338 -0.015716508 -0.0011166899
000380 aa a0 be bb ab e9 69 bc 14 26 8e 3b 21 4c 41 bb
       -0.0058174925 -0.014276902 0.0043380354 -0.002949484
000390 7f bf 3b bc 23 f5 d2 3b 8b 0f 93 bb f1 b7 8e 3b
       -0.01145923 0.006437914 -0.004487937 0.0043554236
0003a0 db d7 5c 3a a2 e8 9d bc de b4 bd bb ae 6c 12 bc
       0.0008424499 -0.019275967 -0.0057893833 -0.008937044
0003b0 79 44 2e ba e6 28 c8 3b ea ed db 3b 72 8d be bc
       -0.00066477765 0.006108391 0.006711711 -0.023260806
0003c0 7e f3 ed bb 2b 33 89 3c 42 54 54 3b a4 c7 c0 b8
       -0.0072616925 0.016748032 0.0032398854 -9.1924594e-05
0003d0 9d cf c0 3a 9d 60 b4 3a d4 01 e5 3a ef 7e c0 bc
       0.0014710311 0.0013761703 0.0017471858 -0.023498027
0003e0 79 57 01 bc cc 3f 39 3a 57 66 f0 bb 02 fe 32 3a
       -0.00789439 0.00070666964 -0.0073364186 0.0006828011
0003f0 b8 02 21 3b 3a 87 68 bc ac 6e 03 bc ec d7 af 3b
       0.002456827 -0.014192397 -0.008021992 0.005366316

network_body._body_endoder.seq_layers.2.weight f4 [256, 256]
000000 57 2e 8f bc f4 aa 0a 3d 25 f1 54 3d a7 ae 47 bd
       -0.017478151 0.03385444 0.051987786 -0.048750546
000010 8a 0a d1 ba b0 4d 29 bd 3c 15 50 bd 35 5a 9e bd
       -0.0015948575 -0.041333854 -0.0508015 -0.077320494
000020 81 d2 94 3d 12 d4 0c 3e ec 2a ac 3d 4c 8c 22 bd
       0.07266713 0.13752773 0.08406624 -0.03968458
000030 0b c8 6f 3b 4b 51 1f 3c ca bb 98 bc bc 11 bb 3c
       0.003658774 0.009723972 -0.018644232 0.022835605
000040 14 f4 23 bc 50 c5 2a bc 45 76 a8 3c 93 02 ee bc
       -0.010006923 -0.0104230195 0.020564208 -0.029053962
000050 93 82 fd bc 83 2c 9f 3d ba 6a 87 bd 72 54 92 3d
       -0.030946052 0.07772162 -0.06612153 0.07145013
000060 16 e4 c2 bd 1b 8c 2a 3d 70 c1 bd bd 75 26 5d 3d
       -0.0951616 0.04163752 -0.09265411 0.053991754
000070 66 4e db bd b1 35 99 bd a0 b5 c7 bd 94 f4 95 3d
       -0.10708313 -0.07480944 -0.09751439 0.0732204
000080 4c 1b 2d 3d 9c 49 f5 3c 73 e9 02 3d af 8e 18 bc
       0.04226236 0.029942326 0.031960916 -0.009311362
000090 f5 44 9d bc 17 72 75 3d 39 57 e9 3d c0 8e 4c 3d
       -0.01919792 0.059923258 0.113935895 0.049940825
0000a0 d8 8a 0e be 3a 1b 4f 3d 57 5a 0e bd d9 ae 9b bd
       -0.13920152 0.050563075 -0.034754124 -0.07601709
0000b0 1e 35 1f 3a d7 b3 6a bd be 17 7a bb 4e 11 4e 3d
       0.0006073284 -0.057300415 -0.0038161124 0.05030947
0000c0 56 36 a3 bc 16 7a 02 3d a1 8f 8d 3d f9 05 a8 3d
       -0.01992337 0.03185471 0.06912161 0.08204264
0000d0 a5 0c 2d bd 1a 1b e3 bc 6c 58 8e 3d 01 ae 60 bc
       -0.042248387 -0.027722884 0.06950459 -0.013713361
0000e0 74 2c 1e bd 72 33 a3 3c a3 ab ab 3c 02 f7 d1 bb
       -0.038616613 0.019921992 0.020955866 -0.0064076195
0000f0 e8 d3 eb 3c 28 81 38 3d 20 8a 97 bd b0 c4 0d 3e
       0.028787568 0.045045048 -0.07399392 0.13844562
000100 a3 c7 d3 bc 68 d7 4a bd f7 33 6a bc 27 11 97 3c
       -0.02585203 -0.049521834 -0.014294616 0.018440796
000110 13 9c 85 bd 04 5e 8c bc 9b 93 dc 3c ea 3e 30 3d
       -0.065239094 -0.017134674 0.026925853 0.04302875
000120 dc 67 db 3d ff 90 66 3c a5 60 6c bc 86 94 ee 3c
       0.10713169 0.014072656 -0.014427339 0.029123556
000130 01 fe 73 3d 4d bb c0 bc c6 93 db bc 67 0f aa bb
       0.05956841 -0.023526812 -0.026803862 -0.0051898244
000140 4b 14 ec 3b 38 51 5f bc 4e ce 49 3d 03 d9 75 3c
       0.0072045675 -0.013630204 0.049269013 0.015005353
000150 3e cc 47 3d 54 d8 43 3d 0b 45 05 3c 92 2a 72 3d
       0.048778765 0.04781373 0.008134137 0.05912263
000160 a3 b4 7d 3d e9 e2 6c bd b3 95 09 3d 83 bc 31 3d
       0.061939847 -0.057833586 0.03359003 0.04339267
000170 9b 9f d3 3d a6 d0 c4 3c 76 9d 88 3d e3 c5 28 3e
       0.10333177 0.024025273 0.06670658 0.16481738
000180 af a4 b7 3d 35 f0 20 bd 66 93 1f 3d fb 72 c9 bc
       0.08966958 -0.03929158 0.03895893 -0.02459096
000190 22 84 1b 3d b9 29 0c be 5a c1 70 bd 77 5f 01 be
       0.03796781 -0.13687791 -0.058778144 -0.12634073
0001a0 ad fb a8 bd 18 9e c8 3c 3e eb e9 3c 94 7e e9 3c
       -0.08251128 0.024489447 0.028554555 0.02850274
0001b0 a2 fd 0b 3d 59 c5 c5 bb b1 11 a6 3a e7 16 14 bd
       0.03417743 -0.0060354886 0.0012670067 -0.036154654
0001c0 20 47 42 bc 5e 24 1b bc de 6b 8e 3c 8d 5e 8a bd
       -0.011857778 -0.00946912 0.01738542 -0.067563154
0001d0 79 95 6e bd 4b c8 63 bd e5 cc 4f bd ce ba 34 bd
       -0.058248017 -0.055610936 -0.050732512 -0.044123463
0001e0 a1 5f 5d 3d b2 03 99 bc c0 85 82 3d fc 8b 40 3b
       0.054046277 -0.01867852 0.06373167 0.0029380312
0001f0 d5 dd 1f bb 96 0b a7 bb 2e 44 7d 3d 66 c9 dc 3c
       -0.0024393697 -0.0050978167 0.0618326 0.026951503
000200 3f 4a 9f 3d d9 a0 c0 3b fb d0 7a 3d 9c 41 6b 3d
       0.07777833 0.0058785495 0.061234456 0.057435617
000210 4c 27 64 bd 34 eb 8e 3d 8b b6 4e bd 6c 6f 37 bd
       -0.05570154 0.06978455 -0.050467055 -0.044783995
000220 72 c5 2b 3c 60 68 48 bd db 56 98 3d cb 4d 0e bd
       0.010484086 -0.048927665 0.07438441 -0.034742158
000230 93 1d a8 3c fd ec a7 3b 78 da 03 3c 0c dc 1d 3d
       0.020521915 0.0051246868 0.0080476925 0.03853993
000240 50 01 63 3d e7 d1 38 3d 89 48 3a 3e f0 c5 54 bd
       0.055421174 0.045122053 0.18191732 -0.05194658
000250 ea e2 36 b8 d2 7c a8 3c 31 5c 63 bd 0b 46 93 3b
       -4.360351e-05 0.020567331 -0.055507842 0.0044944338
000260 a0 8f ac 3b e0 b1 03 3b cb d6 f1 3c f1 ed 3b 3c
       0.005266145 0.0020095035 0.029521367 0.011470304
000270 88 39 7e 3d 75 db 39 bd 53 f6 c4 3c eb 77 24 bd
       0.062066585 -0.045375306 0.024043238 -0.040153425
000280 9d fb b0 bc 2b 09 d5 bc 06 cf 00 3d cb 79 e5 bd
       -0.021604354 -0.026005348 0.031447433 -0.11204871
000290 b7 c1 c6 3c a0 b4 b9 3d 63 8e 1b bc 14 dc 63 3c
       0.024262292 0.090676546 -0.009494397 0.013907451
0002a0 29 f6 80 bd ac e2 10 bd 73 3c c1 bb b5 f9 2c 3d
       -0.06296951 -0.03537242 -0.0058970987 0.042230327
0002b0 b1 94 6a bc be 6f 03 3d 95 0d 8d bc e3 cb ae bc
       -0.014317677 0.032088988 -0.01721839 -0.021337455
0002c0 19 3a 2e 3e 7d a6 45 bd 27 dd 84 bd d3 c0 16 bd
       0.1701435 -0.04825448 -0.06487494 -0.036804985
0002d0 c5 89 27 bd 97 b0 e6 bd 85 65 b5 3c 21 74 95 bd
       -0.04090287 -0.112641506 0.022143135 -0.072975405
0002e0 5a ad e7 bc 94 52 2a bc 66 73 cf bd 1f 61 95 3d
       -0.028280903 -0.010395665 -0.101294324 0.07293915
0002f0 ac 4c 5d 3d 65 e6 d1 bd b4 28 2f bd 84 87 16 3d
       0.054028198 -0.102490224 -0.042763427 0.03675033
000300 6b 22 da 39 cc b4 3b bd 89 68 4f 3d ef e4 0a bd
       0.00041605844 -0.04582672 0.050636802 -0.033909734
000310 25 06 5c bd 01 dd b1 3d 78 c7 cb bc 8f 61 fc 3b
       -0.053716797 0.08684731 -0.024875388 0.0077020596
000320 85 ce ad bc b8 4e a8 3d d1 3f 63 bd 1a 61 f6 3c
       -0.02121664 0.082181394 -0.055480782 0.030075599
000330 8c 4b 5b bd 75 94 19 3d a0 74 bd bc fa 1a 62 bd
       -0.053538844 0.037495095 -0.0231269 -0.055201508
000340 59 3e 0e bd 04 c2 48 3d 6f b0 5f 3d a8 d2 88 3c
       -0.034727428 0.049013153 0.05461162 0.016702011
000350 7d 8b 53 3d e5 59 16 3e f9 21 3c bd a0 fc bc bd
       0.0516467 0.1468273 -0.045930836 -0.09227872
000360 76 fc 4b 3d a5 dc 91 3d b7 d0 07 be c6 f5 fb bb
       0.049801312 0.07122163 -0.13263212 -0.0076892106
000370 7b f7 50 3c 36 0f 6c 3d 23 c6 64 bd 93 2f 6c 3c
       0.012754316 0.057631694 -0.05585302 0.014415639
000380 50 3f 64 bd e5 8d 2f 3d d0 1d 8d bd 6c 6c 60 3c
       -0.055724442 0.04285993 -0.06890452 0.013697725
000390 5e 09 eb 3d de e3 2b bd 04 e7 72 3c d8 d8 78 bd
       0.11476396 -0.041965358 0.014825586 -0.060753673
0003a0 4e bc 9d 3d ab 31 28 3d 28 76 34 bd d9 2c 07 bc
       0.07701932 0.041062992 -0.044057995 -0.008250439
0003b0 db 4d 81 3d e3 df 46 3d 4c d5 cc bd a0 c1 2e bd
       0.06313678 0.04855336 -0.10001621 -0.042665124
0003c0 78 18 c8 bc e4 b3 0e 3d a3 0f fe bb b5 60 65 bd
       -0.02442573 0.034839526 -0.007753329 -0.05600043
0003d0 69 61 4a 3d 50 5a 2b 3d 84 64 15 bd c1 4c 74 3d
       0.049409304 0.041834176 -0.036472812 0.05964351
0003e0 fa cc c2 3b cd 6b 3f bd 53 6b 77 bd a5 f9 23 bd
       0.0059448453 -0.046733666 -0.060405087 -0.040033
0003f0 09 31 fe 3b d7 51 ad bd c1 bd 7e 3d e1 cc 39 bc
       0.0077573103 -0.08462875 0.062192682 -0.011340351

network_body._body_endoder.seq_layers.4.bias f4 [256]
000000 cc cb 03 3c 95 e6 ce bc b0 31 b0 bc 02 54 9e bc
       0.008044194 -0.025256434 -0.021508068 -0.019327167
000010 dc d9 12 3a 06 64 06 bc 47 79 b5 bc 38 7f 97 bc
       0.00056019216 -0.008202558 -0.022152556 -0.01849328
000020 ff 03 e8 3b 5c 80 97 bc 44 b2 90 bc d4 c2 7e bc
       0.0070805545 -0.018493824 -0.017663129 -0.01554938
000030 19 31 4a 3c 82 82 88 bc e7 e5 be 3b 8f ab 39 ba
       0.012340807 -0.016663793 0.0058257463 -0.0007082754
000040 53 22 e4 bc dc 31 ba bc a6 d1 89 bc 86 05 5a 3b
       -0.027848398 -0.022728853 -0.016823601 0.0033267452
000050 8a bb 96 bc a6 c4 a8 bc 92 84 2b bc b5 94 d9 3b
       -0.018399972 -0.020601582 -0.010468619 0.0066400417
000060 d4 50 cf 3b 69 a2 80 bc 64 55 03 3c 18 83 43 bc
       0.006326774 -0.015702443 0.008015964 -0.011933111
000070 73 18 76 bc 10 89 38 3c 17 89 53 3c 40 b7 1e 3c
       -0.015020478 0.011263147 0.012911103 0.009687245
000080 ab fe 12 bc 3a d5 b4 ba 2a 2c 90 3c d7 67 5f bb
       -0.00897185 -0.0013796457 0.017599184 -0.0034088993
000090 35 8d 65 bc 78 64 fe 3b 20 c0 3a 3c 38 d8 35 3c
       -0.014010717 0.0077634417 0.011398345 0.011098914
0000a0 fa 0c 3f 3a af 12 61 bc dd 99 10 bc 9f f8 11 3b
       0.00072880054 -0.013737365 -0.008825746 0.0022273434
0000b0 39 b6 21 3c 19 99 7c bc 10 3b 26 3c cf 8e c4 bc
       0.009870105 -0.015417361 0.010145918 -0.023993878
0000c0 2f 31 92 bc aa ed 4f bc 80 29 71 3a 45 dc e6 3b
       -0.017845718 -0.012690941 0.00091996044 0.007045301
0000d0 63 b0 06 bb c5 19 79 3b 00 3c 64 39 e7 9a 5b bc
       -0.0020551912 0.0038009745 0.00021766126 -0.013403631
0000e0 62 33 80 bc a9 f5 22 bc db 44 66 bc 85 02 36 bc
       -0.015649501 -0.009946265 -0.014054502 -0.011108999
0000f0 75 4f db bb 27 c0 85 bc cf 84 83 bc b1 d4 32 3c
       -0.0066928216 -0.016326977 -0.016054539 0.010914967
000100 21 79 c8 ba 3a a0 4d 3c 8f ba 32 3c 31 71 76 bc
       -0.0015294888 0.012550408 0.010908737 -0.015041635
000110 2d 97 a8 bc 25 27 b9 bc 5a 70 56 bc 21 e3 72 bc
       -0.020579899 -0.022601673 -0.01308831 -0.01482466
000120 4b be 1a bc 60 35 95 bc 80 65 85 ba 8c 0a 87 bc
       -0.009444783 -0.018213928 -0.0010177344 -0.016484521
000130 15 d9 04 bc ec 93 13 3c 3d 12 60 3c 10 ba 69 bc
       -0.008108397 0.009007435 0.013676223 -0.014265552
000140 b5 9c 79 3c 02 ca b3 ba 7e da 89 bc 82 70 a0 bc
       0.015235116 -0.0013716819 -0.016827818 -0.019584898
000150 76 c2 d1 bb f7 69 ae bc 09 d6 45 3c f4 3c 90 bc
       -0.0064013554 -0.021290762 0.012074956 -0.01760719
000160 2c 55 0a 3b b4 14 e0 bb b7 e3 83 bb c2 cb ac bc
       0.0021107895 -0.0068384055 -0.0040249485 -0.021093253
000170 88 58 be bc 66 c6 cc 3b 4a b8 9a bc 8d 1f d6 bb
       -0.023235574 0.006249237 -0.018886704 -0.006534523
000180 0a 7f ae bc 7a de 74 bc d2 e2 d8 3b ae b8 1d bc
       -0.021300811 -0.014945621 0.006618836 -0.009626551
000190 f7 14 40 bb 5d ae ae bc 2c fd 39 bc 8e 55 78 3c
       -0.002930937 -0.021323377 -0.011351865 0.015157117
0001a0 fc 83 9e 3b 53 94 8d bc 38 51 ea 3b 9c 2d 3f ba
       0.004837511 -0.01728264 0.0071507953 -0.0007292868
0001b0 b1 dc 26 3b 6a 2a 18 3c a6 38 a4 bb 4d 26 36 bc
       0.0025461132 0.009287456 -0.005011636 -0.01111753
0001c0 62 9b 64 3c ab 11 e6 bc b3 39 ef bb 9a fe 04 3c
       0.013953062 -0.028084597 -0.0073005795 0.008117342
0001d0 e9 9c 9e bc a0 57 b8 bc e1 1f 5f bb 8f 05 78 3b
       -0.01936193 -0.02250272 -0.00340461 0.003784511
0001e0 79 71 cc bc 9e 36 5a bc 93 46 4f bb f0 1c 49 3c
       -0.024956452 -0.013318686 -0.003162776 0.012274966
0001f0 0f b4 65 bc 9a 74 75 bc a7 ce 9c bc af 4a 15 bc
       -0.01401998 -0.014981413 -0.019141508 -0.009112044
000200 74 bb d3 ba c0 22 2a 3c 7f 2c 15 bb 84 ca aa bc
       -0.0016153888 0.010384262 -0.0022762117 -0.02084852
000210 15 66 42 3c 67 d5 aa bc 79 9b 36 3c 91 ec 16 3c
       0.011865159 -0.020853711 0.011145466 0.009211675
000220 dc cd a9 bb 00 96 0b 3c 07 ea 28 3a 44 ff 44 3c
       -0.005182011 0.0085196495 0.0006443564 0.012023751
000230 81 ab 8f bc a5 3a 07 bc 30 a5 f8 bb 5f 8a 9d 3b
       -0.017537834 -0.008253728 -0.0075880513 0.004807755
000240 7b 60 96 bc cf 3d 75 bb df 10 70 bc 4c b6 7b bc
       -0.018356552 -0.0037420874 -0.01465246 -0.015363287
000250 4e 81 c9 bc 26 a7 7c 39 3d 57 f9 3b 8a df 37 3c
       -0.02459779 0.0002409486 0.0076092766 0.011222729
000260 15 fb 8b bc f9 e8 ee 3b 62 1e 22 bb c5 d6 42 bb
       -0.017087499 0.007290956 -0.0024737348 -0.0029730063
000270 02 ac e1 3b 1e cb 88 3c c1 85 36 3c 0c 10 42 3c
       0.00688696 0.016698416 0.011140288 0.011844646
000280 fa e4 ce 38 c7 ba ce bb 04 72 36 bc 44 fc 7b 3c
       9.865496e-05 -0.0063088867 -0.011135582 0.015379969
000290 82 49 22 3c b1 2c c7 3a 76 5f 60 39 09 42 72 3c
       0.009905221 0.0015195814 0.00021397867 0.014786252
0002a0 54 22 73 bc 8d 79 14 3c 8f f4 53 bc f4 4b 53 bc
       -0.014839727 0.009062183 -0.012936725 -0.012896527
0002b0 6c 1f 51 3c fe f4 a0 bc dc ce 70 bc dc 65 b0 bc
       0.012763839 -0.019648071 -0.014697757 -0.021532945
0002c0 4c d0 b7 3b 92 74 f7 bb 49 20 94 bb ab 7d 04 3b
       0.0056095477 -0.007551738 -0.0045204503 0.0020216506
0002d0 b6 35 18 bc f7 2e 92 bc 41 f8 2f bb 5e 68 b7 bc
       -0.009290149 -0.01784466 -0.0026850852 -0.022388633
0002e0 ba 4d 36 3c 61 66 36 3c 6d c0 74 bc d8 5a a7 bc
       0.01112693 0.0111328075 -0.014938456 -0.02042906
0002f0 f1 4f 3f bc 6f fa de 3b a8 3f 11 3c cb 76 81 3b
       -0.011676774 0.0068047564 0.0088652745 0.003950929
000300 0b b2 b8 bb 54 d8 0c 3c 37 ef 48 bb 0b 0f 24 3c
       -0.0056364588 0.0085964985 -0.0030660161 0.010013352
000310 19 d6 80 3b d2 f8 51 bb 16 ef 0b bc 7d f7 8a bc
       0.0039317724 -0.0032039178 -0.008540889 -0.016963715
000320 d9 66 54 3c b4 5a 5b 3c cf fa 5b 3c 62 17 21 3c
       0.012963974 0.0133883245 0.013426497 0.009832235
000330 95 73 7b bc 75 a1 4b bb 8f 5d 94 bc c2 5c 93 bb
       -0.015347381 -0.0031071578 -0.018111018 -0.0044971416
000340 84 51 9f bc be 55 14 3a eb 4e c6 bc 49 54 a9 bc
       -0.01944805 0.00056585285 -0.024207553 -0.020670073
000350 a4 8f 19 3c a6 c3 26 3c 54 ac b0 bc 66 ce 0d bc
       0.0093726255 0.010178482 -0.021566547 -0.008655166
000360 f6 61 20 bb 5a e8 ba bc 73 af a6 3b de 92 26 3c
       -0.0024472452 -0.022815872 0.005086833 0.010166852
000370 a4 95 af 3b 21 ed 88 bc a7 39 90 3c 1c 87 8a 3a
       0.0053584147 -0.016714634 0.017605616 0.001056883
000380 62 b3 b3 3a 13 ba 51 3c d0 15 5a bc 55 82 5e bc
       0.0013710076 0.012800711 -0.013310865 -0.013580878
000390 a5 24 9b 3b 3f b1 1f 3c 7f df 11 bb 89 09 7c b9
       0.004734593 0.009746849 -0.0022258458 -0.00024036145
0003a0 e4 02 f4 b8 dc f6 31 bc 74 f7 e2 bc 77 c2 f7 3b
       -0.00011635365 -0.0108620785 -0.027705885 0.007561024
0003b0 fc 5e 2f 3c e2 08 49 3c 23 72 96 bc 15 3e 28 3c
       0.010703798 0.012270184 -0.018364972 0.010268708
0003c0 82 66 93 bb c6 19 8a bc e3 ad be bc 18 73 12 bb
       -0.004498304 -0.016857993 -0.023276275 -0.0022346433
0003d0 37 0e 28 3a 37 96 fd 3b 6b 40 23 3c a9 ff 8e bc
       0.00064108096 0.0077388543 0.009964089 -0.017455893
0003e0 52 5f 8d 3c e9 6a c8 bc 1e 70 5b bc 25 56 32 bc
       0.017257366 -0.024465041 -0.01339343 -0.010884796
0003f0 be 6d 5e bc ff 3b e8 3b 81 6e 4b bb e6 94 b0 bc
       -0.013575969 0.00708723 -0.0031041207 -0.021555375
