Assets/Training/results/track2_learned/config_track2/config_track2-1499947.onnx (onnx, 600385 bytes, 9 tensors)

action_model._continuous_distribution.log_sigma f4 [1, 2]
-0.24422212 -0.6530422
00000000: 5d15 7abe c62d 27bf

action_model._continuous_distribution.mu.bias f4 [2]
0.03276801 -0.0005190471
00000000: c037 063d a910 08ba

action_model._continuous_distribution.mu.weight f4 [2, 256]
0.02863897 -0.007485277 -0.032673936 -0.035440214 -0.019321864 -0.017414324 -0.046210475 -0.016424302
0.01626758 -0.025873713 -0.046034906 0.0026512283 -0.011361398 -0.02592159 0.027822422 -0.0009892624
-0.040858798 -0.038708273 -0.018212501 0.009726853 -0.047003627 -0.00068787346 0.0031169862 0.018640047
-0.066271275 -0.016839515 -0.03906177 -0.05071043 -0.016980369 0.0072040414 -0.007605256 0.018092386
-0.03687663 0.015447407 0.0037769407 0.0034520007 -0.020493211 0.0009048006 0.021189049 0.029193087
-0.052830625 -0.008508987 -0.0037445535 -0.001165295 0.027819062 -0.029698491 0.013480006 -0.05215793
-0.045568395 -0.017089862 0.012527675 -0.0057094754 -0.004805558 -0.0031074237 -0.001757591 -0.0165522
0.00469521 -0.025815072 -0.032204613 -0.003047713 -0.040032327 -0.0066776294 -0.04281411 -0.008086407
0.028922386 0.0060264003 0.020567773 -0.025330255 -0.028230397 -0.03199392 -0.008140555 -0.041316826
-0.03283543 -0.03855483 -8.7875014e-05 -0.030307895 -0.010809342 0.028322231 0.04395266 -0.018617304
0.018851954 0.0036858348 -0.02735249 -0.012080771 0.0022027374 -0.049291853 -0.005228287 -0.046967924
-0.00044478363 -0.06084061 -9.327865e-05 -0.034800682 -0.030894015 0.02752385 0.0027408109 -0.014077635
-0.0635123 0.007819709 0.030229224 -0.018579032 -0.033530675 -0.04635562 -0.0029938526 0.012919873
0.0039242213 -0.037620034 0.017409336 -0.0015696643 0.0009337662 0.030635888 -0.012606778 -0.050214823
0.028028855 -0.044394616 -0.0051527927 0.02166184 -0.013763143 -0.0269886 0.0032744661 -0.0014486414
-0.038475834 -0.006044361 0.005867263 0.037410054 -0.017395275 -0.07643472 -0.0065229507 -0.029322403
0.006856112 0.025463216 -0.03334181 -0.04801977 0.0096765235 -0.01732152 0.016523143 -0.00030855136
-0.015452082 0.022504283 -0.019364037 0.030181479 -0.02121991 0.0007476014 -0.0043511763 -0.0025254502
-0.02569084 -0.061888818 -0.010545692 0.00539337 -0.019323358 -0.0059972205 -0.02604143 -0.00358206
-0.043815043 0.021017587 -0.060112946 -0.0034115873 -0.013287808 0.00826278 -0.0008449791 -0.016777549
-0.0047382507 0.0054483702 -0.00091212505 0.0036001622 0.02635868 0.0034531858 0.0014543121 0.0020007708
-0.018652145 0.02625511 -0.0501218 -0.026483513 -0.006661321 -0.044948842 -0.041462027 -0.020226361
-0.0067220833 0.000765066 0.00945723 -0.034804355 -0.01537628 -0.0068944185 -0.0038343035 -0.02469969
0.025179261 -0.004702674 -0.024873478 -0.046036676 0.001262887 -0.005387802 0.010516912 0.00012081865
-0.058761563 -0.0022074084 -0.0024574015 0.017852804 0.021536265 0.0012879682 6.2503335e-05 -0.0510146
0.021094255 0.027792271 0.0055964007 0.013274081 -0.0048127123 -0.015616228 -0.06595091 0.012992472
-0.015627194 -0.03591084 -0.043719135 -0.053860202 0.020276362 0.027119795 -0.002152394 -0.014318457
-0.00064822985 -0.016410923 -0.0146796815 0.019363243 0.01872903 0.02752809 -0.022029812 -0.0063366387
-0.018075 0.019336648 -0.030885825 -0.03754517 0.007048611 -1.3757703e-05 -0.009825612 -0.0059257434
-0.020207867 0.014825285 -0.044533387 0.00085157773 0.024827175 0.028744807 -0.04633072 0.030183969
-0.026685912 -0.042723544 -0.033619694 -0.042081133 0.0054791677 0.013234929 0.013594246 -0.02672208
0.025419654 -0.018323278 -0.022525283 -0.04235554 -0.03551186 0.018868469 -0.0621998 -0.042331133
00000000: 469c ea3c 0e47 f5bb 1bd5 05bd c229 11bd
00000010: e348 9ebc 7ca8 8ebc 3247 3dbd 428c 86bc
00000020: 9743 853c 1cf5 d3bc 198f 3cbd 3bc0 2d3b
00000030: 2825 3abc 8459 d4bc d9eb e33c 23aa 81ba
00000040: 8e5b 27bd 918c 1ebd 6232 95bc 615d 1f3c
00000050: e086 40bd 6852 34ba 5a46 4c3b 03b3 983c
00000060: 3cb9 87bd 06f3 89bc 3cff 1fbd bdb5 4fbd
00000070: 6a1a 8bbc e10f ec3b 8335 f9bb 7c36 943c
00000080: f30b 17bd 1f17 7d3c 8d86 773b f63a 623b
00000090: 61e1 a7bc 2430 6d3a a894 ad3c 5726 ef3c
000000a0: ed64 58bd 4769 0bbc 2f67 75bb d0bc 98ba
000000b0: cde4 e33c 404a f3bc 3edb 5c3c 8ea3 55bd
000000c0: eda5 3abd 0a00 8cbc e140 4d3c 8d16 bbbb
000000d0: f177 9dbb eba5 4bbb f85e e6ba 7b98 87bc
000000e0: 47da 993b 217a d3bc fce8 03bd 24bc 47bb
000000f0: f0f8 23bd 04d0 dabb d95d 2fbd d97c 04bc
00000100: a4ee ec3c 1c79 c53b bf7d a83c 6581 cfbc
00000110: 6f43 e7bc 0f0c 03bd f65f 05bc d53b 29bd
00000120: 727e 06bd abeb 1dbd 8a49 b8b8 4348 f8bc
00000130: ab19 31bc 0604 e83c b407 343d 5183 98bc
00000140: 6a6f 9a3c 0c8e 713b 5412 e0bc 6dee 45bc
00000150: cd5b 103b 41e6 49bd 0d52 abbb 7061 40bd
00000160: d931 e9b9 0134 79bd 989e c3b8 298b 0ebd
00000170: 7215 fdbc b279 e13c 2d9f 333b e1a5 66bc
00000180: bd12 82bd 3d1e 003c 47a3 f73c 0e33 98bc
00000190: 7657 09bd 64df 3dbd 8334 44bb e0ad 533c
000001a0: c196 803b 7717 1abd 069e 8e3c 32bd cdba
000001b0: fdc7 743a 1df8 fa3c a98c 4ebc 0fae 4dbd
000001c0: c59c e53c 21d7 35bd c2d8 a8bb 2c74 b13c
000001d0: ce7e 61bc 3217 ddbc 6d98 563b 57e0 bdba
000001e0: d698 1dbd c60f c6bb 2b42 c03b 493b 193d
000001f0: 8980 8ebc ce89 9cbd 7abe d5bb 8935 f0bc
00000200: 3ca9 e03b 3c98 d03c 6c91 08bd 61b0 44bd
00000210: 488a 1e3c dce5 8dbc 8b5b 873c 10c5 a1b9
00000220: bb2a 7dbc e75a b83c 54a1 9ebc 263f f73c
00000230: 60d5 adbc aefa 433a 5094 8ebb 0682 25bb
00000240: 9975 d2bc 217f 7dbd d7c7 2cbc deba b03b
00000250: 054c 9ebc 5584 c4bb d654 d5bc ffc0 6abb
00000260: 6777 33bd 132d ac3c fe38 76bd f094 5fbb
00000270: 1bb5 59bc 9c60 073c 9681 5dba 1271 89bc
00000280: 5443 9bbb 3e88 b23b ad1b 6fba b3f0 6b3b
00000290: 29ee d73c d84e 623b 9e9e be3a 5d1f 033b
000002a0: 62cc 98bc f514 d73c 844c 4dbd f4f3 d8bc
000002b0: 3647 dabb 471c 38bd 16d4 29bd c1b1 a5bc
000002c0: ec44 dcbb b68e 483a 7ff2 1a3c 038f 0ebd
000002d0: cbec 7bbc 93ea e1bb f048 7bbb 0157 cabc
000002e0: bd44 ce3c e418 9abb 77c3 cbbc f490 3cbd
000002f0: 7587 a53a 298c b0bb 204f 2c3c 0560 fd38
00000300: f7af 70bd 2baa 10bb 5b0c 21bb 0b40 923c
00000310: d26c b03c 0bd1 a83a 3914 8338 aff4 50bd
00000320: dccd ac3c 9eac e33c 0362 b73b 887b 593c
00000330: f5b3 9dbb 35db 7fbc 4511 87bd 61de 543c
00000340: 9a04 80bc 3f17 13bd d612 33bd 849c 5cbd
00000350: 9d1a a63c 552a de3c 2e0f 0dbb f697 6abc
00000360: f8ed 29ba 3370 86bc 0c83 70bc aa9f 9e3c
00000370: 9f6d 993c 9782 e13c dd77 b4bc 94a3 cfbb
00000380: 0612 94bc e467 9e3c 4504 fdbc f7c8 19bd
00000390: 09f8 e63b e2d0 66b7 9bfb 20bc bd2c c2bb
000003a0: f88a a5bc c1e5 723c a468 36bd 6a3c 5f3a
000003b0: 5c62 cb3c 3b7a eb3c 48c5 3dbd 5f44 f73c
000003c0: 6a9c dabc e2fe 2ebd ceb4 09bd 445d 2cbd
000003d0: 978a b33b 51d7 583c 66ba 5e3c 43e8 dabc
000003e0: e13c d03c b31a 96bc f186 b8bc 017d 2dbd
000003f0: e274 11bd 0c92 9a3c 38c5 7ebd 6963 2dbd

network_body._body_endoder.seq_layers.0.bias f4 [256]
-0.0016403132 -0.022875419 -0.0028027727 -0.0130078895 0.022677217 -0.0119249 0.00877289 0.024700241
-0.0008089633 -0.00092173275 -0.013589984 0.008214511 -0.025697058 0.02422676 -0.009638169 0.0098311845
-0.0018472174 -0.013289829 0.023212954 -0.011900093 0.0037384229 -0.013190797 0.012994082 0.017845904
-0.0023717051 0.0018296157 -0.008389388 0.0051129465 -0.0015962123 0.034448836 0.0031133112 -0.0054627224
-0.013385879 0.0019103895 -0.034445997 0.021520332 0.016136834 0.014926289 0.0055720857 -0.0042595845
-0.007542902 -0.021791408 -0.00409078 -0.011085625 0.027204368 0.004937358 0.040590644 -0.012310979
-0.011895821 -0.0069424883 0.042428795 -0.01390794 0.00095339876 -0.01585786 -0.006148752 0.0028431998
0.040400892 -0.0011837889 -0.010848373 -0.010720568 -0.0044825226 0.03932651 -0.007244632 -0.010093954
0.014146087 0.03602705 0.01452656 -0.030758685 -0.011626178 0.018533561 0.015567338 0.006108115
-0.008877224 0.00033014957 0.022585683 -0.0066838153 -0.002399613 -0.017870769 -0.010528029 0.00375156
-0.012771619 0.003717277 -0.0053896685 -0.011602208 0.013635384 0.023986056 -0.0009904277 -0.02197454
-0.014735896 0.017498434 -0.0139730135 -0.005691778 0.030373162 -0.013637388 0.00821571 0.009136122
0.002578486 -0.004259305 0.011059347 0.024245726 0.013743464 0.0056719678 0.00855293 -0.0045798523
-0.0032463688 0.03558747 0.0039853198 0.0032939387 0.007816068 -0.02334553 -0.020010598 0.029601045
-0.017450491 -0.0073765265 -0.0033776595 0.0010004989 -0.009256445 -0.00567099 -0.014820662 0.018587973
-0.01340749 -0.0045057186 0.021662418 0.0039059587 -0.010828193 -0.0027474167 0.008512279 -0.026901316
-0.015813252 -0.033292256 0.009254158 -0.019521281 -0.021843184 0.02695518 -0.0024356465 -0.005442241
-0.009950593 -0.028776526 -0.009949205 -0.0068422845 -0.036951646 0.03216784 0.0038607277 0.011924287
-0.010813313 -0.010952748 0.024177233 0.008208656 0.021578863 0.04069414 -0.012839922 0.026361441
-0.0006938622 0.005945694 0.017834693 0.006459892 0.030656222 0.0010904627 -0.021427842 -0.002078637
0.02447272 0.008466202 -0.020030947 -0.0147440005 -2.3022472e-05 -0.0034664003 -0.0074195736 -0.011842235
-0.008977759 -0.012244191 -0.01753496 0.031861182 0.040147677 -0.022988196 -0.02012523 0.019407768
0.005016346 -0.0072010886 -0.00073457725 -0.00345279 0.01615812 0.0072703105 0.011801769 -0.003740522
0.015963256 -0.020826953 0.001255859 0.0021547198 -0.01489149 0.01289739 0.01793448 -0.0041895364
-1.1851731e-05 0.024737507 0.019289227 0.0052303146 0.016989894 0.0045513464 -0.010675411 -0.017804068
0.0047481516 -0.0009861371 0.00051532156 -0.0039793462 -0.0063923304 0.014154815 -0.011732184 -8.385282e-05
-0.015732685 -0.04391444 -0.01168961 -0.0030141724 -0.0061743916 -0.009563352 0.030466527 -0.0139807165
0.008032123 -0.02458403 0.025342658 0.004902574 0.0048975716 -0.023443379 0.0043476787 -0.010738604
0.0096132485 -0.009345227 -0.004099675 0.00558421 -0.0013559767 -0.008908605 -0.017136432 0.018630061
0.021981703 0.0020715531 -0.013329412 0.0037813634 -0.02235305 -0.00010342501 -0.013386177 -0.018516857
-0.014422002 -0.0194914 -0.008152045 -0.011802493 -0.012833373 -0.008155832 0.0027812838 0.0029654936
-0.01528991 -0.0041658743 0.0010847824 -0.005335459 -0.0065222178 -0.04276169 0.027119448 -0.012425191
00000000: c7ff d6ba 3b65 bbbc b9ae 37bb 0b1f 55bc
00000010: 92c5 b93c a860 43bc 2bbc 0f3c 2958 ca3c
00000020: 9c10 54ba 70a0 71ba 86a8 5ebc 2896 063c
00000030: a382 d2bc 3377 c63c 69e9 1dbc fa12 213c
00000040: 551e f2ba 95bd 59bc 1829 be3c 9cf8 42bc
00000050: 5400 753b 361e 58bc 21e5 543c 9331 923c
00000060: 9c6e 1bbb b7cf ef3a a573 09bc 818a a73b
00000070: ff37 d1ba 391a 0d3d b208 4c3b a300 b3bb
00000080: 7250 5bbc 0966 fa3a 3f17 0dbd 684b b03c
00000090: 6531 843c 658d 743c 0b96 b63b fc93 8bbb
000000a0: 732a f7bb e583 b2bc f30b 86bb 7ba0 35bc
000000b0: b2db de3c 90c9 a13b 6042 263d fdb3 49bc
000000c0: b1e6 42bc d07d e3bb d1c9 2d3d 21de 63bc
000000d0: 82ed 793a 58e8 81bc 787b c9bb fa54 3a3b
000000e0: 687b 253d 5d29 9bba 60bd 31bc 52a5 2fbc
000000f0: 20e2 92bb d614 213d 6164 edbb 1d61 25bc
00000100: fdc4 673c 1a91 133d cf00 6e3c a3f9 fbbc
00000110: ba7b 3ebc b2d3 973c 260e 7f3c 9526 c83b
00000120: c771 11bc ed17 ad39 9c05 b93c e803 dbbb
00000130: d342 1dbb b865 92bc c17d 2cbc bcdc 753b
00000140: 0d40 51bc 8f9d 733b d19b b0bb 3017 3ebc
00000150: f266 5f3c 687e c43c 3dd1 81ba f303 b4bc
00000160: d46e 71bc e058 8f3c 11ef 64bc 1882 babb
00000170: 23d1 f83c 5a6f 5fbc 2f9b 063c acaf 153c
00000180: d1fb 283b a491 8bbb 4332 353c f99e c63c
00000190: 442c 613c eadb b93b 9721 0c3c 9612 96bb
000001a0: 08c1 54bb 2bc4 113d 4997 823b 1fdf 573b
000001b0: f70e 003c 203f bfbc 44ed a3bc e47d f23c
000001c0: 55f4 8ebc cab6 f1bb b95b 5dbb 2c23 833a
000001d0: 58a8 17bc b6d3 b9bb 5dd2 72bc ce45 983c
000001e0: 17ab 5bbc b5a4 93bb 6275 b13c 1dfb 7f3b
000001f0: bc68 31bc 010e 34bb 1677 0b3c 2660 dcbc
00000200: cb8a 81bc 765d 08bd c09e 173c 18eb 9fbc
00000210: 7af0 b2bc 1cd1 dc3c 5e9f 1fbb d454 b2bb
00000220: d007 23bc c0bc ebbc fe01 23bc 3e35 e0bb
00000230: 9c5a 17bd 6dc2 033d 4304 7d3b 165e 433c
00000240: 522a 31bc 2873 33bc 550f c63c 997d 063c
00000250: 28c6 b03c e6ae 263d 895e 52bc f3f3 d73c
00000260: 4ee4 35ba 19d4 c23b 101a 923c 80ad d33b
00000270: c222 fb3c dbed 8e3a 7189 afbc be39 08bb
00000280: 047b c83c d3b5 0a3c f117 a4bc d290 71bc
00000290: 6220 c1b7 8c2c 63bb e51f f3bb ef05 42bc
000002a0: 7317 13bc dc9b 48bc 7aa5 8fbc df80 023d
000002b0: e471 243d be51 bcbc abdd a4bc 0afd 9e3c
000002c0: 2960 a43b 1cf7 ebbb a590 40ba 3448 62bb
000002d0: 095e 843c c93b ee3b 355c 413c 8c23 75bb
000002e0: 60c5 823c 499d aabc a39b a43a 3336 0d3b
000002f0: 70fb 73bc 934f 533c 55eb 923c 6148 89bb
00000300: ccd6 46b7 50a6 ca3c 7104 9e3c 0f63 ab3b
00000310: 642e 8b3c 7623 953b ebe7 2ebc d6d9 91bc
00000320: 6296 9b3b 4541 81ba a516 073a 2d65 82bb
00000330: c176 d1bb 99e9 673c 5938 40bc 24da afb8
00000340: d5e1 80bc a1df 33bd c785 3fbc 6c89 45bb
00000350: 8d52 cabb 9baf 1cbc f094 f93c 600f 65bc
00000360: 2a99 033c 7364 c9bc 689b cf3c c5a5 a03b
00000370: cf7b a03b 540c c0bc f976 8e3b f8f0 2fbc
00000380: e380 1d3c b91c 19bc 9156 86bb c0fb b63b
00000390: 07bb b1ba 66f5 11bc b461 8cbc 129e 983c
000003a0: f912 b43c e5c2 073b 9b63 5abc c0d0 773b
000003b0: be1d b7bc e1e5 d8b8 b251 5bbc aab0 97bc
000003c0: 434a 6cbc 6eac 9fbc 2890 05bc 3e5f 41bc
000003d0: 1143 52bc 0aa0 05bc 3346 363b ba58 423b
000003e0: 8882 7abc e381 88bb 422f 8e3a 13d5 aebb
000003f0: 54b8 d5bb e226 2fbd 9b29 de3c 0793 4bbc

network_body._body_endoder.seq_layers.0.weight f4 [256, 67]
-0.18043862 -0.21915965 0.05971534 0.08329504 0.1747056 0.07918898 -0.08730341 -0.1853377
0.12812114 -0.15607582 -0.13567027 0.028305633 0.076571375 0.20788433 -0.09790667 0.030763276
0.09653581 -0.18751608 -0.14590995 -0.087732054 -0.047658555 0.013527542 0.093441896 -0.033482213
-0.10752691 0.032342494 -0.07363184 0.17126496 0.22055462 -0.054413613 -0.012739808 0.048178088
-0.1693349 -0.026028005 -0.023449393 0.08339253 -0.1177041 0.25339085 -0.115062535 -0.019889789
0.2244591 0.122493595 0.26370403 0.042883486 0.023585917 -0.17896496 -0.0038070935 0.13654537
0.052875448 -0.070021145 -0.13434733 -0.08702106 0.10513073 -0.14640626 0.17941956 -0.04502093
0.2308993 -0.32445356 -0.05251362 0.20409603 0.004881229 -0.106944926 -0.090558186 0.1650155
-0.008476017 -0.0005766963 0.0020149893 0.006499492 0.027073907 0.11309091 0.013090281 -0.049544968
-0.022557994 -0.10741941 0.02054617 -0.020276574 0.18268748 -0.041898742 0.05394801 -0.05509237
-0.020286582 -0.13145474 -0.21008804 0.10453687 0.1216573 -0.17315462 0.10355042 -0.07203969
0.08732626 -0.0073767314 -0.07043205 0.041722286 0.16467434 -0.099849425 -0.18650651 -0.02634613
0.039501697 0.11312522 0.3162172 0.07154569 -0.13277058 -0.15749127 -0.18332209 -0.22642751
0.0011728082 -0.14210664 -0.25556976 -0.04923479 -0.14100957 -0.14534628 0.17748183 -0.015293431
0.0038872205 0.07141151 0.14560474 -0.21406229 -0.1714101 -0.0988441 0.23287669 -0.010289416
0.07786992 0.11946924 -0.14511323 -0.1963982 0.13530469 0.108867384 -0.07029937 0.17792815
-0.30185744 0.14840621 0.12639344 -0.031302504 0.08618748 0.08811885 -0.0679177 0.14918555
-0.25726405 0.07414708 -0.06250667 0.19893193 0.06317086 0.13477625 -0.21197405 0.06409048
-0.019152496 -0.022576464 -0.05784878 -0.07883384 -0.06089096 0.049469523 0.067239635 0.0891713
0.09054316 -0.09992261 -0.10390623 0.06940948 0.37591502 0.2087727 0.18699156 -0.25476262
-0.07964683 -0.0303125 -0.023522539 -0.19463731 -0.09258981 0.1788023 -0.07389853 -0.019070052
-0.13802582 0.035579067 -0.03817114 0.12074708 0.1066266 0.08884895 0.065528125 -0.19554453
-0.10312361 -0.057134602 -0.10072643 0.014360177 -0.022494657 0.05789554 0.019663468 -0.16444696
-0.06651337 0.2260191 0.15048201 -0.05349694 0.32604653 -0.034607295 -0.13526738 0.080172084
-0.13520978 -0.009951877 -0.09672896 -0.098398775 0.103428304 0.01200772 -0.0033827692 -0.15853257
0.049147625 0.07499237 -0.046375014 -0.014457251 -0.054165933 -0.08947206 0.05785325 0.14813252
-0.119496346 0.1260528 -0.10875782 0.17103916 -0.14638755 -0.009847424 -0.07033726 -0.12304116
0.07686529 0.020613909 -0.12244598 0.18249865 0.16691534 0.06602322 -0.23149954 0.09152684
-0.11899752 -0.25012344 0.07049438 -0.024074212 0.035477746 -0.15661594 -0.039986853 0.16395299
0.131174 -0.054667298 0.00073119876 -0.01763957 0.19639082 0.10835244 0.060998317 0.13056989
0.1306931 0.016343078 0.12527268 0.19268015 0.24646078 -0.06768456 -0.09093448 0.13932261
0.06174159 -0.17358312 0.06356958 -0.10118655 -0.017865997 -0.10357626 -0.17694245 -0.1679873
00000000: e7c4 38be 636b 60be 1398 743d 9796 aa3d
00000010: 06e6 323e d52d a23d 21cc b2bd 2bc9 3dbe
00000020: 3032 033e 57d2 1fbe 26ed 0abe 37e1 e73c
00000030: 74d1 9c3d a1df 543e 4b83 c8bd 4403 fc3c
00000040: 91b4 c53d 3704 40be 6b69 15be ddac b3bd
00000050: 9e35 43bd a0a2 5d3c 775e bf3d a524 09bd
00000060: 1237 dcbd 9079 043d 4acc 96bd 1560 2f3e
00000070: 12d9 613e cfe0 5ebd a1ba 50bc 6356 453d
00000080: 2166 2dbe af38 d5bc f118 c0bc b4c9 aa3d
00000090: d90e f1bd 72bc 813e e8a5 ebbd e9ef a2bc
000000a0: 9bd8 653e ecdd fa3d 3704 873e 98a6 2f3d
000000b0: 4137 c13c 9742 37be 6e80 79bb 8dd2 0b3e
000000c0: ed93 583d 3f67 8fbd 5992 09be 1938 b2bd
000000d0: c84e d73d 86eb 15be c3b9 373e de67 38bd
000000e0: de70 6c3e c71e a6be 8618 57bd 8dfe 503e
000000f0: b7f2 9f3b f105 dbbd 9276 b9bd d3f9 283e
00000100: fede 0abc 6f2d 17ba e90d 043b b1f9 d43b
00000110: 19ca dd3c 359c e73d 9e78 563c aaef 4abd
00000120: 8bcb b8bc b5fe dbbd 7150 a83c 0f1b a6bc
00000130: 6d12 3b3e 049e 2bbd 97f8 5c3d 89a8 61bd
00000140: 0c30 a6bc 129c 06be 5221 57be 6d17 d63d
00000150: 7627 f93d 724f 31be 3e12 d43d 8c89 93bd
00000160: 1cd8 b23d 82b8 f1bb ae3e 90bd fde4 2a3d
00000170: 64a0 283e db7d ccbd 90fb 3ebe d7d3 d7bc
00000180: 88cc 213d 32ae e73d 39e7 a13e 8c86 923d
00000190: 03f5 07be 6445 21be c9b8 3bbe 9ddc 67be
000001a0: eab8 993a 6784 11be 0ada 82be 6baa 49bd
000001b0: d064 10be a8d5 14be ccbd 353e 4c91 7abc
000001c0: bdc0 7e3b 3340 923d 6919 153e 2533 5bbe
000001d0: 2186 2fbe c76e cabd 3a77 6e3e f094 28bc
000001e0: 447a 9f3d 4aac f43d 9098 14be 9c1c 49be
000001f0: 508d 0a3e ddf5 de3d 1ef9 8fbd cc32 363e
00000200: 0f8d 9abe ccf7 173e 486d 013e 0e37 00bd
00000210: 1083 b03d a877 b43d 6f18 8bbd 19c4 183e
00000220: 1db8 83be 6dda 973d 7f03 80bd d0b4 4b3e
00000230: b95f 813d c902 0a3e ba0f 59be df41 833d
00000240: b2e5 9cbc 47f2 b8bc d8f2 6cbd a373 a1bd
00000250: cd68 79bd 8ea0 4a3d efb4 893d 719f b63d
00000260: b16e b93d 3aa4 ccbd cacc d4bd 8f26 8e3d
00000270: ef77 c03e 83c8 553e b77a 3f3e 3f70 82be
00000280: e11d a3bd ec51 f8bc 57b2 c0bc 014f 47be
00000290: ba9f bdbd f317 373e 1d58 97bd cc38 9cbc
000002a0: a456 0dbe 5bbb 113d 5759 1cbd 3f4a f73d
000002b0: 0c5f da3d 70f6 b53d 9c33 863d d33c 48be
000002c0: 7932 d3bd f905 6abd a949 cebd f346 6b3c
000002d0: b746 b8bc e023 6d3d 4815 a13c c964 28be
000002e0: 2938 88bd 8d71 673e f517 1a3e 9b1f 5bbd
000002f0: 92ef a63e 61c0 0dbd 8883 0abe 4331 a43d
00000300: 6f74 0abe 330d 23bc d519 c6bd 4c85 c9bd
00000310: 38d2 d33d 07bc 443c 73b1 5dbb 5d56 22be
00000320: 054f 493d 9a95 993d baf3 3dbd 1bde 6cbc
00000330: 19dd 5dbd 213d b7bd 88f7 6c3d 0db0 173e
00000340: 80ba f4bd fc13 013e 6cbc debd e424 2f3e
00000350: 9ee6 15be 1757 21bc fb0c 90bd 01fd fbbd
00000360: 8d6b 9d3d 80de a83c f5c4 fabd ede0 3a3e
00000370: dbeb 2a3e 2f37 873d 370e 6dbe 6d72 bb3d
00000380: f9b4 f3bd 2e10 80be 5c5f 903d 4837 c5bc
00000390: 1d51 113d ee5f 20be 41c9 23bd 4be3 273e
000003a0: 7a52 063e d1ea 5fbd ebad 3f3a dc80 90bc
000003b0: ad1a 493e e2e7 dd3d 5fd9 793d 1db4 053e
000003c0: 69d4 053e ebe1 853c 7b47 003e f24d 453e
000003d0: 3760 7c3e 349e 8abd db3b babd 96aa 0e3e
000003e0: c0e4 7c3d c6bf 31be c530 823d e53a cfbd
000003f0: b65b 92bc ca1f d4bd 6730 35be dd04 2cbe

network_body._body_endoder.seq_layers.2.bias f4 [256]
-0.011574645 0.00844388 0.005364702 0.0054834266 -0.012721456 -0.0051472764 -0.007457222 -0.017027877
-0.0042960974 0.0011270255 -0.004690102 -0.0020264552 -0.0045308806 -0.0061278143 -0.0016419127 0.009049531
0.0067329477 -0.0234501 0.005189105 0.014389889 -0.0010003501 -0.00028357544 0.0009775626 -0.027962454
-0.0077635623 -0.0076914104 -0.0032304677 -0.019483678 -0.0046118787 0.002842007 -0.009476168 -0.006907651
-0.013854565 -0.007274973 0.0050479225 -0.020423248 0.015875166 -0.021019854 -0.0059433747 0.00023363919
-0.0009286686 0.007789744 -0.008738905 0.0039483868 -0.015831392 0.0038780763 -0.009284197 -0.0066955863
0.003933214 -0.004484576 0.017965151 0.00065994734 -0.018399717 0.01246565 0.0013040749 -0.0065762843
-0.004487184 -0.015143512 0.008594392 -0.0076812883 -0.0009162443 -0.0061734263 0.0008741979 0.0010650263
0.028696083 0.003303157 -0.0057118777 -0.0035780375 -0.014580703 -0.002909185 -0.002468247 -0.0003124992
-0.006039673 -0.0047548744 -0.010699191 -0.005482668 -0.021925442 0.0042281975 -0.008347131 -0.018423697
-0.010002794 -0.005731902 -0.009744366 0.0004398578 -0.028394347 -0.0006497765 0.0069981166 0.0017265751
-0.017175682 -0.010030897 0.00095763063 -0.009984537 0.0032562078 -0.0059924936 -0.0046312967 0.0020050055
-0.011287329 -0.006810634 -0.0070129517 0.005622596 0.008691586 -0.007403062 -0.0074996687 0.014510941
-0.004781145 0.0005743314 0.001058304 0.00881211 -0.018371392 -0.0040016016 -0.0027821145 -0.01318686
-0.00046990614 -0.015073478 -0.0023584324 -0.0069891154 -0.0004963122 -0.010452558 -0.0070792134 -0.003910131
-0.0017975337 -0.0054532494 7.1475515e-05 -0.016033785 -0.011549266 -0.0036452648 -0.01690796 0.019649137
-0.055642784 0.001467232 -0.011600164 -0.0062767616 -0.0057739927 -0.008815585 0.012389999 0.0071102665
-0.011130843 -0.0021778666 -0.013522446 0.009607039 -0.018143099 0.0068460223 0.0059948596 -0.008232982
0.008113748 -0.026880387 0.0044626314 0.0083464915 -0.0013199026 -0.0060360697 -0.010810914 -0.010604991
-0.0067901895 0.004461131 -0.012426069 0.006978183 0.015763955 0.00075676246 0.0014774401 0.0065325676
0.0064027747 0.021164065 0.009223137 0.0077006943 0.000994841 -0.008726652 -0.012386698 0.0028120826
-0.0074380627 -0.016151521 -0.009316266 0.008083339 -0.003803691 0.010849297 -0.00889959 0.011632333
0.0036525622 0.0034924878 -0.010921475 -0.009644608 -0.0071828696 -0.005878094 -0.012840576 -0.0115046315
-0.004661437 0.0019042804 0.015743913 -0.008334856 0.0015740908 -0.028848 -0.012929206 -0.011919123
0.036449898 -0.00738255 0.0033850998 -0.0024242487 0.009554305 0.0062966812 -0.0339384 -0.015074807
-0.0024231765 -0.0011352674 -0.004522805 -0.019161398 -0.018285796 -0.010415902 0.012064893 -0.008732457
-0.011077368 -0.0005976137 -0.0027844412 -0.0055187535 -0.0057612215 0.0077787763 0.0046316613 -0.003365297
0.009404254 -0.008906621 0.0057519614 -0.016330322 -0.0039207693 0.00397165 -0.019190427 -0.006044413
-0.0032501514 -0.021328278 0.002114337 -0.0025409919 -0.011584138 0.006928126 -0.006784866 0.008107115
0.0021833808 -0.012477955 -0.00540307 -0.014879766 -0.004081363 0.01053407 0.0046846825 -0.028917966
-0.01328643 0.019278465 0.003571036 -0.01246131 0.0037221909 0.0018651995 0.0018258637 -0.034488175
-0.006568448 -0.0056730937 -0.0042150556 0.00093532406 0.0016750959 -0.012817968 -0.014656375 0.008590172
00000000: 94a3 3dbc 3358 0a3c 62ca af3b 51ae b33b
00000010: a76d 50bc 7caa a8bb b65b f4bb 0c7e 8bbc
00000020: 47c6 8cbb b3b8 933a 6daf 99bb 47ce 04bb
00000030: c877 94bb d5cb c8bb 7335 d7ba 7c44 143c
00000040: 0fa0 dc3b 6d1a c0bc 5e09 aa3b 92c3 6b3c
00000050: 2e1e 83ba daac 94b9 8f21 803a 8411 e5bc
00000060: 7b65 febb 3a08 fcbb 41b6 53bb 3c9c 9fbc
00000070: 3e1f 97bb f740 3a3b ee41 1bbc 9459 e2bb
00000080: 42fe 62bc e662 eebb 0b69 a53b a84e a7bc
00000090: a30c 823c d431 acbc a4c0 c2bb 0bfd 7439
000000a0: e571 73ba 1c41 ff3b a02d 0fbc 7861 813b
000000b0: d6b0 81bc 5327 7e3b bf1c 18bc a666 dbbb
000000c0: 31e2 803b 5af3 92bb a72b 933c 5100 2d3a
000000d0: 01bb 96bc ba3c 4c3c 7eed aa3a df7d d7bb
000000e0: 3a09 93bb 7e1c 78bc 7ecf 0c3c 51b3 fbbb
000000f0: 1d30 70ba 744a cabb 6e2a 653a 5a98 8b3a
00000100: 0c14 eb3c c779 583b b42a bbbb 827d 6abb
00000110: e7e3 6ebc 06a8 3ebb 50c2 21bb efd6 a3b9
00000120: 73e8 c5bb c7ce 9bbb a94b 2fbc f4a7 b3bb
00000130: fc9c b3bc b18c 8a3b 68c2 08bc 4bed 96bc
00000140: c2e2 23bc aed2 bbbb d5a6 1fbc b79c e639
00000150: 439b e8bc c355 2aba 7550 e53b 3f4e e23a
00000160: 04b4 8cbc a258 24bc 8109 7b3a 2f96 23bc
00000170: 1a66 553b ae5c c4bb 22c2 97bb 6966 033b
00000180: 7dee 38bc bd2b dfbb e7cc e5bb c13d b83b
00000190: 2767 0e3c 6395 f2bb c8bf f5bb 4cbf 6d3c
000001a0: 27ab 9cbb ba8e 163a cab6 8a3a ab60 103c
000001b0: 9a7f 96bc de1f 83bb 2354 36bb b30d 58bc
000001c0: bc5d f6b9 c0f6 76bc ee8f 1abb f304 e5bb
000001d0: f31a 02ba 3541 2bbc bff8 e7bb 8e20 80bb
000001e0: 399b ebba 2cb1 b2bb 20e5 9538 4959 83bc
000001f0: 2239 3dbc 65e5 6ebb 9082 8abc 3af7 a03c
00000200: b0e9 63bd 2350 c03a 9d0e 3ebc 4bad cdbb
00000210: c333 bdbb 3e6f 10bc 6cff 4a3c 3dfd e83b
00000220: 245e 36bc 8aba 0ebb 408d 5dbc d866 1d3c
00000230: d6a0 94bc 9954 e03b 8770 c43b a1e3 06bc
00000240: 87ef 043c 4234 dcbc 443b 923b b9bf 083c
00000250: 9500 adba 39ca c5bb 4320 31bc 8ec0 2dbc
00000260: 3d80 debb ae2e 923b b696 4bbc 3ea9 e43b
00000270: 6923 813c 7861 463a aaa6 c13a 260f d63b
00000280: 5ece d13b 4360 ad3c a41c 173c 1b56 fc3b
00000290: 5365 823a 3bfa 0ebc 94f1 4abc eb4a 383b
000002a0: feba f3bb 3250 84bc 40a3 18bc fb6f 043c
000002b0: 5847 79bb 40c1 313c 96cf 11bc 8a95 3e3c
000002c0: d35f 6f3b 39e2 643b fcef 32bc 6b04 1ebc
000002d0: 475e ebbb 079d c0bb 4761 52bc ec7d 3cbc
000002e0: f8be 98bb 0c99 f93a 61f9 803c eb8e 08bc
000002f0: b951 ce3a a452 ecbc 05d5 53bc 6d48 43bc
00000300: 7d4c 153d 51e9 f1bb 8dd8 5d3b 25e0 1ebb
00000310: a989 1c3c 6454 ce3b fe02 0bbd 53fc 76bc
00000320: 28ce 1ebb 41cd 94ba 0a34 94bb 5df8 9cbc
00000330: 18cc 95bc 76a7 2abc d4ab 453c 9412 0fbc
00000340: d97d 35bc 2da9 1cba 2c7b 36bb a9d6 b4bb
00000350: a1c8 bcbb 1be5 fe3b 31c5 973b 518c 5cbb
00000360: 4d14 1a3c 13ed 11bc f37a bc3b 2bc7 85bc
00000370: cc79 80bb 9d24 823b 3e35 9dbc 3610 c6bb
00000380: 7e00 55bb a4b8 aebc b090 0a3b c586 26bb
00000390: 65cb 3dbc 5505 e33b 9553 debb b4d3 043c
000003a0: 0d17 0f3b 5670 4cbc 3c0c b1bb 43ca 73bc
000003b0: f4bc 85bb 1897 2c3c f781 993b 5fe5 ecbc
000003c0: 54af 59bc dfed 9d3c 0b08 6a3b 862a 4cbc
000003d0: 00f0 733b b679 f43a d251 ef3a 7943 0dbd
000003e0: 233c d7bb 5ce5 b9bb 731e 8abb 8930 753a
000003f0: e48e db3a 7402 52bc 4b21 70bc cbbd 0c3c

network_body._body_endoder.seq_layers.2.weight f4 [256, 256]
-0.020118732 0.027283618 0.063630365 -0.057743274 0.00989497 -0.042316332 -0.04729911 -0.07919164
0.058314186 0.14172794 0.10550446 -0.0066412436 0.013953438 -0.005225857 -0.014445142 0.034930352
-0.006555239 -0.01693294 0.011880694 -0.03633067 -0.03403961 0.0715313 -0.072358504 0.07308343
-0.080487184 0.04598628 -0.08476921 0.063070066 -0.12104781 -0.072619684 -0.09291426 0.072282076
0.042613827 0.04451514 0.043871284 -0.006301287 -0.01836301 0.05243288 0.11333959 0.054997463
-0.1399866 0.052254405 -0.039432563 -0.07401913 0.011345826 -0.036498327 -0.0009411533 0.06260123
-0.012768879 0.023195233 0.05663903 0.07969698 -0.042155415 -0.0149513185 0.07054365 -0.008544968
-0.04135802 0.023610631 0.021772118 -0.012549746 0.01928397 0.05923982 -0.07056538 0.13837652
-0.038480826 0.007602355 -0.009866498 0.02153805 -0.051263046 -0.0013591215 0.03538933 0.057402186
0.10340183 0.0068321917 -0.0059784646 0.028708877 0.05847272 -0.025695587 -0.020763405 -0.012302094
0.01523665 -0.020464925 0.048222654 0.010543343 0.05055508 0.060298827 0.01614723 0.06033578
0.07649044 -0.058019564 0.030688213 0.04646756 0.11323361 0.018914377 0.07256801 0.16598094
0.09640117 -0.0370406 0.042931076 -0.015376059 0.04712339 -0.13735904 -0.05990737 -0.14321542
-0.081071846 0.029288769 0.030625006 0.036071334 0.03757081 -0.01684564 0.00084440864 -0.04676739
-0.015321503 -0.0041129217 0.014834021 -0.050368536 -0.062509134 -0.056641284 -0.047002062 -0.029645897
0.051140156 -0.01725805 0.06330796 0.018022649 -0.0092616975 -0.00043905684 0.07290612 0.025947541
0.07187208 0.008828078 0.058201525 0.054241773 -0.057435498 0.10154692 -0.05274183 -0.04945781
0.005165915 -0.043017223 0.0703216 -0.030460548 0.024777478 0.019512609 0.018244136 0.031955667
0.056970224 0.049039625 0.17833206 -0.067105375 -0.011514938 0.024502868 -0.06079527 0.0044591264
0.0057385 -0.0024100672 0.024669608 0.015250029 0.06507604 -0.047517084 0.024466902 -0.047309786
-0.028065048 -0.031576935 0.027425092 -0.106759205 0.039393965 0.09074709 0.0015322338 0.011773117
-0.0642879 -0.03486892 -0.007834543 0.028400855 0.003960301 0.03257959 -0.022644907 -0.017731534
0.1785283 -0.041617036 -0.0667529 -0.03936917 -0.030097792 -0.1199383 0.025472239 -0.075816154
-0.025447872 0.0015639156 -0.10686604 0.0777824 0.055706315 -0.10644172 -0.03534837 0.027349064
-0.017151592 -0.022765473 0.060033754 -0.03161157 -0.026970359 0.08475706 -0.010859281 0.0009472577
-0.025413303 0.07961814 -0.058277465 0.029118454 -0.045477286 0.01842143 -0.028123233 -0.06438121
-0.02714571 0.05099945 0.042491913 0.02338959 0.05806829 0.1515073 -0.0640772 -0.102160886
0.040877312 0.06979217 -0.085574396 -0.012039347 0.0055088564 0.04950019 -0.06524396 0.011512146
-0.06241312 0.044820983 -0.07115414 0.011297913 0.12670416 -0.028988741 0.00803736 -0.057128843
0.09416074 0.046794172 -0.03547169 -0.013868812 0.05877058 0.048914522 -0.105576485 -0.03930666
-0.02014321 0.03260756 -0.007046699 -0.037036933 0.04821754 0.03700693 -0.03131346 0.0682349
0.018537303 -0.045653995 -0.063014016 -0.042999376 0.010795501 -0.08104013 0.049448945 -0.0023676038
00000000: 0ad0 a4bc e581 df3c a350 823d 3684 6cbd
00000010: 831e 223c e453 2dbd b6bc 41bd 3a2f a2bd
00000020: dbda 6e3d 2121 113e b912 d83d ca9e d9bb
00000030: f69c 643c aa3d abbb 51ab 6cbc 2113 0f3d
00000040: 55cd d6bb f3b6 8abc 3ea7 423c 78cf 14bd
00000050: 1e6d 0bbd 017f 923d b230 94bd c4ac 953d
00000060: 77d6 a4bd 1c5c 3c3d 7b9b adbd e12a 813d
00000070: eae7 f7bd a1b9 94bd d549 bebd a008 943d
00000080: d68b 2e3d 8255 363d 60b2 333d 077b cebb
00000090: 066e 96bc dcc3 563d 961e e83d 0545 613d
000000a0: a658 0fbe b708 563d 0a84 21bd 5797 97bd
000000b0: d8e3 393c 457f 15bd bbb7 76ba 1335 803d
000000c0: 8f34 51bc ee03 be3c 54fe 673d 2c38 a33d
000000d0: 28ab 2cbd 60f6 74bc 3079 903d 3200 0cbc
000000e0: 0767 29bd 156b c13c 715b b23c 739d 4dbc
000000f0: 6bf9 9d3c 74a5 723d 9584 90bd 93b2 0d3e
00000100: 129e 1dbd 2d1d f93b 18a7 21bc 9170 b03c
00000110: 33f9 51bd 8d24 b2ba 67f4 103d 8e1e 6b3d
00000120: 57c4 d33d 94e0 df3b ffe6 c3bb e12e eb3c
00000130: 1781 6f3d 8d7f d2bc 0418 aabc b98e 49bc
00000140: 24a3 793c 0fa6 a7bc 1e85 453d fcbd 2c3c
00000150: d812 4f3d e7fb 763d 3247 843c a722 773d
00000160: 05a7 9c3d eca5 6dbd d965 fb3c c554 3e3d
00000170: 06e7 e73d 53f2 9a3c 899e 943d e8f6 293e
00000180: fa6d c53d e2b7 17bd 7fd8 2f3d deeb 7bbc
00000190: 7504 413d d9a7 0cbe 6e61 75bd 10a7 12be
000001a0: ff08 a6bd 00ef ef3c 4be1 fa3c 89bf 133d
000001b0: dae3 193d deff 89bc 4e5b 5d3a 2a8f 3fbd
000001c0: 0b07 7bbc b0c5 86bb 650a 733c 3d4f 4ebd
000001d0: ca04 80bd b100 68bd 3c85 40bd f4db f2bc
000001e0: 5778 513d c160 8dbc 9ba7 813d 3ca4 933c
000001f0: 60be 17bc 3631 e6b9 ce4f 953d f08f d43c
00000200: ab31 933d a5a3 103c b964 6e3d 9f2c 5e3d
00000210: 7c41 6bbd d5f7 cf3d d107 58bd 4694 4abd
00000220: d646 a93b d432 30bd c504 903d 6688 f9bc
00000230: 23fa ca3c e8d8 9f3c ba74 953c f2e3 023d
00000240: 9c59 693d c6dd 483d ae9c 363e 8b6e 89bd
00000250: 27a9 3cbc 3dba c83c 7604 79bd dd1d 923b
00000260: 070a bc3b 38f2 1dbb eb17 ca3c 42db 793c
00000270: 9646 853d 46a1 42bd d06e c83c e8c7 41bd
00000280: ace8 e5bc d156 01bd 96aa e03c 92a4 dabd
00000290: 915b 213d 9cd9 b93d 3cd5 c83a 08e4 403c
000002a0: 60a9 83bd b6d2 0ebd 745c 00bc e9a8 e83c
000002b0: 6ac5 813b 2d72 053d d081 b9bc b941 91bc
000002c0: 1fd0 363e a076 2abd bfb5 88bd 9141 21bd
000002d0: a58f f6bc 36a2 f5bd 28ab d03c 8045 9bbd
000002e0: 0e78 d0bc 4dfc cc3a 95dc dabd 614c 9f3d
000002f0: 4e2c 643d 1efe d9bd 74c9 10bd 250b e03c
00000300: 7f81 8cbc a87e babc f4e5 753d 227b 01bd
00000310: f1f0 dcbc 1c95 ad3d 20eb 31bc 6351 783a
00000320: 8f2f d0bc d60e a33d 5ab4 6ebd d389 ee3c
00000330: 6446 3abd 8ae8 963c b262 e6bc 4cda 83bd
00000340: ae60 debc cde4 503d 000c 2e3d 879b bf3c
00000350: 04d9 6d3d bb24 1b3e e83a 83bd ba39 d1bd
00000360: f86e 273d 32ef 8e3d a141 afbd ae40 45bc
00000370: a383 b43b b6c0 4a3d a09e 85bd 719d 3c3c
00000380: e6a4 7fbd 3596 373d 43b9 91bd e21a 393c
00000390: bcbe 013e cc79 edbc 22af 033c efff 69bd
000003a0: 59d7 c03d 3fab 3f3d c34a 11bd 033a 63bc
000003b0: 6bb9 703d 985a 483d 7c38 d8bd 0500 21bd
000003c0: 6003 a5bc 818f 053d ffe7 e6bb 0ab4 17bd
000003d0: c17f 453d 9494 173d 8b42 00bd bdbe 8b3d
000003e0: 8bdb 973c afff 3abd 7e0d 81bd 1d20 30bd
000003f0: 9ddf 303c 5ef8 a5bd fa8a 4a3d cd29 1bbb

network_body._body_endoder.seq_layers.4.bias f4 [256]
0.013250932 -0.03234822 -0.03231807 -0.027335042 0.0011714504 -0.013782749 -0.021259943 -0.019359587
0.008790419 -0.018298225 -0.017221216 -0.015931921 0.010412176 -0.02411943 0.011226182 -0.00569119
-0.03251103 -0.026468745 -0.021870071 -0.0008922629 -0.031323295 -0.02404279 -0.010672853 0.0106985
0.0031763485 -0.017875182 0.0019715547 -0.009920241 -0.019566093 0.010985882 0.008365997 0.01264074
-0.012473507 0.0043770727 0.018247547 -0.0047736834 -0.0127788875 0.004423074 0.015478467 0.016537143
0.0038347074 -0.0130113615 -0.010527963 -4.6996855e-05 0.013884411 -0.019476818 0.012372918 -0.024406992
-0.019209933 -0.014964614 0.0063365507 0.008293013 -0.0041800523 0.0026036443 -0.0012279146 -0.01850615
-0.0134633 -0.01588258 -0.016516592 -0.014938494 -0.009254296 -0.014437531 -0.019844547 0.008651611
0.0059235585 0.013578544 0.013034687 -0.015046585 -0.023269264 -0.03384343 -0.01367289 -0.014382224
-0.008570007 -0.022893282 -0.0040701 -0.02368885 -0.009160597 0.01453718 0.020443276 -0.024669528
0.018389704 -0.0049736793 -0.015925106 -0.020461041 -0.00759792 -0.025043622 0.00868687 -0.023135347
0.0009825418 -0.0032891727 -0.00086050323 -0.023762207 -0.025277475 0.010838344 -0.015425357 -0.011624547
-0.021321027 -0.011155783 0.011764466 -0.012228291 -0.005851115 -0.023397893 -0.009497272 0.016672635
0.006141298 -0.019244937 0.010753778 -0.0022731323 -8.440667e-05 0.015914967 -0.008107769 -0.011577812
0.019296028 -0.040651727 -0.014540715 0.013477024 -0.024528258 -0.02996776 -0.00082952273 -0.00091605197
-0.028375197 -0.019295402 -0.00328512 0.01898686 -0.019739114 -0.01486128 -0.020495674 -0.010696981
0.002347789 0.015340475 -0.0049548238 -0.025620984 0.013987965 -0.029691424 0.013624479 0.009774545
-0.009590105 0.013881087 -0.0010994833 0.017301977 -0.026383454 -0.007300545 -0.007125702 0.0033535545
-0.025219996 -0.0045489897 -0.016477797 -0.014706843 -0.030177768 0.000364353 0.0025343536 0.0067663654
-0.022063259 0.012582501 -0.006451203 -0.0054914164 7.2529416e-05 0.018307786 0.016895764 0.008674368
0.0017647833 -0.0055728382 -0.012837348 0.017004116 0.015781311 0.0020209341 -0.00066073914 0.01001738
-0.01981864 0.0151355695 -0.01197966 -0.01747223 0.013795331 -0.023418281 -0.016148226 -0.027369669
0.0064940755 -0.01239253 -0.00995412 -0.00071759394 -0.014791246 -0.02099415 -0.008766255 -0.027844526
0.015849449 0.009739596 -0.01589236 -0.024737123 -0.013197021 0.00554136 0.010836001 0.003692792
-0.008483757 0.010206368 -0.0016374453 0.012518836 0.00879815 -0.00047236177 -0.0093215555 -0.021612523
0.016322805 0.018583067 0.013698259 0.012201302 -0.01769345 -0.00084719586 -0.017828869 -0.0061565237
-0.018439513 -0.0012822893 -0.015387327 -0.020367442 0.012668243 0.014991235 -0.024363523 -0.0124474345
-0.0038897365 -0.030011293 -0.0027579558 0.013905832 0.008194775 -0.009903443 0.013622754 -0.002989718
0.00013745397 0.016765561 -0.018112179 -0.019017784 0.0102261985 0.008037571 -0.0034549648 0.0009653544
-0.0017839327 -0.00919552 -0.038587492 0.0022937756 0.014338712 0.018267766 -0.0210056 0.015986517
-0.0099496255 -0.017783035 -0.02274095 -0.0034593018 -0.00034928168 0.008246919 0.012294652 -0.024200203
0.02277257 -0.030113803 -0.015226129 -0.013489984 -0.016818041 0.012121435 -0.009031277 -0.022884231
00000000: 701a 593c 917f 04bd f45f 04bd bded dfbc
00000010: 5a8b 993a 0ad1 61bc 5529 aebc ff97 9ebc
00000020: b105 103c 29e6 95bc 8213 8dbc a983 82bc
00000030: d597 2a3c 1c96 c5bc 05ee 373c 297d babb
00000040: 492a 05bd fbd4 d8bc dd28 b3bc c0e6 69ba
00000050: db4c 00bd 63f5 c4bc 31dd 2ebc c348 2f3c
00000060: 492a 503b f96e 92bc 3335 013b 8288 22bc
00000070: 1249 a0bc 21fe 333c 8911 093c 1b1b 4f3c
00000080: ae5d 4cbc 8c6d 8f3b e17b 953c 8f6c 9cbb
00000090: 8a5e 51bc 6fef 903b 6599 7d3c e778 873c
000000a0: b74f 7b3b 9b2d 55bc 7a7d 2cbc 7d1e 45b8
000000b0: 717b 633c d98d 9fbc c8b7 4a3c 2cf1 c7bc
000000c0: 265e 9dbc 242e 75bc d7a2 cf3b 6bdf 073c
000000d0: d2f8 88bb e7a1 2a3b faf1 a0ba 369a 97bc
000000e0: 2c95 5cbc 2f1c 82bc ce4d 87bc 96c0 74bc
000000f0: 559f 17bc 658b 6cbc 0891 a2bc 7dbf 0d3c
00000100: 691a c23b 8b78 5e3c 718f 553c f485 76bc
00000110: 2f9f bebc 699f 0abd 4204 60bc 6ba3 6bbc
00000120: 3769 0cbc b18a bbbc 795e 85bb 1f0f c2bc
00000130: 5416 16bc 5a2d 6e3c a878 a73c c017 cabc
00000140: 01a6 963c 3ffa a2bb 5e75 82bc ea9d a7bc
00000150: f9f7 f8bb 4828 cdbc 6053 0e3c 5786 bdbc
00000160: a2c8 803a 298f 57bb 6593 61ba f6a8 c2bc
00000170: b512 cfbc 4f93 313c a3ba 7cbc e274 3ebc
00000180: 6fa9 aebc bfc6 36bc bfbf 403c 2b59 48bc
00000190: b6ba bfbb f0ac bfbc 729a 1bbc 0d95 883c
000001a0: f13c c93b 8fa7 9dbc 9d30 303c d5f8 14bb
000001b0: 7c03 b1b8 1b60 823c 73d6 04bc ddb0 3dbc
000001c0: b412 9e3c 6d82 26bd 2e3c 6ebc bcce 5c3c
000001d0: 7cef c8bc f37e f5bc 5474 59ba 3523 70ba
000001e0: 1a73 e8bc 6411 9ebc 2b4b 57bb 558a 9b3c
000001f0: ecb3 a1bc ba7c 73bc 8be6 a7bc 6442 2fbc
00000200: 5ddd 193b 9e56 7b3c 135c a2bb 19e3 d1bc
00000210: c72d 653c 6e3b f3bc 3539 5f3c 6a25 203c
00000220: d11f 1dbc 806d 633c 8a1c 90ba e0bc 8d3c
00000230: 1d22 d8bc 6939 efbb b97e e9bb 4fc7 5b3b
00000240: 2a9a cebc b10f 95bb 72fc 86bc f8f4 70bc
00000250: 5e37 f7bc a206 bf39 6617 263b 63b8 dd3b
00000260: 02be b4bc d626 4e3c 9d64 d3bb 57f1 b3bb
00000270: ef1a 9838 36fa 953c fc68 8a3c f01e 0e3c
00000280: 4d50 e73a 5b9c b6bb bd53 52bc 374c 8b3c
00000290: cf47 813c a671 043b 7435 2dba f01f 243c
000002a0: b35a a2bc 2efb 773c 5646 44bc ec21 8fbc
000002b0: d005 623c b2d7 bfbc 4949 84bc 5b36 e0bc
000002c0: 41cc d43b 0a0a 4bbc 9b16 23bc ea1c 3cba
000002d0: fb56 72bc ecfb abbc 57a0 0fbc 341a e4bc
000002e0: b4d6 813c d492 1f3c b230 82bc 82a5 cabc
000002f0: 5138 58bc 4c94 b53b 7b89 313c c502 723b
00000300: 75ff 0abc 9c38 273c 8c9f d6ba ce1b 4d3c
00000310: 1e26 103c 53a7 f7b9 70b9 18bc bf0c b1bc
00000320: 67b7 853c 843b 983c aa6e 603c f8e7 473c
00000330: dbf1 90bc 5a16 5eba d90d 92bc aabc c9bb
00000340: 760e 97bc 7d12 a8ba 211b 7cbc 9fd9 a6bc
00000350: 768e 4f3c cc9d 753c 0396 c7bc 53f0 4bbc
00000360: f3ea 7ebb 3eda f5bc d2be 34bb 49d5 633c
00000370: 6143 063c 0d42 22bc f931 5f3c 25ef 43bb
00000380: 8521 1039 ee57 893c fe5f 94bc 2fcb 9bbc
00000390: c98b 273c 04b0 033c b16c 62bb d60f 7d3a
000003a0: d9d2 e9ba cea8 16bc eb0d 1ebd 2b53 163b
000003b0: ebec 6a3c 48a6 953c f013 acbc 28f6 823c
000003c0: c103 23bc baad 91bc 3b4b babc 74b5 62bb
000003d0: cb1f b7b9 161e 073c 826f 493c 813f c6bc
000003e0: 8a8d ba3c 39b1 f6bc 0477 79bc 1805 5dbc
000003f0: fdc5 89bc fc98 463c ecf7 13bc b677 bbbc

network_body._body_endoder.seq_layers.4.weight f4 [256, 256]
0.04403647 0.0015455594 0.044024877 -0.0594872 -0.04197269 -0.10306655 -0.0045837564 -0.038035993
0.034884363 0.07840883 -0.023047522 -0.09592755 0.07729457 0.06859659 0.02919992 0.107786976
-0.060981072 -0.0971788 0.12197583 -0.06660152 -0.08591302 0.08924825 -0.030998772 -0.0106395865
-0.00912819 -0.103528954 0.08713302 0.003214786 0.031985838 -0.022945454 -0.025307314 -0.040549643
-0.043828208 0.07306456 -0.077907145 -0.028445803 0.07083951 0.0017280303 0.08572038 -0.036607817
-0.033889376 -0.066080116 -0.03144625 0.053560473 0.028513644 -0.0952804 0.0027604902 0.004091713
-0.050951485 0.028670568 -0.086459495 0.019777648 -0.048405312 0.047545552 0.025427654 0.04919056
-0.045079466 -0.09604847 0.041117914 -0.068816386 -0.09612614 -0.049277596 -0.03468351 -0.016113484
0.04652326 0.079590105 -0.02310256 -0.025828546 0.00067248766 0.026485255 -0.009117539 0.12991346
-0.021306138 0.013753081 -0.031354845 -0.026155006 -0.15937112 0.081510514 -0.0077251196 1.8664026e-05
0.026330022 -0.0057821935 -0.018024236 0.0389388 0.005827819 0.050213985 -0.020685088 0.09413258
0.043050054 0.042919412 -0.033087038 -0.0044156243 0.029149173 0.082488395 -0.08886001 0.039856996
-0.018934827 0.09504934 0.048054915 0.08561732 0.043059178 0.05405173 0.081050985 0.043248717
0.035822827 0.048331395 0.06348608 -0.09179384 -0.033234425 0.036375955 0.023568418 0.052187365
-0.010201069 0.028178146 -0.018096851 0.08428443 0.049914766 0.09900761 0.03147376 0.2321893
-0.032884937 0.01648085 -0.114853695 0.06963344 -0.057947878 -0.023387304 -0.017671578 -0.021451926
-0.030118173 0.024118133 -0.04119412 0.06252957 0.020227864 -0.037356228 0.031483833 0.06538824
0.038734056 0.04698352 -0.113734245 0.044806086 -0.0410383 -0.0073050302 -0.06312074 0.11089402
0.1549625 0.03538664 -0.15519321 0.012735852 -0.11031628 -0.016079329 0.008456039 -0.0039165933
-0.018673448 0.033994064 -0.026754862 0.029438559 -0.000363869 0.0905423 0.09497494 -0.091010615
-0.060101803 0.14503774 0.042251702 -0.035452303 0.10124857 0.054419078 0.0008647122 -0.016337212
-0.029366555 0.053958565 -0.016496647 0.037611328 0.05340582 0.03169669 0.03504508 -0.02352922
-0.0169963 -0.083765425 0.07131489 0.053421687 -0.056437697 -0.022207372 -0.06833753 -0.0768783
0.019049559 0.015791727 0.08613726 -0.08686455 -0.07735711 -0.087638 -0.011233574 -0.03650882
-0.06890869 0.069441 0.079888806 -0.05321609 0.058431126 -0.016135927 0.13531393 -0.05344002
-0.0540009 0.0016455323 -0.081065625 0.06915353 0.07067557 -0.15722056 -0.028104974 0.041699685
0.10137987 0.017612766 -0.04239979 -0.06264183 -0.058661465 -0.040296897 -0.045203313 -0.0049078907
0.05173678 0.0690623 -0.0017606448 0.009530502 0.05765412 -0.084363975 -0.088684455 -0.05336059
0.081465736 -0.10192191 0.0032239743 0.07175357 -0.007980753 -0.08824496 0.12583722 0.09458899
0.099748865 0.07965783 -0.07890376 0.004872236 0.00058666617 -0.011436911 0.033239447 -0.02598117
-0.00847028 0.073754415 0.16704588 -0.06825548 0.02591651 -0.009646534 0.04291656 0.018610684
-0.06830063 -0.042383455 0.09034374 -0.046247646 -0.024302516 -0.035428163 -0.021848248 -0.021689333
00000000: 965f 343d 5e94 ca3a 6e53 343d daa8 73bd
00000010: 8eeb 2bbd 8e14 d3bd 5633 96bb a1cb 1bbd
00000020: e8e2 0e3d cf94 a03d 28ce bcbc aa75 c4bd
00000030: 9e4c 9e3d 5e7c 8c3d ac34 ef3c 6bbf dc3d
00000040: 4ac7 79bd ae05 c7bd 77ce f93d 6166 88bd
00000050: 2af3 afbd c9c7 b63d 23f1 fdbc a951 2ebc
00000060: 678e 15bc fd06 d4bd cc72 b23d 29af 523b
00000070: 9503 033d 1bf8 bbbc 4951 cfbc 6217 26bd
00000080: 3585 33bd dfa2 953d c88d 9fbd 2c07 e9bc
00000090: 4e14 913d 137f e23a 2b8e af3d 14f2 15bd
000000a0: 96cf 0abd 0355 87bd c8cd 00bd 3a62 5b3d
000000b0: 7295 e93c 5f22 c3bd 57e9 343b c713 863b
000000c0: 81b2 50bd 8ade ea3c ad11 b1bd bc04 a23c
000000d0: a644 46bd 20bf 423d a84d d03c 0a7c 493d
000000e0: 3fa5 38bd 0fb5 c4bd 426b 283d 9bef 8cbd
000000f0: c8dd c4bd 4ed7 49bd 4c10 0ebd 6d00 84bc
00000100: 2d8f 3e3d 2300 a33d 9441 bdbc 6396 d3bc
00000110: e249 303a 9bf7 d83c bb61 15bc 0908 053e
00000120: 368a aebc 9a54 613c f06d 00bd 0643 d6bc
00000130: 2f32 23be fcee a63d 0023 fdbb b190 9c37
00000140: 0fb2 d73c 8e78 bdbb 90a7 93bc 4b7e 1f3d
00000150: 4af7 be3b 2ead 4d3d c673 a9bc 95c8 c03d
00000160: 4155 303d 44cc 2f3d 4686 07bd f1b0 90bb
00000170: 3fca ee3c adef a83d 3dfc b5bd 1741 233d
00000180: 361d 9bbc 3aa9 c23d 3bd5 443d 2258 af3d
00000190: d25e 303d 5965 5d3d 0ffe a53d 9125 313d
000001a0: f5ba 123d 24f7 453d fd04 823d 69fe bbbd
000001b0: d220 08bd f4fe 143d 8e12 c13c 6bc2 553d
000001c0: 6222 27bc dbd5 e63c d93f 94bc 519d ac3d
000001d0: 6d73 4c3d 80c4 ca3d a1ea 003d 08c3 6d3e
000001e0: 5bb2 06bd d902 873c 6a38 ebbd fa9b 8e3d
000001f0: c15a 6dbd bb96 bfbc fcc3 90bc f3bb afbc
00000200: 63ba f6bc 6493 c53c 2abb 28bd 810f 803d
00000210: e8b4 a53c d802 19bd 31f5 003d 45ea 853d
00000220: 9aa7 1e3d cb71 403d 80ed e8bd 9686 373d
00000230: c717 28bd 095f efbb 7245 81bd 671c e33d
00000240: 7dae 1e3e 95f1 103d f8ea 1ebe 09aa 503c
00000250: 80ed e1bd ccb8 83bc 338b 0a3c c456 80bb
00000260: 0ff9 98bc 5c3d 0b3d 032d dbbc 2229 f13c
00000270: acc5 beb9 3e6e b93d 3982 c23d c663 babd
00000280: 4f2d 76bd c684 143e 1f10 2d3d 6f36 11bd
00000290: 695b cf3d 8ae6 5e3d daad 623a 9ed5 85bc
000002a0: 2192 f0bc a803 5d3d fa23 87bc 560e 1a3d
000002b0: 10c0 5a3d 63d4 013d 6e8b 0f3d 5ac0 c0bc
000002c0: d33b 8bbc 358d abbd 8b0d 923d b3d0 5a3d
000002d0: 372b 67bd 3cec b5bc 8cf4 8bbd 5f72 9dbd
000002e0: d20d 9c3c a75d 813c bb68 b03d 0be6 b1bd
000002f0: 686d 9ebd 8d7b b3bd 060d 38bc 468a 15bd
00000300: 0020 8dbd 1537 8e3d be9c a33d 1df9 59bd
00000310: 7a55 6f3d 7e2f 84bc bc8f 0a3e ece3 5abd
00000320: 0c30 5dbd e7ae d73a bc05 a6bd 5ea0 8d3d
00000330: 5abe 903d 6dfe 20be 673c e6bc 4acd 2a3d
00000340: 40a0 cf3d a648 903c 67ab 2dbd 5c4a 80bd
00000350: 0147 70bd 5c0e 25bd 1c27 39bd 5fd2 a0bb
00000360: f2e9 533d 8970 8d3d 70c5 e6ba d325 1c3c
00000370: ba26 6c3d 05c7 acbd 32a0 b5bd a290 5abd
00000380: 82d7 a63d 6fbc d0bd 5049 533b 89f3 923d
00000390: b4c1 02bc c6b9 b4bd 79db 003e dfb7 c13d
000003a0: 2249 cc3d a523 a33d 4b98 a1bd 47a7 9f3b
000003b0: 80ca 193a e261 3bbc 1626 083d 76d6 d4bc
000003c0: eec6 0abc 8e0c 973d 130e 2b3e 87c9 8bbd
000003d0: dc4e d43c 7f0c 1ebc 46c9 2f3d 6f75 983c
000003e0: 33e1 8bbd 469a 2dbd 2406 b93d 2c6e 3dbd
000003f0: 1216 c7bc 1f1d 11bd 19fb b2bc d4ad b1bc
