Assets/Training/results/track5_learned/config_track5/config_track5-499950.onnx (onnx, 645441 bytes, 9 tensors)

action_model._continuous_distribution.log_sigma f4 [1, 2]
-0.0385104 -0.1347735
00000000: 15bd 1dbd 1002 0abe

action_model._continuous_distribution.mu.bias f4 [2]
-0.0007225339 0.000826775
00000000: 6e68 3dba eebb 583a

action_model._continuous_distribution.mu.weight f4 [2, 256]
-0.019995453 0.0017119824 0.0036575247 0.0021729511 -0.024191717 0.032283127 -0.0113792475 -0.002258367
-0.0027997887 0.026617575 -0.0020136526 -0.0039706584 -0.0040407265 -0.0027696923 0.019874679 -0.01464247
0.0017932911 -0.0074245324 -0.012474506 -0.016683303 0.014501146 0.0008252851 0.016027557 0.024306051
-0.0051454664 -0.0006600817 -0.011969068 0.0136339115 0.0012964691 0.02557676 0.013790662 0.0022136956
0.01822479 0.012153786 0.021156058 0.012651768 0.011307367 -0.00058153336 0.014304158 -0.0077811335
-0.050151385 0.001381055 0.015184285 -0.0158091 0.023926327 0.014232375 -0.0073378924 0.010735701
-0.017821783 0.015217117 -0.015377938 -0.02338814 -0.013238869 0.0143981585 -0.010489116 0.028277047
-0.015912484 -0.009079164 0.004371322 -0.0044296808 -0.006033592 0.0032718757 -0.008652924 0.0001414654
0.000640991 0.005027775 0.0064400868 0.0012681057 0.024243021 0.008592644 -0.02870676 -0.00788043
0.008751737 -0.0021634984 -0.027518751 0.03601049 0.026719153 0.0010279041 0.004771528 0.0066870744
0.0057490417 0.008104453 -0.020521304 0.002704614 -0.015576847 0.02227077 -0.006917817 0.024989538
-0.0071896818 0.0021325764 -0.013330068 -0.019695936 -0.011211513 -0.01314453 -0.0016558144 0.020946829
0.006211456 -0.015114079 -0.0087418035 -0.010060885 0.023597658 0.016907124 0.003024442 -0.023798464
0.0019061953 0.011241493 -0.007112056 0.024128746 0.016782181 0.012082705 -0.0038419224 0.008698963
-0.0042404123 -0.004236374 -0.001375537 0.0032359527 -0.016555503 0.008259671 0.002444177 0.0038105366
-0.024250295 0.018467905 0.001057993 0.008492353 0.006519942 0.008073457 0.0006078897 0.0011904696
-0.0021299447 0.012855648 0.0031933046 -0.022631422 -0.017117497 -0.0070224376 -0.0007102427 -0.0059115365
0.0088385595 0.0020805148 0.0057227905 -0.0030707808 -0.01905334 0.008248755 0.014434797 -0.021372085
-0.0026234502 -0.015832923 0.010278589 0.008780095 -0.011215576 0.007305839 0.010451501 0.007010878
0.017061772 0.0023364655 0.025626127 -0.0027762633 0.012551321 0.021733275 -0.0070278496 -0.02011917
-0.0006419158 -0.0015824015 -0.014848461 -0.032436583 -0.00045796527 0.0008232979 0.014416998 -0.0015815048
0.005380853 0.014088171 0.0076507716 0.0036792932 0.0037537054 0.0035028227 -0.016130662 -0.0011115553
0.012683402 -0.0077454457 0.0054653417 -0.011841107 -0.011693931 -0.0043533687 -0.0057592453 0.0077058864
-0.014567415 -0.02851286 -0.0034853425 0.020907195 -0.002554448 -0.011338655 -0.010712727 0.011704787
-0.006876256 0.008490489 0.022364274 0.008528712 0.0024762114 -0.006596732 -0.015279012 0.00027082747
0.012458137 -0.016142666 -0.0035107853 0.011743024 0.003313289 0.012023012 0.016509766 0.009780943
0.010424163 0.009670569 -0.0026708709 0.001577409 0.021312298 -0.028841754 -0.009392076 -0.0048662275
5.5401688e-05 0.024138514 0.0128525365 -0.019192545 -0.004459281 0.014753127 0.009547661 -0.01738975
-0.00060476165 0.0057054493 0.0067485343 0.0071373745 0.012338698 -0.002938591 0.0001930046 0.03320961
0.0009780698 0.0015190538 0.01258194 -0.015884686 0.00069168536 0.013646789 0.026669515 -0.020920554
-0.004113571 -0.011553657 -0.0011259338 0.01141953 0.012005566 0.004039041 0.018041866 -0.0012077792
-0.0038612557 -0.021739412 -0.020916758 -0.016602369 -0.025341926 0.020874739 -0.000993526 -0.00032589954
00000000: 81cd a3bc 9964 e03a 15b3 6f3b 1268 0e3b
00000010: b52d c6bc 503b 043d 0670 3abc 1c01 14bb
00000020: a97c 37bb 1a0d da3c 7cf7 03bb 4c1c 82bb
00000030: 1268 84bb ba83 35bb 39d0 a23c f8e6 6fbc
00000040: dd0c eb3a 7e49 f3bb df61 4cbc 6cab 88bc
00000050: 3796 6d3c f257 583a 394c 833c 7c1d c73c
00000060: 4d9b a8bb 5509 2dba e919 44bc c560 5f3c
00000070: 49ee a93a 5a86 d13c 3bf2 613c a613 113b
00000080: 284c 953c ac20 473c 784f ad3c 5c49 4f3c
00000090: 8942 393c 0b72 18ba fd5b 6a3c e1f8 febb
000000a0: 8a6b 4dbd 8404 b53a 82c7 783c 1682 81bc
000000b0: 2501 c43c e82e 693c b472 f0bb cbe4 2f3c
000000c0: fdfe 91bc 3751 793c bff3 7bbc 7c98 bfbc
000000d0: d7e7 58bc 41e6 6b3c 8bda 2bbc 44a5 e73c
000000e0: e65a 82bc c6c0 14bc 4f3d 8f3b db26 91bb
000000f0: 70b5 c5bb f76c 563b fec4 0dbc 5456 1439
00000100: 2e08 283a 09c0 a43b 5d07 d33b 9136 a63a
00000110: 4d99 c63c 29c8 0c3c 702a ebbc eb1c 01bc
00000120: 7263 0f3c 7bc9 0dbb 016f e1bc bc7f 133d
00000130: 20e2 da3c bdba 863a 7a5a 9c3b 3f1f db3b
00000140: 7562 bc3b 8ac8 043c 4b1c a8bc e53f 313b
00000150: 0836 7fbc 3171 b63c dbae e2bb dcb6 cc3c
00000160: 6c97 ebbb b2c2 0b3b 5c66 5abc 5f59 a1bc
00000170: 7eb0 37bc 285c 57bc e907 d9ba af98 ab3c
00000180: 7889 cb3b 0ba1 77bc c839 0fbc 69d6 24bc
00000190: e04f c13c cf80 8a3c b735 463b fff4 c2bc
000001a0: 4dd9 f93a 3d2e 383c 400c e9bb a6a9 c53c
000001b0: c97a 893c 8af6 453c c3c8 7bbb 1886 0e3c
000001c0: 28f3 8abb 48d1 8abb 5d4b b4ba 4712 543b
000001d0: 689f 87bc 9253 073c 7c2e 203b 32ba 793b
000001e0: 8ea8 c6bc 014a 973c 5bac 8a3a 8323 0b3c
000001f0: 3da5 d53b 8846 043c ca5a 1f3a 8809 9c3a
00000200: 8b96 0bbb 7fa0 523c c346 513b 8865 b9bc
00000210: fe39 8cbc 7a1c e6bb 952f 3aba 90b5 c1bb
00000220: 9bcf 103c 3f59 083b 3f86 bb3b 273f 49bb
00000230: c015 9cbc c925 073c ed7f 6c3c 8314 afbc
00000240: 31ee 2bbb 0cb4 81bc 8767 283c 63da 0f3c
00000250: 89c1 37bc d265 ef3b c63c 2b3c 82bb e53b
00000260: 21c5 8b3c 631f 193b e2ed d13c f8f1 35bb
00000270: 0ea4 4d3c fb09 b23c e049 e6bb f5d0 a4bc
00000280: 3d46 28ba 9568 cfba f646 73bc 39dc 04bd
00000290: 0f1b f0b9 96d2 573a 4635 6c3c 7f4a cfba
000002a0: de51 b03b 12d2 663c 53b3 fa3b 4c20 713b
000002b0: ba00 763b 9d8f 653b 7324 84bc 9bb1 91ba
000002c0: 0bce 4f3c 82cd fdbb 9c16 b33b 3401 42bc
000002d0: e797 3fbc b4a6 8ebb 0db8 bcbb a981 fc3b
000002e0: 2bac 6ebc cd93 e9bc 586a 64bb 9145 ab3c
000002f0: 8768 27bb c4c5 39bc 6f84 2fbc 6fc5 3f3c
00000300: 3752 e1bb b11b 0b3c 4835 b73c 03bc 0b3c
00000310: ef47 223b 6629 d8bb d254 7abc d9fd 8d39
00000320: 371d 4c3c a03d 84bc 3415 66bb d065 403c
00000330: c423 593b 2bfc 443c 7d3f 873c 4040 203c
00000340: 1cca 2a3c 4e71 1e3c c709 2fbb 10c1 ce3a
00000350: 2197 ae3c 8b45 ecbc 39e1 19bc e074 9fbb
00000360: 1c5f 6838 22be c53c 7293 523c af39 9dbc
00000370: 291f 92bb 19b7 713c cb6d 1c3c f374 8ebc
00000380: de88 1eba c7f4 ba3b cf22 dd3b a3e0 e93b
00000390: 4028 4a3c 6095 40bb 4761 4a39 cd06 083d
000003a0: 9432 803a fd1a c73a 7b24 4e3c 9a20 82bc
000003b0: 3852 353a c896 5f3c 077a da3c 9561 abbc
000003c0: 22cb 86bb 8d4b 3dbc 1294 93ba fb18 3b3c
000003d0: feb2 443c ef59 843b 89cc 933c 584e 9eba
000003e0: 1f0d 7dbb da16 b2bc 9f59 abbc b101 88bc
000003f0: df99 cfbc 8001 ab3c 3339 82ba 7fdd aab9

network_body._body_endoder.seq_layers.0.bias f4 [256]
-0.013202622 -0.0045927633 -0.0031580864 -0.0043441127 0.00486434 0.0065143155 -0.002127877 -0.007928177
0.008455735 -0.025881141 0.010641284 -0.0038982113 -0.0016887701 -0.001877375 -0.0028051669 0.007527489
0.00612707 -0.0030077363 -0.0017905823 -0.005908264 -0.010808752 -0.006237498 -0.0023926285 -0.0041375654
0.0010709864 -0.001220588 -0.00011796215 -0.003558691 -0.003646814 -0.00031878252 -0.0053196405 0.019907584
0.0014329271 -0.0073751607 0.0022505461 -0.002956094 0.0025557654 -0.00428408 -0.011242905 0.007128722
9.0865804e-05 -0.007329518 -0.010200369 0.004512436 0.0013979228 -0.0027699838 -0.00085172436 -0.00030226607
-0.0033411367 0.0070054587 -0.00017628806 -0.0012725196 -0.0039035147 -0.002460147 -0.0052514006 -0.0014960911
-0.0037638878 -0.0025768178 0.0060689845 0.0017802864 0.0015953317 -0.0008443004 -0.004099689 -0.008509067
-0.004091803 0.011776231 0.022167638 -0.012270094 0.0058562295 -0.009426119 -0.0020922977 0.006257134
-0.00019943903 -0.012040053 -0.0024880017 0.0017779751 -0.003663784 -0.007808551 0.0017355974 -0.001318651
0.01421046 0.009614182 0.008367395 -0.0025362389 0.03102225 -0.0033018799 -0.009264373 -0.00039360844
0.008073924 -0.004447649 -0.0020068192 -0.007209529 0.003053741 0.011858126 -0.006169214 0.008973291
-0.007877107 -0.001343443 0.0024532834 -0.0092389025 -0.008895197 0.0058173663 -0.0004795121 -0.015005149
-0.009208752 0.00321047 0.003927586 -0.005605909 -0.008762613 -3.197237e-05 -0.0038808892 0.004835629
-0.008250342 0.0033460744 0.018032001 0.0010130358 -0.008052478 -0.007042214 -0.010694893 -0.004239935
-0.00097621547 -0.0039453697 0.005253646 -0.016634535 -0.0023651111 0.010449665 -0.0013959574 -0.0027501425
-0.00082394056 -0.011599906 -0.0018250243 0.011265775 -8.702614e-05 0.013211001 -0.0024816606 0.0015057682
-0.005531204 0.009430122 -0.00820488 0.011765214 -0.0013547097 0.017436175 -0.0027582252 0.0015478387
0.0005429633 -0.0038307079 -0.0029048463 -0.00032336413 -0.008658791 0.002202012 0.0007030143 -0.0008618381
0.019403966 -0.004684022 -0.0015915263 -0.0056756684 -0.0019440614 -0.0040301224 -0.010393134 -0.0033940147
-0.0009632672 -0.01079221 0.008196463 0.008165036 0.005858274 -0.0074246917 0.0033437111 0.01492427
-0.0019639 -0.007884668 -0.00071727426 0.0028615852 -0.0010671924 -0.0027705857 -0.002198355 -0.0111594675
-0.0076608546 -0.0053009437 -0.0060510966 0.0052618296 -0.005782998 -0.0017685732 -0.0016924376 -0.0064480007
-0.016178053 -0.0019833005 -0.0024360039 -0.007245248 -0.008733863 0.0018970085 -0.015585252 -0.005496816
0.0047574313 -0.006754088 0.0019886985 -0.008181513 -0.0054887254 -0.003431304 -0.001321613 -0.0005201316
-0.0020203495 -0.010567097 -0.00034798912 -0.009268515 -0.0056653675 -0.0030547008 -0.0037644943 -0.004530529
-0.007659825 0.0048231324 -0.0025025702 -0.014307179 -0.020723216 -0.0052682906 0.010991555 -0.011928415
-0.0059233387 -0.001662287 -0.0040814527 -0.0048123556 0.004589111 -0.0059794276 0.0011874123 0.002195206
-0.0065355897 0.001222774 0.013389623 0.00081073295 -0.0064284317 -0.004244199 -0.00285892 0.004331442
-0.0060675754 0.043413468 -0.0049147103 -0.008255726 0.021182505 0.007419805 0.00093438587 -0.010660333
-0.011020939 -0.0017254703 0.015541522 -0.0042720665 -0.0031407122 -0.0012497989 -0.0039945636 -0.00011114659
-0.006528653 -0.014091832 -0.0025973818 -0.015298123 -0.0073039816 -0.0068895007 -0.0010715886 -0.003618871
00000000: cf4f 58bc e47e 96bb e6f7 4ebb 0f59 8ebb
00000010: 0b65 9f3b 0a76 d53b da73 0bbb 2fe5 01bc
00000020: ec89 0a3c b004 d4bc c858 2e3c 2279 7fbb
00000030: b959 ddba 4012 f6ba e4d6 37bb 28a9 f63b
00000040: 97c5 c83b 711d 45bb f9b1 eaba 1c9a c1bb
00000050: 3117 31bc ed63 ccbb a5cd 1cbb 6a94 87bb
00000060: 5760 8c3a 23fc 9fba 7262 f7b8 ed38 69bb
00000070: 63ff 6ebb 4422 a7b9 6150 aebb 3b15 a33c
00000080: 0ed1 bb3a 55ab f1bb e67d 133b 07bb 41bb
00000090: a17e 273b 7861 8cbb 2934 38bc 0e98 e93b
000000a0: 358f be38 742c f0bb 731f 27bc 0fdd 933b
000000b0: 813a b73a 9e88 35bb 4146 5fba 7779 9eb9
000000c0: f9f6 5abb 0c8e e53b f7d9 38b9 acca a6ba
000000d0: 1cd2 7fbb 6b3a 21bb f113 acbb 7d18 c4ba
000000e0: 8fab 76bb d4df 28bb 55de c63b 8058 e93a
000000f0: 731a d13a 0a54 5dba af56 86bb 9d69 0bbc
00000100: 8814 86bb 18f1 403c e898 b53c 8108 49bc
00000110: 9de5 bf3b 0270 1abc ee1e 09bb a508 cd3b
00000120: 8220 51b9 a443 45bc be0d 23bb f20a e93a
00000130: 181c 70bb e0de ffbb fc7c e33a 96d6 acba
00000140: fdd2 683c cd84 1d3c 6617 093c 0737 26bb
00000150: 6022 fe3c 5a64 58bb 99c9 17bc 3b5d ceb9
00000160: 7e48 043c 95bd 91bb d784 03bb ea3d ecbb
00000170: 4621 483b 9648 423c 1e27 cabb b604 133c
00000180: fb0e 01bc 7716 b0ba 44c7 203b c45e 17bc
00000190: 29bd 11bc 9b9f be3b 0667 fbb9 28d8 75bc
000001a0: 4ee0 16bc c066 523b fbb2 803b c6b1 b7bb
000001b0: 1091 0fbc 121a 06b8 8456 7ebb 3274 9e3b
000001c0: 712c 07bc d049 5b3b d9b7 933c d7c7 843a
000001d0: 8aee 03bc 5fc2 e6bb a239 2fbc 27ef 8abb
000001e0: b6e8 7fba 2948 81bb c726 ac3b 2645 88bc
000001f0: fbff 1abb 1235 2b3c 8ff8 b6ba bc3b 34bb
00000200: b7fd 57ba 880d 3ebc a735 efba 1694 383c
00000210: ce81 b6b8 f472 583c 5ba3 22bb 325d c53a
00000220: 1a3f b5bb cc80 1a3c c36d 06bc e2c2 403c
00000230: 8490 b1ba 4fd6 8e3c 57c3 34bb d9e0 ca3a
00000240: a655 0e3a 9d0c 7bbb 3c5f 3ebb 3389 a9b9
00000250: 9add 0dbc a24f 103b 7e4a 383a faec 61ba
00000260: 11f5 9e3c 6d7c 99bb c39a d0ba f5fa b9bb
00000270: e0cf feba 1e0f 84bb f747 2abc 1e6e 5ebb
00000280: c483 7cba cfd1 30bc 754a 063c a5c6 053c
00000290: c4f6 bf3b d44a f3bb 2a22 5b3b ed84 743c
000002a0: c6b4 00bb b22e 01bc 7607 3cba 6f89 3b3b
000002b0: 09e1 8bba b792 35bb 4712 10bb 33d6 36bc
000002c0: e807 fbbb 8ab3 adbb 4748 c6bb 6d6b ac3b
000002d0: 4e7f bdbb 78cf e7ba c8d4 ddba c049 d3bb
000002e0: d687 84bc 43fa 01bb 5da5 1fbb 8c69 edbb
000002f0: 7a18 0fbc 0ba5 f83a 4959 7fbc a21e b4bb
00000300: 3ae4 9b3b 6651 ddbb d354 023b c10b 06bc
00000310: c4da b3bb badf 60bb f939 adba 7159 08ba
00000320: d767 04bb 9e21 2dbc 4f72 b6b9 f8da 17bc
00000330: 8ca4 b9bb 6031 48bb bcb5 76bb d574 94bb
00000340: 45ff fabb 5e0b 9e3b 2902 24bb a868 6abc
00000350: bcc3 a9bc a0a1 acbb ec15 343c 666f 43bc
00000360: 9118 c2bb 19e1 d9ba b5bd 85bb f7b0 9dbb
00000370: 4160 963b 13ef c3bb f2a2 9b3a 72dd 0f3b
00000380: 8028 d6bb 7d45 a03a 2660 5b3c 5e87 543a
00000390: 98a5 d2bb ec12 8bbb b85c 3bbb c5ee 8d3b
000003a0: 83d2 c6bb 52d2 313d 940b a1bb 0643 07bc
000003b0: ef86 ad3c d621 f33b 93f1 743a ada8 2ebc
000003c0: 2b91 34bc 2d29 e2ba dea1 7e3c b1fc 8bbb
000003d0: 68d4 4dbb 4bd0 a3ba d4e4 82bb 5f17 e9b8
000003e0: 50ee d5bb 6de1 66bc d638 2abb faa4 7abc
000003f0: 3d56 efbb 52c1 e1bb 8c74 8cba 952a 6dbb

network_body._body_endoder.seq_layers.0.weight f4 [256, 111]
0.059974447 -0.054565333 -0.04046699 -0.11725792 -0.069184676 0.0040248237 0.13836229 0.0302004
-0.078984246 -0.13427112 0.09134346 -0.058012653 -0.0043660696 -0.15652099 -0.12264372 0.034076914
0.08598634 -0.077205814 -0.0936044 0.08341092 -0.048225187 -0.060094792 -0.09986146 -0.0107454425
0.056371164 -0.07862716 -0.030266484 0.043536343 -0.16264065 -0.118944295 0.010804302 0.10624256
0.16953595 -0.044575706 -0.27597 0.20819205 -0.22076501 0.06165635 -0.029082613 -0.050939616
-0.1450434 -0.0582415 0.027248275 0.06852925 -0.17474489 -0.00072280463 -0.18123163 0.053062737
-0.025241865 -0.06949673 -0.06752548 0.059348237 0.041157734 -0.06300228 0.11502734 0.19867054
0.17673793 -0.03995134 -0.12615538 -0.06871113 0.082252406 -0.00821232 -0.065117896 0.07340222
-0.18702136 -0.03769581 0.16595328 0.017283745 0.07209557 -0.19031565 -0.06411562 -0.17918509
0.024549719 0.12901004 -0.042008124 -0.061341565 0.09493417 -0.09988097 -0.009942466 -0.11571686
-0.05484814 -0.034787286 0.03936041 0.04484577 0.011815931 0.19459198 -0.08644918 -0.15371265
0.028998464 -0.082964964 -0.0612383 0.08616973 -0.06331362 -0.03703446 -0.075902216 -0.07902212
-0.07115988 0.12535942 -0.22151361 0.092764154 0.09419756 0.041621484 -0.057179905 0.05237306
-0.08860972 0.12592618 -0.16963173 0.12283846 0.039518885 0.14777732 0.15214713 0.01577125
-0.06586113 -0.12781662 -0.08726154 0.024392301 -0.3022826 0.11123777 0.030737385 0.006897185
-0.10698167 -0.12446698 0.14639023 0.11481632 0.14836852 0.06863095 -0.14294523 0.05493545
-0.02406392 0.13010201 0.064637735 0.0708174 0.0049934546 0.12164223 0.040825237 -0.022207735
-0.123260394 0.15343578 -0.09592869 -0.0033255522 0.15604717 -0.05896119 0.1706616 -0.053561307
0.11082273 0.11268243 0.03384623 -0.030037941 -0.08999774 -0.03399907 0.041921645 0.11209342
-0.034322526 0.016230084 0.13281189 0.06744001 -0.18243158 0.02484363 0.043089792 -0.06354286
-0.20755075 0.25263938 -0.019485503 0.000822314 0.030014344 0.06120984 -0.078064166 0.24721873
0.0884142 -0.0062085646 -0.055986565 0.08484193 0.018637002 -0.076086715 -0.04120043 0.0219983
-0.025742134 0.11564468 0.08428009 -0.055965066 0.005967782 -0.07554439 0.10769473 0.036959868
0.17467195 -0.032300852 0.0023803331 0.071459174 0.20563631 -0.1818294 -0.15757069 0.013033781
0.09460451 0.0952606 0.14839484 -0.20714647 0.13991013 0.16842459 -0.11012847 0.10915883
0.07949573 0.034017514 -0.00933393 0.0124740405 -0.15845066 -0.10631612 0.14185229 -0.15994354
-0.03887067 0.052186564 -0.0055725146 -0.053096835 -0.08357434 0.0352368 0.13154769 -0.00035183388
-0.12133825 0.011946153 0.12898594 0.0018901934 0.05728033 -0.031665478 0.116007105 -0.06573338
0.124749966 0.10101139 0.038592156 -0.06291986 0.005614096 -0.0724801 -0.1835457 0.05929455
0.08861833 0.10165799 -0.1128324 -0.06513484 0.09004465 0.24382584 0.014586698 -0.105212875
-0.08284846 0.09447995 -0.03249624 0.0035832583 -0.004056791 -0.0028394514 -0.07231044 0.13553086
-0.10127954 -0.11070913 0.13044393 0.1420199 0.1526488 0.074300066 0.1353192 0.11160917
00000000: c4a7 753d e67f 5fbd b7c0 25bd ec24 f0bd
00000010: b2b0 8dbd abe2 833b d8ae 0d3e d466 f73c
00000020: 7ec2 a1bd 5e7e 09be 4812 bb3d ad9e 6dbd
00000030: 3f11 8fbb 0a47 20be a12c fbbd 3c94 0b3d
00000040: 9b19 b03d 151e 9ebd aab3 bfbd 58d3 aa3d
00000050: c687 45bd f525 76bd 2a84 ccbd a70d 30bc
00000060: 73e5 663d 4707 a1bd 6bf1 f7bc 2a53 323d
00000070: 458b 26be 1199 f3bd 8704 313c b395 d93d
00000080: d59a 2d3e 0495 36bd f14b 8dbe 4c30 553e
00000090: 3910 62be 5e8b 7c3d a93e eebc 0fa6 50bd
000000a0: 4286 14be a48e 6ebd c637 df3c 1059 8c3d
000000b0: 53f0 32be 997a 3dba c994 39be 5058 593d
000000c0: 07c8 cebc 4d54 8ebd cd4a 8abd 2317 733d
000000d0: 0395 283d 5707 81bd 7493 eb3d 4a70 4b3e
000000e0: cafa 343e 04a4 23bd e02e 01be 6cb8 8cbd
000000f0: f373 a83d f78c 06bc 885c 85bd e753 963d
00000100: 8782 3fbe ec66 1abd a8ef 293e a496 8d3c
00000110: d8a6 933d 1be2 42be 0d4f 83bd 4c7c 37be
00000120: 7e1c c93c 351b 043e b610 2cbd 4b41 7bbd
00000130: d96c c23d 658e ccbd bae5 22bc f6fc ecbd
00000140: 71a8 60bd 1d7d 0ebd 6238 213d 33b0 373d
00000150: 9b97 413c 1f43 473e 450c b1bd d966 1dbe
00000160: 308e ed3c 89e9 a9bd 03d5 7abd c179 b03d
00000170: 92aa 81bd 72b1 17bd 9f72 9bbd 59d6 a1bd
00000180: 45bc 91bd 385e 003e 77d4 62be 22fb bd3d
00000190: a6ea c03d 4a7b 2a3d 7a35 6abd 2285 563d
000001a0: 0379 b5bd cbf2 003e f1b3 2dbe bb92 fb3d
000001b0: 8ede 213d f052 173e 75cc 1b3e b532 813c
000001c0: 33e2 86bd 5ce2 02be 2eb6 b2bd 5dd2 c73c
000001d0: c9c4 9abe a1d0 e33d f8cc fb3c c801 e23b
000001e0: 3519 dbbd 8be8 febd 52e7 153e d224 eb3d
000001f0: ebed 173e 628e 8c3d 3c60 12be ff03 613d
00000200: b321 c5bc 7639 053e ca60 843d b708 913d
00000210: 22a0 a33b 901f f93d 5d38 273d ffec b5bc
00000220: f26f fcbd 451e 1d3e 4376 c4bd 82f1 59bb
00000230: d4ca 1f3e 4a81 71bd eac1 2e3e 1a63 5bbd
00000240: 07f7 e23d 0cc6 e63d 58a2 0a3d 2112 f6bc
00000250: bc50 b8bd 9c42 0bbd 08b6 2b3d 3c91 e53d
00000260: c795 0cbd f4f4 843c d7ff 073e fd1d 8a3d
00000270: 58cf 3abe de84 cb3c ec7e 303d c222 82bd
00000280: 2f88 54be f359 813e 10a0 9fbc 8f90 573a
00000290: a4e0 f53c 2bb7 7a3d 1be0 9fbd e826 7d3e
000002a0: 8112 b53d 3771 cbbb 2b52 65bd 9bc1 ad3d
000002b0: a0ac 983c 5ad3 9bbd c8c1 28bd c735 b43c
000002c0: 2be1 d2bc 1ed7 ec3d 0a9b ac3d a03b 65bd
000002d0: 628d c33b 04b7 9abd 0e8f dc3d 3b63 173d
000002e0: 34dd 323e e64d 04bd 5dff 1b3b 3059 923d
000002f0: 5392 523e 7c31 3abe 365a 21be a48b 553c
00000300: 02c0 c13d fd17 c33d d1f4 173e 341e 54be
00000310: 9a44 0f3e 7f77 2c3e 098b e1bd aa8e df3d
00000320: a8ce a23d f355 0b3d 57ed 18bc eb5f 4c3c
00000330: e440 22be 44bc d9bd ba41 113e 3dc8 23be
00000340: da36 1fbd 94c1 553d a499 b6bb 117c 59bd
00000350: 0629 abbd 7654 103d 70b4 063e 5876 b8b9
00000360: 3080 f8bd ccb9 433c e414 043e 5ec0 f73a
00000370: c89e 6a3d a9b3 01bd 2295 ed3d 399f 86bd
00000380: e97c ff3d 0fdf ce3d cf12 1e3d 21dc 80bd
00000390: 73f6 b73b 7270 94bd 67f3 3bbe d8de 723d
000003a0: 877d b53d 1032 d03d ac14 e7bd 6a65 85bd
000003b0: 5469 b83d 7bad 793e 0cfd 6e3c d979 d7bd
000003c0: 74ac a9bd b47e c13d c71a 05bd 19d5 6a3b
000003d0: d4ee 84bb 1716 3abb 7f17 94bd 9ac8 0a3e
000003e0: a66b cfbd 78bb e2bd 1893 053e aa6d 113e
000003f0: f84f 1c3e a22a 983d 1e91 0a3e 5993 e43d

network_body._body_endoder.seq_layers.2.bias f4 [256]
0.0002535627 0.0070323455 0.00034932152 0.0014428598 -0.006270049 0.0046303757 -0.006387686 -0.003890915
0.0039701625 0.004961425 0.0052020177 0.0103089465 -0.005905524 -0.00949165 -0.003104857 -0.003967594
-0.0060028164 0.00925059 -0.0018326781 0.0057923966 -0.004129108 -0.0043102414 -0.0022461647 -0.002507582
-0.0010251335 0.0019877693 -0.002974563 -0.007537581 -0.001635187 0.002776114 0.000119342345 -0.0017026622
0.0013345953 0.0014275652 0.0016793385 -0.0012244865 -0.005449174 -0.0011626192 0.00509538 -0.0009989158
-0.0037088706 -0.0062316423 -0.01898961 0.00078825647 -0.0069688926 -0.006775028 0.0023068665 -0.0023405522
8.563188e-05 0.004921665 -0.0028295252 -0.002861342 -0.0047568046 -0.0028515975 0.0030458353 0.005603165
-0.0015803857 -0.0033131412 0.0031125976 0.0010439464 0.0017596077 -0.0031446344 0.00073370483 -0.0030294477
0.0072605633 -0.0027751809 0.0014746902 -0.0014549902 0.0020588837 -0.0045337854 0.0019801806 -0.00096915057
-0.01629747 -0.006909848 -0.0106531475 -0.014050668 -0.009999981 0.0018228156 0.0012062663 -0.0028245144
-0.005129709 -0.0008597119 0.0005836333 -0.005159018 -0.0052801403 -0.0024413448 0.0037905287 0.008554881
-0.009056684 -0.0032153162 -0.0051429365 -0.0037653358 0.0073632966 0.0032979327 -0.0011308366 -0.0028331243
0.009756744 -0.006665428 -0.0013153758 -0.0014276423 0.0031419224 -0.0019476844 -0.0053702127 -0.0021077339
-0.004523211 0.0013541286 0.0014703257 -0.0027533013 -0.00150036 -0.00042689612 0.001013244 -0.0031841297
0.0025191188 0.011800466 -0.003256961 -0.0042285887 0.0068823807 -0.014409573 0.0066913753 0.003548355
-8.057364e-05 0.0073044593 -0.006051857 0.003900837 -0.001102614 0.002942079 -0.002877027 -0.00040963196
4.1060783e-05 0.00035474982 0.0010006652 -0.0022565282 0.0025524173 0.00060971174 0.0029781586 0.0030885283
-0.0030800474 0.0145864785 -0.008722591 -0.0036190485 0.0037013446 -0.0050704456 0.0075598178 -0.002749448
0.0058999825 -0.0063465983 -0.003533543 -0.0028180366 -0.004493787 0.008045276 -0.0021349608 0.0048603034
-0.0016675012 -0.009000034 -0.0051649725 -0.0018728123 0.00055475003 -0.008323347 0.0012624995 -0.003429361
-0.008469106 -0.0057676462 -0.0025646128 -0.009800682 -0.004109163 -0.0011370908 -0.0050930465 0.0007861731
8.594856e-05 0.003769347 0.01299411 0.0062106233 -0.002665505 -0.0019194499 -0.011504038 -0.0050679324
-0.0076319613 -0.010879347 0.0063330894 0.006941676 -0.0039856574 -0.0006484196 -0.006227116 0.0042802407
-0.0005787245 0.00055754016 -0.0035895095 -0.0022488888 -0.008937016 -0.007859698 -0.00044249397 -0.0015529477
-0.00084820646 -0.00030833663 -0.001117208 -0.0036093565 -0.0027893633 -0.006047238 -0.011701014 -0.0002558033
0.0003173533 -0.003751252 0.0018881877 -0.005105793 -0.0021352065 -0.0015922439 0.007827998 -0.004561141
0.006823469 0.0056725303 0.00037276812 0.0020811723 -0.004031668 -0.004642251 -0.0008284831 -0.001472757
0.0013457929 0.0025798285 0.0007297639 -0.0011199103 0.0040373593 0.0059081013 0.0069357413 0.003337064
0.0073516737 0.007352429 -0.0017194488 -0.00029200403 -0.00090392336 -0.002293782 -0.0044053663 0.0018951878
0.0023305768 -0.002936238 0.0035727227 -9.921413e-05 0.003353192 -0.0072242524 0.0032436624 -0.00064499164
-0.008054017 3.7820042e-05 -0.017568337 -0.0017324261 -0.0021975182 0.0010591828 0.006226595 0.00768566
-0.0016637456 0.00068123295 -0.0011159043 -0.0024307722 0.013700321 -0.0037545625 -0.00083813485 -0.003996417
00000000: 9cf0 8439 976f e63b 2425 b739 571e bd3a
00000010: fc74 cdbb 68ba 973b cb4f d1bb b9fe 7ebb
00000020: 2318 823b 7393 a23b b075 aa3b dbe6 283c
00000030: 2083 c1bb de82 1bbc db7a 4bbb 9702 82bb
00000040: 46b3 c4bb c98f 173c 7936 f0ba 25ce bd3b
00000050: 784d 87bb ed3c 8dbb 6434 13bb 3f56 24bb
00000060: c65d 86ba 3c45 023b e3f0 42bb d0fd f6bb
00000070: c553 d6ba 77ef 353b 6f47 fa38 dd2b dfba
00000080: 96ed ae3a 241d bb3a 401d dc3a f37e a0ba
00000090: fc8e b2bb 0763 98ba 25f7 a63b 0dee 82ba
000000a0: 8610 73bb ce32 ccbb 1990 9bbc ffa2 4e3a
000000b0: 4f5b e4bb 0e01 debb cc2e 173b f363 19bb
000000c0: 4495 b338 eb45 a13b 8e6f 39bb 5a85 3bbb
000000d0: f8de 9bbb dee1 3abb a39c 473b c19a b73b
000000e0: f224 cfba 4921 59bb b9fc 4b3b 07d5 883a
000000f0: a3a2 e63a 3616 4ebb 1956 403a b389 46bb
00000100: 05ea ed3b cfdf 35bb 644a c13a 5fb5 beba
00000110: 56ee 063b 2690 94bb ebc5 013b 980e 7eba
00000120: 4682 85bc 026c e2bb 8a8a 2ebc c634 66bc
00000130: f6d6 23bc 8beb ee3a 951b 9e3a 7d1b 39bb
00000140: 1e17 a8bb 4a5e 61ba f8fe 183a fb0c a9bb
00000150: 0705 adbb f8fe 1fbb 856a 783b c629 0c3c
00000160: 7c62 14bc 0eb8 52bb 1486 a8bb dac3 76bb
00000170: cf47 f13b 2122 583b 9438 94ba f0ab 39bb
00000180: c0da 1f3c aa69 dabb b068 acba ba1f bbba
00000190: b6e8 4d3b 7249 ffba 9cf8 afbb e821 0abb
000001a0: 7237 94bb 047d b13a f2b7 c03a bb70 34bb
000001b0: baa7 c4ba 07d1 dfb9 d4ce 843a d5ac 50bb
000001c0: cd17 253b be56 413c bd72 55bb f98f 8abb
000001d0: 9885 e13b 2116 6cbc 5343 db3b 858b 683b
000001e0: a5f9 a8b8 3f5a ef3b a84e c6bb 2fa5 7f3b
000001f0: 9685 90ba e5cf 403b 818c 3cbb dfc3 d6b9
00000200: ae38 2c38 b7fd b939 c128 833a 43e2 13bb
00000210: 7546 273b 10d5 1f3a 362d 433b e868 4a3b
00000220: 9fda 49bb 20fc 6e3c 33e9 0ebc 8f2d 6dbb
00000230: 4292 723b fb25 a6bb 59b8 f73b 1530 34bb
00000240: a454 c13b 20f7 cfbb 0493 67bb cfae 38bb
00000250: 9e40 93bb 55d0 033c b3ea 0bbb 2e43 9f3b
00000260: 0e90 daba e174 13bc ee3e a9bb 2779 f5ba
00000270: a56c 113a a65e 08bc 747a a53a 21bf 60bb
00000280: 01c2 0abc 86fe bcbb 1013 28bb 0a93 20bc
00000290: 28a6 86bb 700a 95ba 92e3 a6bb 2f17 4e3a
000002a0: 483f b438 2607 773b 3fe5 543c 7c82 cb3b
000002b0: c1af 2ebb 0d96 fbba 6f7b 3cbc e610 a6bb
000002c0: 8815 fabb 4a3f 32bc ce85 cf3b 0077 e33b
000002d0: 1e9a 82bb b4fa 29ba d60c ccbb 4341 8c3b
000002e0: 8bb5 17ba e327 123a fa3d 6bbb 1862 13bb
000002f0: 906c 12bc f6c5 00bc 89fe e7b9 478c cbba
00000300: 2c5a 5eba 3ea8 a1b9 486f 92ba f48a 6cbb
00000310: c0cd 36bb e927 c6bb 9cb5 3fbc 561d 86b9
00000320: 7062 a639 91d7 75bb 117d f73a 7f4e a7bb
00000330: d2ee 0bbb d7b2 d0ba 0141 003c a075 95bb
00000340: 6897 df3b a2e0 b93b 1770 c339 4764 083b
00000350: 151c 84bb 061e 98bb 8f2e 59ba 8609 c1ba
00000360: 5165 b03a 5712 293b a04d 3f3a f4c9 92ba
00000370: d34b 843b bf98 c13b 3745 e33b a5b2 5a3b
00000380: 4fe6 f03b a5ec f03b 215f e1ba 1e18 99b9
00000390: 45f5 6cba 4753 16bb e45a 90bb f367 f83a
000003a0: 97bc 183b e66d 40bb 5724 6a3b 2e11 d0b8
000003b0: 3ac1 5b3b 6cb9 ecbb a093 543b a814 29ba
000003c0: fff4 03bc f6a0 1e38 79eb 8fbc 9312 e3ba
000003d0: 3d04 10bb 47d4 8a3a 7708 cc3b fdd7 fb3b
000003e0: 0a12 daba c594 323a 8943 92ba 974d 1fbb
000003f0: 5077 603c 1b0f 76bb 47b6 5bba 60f4 82bb

network_body._body_endoder.seq_layers.2.weight f4 [256, 256]
0.031067815 -0.0013281663 0.10377425 -0.037064046 0.010404769 0.020195916 -0.082462944 -0.06317627
-0.0003638775 -0.021664763 0.046410646 -0.11846742 -0.020701647 -0.0031139266 -0.109898515 0.05055319
0.00605307 -0.09611961 -0.02322385 0.04617365 0.015322585 0.10040274 -0.0023344883 -0.0064139185
0.004609026 0.007897525 -0.107838094 0.1218748 0.042784553 0.08910054 0.07292539 -0.07597208
-0.029054064 -0.045249008 0.018313538 -0.017687015 -0.07913706 0.010078254 -0.13031685 0.0073265918
-0.042015076 -0.061659593 0.13809928 -0.0860426 -0.12944809 -0.051612888 0.019125259 -0.015583027
0.008433161 -0.0494326 -0.006725661 0.0013455977 -0.10621256 -0.04234494 -0.03619297 -0.09706257
-0.07280748 -0.07778727 -0.000101599624 -0.014122589 -0.1322684 -0.048426133 -0.11104508 0.025364334
-0.0055394135 -0.00050954794 0.023252133 -0.017896306 0.05059159 0.026264938 -0.090367995 -0.037485525
0.11344879 0.05662973 -0.14349443 0.11585359 0.037919097 0.0032150373 0.0688216 0.092350714
-0.020169057 -0.0015999797 0.04097161 -0.083131894 0.026052674 0.076181844 0.02804964 -0.013446259
-0.065519 0.042722505 -0.0021429802 0.022483002 -0.0019292329 0.043027904 0.0473287 -0.022076098
-0.08940987 -0.033652574 -0.10757296 0.0414139 -0.15047975 0.02330278 0.068388365 0.041629057
0.06909407 0.090750545 -0.01119349 0.0864525 -0.014154742 0.043026816 -0.008365089 0.09120513
-0.038954426 -0.1333984 -0.22156474 -0.05411522 -0.018972663 -0.021664651 0.01961726 -0.050153766
-0.02948334 -0.041667905 -0.03468845 0.02334654 -0.035993427 0.08503159 0.057771098 -0.01028049
-0.008823636 0.057889987 -0.012075714 -0.06739789 0.009575221 0.09627288 0.098874874 -0.035246316
0.03384 -0.07612666 0.09929935 -0.08149818 0.12115513 0.017981125 -0.051512178 -0.045347814
0.0062840716 0.14114003 0.0016154385 -0.00014479343 0.028730346 -0.08083991 -0.040551372 -0.042703878
0.033204086 0.12748614 -0.026045939 0.0200974 0.038475763 0.08921923 0.026719697 0.09514541
-0.0062552644 -0.07138197 0.14875165 -0.038958754 -0.10958171 -0.0036918 -0.030135386 0.08862262
-0.026606489 -0.18673944 -0.018284904 -0.00027824 0.019636823 0.17087461 0.100236684 -0.035774384
-0.027403347 0.040420014 0.06664666 0.04765618 0.046836615 -0.01685392 0.02869005 0.029235158
0.014588863 -0.10044255 0.011087482 0.012529319 0.035197403 -0.04377487 0.036955092 -0.06708587
0.048385557 0.08564545 0.00035935512 -0.009720872 -0.11582784 -0.09894484 -0.016999913 -0.02010626
0.06289555 -0.028542621 -0.10111908 -0.026757706 0.052049007 0.09928507 0.05116238 -0.028506467
-0.050760675 -0.03862727 -0.04154778 -0.06408079 -0.019401405 -0.018623978 -0.061828125 -0.062600136
0.034066185 -0.016395241 -0.15309168 0.061700314 0.08540332 0.0603639 -0.103951275 0.045855317
-0.048111696 0.0076701664 -0.036893502 -0.07087468 -0.015052276 -0.039614078 -0.106463015 0.0686361
0.042685542 -0.048866443 -0.040660396 0.013957126 0.024475714 -0.05921732 0.00618935 0.08315046
0.08563004 0.06497582 -0.11489404 -0.08358372 0.09493411 -0.07353038 0.050443925 -6.70798e-05
0.05974358 0.10679176 0.09152063 0.035231818 -0.014016477 0.03082079 -0.06473947 -0.024680892
00000000: ee81 fe3c de15 aeba 9887 d43d 78d0 17bd
00000010: c478 2a3c e871 a53c 55e2 a8bd 8f62 81bd
00000020: d0c6 beb9 4d7a b1bc 1719 3e3d 0c9f f2bd
00000030: 8096 a9bc 0513 4cbb 7912 e1bd dd10 4f3d
00000040: d558 c63b 5cda c4bd f23f bebc 9520 3d3d
00000050: 940b 7b3c f49f cd3d 37fe 18bb d92b d2bb
00000060: 5007 973b 9f64 013c 38da dcbd 7f99 f93d
00000070: db3e 2f3d 587a b63d e859 953d 4097 9bbd
00000080: ca02 eebc 0657 39bd 4606 963c 5ce4 90bc
00000090: 9c12 a2bd 431f 253c c871 05be e813 f03b
000000a0: 0018 2cbd c58e 7cbd e669 0d3e 1a37 b0bd
000000b0: 0a8e 04be 0968 53bd 93ac 9c3c f44f 7fbc
000000c0: 3e2b 0a3c d779 4abd ef62 dcbb c45e b03a
000000d0: f885 d9bd e371 2dbd 143f 14bd bec8 c6bd
000000e0: 171c 95bd ef4e 9fbd e211 d5b8 6e62 67bc
000000f0: 5e71 07be 7b5a 46bd 9a6b e3bd ddc8 cf3c
00000100: f883 b5bb 2f93 05ba 427b be3c 469b 92bc
00000110: 2139 4f3d 9129 d73c db12 b9bd 6c8a 19bd
00000120: d757 e83d 93f4 673d 34f0 12be a644 ed3d
00000130: 0e51 1b3d 60b3 523b 57f2 8c3d 5f22 bd3d
00000140: 9439 a5bc 69b6 d1ba d9d1 273d 0e41 aabd
00000150: 6b6c d53c 3a05 9c3d 5cc8 e53c b34d 5cbc
00000160: d32e 86bd cbfd 2e3d 3e71 0cbb 462e b83c
00000170: 50de fcba 073e 303d bddb 413d efd8 b4bc
00000180: 861c b7bd 48d7 09bd 364f dcbd 9fa1 293d
00000190: 5d17 1abe 79e5 be3c 330f 8c3d 3b83 2a3d
000001a0: 3181 8d3d 6cdb b93d e664 37bc 020e b13d
000001b0: 4ae9 67bc e33c 303d ba0d 09bc c1c9 ba3d
000001c0: ad8e 1fbd 9799 08be dee1 62be eca7 5dbd
000001d0: 8f6c 9bbc 117a b1bc 60b4 a03c 096e 4dbd
000001e0: 0c87 f1bc f7ab 2abd 7a15 0ebd 3e41 bf3c
000001f0: d86d 13bd 0b25 ae3d 63a1 6c3d 806f 28bc
00000200: 0391 10bc 0d1e 6d3d 37d9 45bc e807 8abd
00000210: 63e1 1c3c b72a c53d e97e ca3d 715e 10bd
00000220: d09b 0a3d 4be8 9bbd 755d cb3d 85e8 a6bd
00000230: 2e20 f83d 274d 933c 6ffe 52bd a1be 39bd
00000240: 9dea cd3b 0387 103e 1fbd d33a b1d3 17b9
00000250: e75b eb3c 658f a5bd 3219 26bd 43ea 2ebd
00000260: 0201 083d ba8b 023e 4b5e d5bc 4da3 a43c
00000270: c398 1d3d 92b8 b63d 44e3 da3c 99db c23d
00000280: f6f8 ccbb b630 92bd 5a52 183e 3793 1fbd
00000290: 606c e0bd 20f2 71bb 7cde f6bc c77f b53d
000002a0: daf5 d9bc a038 3fbe 39ca 95bc bee0 91b9
000002b0: 67dd a03c c1f9 2e3e e448 cd3d 2988 12bd
000002c0: fc7c e0bc 758f 253d 0b7e 883d 2033 433d
000002d0: c0d7 3f3d 3b11 8abc 6507 eb3c 927e ef3c
000002e0: 2006 6f3c d3b4 cdbd 45a8 353c c647 4d3c
000002f0: 272b 103d 474d 33bd 395e 173d 5164 89bd
00000300: ef2f 463d e266 af3d d467 bc39 4b44 1fbc
00000310: 2637 edbd 98a3 cabd 6743 8bbc e2b5 a4bc
00000320: 62cf 803d 37d2 e9bc 8517 cfbd fa32 dbbc
00000330: 5731 553d f955 cb3d a58f 513d 6586 e9bc
00000340: 6dea 4fbd a137 1ebd 012e 2abd ca3c 83bd
00000350: b2ef 9ebc 5091 98bc 7d3f 7dbd 8034 80bd
00000360: fc88 0b3d 504f 86bc 11c4 1cbe 78b9 7c3d
00000370: f0e7 ae3d 2340 773d 68e4 d4bd c9d2 3b3d
00000380: c510 45bd 0556 fb3b a41d 17bd bf26 91bd
00000390: d29d 76bc 5f42 22bd 4809 dabd 1591 8c3d
000003a0: 09d7 2e3d 2e28 48bd 848b 26bd 6eac 643c
000003b0: 4b81 c83c dc8d 72bd 08d0 ca3b ca4a aa3d
000003c0: cd5e af3d 0b12 853d 914d ebbd f12d abbd
000003d0: d16c c23d 1997 96bd 4a9e 4e3d 32ad 8cb8
000003e0: afb5 743d a3b5 da3d 2b6f bb3d 3d4f 103d
000003f0: 5ea5 65bc e27b fc3c 2196 84bd 952f cabc

network_body._body_endoder.seq_layers.4.bias f4 [256]
0.0013689473 -0.0024723927 -0.0011889284 -0.0020572415 0.0037775377 0.007231564 0.0044978727 -0.0016810963
-0.0008228951 0.0004138637 -0.0012990051 6.007969e-05 -0.0012200618 -0.0021823111 0.00086613646 0.003667081
0.0004795393 -0.0074632517 0.002106456 0.00046672314 -0.0022050769 0.005751103 -0.004588152 0.008052682
-0.00052353286 0.0042531965 -0.004055224 -0.0009896709 -0.0010187625 -0.00023261107 0.0031926127 -0.0012148997
0.002536181 -0.0004086976 -0.003822937 0.004759736 -0.005760945 -0.011282967 0.0020272548 -0.0049258457
0.0056435666 -0.0015223494 -0.00097030937 0.0026689256 -0.001035556 0.0013463756 0.0014885542 -0.010981168
-0.0013143927 -0.0018801152 0.0003174988 0.0047458163 -0.0050322004 -0.008584614 -0.00013015475 -0.0015225125
0.004270972 0.0001632251 0.008809377 -0.012443449 0.0020993797 -0.0005072653 0.00052038505 0.001620588
-0.00079613255 0.012669435 -0.0032416899 -0.007724111 -0.009121063 -0.0014376576 0.0045788037 -0.0014595999
0.0008705972 -0.00475224 0.0043306127 0.010031406 0.003784662 -0.006634929 -0.0015815377 0.0015422452
-0.007118377 -0.0020400565 0.002370621 -0.005126944 -0.0009649419 0.0031229397 -0.0015174998 -0.0044858097
-0.0010075558 0.0040066224 -0.0029497012 0.009270701 0.0002421332 0.00063756655 -0.009829896 0.00072208163
-0.005217618 -0.0019356498 -0.0036229785 5.564737e-05 -0.0016301624 0.0017016273 -0.0036366335 0.014012645
0.00018495432 -0.003063068 -0.0020498547 -0.0023270275 -0.0022901164 0.0014632023 -0.0018759029 -0.0054819603
-0.01746954 0.0028137655 0.00034209274 -0.000790401 0.005562337 0.00017322636 -0.0018422757 0.00020805154
0.0016321883 0.01610363 -0.006211208 -0.0022872388 -0.0018100211 -0.008363498 -0.009657525 0.001865858
-0.0061999867 -0.00050694804 -0.00029591448 0.001900227 -0.0043657543 0.0024529782 -0.0072861873 -0.0066317627
-0.002749063 -0.0016820615 -0.0008880757 -0.0121144485 0.005696705 -0.0014656264 0.0058361683 -0.00058858027
-8.0329795e-05 -0.0016277581 -0.001579172 -0.0015969242 0.0003942191 -0.0001845612 -0.002067235 0.0038905912
0.0009631073 -0.0008630444 -0.018721227 -0.015711173 0.004140899 0.008547825 0.00029787287 0.0001713752
-0.018505998 -0.0010746922 0.0008893591 0.010626557 0.0037219424 -0.005096774 -0.00744697 -0.008869087
-0.0036174068 -0.0004256091 -0.003846081 -0.0009868429 0.0035697587 -0.0022084336 0.0042209513 -0.0010533355
-0.0030633344 0.0010941823 -0.0024486142 -0.0047100037 0.0018014868 -0.00035358375 -0.00016455223 -0.00087627623
-0.00089458755 0.00080050126 -0.002051906 0.00082863553 -0.0018992883 1.8221266e-05 0.0024893556 -0.0071206596
0.00073993683 -0.0023415443 -0.0022034443 0.00031868755 0.0033392198 0.00068628805 -6.8624155e-05 -0.0035889903
-0.0021225824 0.004956658 -0.0065477206 -0.00075068395 0.0037374734 -0.0018956707 -0.0028539242 -0.0068542315
0.0004516276 -0.002579596 -0.00011359669 -0.0022417628 -0.004341638 -0.0052378234 0.0027366374 -0.008822758
-0.0040658424 -0.0012007927 0.0037381223 -0.0008896239 -0.0007091158 -0.0028102673 -0.0012567457 0.0038555686
0.0019428676 -0.003661534 -0.0004342096 -0.0023685964 0.007411418 -0.0030443028 -0.0021009478 0.0018378665
-0.0020770142 -0.0055447547 0.0011903392 -5.60641e-05 -0.00449042 -0.0011084477 -0.0026509457 0.0028750994
-0.0005342807 -0.00236038 -0.0010990236 -0.0035520962 -0.0019342188 -0.004687058 0.003888554 0.002149622
-0.00035117642 -0.0027743971 0.0036240814 -0.0028254332 0.0052088248 0.004581938 -0.0033523745 -2.0039302e-05
00000000: 406e b33a de07 22bb d1d5 9bba c9d2 06bb
00000010: 9190 773b c1f6 ec3b e462 933b 3b58 dcba
00000020: 8eb7 57ba d8fb d839 6143 aaba 13fe 7b38
00000030: 7bea 9fba 1b05 0fbb 6f0d 633a 6953 703b
00000040: ad6a fb39 4b8e f4bb 780c 0a3b 85b2 f439
00000050: 0d83 10bb c073 bc3b 3558 96bb 65ef 033c
00000060: b23d 09ba 665e 8b3b afe1 84bb d8b7 81ba
00000070: ff87 85ba 0fe9 73b9 273b 513b 453d 9fba
00000080: 0e36 263b 7746 d6b9 3d8a 7abb 8ff7 9b3b
00000090: 4fc6 bcbb 32dc 38bc b1db 043b fd68 a1bb
000000a0: abed b83b 9289 c7ba 5c5c 7eba 24e9 2e3b
000000b0: 7ebb 87ba de78 b03a 971b c33a 5bea 33bc
000000c0: b347 acba 336e f6ba f875 a639 cb82 9b3b
000000d0: 28e5 a4bb 7ba6 0cbc 267a 08b9 0b8f c7ba
000000e0: 83f3 8b3b 6727 2b39 3555 103c 9cdf 4bbc
000000f0: bf95 093b fff9 04ba 736a 083a e969 d43a
00000100: 8db3 50ba 7693 4f3c 8872 54bb 8a1a fdbb
00000110: 8370 15bc c96f bcba ca09 963b 0c50 bfba
00000120: ca38 643a aeb8 9bbb d0e7 8d3b c45a 243c
00000130: 1808 783b d269 d9bb 994b cfba 2925 ca3a
00000140: 4641 e9bb 78b2 05bb 6c5c 1b3b ecff a7bb
00000150: 28f4 7cba 3caa 4c3b d8e6 c6ba b3fd 92bb
00000160: f60f 84ba fc49 833b c64f 41bb 23e4 173c
00000170: 23e5 7d39 5e22 273a 920d 21bc 144a 3d3a
00000180: 8df8 aabb a1b5 fdba 7e6f 6dbb e966 6938
00000190: 2cab d5ba 2309 df3a 9654 6ebb 4b95 653c
000001a0: 4cf0 4139 c1bd 48bb db56 06bb 0b81 18bb
000001b0: c715 16bb ecc8 bf3a dbe0 f5ba 04a2 b3bb
000001c0: 481c 8fbc 2767 383b e95a b339 ea32 4fba
000001d0: 4444 b63b 19a4 3539 8478 f1ba 6928 5a39
000001e0: 27ef d53a c3eb 833c 6487 cbbb 80e5 15bb
000001f0: 3b3e edba 0e07 09bc 993a 1ebc ce8f f43a
00000200: 4229 cbbb b5e4 04ba f824 9bb9 0a11 f93a
00000210: 9a0e 8fbb 25c2 203b f8c0 eebb 424f d9bb
00000220: a029 34bb 9e78 dcba c0cd 68ba ae7b 46bc
00000230: 6dab ba3b 431a c0ba 543d bf3b f44a 1aba
00000240: bb76 a8b8 805a d5ba 38fc ceba e24f d1ba
00000250: 31af ce39 c586 41b9 737a 07bb 4af9 7e3b
00000260: 0979 7c3a ee3d 62ba 425d 99bc b8b4 80bc
00000270: 61b0 873b 2d0c 0c3c d22b 9c39 2eb3 3339
00000280: e499 97bc b0dc 8cba e123 693a 031b 2e3c
00000290: d5eb 733b d702 a7bb b605 f4bb a64f 11bc
000002a0: 0412 6dbb 4924 dfb9 880e 7cbb f458 81ba
000002b0: 9df2 693b 5ebb 10bb e84f 8a3b 1310 8aba
000002c0: 39c2 48bb aa6a 8f3a ee78 20bb 6056 9abb
000002d0: de1f ec3a 3561 b9b9 a78b 2cb9 e7b5 65ba
000002e0: c182 6aba bbd8 513a 4579 06bb ca38 593a
000002f0: 8af1 f8ba dfd9 9837 7524 233b 6c54 e9bb
00000300: 52f8 413a 9874 19bb a967 10bb 8515 a739
00000310: d0d6 5a3b 03e8 333a 50ea 8fb8 4435 6bbb
00000320: 061b 0bbb 766b a23b 438e d6bb 8cc9 44ba
00000330: 66f0 743b 2778 f8ba e708 3bbb 7699 e0bb
00000340: 6ec8 ec39 700e 29bb c23a eeb8 8aea 12bb
00000350: 4d44 8ebb 0ca2 abbb 2859 333b 548d 10bc
00000360: c23a 85bb eb63 9dba 49fb 743b a635 69ba
00000370: f5e3 39ba 762c 38bb 63b9 a4ba b5ad 7c3b
00000380: d2a7 fe3a 59f6 6fbb a0a6 e3b9 743a 1bbb
00000390: 7bdb f23b ed82 47bb 0eb0 09bb 91e4 f03a
000003a0: 841e 08bb c6b0 b5bb 2805 9c3a 5e26 6bb8
000003b0: 6024 93bb 5549 91ba 7dbb 2dbb 2a6c 3c3b
000003c0: f90e 0cba 9bb0 1abb 1d0d 90ba 49ca 68bb
000003d0: 9d85 fdba e495 99bb 1cd7 7e3b ace0 0c3b
000003e0: 1a1e b8b9 a9d2 35bb ff81 6d3b e72a 39bb
000003f0: caae aa3b 1524 963b 83b3 5bbb 131a a8b7

network_body._body_endoder.seq_layers.4.weight f4 [256, 256]
-0.064906575 -0.11021357 0.0026754988 0.028644709 0.005003848 -0.084967196 0.048863743 -0.08767422
-0.061602827 0.023096595 -0.027335284 0.0075615165 -0.07172237 -0.124205686 -0.12545168 -0.056278434
0.05007243 -0.047127873 0.09252474 0.09774731 0.05203253 0.045334246 0.02443578 0.0864821
-0.015311256 0.025116168 -0.10258322 -0.013341365 -0.08047008 0.13478947 -0.034438957 -0.0033500935
-0.015217641 -0.021282936 -0.020155305 -0.13348076 -0.06282381 -0.0001210815 0.047249217 0.055545054
0.063566476 0.0016948828 -0.043583144 0.004335704 -0.024559198 -0.044705626 -0.01882249 0.058090806
-0.1316456 -0.09237446 -0.020461818 0.08254042 -0.01876434 0.029865338 -0.06835332 0.025989298
-0.10637368 0.0049298042 -0.0015590729 -0.02075012 -0.028461548 0.019976933 -0.09428438 -0.032660097
-0.0032278995 0.013262234 -0.032014944 0.08505537 -0.06153993 0.0604735 0.001591683 0.10913765
0.04812052 -0.052332528 0.061145566 -0.0646547 0.022247022 -0.056923226 0.0732408 0.13308692
-0.10754439 0.057164725 -0.061130613 -0.044907395 0.11927725 0.015527071 0.016252453 0.07752216
0.020727364 -0.14125873 -0.051897857 -0.015163222 -0.16557272 0.08564567 -0.027180575 0.05851515
0.019527435 0.06682721 0.052351445 -0.011103256 0.035141796 -0.037677348 0.0418248 0.020727394
0.09751405 0.02832674 0.038208496 0.004947977 0.006870267 -0.02540457 0.08834807 0.011816082
0.09700542 0.00649626 0.07188847 -0.13231625 0.071991235 -0.035524867 0.0014105345 -0.0077304156
-0.01183641 0.07402968 -0.09114062 0.005211392 -0.034288812 0.08226413 -0.039738197 -0.047598694
-0.084454685 0.0028778699 0.081203386 0.02489591 0.017871153 -0.0335188 -0.038701385 -0.02841414
-0.03236136 -0.022423755 -0.043815356 -0.081322454 0.0075862715 -0.043667812 -0.097716995 -0.041286174
0.0044581736 -0.004697368 0.10090769 0.08604052 -0.028619234 -0.052095722 0.032053 -0.04775657
0.043956388 0.05034834 -0.016410047 -0.054848664 0.047493014 0.09185578 -0.012143237 -0.027660461
-0.06577116 -0.022984613 0.04161154 -0.014661517 -0.07702536 -0.06691795 0.008453446 0.12916353
0.062611416 -0.06530476 -0.10202607 -0.0061172573 0.0028252793 -0.007626094 -0.009554956 -0.10320143
0.001819608 0.0723177 0.057665143 0.18664357 0.028764106 0.018542416 -0.08992573 -0.07992521
0.06799177 -0.11891701 0.04979671 0.053117923 -0.034057688 -0.010591348 0.012401943 -0.03200529
-0.0059282253 0.059120983 -0.08963384 0.09122587 -0.057474956 -0.049885456 0.053892903 0.00781897
0.039799932 0.087679386 -0.09369288 0.04429566 -0.029165383 -0.004833377 -0.025944915 -0.098085925
-0.07662377 0.019769378 0.0230057 0.07881097 0.012373317 -0.0097745005 0.046808783 -0.046299748
0.06310851 -0.09242292 0.021749217 -0.066984944 0.042036507 -0.03355676 0.021115243 -0.032453153
0.009909572 -0.037287194 0.0646095 0.0017244447 -0.021010412 0.063884325 0.078860305 -2.9850085e-05
0.082529575 0.01926396 -0.10554944 -0.005673112 -0.004644177 -0.14348263 -0.0103181265 -0.018246088
-0.06397683 0.05355864 -0.0068421834 0.008185288 -0.0152860675 -0.0031992425 0.0137118725 0.009083212
0.004577194 -0.013998163 0.10743321 0.010963297 0.00399028 0.06560403 -0.02321109 0.01431973
00000000: bded 84bd a7b7 e1bd 6c57 2f3b 4fa8 ea3c
00000010: 52f7 a33b 4803 aebd 5925 483d 8b8e b3bd
00000020: 3f53 7cbd 1235 bd3c 3fee dfbc 99c6 f73b
00000030: 2ee3 92bd 8d5f febd 6876 00be 3784 66bd
00000040: c018 4d3d 2809 41bd 9c7d bd3d be2f c83d
00000050: 1020 553d 67b0 393d 8b2d c83c 871d b13d
00000060: 10dc 7abc 6cc0 cd3c 2717 d2bd be95 5abc
00000070: 7fcd a4bd 4006 0a3e dd0f 0dbd 3e8d 5bbb
00000080: 6a53 79bc 8d59 aebc bd1c a5bc 2eaf 08be
00000090: c5a9 80bd 23ed fdb8 6588 413d 3683 633d
000000a0: 242f 823d d426 de3a 3d84 32bd 8512 8e3b
000000b0: 5f30 c9bc 3f1d 37bd 9f31 9abc a0f0 6d3d
000000c0: 1bce 06be d22e bdbd 8b9f a7bc f40a a93d
000000d0: acb7 99bc 27a8 f43c d3fc 8bbd 82e7 d43c
000000e0: 72da d9bd 328a a13b ce59 ccba 28fc a9bc
000000f0: 3128 e9bc aaa6 a33c 2b18 c1bd 98c6 05bd
00000100: 2b8b 53bb d749 593c 1a22 03bd 8331 ae3d
00000110: 4b11 7cbd 10b3 773d 05a0 d03a 8f83 df3d
00000120: 061a 453d a25a 56bd c673 7a3d af69 84bd
00000130: 633f b63c 5428 69bd 46ff 953d f047 083e
00000140: 3c40 dcbd 8f25 6a3d 1864 7abd d1f0 37bd
00000150: a147 f43d 4265 7e3c dd23 853c f0c3 9e3d
00000160: 6fcc a93c 21a6 10be d992 54bd 2a6f 78bc
00000170: e58b 29be ff66 af3d cca9 debc 95ad 6f3d
00000180: 00f8 9f3c b4dc 883d 786e 563d 6eea 35bc
00000190: d8f0 0f3d 9053 1abd 7b50 2b3d 7fcc a93c
000001a0: 72b5 c73d 7b0d e83c 8380 1c3d a422 a23b
000001b0: fa1f e13b 3f1d d0bc d5ef b43d 3d98 413c
000001c0: c7aa c63d 94de d43b 433a 933d e97d 07be
000001d0: 2470 933d 8682 11bd afe1 b83a 6d4f fdbb
000001e0: 80ed 41bc df9c 973d efa7 babd 53c4 aa3b
000001f0: 6d72 0cbd 197a a83d 85c4 22bd d9f6 42bd
00000200: 94f6 acbd a59a 3c3b f64d a63d 82f2 cb3c
00000210: 8666 923c 024b 09bd 5885 1ebd c5c4 e8bc
00000220: 588d 04bd 06b2 b7bc bb77 33bd 638c a6bd
00000230: 4296 f83b 05dd 32bd d91f c8bd b11b 29bd
00000240: df15 923b 61ec 99bb b1a8 ce3d 0336 b03d
00000250: e272 eabc 5362 55bd 024a 033d 659c 43bd
00000260: 9d0b 343d 103a 4e3d 5d6e 86bc fea8 60bd
00000270: 0988 423d e21e bc3d 6df4 46bc 3198 e2bc
00000280: 08b3 86bd 3a4a bcbc dd70 2a3d dc36 70bc
00000290: 79bf 9dbd 470c 89bd 5380 0a3c 7243 043e
000002a0: 6a3a 803d 81be 85bd 0bf3 d0bd 4673 c8bb
000002b0: 5228 393b 50e4 f9bb 648c 1cbc 455b d3bd
000002c0: ea7f ee3a 4d1b 943d 4932 6c3d 7e1f 3f3e
000002d0: b4a2 eb3c 44e6 973c fb2a b8bd d4af a3bd
000002e0: 453f 8b3d c38a f3bd a3f7 4b3d 2e92 593d
000002f0: 1380 0bbd 5587 2dbc 8531 4b3c fb17 03bd
00000300: 8f41 c2bb d828 723d f291 b7bd a1d4 ba3d
00000310: dc6a 6bbd b154 4cbd cebe 5c3d 231b 003c
00000320: 4105 233d 4091 b33d 0de2 bfbd 5e6f 353d
00000330: 3eec eebc 4e61 9ebb 6e8a d4bc 46e1 c8bd
00000340: ecec 9cbd 64f3 a13c 7376 bc3c a567 a13d
00000350: 74b9 4a3c 3a25 20bc 91ba 3f3d cea4 3dbd
00000360: 093f 813d 3a48 bdbd 6a2b b23c 672f 89bd
00000370: 792e 2c3d d072 09bd e0f9 ac3c 99ed 04bd
00000380: c25b 223c 75ba 18bd fc51 843d c306 e23a
00000390: 071e acbc c9d5 823d 8381 a13d 9266 fab7
000003a0: 4405 a93d 74cf 9d3c 4e2a d8bd 83e5 b9bb
000003b0: 2e2e 98bb 1ced 12be 5c0d 29bc d278 95bc
000003c0: 4906 83bd 4e60 5b3d 6534 e0bb 961b 063c
000003d0: 6a72 7abc 62aa 51bb c3a7 603c c1d1 143c
000003e0: 49fc 953b 8d58 65bc f105 dc3d 679f 333c
000003f0: e5c0 823b 685b 863d 2f25 bebc 4d9d 6a3c
