Assets/Training/results/track5_learned/config_track5/config_track5-1683782.onnx (onnx, 645441 bytes, 9 tensors)

action_model._continuous_distribution.log_sigma f4 [1, 2]
-0.11397997 -0.7212204
00000000: 556e e9bd e6a1 38bf

action_model._continuous_distribution.mu.bias f4 [2]
0.006563642 0.0023532226
00000000: d213 d73b 8638 1a3b

action_model._continuous_distribution.mu.weight f4 [2, 256]
-0.029092375 -0.006598833 0.0028550199 0.0035797628 -0.040139057 0.04491044 -0.005519675 0.0013429028
-0.0011200791 0.01741806 0.00017576534 -0.0037606806 -0.0024274802 0.006449462 0.019180784 -0.007316384
0.007972771 -0.011738081 -0.0047292626 -0.039408434 0.014863007 -0.01956228 0.04021336 0.030464299
-0.0049945153 0.016476061 -0.012516482 0.015297387 0.0009267398 0.03714232 0.01349571 0.0106403725
0.026862137 0.013998598 0.022905527 -0.0047649764 0.01710465 -0.0031840163 0.017372124 -0.009002052
-0.07056586 0.006683123 0.017160418 -0.024406036 0.025680615 0.030513166 -0.01143568 0.012163101
-0.021651814 0.016682746 -0.029563913 -0.028487554 -0.044550132 0.01495585 -0.011261851 0.029792612
-0.029046863 -0.008502637 0.0056975638 -0.004342147 0.003439348 0.00630242 -0.0073250122 -0.014525709
-0.006751662 0.009143441 0.0071391505 -0.005480375 0.017687554 0.011081277 -0.050755456 -0.027218059
0.007925335 -0.0004091535 -0.059147403 0.036042795 0.044017334 0.0045634913 0.0085044615 0.0030767948
0.0012411231 0.0039807935 -0.026736287 -0.006144121 -0.027353423 0.021382961 -0.01718798 0.025682662
-0.015730128 -0.02686531 -0.013484054 -0.024661912 -0.0076010805 -0.0059919115 -5.8314472e-05 0.02196559
-0.0035587216 -0.03147703 -0.0028086547 -0.005140772 0.025737546 0.023061967 0.0039261063 -0.04188819
0.003603339 0.0076098535 -0.01589902 0.025594888 0.016989926 0.013310554 -0.004112062 0.004005198
0.0033252952 -0.014137563 -0.00013884323 0.0064764726 -0.025132481 0.0062149214 0.002895912 -0.00254346
-0.03576485 0.028247086 0.00735716 0.00792457 0.00951039 0.0056469277 -0.0001375858 -0.00025923416
0.0013953714 -0.00533275 0.004023856 -0.034527965 -0.022064893 -0.016499674 0.004158063 -0.016277963
0.0105204545 0.0026378096 0.002948023 0.0019979165 -0.02049157 0.012309919 0.015271752 -0.02878523
-0.004698672 -0.026999826 0.009026977 0.011209987 -0.012889206 0.008689689 0.012733452 0.003175546
0.009198861 -0.009613693 0.039021984 0.00033156757 0.040979456 0.02195934 -0.0062914095 -0.02907564
0.0014750358 -0.0062045706 -0.01548505 -0.05834324 -0.006206462 0.002308552 -0.006678297 0.0032073585
-0.0049689915 0.014777653 0.009116246 0.0015309679 -0.013914341 0.0017499644 -0.014874726 0.0013733939
0.01417923 -0.018978983 -0.0019295916 -0.012034186 -0.018839225 -0.0041497382 -0.004516347 0.011377526
-0.02716534 -0.027024833 -0.0024462335 0.014102622 -0.0007592885 -0.0075108903 -0.01034155 0.0094197625
-0.036568314 0.007657602 0.0249889 0.008794789 -0.020333232 -0.006820176 -0.020372234 0.001208687
0.014748987 -0.017745478 -0.01508126 0.011980232 -0.02629584 0.012291764 0.016267693 0.022710662
-0.013407213 0.010777011 -0.0023950902 0.0041611544 0.037378777 -0.023042759 -0.0052431286 0.0032933152
-0.0006835727 0.026143411 -0.0038081808 -0.019858923 -0.0038685293 0.016206661 0.0049806316 -0.017974772
-0.0076067657 -0.011224357 -0.008623244 0.0074553774 0.0039559626 -0.0052299933 -0.002682328 0.030479182
0.008809913 -0.008099073 -7.155789e-05 -0.02192494 -0.0016342633 0.014243815 0.027901378 -0.015839249
-0.0024277808 -0.018674519 -0.001395112 0.012548366 0.013916015 0.0031035477 0.0012728261 -0.01145136
-0.008801252 -0.035741065 -0.022168485 -0.027776659 -0.033824094 0.014182871 -0.00086851843 -0.007298643
00000000: 2253 eebc 063b d8bb 491b 3b3b 749a 6a3b
00000010: da68 24bd 02f4 373d 64de b4bb 5704 b03a
00000020: 9ecf 92ba 52b0 8e3c a64d 3839 c075 76bb
00000030: 5c16 1fbb 0256 d33b 0521 9d3c 47be efbb
00000040: 3aa0 023c 1551 40bc eef7 9abb bd6a 21bd
00000050: f883 733c 1341 a0bc c4b6 243d 4490 f93c
00000060: 08a9 a3bb cef8 863c ee11 4dbc e4a1 7a3c
00000070: 75f0 723a 8c22 183d 1c1d 5d3c f554 2e3c
00000080: fc0d dc3c 605a 653c 5fa4 bb3c 8523 9cbb
00000090: 0d1f 8c3c eeaa 50bb fc4f 8e3c 587d 13bc
000000a0: d584 90bd 19fe da3b 0194 8c3c 2bef c7bc
000000b0: 2760 d23c bff6 f93c b85c 3bbc be47 473c
000000c0: 255f b1bc 41aa 883c 0530 f2bc bb5e e9bc
000000d0: 337a 36bd 6209 753c a083 38bc a30f f43c
000000e0: b0f3 edbc a54e 0bbc a1b2 ba3b 9248 8ebb
000000f0: af66 613b 8884 ce3b a806 f0bb 3dfd 6dbc
00000100: 0c3d ddbb 5fce 153c 89ef e93b b894 b3bb
00000110: 7de5 903c 3f8e 353c f4e4 4fbd 68f8 debc
00000120: 44d9 013c a783 d6b9 8c44 72bd 9ca1 133d
00000130: 854b 343d 5789 953b 4c56 0b3c 0da4 493b
00000140: 2ead a23a 5171 823b 0f06 dbbc 9f54 c9bb
00000150: 4914 e0bc 522b af3c cecd 8cbc 7264 d23c
00000160: 78dc 80bc a314 dcbc 39ec 5cbc c707 cabc
00000170: 7c12 f9bb cc57 c4bb b096 74b8 2ef1 b33c
00000180: 7139 69bb 0fee 00bd 6811 38bb ec73 a8bb
00000190: 8cd7 d23c 73ec bc3c 91a6 803b f392 2bbd
000001a0: ff25 6c3b 145c f93b a93e 82bc 5fac d13c
000001b0: 752e 8b3c 8314 5a3c 7abe 86bb 093e 833b
000001c0: 32ed 593b 3da1 67bc 7296 11b9 9738 d43b
000001d0: a2e2 cdbc 8aa6 cb3b 57c9 3d3b 2eb0 26bb
000001e0: 2a7e 12bd 6f66 e73c 5514 f13b 0ed6 013c
000001f0: 78d1 1b3c dd09 b93b e844 10b9 d2e9 87b9
00000200: e5e4 b63a 59be aebb 8dda 833b 326d 0dbd
00000210: 6fc1 b4bc 532a 87bc 5c40 883b 5d59 85bc
00000220: fc5d 2c3c 1adf 2c3b 9e33 413b 7aef 023b
00000230: f0dd a7bc 8baf 493c 5f36 7a3c 01cf ebbc
00000240: 51f7 99bb bd2e ddbc e3e5 133c 18aa 373c
00000250: 402d 53bc 335f 0e3c f89f 503c d21c 503b
00000260: d2b6 163c c082 1dbc 84d5 1f3d 3fd6 ad39
00000270: 13da 273d 13e4 b33c 2b28 cebb 0930 eebc
00000280: fd55 c13a b64f cbbb 02b5 7dbc 52f9 6ebd
00000290: 945f cbbb 134b 173b 9ed5 dabb 8c32 523b
000002a0: ecd2 a2bb f81d 723c 4f5c 153c c2aa c83a
000002b0: faf8 63bc 105f e53a 1fb5 73bc 7403 b43a
000002c0: 0050 683c d079 9bbc 5aea fcba 092b 45bc
000002d0: b854 9abc 87fa 87bb ddfd 93bb ce68 3a3c
000002e0: d989 debc 2f63 ddbc fd50 20bb af0e 673c
000002f0: fd0a 47ba ea1d f6bb 9b6f 29bc 5955 1a3c
00000300: a8c8 15bd 9fec fa3b 86b5 cc3c 0518 103c
00000310: e191 a6bc c87b dfbb ace3 a6bc ce6c 9e3a
00000320: bca5 713c f75e 91bc 6417 77bc bc48 443c
00000330: 606a d7bc 6563 493c d343 853c b60b ba3c
00000340: eda9 5bbc 0f92 303c f2f6 1cbb 4b5a 883b
00000350: 7d1a 193d 2bc4 bcbc 8dce abbb a9d4 573b
00000360: ca31 33ba b52a d63c ac92 79bb 2eaf a2bc
00000370: 2787 7dbb d5c3 843c 9134 a33b d43f 93bc
00000380: 2d42 f9bb 5ee6 37bc 8248 0dbc 3d4c f43b
00000390: 05a1 813b 5d60 abbb ffc9 2fbb 7aaf f93c
000003a0: 7457 103c f9b1 04bc 5a11 96b8 ef9b b3bc
000003b0: c734 d6ba e45e 693c 6e91 e43c 50c1 81bc
000003c0: 671b 1fbb 4efb 98bc 31dc b6ba a997 4d3c
000003d0: ffff 633c e464 4b3b f5d4 a63a 7c9e 3bbc
000003e0: 2033 10bc 3965 12bd af9a b5bc e08b e3bc
000003f0: 228b 0abd 465f 683c 49ad 63ba 7429 efbb

network_body._body_endoder.seq_layers.0.bias f4 [256]
-0.02240832 -0.016235681 -0.004995742 -0.010955222 0.0023882953 0.004423904 0.00059332786 -0.028434321
0.011094715 -0.0066688946 0.0031282923 -0.0029698848 -0.010875643 -0.0044421344 -0.0043736054 0.0037873315
-0.0062053986 -0.0010323545 -0.0012209387 -0.016863277 -0.01628855 -0.0123756435 -0.017810216 -0.007337265
0.00082276703 -0.0034118071 -0.0038383002 -0.0042560482 -0.001670748 0.010967249 0.00040000994 0.031026611
-0.0028441173 -0.014559072 -0.009455383 -0.0031655114 0.003969039 -0.011110049 -0.020922467 0.0044006314
-0.0047947285 -0.0093048345 -0.016539572 0.004061511 -0.006545089 -0.011376164 0.0024549658 0.0036060188
-0.0029572528 0.0045229937 -0.006453222 0.003196417 -0.007328946 -0.0016513636 -0.009608659 -0.002349148
-0.0060839527 0.002824736 0.0030765338 0.0017973178 0.0068735103 -0.011688238 0.006287705 0.011708185
-0.01789605 0.020700952 0.033908155 -0.016077923 0.00897899 -0.019451141 -0.004003754 0.006437718
0.004502092 -0.02615797 -0.016921567 -0.0044071255 -0.008637504 -0.008614691 -0.0021968118 0.013421246
-0.004092799 0.0034813436 0.014775804 -0.00533656 0.031894963 -0.008808665 -0.013562856 0.0009886601
-0.005781453 -0.012783879 -0.006757873 -0.007594894 -0.013579334 0.03449226 -0.011077158 0.0019433302
-0.009554609 -0.0061555943 -0.0029105297 -0.017663524 -0.02940942 -0.008655219 -0.0060011484 -0.01248817
-0.0060433163 -5.7846773e-05 0.004961457 -0.01134232 -0.013248779 -0.005249417 -0.006272988 0.00020366586
0.00997831 0.0059027458 0.018282311 -0.014656782 -0.0068166493 -0.007650062 -0.012959468 -0.010748785
-0.0030271097 -0.005111068 0.01556333 -0.039458398 -0.007368796 0.007109368 -0.0026231972 -0.011280443
0.00042087823 -0.020894594 -0.0029012007 0.011727066 0.0008016955 -0.0008614657 0.0061860452 -0.00021201989
-0.0018394165 0.010486117 -0.006751686 0.008973234 0.014177924 0.019738343 -0.005629744 -0.00016127955
-0.00909279 0.014584801 -0.00648053 -0.0062914197 -0.01250653 -0.003949574 -0.003072537 0.018394107
0.03581631 -0.008487055 -0.0049855867 -0.0052034906 -0.011457738 -0.0037481957 -0.0014828261 -0.0051500583
-0.008627729 -0.009012266 0.011144326 0.0064643305 0.011455847 -0.008457656 -0.0022177014 0.018397631
-0.0054726405 -0.00056664745 -0.009362275 0.015530761 -0.006915048 -0.019954348 -0.0043011867 -0.00536255
-0.01586522 -0.011018118 -0.008197441 0.010820952 -0.006033181 0.0046107825 -0.013001925 0.0066826614
-0.03956076 0.0019770847 -0.008676959 -0.0074888044 0.011314344 0.0034220559 -0.027812485 -0.013309099
0.008650003 -0.0032803563 0.009310483 -0.015924763 -0.005031271 0.0002250151 -0.008009021 0.000630801
-0.0005316787 -0.009542501 0.002272582 -0.006859013 -0.013641526 -0.014402542 -0.010951926 -0.007075596
-0.015275299 0.0071149324 -0.0030809785 -0.009125768 -0.024260303 -0.009138853 -0.006316532 -0.0067245937
-0.0075954297 -0.0017827726 -0.015695877 -0.012144597 -0.00032985344 -0.0019552622 -0.017294256 0.0028837873
-0.005547413 -0.0015860706 0.017219473 -0.011787544 -0.008653684 -0.010703571 0.012164073 0.0013449643
-0.0011668099 0.05909525 -0.01143659 -0.020648157 0.01998337 0.003293511 -0.0018863095 -0.016641214
-3.6632533e-05 -0.006400686 0.016994806 -0.0076690856 -0.008808913 -0.0059832083 -0.0029510409 -0.008495113
-0.0012377467 -0.013260768 -0.008849745 -0.03964033 -0.021764735 -0.008438813 0.009993245 -0.0039168494
00000000: a791 b7bc b100 85bc 52b3 a3bb 887d 33bc
00000010: f284 1c3b 66f6 903b 8f89 1b3a 18ef e8bc
00000020: 9cc6 353c be86 dabb 0904 4d3b 66a2 42bb
00000030: c12f 32bc 538f 91bb 7650 8fbb e134 783b
00000040: a856 cbbb 1250 87ba e807 a0ba db24 8abc
00000050: 916f 85bc 36c3 4abc bbe6 91bc 716d f0bb
00000060: f6ae 573a a098 5fbb fe8b 7bbb 5276 8bbb
00000070: 00fd daba faaf 333c 6db8 d139 852b fe3c
00000080: 5f64 3abb 2d89 6ebc c0ea 1abc 7874 4fbb
00000090: b60e 823b ec06 36bc 9865 abbc 2c33 903b
000000a0: 191d 9dbb 4e73 18bc ff7d 87bc 6c16 853b
000000b0: 3078 d6bb 1763 3abc 7ee3 203b f552 6c3b
000000c0: 78ce 41bb 9f35 943b 8d75 d3bb fa7a 513b
000000d0: a827 f0bb 9172 d8ba a36d 1dbc 2af4 19bb
000000e0: e55b c7bb 351f 393b ac9f 493b fa93 eb3a
000000f0: 2f3b e13b 0680 3fbc 1809 ce3b b0d3 3f3c
00000100: bd9a 92bc 0b95 a93c 47e3 0a3d d9b5 83bc
00000110: 9d1c 133c 0058 9fbc ec31 83bb 7ef3 d23b
00000120: 4986 933b 3d49 d6bc 199f 8abc a669 90bb
00000130: 5184 0dbc a224 0dbc 63f8 0fbb c9e4 5b3c
00000140: e31c 86bb 4127 643b 3716 723c 4fde aebb
00000150: 4ba4 023d 3852 10bc be36 5ebc ee95 813a
00000160: 5872 bdbb 7a73 51bc 2671 ddbb 97de f8bb
00000170: db7b 5ebc c247 0d3d f87c 35bc 57b7 fe3a
00000180: ef8a 1cbc deb4 c9bb 96be 3ebb 18b3 90bc
00000190: 06ec f0bc 9fce 0dbc 48a5 c4bb 2e9b 4cbc
000001a0: 0307 c6bb 80a0 72b8 b893 a23b 23d5 39bc
000001b0: 6811 59bc 4d03 acbb a38d cdbb 238f 5539
000001c0: 117c 233c d26b c13b c9c4 953c 0023 70bc
000001d0: 335e dfbb 5fad fabb f353 54bc ac1b 30bc
000001e0: 7962 46bb bf7a a7bb 56fd 7e3c 219f 21bd
000001f0: f175 f1bb b4f5 e83b f2e9 2bbb 9bd1 38bc
00000200: 52a9 dc39 242b abbc 1222 3ebb e122 403c
00000210: e028 523a fcd3 61ba 4fb4 ca3b a851 5eb9
00000220: 9318 f1ba f6cd 2b3c 3f3d ddbb 7904 133c
00000230: 864a 683c 4eb2 a13c b779 b8bb 261d 29b9
00000240: edf9 14bc 17f5 6e3c a05a d4bb 4128 cebb
00000250: 30e8 4cbc 6e6b 81bb 9e5c 49bb 3daf 963c
00000260: 20b4 123d 4a0d 0bbc 225e a3bb 0b82 aabb
00000270: 3cb9 3bbc 4aa4 75bb 635b c2ba d2c1 a8bb
00000280: 515b 0dbc 2fa8 13bc b196 363c bcd2 d33b
00000290: 4eb1 3b3c fb91 0abc db56 11bb a1b6 963c
000002a0: d653 b3bb 118b 14ba 3a64 19bc bc74 7e3c
000002b0: a197 e2bb 4d77 a3bc f8f0 8cbb 54b8 afbb
000002c0: c7f7 81bc 5685 34bc 8f4e 06bc 5d4a 313c
000002d0: feb1 c5bb 0c16 973b 0706 55bc 3afa da3b
000002e0: 770a 22bd fa91 013b ce29 0ebc a564 f5bb
000002f0: cc5f 393c 9244 603b 02d7 e3bc 680e 5abc
00000300: beb8 0d3c 3ffb 56bb ff8a 183c a674 82bc
00000310: 5cdd a4bb 08f2 6b39 4538 03bc 575c 253a
00000320: 5b60 0bba 2658 1cbc 99ef 143b 92c1 e0bb
00000330: b580 5fbc a4f8 6bbc b56f 33bc 67da e7bb
00000340: 3f45 7abc 6124 e93b 3eea 49bb 3f84 15bc
00000350: 8bbd c6bc 21bb 15bc e9fa cebb fb59 dcbb
00000360: 15e3 f8bb ecab e9ba a494 80bc 22fa 46bc
00000370: 2ef0 acb9 db23 00bb afac 8dbc ecfd 3c3b
00000380: 13c7 b5bb b3e3 cfba da0f 8d3c 8b20 41bc
00000390: 2ec8 0dbc 085e 2fbc d24b 473c 8349 b03a
000003a0: a5ef 98ba dc0d 723d 8960 3bbc 5326 a9bc
000003b0: 2ab4 a33c f2d7 573b 0b3e f7ba 2853 88bc
000003c0: e2a5 19b8 d9bc d1bb b138 8b3c f44c fbbb
000003d0: 4253 10bc ca0e c4bb 4066 41bb 162f 0bbc
000003e0: e33b a2ba b143 59bc 85fe 10bc e65d 22bd
000003f0: f54b b2bc f242 0abc b5ba 233c ea58 80bb

network_body._body_endoder.seq_layers.0.weight f4 [256, 111]
0.021926053 -0.054565333 -0.043885857 -0.11738776 -0.06746317 -0.055977866 0.13836229 0.034203935
-0.080179654 -0.15321246 0.025907345 -0.058012653 -0.011491314 -0.14673406 -0.09052391 0.005848896
0.08598634 -0.078616306 -0.095212 0.051044602 -0.14718926 -0.060094792 -0.08446537 0.0006093894
0.105425276 -0.07546356 -0.030266484 0.032235276 -0.17426299 -0.14190109 -0.10413984 0.10624256
0.18641946 -0.04077488 -0.250069 0.21848778 -0.22076501 0.05008022 -0.027080264 -0.07491033
-0.24130905 -0.0582415 0.038233463 0.07041991 -0.15184066 -0.0034962536 -0.18123163 0.04220037
-0.0045481226 -0.09917368 -0.13116015 0.059348237 0.04280213 -0.053018376 0.12407063 0.22531569
0.17673793 -0.05403751 -0.10790981 -0.086365245 0.083046496 -0.00821232 -0.07389008 0.08483747
-0.18685418 0.0011848072 0.16595328 0.0021366957 0.09372655 -0.21093802 -0.03145399 -0.17918509
0.01121254 0.15044416 -0.04765605 -0.008760867 0.09493417 -0.11552194 -0.009826903 -0.13609779
-0.04501624 -0.034787286 0.028552825 0.04484577 0.0018200385 0.20103963 -0.08644918 -0.16316316
0.028998464 -0.10135979 -0.05479053 0.08616973 -0.07276351 -0.03703446 -0.09429707 -0.06490657
-0.08021921 0.13266122 -0.23425864 0.09684896 0.078619525 0.074886255 -0.04168554 0.028607504
-0.09781629 0.13331519 -0.17883807 0.11641734 0.039518885 0.13857101 0.15214713 -0.04615882
-0.06586113 -0.1296995 -0.087048195 -0.04048775 -0.35363382 0.11123777 0.030027507 0.010366875
-0.20787771 -0.26164258 0.14639023 0.13017538 0.13222963 0.05871615 -0.1260912 0.05493545
-0.035914037 0.14403298 -0.05347395 -0.030235415 0.0049934546 0.12935407 0.042938426 0.0053916485
-0.14332823 0.15343578 -0.10339396 -0.0134072425 0.02920272 -0.13905923 0.1706616 -0.054199364
0.10949746 0.15445592 0.041178774 -0.030037941 -0.10262036 -0.037794717 -0.07717506 0.0950106
-0.034322526 0.0059749284 0.13759065 0.11148957 -0.17728558 0.02484363 0.03080707 -0.06945111
-0.30280015 0.27474058 -0.019485503 -0.014712502 0.033138562 0.10132357 -0.110277504 0.24721873
0.07979919 0.01726103 -0.13032149 0.09821332 0.018637002 -0.08988333 -0.0389474 0.05451613
-0.01748427 0.11564468 0.07053495 -0.03180355 -0.052250102 -0.03377779 0.10769473 0.019492965
0.19693103 -0.013497736 0.020383887 0.071459174 0.19071096 -0.18192203 -0.18639845 0.05249738
0.09460451 0.07762261 0.14839484 -0.20521235 0.18633653 0.16842459 -0.12818676 0.10915883
0.06708687 0.08044413 -0.00933393 -0.005584206 -0.15845066 -0.11872511 0.1730188 -0.1714544
-0.09792422 0.032535505 0.0014297812 -0.030525036 -0.01782361 0.036420677 0.14629476 -0.011995444
-0.14199688 0.0003024716 0.12584929 0.0018901934 0.04563689 -0.031665478 0.12039217 -0.06573338
0.11575627 0.103375696 0.097702265 -0.040853944 0.005614096 -0.07910493 -0.20758627 0.122801706
0.12677383 0.10165799 -0.1306915 -0.019298065 0.11369688 0.27645323 0.014586698 -0.11706868
-0.11468523 0.17523614 -0.019285794 0.0035832583 -0.009134985 -0.00284278 -0.09288715 0.17198859
-0.10127954 -0.118444696 0.14268066 0.19343553 0.111687586 0.074300066 0.14232084 0.100880414
00000000: 449e b33c e67f 5fbd a8c1 33bd fe68 f0bd
00000010: 212a 8abd 0c49 65bd d8ae 0d3e 6d19 0c3d
00000020: 3b35 a4bd bae3 1cbe a43b d43c ad9e 6dbd
00000030: 1046 3cbc 7441 16be 9a64 b9bd 19a8 bf3b
00000040: 9b19 b03d 9601 a1bd 82fe c2bd 2514 513d
00000050: c8b8 16be f525 76bd 2efc acbd 6ebf 1f3a
00000060: 35e9 d73d a48c 9abd 6bf1 f7bc 2309 043d
00000070: ff71 32be 854e 11be 4547 d5bd b395 d93d
00000080: bee4 3e3e 9003 27bd 0b09 80be 43bb 5f3e
00000090: 3910 62be eb20 4d3d 6ed7 ddbc 966a 99bd
000000a0: b819 77be a48e 6ebd b19a 1c3d 5038 903d
000000b0: 1e7c 1bbe 6721 65bb c994 39be 4cda 2c3d
000000c0: 6b08 95bb 921b cbbd d94e 06be 2317 733d
000000d0: 4951 2f3d cc29 59bd be18 fe3d 28b9 663e
000000e0: cafa 343e 7056 5dbd d2ff dcbd 43e0 b0bd
000000f0: 4814 aa3d f78c 06bc af53 97bd 44bf ad3d
00000100: b456 3fbe 884b 9b3a a8ef 293e ce07 0c3b
00000110: b5f3 bf3d 2300 58be e6d5 00bd 4c7c 37be
00000120: cdb4 373c 090e 1a3e fe32 43bd bd89 0fbc
00000130: d96c c23d c496 ecbd 0501 21bc 385d 0bbe
00000140: f362 38bd 1d7d 0ebd 9de7 e93c 33b0 373d
00000150: 5c8e ee3a 55dd 4d3e 450c b1bd 3e14 27be
00000160: 308e ed3c b995 cfbd 096c 60bd c179 b03d
00000170: 0905 95bd 72b1 17bd d21e c1bd bced 84bd
00000180: f849 a4bd 58d8 073e 7fe1 6fbe bf58 c63d
00000190: 4603 a13d f75d 993d 75be 2abd 495a ea3c
000001a0: e853 c8bd c783 083e 5421 37be 376c ee3d
000001b0: 8ede 213d 8fe5 0d3e 75cc 1b3e 0811 3dbd
000001c0: 33e2 86bd f2cf 04be 5346 b2bd 7cd6 25bd
000001d0: 7e0f b5be a1d0 e33d 3ffc f53c d3d9 293c
000001e0: e5dd 54be 04f6 85be 52e7 153e b24c 053e
000001f0: 3467 073e 5880 703d 0d1e 01be ff03 613d
00000200: 991a 13bd 627d 133e 8007 5bbd 43b0 f7bc
00000210: 22a0 a33b 6575 043e 34e0 2f3d 6dac b03b
00000220: a3c4 12be 451e 1d3e 36c0 d3bd 0daa 5bbc
00000230: 8b3a ef3c 8b65 0ebe eac1 2e3e 2700 5ebd
00000240: 3440 e03d b129 1e3e 13ab 283d 2112 f6bc
00000250: a02a d2bd a2ce 1abd f50d 9ebd eb94 c23d
00000260: c795 0cbd 55c9 c33b 90e4 0c3e a554 e43d
00000270: 5a8a 35be de84 cb3c 1c5f fc3c 623c 8ebd
00000280: 9f08 9bbe ccaa 8c3e 10a0 9fbc b50c 71bc
00000290: 4dbc 073d bb82 cf3d 2cd9 e1bd e826 7d3e
000002a0: c26d a33d 0167 8d3c ff72 05be 1124 c93d
000002b0: a0ac 983c c014 b8bd 4f87 1fbd 4e4c 5f3d
000002c0: 2c3b 8fbc 1ed7 ec3d a174 903d 7044 02bd
000002d0: 3404 56bd 945a 0abd 0e8f dc3d b6af 9f3c
000002e0: 4aa8 493e 9c25 5dbc 1cfc a63c 3059 923d
000002f0: bc49 433e c549 3abe 3cdf 3ebe 7e07 573d
00000300: 02c0 c13d 9af8 9e3d d1f4 173e 3023 52be
00000310: 01cf 3e3e 7f77 2c3e 6443 03be aa8e df3d
00000320: d764 893d e4bf a43d 57ed 18bc b7fb b6bb
00000330: e440 22be 2726 f3bd d72b 313e be91 2fbe
00000340: 7e8c c8bd f343 053d 7f67 bb3a a40f fabc
00000350: d202 92bc d92d 153d 4bce 153e 8a88 44bc
00000360: a167 11be 0d95 9e39 a3de 003e 5ec0 f73a
00000370: bfed 3a3d a9b3 01bd 2c90 f63d 399f 86bd
00000380: a011 ed3d a3b6 d33d 2018 c83d 7756 27bd
00000390: 73f6 b73b c401 a2bd 7f91 54be 767f fb3d
000003a0: 00d1 013e 1032 d03d fed3 05be fa16 9ebc
000003b0: e9d9 e83d 478b 8d3e 0cfd 6e3c b4c1 efbd
000003c0: 17e0 eabd 1a71 333e 3efd 9dbc 19d5 6a3b
000003d0: e7aa 15bc ef4d 3abb 9e3b bebd c71d 303e
000003e0: a66b cfbd 2293 f2bd e11a 123e f713 463e
000003f0: 76bc e43d a22a 983d 8ebc 113e 649a ce3d

network_body._body_endoder.seq_layers.2.bias f4 [256]
-0.0024119613 0.012782996 -0.00045182393 0.021088129 -0.0047326894 0.0021517302 -0.009460487 0.0045125675
0.020497965 0.0030863795 0.0025507496 0.014520133 -0.0077432 -0.015268869 -0.002266058 -0.0036943753
0.0028926355 0.01526478 -0.010176942 0.004087879 0.0028544308 -0.0027776468 -0.003952676 -0.0052129673
-0.0042694355 -0.0026827496 -0.00022933095 -0.0064761885 -0.0068462603 -0.0031078968 0.005387039 0.0032741153
-0.0021525193 0.009221312 -0.0048577455 0.0068853833 -0.0046029976 -0.004966181 0.002954143 0.005393371
0.00031726368 -0.00021459306 -0.023565387 -0.0022604854 -0.006534131 -0.014921862 0.006174282 -0.0036920677
0.0026887874 -0.002998556 -0.0051744496 -0.00430691 -0.00447674 -0.008863577 0.0036590677 0.0031331026
-0.0011272158 0.0021225489 -0.00022474561 -0.00093220134 -0.0012391816 -0.0007238452 0.0019930615 -0.0062799626
0.0071320143 -0.0046905996 -0.0012805548 0.0093246205 -0.0073920833 0.0035655992 0.0026940259 -0.008201024
-0.022104332 -0.00500764 -0.020749003 -0.015399179 -0.015202538 0.0050175125 -0.0005530455 0.0015718972
-0.0041125435 0.00060553127 -0.0020114905 -0.010801156 -0.007167959 -0.0039422293 -0.0014768963 0.014909258
-0.0011834046 0.00113278 -0.009344718 -0.0040236935 0.0073006763 0.002015497 0.0040473524 -0.0121448
0.009262793 -0.022973087 0.0016711303 -0.0040903995 0.012100658 5.4450113e-05 -0.011671403 0.01809807
-0.0074699926 0.0025849112 0.0035509795 -0.0023907754 -0.00033184545 -0.0016831679 -0.0013734073 -0.0003940041
0.009377297 0.009794292 -0.0023724448 0.0006088094 0.010590814 -0.025861682 0.00830179 -0.004790037
0.011670765 0.004503882 -0.010455843 0.0068593076 -0.009865389 0.002054635 -0.006356392 0.0007325209
-0.00083180825 0.0033195503 0.010076064 -0.004926167 0.010441479 -0.0005825632 -0.010111636 -9.0606474e-05
-0.004897881 0.031991318 -0.007453595 0.018281287 0.002443928 -0.004378437 0.0057461793 -0.0040802266
0.0017746094 -0.0014767677 -0.0037755356 -0.0008099235 -0.00391422 0.01097014 -0.0066368366 0.0058568977
0.0003948592 -0.017159816 -0.0076459623 -0.01048436 -0.0073653464 -0.015416745 0.008930693 0.00086743885
-0.013916004 -0.006569019 -0.0036355972 -0.012652161 -0.0026549187 -0.006435766 -0.005396857 0.004620457
-0.0032069322 0.007965654 0.0100421915 -0.003244032 0.004020128 -0.00073796196 -0.0011904271 -0.0061889645
-0.00900974 -0.021018352 0.00078513334 0.0079168435 -0.0059159114 -0.0036524984 -0.014141471 0.010489753
-0.012430029 -0.0053624944 -0.0014122068 0.0009949872 -0.006020645 -0.009833544 -0.00904554 -0.008393896
0.00045005156 0.005621432 0.0019341127 -0.0025322286 -0.013085068 -0.012845579 -0.021218084 0.00078285777
-0.0035024714 -0.0029906977 0.0011087947 -0.0077877543 -0.004668233 -0.002926477 -0.002742193 -0.002613751
0.009499997 0.0027221385 -0.0010065739 0.00815899 -0.005323237 -0.009318071 -0.0014353355 -0.0025738983
-0.0062893564 -0.004146595 0.0030830558 -0.0065581347 0.005567748 0.015733546 -0.0006568995 0.018913304
0.0071708807 0.007550784 -0.0009038483 2.2997296e-05 -0.009880367 -0.005395538 0.0022524607 0.022559615
0.009314968 -0.0012153357 0.021845702 0.002321779 0.001261586 -0.008295551 0.001115265 -0.0079996595
-0.014577867 -0.0018898239 -0.0184888 -0.0029142592 -0.0039035247 -0.0012069548 0.003836297 0.00633581
-0.0054402957 -0.0009325481 0.008000628 -0.00033183486 0.0052103563 -0.0068249837 -0.00049620424 -0.0023316834
00000000: ff11 1ebb c56f 513c c8e2 ecb9 03c1 ac3c
00000010: ad14 9bbb 0b04 0d3b 2900 1bbc 29de 933b
00000020: 59eb a73c db44 4a3b 7a2a 273b dae5 6d3c
00000030: abba fdbb 472a 7abc 2582 14bb 551d 72bb
00000040: 5f92 3d3b 2119 7a3c 30bd 26bc 9df3 853b
00000050: 6711 3b3b 2e09 36bb 7385 81bb 8ad1 aabb
00000060: 9fe6 8bbb 12d1 2fbb 8f78 70b9 3536 d4bb
00000070: 9856 e0bb dbad 4bbb c285 b03b 8a92 563b
00000080: 4811 0dbb fc14 173c b92d 9fbb c89e e13b
00000090: bed4 96bb 58bb a2bb 4c9a 413b e0ba b03b
000000a0: 6956 a639 6304 61b9 330c c1bc a724 14bb
000000b0: 431c d6bb d37a 74bc a251 ca3b 9ef6 71bb
000000c0: 5e36 303b 6c83 44bb 6e8e a9bb fb20 8dbb
000000d0: 9eb1 92bb 8938 11bc f8cc 6f3b bd54 4d3b
000000e0: 16bf 93ba 761a 0b3b b1a9 6bb9 f95e 74ba
000000f0: 096c a2ba 6ec0 3dba 069e 023b 25c8 cdbb
00000100: acb3 e93b 9ab3 99bb 4ad8 a7ba 4bc6 183c
00000110: 4a39 f2bb d4ac 693b 418e 303b 965d 06bc
00000120: 2514 b5bc 2117 a4bb d0f9 a9bc d74c 7cbc
00000130: 1114 79bc f269 a43b 41fa 10ba 1e08 ce3a
00000140: 84c2 86bb 84bc 1e3a 36d3 03bb 55f7 30bc
00000150: 33e1 eabb d12d 81bb 6b94 c1ba f645 743c
00000160: 781c 9bba ca79 943a 971a 19bc 30d9 83bb
00000170: 833a ef3b 6e16 043b a79f 843b fcfa 46bc
00000180: f8c2 173c 0e32 bcbc d409 db3a c208 86bb
00000190: d741 463c 5d61 6438 6a39 3fbc 6742 943c
000001a0: d7c6 f4bb 9d67 293b 8db7 683b 8eae 1cbb
000001b0: 8bfb adb9 be9d dcba e703 b4ba 5692 ceb9
000001c0: 3ca3 193c 3d78 203c 057b 1bbb 8298 1f3a
000001d0: 1885 2d3c e1db d3bc 3b04 083c bef5 9cbb
000001e0: bc36 3f3c 4d95 933b fc4e 2bbc 0bc4 e03b
000001f0: 71a2 21bc 0ea7 063b 4849 d0bb a506 403a
00000200: b50d 5aba d08c 593b 1316 253c af6b a1bb
00000210: bd12 2b3c 28b7 18ba 46ab 25bc fb03 beb8
00000220: 677e a0bb 5409 033d 493d f4bb a3c2 953c
00000230: 4f2a 203b fe78 8fbb 724a bc3b 6cb3 85bb
00000240: 039a e83a 1a90 c1ba fa6e 77bb 0c51 54ba
00000250: db42 80bb 1abc 333c d279 d9bb 38eb bf3b
00000260: 1b05 cf39 be92 8cbc fb8a fabb 98c6 2bbc
00000270: 0159 f1bb 8496 7cbc 0b52 123c d664 633a
00000280: f4ff 63bc ed40 d7bb 3343 6ebb 024b 4fbc
00000290: 25fe 2dbb 1ee3 d2bb 1ed8 b0bb 3467 973b
000002a0: 652b 52bb 6082 023c 0188 243c d399 54bb
000002b0: 47bb 833b ca73 41ba 1b08 9cba cccc cabb
000002c0: 979d 13bc ae2e acbc 68d1 4d3a a6b5 013c
000002d0: 43da c1bb c15e 6fbb a1b1 67bc 37dd 2b3c
000002e0: 52a7 4bbc ddb7 afbb cc19 b9ba 3b6a 823a
000002f0: d548 c5bb df1c 21bc bf33 14bc 8d86 09bc
00000300: e6f4 eb39 fd33 b83b 0e82 fd3a bff3 25bb
00000310: c162 56bc 4376 52bc 8cd1 adbc b238 4d3a
00000320: b889 65bb 95ff 43bb fa54 913a 6b30 ffbb
00000330: faf7 98bb 23ca 3fbb 5db6 33bb 774b 2bbb
00000340: e0a5 1b3c e865 323b 04ef 83ba 49ad 053c
00000350: 8c6e aebb d3aa 18bc de21 bcba d9ae 28bb
00000360: f216 cebb 29e0 87bb 180d 4a3b 9fe5 d6bb
00000370: a871 b63b a3e3 803c c733 2cba 13f0 9a3c
00000380: b5f9 ea3b 916c f73b 3cf0 6cba 51ea c037
00000390: 43e1 21bc 0ecd b0bb 059e 133b f1ce b83c
000003a0: cf9d 183c e64b 9fba c2f5 b23c fd28 183b
000003b0: cd5b a53a 10ea 07bc 152e 923a 0111 03bc
000003c0: 02d8 6ebc f8b3 f7ba d375 97bc 28fd 3ebb
000003d0: 47d2 7fbb af32 9eba 626a 7b3b a09c cf3b
000003e0: 8244 b2bb 3e76 74ba 1115 033c 1ffa adb9
000003f0: a3bb aa3b 1da4 dfbb b413 02ba 28cf 18bb

network_body._body_endoder.seq_layers.2.weight f4 [256, 256]
0.027525082 -0.004619731 0.11422614 -0.04043792 0.009007307 0.031399168 -0.09034442 -0.057700507
0.015470759 -0.014309762 0.054097332 -0.12331975 -0.021921668 -0.007138892 -0.11495291 0.055785555
0.009540942 -0.09151936 -0.026402181 0.04694039 0.020435385 0.09835111 -0.004896911 0.0109964525
0.011937114 0.008458047 -0.110147186 0.119302064 0.039553203 0.09116391 0.14644471 0.033554163
-0.031451263 -0.04893961 0.03897886 -0.020418296 -0.084394276 0.0059609064 -0.13324171 0.014027837
-0.03136425 -0.06278193 0.13595863 -0.10668623 -0.13102922 -0.054398067 0.030468576 -0.023874572
0.04176511 -0.037059348 -0.010118656 0.008132273 -0.10988456 -0.04459223 -0.02988657 -0.10051626
-0.07561906 0.00358076 0.0033420066 0.005627621 -0.09407915 -0.049745563 -0.122014016 0.0013570912
-0.0069302907 -0.0121023115 -0.000893754 -0.02149201 0.06585301 0.024026792 -0.10446935 -0.023147566
0.11147948 0.07232847 -0.15019678 0.11848808 0.07545704 0.0049288915 0.07572507 0.077377744
-0.028959744 -0.002181992 0.026527986 -0.08586066 0.020054733 0.0719493 0.026480181 -0.018410165
-0.05473564 0.04171184 -0.0021685655 0.020504959 -2.6458874e-06 0.0064053265 0.04456912 -0.016599057
-0.09580402 -0.036462 -0.12383675 0.03934575 -0.15026619 0.033369012 0.06543419 0.035992384
0.073768005 0.0889276 0.010301114 0.083905585 -0.019231252 0.04307314 -0.015445474 0.09303437
-0.05472656 -0.13489762 -0.21378845 -0.043720186 -0.020223638 -0.025604239 0.013796483 -0.054597937
-0.03250137 -0.04424103 -0.00930393 0.036094822 -0.03864005 0.09229069 0.054258335 -0.008941537
-0.009777416 0.068970636 -0.015298625 -0.05689011 -0.002573916 0.093844004 0.096722655 -0.030637108
0.03201528 -0.06916227 0.08543298 -0.06571364 0.13617936 0.05224131 -0.053643644 -0.05034268
0.007467926 0.0821189 0.0009932367 0.018286448 0.040443573 -0.08127814 -0.053575754 -0.037954397
-0.062628075 0.12209695 -0.024510471 0.017616548 0.04634127 0.08682021 0.023266882 0.09095667
-0.008946052 -0.08452359 0.1532344 -0.046820536 -0.14581414 -0.0048840707 -0.018680708 0.095667295
-0.028342674 -0.18497743 -0.01921436 -0.010744372 0.017614463 0.17837428 0.09967123 -0.04283917
-0.03020527 0.038718846 0.062740184 0.037153084 0.036853075 -0.014753428 0.026798118 0.027329566
0.017304484 -0.10225571 0.008047836 0.007764024 0.028417926 -0.053664807 0.04844269 -0.07047706
0.056865424 0.07504172 -0.005124772 -0.012118333 -0.11880963 -0.10380186 -0.012553718 -0.0043293713
0.059175078 -0.031633407 -0.10624036 -0.029429767 0.055167053 0.09809026 0.047837257 -0.030475717
-0.05430126 -0.03312639 -0.030927291 -0.06606786 -0.017026294 -0.022117129 -0.074350126 -0.09155186
0.037315372 -0.025852239 -0.15536731 0.0561678 0.08847938 0.03914244 -0.111753896 0.042703524
-0.050905608 0.0044574337 -0.008098397 -0.06445774 -0.012712739 -0.06048391 -0.09330959 0.05501748
0.011493615 -0.15072717 -0.04038952 0.01059104 0.02876093 -0.065993264 3.7832186e-05 0.07974259
0.086615235 0.06312946 -0.12608103 -0.08956523 0.09212319 -0.07564381 0.048482258 -0.008422871
0.054590344 0.105013005 0.08849814 0.032763805 -0.0060776966 0.02748034 -0.058845725 -0.023012204
00000000: 487c e13c 1d61 97bb 65ef e93d 3ba2 25bd
00000010: 6293 133c 6a9c 003d 7f06 b9bd 5e57 6cbd
00000020: 1179 7d3c 7e73 6abc 2a95 5d3d 118f fcbd
00000030: 1295 b3bc 5eed e9bb 6e6c ebbd 657f 643d
00000040: 9c51 1c3c 816e bbbd 6349 d8bc 9144 403d
00000050: 1c68 a73c 4f6c c93d 4476 a0bb 772a 343c
00000060: e393 433c 9f93 0a3c d994 e1bd a454 f43d
00000070: 8a02 223d 25b4 ba3d 9af5 153e 1770 093d
00000080: 0ad3 00bd e774 48bd 4ca8 1f3d 4544 a7bc
00000090: e8d6 acbd b553 c33b 8470 08be 03d5 653c
000000a0: cd77 00bd d093 80bd bd38 0b3e 4f7e dabd
000000b0: 862c 06be 82d0 5ebd 3c99 f93c 9b94 c3bc
000000c0: e411 2b3d 8bcb 17bd b8c8 25bc 3a3d 053c
000000d0: 280b e1bd 58a6 36bd aed4 f4bc 78db cdbd
000000e0: 2ade 9abd 2fab 6a3b 9105 5b3b e867 b83b
000000f0: 92ac c0bd 01c2 4bbd 7ce2 f9bd 6de0 b13a
00000100: 7e17 e3bb c648 46bc d14a 6aba 0310 b0bc
00000110: f1dd 863d d6d3 c43c 07f4 d5bd f79f bdbc
00000120: 5b4f e43d f320 943d 2fcd 19be e1a9 f23d
00000130: 3889 9a3d 8a82 a13b bf15 9b3d 3978 9e3d
00000140: fc3c edbc c0ff 0ebb 3851 d93c b7d7 afbd
00000150: d349 a43c 285a 933d f7ec d83c ead0 96bc
00000160: 7a32 60bd 09da 2a3d 7e1e 0ebb 04fa a73c
00000170: 0090 31b6 c6e3 d13b 1c8e 363d bffa 87bc
00000180: e634 c4bd 2e59 15bd 1f9e fdbd 0229 213d
00000190: 61df 19be f2ad 083d 5c02 863d c06c 133d
000001a0: ae13 973d ac1f b63d 01c6 283c b1d6 ab3d
000001b0: dc8a 9dbc 766d 303d 030f 7dbc ce88 be3d
000001c0: f528 60bd 9a22 0abe 5ceb 5abe f013 33bd
000001d0: 0bac a5bc fbbf d1bc a50a 623c 16a2 5fbd
000001e0: 2820 05bd 1536 35bd 836f 18bc 2ad8 133d
000001f0: 0745 1ebd e702 bd3d fd3d 5e3d 867f 12bc
00000200: 7431 20bc 7a40 8d3d 16a7 7abc 9b05 69bd
00000210: 25af 28bb 4931 c03d 8716 c63d acfa fabc
00000220: 7422 033d f3a4 8dbd 7cf7 ae3d df94 86bd
00000230: 9a72 0b3e fcfa 553d 70b9 5bbd 2034 4ebd
00000240: 81b5 f43b f42d a83d 7e2f 823a 76cd 953c
00000250: 29a8 253d 2775 a6bd 4072 5bbd 1276 1bbd
00000260: 2643 80bd f70d fa3d 2fca c8bc 9450 903c
00000270: 58d0 3d3d cbce b13d 309a be3c 7e47 ba3d
00000280: 7692 12bc b41a adbd 7be9 1c3e e4c6 3fbd
00000290: 4d50 15be 8e0a a0bb 4908 99bc 37ed c33d
000002a0: e52e e8bc b96a 3dbe 6f67 9dbc 2a09 30bc
000002b0: 354c 903c bfa7 363e 6e20 cc3d 2078 2fbd
000002c0: 0b71 f7bc a797 1e3d ed7d 803d d52d 183d
000002d0: 40f3 163d 5db8 71bc ba87 db3c 41e2 df3c
000002e0: 22c2 8d3c 716b d1bd 12db 033c 5b69 fe3b
000002f0: b6cc e83c a1cf 5bbd d86b 463d 4756 90bd
00000300: b8eb 683d 79af 993d b4ed a7bb f98b 46bc
00000310: 7752 f3bd 1296 d4bd 1cae 4dbc 66dd 8dbb
00000320: 9161 723d 0892 01bd 8c94 d9bd b216 f1bc
00000330: d9f6 613d 8ce3 c83d 00f1 433d 36a8 f9bc
00000340: ff6a 5ebd 8aaf 07bd 3b5b fdbc 964e 87bd
00000350: ba7a 8bbc fb2e b5bc e144 98bd 8b7f bbbd
00000360: 01d8 183d 13c8 d3bc 9c18 1fbe 3510 663d
00000370: ad34 b53d d353 203d 3adf e4bd e4e9 2e3d
00000380: 6682 50bd aa0f 923b 24af 04bc 6b02 84bd
00000390: 1849 50bc fabd 77bd 1919 bfbd 025a 613d
000003a0: b74f 3c3c 3958 1abe 7b6f 25bd 0b86 2d3c
000003b0: 0b9c eb3c 7a27 87bd 00ae 1e38 1550 a33d
000003c0: 5463 b13d 054a 813d 631b 01be fa6d b7bd
000003d0: 15ab bc3d 24eb 9abd 5595 463d 1500 0abc
000003e0: 209a 5f3d 0f11 d73d 833e b53d 5733 063d
000003f0: 6a27 c7bb 731e e13c 3708 71bd 1784 bcbc

network_body._body_endoder.seq_layers.4.bias f4 [256]
0.0005430049 -0.0019273217 -0.0030716474 -0.0017166446 0.006996174 0.017987061 0.002938781 -0.013266339
-0.0039296737 -0.005187397 -0.00571105 0.0024889084 -0.00025140587 -0.009363564 -0.0059808223 0.00078750774
0.0013561923 -0.008834335 0.0028263838 -0.0019943751 0.0016603188 0.016220177 -0.016366411 0.013286043
-0.0022930137 0.017302629 -0.002648207 0.002020404 -0.001107505 -0.005903598 -0.008342443 0.0005397661
0.005522628 0.0024977399 -8.9457964e-05 0.010723969 -0.017632239 -0.015601386 -0.007702296 -0.00064651354
0.015130709 0.00051242113 0.0036287913 0.0041074287 0.0043297466 -0.009084333 0.008863935 -0.024611285
0.00056507025 0.0010385384 -0.00046134985 0.007447651 0.00017670375 -0.020492932 0.00017181298 0.0037623004
0.008194673 -0.0056458567 0.0056952215 -0.017737009 0.0077711954 0.00025570532 -0.0018581711 -0.003600693
0.005442856 0.015430112 -0.000982944 -0.008992636 -0.012741869 0.0011325496 0.012329771 -2.1667742e-05
-0.0069247563 0.001156632 0.0054867263 0.013566204 0.009035579 0.0015039577 -0.0013385271 -0.004951167
-0.02487011 -0.00106353 0.0024427224 -0.017627992 -0.007273113 0.0037288421 0.004298148 0.0032530515
0.001412345 0.0031056849 -0.0057135522 0.0134971235 -0.006339248 -0.0041741054 -0.01241866 0.0068101785
-0.012777207 0.0023992087 -0.0023909062 -0.005845068 0.0034064762 0.00803588 -0.005667189 0.023173084
-0.00073257234 -0.0031588825 -0.0004978505 0.0016603125 0.0024241623 0.0056979717 -0.005847989 -0.011245427
-0.039357513 0.0060072085 0.0019955796 -0.0007344063 0.013495366 0.00025211906 -0.0036654323 0.0005063568
0.0052518053 0.008462263 -0.0021848816 0.0012412785 0.00064686255 -0.01978517 -0.015493643 -0.013839402
-0.013936869 -0.004939915 0.00037813056 0.0037495978 -0.008559272 0.003589577 -0.021035137 0.00051598344
0.00073813857 -0.0038711128 -0.00015043409 -0.024982564 0.008113738 -0.0005127727 -0.001085722 -0.0016712566
-0.0052941195 0.00073463726 0.0018853972 0.0014524071 0.010524743 0.00028545145 0.0012624655 0.004205508
0.0009808596 0.007095871 -0.018099414 -0.043402925 0.013255453 -0.00041385618 -0.000723426 0.0009002156
-0.021110073 -0.004894004 -0.0031050344 0.01218214 0.0033148134 -0.0037127878 -0.008807934 -0.017605852
-0.010576106 0.0017248121 0.00033648044 -0.0016131484 0.010535271 -0.008407398 0.000397244 -0.0032318346
0.0003603846 0.00013460194 -0.0013768799 -0.010046102 0.0019714767 -0.007385485 -0.0037156497 0.0006337778
0.002351583 -0.0025689856 -0.007008425 0.0029387872 -0.0059915287 -0.0038102458 0.012642757 -0.010653259
0.019526327 -0.00048779295 0.0036304856 0.0024599214 0.0065814564 -0.0073029124 -0.0051681395 -0.009010457
0.002517729 0.009885454 -0.007363008 -0.0010383143 0.009496921 0.0034777955 0.001325647 0.010245246
-0.00057135266 0.0010339066 -0.0012594175 -0.003699224 0.007565339 -0.010038181 -0.006076459 -0.003902209
-0.021795003 0.004880958 -0.00049411703 -0.0064281276 -0.0047443886 0.0013384325 0.0011781419 -0.0013806842
-0.0029017287 -0.008152609 -0.01172052 -0.0014504027 0.011310554 0.0013966797 -0.007785894 -0.015325324
5.60731e-05 -0.015454824 -0.0033952082 0.005198509 -0.012731569 0.0021168445 0.0031582757 -0.0055725947
-0.0047412603 -0.00070056773 -0.0034930087 0.00044518456 0.00017569453 -0.004171015 0.0025252195 0.005575291
-0.012193757 0.005351608 0.0024914506 0.003478259 0.0133068655 0.013067293 -0.0072015584 -0.00530129
00000000: 7158 0e3a 2f9e fcba b14d 49bb 0901 e1ba
00000010: 2940 e53b 9a59 933c 9098 403b 0f5b 59bc
00000020: 7ec4 80bb 0afb a9bb c223 bbbb f41c 233b
00000030: 20cf 83b9 a269 19bc c6fa c3bb c070 4e3a
00000040: 43c2 b13a e3bd 10bc da3a 393b 10b4 02bb
00000050: 0e9f d93a 2de0 843c da12 86bc b4ad 593c
00000060: 6346 16bb 3ebe 8d3c 8a8d 2dbb c168 043b
00000070: b429 91ba f872 c1bb beae 08bc 177f 0d3a
00000080: 29f7 b43b 1fb1 233b 619b bbb8 96b3 2f3c
00000090: 7c71 90bc f59c 7fbc 8b63 fcbb ca7a 29ba
000000a0: cbe6 773c 0054 063a 04d1 6d3b 9c97 863b
000000b0: 8ce0 8d3b 74d6 14bc 0a3a 113c 9b9d c9bc
000000c0: 3921 143a 911f 883a 54e1 f1b9 6d0b f43b
000000d0: 8d49 3939 cbe0 a7bc b228 3439 ed90 763b
000000e0: f342 063c e100 b9bb fb9e ba3b 344d 91bc
000000f0: 83a5 fe3b 3010 8639 e08d f3ba 9bf9 6bbb
00000100: fc59 b23b 95ce 7c3c 21d6 80ba d955 13bc
00000110: 46c3 50bc 0f72 943a cf02 4a3c 1fc3 b5b7
00000120: 11e9 e2bb 219a 973a ffc9 b33b c944 5e3c
00000130: f709 143c 7220 c53a 8471 afba 663d a2bb
00000140: 67bc cbbc 2566 8bba 1516 203b 9468 90bc
00000150: 4b53 eebb 975f 743b 7bd7 8c3b 2631 553b
00000160: 6f1e b93a bf88 4b3b c038 bbbb 0a23 5d3c
00000170: 77b9 cfbb efc6 88bb a377 4bbc eb27 df3b
00000180: 7e57 51bc 0b3c 1d3b c0b0 1cbb fc87 bfbb
00000190: 303f 5f3b eca8 033c d4b3 b9bb 7bd5 bd3c
000001a0: 190a 40ba 4105 4fbb 2e82 02ba d89e d93a
000001b0: b2de 1e3b 0db6 ba3b 7da0 bfbb bd3e 38bc
000001c0: 5835 21bd 1ed8 c43b 45c8 023b 2c85 40ba
000001d0: ab1b 5d3c d92e 8439 c037 70bb 08bd 043a
000001e0: 5617 ac3b 4ea5 0a3c 3b30 0fbb 65b2 a23a
000001f0: 3692 293a 8214 a2bc 0cd9 7dbc a9be 62bc
00000200: 7757 64bc 03df a1bb d33f c639 d0bb 753b
00000210: 303c 0cbc 1c3f 6b3b e151 acbc 1043 073a
00000220: a47f 413a 7fb2 7dbb d8bd 1db9 3ca8 ccbc
00000230: 7cef 043c 986b 06ba c94e 8eba 110e dbba
00000240: 4b7a adbb ac94 403a 6f1f f73a b25e be3a
00000250: f96f 2c3c a5a8 9539 5079 a53a 5cce 893b
00000260: 3090 803a 7b84 e83b 3945 94bc 44c7 31bd
00000270: 662d 593c d6fa d8b9 4ca4 3dba 72fc 6b3a
00000280: 08ef acbc e25d a0bb d57d 4bbb 9997 473c
00000290: 573d 593b 3e52 73bb 274f 10bc 263a 90bc
000002a0: 6747 2dbc 1713 e23a a469 b039 4770 d3ba
000002b0: 219c 2c3c 2fbf 09bc 3045 d039 30cd 53bb
000002c0: 01f2 bc39 ef23 0d39 6c78 b4ba 6898 24bc
000002d0: e433 013b f001 f2bb 4282 73bb 1c24 263a
000002e0: 041d 1a3b 6d5c 28bb eea6 e5bb ab98 403b
000002f0: 9654 c4bb 51b5 79bb 9123 4f3c 028b 2ebc
00000300: adf5 9f3c 76be ffb9 71ed 6d3b a236 213b
00000310: 42a9 d73b 454d efbb 7f59 a9bb 99a0 13bc
00000320: 7c00 253b 99f6 213c 6345 f1bb 0c18 88ba
00000330: f998 1b3c baeb 633b 55c1 ad3a addb 273c
00000340: d4c6 15ba 2684 873a 0a13 a5ba ae6e 72bb
00000350: aae6 f73b 2f77 24bc 081d c7bb 34bc 7fbb
00000360: 6f8b b2bc 71f0 9f3b a287 01ba 0ba3 d2bb
00000370: d176 9bbb 586e af3a e26b 9a3a 13f8 b4ba
00000380: ee2a 3ebb 8592 05bc 6d07 40bc 701b beba
00000390: e74f 393c cb10 b73a d020 ffbb 1117 7bbc
000003a0: 0830 6b38 3b36 7dbc 2482 5ebb 4158 aa3b
000003b0: 1298 50bc c2ba 0a3b 13fb 4e3b 509a b6bb
000003c0: 935c 9bbb 4ea6 37ba f6ea 64bb a967 e939
000003d0: a43a 3839 03ad 88bb 277e 253b eeb0 b63b
000003e0: 53c8 47bc 8b5c af3b 9b47 233b 81f3 633b
000003f0: 0a05 5a3c 3318 563c 0dfb ebbb 72b6 adbb

network_body._body_endoder.seq_layers.4.weight f4 [256, 256]
-0.066861995 -0.09765781 0.0017509124 0.059920773 0.009958335 -0.096807346 0.046596233 -0.09985126
-0.09085127 -0.0090739895 -0.020788955 0.025607703 -0.07764909 -0.12686938 -0.1383353 -0.058313645
0.03588638 -0.041465975 0.10221205 0.09171238 0.04510535 0.038023487 0.021946702 0.08798547
-0.018406527 0.018606158 -0.111395314 -0.02127024 -0.0744693 0.1419999 -0.041911293 -0.0029051446
-0.018450473 -0.025661135 -0.029872423 -0.12509689 -0.0897603 -0.00058622536 0.022426061 0.05332627
0.056142785 -0.00906882 -0.044798173 -0.00068010093 -0.025358265 -0.04619806 -0.04299428 0.04912933
-0.1392264 -0.07941066 -0.024102122 0.08287463 -0.02320292 0.041115493 -0.070194624 0.035650887
-0.1114945 0.00045871674 0.0047733258 -0.026406266 -0.0152685875 0.017819861 -0.094265 -0.03632863
-0.007182661 0.006835969 -0.032027848 0.08810925 -0.05558885 0.05717848 -0.017093053 0.1016572
0.039162714 -0.055216204 0.048229106 -0.07045039 0.017849231 -0.057430286 0.072705984 0.13029382
-0.11422247 0.059707385 -0.056864798 -0.052690145 0.12296026 0.013619251 0.016283479 0.041836936
0.021856938 -0.13430814 -0.050013524 -0.022658896 -0.16677894 0.08221958 -0.024773186 0.05783675
0.033081867 0.06366619 0.050132614 -0.0061618434 0.042974204 -0.045175944 0.035994444 -0.0014958914
0.097199075 0.020051027 0.035854466 -0.0008317918 -0.00783815 -0.02544398 0.08642148 0.0026764513
0.11309547 0.002595539 0.0735069 -0.14050642 0.051239863 -0.043699887 0.0046914904 -0.0044325897
0.005048356 0.071845956 -0.09396343 0.019278595 -0.03813137 0.08187709 -0.041677054 -0.071896866
-0.07715092 -0.0048190565 0.07828526 0.025274737 0.04277915 -0.021967513 -0.032682784 -0.03137879
-0.04235687 -0.03966174 -0.046312843 -0.06501612 0.015057162 -0.048120998 -0.11191369 -0.033544276
0.003460884 -0.01344225 0.0972882 0.086092725 -0.040449865 -0.048397444 0.030612588 -0.05596816
0.054268435 0.05016904 -0.016390841 -0.055436786 0.046235975 0.06296866 -0.023100784 -0.03339439
-0.0720849 -0.024623945 0.030775122 -0.028817154 -0.0886099 -0.070845604 0.011459374 0.12254242
0.066197 -0.07227638 -0.10871391 -0.00080629636 0.00845189 -0.003464495 -0.02700343 -0.104752645
-0.0034839856 0.07146634 0.0609226 0.19069639 0.025025649 0.011673332 -0.08604124 -0.08311201
0.06557153 -0.12103275 0.04146313 0.0482564 -0.025438385 -0.016654337 0.010916601 -0.037205182
-0.014014443 0.050186433 -0.0990212 0.08479895 -0.057533257 -0.04701117 0.04478994 0.0034093703
0.039198074 0.083129466 -0.10668624 0.039940048 -0.03351581 -0.0140551 -0.0423168 -0.10384404
-0.06315673 0.025771115 0.01997379 0.0912469 0.011724246 -0.012917249 0.0458384 -0.048238557
0.05900656 -0.087147385 0.020548495 -0.06432742 0.043379556 -0.005833991 0.029527402 -0.055964265
0.033970032 -0.02630611 0.05250944 -0.0011164935 -0.024969446 0.054280598 0.080366865 0.012525989
0.075952806 0.008487646 -0.09380692 -0.021838192 -0.0103365695 -0.14375748 -0.014245567 -0.02121006
-0.046011575 0.05286466 -0.013493584 0.016769672 -0.017530538 -0.004880543 0.03185804 0.015700826
-0.0068463716 -0.015293055 0.09876604 0.0065888613 0.012777531 0.06124446 -0.028490322 0.008116492
00000000: f1ee 88bd d100 c8bd df7e e53a 7c6f 753d
00000010: 4928 233c ee42 c6bd b1db 3e3d d17e ccbd
00000020: 3b10 babd 12ab 14bc 994d aabc 3fc7 d13c
00000030: 7c06 9fbd 0cea 01be c5a7 0dbe 4ada 6ebd
00000040: 99fd 123d 3ad8 29bd 8d54 d13d b3d3 bb3d
00000050: 63c0 383d 84be 1b3d 92c9 b33c ba31 b43d
00000060: 49c9 96bc f16b 983c 3a23 e4bd ed3e aebc
00000070: 5c83 98bd 6c68 113e 2dab 2bbd 3d64 3ebb
00000080: 7225 97bc 4d37 d2bc 03b7 f4bc 6619 00be
00000090: 40d4 b7bd ebac 19ba dcb6 b73c a66c 5a3d
000000a0: faf5 653d 6395 14bc 4a7e 37bd cd48 32ba
000000b0: 23bc cfbc 2d3a 3dbd c51a 30bd d63b 493d
000000c0: 5e91 0ebe 0ea2 a2bd d071 c5bc 2dba a93d
000000d0: 0d14 bebc b868 283d 33c2 8fbd aa06 123d
000000e0: 3a57 e4bd eb7f f039 8f69 9c3b f451 d8bc
000000f0: 1929 7abc f5fa 913c 020e c1bd 54cd 14bd
00000100: 875c ebbb 4400 e03b a22f 03bd 9f72 b43d
00000110: 22b1 63bd fb33 6a3d bb06 8cbc a631 d03d
00000120: 1569 203d 632a 62bd e28b 453d 4b48 90bd
00000130: 8d38 923c 053c 6bbd e0e6 943d be6b 053e
00000140: 78ed e9bd bb8f 743d 10eb 68bd 9fd1 57bd
00000150: 97d2 fb3d 4723 5f3c ee64 853c 355d 2b3d
00000160: 520d b33c 1388 09be fbda 4cbd 269f b9bc
00000170: 19c8 2abe bd62 a83d 23f1 cabc 3ae6 6c3d
00000180: da80 073d 6b63 823d db57 4d3d 4ae9 c9bb
00000190: b805 303d 690a 39bd e96e 133d c911 c4ba
000001a0: 4f10 c73d 0d42 a43c 22dc 123d 9a0c 5aba
000001b0: 956b 00bc e56f d0bc bffd b03d 6767 2f3b
000001c0: 999e e73d eb19 2a3b c98a 963d eae0 0fbe
000001d0: e4e0 513d a7fe 32bd 13bb 993b 423f 91bb
000001e0: ae6c a53b f923 933d e66f c0bd 25ee 9d3c
000001f0: a42f 1cbd 2daf a73d 8fb5 2abd aa3e 93bd
00000200: 4d01 9ebd 2de9 9dbb 0654 a03d f70c cf3c
00000210: 3139 2f3d 37f5 b3bc 62de 05bd 0c87 00bd
00000220: 667e 2dbd 5974 22bd 89b2 3dbd 2c27 85bd
00000230: 51b2 763c 861a 45bd 0133 e5bd b965 09bd
00000240: 00d0 623b e23c 5cbc 093f c73d 6251 b03d
00000250: c2ae 25bd 663c 46bd 40c7 fa3c df3e 65bd
00000260: 9448 5e3d 0d7e 4d3d 1646 86bc af11 63bd
00000270: ef61 3d3d b6f5 803d db3d bdbc 8ec8 08bd
00000280: 40a1 93bd 28b8 c9bc 1c1c fc3c f411 ecbc
00000290: 1b79 b5bd 8017 91bd 19c0 3b3c 85f7 fa3d
000002a0: 4b92 873d a405 94bd 66a5 debd a25d 53ba
000002b0: cc79 0a3c 950c 63bb 4c36 ddbc 8e88 d6bd
000002c0: 9453 64bb f25c 923d fa89 793d ea45 433e
000002d0: 9702 cd3c 8141 3f3c 6436 b0bd a136 aabd
000002e0: 5e4a 863d 05e0 f7bd 3ed5 293d 81a8 453d
000002f0: 2964 d0bc ad6e 88bc 8bdb 323c 7664 18bd
00000300: d69c 65bc 4a90 4d3d a0cb cabd 12ab ad3d
00000310: fea7 6bbd c98e 40bd a875 373d be6f 5f3b
00000320: 298e 203d c83f aa3d 517e dabd 2d98 233d
00000330: e047 09bd 5d47 66bc 6254 2dbd 2fac d4bd
00000340: 5158 81bd f21d d33c 13a0 a33c a8df ba3d
00000350: 0d17 403c dfa2 53bc 0cc1 3b3d cb95 45bd
00000360: ddb0 713d 547a b2bd 5155 a83c 18be 83bd
00000370: c3ae 313d 102b bfbb 73e3 f13c c93a 65bd
00000380: 2924 0b3d e97f d7bc 2314 573d 4e57 92ba
00000390: b98c ccbc 5555 5e3d 6297 a43d ce39 4d3c
000003a0: 258d 9b3d c40f 0b3c d81d c0bd 02e6 b2bc
000003b0: b75a 29bc 2935 13be 3d66 69bc b8c0 adbc
000003c0: a276 3cbd 9d88 583d 3114 5dbc 8d60 893c
000003d0: 349c 8fbc f6ec 9fbb 937d 023d 059f 803c
000003e0: 8757 e0bb b98f 7abc d945 ca3d 60e7 d73b
000003f0: d958 513c 79db 7a3d 8964 e9bc 09fb 043c
