Assets/Training/results/run5/config/config-1152.onnx (onnx, 588060 bytes, 9 tensors)

action_model._continuous_distribution.log_sigma f4 [1, 2]
00000000: 0000 0000 0000 0000
0.0 0.0

action_model._continuous_distribution.mu.bias f4 [2]
00000000: 0000 0000 0000 0000
0.0 0.0

action_model._continuous_distribution.mu.weight f4 [2, 256]
00000000: 570c bdba 2faf 65bc 503e f33c 10d7 4fbc
00000010: b68a b1bc b0bd 4ebb 856e d1bb 97fe 42ba
00000020: 22b5 9c39 a618 1cbc 6391 3ab8 f3b9 363b
00000030: fa62 503c 5ed9 2abc 6278 3f3c 659b 323c
00000040: 12ce 6f3b 6571 34bc 455a d33b 0f15 5f3c
00000050: 6693 b5bb 35e0 64bc bdb0 babb 5fd1 3eba
00000060: e884 5a3c 228c 523a 8089 363c 6a55 c33c
00000070: 7403 973c 95b9 fdbc 5a5a d739 69ec c5ba
00000080: fdb6 553c 8738 95bc ac14 34bd d4c0 023c
00000090: efa4 8fbc 8941 0f3c 1ffa a5bb e9d5 07bc
000000a0: 471b 1a3c 6f78 5e3c 4372 62bc 3b3b e03a
000000b0: 6550 7cbc bf20 903c 3bd0 8f3b 7cb5 913b
000000c0: 9167 ae3c b801 39bc c444 b1bc 3baf 3b3b
000000d0: 5013 c83c 9089 4cbc 87a7 89bc 4843 c4bb
000000e0: 2316 29bc f7cc 503c 63ae 043b 8590 b83a
000000f0: 0eb1 333c ab74 c3bc d51b 31bb 5019 803c
00000100: d9a0 2139 780d 033c b787 1abb d3af abbc
00000110: 4c68 47b9 0a69 d7bc b095 3d3c b56c fabb
00000120: 1539 0cbc 288e 993c 43a7 80bc 956e 573c
00000130: dad9 90bc 4609 1dbb 8606 85bc 8568 1b3c
00000140: ee2c 2e3b 7479 22bc 1a3f 853b 9300 3c3c
00000150: 89f7 243c 579b 943b bd91 7f3c d79e 173c
00000160: 7e95 b7bb 978a 133b e0f4 bdbc f814 d8ba
00000170: 172b 1e3c 3f5c cc3c 76a6 3b3c c3dd cb3c
00000180: 475d a2bb 0b99 debc 7bb2 303c d006 e23b
00000190: 1048 54ba c2d2 a83c 62c6 c2bc 985c 40bc
000001a0: ef42 053c abbc ff3b c981 2ebb 3aea cb3b
000001b0: 7334 d03c b1c1 393c 0018 553b 6ba2 e4ba
000001c0: bbd4 1cba bfcb ddbb 766a c33b 10f6 2dbc
000001d0: 87d2 053c c0e6 803c 23c2 ccba 3a85 623c
000001e0: db04 373c d840 ceba 39a4 c1ba f520 35bd
000001f0: b86a d5bb e7c6 edbb 021c 0a3c 19c9 a5bb
00000200: 63fe 613c 8234 143b 6855 02bc e90e 213d
00000210: 6362 063c f155 b83a 053e 70ba 1364 97bb
00000220: 0856 70bc e21c 093b a3d0 623a 5e58 9bbb
00000230: 1163 38bb 675d e2b9 31e0 143d 28b2 773c
00000240: 7f27 57bc 8a0e eb3c 15d8 683b 95de 7aba
00000250: 5d4f 2e3c af36 18bc 4b35 cc3a 036a 23b9
00000260: 3f7d 2dbb 860e 2ebc 016d b0ba b5db e9b8
00000270: 4b0a 8a3c 0f5c 1e3b 6b99 5d3b 1a0c 9c3c
00000280: f676 2c3b a897 fabb 0318 bdba 3645 b23c
00000290: bcd9 1d3c 6975 393b 2700 f83b 524a 663a
000002a0: f01e 853b 80e9 cf39 6054 4a3c 2f81 ae38
000002b0: a812 9a3c afd5 a5bc 1eab 213b b751 343b
000002c0: f8b0 f73b 73b3 db3b 29e5 17bc 175d babc
000002d0: b7c3 23bc 8aa9 db39 ff59 7d3b 9fea 553c
000002e0: cb0b 833c 9ff8 04bb 787a de3b 78e5 71bc
000002f0: f76b fbbb 9bbe c8ba 333c 00bd 6279 d93a
00000300: 3ffd 62bc 7262 e93a 4a78 f7bb 22a6 d13a
00000310: 7272 8cbb f107 8c3c 9daa df3b d326 0d3c
00000320: adec d3b9 2ca0 01bd 8344 75bb 075b 3a3a
00000330: 91f4 11bb f384 933b 8ce0 843c af33 0a3c
00000340: c870 22bc 8a85 fe3a 8f4c 043a 0271 923b
00000350: fa97 dcbb dfd2 1cbc 68eb 46bc 73c6 a1bc
00000360: fb68 743c e406 123c 9f81 92bc 6cab 12bc
00000370: 9353 30bc b343 923c 13ba 89bc 65f6 d33c
00000380: fdce 293c 4029 553c ff13 963b 370b 353b
00000390: 6fec 4f3c 4b76 7fbc dca5 8fbc 4cd6 323c
000003a0: a47d 8ebc 3df8 efbc 33ae b7ba 9264 d63b
000003b0: e085 843c 8252 573c 45cd 3bbc f8b8 613a
000003c0: 027d 69bc 285b b03c 5215 153d d83a 243a
000003d0: 965f a53b d5f7 ce3a 4b2a 523c a3a1 bc3c
000003e0: e793 a63c f301 8e3c bf28 cd3c 888d 4c3c
000003f0: bf07 9dbb 2c4c 9f3b 5c48 8a3b 971a 89bc
-0.0014423233 -0.014018818 0.029692799 -0.012685552 -0.021672588 -0.0031546168 -0.006391349 -0.00074384495
0.00029889593 -0.009527361 -4.4481258e-05 0.002788183 0.01271891 -0.010427801 0.011686416 0.010901307
0.0036591333 -0.0110133635 0.00644997 0.013615861 -0.005541253 -0.013969471 -0.0056973384 -0.00072791235
0.013337351 0.00080317457 0.011141181 0.02384444 0.018434264 -0.030972281 0.00041075313 -0.0015100363
0.013044116 -0.01821543 -0.043965027 0.007980544 -0.017534701 0.008743652 -0.005065217 -0.008290746
0.0094059175 0.013578518 -0.013821187 0.0017107496 -0.015400027 0.01759374 0.0043888367 0.0044466835
0.021289619 -0.011291914 -0.021639235 0.002863838 0.024423271 -0.012483969 -0.016803516 -0.005989466
-0.010320219 0.01274418 0.0020245544 0.0014081156 0.010967506 -0.023859343 -0.0027024646 0.01563707
0.00015414077 0.007998817 -0.0023579428 -0.020957863 -0.00019016973 -0.026295204 0.011571333 -0.0076423534
-0.008558531 0.018744543 -0.015704757 0.013148923 -0.017682005 -0.0023961826 -0.016238462 0.009485369
0.0026577073 -0.009916652 0.00406636 0.011474746 0.010068783 0.0045351195 0.015598712 0.009254179
-0.0056025377 0.0022513026 -0.023188055 -0.0016485741 0.009653828 0.02494633 0.011453262 0.024886018
-0.004954967 -0.027172586 0.010784741 0.006897785 -0.00080978964 0.02060831 -0.023776237 -0.011740826
0.008133634 0.0078044734 -0.002662765 0.0062229903 0.025415635 0.011337684 0.0032515526 -0.0017443424
-0.0005982627 -0.006768673 0.005963619 -0.010617748 0.008167869 0.01573503 -0.0015621822 0.013825709
0.011170591 -0.0015735878 -0.0014773674 -0.044220883 -0.006512966 -0.007256377 0.008429529 -0.005059373
0.013793561 0.0022614305 -0.007954933 0.03932086 0.008202168 0.0014063698 -0.0009164515 -0.004620084
-0.014668949 0.0020921757 0.0008652305 -0.004740759 -0.002813522 -0.0004317567 0.036346618 0.015118159
-0.013131975 0.028693456 0.0035529186 -0.00095699105 0.010639039 -0.009290381 0.0015579847 -0.00015584384
-0.0026472358 -0.01062358 -0.001346022 -0.000111512294 0.016850611 0.0024163758 0.0033813368 0.01904874
0.0026316023 -0.0076474734 -0.0014426712 0.021761518 0.009634431 0.0028298742 0.0075683775 0.00087848783
0.004062526 0.00039656088 0.012349218 8.321029e-05 0.018807724 -0.020243494 0.0024668644 0.0027514526
0.007558938 0.0067047416 -0.009270945 -0.022749467 -0.0099953925 0.00041897252 0.0038658378 0.013056426
0.015996834 -0.0020289791 0.0067895018 -0.014764182 -0.0076727825 -0.0015315594 -0.03130741 0.0016591961
-0.013854324 0.0017805828 -0.0075521814 0.0015994946 -0.004286104 0.01709363 0.0068257586 0.008615213
-0.00040421393 -0.031646892 -0.003742487 0.0007108901 -0.0022271017 0.0045019328 0.016220354 0.008435174
-0.009914584 0.001941846 0.00050468085 0.004469038 -0.006731984 -0.00957176 -0.012141086 -0.019747948
0.014917607 0.008912776 -0.017884074 -0.008952003 -0.010762113 0.017854547 -0.01681236 0.025874326
0.010364291 0.013010323 0.0045800204 0.0027625093 0.0126906475 -0.015592168 -0.017535143 0.01091535
-0.017393894 -0.029293174 -0.0014013707 0.0065427506 0.016177118 0.01314223 -0.011462514 0.00086106313
-0.014250996 0.021527842 0.036397286 0.0006264872 0.005046795 0.0015790412 0.012827466 0.023026293
0.020334197 0.017334914 0.025043843 0.012484916 -0.004792183 0.0048613753 0.0042200517 -0.016736312

network_body._body_endoder.seq_layers.0.bias f4 [256]
00000000: 0000 0000 0000 0000 0000 0000 0000 0000
00000010: 0000 0000 0000 0000 0000 0000 0000 0000
00000020: 0000 0000 0000 0000 0000 0000 0000 0000
00000030: 0000 0000 0000 0000 0000 0000 0000 0000
00000040: 0000 0000 0000 0000 0000 0000 0000 0000
00000050: 0000 0000 0000 0000 0000 0000 0000 0000
00000060: 0000 0000 0000 0000 0000 0000 0000 0000
00000070: 0000 0000 0000 0000 0000 0000 0000 0000
00000080: 0000 0000 0000 0000 0000 0000 0000 0000
00000090: 0000 0000 0000 0000 0000 0000 0000 0000
000000a0: 0000 0000 0000 0000 0000 0000 0000 0000
000000b0: 0000 0000 0000 0000 0000 0000 0000 0000
000000c0: 0000 0000 0000 0000 0000 0000 0000 0000
000000d0: 0000 0000 0000 0000 0000 0000 0000 0000
000000e0: 0000 0000 0000 0000 0000 0000 0000 0000
000000f0: 0000 0000 0000 0000 0000 0000 0000 0000
00000100: 0000 0000 0000 0000 0000 0000 0000 0000
00000110: 0000 0000 0000 0000 0000 0000 0000 0000
00000120: 0000 0000 0000 0000 0000 0000 0000 0000
00000130: 0000 0000 0000 0000 0000 0000 0000 0000
00000140: 0000 0000 0000 0000 0000 0000 0000 0000
00000150: 0000 0000 0000 0000 0000 0000 0000 0000
00000160: 0000 0000 0000 0000 0000 0000 0000 0000
00000170: 0000 0000 0000 0000 0000 0000 0000 0000
00000180: 0000 0000 0000 0000 0000 0000 0000 0000
00000190: 0000 0000 0000 0000 0000 0000 0000 0000
000001a0: 0000 0000 0000 0000 0000 0000 0000 0000
000001b0: 0000 0000 0000 0000 0000 0000 0000 0000
000001c0: 0000 0000 0000 0000 0000 0000 0000 0000
000001d0: 0000 0000 0000 0000 0000 0000 0000 0000
000001e0: 0000 0000 0000 0000 0000 0000 0000 0000
000001f0: 0000 0000 0000 0000 0000 0000 0000 0000
00000200: 0000 0000 0000 0000 0000 0000 0000 0000
00000210: 0000 0000 0000 0000 0000 0000 0000 0000
00000220: 0000 0000 0000 0000 0000 0000 0000 0000
00000230: 0000 0000 0000 0000 0000 0000 0000 0000
00000240: 0000 0000 0000 0000 0000 0000 0000 0000
00000250: 0000 0000 0000 0000 0000 0000 0000 0000
00000260: 0000 0000 0000 0000 0000 0000 0000 0000
00000270: 0000 0000 0000 0000 0000 0000 0000 0000
00000280: 0000 0000 0000 0000 0000 0000 0000 0000
00000290: 0000 0000 0000 0000 0000 0000 0000 0000
000002a0: 0000 0000 0000 0000 0000 0000 0000 0000
000002b0: 0000 0000 0000 0000 0000 0000 0000 0000
000002c0: 0000 0000 0000 0000 0000 0000 0000 0000
000002d0: 0000 0000 0000 0000 0000 0000 0000 0000
000002e0: 0000 0000 0000 0000 0000 0000 0000 0000
000002f0: 0000 0000 0000 0000 0000 0000 0000 0000
00000300: 0000 0000 0000 0000 0000 0000 0000 0000
00000310: 0000 0000 0000 0000 0000 0000 0000 0000
00000320: 0000 0000 0000 0000 0000 0000 0000 0000
00000330: 0000 0000 0000 0000 0000 0000 0000 0000
00000340: 0000 0000 0000 0000 0000 0000 0000 0000
00000350: 0000 0000 0000 0000 0000 0000 0000 0000
00000360: 0000 0000 0000 0000 0000 0000 0000 0000
00000370: 0000 0000 0000 0000 0000 0000 0000 0000
00000380: 0000 0000 0000 0000 0000 0000 0000 0000
00000390: 0000 0000 0000 0000 0000 0000 0000 0000
000003a0: 0000 0000 0000 0000 0000 0000 0000 0000
000003b0: 0000 0000 0000 0000 0000 0000 0000 0000
000003c0: 0000 0000 0000 0000 0000 0000 0000 0000
000003d0: 0000 0000 0000 0000 0000 0000 0000 0000
000003e0: 0000 0000 0000 0000 0000 0000 0000 0000
000003f0: 0000 0000 0000 0000 0000 0000 0000 0000
0.0 0.0 0.0 0.0 0.0 0.0 0.0 0.0
0.0 0.0 0.0 0.0 0.0 0.0 0.0 0.0
0.0 0.0 0.0 0.0 0.0 0.0 0.0 0.0
0.0 0.0 0.0 0.0 0.0 0.0 0.0 0.0
0.0 0.0 0.0 0.0 0.0 0.0 0.0 0.0
0.0 0.0 0.0 0.0 0.0 0.0 0.0 0.0
0.0 0.0 0.0 0.0 0.0 0.0 0.0 0.0
0.0 0.0 0.0 0.0 0.0 0.0 0.0 0.0
0.0 0.0 0.0 0.0 0.0 0.0 0.0 0.0
0.0 0.0 0.0 0.0 0.0 0.0 0.0 0.0
0.0 0.0 0.0 0.0 0.0 0.0 0.0 0.0
0.0 0.0 0.0 0.0 0.0 0.0 0.0 0.0
0.0 0.0 0.0 0.0 0.0 0.0 0.0 0.0
0.0 0.0 0.0 0.0 0.0 0.0 0.0 0.0
0.0 0.0 0.0 0.0 0.0 0.0 0.0 0.0
0.0 0.0 0.0 0.0 0.0 0.0 0.0 0.0
0.0 0.0 0.0 0.0 0.0 0.0 0.0 0.0
0.0 0.0 0.0 0.0 0.0 0.0 0.0 0.0
0.0 0.0 0.0 0.0 0.0 0.0 0.0 0.0
0.0 0.0 0.0 0.0 0.0 0.0 0.0 0.0
0.0 0.0 0.0 0.0 0.0 0.0 0.0 0.0
0.0 0.0 0.0 0.0 0.0 0.0 0.0 0.0
0.0 0.0 0.0 0.0 0.0 0.0 0.0 0.0
0.0 0.0 0.0 0.0 0.0 0.0 0.0 0.0
0.0 0.0 0.0 0.0 0.0 0.0 0.0 0.0
0.0 0.0 0.0 0.0 0.0 0.0 0.0 0.0
0.0 0.0 0.0 0.0 0.0 0.0 0.0 0.0
0.0 0.0 0.0 0.0 0.0 0.0 0.0 0.0
0.0 0.0 0.0 0.0 0.0 0.0 0.0 0.0
0.0 0.0 0.0 0.0 0.0 0.0 0.0 0.0
0.0 0.0 0.0 0.0 0.0 0.0 0.0 0.0
0.0 0.0 0.0 0.0 0.0 0.0 0.0 0.0

network_body._body_endoder.seq_layers.0.weight f4 [256, 55]
00000000: eca7 63bd 2ca6 893d d903 dcbd 58a5 05be
00000010: c831 133c 3346 ebbd baf9 0b3e 097e 3ebe
00000020: e925 5abd 7927 8bbe c2af fc3d f218 10be
00000030: fa96 3ebc 41a0 c9bd 5555 c73d 0da1 55be
00000040: 9c43 463e 5131 6cbc 6d20 c9bd 4769 843c
00000050: 8627 be3d 7c76 1dbd 073c 3f3e 0ef4 b63d
00000060: f823 33be d42d 8e3d f42f 1d3e 8081 af3d
00000070: cead 8a3d 28b5 4e3e 7bed 9c3d 9b9c efbd
00000080: 3221 ab3d 5fd3 09be 625a 77bc 706d 613d
00000090: ee1b 38be 14cd 60be 9d4c 11bd 4345 8c3d
000000a0: 4dad 1b3e ce9a 5abe 1714 5d3d 0c01 253e
000000b0: bd96 92bd 0180 fa3d 653e 8ebe ca38 143e
000000c0: cac2 cdbd f84a a63c 71ba 9dbc 0ba6 1ebd
000000d0: 5438 a0bd 1071 8ebc 1330 343e 92d7 023e
000000e0: fb63 26be defc a1bd 0c79 243e 4c59 81be
000000f0: 4569 c33d 739f 9bbd 4344 20be 76d3 ce3e
00000100: d9ef 303e 7a9c fb3d bcd6 cf3c 86d9 62bd
00000110: afee 983d 575a f1bd eba8 84bd 8802 c33d
00000120: 9299 79bd be5e 973e e55f 1ebe f36a 4a3e
00000130: d49c dd3d 401c 053d afef 0b3e e1ab 393d
00000140: 0b72 9b3d ec6e a33d 07c5 92bb 28ce 77bd
00000150: a4bc 053e d0fb 7dbc 727d 9a3d 572d 1d3e
00000160: 78be 7c3e 7953 1ebc 6e54 0c3e 6c1a 753e
00000170: c5c1 c6bc 5adb 05bb d73f 1bbd bc41 9abd
00000180: 2388 4dbc 06c0 82bd 6dbd c83d 1159 55be
00000190: 4231 f13d bbcc 073e 6935 0a3c 4759 7bbd
000001a0: 9a4d 243e 0d28 af3d a7d2 05be 1150 9ebd
000001b0: 54a0 aabd 4ed0 ac3d 27b3 393e 01e5 02be
000001c0: 6c3d bdbc 1173 afbd aca9 72bd 996d 9bbc
000001d0: 2aa6 343e 3880 2bbd a9ae b93d 3268 bf3c
000001e0: 8818 f2bc 12d2 25be 162f 0bbd 36e9 41be
000001f0: c531 a0bc db04 c33d dc9f 583d d56f a33d
00000200: 9393 25bd 7104 6cbd 5337 3bbe 6955 75bd
00000210: 07fb 1dbe 3d2b bd3d fbc8 6b3d dd0d eabd
00000220: b120 0f3d f6be 57bc 6fb2 d33e 6400 1a3d
00000230: 6b71 98bc 2f42 b1be 2e82 1a3e 543f 58bd
00000240: 64bd 983c 669a d53d 80da 923e 8745 193e
00000250: 1cd8 46bd 35d9 ffbd 793c 5d3d 05a7 163e
00000260: 41e9 b3bd ddaf 773e 4915 09bd c127 7db9
00000270: d826 1d3e 72bc 06be 7172 433d 0fa1 4bbc
00000280: 2883 5bbe 4496 403d 42bd 16be 2700 1dbd
00000290: 5208 88be f4c4 0f3d 7547 403e 66ba 663e
000002a0: add3 d1bd f48e e53d 857d 9e3d bfe6 febd
000002b0: 912e 3bbe 82e7 e7bd b1cc c43d 99c2 1fbe
000002c0: d5ca 8cbe 1e37 d33d 1cac c3bd c244 783d
000002d0: 640b 513e 45b5 2dbe 1603 9ebc 4250 98bd
000002e0: ad2c ef3c 6d03 773d f8d7 3fbe 4d06 5ebe
000002f0: e0dc 843e 6037 54be 91cc e73d 1693 abbd
00000300: ef32 3ebc ed86 943d 740d 903e e346 b5bd
00000310: 9f69 713d cf8c a03d 39f2 b4bd e58b 19bd
00000320: 2ca1 7c3e 42d5 a03b f169 4c3e 4e6c 3cbe
00000330: 41a2 f73d 4824 9b3d 657e 73be f6b0 053e
00000340: 0fca d5bd a680 b33e 8575 b1bd e6f9 02be
00000350: 6106 16be 8d81 ba3c f785 c3bd 5fa5 e9bd
00000360: bc59 88be 44b3 1cbe a5d0 f23c 4871 0a3e
00000370: 269e 12bd 58c3 53be 7591 cebd 7322 47be
00000380: 687d 473e 2bae d8bc 4f1a d2bd e3fc 083e
00000390: 1f22 10bd 95e2 06be 2e20 993d e66c e53c
000003a0: 0886 80bd 6764 66be 8583 09bd d49c 173c
000003b0: 960b c1bc a637 e5bd d6f8 2bbe 6884 ecbb
000003c0: a79b de3d dc11 293c 1766 953b 0b7d 62be
000003d0: 2239 63be 695c cfbd f081 12be 5b8a 0f3e
000003e0: f3bd eb3b 04ca 97bd 4e2f a93c c82f a3bd
000003f0: 268f ee3d b7d5 47be dc57 c23d fad7 aebd
-0.055580065 0.06721148 -0.107429214 -0.13051355 0.008984037 -0.11487999 0.13669482 -0.18602766
-0.05325881 -0.27178553 0.12338211 -0.14072016 -0.011632675 -0.09845019 0.09733073 -0.20862217
0.19361728 -0.014416055 -0.09820638 0.016163481 0.09284882 -0.038443074 0.18675242 0.089332685
-0.1749419 0.06942335 0.15350324 0.08569622 0.06771432 0.20186293 0.07662483 -0.11699792
0.08355941 -0.13459538 -0.015097233 0.05503601 -0.17979404 -0.21953231 -0.035473455 0.06849148
0.15202828 -0.21348116 0.053974237 0.1611368 -0.07157657 0.12231446 -0.27781978 0.14474788
-0.10046919 0.02029942 -0.019253941 -0.03873257 -0.07823244 -0.017387897 0.17596464 0.12777546
-0.16249077 -0.07909559 0.160618 -0.2526344 0.09541563 -0.07598772 -0.1565104 0.40395707
0.17278995 0.12285705 0.025370948 -0.055383228 0.074674 -0.11784809 -0.06477531 0.09521967
-0.06093747 0.2956447 -0.15466268 0.1976736 0.10820928 0.032497644 0.13665651 0.045329932
0.07590111 0.07980141 -0.004479054 -0.06049934 0.13060242 -0.015501931 0.07543458 0.15349327
0.24682033 -0.009663456 0.13704082 0.2393586 -0.024262318 -0.0020424933 -0.03790268 -0.07532069
-0.012544665 -0.06384282 0.09801755 -0.20834757 0.11776973 0.13261692 0.008435586 -0.06136444
0.16045228 0.08552561 -0.13068639 -0.07730115 -0.083313614 0.084381685 0.18134747 -0.1278267
-0.023100577 -0.08566869 -0.059243843 -0.018973159 0.17641512 -0.041870326 0.09066517 0.023365114
-0.029552713 -0.16193417 -0.03398045 -0.18936619 -0.019554982 0.095224105 0.05288683 0.07980315
-0.04042394 -0.057621423 -0.18282823 -0.059895907 -0.1542779 0.09236763 0.057564717 -0.114284255
0.034943286 -0.013168087 0.41347072 0.03759803 -0.01860877 -0.34620807 0.15088722 -0.05279477
0.018644996 0.1042984 0.28682327 0.14967929 -0.04854594 -0.12492601 0.05401275 0.1471215
-0.08784724 0.2418818 -0.033467565 -0.0002414277 0.15346849 -0.13157824 0.04771656 -0.012428536
-0.21436751 0.047018304 -0.14720634 -0.038330223 -0.26568848 0.03509994 0.18777259 0.22532043
-0.10245452 0.11208907 0.07738785 -0.12446355 -0.18279482 -0.113234535 0.09609354 -0.15601577
-0.274985 0.10313247 -0.09554312 0.060612448 0.20414501 -0.1696368 -0.01928858 -0.07437183
0.029196108 0.060306 -0.1873473 -0.21682091 0.25949764 -0.20724249 0.11318315 -0.08377664
-0.011608823 0.072522976 0.28135264 -0.08851411 0.05893862 0.07839357 -0.08835263 -0.03748693
0.24670857 0.004908235 0.19962288 -0.1840069 0.12091494 0.075752795 -0.23778684 0.13055786
-0.1043893 0.35059088 -0.08664993 -0.12790641 -0.14650871 0.022766853 -0.09547036 -0.11408495
-0.26630962 -0.1530276 0.029640505 0.13519776 -0.035795353 -0.20679986 -0.100863375 -0.19446735
0.19481432 -0.026450237 -0.10258924 0.13377719 -0.03518879 -0.13172372 0.07476841 0.028006028
-0.062755644 -0.22499238 -0.033572692 0.009253699 -0.023565095 -0.11192255 -0.16794142 -0.0072179325
0.10869532 0.010319199 0.004559289 -0.22118013 -0.22189763 -0.10125048 -0.1430738 0.14017622
0.0071942746 -0.07411578 0.02065244 -0.07968098 0.11648397 -0.1951512 0.09489414 -0.08537288

network_body._body_endoder.seq_layers.2.bias f4 [256]
00000000: 0000 0000 0000 0000 0000 0000 0000 0000
00000010: 0000 0000 0000 0000 0000 0000 0000 0000
00000020: 0000 0000 0000 0000 0000 0000 0000 0000
00000030: 0000 0000 0000 0000 0000 0000 0000 0000
00000040: 0000 0000 0000 0000 0000 0000 0000 0000
00000050: 0000 0000 0000 0000 0000 0000 0000 0000
00000060: 0000 0000 0000 0000 0000 0000 0000 0000
00000070: 0000 0000 0000 0000 0000 0000 0000 0000
00000080: 0000 0000 0000 0000 0000 0000 0000 0000
00000090: 0000 0000 0000 0000 0000 0000 0000 0000
000000a0: 0000 0000 0000 0000 0000 0000 0000 0000
000000b0: 0000 0000 0000 0000 0000 0000 0000 0000
000000c0: 0000 0000 0000 0000 0000 0000 0000 0000
000000d0: 0000 0000 0000 0000 0000 0000 0000 0000
000000e0: 0000 0000 0000 0000 0000 0000 0000 0000
000000f0: 0000 0000 0000 0000 0000 0000 0000 0000
00000100: 0000 0000 0000 0000 0000 0000 0000 0000
00000110: 0000 0000 0000 0000 0000 0000 0000 0000
00000120: 0000 0000 0000 0000 0000 0000 0000 0000
00000130: 0000 0000 0000 0000 0000 0000 0000 0000
00000140: 0000 0000 0000 0000 0000 0000 0000 0000
00000150: 0000 0000 0000 0000 0000 0000 0000 0000
00000160: 0000 0000 0000 0000 0000 0000 0000 0000
00000170: 0000 0000 0000 0000 0000 0000 0000 0000
00000180: 0000 0000 0000 0000 0000 0000 0000 0000
00000190: 0000 0000 0000 0000 0000 0000 0000 0000
000001a0: 0000 0000 0000 0000 0000 0000 0000 0000
000001b0: 0000 0000 0000 0000 0000 0000 0000 0000
000001c0: 0000 0000 0000 0000 0000 0000 0000 0000
000001d0: 0000 0000 0000 0000 0000 0000 0000 0000
000001e0: 0000 0000 0000 0000 0000 0000 0000 0000
000001f0: 0000 0000 0000 0000 0000 0000 0000 0000
00000200: 0000 0000 0000 0000 0000 0000 0000 0000
00000210: 0000 0000 0000 0000 0000 0000 0000 0000
00000220: 0000 0000 0000 0000 0000 0000 0000 0000
00000230: 0000 0000 0000 0000 0000 0000 0000 0000
00000240: 0000 0000 0000 0000 0000 0000 0000 0000
00000250: 0000 0000 0000 0000 0000 0000 0000 0000
00000260: 0000 0000 0000 0000 0000 0000 0000 0000
00000270: 0000 0000 0000 0000 0000 0000 0000 0000
00000280: 0000 0000 0000 0000 0000 0000 0000 0000
00000290: 0000 0000 0000 0000 0000 0000 0000 0000
000002a0: 0000 0000 0000 0000 0000 0000 0000 0000
000002b0: 0000 0000 0000 0000 0000 0000 0000 0000
000002c0: 0000 0000 0000 0000 0000 0000 0000 0000
000002d0: 0000 0000 0000 0000 0000 0000 0000 0000
000002e0: 0000 0000 0000 0000 0000 0000 0000 0000
000002f0: 0000 0000 0000 0000 0000 0000 0000 0000
00000300: 0000 0000 0000 0000 0000 0000 0000 0000
00000310: 0000 0000 0000 0000 0000 0000 0000 0000
00000320: 0000 0000 0000 0000 0000 0000 0000 0000
00000330: 0000 0000 0000 0000 0000 0000 0000 0000
00000340: 0000 0000 0000 0000 0000 0000 0000 0000
00000350: 0000 0000 0000 0000 0000 0000 0000 0000
00000360: 0000 0000 0000 0000 0000 0000 0000 0000
00000370: 0000 0000 0000 0000 0000 0000 0000 0000
00000380: 0000 0000 0000 0000 0000 0000 0000 0000
00000390: 0000 0000 0000 0000 0000 0000 0000 0000
000003a0: 0000 0000 0000 0000 0000 0000 0000 0000
000003b0: 0000 0000 0000 0000 0000 0000 0000 0000
000003c0: 0000 0000 0000 0000 0000 0000 0000 0000
000003d0: 0000 0000 0000 0000 0000 0000 0000 0000
000003e0: 0000 0000 0000 0000 0000 0000 0000 0000
000003f0: 0000 0000 0000 0000 0000 0000 0000 0000
0.0 0.0 0.0 0.0 0.0 0.0 0.0 0.0
0.0 0.0 0.0 0.0 0.0 0.0 0.0 0.0
0.0 0.0 0.0 0.0 0.0 0.0 0.0 0.0
0.0 0.0 0.0 0.0 0.0 0.0 0.0 0.0
0.0 0.0 0.0 0.0 0.0 0.0 0.0 0.0
0.0 0.0 0.0 0.0 0.0 0.0 0.0 0.0
0.0 0.0 0.0 0.0 0.0 0.0 0.0 0.0
0.0 0.0 0.0 0.0 0.0 0.0 0.0 0.0
0.0 0.0 0.0 0.0 0.0 0.0 0.0 0.0
0.0 0.0 0.0 0.0 0.0 0.0 0.0 0.0
0.0 0.0 0.0 0.0 0.0 0.0 0.0 0.0
0.0 0.0 0.0 0.0 0.0 0.0 0.0 0.0
0.0 0.0 0.0 0.0 0.0 0.0 0.0 0.0
0.0 0.0 0.0 0.0 0.0 0.0 0.0 0.0
0.0 0.0 0.0 0.0 0.0 0.0 0.0 0.0
0.0 0.0 0.0 0.0 0.0 0.0 0.0 0.0
0.0 0.0 0.0 0.0 0.0 0.0 0.0 0.0
0.0 0.0 0.0 0.0 0.0 0.0 0.0 0.0
0.0 0.0 0.0 0.0 0.0 0.0 0.0 0.0
0.0 0.0 0.0 0.0 0.0 0.0 0.0 0.0
0.0 0.0 0.0 0.0 0.0 0.0 0.0 0.0
0.0 0.0 0.0 0.0 0.0 0.0 0.0 0.0
0.0 0.0 0.0 0.0 0.0 0.0 0.0 0.0
0.0 0.0 0.0 0.0 0.0 0.0 0.0 0.0
0.0 0.0 0.0 0.0 0.0 0.0 0.0 0.0
0.0 0.0 0.0 0.0 0.0 0.0 0.0 0.0
0.0 0.0 0.0 0.0 0.0 0.0 0.0 0.0
0.0 0.0 0.0 0.0 0.0 0.0 0.0 0.0
0.0 0.0 0.0 0.0 0.0 0.0 0.0 0.0
0.0 0.0 0.0 0.0 0.0 0.0 0.0 0.0
0.0 0.0 0.0 0.0 0.0 0.0 0.0 0.0
0.0 0.0 0.0 0.0 0.0 0.0 0.0 0.0

network_body._body_endoder.seq_layers.2.weight f4 [256, 256]
00000000: 12ed fcbd 1113 c5bd 097f 853d 71f1 9d3d
00000010: 58b4 b9bc b367 4dba de6e 92bd e9d4 ee3c
00000020: 6c91 423d 7f8d 08bd dde1 febc 6860 ee3d
00000030: 4756 d3bd c8e9 313d 6693 88bd d3b9 743c
00000040: 6fce 0b3d eaa8 8cbc e7a6 2fbd 84ea 4e3c
00000050: 4035 98bc 68b3 73bd a764 bfbc 5e20 6d3d
00000060: 48e6 a6bc 8d92 a43d eb6d 5abd 8e28 3ebd
00000070: fc1d 443d 6280 1e3d 233a a23d 1c45 dcbc
00000080: 2597 8a3d 4e88 94bd 8866 36bd 4a11 fa3d
00000090: c0b5 0abd 4c82 91bd b9b4 963d 17dc 3cbd
000000a0: 505c 2a3d 8252 21bd 8b3c 4abd e580 98bd
000000b0: 828a 84bc ee57 ecbc 2061 993b 61a6 5e3d
000000c0: 5caa c63c 59ac 27bd 8abe 82bb 05bf 803c
000000d0: ada4 48bc 408f 75bd a8ee c43d 6a9d 9c3d
000000e0: b02c 19ba 7d63 29bd 9b88 763c 14e3 043c
000000f0: 4a7a b8bd 90bf 3a3d 694e 3d3d bb6b 4dbd
00000100: 1c12 9abd f4bc e1bc 8607 edbd 8b74 1abd
00000110: 6451 693b 03e8 053d 63e5 313d 04fc 88bd
00000120: 3e83 f03d 635c f83c c6d9 883c 5b25 3ebd
00000130: d656 fa3c f283 49bd 0ef6 8cbd 0ab6 9c3c
00000140: 55df e13c 1e6f cbba 448e 76bc 9944 443c
00000150: ab2c e3bd 7532 00be 3089 c03d 386d a83d
00000160: 3b8d 00bc ff5a a23c ec19 0ebe 0256 95bd
00000170: 0e78 8bbc dc7a af3d edda a63d 5951 ebba
00000180: b3f7 c23c 3774 e43c 8e95 dd3a d95c af3d
00000190: 88db 883d 4006 093d 1679 e8bc beb2 87bd
000001a0: 4e59 31ba 8300 5c3d d873 4ebd f508 39bd
000001b0: f57b e3bd 4a9d 873d 4788 bbbc 471f 993d
000001c0: 61a1 743d fc85 78bd 8238 e8bd c6ae ee3d
000001d0: 5631 aa3d 6546 cdbd 39ee 103e ab11 b0bd
000001e0: d3e6 b73d 7329 9ebd d1ab 0d3e 1e09 81bb
000001f0: 6c4b 253a 7061 98bd d7d6 403d 6f3a 833d
00000200: e554 963d e751 31bd 30e4 f6bd 05fb 6b3d
00000210: f582 88bd 5cba abbd e7d2 9a3d ed68 38be
00000220: ea4c c03c b36e ca3d 9573 d2bd 0706 a3bd
00000230: e88d cc3c 5cc0 d8bc c5bc b2bd dce3 a63d
00000240: 20b8 8f3c fc93 903d 42b1 f53c 327b 83bd
00000250: 92be 26bd d3fe 52bc 769d 69bd a6b1 673d
00000260: d638 343d 0555 c73c aea2 d53d 09b4 9ebb
00000270: e3e2 dd3c b925 8a3b e970 81bd 07ce 0c3d
00000280: 0c3e 1d3c 3307 e23b 46ff d83c c9a2 4dbd
00000290: 4de5 45bd 688d 0d3d 2dbc 1abc 9dca c93a
000002a0: efb9 9d3c b8c1 bfbd a424 23bd e0bb 503d
000002b0: 52bc 273d 846c 5b3c 2ed0 4dbd 0850 e33d
000002c0: 4879 e3bc 489f 9b3d 71f2 b2bb cce6 23be
000002d0: b98e 4f3d 18c5 613d f723 93bd 8341 763c
000002e0: 4f08 603d f8e1 22be 96e8 20bd 83c1 91bc
000002f0: 4615 9f3c 0e69 353d e9eb 033d aa7c 0cbe
00000300: 9fc8 8d3d c70f 95bc e11b 92bc 3556 993c
00000310: 5394 913d b6ac 0b3b 0b7a 99bc a036 2bbe
00000320: 9a43 e73d 9c37 f2bb ba10 54bd 4b8c e3bd
00000330: 7632 9e3d 0bc4 003e b31d 5f3d 1803 163c
00000340: d5ec d2ba b889 f43c b909 47bc 8aa9 7e3d
00000350: ebcb 223c 9158 a7bd d1a3 c43d 76b3 5bbd
00000360: 18ec 4bbd 63b6 0a3e 5568 733c ccfa f53c
00000370: 6b22 c0bd 3d67 693d dd91 b03d cdce a73c
00000380: be61 8fbd 1412 fabd 8913 b73c 40da f83c
00000390: d166 d23d f1d5 c03d 1028 ae3d c470 0b3d
000003a0: 56c6 9a3c 3035 23bd d82b 02bd 52e9 f5bd
000003b0: e481 94bd a2f4 843c bf66 a33c 8987 23bc
000003c0: 4855 4dbd 426a d13c 5fa2 c2bc 2bbe 0cbc
000003d0: 5947 39bd c9fa ef3c 251d 97bd 12b9 253c
000003e0: b3c4 30bd a795 46bd dcf0 91bd b9cb 913d
000003f0: ec7b aa3d 9542 9cbd ce50 06bc aa71 49bc
-0.12349905 -0.09622777 0.06518371 0.07712067 -0.022669002 -0.0007835582 -0.071500525 0.029154258
0.047501966 -0.033338066 -0.03111356 0.11639482 -0.103191905 0.04343584 -0.06668739 0.014936882
0.034132417 -0.017170388 -0.04288378 0.012629155 -0.01858008 -0.059497267 -0.023363424 0.057892196
-0.020373479 0.08035765 -0.053327482 -0.046425395 0.047880158 0.038696654 0.07921245 -0.026888423
0.0676711 -0.072525606 -0.044531375 0.12210329 -0.033864737 -0.0710493 0.07358689 -0.04610833
0.041591942 -0.039385326 -0.049374145 -0.0744646 -0.016179327 -0.028850522 0.0046807677 0.05435789
0.024251156 -0.040935848 -0.003989999 0.015716085 -0.012246293 -0.059951067 0.096158326 0.07647212
-0.0005843146 -0.041354645 0.015047218 0.00811078 -0.090077 0.045592844 0.046217356 -0.050151568
-0.07522985 -0.02755592 -0.115737006 -0.0377088 0.003560149 0.032691967 0.04343165 -0.06688693
0.117437825 0.03031749 0.016705405 -0.046422344 0.030558985 -0.0491981 -0.06882869 0.019129772
0.027572313 -0.0015520786 -0.015048567 0.011979246 -0.11092504 -0.12519248 0.094011664 0.08223957
-0.007846172 0.019818781 -0.13877076 -0.07291795 -0.01702502 0.085683554 0.081472255 -0.0017953321
0.023799753 0.027887447 0.0016905533 0.08562631 0.06682497 0.033453226 -0.02837805 -0.06625889
-0.00067653216 0.053711426 -0.050403446 -0.045174558 -0.11107627 0.066217974 -0.02289213 0.07476669
0.059724215 -0.060674652 -0.11338903 0.11654429 0.08310191 -0.10023192 0.14153375 -0.0859712
0.08979573 -0.077227496 0.13835074 -0.0039378544 0.0006305489 -0.0744046 0.047079887 0.0640763
0.07340411 -0.043291 -0.12055242 0.057612438 -0.06665603 -0.083851546 0.07559758 -0.18008776
0.023474175 0.098843955 -0.10275952 -0.07960134 0.02497001 -0.026458912 -0.08727411 0.081489295
0.017543852 0.07059476 0.02999175 -0.06419982 -0.040709086 -0.012878138 -0.057034932 0.056565903
0.043999515 0.024332533 0.10431419 -0.004843239 0.027085727 0.0042159227 -0.06320364 0.03437617
0.009597313 0.006897831 0.026488911 -0.050204072 -0.04831438 0.034558684 -0.009444279 0.0015395466
0.0192537 -0.09363121 -0.039829865 0.05096042 0.04095108 0.013392571 -0.050247364 0.11099249
-0.027767792 0.0759874 -0.00546103 -0.16006011 0.05067322 0.055119604 -0.07184594 0.015030268
0.054695424 -0.15906513 -0.03928431 -0.017792469 0.019419324 0.04428964 0.032207403 -0.1371943
0.06923031 -0.018196 -0.01783556 0.018717865 0.07108369 0.002131266 -0.018734952 -0.16720057
0.11292191 -0.007391883 -0.051773764 -0.11110743 0.077244684 0.12574784 0.054471683 0.009156011
-0.001609231 0.029850826 -0.012148314 0.062173404 0.009936313 -0.081711896 0.09601558 -0.053637944
-0.049785703 0.13546138 0.014856418 0.030026816 -0.09381565 0.05698322 0.08621571 0.020484352
-0.07001065 -0.122104794 0.022348182 0.030377507 0.10273517 0.09415806 0.08503735 0.03404309
0.018893402 -0.039845645 -0.031780094 -0.12007393 -0.07251337 0.016229931 0.019946454 -0.009981045
-0.05013016 0.025563363 -0.023759065 -0.008590261 -0.045234058 0.029294388 -0.07378606 0.010114925
-0.043156337 -0.048482563 -0.071260184 0.07118935 0.083244175 -0.07629887 -0.008197976 -0.012295166

network_body._body_endoder.seq_layers.4.bias f4 [256]
00000000: 0000 0000 0000 0000 0000 0000 0000 0000
00000010: 0000 0000 0000 0000 0000 0000 0000 0000
00000020: 0000 0000 0000 0000 0000 0000 0000 0000
00000030: 0000 0000 0000 0000 0000 0000 0000 0000
00000040: 0000 0000 0000 0000 0000 0000 0000 0000
00000050: 0000 0000 0000 0000 0000 0000 0000 0000
00000060: 0000 0000 0000 0000 0000 0000 0000 0000
00000070: 0000 0000 0000 0000 0000 0000 0000 0000
00000080: 0000 0000 0000 0000 0000 0000 0000 0000
00000090: 0000 0000 0000 0000 0000 0000 0000 0000
000000a0: 0000 0000 0000 0000 0000 0000 0000 0000
000000b0: 0000 0000 0000 0000 0000 0000 0000 0000
000000c0: 0000 0000 0000 0000 0000 0000 0000 0000
000000d0: 0000 0000 0000 0000 0000 0000 0000 0000
000000e0: 0000 0000 0000 0000 0000 0000 0000 0000
000000f0: 0000 0000 0000 0000 0000 0000 0000 0000
00000100: 0000 0000 0000 0000 0000 0000 0000 0000
00000110: 0000 0000 0000 0000 0000 0000 0000 0000
00000120: 0000 0000 0000 0000 0000 0000 0000 0000
00000130: 0000 0000 0000 0000 0000 0000 0000 0000
00000140: 0000 0000 0000 0000 0000 0000 0000 0000
00000150: 0000 0000 0000 0000 0000 0000 0000 0000
00000160: 0000 0000 0000 0000 0000 0000 0000 0000
00000170: 0000 0000 0000 0000 0000 0000 0000 0000
00000180: 0000 0000 0000 0000 0000 0000 0000 0000
00000190: 0000 0000 0000 0000 0000 0000 0000 0000
000001a0: 0000 0000 0000 0000 0000 0000 0000 0000
000001b0: 0000 0000 0000 0000 0000 0000 0000 0000
000001c0: 0000 0000 0000 0000 0000 0000 0000 0000
000001d0: 0000 0000 0000 0000 0000 0000 0000 0000
000001e0: 0000 0000 0000 0000 0000 0000 0000 0000
000001f0: 0000 0000 0000 0000 0000 0000 0000 0000
00000200: 0000 0000 0000 0000 0000 0000 0000 0000
00000210: 0000 0000 0000 0000 0000 0000 0000 0000
00000220: 0000 0000 0000 0000 0000 0000 0000 0000
00000230: 0000 0000 0000 0000 0000 0000 0000 0000
00000240: 0000 0000 0000 0000 0000 0000 0000 0000
00000250: 0000 0000 0000 0000 0000 0000 0000 0000
00000260: 0000 0000 0000 0000 0000 0000 0000 0000
00000270: 0000 0000 0000 0000 0000 0000 0000 0000
00000280: 0000 0000 0000 0000 0000 0000 0000 0000
00000290: 0000 0000 0000 0000 0000 0000 0000 0000
000002a0: 0000 0000 0000 0000 0000 0000 0000 0000
000002b0: 0000 0000 0000 0000 0000 0000 0000 0000
000002c0: 0000 0000 0000 0000 0000 0000 0000 0000
000002d0: 0000 0000 0000 0000 0000 0000 0000 0000
000002e0: 0000 0000 0000 0000 0000 0000 0000 0000
000002f0: 0000 0000 0000 0000 0000 0000 0000 0000
00000300: 0000 0000 0000 0000 0000 0000 0000 0000
00000310: 0000 0000 0000 0000 0000 0000 0000 0000
00000320: 0000 0000 0000 0000 0000 0000 0000 0000
00000330: 0000 0000 0000 0000 0000 0000 0000 0000
00000340: 0000 0000 0000 0000 0000 0000 0000 0000
00000350: 0000 0000 0000 0000 0000 0000 0000 0000
00000360: 0000 0000 0000 0000 0000 0000 0000 0000
00000370: 0000 0000 0000 0000 0000 0000 0000 0000
00000380: 0000 0000 0000 0000 0000 0000 0000 0000
00000390: 0000 0000 0000 0000 0000 0000 0000 0000
000003a0: 0000 0000 0000 0000 0000 0000 0000 0000
000003b0: 0000 0000 0000 0000 0000 0000 0000 0000
000003c0: 0000 0000 0000 0000 0000 0000 0000 0000
000003d0: 0000 0000 0000 0000 0000 0000 0000 0000
000003e0: 0000 0000 0000 0000 0000 0000 0000 0000
000003f0: 0000 0000 0000 0000 0000 0000 0000 0000
0.0 0.0 0.0 0.0 0.0 0.0 0.0 0.0
0.0 0.0 0.0 0.0 0.0 0.0 0.0 0.0
0.0 0.0 0.0 0.0 0.0 0.0 0.0 0.0
0.0 0.0 0.0 0.0 0.0 0.0 0.0 0.0
0.0 0.0 0.0 0.0 0.0 0.0 0.0 0.0
0.0 0.0 0.0 0.0 0.0 0.0 0.0 0.0
0.0 0.0 0.0 0.0 0.0 0.0 0.0 0.0
0.0 0.0 0.0 0.0 0.0 0.0 0.0 0.0
0.0 0.0 0.0 0.0 0.0 0.0 0.0 0.0
0.0 0.0 0.0 0.0 0.0 0.0 0.0 0.0
0.0 0.0 0.0 0.0 0.0 0.0 0.0 0.0
0.0 0.0 0.0 0.0 0.0 0.0 0.0 0.0
0.0 0.0 0.0 0.0 0.0 0.0 0.0 0.0
0.0 0.0 0.0 0.0 0.0 0.0 0.0 0.0
0.0 0.0 0.0 0.0 0.0 0.0 0.0 0.0
0.0 0.0 0.0 0.0 0.0 0.0 0.0 0.0
0.0 0.0 0.0 0.0 0.0 0.0 0.0 0.0
0.0 0.0 0.0 0.0 0.0 0.0 0.0 0.0
0.0 0.0 0.0 0.0 0.0 0.0 0.0 0.0
0.0 0.0 0.0 0.0 0.0 0.0 0.0 0.0
0.0 0.0 0.0 0.0 0.0 0.0 0.0 0.0
0.0 0.0 0.0 0.0 0.0 0.0 0.0 0.0
0.0 0.0 0.0 0.0 0.0 0.0 0.0 0.0
0.0 0.0 0.0 0.0 0.0 0.0 0.0 0.0
0.0 0.0 0.0 0.0 0.0 0.0 0.0 0.0
0.0 0.0 0.0 0.0 0.0 0.0 0.0 0.0
0.0 0.0 0.0 0.0 0.0 0.0 0.0 0.0
0.0 0.0 0.0 0.0 0.0 0.0 0.0 0.0
0.0 0.0 0.0 0.0 0.0 0.0 0.0 0.0
0.0 0.0 0.0 0.0 0.0 0.0 0.0 0.0
0.0 0.0 0.0 0.0 0.0 0.0 0.0 0.0
0.0 0.0 0.0 0.0 0.0 0.0 0.0 0.0

network_body._body_endoder.seq_layers.4.weight f4 [256, 256]
00000000: 2792 c0bc 18dd 9fbd 9a15 57bd 9b4a 7bbd
00000010: e60e 0e3c 840b 923d 5da9 0fbd e8f5 a03b
00000020: 438c 02be d319 243c 8c69 bdbc d360 883c
00000030: cd27 ba3c d511 c83b d6ec dfbc f67e 183e
00000040: bf1b 633c d482 083e 22c1 b8bd 4c81 26be
00000050: 2d1b 8f3d ab3b 7dbd fed4 89bd 01ba 1abd
00000060: bdf4 29be 6528 6b3d 0cb3 043d dd29 79bd
00000070: c8f8 4e3d 48fb 7fbd 4a0b cdbb ee95 dc3d
00000080: 5cb2 52bc c793 96bc 4a76 30bd 8a10 dfbc
00000090: ecfb 053d 889b b13d f805 27bd 94d2 4e3c
000000a0: af7c 2abd 939d 223e f744 9bbb 4f0e c1bd
000000b0: 5da2 24bd 9452 eb3d 447c 973b e78c 0abd
000000c0: 3ac5 3e3d 51d8 4ebd 7bef b6bd 72ed 2f3e
000000d0: 8b69 65bc c340 2bbb 045e 71bb a31d a83d
000000e0: f9d4 35bd 95f6 01bd 0408 613c f9f9 593d
000000f0: e7c9 d23d ef3d 9c3d 2442 62bd 0f81 a9bc
00000100: e056 12bd b3cd e5bc 3bfa d93d 52e8 c53c
00000110: c888 efbb 7c89 053d 6d01 123d 5ebb adbd
00000120: 9090 20bd 703f 8e3d 31f7 3bbd 8dd5 ec3c
00000130: e368 0c3d ce17 41bd a656 3fbb ba7a f4bd
00000140: 54d5 32bb 62e2 033d 1958 223d c360 a2bc
00000150: 0b98 3f3b 9745 dcbd 7fbb 29bd 0f1a 703d
00000160: cb3a 4dbd 2bdc 81bd 6504 fcbb 9c22 883d
00000170: ba86 e139 9153 f03d 1d5a 44bd 9883 443d
00000180: 4b03 76bc 1846 603d 226f f8bd aec8 023c
00000190: 6931 ad3d bf3d f2ba 9808 c7bc ded5 863d
000001a0: a3cd 4fbd 9ec2 9ebc 877c 1f3d 7ace a4bc
000001b0: a43a 7e3d 064a 96bc 04f0 5c3d 1ce8 6dbd
000001c0: 4084 97bd 4345 4fbb c61a 7abd a40d 8a3d
000001d0: d701 d3bd fc82 f2bc f744 633d 13f5 8cbc
000001e0: 9ed7 abbd 2c13 9abd ee86 39bd a26b 25bc
000001f0: a27e 89bd f0e8 f7bd 21bc 3e3d eff6 823d
00000200: 8e1e f2bc b0f6 9cbd 78a0 023b e999 8dbd
00000210: 696f 563d ae8e a3bd 450c ec3a fb77 b03a
00000220: ab73 efbd d7a3 e7bc 87a3 48be 7e87 5ebd
00000230: d97d ef3b 7b26 d2bb 2670 11be ff68 1c3c
00000240: 351a a8bc cfbd 03bd fa47 19bd f772 623d
00000250: 3036 8d3c 4e1c 8b3d 0cc7 21bd 4bc3 503b
00000260: aab0 c7bc cae0 5dbb 43d8 453d 97fc ecbd
00000270: d2f9 9fbc 6c7b 153e 236f 01bc a156 d7bc
00000280: 156b 3f3d 9a4d 2f3d 8f26 e3bc a842 133d
00000290: 628a 383d c14d 023d 4b10 bfbc 07d8 933d
000002a0: 7f26 3f3d d2a0 a63c e173 2d3d 7ab0 67bc
000002b0: 65a1 303d 0656 c23d 85da ef3c 4513 62bd
000002c0: 7788 5e3d ad30 19be b54d e63d 3220 15bc
000002d0: e4bf 633b c842 cc3d 81cd 91bd c4fa 3e3a
000002e0: 1b65 c53c 1bac 163d 3f8d a63d e470 6abc
000002f0: e90d 073a 4c2b 10bd 3ff6 9bbc 5137 5fbd
00000300: b5c3 373d ec36 aa3c d558 7e3b eca7 b73b
00000310: cbaa e23c 8b51 cf3c 5ded a1bc 02ec 1bbd
00000320: 6ebb a53d 78a1 953c ba9e 863d 9b94 9dbc
00000330: 2b59 423c 1c7b 0bbe 20de 3dbd a28d 273e
00000340: 141c c5bd 5558 1cbc 780a 8dbd c58f 84bd
00000350: 2037 b93d 1151 cb3d d087 803c 0e16 ed3c
00000360: a101 ce3c 544d 0dbc 25d6 bd3b b8bd 2a3d
00000370: d1c0 04bd 08ad 7bbd eaa0 153c 0273 35be
00000380: 4bca 64bd 5264 22bc b334 213d 54f9 96bd
00000390: 4e28 543d 1100 3f3d e904 c1bc f75e 2c3d
000003a0: 0a8d 183d 66d3 8cbd 1b75 f93d 0991 203d
000003b0: 840b 623d 3f21 8d3d 2977 9cbb b735 143d
000003c0: b193 38bd da94 803d 147a 5cbd e830 6d3d
000003d0: 4a57 843c ba8f 30bd f2b5 a33c a790 03ba
000003e0: 18f1 0bbd 4aad 0dbe 4c0d 83bb a8e8 c13b
000003f0: e078 473d 3278 c2bd 8b2d 96bd 120f 89bd
-0.02350719 -0.07805842 -0.052510835 -0.061350446 0.008670544 0.07131103 -0.035073627 0.004912127
-0.12748818 0.010015923 -0.023121618 0.016647732 0.022724057 0.0061056414 -0.027334612 0.14892182
0.013861596 0.13331157 -0.09021212 -0.1626026 0.06987605 -0.061824482 -0.06730078 -0.037775043
-0.16597266 0.05741157 0.032397315 -0.06083094 0.050530225 -0.0624955 -0.0062574493 0.10770784
-0.012859907 -0.018381013 -0.04308156 -0.027229566 0.032710955 0.08672243 -0.040777177 0.012623448
-0.041622814 0.15880422 -0.004738446 -0.09426557 -0.040193904 0.1149036 0.004622968 -0.03382578
0.04657481 -0.050499264 -0.08932396 0.17180422 -0.014002214 -0.002613113 -0.003682972 0.08208778
-0.04439256 -0.0317293 0.013734821 0.053216908 0.10292416 0.076290004 -0.055238858 -0.020691423
-0.03572738 -0.028052187 0.10643431 0.02415863 -0.007310007 0.03260182 0.03564589 -0.08483003
-0.039200366 0.069456935 -0.045890037 0.028910423 0.034279715 -0.047141843 -0.0029195934 -0.11937471
-0.0027287798 0.032198317 0.039634798 -0.01982153 0.0029234912 -0.10755461 -0.041438576 0.0586186
-0.050104897 -0.06340822 -0.0076909536 0.06647226 0.00043015723 0.11734689 -0.0479375 0.04797706
-0.015015434 0.054754347 -0.12130572 0.007982416 0.0845669 -0.0018481537 -0.02429609 0.06583761
-0.05073322 -0.01937991 0.038937118 -0.020117987 0.062067643 -0.018345844 0.053939834 -0.058082685
-0.073982716 -0.0031626977 -0.06106069 0.06740883 -0.10303085 -0.029603474 0.055485692 -0.017206704
-0.08390735 -0.07523188 -0.045294695 -0.010096462 -0.067136064 -0.12104976 0.046566132 0.06394755
-0.029555585 -0.076642394 0.0019932073 -0.06914122 0.052352343 -0.07986198 0.0018009028 0.0013463491
-0.11691984 -0.028276367 -0.1959363 -0.054328434 0.0073087034 -0.0064132786 -0.14202937 0.009546517
-0.020520309 -0.032163437 -0.037422158 0.05528542 0.017237753 0.06792508 -0.039496467 0.0031854685
-0.024376232 -0.0033855909 0.048301946 -0.11571615 -0.019528303 0.14597863 -0.007900032 -0.026286425
0.04673298 0.042798616 -0.027728347 0.03595224 0.045053847 0.031812433 -0.023323199 0.07218938
0.046667572 0.020340357 0.04234684 -0.014141196 0.043122668 0.09489064 0.029279003 -0.055194158
0.05432936 -0.14959975 0.1124529 -0.009101914 0.0034751827 0.09973675 -0.07119275 0.0007285292
0.024096062 0.036785226 0.08132409 -0.014309142 0.0005151914 -0.03519754 -0.019038318 -0.054496113
0.044864375 0.020778142 0.0038810272 0.0056047346 0.027669331 0.025307437 -0.019766504 -0.03806687
0.0809239 0.01826547 0.065732434 -0.0192359 0.01186208 -0.13621181 -0.046354413 0.16362622
-0.09624496 -0.009542544 -0.068867624 -0.06472734 0.090437174 0.099275716 0.01568976 0.02894118
0.025147261 -0.0086243935 0.0057933503 0.041684836 -0.032410447 -0.061444312 0.009132603 -0.17719653
-0.055856984 -0.009911614 0.0393569 -0.07371774 0.05179625 0.046630923 -0.023561912 0.042082753
0.03724388 -0.068762586 0.12180539 0.039200816 0.055186763 0.06891107 -0.004774947 0.03618404
-0.045062725 0.06278391 -0.05382736 0.05790797 0.016154904 -0.04310582 0.01998422 -0.00050188083
-0.03416547 -0.13835636 -0.003999388 0.0059176274 0.04869926 -0.09495582 -0.073329054 -0.066923276
