Assets/Training/results/run4/config.onnx (onnx, 588060 bytes, 9 tensors)

action_model._continuous_distribution.log_sigma f4 [1, 2]
0	0x3c163366	0.009167528
1	0x3bbf156a	0.00583141

action_model._continuous_distribution.mu.bias f4 [2]
0	0xbb7037aa	-0.0036654272
1	0xbb95afb2	-0.0045680637

action_model._continuous_distribution.mu.weight f4 [2, 256]
0	0xbc0f1720	-0.008733541
1	0x3c73aa02	0.014872076
2	0xbc6c142e	-0.014409108
3	0xbcc6ebb5	-0.024282316
4	0x3b46da02	0.0030342345
5	0x3ce1e0d0	0.02757302
6	0xbc705422	-0.014668496
7	0xbac23aaf	-0.0014818514
8	0x3cd1ad03	0.025595194
9	0xbcdf7457	-0.027277155
10	0xbc47973d	-0.012182054
11	0x3c265760	0.010152668
12	0x3c8bb490	0.017053872
13	0xbc1ecc58	-0.009692274
14	0x3bf9fd6c	0.007629087
15	0xbaf10028	-0.0018386887
16	0xbb27b537	-0.002559019
17	0x3c9fdec1	0.019515397
18	0xbcdca3bc	-0.026933543
19	0x3b033923	0.002002307
20	0x3ca9af10	0.02071336
21	0x3cb7fb6e	0.022458758
22	0x3c05e305	0.008171801
23	0x3ac62052	0.0015115833
24	0xbc21478e	-0.00984372
25	0xbc1d0855	-0.009584506
26	0xbcdf454b	-0.027254721
27	0xbba4c4dd	-0.0050283507
28	0xbaf53efa	-0.0018710785
29	0x3c38b62b	0.011273901
30	0x3bf0eada	0.0073522152
31	0x3c274c7c	0.010211106
32	0xbaa07a80	-0.0012243539
33	0xbc87f558	-0.016596481
34	0x3cdc14d2	0.026865397
35	0x3c8222ff	0.015885828
36	0xbbc36d79	-0.005963978
37	0xbcc592da	-0.024117876
38	0x3c1b5226	0.009480035
39	0xbbe254dc	-0.0069070887
40	0x3cc8ffe3	0.024536079
41	0xbc0a17c9	-0.008428522
42	0xbc640f83	-0.013919714
43	0x3b0e2261	0.0021687972
44	0x3be47d24	0.0069729257
45	0x3b940861	0.0045176004
46	0x3c332571	0.01093422
47	0xbc88740e	-0.016656902
48	0xbd0aafe1	-0.033859137
49	0xbc6bf030	-0.014400527
50	0x3ca65676	0.0203049
51	0x3b3cec07	0.0028827207
52	0xbb1171c2	-0.002219305
53	0x3bc3e3c6	0.0059780804
54	0xbb52b9e0	-0.0032154247
55	0x3cc6a6c9	0.024249451
56	0xbc1f27a2	-0.009714039
57	0xbc9bc032	-0.019012544
58	0xbce1668f	-0.027514724
59	0xbb89cf31	-0.0042056073
60	0xbc815ff3	-0.015792822
61	0x3cab92f3	0.020944094
62	0xbc530d05	-0.012881522
63	0x3c8888c8	0.016666785
64	0x3c0cccb8	0.008593731
65	0xbc819d45	-0.015822062
66	0x3c1f50fc	0.009723898
67	0xbcb2c404	-0.021821983
68	0x39fe78dd	0.00048536705
69	0x3c252a4a	0.010080883
70	0x3c67c15a	0.01414522
71	0xb9fd6ab5	-0.00048335423
72	0x3c8c0184	0.017090566
73	0xbc426924	-0.011865888
74	0xbba08d09	-0.004899625
75	0x3c8d081c	0.01721578
76	0xbab2ce48	-0.0013641799
77	0xbc90caa5	-0.017674753
78	0x3b904bb7	0.004403557
79	0xbbdfeb18	-0.0068334453
80	0xbb7da82c	-0.0038704975
81	0x3c244543	0.010026279
82	0xbc658999	-0.014009857
83	0xbb9d3bd9	-0.004798394
84	0x3c2faff2	0.010723101
85	0x3ab8c551	0.0014096891
86	0x3b3aba9b	0.0028492573
87	0x3b77b98d	0.0037799806
88	0x3b6cb155	0.003611644
89	0x3cae2b27	0.021260811
90	0x3c95eee1	0.018302383
91	0xbc49dba6	-0.012320435
92	0x3c3fb370	0.011700496
93	0x3c6c76a6	0.014432585
94	0xbbb34b58	-0.005471628
95	0x3a9efa48	0.0012129033
96	0x3c93a17a	0.018021334
97	0x3c58d8a6	0.013235247
98	0x3b8684aa	0.0041051703
99	0x3c050cef	0.008120759
100	0x3b5194e6	0.003197962
101	0x3cb081b1	0.021546217
102	0xbc262224	-0.010139976
103	0xbc0e7fe2	-0.008697482
104	0x3c2b2efd	0.010448215
105	0x3bdd2dd6	0.006749849
106	0xbc1629b4	-0.009165216
107	0x3b19e9f3	0.0023485392
108	0xbc261b6b	-0.010138373
109	0xbbba27b6	-0.0056810034
110	0x3addaf9c	0.0016913298
111	0xbcc74552	-0.024325047
112	0xbbe202ee	-0.006897322
113	0xbbc7bf6f	-0.0060958187
114	0x3c2fd695	0.010732313
115	0x3c83fc3d	0.016111488
116	0x3cd477ef	0.025936095
117	0x3c56ea65	0.013117407
118	0xbb478282	-0.003044278
119	0xbca254bf	-0.0198158
120	0xbc416194	-0.01180305
121	0x3c9fa90c	0.019489788
122	0xbc2ff9f2	-0.010740744
123	0x3cc32667	0.023822023
124	0xbc6e56e9	-0.014547088
125	0xbbce9bae	-0.0063051796
126	0x3c726446	0.014794415
127	0xbba5de5d	-0.005061908
128	0xbc1041d9	-0.008804762
129	0xbc21110c	-0.009830724
130	0x3bedf240	0.0072615445
131	0xbc096478	-0.00838577
132	0xbc3dd66e	-0.011586769
133	0x3c0ad0ed	0.008472663
134	0x3b84c0df	0.0040513123
135	0x3c3bfce0	0.011473864
136	0xbc7d6a24	-0.0154672
137	0xbcb664dd	-0.022264892
138	0xbb9b0f22	-0.0047320286
139	0xbbdad1d4	-0.0066778455
140	0xbae98f9f	-0.0017819292
141	0xbc099fa0	-0.008399874
142	0xbcb9d5cb	-0.022684952
143	0xbce44f63	-0.027869886
144	0xbc33680e	-0.010950102
145	0x39901fda	0.00027489552
146	0x3bdfc317	0.0068286764
147	0x3c3dd480	0.0115863085
148	0xbc8891a1	-0.016671004
149	0x3a637fe5	0.00086784206
150	0xbca40134	-0.020020105
151	0x3aa90aa4	0.0012896848
152	0x3ca6ea8c	0.020375513
153	0x3c41af2c	0.011821549
154	0x3a84a189	0.0010118942
155	0xbcce9670	-0.025218219
156	0xbb50d236	-0.0031863577
157	0x3c861860	0.016369045
158	0xbbbc272f	-0.0057419757
159	0xbb3d34f3	-0.0028870672
160	0xbc4813c6	-0.012211746
161	0xbc93a67c	-0.018023722
162	0x3c09a614	0.0084014125
163	0x3b28954c	0.0025723753
164	0x3cead57e	0.028666254
165	0x3c24f343	0.010067764
166	0xbc01adec	-0.007915001
167	0xbd095452	-0.03352768
168	0x3d0ab756	0.03386625
169	0x3b495579	0.0030721112
170	0xbc04447e	-0.00807297
171	0xbc443b07	-0.011976964
172	0x3b706ce7	0.0036686005
173	0x3b827870	0.0039816424
174	0x3cc415ce	0.023936179
175	0xbbb93e75	-0.0056531974
176	0xbc9d72cf	-0.019219784
177	0xbc8a7963	-0.016903585
178	0xbc5f9dfb	-0.013648505
179	0x3a8c4178	0.0010700664
180	0x3c8c1bef	0.017103164
181	0x3b6a979e	0.0035795937
182	0x3c957898	0.01824598
183	0x3a93bacd	0.0011270881
184	0x3ba15125	0.0049230033
185	0x3b1e5d73	0.0024164587
186	0xbc2c4cde	-0.010516373
187	0xbc25fb78	-0.010130756
188	0x3c6c7d60	0.014434189
189	0xbcbce230	-0.023057073
190	0x3b7775f5	0.0037759517
191	0xbc56ca3d	-0.013109741
192	0x3a61d3c4	0.00086146244
193	0xb93f3bb7	-0.00018237425
194	0x3c42079d	0.011842635
195	0xbac57576	-0.0015064913
196	0xbae05a0c	-0.001711668
197	0xbc9bae53	-0.019004023
198	0xbce3eb24	-0.027822085
199	0xbbebea5d	-0.007199569
200	0xbb945166	-0.004526305
201	0x3c340a60	0.010988802
202	0x3ca51021	0.020149292
203	0x3c858414	0.016298331
204	0x3c350b28	0.011050023
205	0x3c742f68	0.014903881
206	0x3adc89dc	0.0016825753
207	0xbb60bc63	-0.0034291975
208	0xbc055c09	-0.008139619
209	0x3c1ad240	0.009449542
210	0x3c9d1ae0	0.019177854
211	0xba1918f3	-0.00058402045
212	0xbc514f5a	-0.012775267
213	0xbc8bb7e0	-0.017055452
214	0xbcb5ce2d	-0.022193039
215	0xbbfbf59a	-0.00768919
216	0x3cc2f3bf	0.023797868
217	0xbba328a0	-0.004979208
218	0xbc099f43	-0.008399787
219	0x3c94ff2e	0.018188085
220	0xbbcc614d	-0.006237185
221	0xbc4bc937	-0.01243811
222	0x39f8af81	0.00047433007
223	0xbc1fb938	-0.009748749
224	0xbbc003dd	-0.0058598355
225	0x3ccf2e7f	0.025290726
226	0x3bf6d84e	0.0075331097
227	0x3c099cf1	0.008399234
228	0x3c340e6b	0.010989766
229	0x3c87c51a	0.016573478
230	0x3b7f05d2	0.0038913381
231	0x385d2a96	5.2730167e-05
232	0xbb6f9b26	-0.0036560982
233	0x3c95aec1	0.018271806
234	0x3bb53aa1	0.0055306708
235	0xbc6d6db2	-0.014491485
236	0xbc3cb6e2	-0.011518212
237	0xba1c5680	-0.0005963817
238	0xbba5cb7c	-0.0050596576
239	0xbc3f92df	-0.011692732
240	0x3cf8657e	0.030321833
241	0xbc4b939d	-0.0124253305
242	0xbc70f378	-0.014706485
243	0xbccdfe1d	-0.025145585
244	0xbbf3bc58	-0.007438224
245	0x3b930241	0.0044863527
246	0x3c3933f2	0.011303889
247	0xbc84624b	-0.016160151
248	0xbc0ae0b4	-0.008476425
249	0x3c676a90	0.014124528
250	0x3c3d88fa	0.011568302
251	0x3c667da3	0.01406804
252	0xbb16594f	-0.0022941416
253	0xbc8002c3	-0.015626317
254	0x3cb7f330	0.022454828
255	0xbc66d4d6	-0.01408883

network_body._body_endoder.seq_layers.0.bias f4 [256]
0	0xbb9bd337	-0.0047554034
1	0xbbbd6e7f	-0.0057809944
2	0x3ba7b7c3	0.0051183417
3	0xbbc9cdd1	-0.0061585684
4	0xbbdb2c61	-0.00668864
5	0x3c2ad31d	0.01042631
6	0xbb8d00f1	-0.0043030907
7	0x3a4ceb64	0.00078170584
8	0xbba7a633	-0.005116248
9	0xbb779807	-0.0037779824
10	0xbbb796e4	-0.0056027044
11	0x3bc1e483	0.0059171333
12	0x3a7f80a2	0.0009746646
13	0x3b45f5ea	0.003020639
14	0xbb6e8c17	-0.0036399418
15	0x3b7c8556	0.0038531623
16	0x39de3583	0.0004238301
17	0xbb50f337	-0.0031883249
18	0xba36ae8a	-0.00069687574
19	0x3bcf0c3f	0.0063185985
20	0xbaa538c7	-0.0012605422
21	0x3b302dde	0.0026882808
22	0x3bdb8883	0.006699623
23	0xbb74dafa	-0.0037361966
24	0x3af9d2b7	0.001905999
25	0xb9be8db9	-0.00036345216
26	0x3b1ef72e	0.0024256217
27	0x3bddc26b	0.006767561
28	0xbb131490	-0.0022442676
29	0x3be5d751	0.007014193
30	0x3c1f84f8	0.009736292
31	0x3baecf11	0.005334743
32	0xba6ee10c	-0.0009112514
33	0x39b4a55c	0.00034455478
34	0xbb7b5898	-0.0038352367
35	0xbab5cae2	-0.0013869668
36	0x3bdd256a	0.006748845
37	0xbbb54eb3	-0.0055330633
38	0x3c1f42e6	0.00972054
39	0xbb9343a2	-0.0044941464
40	0x3b93141a	0.0044884803
41	0xbbbcb113	-0.0057584136
42	0xbb43790e	-0.0029826793
43	0x3bff1faf	0.0077857594
44	0x3bae8f32	0.005327129
45	0xbc1adf0c	-0.009452593
46	0x399204aa	0.00027850765
47	0xbb939663	-0.0045040115
48	0x3929b4ea	0.00016184492
49	0x3b1af43c	0.002364411
50	0x3b77ad4a	0.0037792497
51	0xbb8ef066	-0.004362154
52	0x3bca76a0	0.006178692
53	0x3b2eab8a	0.0026652538
54	0x3bc08a1e	0.00587584
55	0x3b2bf6b6	0.002623958
56	0xbba4a325	-0.005024331
57	0xbaf3a82f	-0.0018589551
58	0xbb8c7009	-0.0042858166
59	0x3b5a36cd	0.0033296824
60	0xbbbe0e0a	-0.0058000134
61	0xbb7afd2b	-0.0038297873
62	0xba8fc3db	-0.0010968404
63	0x3b6f0b46	0.0036475225
64	0x3b11f144	0.002226905
65	0xbbcdb271	-0.0062773754
66	0xba00cb0e	-0.000491307
67	0xbb79c043	-0.0038108982
68	0x38fc5468	0.00012032018
69	0x3b105b13	0.002202694
70	0x3b172451	0.0023062418
71	0xbb6233c0	-0.0034515709
72	0xbb4d3150	-0.003130991
73	0x3bb78029	0.0055999947
74	0x3c1b6bb2	0.009486126
75	0x3bceef47	0.006315145
76	0x3b98c98d	0.0046626986
77	0xbb03db9c	-0.002011991
78	0x3b7a48f1	0.003819045
79	0x3c0c6b93	0.00857057
80	0xbb535bfb	-0.003225087
81	0x3bb45399	0.0055031297
82	0x3b4f21e5	0.0031605896
83	0x3a2a571d	0.0006497966
84	0xbb0209a4	-0.0019842172
85	0x3b7e9f73	0.0038852363
86	0x36eea5d8	7.1122595e-06
87	0xbb9f2530	-0.004856728
88	0x3b33beea	0.0027427026
89	0x3b2b893c	0.0026174327
90	0x3b22a5ea	0.002481813
91	0xb9c61f8a	-0.00037789
92	0x3baeb4b9	0.0053316024
93	0xbb5d2072	-0.0033741263
94	0x3bc5d9a7	0.006037909
95	0x3bc30bce	0.005952335
96	0x3b0108b6	0.001968903
97	0x3bc500ba	0.0060120495
98	0x3b29cfe1	0.002591126
99	0x3a1882d4	0.0005817835
100	0xbb1652fa	-0.0022937641
101	0x3b762780	0.0037560165
102	0xbbc5bb9e	-0.0060343286
103	0x3bc5b76e	0.0060338294
104	0x3be0a666	0.0068557737
105	0x3ba4529a	0.0050147297
106	0xbba53ae0	-0.005042419
107	0x3b2d6e00	0.002646327
108	0x3be64ab5	0.0070279487
109	0x3bb2f5d7	0.0054614353
110	0xba54c9b5	-0.0008117215
111	0xbb8c8743	-0.0042885854
112	0xbb855472	-0.0040689046
113	0xbb64f6e2	-0.0034937193
114	0xbbe43b6e	-0.0069650924
115	0x3b6277fd	0.0034556382
116	0x3b61bbda	0.0034444244
117	0xbb2e0164	-0.0026551122
118	0xbb04a911	-0.0020242373
119	0xbb95025f	-0.004547402
120	0xbb634e78	-0.0034684222
121	0x3a785035	0.0009472401
122	0xbbe91316	-0.007112871
123	0xbbb46d83	-0.005506219
124	0x3b5eff4d	0.0034026683
125	0xba986792	-0.0011627546
126	0x3bdc6d48	0.0067268945
127	0xbb913eee	-0.0044325506
128	0x3b6ee942	0.003645495
129	0xbaccec3e	-0.001563437
130	0x3b8380cd	0.004013157
131	0x3b9c6214	0.004772434
132	0xbb95f25a	-0.0045760097
133	0xbb77ede8	-0.0037831012
134	0x3b522cbd	0.0032070123
135	0x3b9fa164	0.004871534
136	0xbb57886b	-0.0032887708
137	0x3a32aa1b	0.0006815509
138	0xbb35adce	-0.0027722004
139	0x3b1a2321	0.0023519474
140	0x3b84e668	0.004055787
141	0x3ba28247	0.004959378
142	0xbae9451a	-0.0017797083
143	0xbaa08254	-0.0012245872
144	0xb9fc1c5d	-0.00048086318
145	0xbb58623d	-0.003301754
146	0xbba2ea21	-0.004971758
147	0xbb87f7fa	-0.004149434
148	0x3aaa4aac	0.0012992225
149	0xbac365d5	-0.0014907668
150	0x3bd2239c	0.0064129364
151	0xbb8bd104	-0.00426686
152	0x3c0119d7	0.007879696
153	0xbaef49c2	-0.0018256234
154	0x3bcbe96a	0.0062228935
155	0x3bab4547	0.0052267644
156	0x3bb4b202	0.0055143842
157	0xbabd73a1	-0.0014454016
158	0xbb32c8c8	-0.002728032
159	0xbaac9a74	-0.0013168589
160	0xbb90de71	-0.0044210483
161	0x3bd6fc91	0.00656087
162	0xba04182b	-0.00050390017
163	0xb9fecc7a	-0.00048599002
164	0x3b34c503	0.0027583248
165	0x3a7a1862	0.00095403765
166	0x3b90da73	0.0044205724
167	0x3b48caf9	0.003063856
168	0xbbcbe6f1	-0.0062225987
169	0x3ba482b7	0.0050204652
170	0xbbc2a430	-0.005939983
171	0x3b9f4a24	0.004861133
172	0x3b8508b2	0.0040598745
173	0x3b2622c4	0.0025350312
174	0xbb933028	-0.0044918247
175	0xbb5b82ce	-0.0033494714
176	0xbad5493c	-0.0016272436
177	0xbbcbe4d9	-0.006222349
178	0x3af9c426	0.0019055649
179	0xbb0fe163	-0.002195441
180	0x3bb63e5f	0.0055616344
181	0x3b603886	0.0034213378
182	0xb8a4cb61	-7.858012e-05
183	0x3b8b0402	0.004242421
184	0xbba48bb6	-0.0050215377
185	0x3ba86792	0.0051392997
186	0xbb9a5c82	-0.004710735
187	0x3c0227a4	0.007944021
188	0x39ea2590	0.00044659944
189	0x3be6af65	0.0070399516
190	0x3add7404	0.0016895537
191	0x3b9f8251	0.00486783
192	0xbb459bee	-0.0030152756
193	0x3c04e0cf	0.008110239
194	0x3bcf6622	0.006329314
195	0xbb5ff807	-0.0034174935
196	0x3b459548	0.0030148793
197	0xbbc4f973	-0.006011182
198	0xbbab0763	-0.0052193864
199	0x3b9df90a	0.0048209475
200	0xbbc84b86	-0.0061125187
201	0x3b025b01	0.0019890668
202	0xbb6dc244	-0.0036279121
203	0xbae573c0	-0.001750581
204	0x384a6e92	4.826353e-05
205	0xbbb4ff94	-0.0055236313
206	0xbb11543f	-0.0022175459
207	0xba73967d	-0.0009292139
208	0xb9f135c4	-0.0004600716
209	0x3b62f73e	0.003463223
210	0x3bdc84e3	0.0067297085
211	0xba5e51a3	-0.0008480793
212	0x3b7191d6	0.0036860607
213	0xbba01ddd	-0.0048863725
214	0x3bc4a730	0.0060013756
215	0xb78aed36	-1.6561342e-05
216	0xbbde6721	-0.0067871963
217	0x3a9cb6e1	0.0011956358
218	0x3b89b92d	0.004202983
219	0xbbc74288	-0.006080929
220	0xbb77afb8	-0.0037793946
221	0xbb846228	-0.0040400214
222	0x3bcd71b1	0.0062696566
223	0x3a212c01	0.00061482197
224	0xba998b45	-0.0011714479
225	0xbb6ef75f	-0.0036463363
226	0xbb73b511	-0.0037186781
227	0xbb2486be	-0.0025104727
228	0xbad8fa3f	-0.0016554071
229	0x3bda86ae	0.006668887
230	0x3bab6e38	0.005231645
231	0x3bc909bb	0.006135193
232	0x3c044cee	0.008074982
233	0x3bc76e0c	0.0060861167
234	0xbb9598cd	-0.0045653344
235	0xbaf635b3	-0.0018784314
236	0xbbb75054	-0.0055942927
237	0x3b81e29d	0.003963782
238	0x3af7e5cf	0.0018913093
239	0x3bed4111	0.0072404225
240	0x3b161b19	0.0022904335
241	0x3b46b48b	0.0030320014
242	0x3bec1452	0.007204571
243	0xbb4cad85	-0.0031231355
244	0xbb90c914	-0.0044185016
245	0x3b86713a	0.004102853
246	0x3c0834f3	0.008313405
247	0xbbd6a0f8	-0.0065499507
248	0x3bb4ab46	0.0055135814
249	0x3bb59c84	0.0055423398
250	0x3be2d4bc	0.0069223326
251	0x3bc6108f	0.0060444544
252	0x3a27dc09	0.0006403332
253	0xbb40da1f	-0.0029426885
254	0x3b38c6b6	0.0028194613
255	0x3bd4f9ad	0.0064994902

network_body._body_endoder.seq_layers.0.weight f4 [256, 55]
0	0xbe10f2be	-0.14155099
1	0x3e3cecf5	0.18449767
2	0xbdf56436	-0.11982004
3	0x3de8296e	0.11336027
4	0x3c9d772a	0.01922186
5	0x3e9b2f7b	0.30309662
6	0x3e830997	0.25593254
7	0x3dd1badd	0.102407195
8	0x3dbe5f6c	0.09295544
9	0xbe3bb1c2	-0.18329528
10	0xbde3cb89	-0.111228056
11	0x3d16a954	0.036782578
12	0xbe1aa4ab	-0.15101878
13	0x3d79d42a	0.06099335
14	0x3eb53e69	0.35399178
15	0x3dcebed1	0.10094989
16	0xbd5c87cc	-0.053840443
17	0xbda28385	-0.079352416
18	0xbd9bade9	-0.0760153
19	0xbc710a96	-0.014711997
20	0xbe3c343e	-0.18379304
21	0x3e58b28d	0.21161862
22	0xba84f19a	-0.0010142804
23	0xbdc8b553	-0.0980021
24	0xbe4f9900	-0.20273209
25	0xbd0931d6	-0.033494793
26	0xbe883145	-0.2660009
27	0x3bb38008	0.005477909
28	0xbc5bd7b0	-0.013418123
29	0x3d3391d9	0.043840263
30	0x3dbe3a8b	0.0928851
31	0xbe7b439d	-0.24537511
32	0xbb1c3754	-0.002383669
33	0x3e52f1eb	0.20600097
34	0x3d5c1a0f	0.05373579
35	0x3e3d811c	0.18506283
36	0xbd4a4f27	-0.04939189
37	0xbc54921a	-0.012974286
38	0xbdad27e9	-0.08454878
39	0x3e8dabed	0.2767023
40	0x3e2a76ac	0.16646832
41	0x3dabd703	0.083906196
42	0x3cb856cf	0.022502331
43	0x3e16248a	0.14662376
44	0x3d03b981	0.032159332
45	0xbe14f65a	-0.145471
46	0xbd8bdc8d	-0.06829176
47	0x3d9bca9a	0.076070026
48	0x3e6e9e7c	0.23302644
49	0x3df35955	0.11882273
50	0xbe8e6304	-0.27809918
51	0x3d7d29eb	0.061807554
52	0xbdd35a5e	-0.103199705
53	0x3c755818	0.0149746165
54	0x3cae5775	0.021281937
55	0x3c1b00b1	0.009460614
56	0xbe12df19	-0.14342918
57	0xbd1cd498	-0.038288683
58	0xbdc550c6	-0.09634547
59	0xbe2a14e6	-0.16609535
60	0x3d9dfa02	0.07713701
61	0xbe5ca891	-0.21548678
62	0xbce7cb9f	-0.028295336
63	0xbe41ae45	-0.18914135
64	0xbe69695b	-0.22794096
65	0x3c2d6d11	0.0105850855
66	0xbdafd907	-0.085863166
67	0xbe018de2	-0.1265178
68	0xbd0a7a1e	-0.033807866
69	0xbcc8b9ba	-0.024502624
70	0xbb930a80	-0.0044873357
71	0xbe0318a9	-0.12802376
72	0xbd96ea26	-0.07368879
73	0xbdde6ddc	-0.10860798
74	0xbeaa74ac	-0.3329214
75	0x3e103d86	0.1408597
76	0x3cc301d2	0.023804579
77	0x3d87f0c3	0.066377185
78	0x3cd3f10d	0.025871778
79	0xbcb098c5	-0.021557221
80	0xbd0aa653	-0.033850025
81	0xbd79c484	-0.060978428
82	0x3c0d1e20	0.008613139
83	0xbda7ea98	-0.08199042
84	0xbd4b3f4a	-0.049620904
85	0xbe6891fd	-0.2271194
86	0x3e0e3b46	0.13889799
87	0xbe65c455	-0.22438176
88	0x3cc2dcca	0.023786921
89	0x3e7302cf	0.2373154
90	0xbe278a3b	-0.16361324
91	0xbea7e3b2	-0.32790905
92	0xbde14b37	-0.11000674
93	0xbd715d82	-0.058927067
94	0x3dbda989	0.09260852
95	0xbe1be26b	-0.1522309
96	0xbdc65187	-0.09683519
97	0xbd6f00c2	-0.058350332
98	0xbd9d688e	-0.07685958
99	0x3dbbb86f	0.09166037
100	0x3cfdb315	0.030969182
101	0xbd0b5913	-0.034020495
102	0x3cb1c339	0.021699535
103	0x3e05e936	0.13077244
104	0x3cd9cc7c	0.026586764
105	0xbda0beb7	-0.07848876
106	0xbe0021ba	-0.12512866
107	0x3e54c12c	0.20776814
108	0xbe16b818	-0.14718664
109	0x3e1bd741	0.15218832
110	0x3e2a2d67	0.16618882
111	0xbcfadad8	-0.030621931
112	0xbd860dc8	-0.06545597
113	0xbd72d97c	-0.05928944
114	0x3dd41ec1	0.10357428
115	0x3da24199	0.07922668
116	0x3d8151a9	0.063144036
117	0x3e0068b6	0.12539944
118	0x3e6e4b85	0.23270996
119	0x3dcc36d1	0.09971393
120	0xbc917376	-0.017755251
121	0xbe0aeb30	-0.1356628
122	0x3d363168	0.04448071
123	0x3e8fc315	0.28078523
124	0xbddabdd3	-0.10680737
125	0xbe6cab67	-0.2311226
126	0x3e1160b2	0.14197043
127	0x3d98a3de	0.0745313
128	0xbe9494db	-0.29019818
129	0x3e2449cb	0.16043775
130	0xbe671ef4	-0.22570401
131	0xbe071b54	-0.13194019
132	0xbd50b980	-0.050958157
133	0xbe46c0ec	-0.19409531
134	0xbe1d089a	-0.15335312
135	0xbd02ca9d	-0.03193151
136	0x3e63711b	0.22211115
137	0x3e18e879	0.14932431
138	0x3da25631	0.07926596
139	0xbe042f15	-0.12908585
140	0xbe87758e	-0.26456875
141	0xbda05552	-0.078287736
142	0x3e111a71	0.14170243
143	0x3e8dd7a4	0.27703583
144	0xbd3e8a27	-0.04651847
145	0x3db3465d	0.08753655
146	0x3d966fc8	0.07345539
147	0x3dd20001	0.10253907
148	0xbd2f8b09	-0.042857204
149	0xbd7bcaa5	-0.061472554
150	0xbe129f77	-0.14318644
151	0x3c8de29c	0.01731997
152	0xbad12ac2	-0.0015958177
153	0xbe4be1c4	-0.19910342
154	0xbdb5a3fb	-0.088691674
155	0x3d8860df	0.06659102
156	0xbcf6affb	-0.03011321
157	0x3e6d3e9b	0.23168413
158	0xbc874242	-0.016511086
159	0x3e336dd0	0.17522359
160	0x3e95a8c2	0.29230314
161	0x39db09de	0.00041778287
162	0x3e176e89	0.1478826
163	0x3ea730bb	0.32654366
164	0xbdcf7ddd	-0.101314284
165	0x3d3f1cc6	0.0466583
166	0x3e1b44d3	0.15162973
167	0xbe08e722	-0.1336942
168	0xbd56e91a	-0.052468397
169	0x3e1a9c13	0.150986
170	0x3ca0ebc8	0.01964368
171	0xbe3c88f8	-0.18411624
172	0xbd7666e3	-0.060156714
173	0x3d3661ac	0.04452674
174	0x3ca1c9a1	0.019749464
175	0xbdb91ba6	-0.09038477
176	0x3c2e5922	0.010641368
177	0xbeb31050	-0.34973383
178	0x3de8e70a	0.11372192
179	0x3dfd70a9	0.12375004
180	0x3b80615b	0.0039178557
181	0xbe097bb0	-0.1342609
182	0xbe23f700	-0.16012192
183	0x3df90103	0.12158396
184	0xbe8674e8	-0.26261067
185	0x3db78375	0.0896062
186	0xbe8b663b	-0.27226433
187	0xbdcf4d8a	-0.10122211
188	0x3c952dec	0.018210374
189	0xbd6f3160	-0.058396697
190	0x3e18e28a	0.14930168
191	0xbcac7581	-0.021052124
192	0x3d064bdc	0.03278719
193	0xbdc20585	-0.09473709
194	0xbeaf4613	-0.3423315
195	0x3d3e2ec8	0.046431333
196	0x3d88f645	0.06687597
197	0x3e22d63e	0.1590204
198	0xbdc881ed	-0.097904064
199	0x3e931b04	0.2873155
200	0x3c966b4f	0.018361716
201	0x3c762fd4	0.015026052
202	0xbd9bee85	-0.07613853
203	0xbe48def7	-0.19616304
204	0xbe200fa1	-0.15630962
205	0xbdf2e079	-0.11859221
206	0xbd740084	-0.059570804
207	0xbe809c4b	-0.25119242
208	0xbdab867d	-0.08375261
209	0x3e3d80e6	0.18506202
210	0xbe8154b1	-0.25259927
211	0xbcf9de60	-0.030501544
212	0xbe0b0f9e	-0.13580176
213	0x3d2b83c9	0.041873727
214	0x3c905fd7	0.017623825
215	0xbdf2afc6	-0.118499324
216	0x3d45632a	0.048190273
217	0xbd97901f	-0.07400536
218	0x3cfba8d7	0.030720158
219	0x3c415c9f	0.011801868
220	0x3cb3e24a	0.021958489
221	0xbd76c7da	-0.060249187
222	0x3d093d1e	0.03350555
223	0x3dca0a69	0.09865267
224	0xbd01e679	-0.031713936
225	0x3d9cb4d8	0.07651681
226	0x3cf1c4b0	0.029512733
227	0xbe75d258	-0.24006021
228	0xbe086c92	-0.13322666
229	0xbc942935	-0.018086055
230	0xbdf2e5c5	-0.11860231
231	0x3cb7f46b	0.022455415
232	0xbe125e4f	-0.14293788
233	0x3d536b57	0.05161604
234	0x3d869886	0.0657206
235	0x3c6dc309	0.014511832
236	0xbe1a86aa	-0.15090433
237	0x3e20a00d	0.15686055
238	0xbe122273	-0.14270954
239	0x3c2b5928	0.010458268
240	0xbd7fb537	-0.06242868
241	0x3dea8487	0.11451059
242	0xbd051892	-0.032494135
243	0x3e3ae56c	0.1825158
244	0xbe081feb	-0.13293426
245	0xbe4c80ad	-0.19970961
246	0x3cbadd00	0.02281046
247	0xbbc1d859	-0.005915683
248	0x3e26b44f	0.1627972
249	0xbe178879	-0.14798154
250	0xbd0f948d	-0.03505378
251	0xbd2012bd	-0.03908037
252	0xbdd09511	-0.10184682
253	0xbd9d96f0	-0.07694805
254	0x3d17532a	0.036944546
255	0xbe096a4a	-0.13419452

network_body._body_endoder.seq_layers.2.bias f4 [256]
0	0xbb9c5053	-0.0047703176
1	0x3aca944f	0.0015455576
2	0xbb87493a	-0.0041286023
3	0xbb8c7216	-0.004286061
4	0x3baf6c02	0.0053534517
5	0xbb1a27ea	-0.0023522326
6	0x3bebc2da	0.007194859
7	0x3b084f73	0.0020799309
8	0x3bb3fa31	0.0054924716
9	0xbbab1da6	-0.00522204
10	0xbb700985	-0.0036626768
11	0xbb0cff8b	-0.002151462
12	0xbb20baae	-0.0024525332
13	0xbaaa03e2	-0.0012971128
14	0x39abdbea	0.0003277951
15	0x3baf9613	0.0053584664
16	0x3be87384	0.0070938487
17	0xbbb3c292	-0.005485841
18	0x3bdd8b70	0.006761007
19	0x3b6fa8b8	0.003656907
20	0x3b956473	0.0045590936
21	0x3bcc1f06	0.006229284
22	0xbb837668	-0.004011918
23	0x3b1122dc	0.0022146022
24	0x3ba09027	0.004899997
25	0x3be8d15b	0.0071050352
26	0x3994c830	0.0002837791
27	0xbac932e2	-0.0015350247
28	0xbbadbbd7	-0.0053019333
29	0x3ae350a3	0.0017342757
30	0xbb3e53c6	-0.0029041632
31	0xbb69970a	-0.0035643005
32	0x3bd8436e	0.006599835
33	0xbb943e21	-0.004524008
34	0xbb3900c0	-0.0028229207
35	0xbb8f1912	-0.0043670023
36	0xbb46c075	-0.0030327116
37	0xbb87a054	-0.0041389856
38	0xbb27aa2a	-0.0025583603
39	0x3bc5e964	0.006039785
40	0xbb8649bd	-0.0040981458
41	0x3bc683af	0.0060581784
42	0xbb2787fc	-0.002556323
43	0xbb84de9a	-0.0040548565
44	0x3b9f780a	0.0048666047
45	0xbaeb5057	-0.001795302
46	0x3bb42cc3	0.0054985
47	0xbb511b7a	-0.0031907246
48	0x3b71ca36	0.0036894209
49	0xbbaef169	-0.005338837
50	0x3b9a5bfd	0.004710673
51	0x3ba384c2	0.004990191
52	0x3b5b7b73	0.003349033
53	0x3b813136	0.003942634
54	0x3bb14b5a	0.005410594
55	0xbb7b61f2	-0.003835794
56	0x3bafb83a	0.0053625377
57	0xbb3bd088	-0.002865823
58	0x393ae957	0.00017825268
59	0x3bdd8f96	0.0067615015
60	0x3ad06c37	0.0015901391
61	0x3b988def	0.0046555917
62	0x3bdb56c6	0.006693694
63	0x3b9f1a5f	0.0048554386
64	0x3b2f9e1b	0.002679712
65	0x3af9e8d0	0.0019066576
66	0xbb393547	-0.0028260516
67	0x3b16c15f	0.0023003442
68	0xbb0e04e9	-0.0021670407
69	0xbb9a21f6	-0.0047037555
70	0x3bb162e8	0.005413402
71	0xbbbdb0f7	-0.005788918
72	0x3bc0e4ca	0.005886649
73	0x3b8dc62b	0.004326602
74	0x397c564a	0.00024064738
75	0xbaa92499	-0.0012904584
76	0x3abe188a	0.0014503163
77	0xbb0ec5c8	-0.0021785367
78	0x3ab6cc04	0.00139463
79	0xbb81f36e	-0.0039657867
80	0x3b993fd5	0.004676799
81	0xbaf5dfc8	-0.0018758709
82	0x3b1a14a2	0.0023510833
83	0x3ac81340	0.0015264526
84	0x3bab82a8	0.0052340813
85	0x3bbe9178	0.005815681
86	0x3bade5f8	0.0053069554
87	0x3a30f782	0.0006750749
88	0x3b87c0e3	0.004142867
89	0xbae4d66b	-0.0017458921
90	0xbb003c22	-0.0019567092
91	0xbac2c5ed	-0.0014860012
92	0x3b96437b	0.004585681
93	0xbab25452	-0.0013605452
94	0xbacf9df1	-0.0015839917
95	0x3b5be67d	0.003355413
96	0x3b54aecd	0.0032452822
97	0x3ba50984	0.0050365347
98	0xbb898fdc	-0.0041980576
99	0xbbd7b674	-0.0065830294
100	0xbbc5dcb6	-0.0060382737
101	0xbb324ea4	-0.0027207518
102	0x3b9c7fba	0.0047759684
103	0xbba97373	-0.0051712333
104	0xbbce0adb	-0.006287915
105	0x3c025c08	0.007956512
106	0x3ad4ff48	0.0016250396
107	0x3bb4f9b6	0.005522932
108	0x3bedad4d	0.007253325
109	0xbb57eb99	-0.0032946824
110	0xba50fd5f	-0.00079723255
111	0xbb0ca2b5	-0.0021459286
112	0xba1c8925	-0.0005971364
113	0xbb522e7e	-0.0032071169
114	0x3bd49179	0.0064870683
115	0x3bd528cc	0.0065051075
116	0x3aaead94	0.0013326877
117	0x3af4cb3f	0.0018676295
118	0x3bb0db7d	0.005397259
119	0xbbc9ead0	-0.006162025
120	0x3bc0d33c	0.005884556
121	0x3b0db4a7	0.002162257
122	0xbb654bfc	-0.0034987917
123	0xbba695e2	-0.0050837854
124	0x3b064c16	0.0020492128
125	0x3b31b495	0.0027115692
126	0xbb9e0232	-0.004822039
127	0xbbb33e71	-0.00547009
128	0xbbb0dcdf	-0.0053974236
129	0xbac732d2	-0.0015197641
130	0x3bdaca34	0.0066769365
131	0xba9c50cb	-0.0011925934
132	0x3b53a45b	0.0032294008
133	0x39efe568	0.00045756553
134	0x3bcadfa8	0.0061912127
135	0xb9655cc2	-0.00021873697
136	0xbb8e1a4a	-0.00433663
137	0x3b1e16af	0.0024122407
138	0xba88b338	-0.0010429388
139	0x3be0704d	0.006849325
140	0xbb9b11b9	-0.0047323373
141	0xbb73f381	-0.0037223997
142	0x3a4b44fa	0.0007754114
143	0x3ae8cad5	0.0017760644
144	0x3ae03020	0.0017104186
145	0xbb25716c	-0.0025244607
146	0x3b4a4196	0.0030861846
147	0x39df2983	0.00042564803
148	0x3b046ac4	0.0020205239
149	0xbabfbe2c	-0.0014628819
150	0xbb9f6d44	-0.0048653204
151	0xbb4e5d6a	-0.0031488785
152	0xbbb1888b	-0.0054178885
153	0xbb24d7ab	-0.0025152962
154	0x3b3d4bdf	0.0028884334
155	0x3b98bb52	0.004661002
156	0xbb9ad4ec	-0.0047250893
157	0x381333c1	3.509573e-05
158	0xbaf3c15c	-0.0018597054
159	0x3ba2bcb0	0.004966341
160	0x3bba5884	0.0056868214
161	0x3b8258b7	0.003977861
162	0x3bcf940d	0.0063347877
163	0xbbbde638	-0.0057952665
164	0x3bd0079d	0.006348564
165	0xbb93bf8f	-0.0045089195
166	0x3be35332	0.006937408
167	0xbb4ba3e1	-0.0031073021
168	0x3b914863	0.004433678
169	0x3aa190cf	0.0012326482
170	0x3bd32872	0.0064440304
171	0xbb885b64	-0.0041612852
172	0xbae79e29	-0.0017671037
173	0xbbc7bf4b	-0.006095802
174	0x3b5c10b8	0.00335793
175	0xbb838b0d	-0.004014379
176	0xba667481	-0.0008791164
177	0x3baefcbd	0.0053401873
178	0xbb341d9a	-0.0027483464
179	0x3b874511	0.0041281064
180	0x3b9fdebe	0.004878848
181	0x3be0b69f	0.0068577076
182	0x3bb9bfb3	0.0056686043
183	0xbba6aaa9	-0.0050862622
184	0xbbbebde3	-0.005820976
185	0x3b0b46df	0.002125196
186	0x3bb916e5	0.005648481
187	0xbbb1cba5	-0.0054258876
188	0x3af5a791	0.0018741955
189	0xbba25bc0	-0.004954785
190	0x3876a320	5.8802892e-05
191	0xbad2c74c	-0.0016081124
192	0xbb927974	-0.0044700447
193	0x3bae2b73	0.005315238
194	0xbb235d14	-0.0024927305
195	0xbb37a2e5	-0.0028020677
196	0x3bac7ad5	0.005263666
197	0xbb9135a5	-0.0044314438
198	0xbb231144	-0.0024882117
199	0xbb8aad58	-0.00423209
200	0xbb7110c4	-0.0036783675
201	0x3bbe3b44	0.005805405
202	0xba52c782	-0.0008040593
203	0x3bcced47	0.0062538716
204	0x3bb0d86f	0.0053968946
205	0xbb3c0448	-0.0028689075
206	0xbb9712d5	-0.0046103992
207	0x3bc78ac9	0.0060895425
208	0xbbad6e5b	-0.0052926964
209	0x3baaaf3b	0.0052088774
210	0xbb337bd0	-0.002738703
211	0x3be17e37	0.006881501
212	0xbb8e350f	-0.004339821
213	0xbbad9284	-0.005297007
214	0x3add9f0a	0.0016908359
215	0x3b990cb8	0.0046707056
216	0x3bc0194c	0.0058623906
217	0xbb6d20d0	-0.0036182888
218	0x3b8ac123	0.0042344495
219	0x3b4127af	0.0029473116
220	0xbb7046e0	-0.0036663339
221	0x3ba381c4	0.0049898345
222	0x3b96c8b8	0.0046015643
223	0xbb7ff2eb	-0.0039054703
224	0xbb680809	-0.003540518
225	0xbb87471d	-0.0041283504
226	0xbb065cf7	-0.0020502189
227	0xbb870480	-0.0041204095
228	0x3b823cbc	0.0039745253
229	0xbbb52b14	-0.005528817
230	0xbbba407f	-0.005683958
231	0x3b03a6b7	0.0020088383
232	0x3b878a7b	0.004136381
233	0x3bb2261b	0.0054366714
234	0xbbbb76a0	-0.0057209283
235	0x3bb49e57	0.0055120396
236	0xbbb3a9f3	-0.005482906
237	0xba20bf32	-0.0006132006
238	0xbbae3aa8	-0.005317051
239	0xbb99053e	-0.0046698144
240	0xba59b138	-0.0008304301
241	0xba5946ae	-0.0008288425
242	0x3abfdd83	0.0014638159
243	0x39c228b7	0.00037032898
244	0x3b34e1dd	0.0027600445
245	0x3bb9d58f	0.00567121
246	0xbab934ed	-0.0014130153
247	0xbb6226c0	-0.003450796
248	0x3bbe76a6	0.005812484
249	0xbb796d29	-0.003805945
250	0xba9728bc	-0.0011532526
251	0x3b463526	0.0030244081
252	0x3ace10c3	0.0015721548
253	0xbb83b990	-0.0040199235
254	0xbaa39918	-0.0012481539
255	0xb9ea3b37	-0.00044676077

network_body._body_endoder.seq_layers.2.weight f4 [256, 256]
0	0xbdc28706	-0.0949841
1	0x3c9ceb40	0.019155145
2	0xbd1f13dd	-0.038837302
3	0x3d235aa2	0.039881356
4	0xbdbe4e18	-0.09292239
5	0x3c7a92eb	0.015293817
6	0x3d4cf4f8	0.050038308
7	0x3e068e39	0.13140191
8	0x3d275f0b	0.040862124
9	0xbda37a10	-0.07982266
10	0x3c7476fa	0.014920944
11	0x3b29887a	0.00258687
12	0xbd261381	-0.040545944
13	0xbd582576	-0.0527701
14	0xbdc5f1e0	-0.096652746
15	0x3dea3d1c	0.11437437
16	0x3cd55fc1	0.026046636
17	0xbddcca00	-0.10780716
18	0xbc8b26f5	-0.01698635
19	0xbbf9a9ef	-0.0076191346
20	0xbddc3e25	-0.10754041
21	0xbce46874	-0.027881838
22	0x3d4b883b	0.049690466
23	0x3d9259a6	0.07146005
24	0xbda91de5	-0.08257655
25	0xbb82dbdf	-0.003993496
26	0xbdd548d1	-0.10414279
27	0x3bc71d2c	0.0060764756
28	0x3dd60edf	0.10452055
29	0xbd3a93f3	-0.04555125
30	0xbe098b1f	-0.13431977
31	0x3d2b379c	0.04180108
32	0x3de10cda	0.10988779
33	0xbd93bbf3	-0.07213583
34	0xbd7e7a6a	-0.062128462
35	0xbdad873a	-0.08473058
36	0x3ca4c2e2	0.020112459
37	0x3da695d5	0.08134047
38	0xbb61a9d0	-0.0034433492
39	0x3d5a8a56	0.053354584
40	0xbd2bfae9	-0.041987333
41	0xbcd13ced	-0.025541747
42	0x3dc46724	0.09589985
43	0xbd7997d3	-0.060935806
44	0xbc364e9f	-0.011127143
45	0xbd7846dd	-0.060614455
46	0xbc7b16b5	-0.015325238
47	0xbdc843eb	-0.09778579
48	0xbd12a599	-0.035802457
49	0xbb29e825	-0.0025925722
50	0xbe1626de	-0.14663264
51	0x3db33fd3	0.08752408
52	0xbcccbb3e	-0.024991628
53	0x3d798d2d	0.06092565
54	0xbd0e503f	-0.034744497
55	0xbd031a63	-0.032007586
56	0xbd843cf7	-0.064569406
57	0xbe5e34a5	-0.2169977
58	0xbde973c5	-0.113990344
59	0x3d475414	0.048664168
60	0x3c8f7ad1	0.017514618
61	0x3e1314ef	0.14363454
62	0x3bc68d6b	0.006059339
63	0xbd24bed2	-0.040221043
64	0x3d2317ba	0.03981755
65	0x3c7446b0	0.014909431
66	0xbd66ab15	-0.0563155
67	0xbc67701c	-0.01412585
68	0xbdb2f788	-0.08738619
69	0xbc9730ac	-0.018455826
70	0xbc1f286d	-0.009714228
71	0x3b2ce71b	0.0026382867
72	0x3d2afae8	0.04174319
73	0xbc9366f0	-0.01799342
74	0x3bc8f510	0.0061327294
75	0x3b8cf98c	0.0043022092
76	0x3d863ad5	0.0655419
77	0xbdb1aa43	-0.08675053
78	0xbcb88b60	-0.022527397
79	0x3927dfa0	0.00016009668
80	0x3d7b39db	0.061334472
81	0xbde2827f	-0.110600464
82	0xbbce9879	-0.0063047973
83	0xbe3fc34d	-0.18726845
84	0xbd7873a6	-0.060657166
85	0x3c64307e	0.013927577
86	0xbdf92d97	-0.12166899
87	0xbb29cb27	-0.0025908442
88	0xbd816229	-0.06317551
89	0xbc83b974	-0.016079642
90	0x3d2cb597	0.042165365
91	0xbd26347b	-0.040577393
92	0x3d6d6885	0.057961006
93	0xbd2169f1	-0.039407674
94	0x3d4d3eba	0.05010865
95	0x3d32aa6a	0.04361955
96	0x3bb54044	0.0055313427
97	0x3bdf30cd	0.0068112374
98	0xbd90b30d	-0.07065401
99	0x3e075122	0.13214543
100	0x3d20149f	0.039082166
101	0xbd00d8ac	-0.031456634
102	0xbd9b5b3c	-0.07585761
103	0x3d3de648	0.04636219
104	0xbcbe6f56	-0.023246448
105	0x3ca61f61	0.020278635
106	0x3cc230eb	0.023704967
107	0x3d923525	0.07139043
108	0xbde22706	-0.110425994
109	0x3d57eb00	0.052714348
110	0xbba85a65	-0.005137729
111	0xbc6aa0cb	-0.014320563
112	0x3ccf3b5a	0.025296856
113	0xbcf8ac02	-0.030355457
114	0xbd6c953c	-0.05775951
115	0xbc963321	-0.018334927
116	0x3d4bcb25	0.04975428
117	0x3db190e4	0.08670214
118	0x3dae0b72	0.08498277
119	0xbd7d911d	-0.06190597
120	0xbdb16223	-0.08661296
121	0xbd23ba5e	-0.039972655
122	0x3ce8de44	0.028426297
123	0x3d15d5fd	0.03658103
124	0xbd274c24	-0.040844098
125	0x3c0bb695	0.008527418
126	0xbc273760	-0.0102060735
127	0xbca1e379	-0.019761788
128	0xbd830636	-0.06397669
129	0x3ceed9fd	0.02915668
130	0xbd67189c	-0.056419954
131	0xbc5f47d5	-0.013627966
132	0xbcf52c44	-0.029928334
133	0xbc12e514	-0.008965749
134	0xbd70c0a9	-0.058777485
135	0x3c28df93	0.0103072105
136	0x3d64a2e5	0.05581941
137	0xbd0ab983	-0.033868324
138	0xbd9c7461	-0.07639385
139	0x3d572a6a	0.052530684
140	0x39bf84f9	0.0003652943
141	0x3e46a8f7	0.19400392
142	0x3d44f223	0.048082482
143	0x3e1326bb	0.14370243
144	0x3da8dec0	0.08245611
145	0x3cdd5a79	0.02702068
146	0xbd38f277	-0.045153107
147	0xbda84eb9	-0.0821814
148	0x3c61d05f	0.01378259
149	0xbe045ebb	-0.12926762
150	0xbcbf883d	-0.023380393
151	0xbc7f47dc	-0.015581097
152	0x3d5cd85d	0.053917278
153	0x3d5f80ed	0.054566313
154	0x3d3acfc2	0.04560829
155	0x3d0fd2da	0.035113193
156	0x3d5ff9cd	0.054681588
157	0x3cd611d7	0.026131554
158	0x3d6290c8	0.055313855
159	0xbdc5ea4f	-0.096638314
160	0xbdd0c584	-0.10193923
161	0xbd6b6694	-0.057470873
162	0xbd63319b	-0.05546723
163	0xbd01e2c3	-0.031710397
164	0xba83a3cd	-0.0010043323
165	0xbca83a68	-0.020535663
166	0x3dae8734	0.08521882
167	0x3cc4de1f	0.024031697
168	0x3ce1f144	0.027580865
169	0xbc0170d8	-0.007900439
170	0x3dc403ca	0.09571035
171	0x3cdb3de5	0.026762912
172	0x3c850562	0.016237918
173	0x3cba51ea	0.022744138
174	0x3d22b1a8	0.039720207
175	0x3d745344	0.05964972
176	0x3d984704	0.0743542
177	0xbdab390e	-0.08360492
178	0xbd3f930c	-0.046771094
179	0x3b69b27d	0.0035659366
180	0xbd3a2ba6	-0.045451783
181	0x3d30d93f	0.043175932
182	0x3c46c4e3	0.012131902
183	0x3d7f6332	0.06235046
184	0x3c16e8e8	0.009210803
185	0x3c0b73d9	0.008511507
186	0x3b8a8139	0.0042268303
187	0x3d542a31	0.05179805
188	0xbdbb761e	-0.091533884
189	0x3dc9994e	0.09843694
190	0xbda7d9ff	-0.08195876
191	0x3d7665c1	0.060155634
192	0x3dc044bc	0.0938811
193	0xbd4777c5	-0.048698206
194	0x3cc25e58	0.023726627
195	0xbbe302fa	-0.006927845
196	0xbb39d8e3	-0.0028358034
197	0x3c29aea2	0.010356577
198	0xbe0719ae	-0.1319339
199	0xbd9fc1c4	-0.0780063
200	0x3ce23e0b	0.027617475
201	0xbdf36681	-0.118847854
202	0xbbbfb4db	-0.005850417
203	0xbd8482f0	-0.06470287
204	0x3d18f9b6	0.037347518
205	0xbde537ee	-0.11192308
206	0x3d3c5a42	0.045984514
207	0x3ccdae2c	0.025107466
208	0x3e26bc54	0.16282779
209	0xbcf74836	-0.0301858
210	0x3e062b09	0.13102354
211	0x3dc5e512	0.09662832
212	0x3d66c994	0.056344584
213	0xbd1d5e95	-0.03842028
214	0x3db0c204	0.086307555
215	0x3cfdbd0d	0.030973935
216	0x3bcb5d73	0.0062062084
217	0x3d0953da	0.033527233
218	0x3c83691a	0.016041327
219	0xbd9a8dbc	-0.07546565
220	0x3b6e2cde	0.003634266
221	0x3ad15f84	0.00159739
222	0x3d6f2615	0.058385927
223	0xbde69d2e	-0.112604484
224	0xbd5081ca	-0.050905026
225	0xbe09fb36	-0.13474736
226	0x3d235d2b	0.039883774
227	0x3e090713	0.13381605
228	0x3e3e7c45	0.18602093
229	0xbce88bf6	-0.028387051
230	0x3db5eac4	0.088826686
231	0xbd9a8741	-0.07545329
232	0x3bcb0a4d	0.0061962963
233	0xbcbe93d9	-0.023263859
234	0xbb88971e	-0.004168405
235	0x3906aaa9	0.00012842812
236	0x3b9a1d77	0.0047032195
237	0xbde54d1a	-0.111963466
238	0xbe0f9494	-0.14021522
239	0xbd9ca5e2	-0.07648827
240	0xbaf0001b	-0.0018310578
241	0xbd6f530b	-0.058428805
242	0xbbc22768	-0.0059251077
243	0x3cd8b17b	0.026451817
244	0xbcaca4a2	-0.021074597
245	0xbe1161ff	-0.14197539
246	0xba4fbb31	-0.0007924317
247	0xbad156a0	-0.0015971251
248	0x3d749671	0.059713785
249	0x3e25a10e	0.16174719
250	0xbc92b3de	-0.017908033
251	0xbda1f9da	-0.079089835
252	0xbcf7de47	-0.030257357
253	0xbc59c51f	-0.013291626
254	0xbc942ba0	-0.018087208
255	0xbceb257e	-0.028704401

network_body._body_endoder.seq_layers.4.bias f4 [256]
0	0x3bc96089	0.006145541
1	0xbbb5f193	-0.0055524795
2	0x39849d16	0.0002529404
3	0x39daa06d	0.00041699727
4	0xbb9aa7b2	-0.004719698
5	0xbb555b0a	-0.0032555484
6	0x3b866ca6	0.0041023074
7	0xbaac1d8f	-0.0013131368
8	0xbba2c597	-0.004967402
9	0x3ba940e7	0.0051652077
10	0x39d74a46	0.00041063334
11	0xbbae5fd4	-0.005321482
12	0xbb8e80f1	-0.004348867
13	0x3bae983b	0.005328206
14	0x3b50d4f3	0.003186521
15	0x3bb34706	0.005471113
16	0x3b76244b	0.0037558253
17	0xbb0e018e	-0.0021668407
18	0x3b6644b9	0.0035136177
19	0xbba17ddd	-0.004928334
20	0xbb333f35	-0.0027350907
21	0xbb8af0df	-0.00424014
22	0xbb19d0c0	-0.0023470372
23	0xba9b5abb	-0.0011852601
24	0x3aa727bc	0.0012752931
25	0x3bb6389c	0.0055609476
26	0x3b52a33f	0.003214076
27	0xbb427d2f	-0.0029676666
28	0x3a9347a9	0.0011236566
29	0xba8f7138	-0.0010943776
30	0xbae7dacc	-0.0017689108
31	0xbbaf6379	-0.0053524342
32	0xbb45bf59	-0.0030173867
33	0x3b96728c	0.004591292
34	0xbb020b0c	-0.001984301
35	0xbb54f046	-0.0032491847
36	0xbb096c79	-0.0020969196
37	0x3b9cc6f0	0.0047844574
38	0xbbb2ceb4	-0.00545677
39	0x3bc45ca0	0.005992487
40	0xbba540ad	-0.0050431103
41	0x3ba0d9fb	0.004908798
42	0x3bc25c09	0.0059313816
43	0xbb88cac7	-0.0041745636
44	0x38c29497	9.278318e-05
45	0xbb9c6014	-0.0047721956
46	0xbb8792cb	-0.004137372
47	0x3bb6d5a4	0.005579667
48	0x3b735b96	0.0037133447
49	0x3bd80319	0.006592166
50	0xbb639cb6	-0.0034730858
51	0xbb88540d	-0.0041604103
52	0xbb5600c1	-0.0032654258
53	0x3b4f2471	0.0031607414
54	0x3aab43e3	0.0013066496
55	0xbb670bd3	-0.003525485
56	0x3bcceb82	0.0062536607
57	0x3a95a323	0.0011416416
58	0x3bbca7b0	0.0057572946
59	0x3a745a82	0.0009321348
60	0x3b9143cf	0.0044331322
61	0xbbacaca0	-0.005269602
62	0x3bc83038	0.0061092637
63	0x3ab1ecc0	0.0013574585
64	0xbb48a6b5	-0.0030616943
65	0x399e473a	0.00030189176
66	0xbb9242f2	-0.004463547
67	0x3b1c268c	0.0023826687
68	0xbb8bad9b	-0.0042626387
69	0xbbad8f43	-0.005296619
70	0xbb14028b	-0.0022584524
71	0x3b8cc226	0.0042956052
72	0xbbaa31aa	-0.0051939087
73	0x3baf601a	0.0053520324
74	0x3bc863ee	0.006115428
75	0x39907d55	0.000275592
76	0x3baa98fa	0.0052062245
77	0x3b36d6de	0.0027899067
78	0x3ab1edb2	0.0013574867
79	0xba81c4c2	-0.0009900557
80	0x3b13366f	0.0022462865
81	0xbb858848	-0.004075084
82	0x3bbd2083	0.005771698
83	0x3bb057a8	0.005381543
84	0xbbb71fcf	-0.0055885087
85	0xba8f3714	-0.0010926449
86	0xbb83f09b	-0.004026485
87	0x3b92cad2	0.0044797445
88	0xbb933c27	-0.0044932547
89	0xbb8746ce	-0.0041283136
90	0xbb76526b	-0.0037585746
91	0x3b098e17	0.0020989233
92	0xbbbea781	-0.005818308
93	0xbb992bb6	-0.0046744
94	0xbaa719de	-0.0012748798
95	0xbb89489c	-0.004189564
96	0xbb8df187	-0.004331771
97	0xbba84b61	-0.005135939
98	0x3b3cee0d	0.0028828413
99	0x3a2b415d	0.0006532872
100	0xbb60e315	-0.003431504
101	0xbb84f2e3	-0.0040572747
102	0x3bcc1a67	0.0062287333
103	0x3be0c1f2	0.0068590576
104	0xbbac568f	-0.005259342
105	0xbbb05eec	-0.0053824093
106	0x3bb28c54	0.0054488573
107	0xbb6cad36	-0.0036113984
108	0xbabae58f	-0.0014259088
109	0x3bb5762a	0.005537768
110	0xbb6d8938	-0.0036245119
111	0x3b5fe268	0.0034162048
112	0x380251d6	3.107063e-05
113	0x3bd1b8d2	0.006400206
114	0xbaa63ce8	-0.0012682946
115	0xbb204075	-0.0024452482
116	0xbb532057	-0.003221532
117	0xbbade85e	-0.0053072413
118	0xbb5165bf	-0.0031951515
119	0x3b3d2f25	0.0028867212
120	0xbae7ae8a	-0.0017675918
121	0xbb87b267	-0.0041411403
122	0x3bc81e5c	0.0061071347
123	0xbb1bd2ff	-0.0023776887
124	0x3b5501d1	0.0032502303
125	0x3ba6e5f8	0.0050933324
126	0x3a3529a3	0.00069108064
127	0x3ba40519	0.0050054905
128	0x3ba545b9	0.005043712
129	0x39c3d1fa	0.00037349743
130	0xbb7ae2a8	-0.003828207
131	0x3bca4750	0.006173052
132	0x3bb81aac	0.005618414
133	0xbbad9411	-0.005297192
134	0x3b2be639	0.0026229753
135	0xbac07bb3	-0.0014685303
136	0x3bdb0b76	0.006684716
137	0x3aadcc33	0.0013259709
138	0x3baaa6b9	0.005207863
139	0x3b9843ca	0.004646753
140	0x3b015399	0.0019733666
141	0x3bbc72b7	0.0057509798
142	0x3a6052b7	0.00085572473
143	0x3ba4bf95	0.005027721
144	0x3bab06f4	0.0052193347
145	0x3b67d9e7	0.0035377683
146	0x3b26aa07	0.0025430934
147	0xbbada164	-0.0052987803
148	0x3b6415d4	0.003480305
149	0xbb876680	-0.004132092
150	0x3bae734a	0.005323802
151	0xbb9130e0	-0.004430875
152	0xbb08673b	-0.0020813483
153	0xbba6c698	-0.005089592
154	0x3a0cbcd2	0.00053687126
155	0x3a3f9c46	0.00073093583
156	0x3b94a754	0.0045365486
157	0xbb822001	-0.0039711003
158	0x3b93a00a	0.004505162
159	0x3b884bcd	0.004159427
160	0x3acd37dd	0.0015656907
161	0x3ba9dc0b	0.005183702
162	0xbba063c4	-0.0048947055
163	0xbb93f70b	-0.004515534
164	0xbb895597	-0.0041911113
165	0xbb768997	-0.003761863
166	0x3bbc18b2	0.0057402486
167	0x3bb17c17	0.005416404
168	0xbb8d4745	-0.0043114745
169	0xbb9ed0d4	-0.0048466716
170	0x3bc6cdd4	0.006067017
171	0xbaab5bc8	-0.0013073618
172	0xbba892fd	-0.0051444755
173	0xbb140bbb	-0.002259
174	0xbb97c86b	-0.004632046
175	0x3babc3a0	0.005241826
176	0x3bc6861e	0.0060584685
177	0x3b8e34f1	0.004339807
178	0x3bc1dc2e	0.00591614
179	0x3af7607f	0.0018873363
180	0xbba1b5dd	-0.00493501
181	0xbb94a55e	-0.004536315
182	0xbbab2ff8	-0.005224224
183	0x3b49023e	0.0030671502
184	0xbbac668e	-0.005261249
185	0x3b595b18	0.0033165868
186	0x3bc8cffe	0.00612831
187	0x3bc1676f	0.005902223
188	0xbbb3fb6f	-0.0054926197
189	0x39bb037e	0.0003567002
190	0xbb6b77a3	-0.0035929463
191	0x3bdefec3	0.0068052723
192	0xbb4813b7	-0.003052933
193	0xbb7045f4	-0.003666279
194	0x3ab1c037	0.0013561313
195	0x3b9b3307	0.0047363075
196	0x3b999c16	0.0046877963
197	0x3bce3ecf	0.0062941085
198	0x3bc08c36	0.0058760894
199	0xba4ea6c7	-0.0007883128
200	0x3b9e5205	0.004831555
201	0xbbaaf19a	-0.0052167894
202	0xbbab4ab2	-0.0052274102
203	0x3af2eca4	0.0018533659
204	0xbb835040	-0.0040073693
205	0xba9f9621	-0.0012175479
206	0x3b5bcebc	0.0033539971
207	0x3bba8aee	0.0056928312
208	0x3b1975e0	0.0023416206
209	0xbba91fd2	-0.005161264
210	0xbbade62e	-0.0053069806
211	0x3b572099	0.0032825826
212	0x3bb94e27	0.0056550684
213	0x3baee6ee	0.0053375876
214	0x3bb6f72c	0.0055836644
215	0x3bba67bc	0.0056886356
216	0xbb4f2ce0	-0.003161244
217	0xbb68a5cb	-0.003549921
218	0x3a8ec695	0.0010892922
219	0xbb584f18	-0.0033006128
220	0x3bbb1577	0.005709346
221	0x3baaaa1c	0.005208267
222	0x3b0ebdfe	0.0021780725
223	0x3bd631d7	0.006536703
224	0x3ba48040	0.0050201714
225	0xbb53199e	-0.0032211314
226	0xbbb9d91b	-0.005671633
227	0xbb917403	-0.0044388785
228	0xbbb0781b	-0.0053854114
229	0xbba3c054	-0.0049972925
230	0xbb94f53a	-0.004545835
231	0x3b338d7a	0.002739756
232	0x3b9ba290	0.0047496036
233	0xba5ebb95	-0.000849658
234	0xbb4bb2c4	-0.0031081894
235	0x3a6946fc	0.0008898822
236	0x3b61353a	0.0034364
237	0xba21ff8c	-0.0006179742
238	0x3b95fee8	0.0045775063
239	0x3bd6ddb0	0.006557189
240	0xbaca4c31	-0.0015434084
241	0x3bc7da40	0.0060990155
242	0x3bacdce4	0.0052753557
243	0x3a0ad598	0.000529611
244	0x3bc8961c	0.00612141
245	0xbba72020	-0.005100265
246	0xbb8c6610	-0.0042846277
247	0x3bcc1ea9	0.006229241
248	0x3bc934c2	0.0061403224
249	0xbbb7efc8	-0.005613301
250	0xbb55e969	-0.0032640344
251	0xbb99d235	-0.004694248
252	0xbb4f8ba8	-0.0031668935
253	0x3bc2af6c	0.005941322
254	0xbadfd9c7	-0.0017078453
255	0x3bddaf2b	0.0067652664

network_body._body_endoder.seq_layers.4.weight f4 [256, 256]
0	0xbd86a654	-0.06574693
1	0x3c071b99	0.008246326
2	0xbd81eb25	-0.063436784
3	0x3d4acb6e	0.049510412
4	0xbd665721	-0.056235436
5	0x3daddfb9	0.08489937
6	0x3c7d35b1	0.015454696
7	0xbcf30d0b	-0.029669305
8	0xbcfde8b7	-0.030994756
9	0x3daaf594	0.083476216
10	0x3c54d9de	0.012991397
11	0x3d4c3891	0.049858633
12	0x3d0024e6	0.03128519
13	0x3cbbe207	0.022934927
14	0xbdb38c5f	-0.08767008
15	0xbc47f38d	-0.012204063
16	0xbd9e4abe	-0.077291
17	0xbcc6441e	-0.024202403
18	0xbd8f00e1	-0.069825895
19	0xbcc22418	-0.023698851
20	0x3d3fd0e8	0.046830088
21	0x3e1e73b9	0.15473832
22	0x3cb01d89	0.021498458
23	0x3ca9fa53	0.020749247
24	0xbc089fd7	-0.00833889
25	0xbd6d5491	-0.057941977
26	0xbc624613	-0.013810652
27	0x3da6ada5	0.08138589
28	0xbd112b42	-0.035441644
29	0x3e01dd23	0.12682013
30	0x3daf5bf9	0.08562464
31	0xbcd8f21c	-0.026482634
32	0xbcbe3094	-0.023216523
33	0x3da95bf4	0.08269492
34	0x3d49b141	0.049241308
35	0xbcaa3dd1	-0.02078143
36	0x3d29112a	0.041276135
37	0x3d6c53a2	0.057696946
38	0x3d9d9243	0.07693913
39	0xbd1e2d20	-0.038617253
40	0xbcd51b4c	-0.026013993
41	0x3d0af48d	0.033924628
42	0xbc3b9cc0	-0.011450946
43	0xbd02d0ad	-0.03193729
44	0x3c7f5a9b	0.015585567
45	0x3d485f35	0.04891892
46	0x3d92de1a	0.07171269
47	0xbd9a16a9	-0.07523853
48	0x3d19e872	0.037575193
49	0xbd0b06a9	-0.0339419
50	0x3d9b0480	0.07569218
51	0x3cbdd04a	0.023170609
52	0xbd28d24e	-0.041216187
53	0x3dee6896	0.11641042
54	0x3c82c0c8	0.015961066
55	0xbe161c94	-0.14659339
56	0xbbed770c	-0.0072468575
57	0xbc17b18f	-0.009258642
58	0x3d6b879d	0.057502378
59	0xb8a90c65	-8.0608566e-05
60	0xbdb87343	-0.090063594
61	0xbc7df922	-0.015501292
62	0xbd8a1144	-0.067415744
63	0x3d87044c	0.065926164
64	0xbd8e006f	-0.069336765
65	0xbb166511	-0.0022948424
66	0x3ccb0bb2	0.02478585
67	0x3cfe0aed	0.03101107
68	0x3da22978	0.07918066
69	0xbd06dc46	-0.032924913
70	0xbd5550d3	-0.052079033
71	0xbd4a2653	-0.049352955
72	0x3d498966	0.0492033
73	0x3d41361b	0.04717074
74	0x3cb3876f	0.021915166
75	0xba32f5bd	-0.0006826779
76	0x3c6973cc	0.0142487995
77	0x3d61764a	0.05504445
78	0xbc3384a9	-0.010956922
79	0xba929fb7	-0.0011186515
80	0xbd1daf60	-0.03849733
81	0x3d9ed48e	0.07755385
82	0x3dbb38d7	0.09141701
83	0xbd80b1e0	-0.06283927
84	0x3d42973f	0.04750752
85	0x3d92cb0c	0.07167634
86	0x3da0cdf5	0.07851783
87	0x3d551532	0.052022167
88	0x3bf9b3a8	0.0076202936
89	0x3da4ba8a	0.08043392
90	0x3d4af57a	0.04955051
91	0x3d8c5ef1	0.06854046
92	0x3d85c014	0.065307766
93	0xbc0fc500	-0.008774996
94	0xbd493bd2	-0.049129315
95	0xbd2e9d0d	-0.042630244
96	0x3d87b75a	0.066267684
97	0xbd0d9374	-0.03456445
98	0xbd1b0f18	-0.03785619
99	0xbc84be3c	-0.016203992
100	0xbdcf3db4	-0.10119191
101	0xbde47947	-0.11155944
102	0x3dc138f9	0.09434695
103	0x3c0fe444	0.00878245
104	0x3cfe6552	0.031054173
105	0x3d72cf1d	0.05927955
106	0xbdbb5b29	-0.09148247
107	0x3cc43b9a	0.023954201
108	0xbc1aa782	-0.009439351
109	0xbddf75da	-0.1091115
110	0xbd3a2147	-0.045441892
111	0x3c873a09	0.016507166
112	0xbd926f0e	-0.07150088
113	0x3b73df63	0.0037212006
114	0xbde8b6e6	-0.1136301
115	0x3dbb8d29	0.091577835
116	0xbc871c48	-0.016492978
117	0xbd214a03	-0.039377224
118	0x39c6ae95	0.00037895577
119	0x3d02aff0	0.03190607
120	0xbcb42397	-0.021989627
121	0x3c2ccf75	0.0105475085
122	0x3dd97c2f	0.10619389
123	0xbd2160fc	-0.039399132
124	0xbc54cdd3	-0.012988525
125	0x3d2216fc	0.0395727
126	0xbd5002e5	-0.05078401
127	0xbd065a4f	-0.03280097
128	0x3da07b7e	0.07836054
129	0xbdc5e2a9	-0.096623726
130	0xbdc880d8	-0.097902
131	0xbc6686a2	-0.014070185
132	0xbb75a545	-0.0037482542
133	0xbd305806	-0.043052696
134	0x3c615c72	0.013754951
135	0x3d3f6211	0.046724383
136	0x3dc44701	0.095838554
137	0x3d10f074	0.035385564
138	0x3d8dc949	0.06923158
139	0xbc75d846	-0.015005177
140	0xbc2dffa7	-0.010620034
141	0x3c8c213b	0.01710569
142	0xbd98239d	-0.07428668
143	0x3d9aa650	0.07551253
144	0x3d06fd55	0.03295644
145	0x3d96b922	0.0735953
146	0x3d726802	0.05918122
147	0xbc13f5c7	-0.009030766
148	0x3b579394	0.003289436
149	0xbd59c57f	-0.053166863
150	0x3c406546	0.0117428955
151	0x3cdb47c3	0.026767617
152	0xbc0a5d88	-0.008445151
153	0xbe6978f9	-0.22800054
154	0x3d8e96ec	0.0696238
155	0x3d240b2a	0.04004971
156	0x3d107886	0.03527119
157	0x3e0bf09c	0.13666004
158	0xbe1dc33d	-0.15406509
159	0x3de25b5f	0.11052584
160	0x3d8ec041	0.06970263
161	0xbd8100b6	-0.06298964
162	0x3d454763	0.048163783
163	0xbdb42a96	-0.08797185
164	0x3bf1087d	0.007355748
165	0x3d0b8d23	0.034070145
166	0x3d5b226a	0.053499617
167	0xbdd9a713	-0.1062757
168	0x3afef8a4	0.0019452763
169	0xbcbabc45	-0.022794852
170	0xbdb832c9	-0.089940615
171	0xbc858e9e	-0.016303357
172	0xbe2375b9	-0.15962876
173	0xbbd8d926	-0.006617683
174	0xbd222a9f	-0.039591428
175	0x3da58bfb	0.0808334
176	0xbd178807	-0.03699496
177	0xbe11e7b6	-0.14248547
178	0xbd88577c	-0.06657311
179	0x3d1213fb	0.035663586
180	0x3dea463e	0.11439179
181	0x3db84a01	0.0899849
182	0xbe0a5432	-0.1350868
183	0xbd76bef5	-0.060240705
184	0x3d15de1d	0.036588777
185	0x3da0e3ad	0.07855926
186	0x3d111721	0.035422448
187	0xbcb01d8e	-0.021498468
188	0x3d18fc49	0.037349973
189	0xbd4c3097	-0.049851026
190	0xbbee14c3	-0.0072656586
191	0x3da71e5b	0.08160087
192	0xbc8a0f30	-0.016852945
193	0x3dea6cb6	0.11446516
194	0xbdb60a3e	-0.08888672
195	0x3e1c228e	0.15247557
196	0xbde0893c	-0.109636754
197	0xbda0afd7	-0.07846039
198	0xbbf41f81	-0.0074500446
199	0x3d95b0a7	0.073090844
200	0xbc75ad3d	-0.0149949165
201	0xbd1b9a88	-0.03798917
202	0x3d1b4c9e	0.037914865
203	0x3d40adf7	0.047040906
204	0x3d2bc70e	0.04193788
205	0x3cdd15cb	0.02698793
206	0xbd80833d	-0.06275032
207	0x3cf247fc	0.02957534
208	0xbdc5a0d4	-0.09649816
209	0x3db1070f	0.086439244
210	0x3d56e4b9	0.05246422
211	0xbc0aa2ab	-0.008461635
212	0xbd54a33a	-0.051913477
213	0xbd0de403	-0.034641277
214	0xbd479e95	-0.04873522
215	0x3c0689ef	0.008211597
216	0xbd309d1e	-0.04311859
217	0xbe0dedc1	-0.13860227
218	0x3d548b84	0.051890865
219	0x3d2747f0	0.04084009
220	0xbc8fb75c	-0.017543487
221	0x3dd89b6a	0.10576518
222	0x3e1c50d3	0.15265207
223	0xbd190d15	-0.03736599
224	0x3c564bfe	0.013079641
225	0xbc4921ae	-0.012276096
226	0x3ccb265e	0.024798568
227	0xbc6703df	-0.014100044
228	0xbb9f9760	-0.00487034
229	0xbe20b3da	-0.15693608
230	0xbdc3ea06	-0.09566121
231	0xbdd0aeef	-0.10189616
232	0xbcbebb83	-0.023282772
233	0xbcf09d09	-0.029371755
234	0x3c0249dd	0.007952181
235	0x3df03103	0.11728098
236	0xbda29b38	-0.07939762
237	0xbd106b6e	-0.035258703
238	0xbc77659e	-0.015099911
239	0xbcf7447a	-0.03018402
240	0xbd41386d	-0.047172952
241	0x3dd54b11	0.104147084
242	0x3d196b81	0.03745604
243	0xbcbd2946	-0.02309097
244	0xbd1442de	-0.036196582
245	0xbd09136c	-0.033465788
246	0x3d43d118	0.04780683
247	0x3e1c4104	0.15259176
248	0xbdb82876	-0.08992092
249	0x3d06c04b	0.03289823
250	0xbda8414d	-0.0821558
251	0x3d16e5ba	0.036840178
252	0x3d1bebf8	0.038066834
253	0xba890661	-0.0010454172
254	0x3c55746e	0.013028247
255	0x3d85d1ea	0.065341786
