Assets/Training/results/track1_learned/config_track1/config_track1-999988.onnx (onnx, 642369 bytes, 9 tensors)

action_model._continuous_distribution.log_sigma f4 [1, 2]
00000000: 55c9 9bbc 938d f1be
-0.019016901 -0.47178325

action_model._continuous_distribution.mu.bias f4 [2]
00000000: 9ac5 f43b dc6f c63b
0.007469845 0.006055815

action_model._continuous_distribution.mu.weight f4 [2, 256]
00000000: 5134 82bd fdcb b0bc b714 6dbb 6b56 1c3d
00000010: 517f 473a 09c4 f2bc 1727 2a3b e97b 0abb
00000020: 9ca7 b63c a54a 16bb c541 113c 4ba5 06bd
00000030: 4f56 6ebc a308 873b 0115 563d 2c73 6fbb
00000040: 0bca a73c 5929 27bd 0d2a a7bc 51fd 37bd
00000050: 142d 7abd a19e 4fbd 9b2f 37bd 95e1 dcba
00000060: 25a8 a0bc df68 28bd e866 843d 46ee e0bc
00000070: ad94 1dbc a779 8cbb e64c 05bd 7d10 123c
00000080: e5b6 983b 83f6 25bc dbae 38bb a34c 753c
00000090: 32a2 11bb 2cb3 e53b 3b81 353c 5512 353d
000000a0: 2af2 8d3a 7f90 b2bb f88e 26bc bbbf 313a
000000b0: 1536 04bd e3fa a03a 8281 933b df13 42b9
000000c0: d018 b4bc 31ae 343c 39a3 03bb 7f0d 773c
000000d0: 8922 573b 4760 c03b c314 19bc 9ef6 52bd
000000e0: 0299 753d 92fe 3abd 13ff ad3b d99b 25bd
000000f0: ce5b 74bd ed0f 233c 6967 9e3c 8ac4 03bd
00000100: 0633 06bd 7e35 393c b983 37bd 6c33 903c
00000110: c4d8 c33a 62ee 2d3c 1a65 a13b 3720 66bd
00000120: 8e9f 663c 5e55 52bc 676d 5cbb d470 08bd
00000130: 9357 37bb 5e6c 04bc de39 a73c 99d0 3f3d
00000140: bf87 4dbc 1787 1dbc 7fcc 71bc b739 9e3a
00000150: c699 a2bb 1281 37bd 9d76 8eb9 1a11 713c
00000160: f67c 79bc 9146 7b3c f456 d8ba 86ce b8bc
00000170: f8eb 64bc 4b23 15bd ba0f 45bc a06f bcbc
00000180: 2e5d 13ba 1586 2b3c 7d47 53bc 4650 46bc
00000190: 6f74 8bbd aadb 36bc 5556 3ebb fa7b 3abd
000001a0: 192d 89bb 039d 1e3c 7643 c23c 8df8 2dba
000001b0: f88b 2bbc 56c2 18bd fcad b4bb b5bd 64bb
000001c0: 5c11 973d 2f9d 96bb 0ff8 22bd 0cd4 ac3c
000001d0: 313a 7cbd f2f6 2abb b4e0 21bd d165 74bc
000001e0: fbd9 d2bb 4dc1 fe3c 1b31 db3b d10c 503c
000001f0: ed6e 5abb 2a59 0f3b 15d8 233c 01ec e5b8
00000200: a6aa 9c3c 3acb 45bc 4adc 833c f93f 70bd
00000210: b8b6 21bd 094b 1b3c 66cf cd3a 7b0b 1cbc
00000220: eebb 293c d748 be3b e133 103a 6a6f 4abd
00000230: 7af9 773d 5880 03bb 84d7 c63d ae79 93bc
00000240: f82e 593c 2b5f 6d3d f5a5 90bb 2397 35bc
00000250: 90f1 65bd 7983 523c 90c2 15bc ef4d acbc
00000260: 3e5a 8dbc 78b0 673b a250 253c 1651 34bb
00000270: 2773 87bd 263c d73b d500 2dbd 287a adbc
00000280: aa3f 0dbd 0a15 07bb c06a 6e3b 678a 19bc
00000290: 86ce 5e3c 0580 f8bc 8f73 b23c fa8b 283c
000002a0: 1082 81bb b270 c43b 4314 8fbc 3f69 01bc
000002b0: e331 d4bc 5c09 4fba b3e5 e739 e6ff 51bd
000002c0: 90be 9a3c 2fe7 0fbc 2b7c 51bd 545b ca3c
000002d0: b193 76bd b602 34bd 797e ebbc 1c99 9a3c
000002e0: fa16 1ebd 61c1 15bc 7eaa 07ba 5e72 acbc
000002f0: 18eb 663c bff0 5ebc 9be1 8dbc d6a6 fb3b
00000300: dafd 6e3c 3b67 5bb9 4917 92bd 86a8 46bb
00000310: 81d5 69bb bc14 89bc 168c 0cbd c961 6cbb
00000320: 89b6 56bb ae50 2fbc e667 aa3c b6ef f0bc
00000330: f368 e3ba 77bd b9bb cb2e 00bc f911 69bd
00000340: 47cd da3c 70f0 b73c 92e0 323a ac5e 5d3c
00000350: 8ffc 7abd b575 813c a1ef 113c 0011 85bd
00000360: b364 e2bc a535 afba 08c2 63bc 36d7 9bbc
00000370: 9e8d 30bc 3eb4 08bd 9579 a7bc d557 20bd
00000380: efb1 6f3c 69e3 be3b afce e8bb 4faa e8bc
00000390: 3f5d bebc fa37 b63c 3d07 6abc 1c45 13bc
000003a0: b1a6 823c 55cb 4a3c 33b2 51bd fefb cbba
000003b0: a79e 9fbc ec3d cebc 2a80 11b8 d55d 2a3c
000003c0: 9d9e c73c b984 873c 7c09 ea3b e995 2c3c
000003d0: 41b2 053c 90ff 3bbd 721a 09bd d322 353c
000003e0: 98de b9bc 3ada be3a 3f3d 51bd 625f f8bb
000003f0: 23eb b13b 9698 853c ec0e e1bb cb7c 89bb
-0.06357635 -0.021581644 -0.0036175677 0.038168352 0.0007610219 -0.029634492 0.002596324 -0.0021130985
0.02229672 -0.0022932675 0.008865778 -0.03287248 -0.014546945 0.0041209026 0.052266125 -0.0036537154
0.020482084 -0.040810917 -0.020405794 -0.044919316 -0.061078146 -0.05068839 -0.044723134 -0.0016851897
-0.019611428 -0.041115638 0.0646494 -0.027457368 -0.009617967 -0.004286963 -0.03254404 0.008915064
0.0046604746 -0.010129574 -0.0028180394 0.014971885 -0.002222192 0.0070098843 0.011078174 0.044206936
0.0010829617 -0.005449354 -0.010165922 0.0006780584 -0.03227814 0.0012281801 0.0045015225 -0.00018508684
-0.021984488 0.011027859 -0.0020086302 0.015078901 0.003282698 0.005870852 -0.009343329 -0.051504724
0.059960373 -0.045652933 0.005309948 -0.04043183 -0.059657864 0.0099525275 0.01933642 -0.032169856
-0.032763503 0.011304257 -0.044803355 0.017602645 0.001494192 0.010615917 0.0049253823 -0.056183066
0.014076127 -0.012837736 -0.0033634545 -0.033310726 -0.0027975782 -0.008082477 0.020413335 0.046829794
-0.012544571 -0.009614727 -0.014758228 0.0012071644 -0.004962179 -0.044800825 -0.00027172724 0.01471355
-0.015227547 0.015336649 -0.0016505406 -0.022559416 -0.013972275 -0.03641061 -0.012027675 -0.023002446
-0.000562149 0.010468979 -0.012895462 -0.0121041 -0.06809317 -0.01116077 -0.0029043157 -0.04552839
-0.0041862843 0.009680989 0.023713809 -0.0006636463 -0.010470383 -0.03729471 -0.0055139046 -0.0034903113
0.07376358 -0.0045963745 -0.03978735 0.021097206 -0.061578933 -0.0026087132 -0.039520934 -0.014916853
-0.0064346767 0.031098032 0.0066892034 0.012698368 -0.0033330277 0.0021873214 0.010000248 -0.0001096353
0.01912434 -0.012072379 0.016096253 -0.05865476 -0.039480895 0.009478339 0.0015702068 -0.0095242215
0.010359747 0.005807023 0.00055008946 -0.04942266 0.060540654 -0.0020065513 0.09709075 -0.018002357
0.013255827 0.057952087 -0.004414315 -0.011083397 -0.056138575 0.012848728 -0.009140626 -0.021033255
-0.017254945 0.0035352986 0.010090025 -0.0027514151 -0.066137604 0.0065684495 -0.04223712 -0.021176413
-0.034484543 -0.0020611905 0.0036379546 -0.009371377 0.013599044 -0.030334482 0.021783618 0.010287279
-0.0039522722 0.0059948796 -0.017465716 -0.007898628 -0.025902694 -0.0007897818 0.00044230893 -0.051269434
0.018889695 -0.008783146 -0.051143806 0.024701752 -0.060199443 -0.043947898 -0.02874683 0.018871836
-0.03859613 -0.009140343 -0.00051752466 -0.021050628 0.014094137 -0.013607203 -0.017319491 0.0076798005
0.01458689 -0.00020923924 -0.071333475 -0.003031285 -0.0035680237 -0.01673352 -0.034313284 -0.0036069027
-0.0032762608 -0.010700388 0.020801496 -0.029411178 -0.0017350003 -0.005668338 -0.007823656 -0.056901906
0.026709212 0.022453517 0.0006823625 0.013511341 -0.061276015 0.015803197 0.00890723 -0.06497383
-0.027635908 -0.0013367428 -0.013901241 -0.019023519 -0.010775952 -0.033375017 -0.020443717 -0.039146263
0.014629825 0.0058254492 -0.0071047167 -0.028401522 -0.023237823 0.022243489 -0.014283952 -0.008988645
0.015948625 0.01237758 -0.051195335 -0.001556277 -0.019484831 -0.025176011 -3.4690056e-05 0.010398348
0.024367625 0.01654278 0.007142244 0.010533788 0.008160175 -0.04589802 -0.033472486 0.011055666
-0.022689149 0.0014560886 -0.0510838 -0.00757973 0.005429642 0.01630811 -0.006868234 -0.0041957847

network_body._body_endoder.seq_layers.0.bias f4 [256]
00000000: 9265 39bc f152 973c d078 aebb dcc6 b0bc
00000010: 165a 05bb 76ba 2ebc 8b1c 1c3b df25 65bc
00000020: 81fb 8bbb c192 54bc 228b b33c bf7d 983b
00000030: b695 913c 6508 58b9 745a 553c a5a6 3a3b
00000040: c44d 6c3c 4834 cf3b 8d57 e93a fa60 ca3c
00000050: d2d9 9f3b 3dc0 73bc 8af2 5e3b be34 e5bb
00000060: 089a e23c 2aca 503c 6b85 f9bb bec6 823c
00000070: c743 a43c bfc5 19bb fde3 423d 4f08 453c
00000080: 49bd 78bc 65e8 a2ba 170a 9fba ae93 98ba
00000090: d238 91ba d91a a4bc 2ee1 d2bc aa20 adbb
000000a0: a55e a73c 7d81 5ebb a26d 6c3c b0b8 cf3b
000000b0: 45b0 fb3c 71af 65bb 34ba 313c 4978 d13b
000000c0: a026 bd39 488d 16bb ebbb 4c3c bf02 003b
000000d0: 6c0f ce3c adce 49bb ada6 4fbb 9d4c c83b
000000e0: 161e 643c c9a6 c83c 8b2c f3bb c10c a73b
000000f0: 2060 073c bbe0 8dbc 2159 973b 5d11 88bc
00000100: 33c8 5dbc 250b b23c 5326 5cbb 8394 15ba
00000110: fe89 11bb d9bb 00bb 2781 d63b 250b 253c
00000120: 2066 74ba 5901 1c3c 1c8a 8e3c 46c1 35bb
00000130: 1d24 883a 2505 003c 8fe1 8bba bb4d 383d
00000140: 7337 c73c b536 40bb 3d4a 6a3b 1c70 2cbc
00000150: 23c6 0b3d 7ecd 10bc 17b1 113b 1103 a4bc
00000160: 2dbf 1c3b 4fa3 963c 7ba6 733a 089b ad3c
00000170: 868c 04bc d815 423b d46a 7dbb 58d4 1d3c
00000180: d6be 6b3c b4f0 013b e18d 2bbc d203 89bc
00000190: cc7e f5bc 093f 8f3b 5015 ba3c 5a1c 54bc
000001a0: be85 39bb 160e 06bc 7f66 213c fd8d 273d
000001b0: 3a45 59bc ec48 ad3b b655 96bc 9d60 e93b
000001c0: 301f cd3b d6b9 053a c9dd d0bb 5b44 19bc
000001d0: 2e9b b23b 9460 7abc d055 70bc 7e6f 30bb
000001e0: 1cfc 86bb 14af e13b 07bd a6bb 25c4 9cbb
000001f0: bef5 bcbb d537 32bc a5a4 84bc 084c d83b
00000200: 5dc6 e2bb ff66 d63a c6b8 33bd 3757 373c
00000210: 978e 093d 6a14 c0bc 073a 403d 7ebc a8bc
00000220: 7fd8 5e3b 0817 67bc 2f08 94ba ded4 a739
00000230: 56a5 043d 5a28 66bc d46c 9abc 52bc 253d
00000240: aab2 bab9 cf6a 3abc 5fdd 0abc 2679 6b3c
00000250: e868 8dbc def7 ca3b 7261 4bbb d479 a4bb
00000260: 0f6d aa3c 0fe3 b1bc 4a59 1a3a fe34 d93b
00000270: f437 faba 5e2a 81bc 2e43 f1bc 9557 ad3a
00000280: 7a1e efbb b497 f9bc 1f45 313c 8af5 cdba
00000290: b134 2dbb 449b e63c b657 8bbb 492e a33b
000002a0: d95c 31bc eac9 06bb dc2e 863c 5307 413d
000002b0: 93b6 0c3d 80b1 47bc 6c15 0bbc 6b83 d0ba
000002c0: 0ee4 a2bb 8957 3dbb a574 9dbc 8f7d 623b
000002d0: defc 43bc 86ae 3a3c c3fe 4ebb 6cd1 d23c
000002e0: c05c 833c 21ac ce3a e4cb 28bb 058c ac3c
000002f0: bf4d ea3a 43f5 a1bb 38ea 81bc 5218 b7bb
00000300: d083 083d 60f4 60bc 036c 5ebc 808f 0b3b
00000310: b026 e8ba c75c 363c b409 2d3c a136 053c
00000320: f973 d83c 7e11 c9bc 8ffd a6bc e754 a83c
00000330: adb0 0c3c c071 0dbd 6520 bf3b aaa9 6a3b
00000340: 5269 483b 7a67 d4b8 1e43 b03b 1cbf 6a38
00000350: f148 803c 90a2 773c 031b b03c faf7 d33b
00000360: 1b45 c8bc 279e 64bc 07dc 9b3b 7aaa 2dbc
00000370: dbc5 87bc 5c8b 9abc 2d50 f33b 479d b7bb
00000380: b5ac c8bb e358 08bd c9b1 8f3c c50f 80bc
00000390: 4ea7 1cbc 1494 faba 2913 223d 063a 5f3c
000003a0: 749e 1c3d d86c 633c 6dfe 0c3c c7a5 863c
000003b0: 1d80 e73b 080e d6bc 1a7c 0739 9385 1b3c
000003c0: ac31 19bc 7157 bd3c 8059 92bb 28fa 7cbc
000003d0: d799 5dbb a9f3 913c a643 943c 528e 073c
000003e0: 4c5b bf3b 53e0 18bb dc1e 233d aa39 fa3b
000003f0: b9a9 143c 5f0e 72bb a0f4 82bb 8848 0e3c
-0.01131572 0.018472167 -0.0053244606 -0.021579199 -0.0020347885 -0.010664573 0.0023820724 -0.01398608
-0.004271925 -0.012974442 0.02191693 0.004653662 0.017771583 -0.00020602492 0.013022054 0.0028480676
0.014422838 0.006323371 0.0017802581 0.024704445 0.004878261 -0.014877376 0.0034019076 -0.0069948127
0.027661338 0.012743512 -0.0076147816 0.015963908 0.02005185 -0.0023463813 0.047580708 0.012025907
-0.015181848 -0.0012428878 -0.0012133744 -0.0011640692 -0.0011079556 -0.020032333 -0.02574214 -0.005283435
0.020430872 -0.0033951693 0.014430435 0.006339155 0.0307237 -0.0035047198 0.010847617 0.006392513
0.00036077667 -0.0022972394 0.012495975 0.0019532887 0.025153838 -0.0030793354 -0.003168504 0.0061126486
0.013923189 0.024493592 -0.0074210814 0.005097956 0.008262664 -0.017319074 0.0046187793 -0.016609842
-0.013536501 0.02173383 -0.003359218 -0.0005706029 -0.0022207494 -0.0019643216 0.006546158 0.010073458
-0.0009323079 0.009521806 0.01739984 -0.0027733608 0.0010386739 0.007813727 -0.001067208 0.044996005
0.024318432 -0.0029329483 0.0035749816 -0.010524776 0.034124505 -0.008838056 0.0022230798 -0.020020993
0.002391766 0.018388418 0.0009294522 0.021192089 -0.008090144 0.002961507 -0.003866841 0.009633146
0.014388761 0.0019827308 -0.010470838 -0.016725454 -0.029967688 0.004371528 0.02271524 -0.012946213
-0.0028308476 -0.008182069 0.009851097 0.040906895 -0.013261134 0.005288234 -0.018351417 0.007122113
0.0062598214 0.0005101239 -0.006374095 -0.009354676 0.0054506278 -0.015281815 -0.014668897 -0.0026921923
-0.0041194092 0.006887326 -0.005088452 -0.0047841244 -0.0057665994 -0.010877569 -0.01619179 0.0066008605
-0.0069206194 0.00163576 -0.043877386 0.011190227 0.03358325 -0.023447234 0.04693034 -0.020597693
0.0034003553 -0.014104612 -0.0011293943 0.0003201132 0.03238424 -0.0140477065 -0.018850721 0.0404628
-0.000356098 -0.011378004 -0.008475631 0.014372146 -0.017261937 0.006194099 -0.0031033424 -0.005019406
0.020803956 -0.021714715 0.0005887939 0.0066286316 -0.0019090162 -0.015767273 -0.02945098 0.0013224954
-0.0072973343 -0.030467845 0.010819702 -0.0015713435 -0.0026429112 0.028150208 -0.0042523993 0.004979883
-0.010825359 -0.0020567128 0.016379766 0.047126126 0.034353804 -0.012188315 -0.008488994 -0.0015908306
-0.004971034 -0.0028891286 -0.01922066 0.0034559702 -0.011962144 0.011394149 -0.0031584955 0.025734626
0.016035438 0.0015767851 -0.0025756294 0.02106286 0.0017875953 -0.0049425676 -0.015858755 -0.005587616
0.03332883 -0.013730139 -0.013575557 0.002129525 -0.0017711725 0.011130518 0.010561395 0.0081307
0.026422488 -0.024544474 -0.020384578 0.020548297 0.008587045 -0.03453231 0.005832719 0.0035806694
0.0030580354 -0.00010128222 0.0053790947 5.5967932e-05 0.015659781 0.0151144415 0.021497255 0.00646877
-0.024447015 -0.013953722 0.004756454 -0.010599727 -0.016573837 -0.01886528 0.007425329 -0.0056034657
-0.006124104 -0.033287894 0.01754083 -0.01563252 -0.009561373 -0.0019117617 0.039569054 0.013624674
0.03823705 0.013880931 0.008605582 0.01643647 0.007064833 -0.026129737 0.00012920835 0.009492296
-0.009350222 0.023112984 -0.0044662356 -0.015440501 -0.003381362 0.017816382 0.018098664 0.008273678
0.005839741 -0.0023327067 0.03982435 0.0076362686 0.009073668 -0.0036934835 -0.0039964467 0.008684285

network_body._body_endoder.seq_layers.0.weight f4 [256, 108]
00000000: 2970 2b3d 4ca4 993c 2915 74be 743e e9bd
00000010: 00ab d0bd ee4d aebd f050 613d eb15 e7bd
00000020: 1423 90bd 842f 8fbe 198e 54be a872 ad3c
00000030: 899b 2e3d 1c45 263d 69a8 5ebd cf1f 02be
00000040: f034 95bd d768 cb3c f3e6 b1ba 9ff4 52bd
00000050: 6afb 8e3a 1fe7 5ebc f596 813d 1dd3 54bc
00000060: 461d 33be 0c30 d5bd 93ef babd dd5a 2bbb
00000070: d179 8abc 5fd5 083d 6913 07bb b7d1 ef3d
00000080: 0c88 ebbd 5650 263d 8ae6 823d 5b9f e33b
00000090: c0d5 e33d 089f 4abd 542b 1e3e cd54 afbc
000000a0: 7e03 48be bdc5 3abc 6042 babd 075a 433d
000000b0: 3f2c b83d 4b30 4dbe ddd0 dcbd 6393 15bd
000000c0: 6d50 143d 2bf0 48be e7f1 52be d221 a33b
000000d0: 5c92 49bd d6ac c23c 4c09 9cbc 99cc 2abe
000000e0: d1f8 ed3c a018 5dbe 9614 5d3d 348a 893c
000000f0: c19a 043e fe79 8a3d 8e14 cf3d b724 623d
00000100: 2367 d1bd d3c7 e83c c0e6 03be 15b3 d23d
00000110: 5c39 243e a5e8 94bc b6ec ad3b 9eeb 7d3c
00000120: d0d2 673d e667 de3d aab1 55bd ad33 b8bd
00000130: 8d65 913d 539b b93d 7e0a dfbb 30c5 183e
00000140: 45a6 8dbd 39cf 04be 4f15 eebd a7e2 293d
00000150: 2560 32be 94c2 95bd 0a69 6e3d 05eb 0c3d
00000160: 1a1c 403d 6ad9 2bbe 904e dfbd 9c12 663e
00000170: 0432 c1bd 7980 993d a877 dfbd 7710 44be
00000180: f6c6 6dbd e985 c73d 8d65 21be 6288 803c
00000190: 1760 c13d e524 c63b 3e69 b9bd e14e 52bd
000001a0: b3c3 bfbd f133 26be a17d aebd edf5 a8bd
000001b0: 19b0 9ebd 5e2d a6bc 3ca2 ae3d 638e 253e
000001c0: 8f9c 403e a648 18be aa31 8cbd 30d1 d93d
000001d0: b3bc 293e 4d17 d0bd deec 80be 43c5 393d
000001e0: 3e80 1e3e 90b3 0f3c 84bd 563e 5354 dfbe
000001f0: ec70 7b3e 7aac 81bd 7b1b ea3d 192a 413d
00000200: 67a4 c7bb 49d6 b7bd 1520 28be 5ae4 853d
00000210: e2a2 633e fec3 f2bd ef5b adbc fae7 58be
00000220: d195 873c d735 453d a35b 913d e3fc d93d
00000230: 15d5 743c 847d 9bbd 1675 543e 9748 6bbe
00000240: 5ff0 24bd 7560 01bd 3100 61bd 32ba 61be
00000250: b524 6a3d 2825 47be f09d 9e3d c9e9 053e
00000260: b61f 653e 5b4e fdbd 54fd a5bd 597d 8b3e
00000270: a19e 0e3e a867 03bc dbc1 f7bd cf1c a13d
00000280: 76a4 99bd 20ce 0ebd 6692 a63e 0404 11be
00000290: 786a ed3d c256 81bd 92f6 d5bd 1229 11bd
000002a0: 9043 103e 2970 a5bd 6ba1 e6bc 92c2 16be
000002b0: 137b 913e c6bf b83d 67da 6dbc 0f8a 9bbd
000002c0: 1454 64bd 342b 98bd 659b dabd b287 a0bb
000002d0: 6f96 213e ca05 22bc f85b 853d 3d09 9f3c
000002e0: 5cef ffbd 7b40 ddbd bd6f 29be 4a35 64be
000002f0: 57a4 42bd 85bd 6abb 6267 62bb 56aa b3bc
00000300: fd64 023e 9d6c 27bd 7ba5 2cbb c6cf a83d
00000310: adee 663e 1fb8 79bc 9429 fbbd 5dd2 96bd
00000320: 8e74 acbd 59b0 6ebc 9805 2d3d be60 263e
00000330: 1975 c33d 3964 fd3d de72 a9be 0f60 a13c
00000340: e901 b8bb 40ae 373d 4510 f5bd bd07 0b3d
00000350: c0e6 883b 4460 8dbe 4971 cd3d ce49 853d
00000360: 6f61 263d b371 08bc feb8 93bd 8edf 7dbd
00000370: 1d8f 4abe cd1c 42bb 948d aabd e712 513d
00000380: 62be 09be 565a ecbc d90f 94bd 103f 7bbc
00000390: fcd3 b9ba 7cdb 26bd 9c91 aa3d 6726 05be
000003a0: 253f fb3d 55be 063e 6a38 9fbc a89c 10bd
000003b0: 1f51 40be 0bd5 0a3e d84f a63d 2967 ca3d
000003c0: e3fc d1bd dd05 e5bc 6414 043e 8bd8 8fbb
000003d0: d897 81bd 0632 a4bd 7f86 0e3e f15d 383d
000003e0: c3d6 0ebd 71eb dfbd d189 aebc 72b5 59be
000003f0: b493 cfbd 23ce 3f3e 5df1 87bd 7b60 42be
0.04185501 0.0187551 -0.23836197 -0.11388865 -0.10188866 -0.08510958 0.05500883 -0.112834774
-0.070379406 -0.2796594 -0.20757331 0.021172836 0.0426288 0.04059325 -0.054359827 -0.12707447
-0.07285488 0.024830265 -0.0013572857 -0.05150282 0.0010908667 -0.013604908 0.06327621 -0.012989786
-0.17491636 -0.10409555 -0.091277264 -0.0026146688 -0.01690379 0.03340661 -0.0020610935 0.11709922
-0.11500558 0.040603958 0.06391628 0.006946487 0.11124754 -0.04946807 0.15446216 -0.02140274
-0.19532582 -0.011399684 -0.09094691 0.04769328 0.08992814 -0.20037954 -0.10782025 -0.036517512
0.036209513 -0.19622867 -0.20600091 0.004978397 -0.049211845 0.023764055 -0.019047402 -0.1667961
0.029049309 -0.21591425 0.05397471 0.016789533 0.12949659 0.067615494 0.10111342 0.055210795
-0.1022475 0.028415596 -0.12880993 0.102880634 0.16037506 -0.01817734 0.005307759 0.01549807
0.05659753 0.10859661 -0.052171387 -0.089942314 0.070994474 0.09062829 -0.0068066707 0.14918971
-0.06916479 -0.12969674 -0.11625158 0.04147592 -0.17419489 -0.073125035 0.05820564 0.03440382
0.0469018 -0.16782156 -0.109036565 0.22468036 -0.09433368 0.07495207 -0.109114945 -0.19146906
-0.058051072 0.09742338 -0.15761395 0.015690032 0.09442156 0.0060468786 -0.090532765 -0.051344756
-0.093634985 -0.16230752 -0.085200556 -0.082500316 -0.07748432 -0.020285305 0.085270375 0.16167597
0.18809722 -0.14871463 -0.0684541 0.106356025 0.1657589 -0.10160694 -0.25180715 0.04535414
0.15478608 0.008770838 0.20970732 -0.43619022 0.24554795 -0.063317254 0.11431023 0.047159288
-0.0060925963 -0.089764185 -0.16418488 0.06537695 0.22230104 -0.11853789 -0.021162001 -0.21182242
0.01655093 0.04814705 0.070975564 0.106439374 0.014943381 -0.075922996 0.2074779 -0.2297691
-0.0402683 -0.03158613 -0.054931823 -0.22043684 0.057163913 -0.19447768 0.07744968 0.13077463
0.22375378 -0.12368461 -0.08104959 0.2724407 0.139277 -0.008020319 -0.12097522 0.07866823
-0.075020716 -0.034864545 0.32533568 -0.14161688 0.11592573 -0.06315376 -0.1044742 -0.03543956
0.14088273 -0.080780335 -0.028153142 -0.1472266 0.2841421 0.09020953 -0.014517403 -0.07594692
-0.055744246 -0.07430115 -0.106741704 -0.0048989886 0.15780042 -0.0098890755 0.06511682 0.019413585
-0.12496826 -0.10803314 -0.16546531 -0.22285953 -0.047520008 -0.003581853 -0.0034546484 -0.021931808
0.12733836 -0.040875066 -0.0026343751 0.08242755 0.22551985 -0.015241652 -0.1226379 -0.07364342
-0.084206685 -0.014568412 0.042241663 0.16247842 0.09543819 0.123726316 -0.3309545 0.019699125
-0.005615462 0.044843912 -0.11965994 0.033942927 0.004177898 -0.27612507 0.10031373 0.06508218
0.040620264 -0.008327889 -0.07213019 -0.061980776 -0.19781156 -0.0029619217 -0.08327785 0.051043417
-0.13451532 -0.02885167 -0.07229585 -0.0153348595 -0.0014177556 -0.04073666 0.08328554 -0.1300293
0.12267903 0.13158543 -0.01943608 -0.03530565 -0.18780945 0.13557832 0.08120698 0.098829575
-0.102533124 -0.027956897 0.12898403 -0.0043898276 -0.0632779 -0.08017354 0.13918494 0.045011465
-0.03487278 -0.10933579 -0.02130595 -0.21260622 -0.10135594 0.18730979 -0.06637833 -0.18982117

network_body._body_endoder.seq_layers.2.bias f4 [256]
00000000: 3707 1bb9 a959 91bb f505 ba3b 1922 023c
00000010: 306f 67bc b33e fbb9 def6 04bc 8213 eb3b
00000020: 8822 ccbc 0f52 6cbc b515 d5bb b9e6 a03c
00000030: 0714 933c ed63 313b 8da5 1b3c ac4c f0bb
00000040: 504c 08bc f985 003b 1c41 adba b3ae 763b
00000050: 6b80 173d 30d9 2f3b 1b75 793b 80bd 3dbc
00000060: 6709 3ebb 3397 1b3b be23 46ba 392e b93b
00000070: da51 85bb 57cb cb3b 7c17 54bc 7670 56bb
00000080: 74a9 f43c 9241 71bc 1024 a9bb 2433 143c
00000090: 8834 26bc 05c8 923a afc5 403b 3513 62bb
000000a0: a5d8 90bc 069e 4e3c ad25 df3c 58d3 8b3c
000000b0: a327 f63b d11c 703c c2f7 863b 7ad3 90bc
000000c0: e82e 4aba 22f3 f3ba b2c3 abba 57cb 56bb
000000d0: feab 1cba 5dc1 90bb bf53 97bb ddcc 46bc
000000e0: 178c ae3c 0ebd 493a bc91 8b3c f713 d13a
000000f0: cf19 ac3b 65f3 933b 3b2c a2bb 0519 103b
00000100: fe78 533a 6342 3b3b d6b8 24b9 6463 c93b
00000110: a57a 31bb c769 b0ba 47ef fbbb 2997 46bb
00000120: 9621 95bb 6fbb 56bc 9327 74bb 3ba8 d03b
00000130: 834a a1bb 7b5d 4d3c 590c cebb dcf4 63bc
00000140: f234 393c bad7 023b 328b b43b 619c 98bc
00000150: dcb1 c33b 39f3 0cbc 2b8d 103c 9dd9 873b
00000160: 934d 0abb 7517 69bb be22 843b c9cd e9ba
00000170: 5936 15bc 5356 c6bc c711 31bc 01c9 d13b
00000180: afd8 49bc 1e5c 413c ced1 4cb7 b281 8abc
00000190: 149b 64bb 3c69 49bc 3916 cebb 5bdd 103c
000001a0: fb1e 003c 2b73 dbba c788 71bb 0a86 313c
000001b0: e330 feb7 166b e039 587f ce39 402f 433c
000001c0: 4e84 39bc 395b b9ba 6ce9 d93b 6155 113c
000001d0: 0158 3dbb db34 8fbc 2786 9e3a c006 6dbc
000001e0: 4cbf 843c babf a53b 696a fd3b 698d 1fbc
000001f0: 9b09 cc3b f1f3 aa3b 568a edba d36a e13b
00000200: 3b48 3c3d 34cc c83b c486 863b 8cf1 a03b
00000210: 680c b9ba ff30 09bc b9d4 08bb 071e 013b
00000220: 9cca aabc d821 9ebc 8328 6abc abe8 3cbc
00000230: 70c6 c4bc 2225 9e3b 2be9 d03b 9111 623b
00000240: 6c69 023c c13a 49bc d006 8ebb e00a f93b
00000250: f2c5 f13a b04b c83b b154 553c 35cd 17bb
00000260: 895f 863c f2f1 e0bb e1fb 8ebc 046e 38bc
00000270: 48bd 543b e4b7 b0bb 7ab8 fe3b 1a5c 0eba
00000280: 73e7 0f3b c05d c4ba 75dd dc3b c104 843b
00000290: 2d48 04bc d989 22bc edce 6abc 2cea c03b
000002a0: f35a 883c 0624 81bc 9bf0 e4ba a1f3 8a3c
000002b0: ea7f f53b 0cec 5c3c a360 02bc ec13 063c
000002c0: 8ea8 443b bc2d 183b 5c16 48bb 7dce a5bc
000002d0: d840 03bd cfe7 c3ba 809e 24bc 0002 973a
000002e0: ca3a a8bb 27c9 9fba 6765 85bb afdc 0c3c
000002f0: 01a2 b3bc 6115 6339 5f4b c53c 5a69 0f3b
00000300: af73 cd3c 7ea4 a03c a628 363b b7c7 73bb
00000310: 5ac3 b2bc c2a4 e7bb 6bca 7d3c 45c7 193a
00000320: 3947 c6bb 55f4 d239 3285 71bb cc9c 0cbc
00000330: 7362 1cbc 37c9 0ebb 761c d5ba 5472 6fbb
00000340: ae49 093c 7d59 913b 04dd 6fbb 867c 12bc
00000350: aa5c 493b eb6d 29bc df17 c2bb 63d9 78ba
00000360: f59a 69bb 1089 a0bc c3fb 0a3b e2a8 c6bb
00000370: 6fa0 2abc ef54 e3bb acbc 6dbc 972a 1f3c
00000380: fc9a ac3b be3c 3bbc 1f15 7e3b 783f 74bc
00000390: a0f9 473c 979e 713b 937e 6b3b 36d7 13bc
000003a0: 8164 08bc e0a9 153a cb02 3dbc 094e 01bc
000003b0: 947c c2b8 48f8 ca3c ee13 bb3c 9d89 1c3b
000003c0: 0880 33bb b2ce bdbc 442e b53a 5c2a 8f3b
000003d0: 3f5f 713b 1432 6a3b 94ed 883b 04e5 023c
000003e0: b4a7 7e3b deb0 a2bb fe11 8e3b 3fe8 043c
000003f0: f2a3 b3bb 9dd2 6bbb 7130 0cbc 76ac 9b3b
-0.0001478464 -0.004435737 0.0056769797 0.0079427 -0.01412563 -0.00047921165 -0.008115498 0.0071739564
-0.02491881 -0.014423861 -0.006502832 0.019641267 0.017953886 0.0027067617 0.00949992 -0.0073333587
-0.008318976 0.0019611104 -0.0013218257 0.003764075 0.036987703 0.0026832335 0.0038064185 -0.011580825
-0.0028997303 0.0023741245 -0.00075584266 0.005651262 -0.0040685954 0.0062193084 -0.012945052 -0.003272084
0.029865958 -0.014725106 -0.0051617697 0.009045396 -0.01014436 0.0011198526 0.0029414704 -0.0034496312
-0.01768143 0.012610918 0.027239645 0.01706855 0.0075120493 0.014655308 0.0041188905 -0.017678965
-0.0007712678 -0.0018611888 -0.0013104586 -0.0032775009 -0.00059765566 -0.004417582 -0.0046181376 -0.012133804
0.021307034 0.0007695713 0.017037265 0.0015951385 0.0052521 0.004515099 -0.0049491203 0.002198757
0.00080670405 0.0028573505 -0.00015709116 0.0061458815 -0.0027081158 -0.0013459258 -0.007688436 -0.00303025
-0.004551123 -0.013106211 -0.0037255033 0.006367711 -0.0049222126 0.0125344945 -0.006288093 -0.0139133595
0.011304127 0.0019965009 0.0055097574 -0.018629255 0.00597213 -0.008602911 0.00882272 0.0041458146
-0.0021103367 -0.003556696 0.004032462 -0.0017837818 -0.009107196 -0.024211084 -0.010807461 0.0064021354
-0.012319728 0.011801748 -1.22081965e-05 -0.016907547 -0.0034882473 -0.012293156 -0.0062892702 0.008841838
0.007819886 -0.0016742697 -0.0036855207 0.01083518 -3.0301924e-05 0.00042804395 0.0003938626 0.011913121
-0.011323048 -0.0014141566 0.0066501405 0.008870454 -0.0028891566 -0.017481258 0.0012094424 -0.014466941
0.016204499 0.005058256 0.0077336323 -0.009738305 0.006226731 0.0052170684 -0.0018122892 0.0068791895
0.04596732 0.0061278585 0.004105421 0.004911607 -0.0014118077 -0.008373498 -0.0020878746 0.0019701736
-0.020848565 -0.019303247 -0.014291885 -0.011530082 -0.024020404 0.004826204 0.006375452 0.0034495334
0.007959705 -0.012282074 -0.004334308 0.0076001734 0.0018445833 0.0061125383 0.01302068 -0.0023163084
0.016402977 -0.0068647796 -0.01745409 -0.0112566985 0.0032461453 -0.005393015 0.007773456 -0.00054305943
0.0021958023 -0.0014981553 0.006740267 0.004028887 -0.008073849 -0.009920561 -0.0143315615 0.0058872905
0.01664493 -0.015764248 -0.0017466726 0.016961874 0.007492055 0.013484012 -0.00795761 0.008183461
0.0030007693 0.002322062 -0.0030530905 -0.020240063 -0.03204426 -0.0014946404 -0.010047555 0.0011520982
-0.0051339613 -0.0012190685 -0.004070926 0.008597537 -0.021927835 0.00021656371 0.024083791 0.0021882863
0.025079576 0.019609686 0.0027795224 -0.0037197897 -0.021821667 -0.007069201 0.015490155 0.000586618
-0.006050971 0.00040236363 -0.0036853072 -0.008582305 -0.0095449565 -0.0021787414 -0.0016259092 -0.003653665
0.008379383 0.0044357167 -0.0036600241 -0.0089408215 0.0030725398 -0.010341148 -0.005923256 -0.00094928424
-0.003564534 -0.019596606 0.002120719 -0.006062613 -0.010414227 -0.006937615 -0.014510315 0.009714744
0.005267499 -0.011428056 0.0038769913 -0.01490771 0.012205511 0.0036868209 0.0035933598 -0.009023478
-0.008324743 0.0005709212 -0.01153631 -0.00789214 -9.273845e-05 0.024776593 0.022836652 0.0023885735
-0.0027389545 -0.023169849 0.0013822992 0.0043690633 0.0036830453 0.0035735415 0.004178712 0.007989172
0.0038857283 -0.004964932 0.004335641 0.008112012 -0.0054821903 -0.003598369 -0.008556471 0.0047507836

network_body._body_endoder.seq_layers.2.weight f4 [256, 256]
00000000: 00f9 873d 2624 7dbb b512 cebd 51df 163c
00000010: 2819 0cbe f407 f2bd 9ea6 d23d fe2b 973c
00000020: c44d d43c 2f31 583d 78b0 2f3d 5e3b 2b3d
00000030: 96a2 8abc edbb 723d f05f b2bc 4020 92bd
00000040: 7264 b0bd 3988 903d 2eca 683a 0659 993d
00000050: 0497 71bc 4f3c a23d c5d3 3cbd 9e7f 143e
00000060: 3b21 72bd 11d1 3dbb 1f48 50bc 4edf af3c
00000070: 59f0 52bd 8b2f db3c a6ba 82bd 23e4 84bd
00000080: e3e7 49bd 2e76 8f3c 27af 9ebc 975f 523c
00000090: 1b21 d9bd d5b0 913d 0b94 113c eaa9 483d
000000a0: 501c 4dba e6b9 8e3d a767 a9bd ab2f 4cbd
000000b0: 1278 c9bb eaed abbc aad9 c4bc e59b 1cbd
000000c0: 5cdb 523c f2b0 43bd 8abc e0bb d2f5 30bd
000000d0: cfe0 5c3d c5d5 92bd 3e13 c23c a53e 223d
000000e0: 8777 053d 4d85 b4bd d8b5 7d3d 9738 68bd
000000f0: ff5d 37be f0b6 f23d 14e8 b03d 32bb fc3b
00000100: 6806 2d3e dccd b13c aad6 053d 4dcf ac3d
00000110: e90d ca3c 80f5 d53d a5d1 d8bd 9190 6d3d
00000120: 531e 99bd 2a36 70bd e8ca 8abd 32c8 84bd
00000130: b514 783d c4dd 51bd f05c 76bd ff1e e2bb
00000140: b440 82bc 6a93 b93d 5197 f2ba 20b9 053b
00000150: 90fb 6c3c 0e83 55bd 0fc3 9ebd 29dc 86bc
00000160: dd4d 21bc 4963 9c3c 7a5e 9b3c b0e6 ca3c
00000170: 105e aebd 449b b6bd b16e f8bc b2bb cfbd
00000180: a320 12bd e5b2 733d faed 9b3d 4b7e a53c
00000190: a39f 5fbd 8eae cdbd e2c5 ba3c 72d2 f7bc
000001a0: fa29 80bb 4425 cfbd de9a d0bd c784 c1bd
000001b0: 40a7 ce3b 1d3d 993d e741 29be 7aae ed3d
000001c0: fff5 25bd 554e 053d 4a6c 653d 9ac9 cbbd
000001d0: c62a 0cbc 1b4b b93d 1ea3 2ebd 6011 273d
000001e0: 22df 9d3c 8d81 823d c5a0 51bd 4022 8bbc
000001f0: dd98 ae3c 6a9a d0bd 1a46 053d 4073 73bc
00000200: e673 2cbd 59a9 963a dd42 473c 5825 ae3c
00000210: 9792 1c3d bd8a 9abd 2d35 2fbc 0782 223d
00000220: 72e1 70bd 06e3 b9bd 4230 66bd cc08 a03d
00000230: b7ec 13bd cf6f b33d 7848 d6bb f07b 253d
00000240: 5a26 2e3c 8f57 5d3c 6a6a 26bd 6b0f bdbb
00000250: 1cbd 0d3e 8eaf c7bc ae0f 123d c5f4 b13d
00000260: 9573 d5bd d705 493d f55f a1bd afed 863d
00000270: 67a8 503d d5d8 e23d 0646 35bd 8e39 07bd
00000280: f0fb 903d dbf4 283d 3361 53bd 9833 94ba
00000290: ff3d e6bd 6b8b 8f3c 7f09 8bbc 672a a13d
000002a0: 2000 cebc daad 3abd 6305 5cbd 00d9 4abd
000002b0: b73d 3dbd 88f6 41bd 3149 72bd c773 29bd
000002c0: fa61 8c3c 1110 81bc f619 3a3c 0a7b c5bc
000002d0: 5b63 eabc 8efc febd 7021 4cbc 675b 98bd
000002e0: cd07 e3bd 5ab5 c7bd 0c88 cbbd 46fa 24bd
000002f0: 0343 af39 8776 38bd 82eb 463b 6b50 933c
00000300: 2747 3b3d f590 123e b7cf a73b e418 b23d
00000310: 2c52 2dbc 708e 873d ece8 bcbd 270e 443d
00000320: 68d9 db3d bf3d 1e3d 7a60 f6bd 05b2 3bbd
00000330: 047b 973d 7a0d 173e f6fb cc3b 6c42 babd
00000340: 6651 75bd 3002 c1bd 5fa6 80bc 2739 1bbd
00000350: cdbd 72bd 7fa1 b5bd 5884 24bc 3457 83bd
00000360: 4b84 033e 6951 cc3c ad57 c0bc a11d f93b
00000370: 0a5d 613c 2cce debd dae6 dc3d b0de e73c
00000380: de67 653a 4903 323c 8756 753d bb0e 4fbc
00000390: 2a0e a53d d6f1 dd3d 4e3b 7dbb 4c22 ba3d
000003a0: 797c 88bd 54f6 aebd 933d 60bd 3618 333c
000003b0: 8dbd 80bc 080a f7bc d223 c63d 4b0b 963d
000003c0: 4ce5 553d 552b 32bc 776d 70bd a1b6 e2bd
000003d0: 8c4d 813a 1d99 c0bd 93c5 193d 78c8 a4bd
000003e0: c205 233c 632e 29b8 ae94 78bb 09c3 403d
000003f0: ad81 03bc ea4b 4a3d b3a8 e2bd a7b2 95bc
0.0663929 -0.0038626282 -0.10062162 0.009208516 -0.13681471 -0.11817923 0.10285686 0.018453594
0.025915988 0.05278128 0.042892903 0.041804664 -0.01692323 0.05926125 -0.021774262 -0.071350574
-0.086129084 0.070572324 0.0008880225 0.07487683 -0.014745478 0.07921659 -0.046100397 0.14501807
-0.059113722 -0.0028963725 -0.0127125075 0.021468785 -0.051498745 0.026756069 -0.063832566 -0.06488826
-0.04929341 0.017512407 -0.019370629 0.012840173 -0.106020175 0.07113806 0.008885394 0.048990168
-0.0007824348 0.06969051 -0.08271723 -0.049850147 -0.0061483467 -0.02098747 -0.024029572 -0.03823461
0.012869682 -0.04777617 -0.006858413 -0.043203183 0.05392533 -0.071696796 0.023690816 0.039610524
0.032584693 -0.088144876 0.061940998 -0.056694593 -0.1790695 0.11851299 0.086380154 0.007712745
0.16896975 0.021704607 0.032675423 0.08437977 0.024664836 0.10447216 -0.105868615 0.057999197
-0.07476487 -0.058645405 -0.067769825 -0.06483497 0.060566623 -0.051236883 -0.060147226 -0.0069006677
-0.015899993 0.0906132 -0.001850823 0.0020404533 0.014464274 -0.052126937 -0.07752048 -0.016462402
-0.009845224 0.019090312 0.018965948 0.024768203 -0.08514035 -0.08916333 -0.03032622 -0.10143222
-0.035675656 0.05949678 0.0761375 0.020201823 -0.0545956 -0.10043059 0.022799436 -0.030251715
-0.003911254 -0.1011453 -0.101857886 -0.094491534 0.006306559 0.074823596 -0.16529046 0.116055444
-0.040517803 0.032545406 0.056011476 -0.09950562 -0.00855512 0.09047528 -0.04263603 0.040788054
0.019271437 0.06372366 -0.051178712 -0.016984105 0.021313125 -0.10185702 0.032537557 -0.014859021
-0.042102717 0.0011494561 0.012161938 0.021258041 0.038225736 -0.075459935 -0.01069383 0.039674785
-0.05880875 -0.090765044 -0.056198366 0.07814178 -0.03611442 0.0876156 -0.0065394007 0.0404014
0.010629261 0.013509645 -0.040628828 -0.00576966 0.13841671 -0.024375703 0.035659485 0.08689264
-0.10422436 0.049077835 -0.078796305 0.06588303 0.05094185 0.11076514 -0.044256233 -0.033013873
0.07079303 0.041249137 -0.05160637 -0.001130688 -0.112422936 0.017522534 -0.016972302 0.07869416
-0.025146544 -0.045575954 -0.053716075 -0.049523354 -0.046201434 -0.04735425 -0.059151832 -0.04137018
0.017136563 -0.015754731 0.011358729 -0.024106521 -0.02861183 -0.12450515 -0.012459144 -0.074393086
-0.11085472 -0.09751387 -0.09938058 -0.04027774 0.0003342853 -0.04503491 0.0030352776 0.017982682
0.045722153 0.14313109 0.005121197 0.08696154 -0.010578673 0.06618965 -0.09224114 0.04786506
0.10734826 0.038633104 -0.1203012 -0.04582407 0.0739651 0.14751235 0.006255622 -0.090947
-0.05989208 -0.09424245 -0.015704332 -0.0378963 -0.05926304 -0.088686936 -0.010041319 -0.06413117
0.12843435 0.024941163 -0.023479307 0.007602409 0.013755092 -0.10879168 0.10786219 0.028304428
0.0008751134 0.010865041 0.059896972 -0.012637789 0.08059342 0.10837142 -0.0038640085 0.09088573
-0.06664366 -0.08543077 -0.05474622 0.010931065 -0.015715385 -0.03015615 0.09674801 0.07326373
0.052220628 -0.010874589 -0.058698144 -0.1106999 0.000986503 -0.09404204 0.037541937 -0.08046049
0.009950103 -4.033594e-05 -0.0037930417 0.047061 -0.008026523 0.049388804 -0.11067333 -0.018273665

network_body._body_endoder.seq_layers.4.bias f4 [256]
00000000: d0f6 37bc 88bd 74bc 1851 15ba 5182 0b3d
00000010: c571 743c 0c8b 84bc 1b78 973b ca73 9bbb
00000020: bec3 dd3b c6dc eebb f53d 123c db51 4bbc
00000030: 44bb 71bc fef6 f13b 0288 233d b0c9 d0bb
00000040: 2b1a 093d 4337 aa3b 57b0 db3a dd42 f8bb
00000050: 5044 17ba 922d c93b 79f8 a7bc 49e1 08bc
00000060: a33a a439 5d8e 05ba 499f 163d c2c9 d7bb
00000070: 5221 06bc 1d95 d8ba 97c3 9fbc 94ed 8d3a
00000080: 7446 073c d435 2abc 4b65 033c f541 813c
00000090: 72dc 09bb a258 fb3b e986 dd3b e59b 163d
000000a0: 217c 613b 6194 063b 8e48 bfbb a1f0 e5bb
000000b0: 42d7 53bc 3a01 1fbc b913 3fbb d2a8 73bc
000000c0: ba70 15bc 7a9a 33bb 0a36 60bc f181 233c
000000d0: c5ee bbbb 35dd 18bb 98e0 91bb d057 84bb
000000e0: 3645 0a3d 6a13 43bc 9773 b0bb 7f96 233c
000000f0: 8db5 20bc c702 65bb 966f cb3c 05fa 963b
00000100: e166 5fbb 98d2 133d 2cd1 04bc 1f0f 51bb
00000110: 563d 12bc 6811 d03a 39b7 7c3b e11f 7fbb
00000120: 3e38 813a f496 cf3b 9817 53bc 6b2d 8dbc
00000130: 7c33 eebb 6099 eabb 3a38 8b3b cf58 c53c
00000140: 38a9 fbbb ff40 25bc 1334 3dbc fb52 6c3c
00000150: 6e9a 84bb 0569 453a 8c34 0bbc 059c 07bb
00000160: a70b 06bc e3cb 2c3a 56be 0c3c 188a 80bb
00000170: ccee 2d3c 8870 083c 6657 d8bb 3331 7c3c
00000180: b9cc 923b 4dcd 183b 5af7 0a3c ce9c ab3b
00000190: 3cfa 7a3a 5c53 f83a bf9f 37bc f529 05bc
000001a0: a84d cc3b 8e1e 033c 17f3 2a3b 24ab 3abc
000001b0: 0571 e43a 1c84 a63a 5793 c73a 1b42 503b
000001c0: fc55 233d ff3d 8c3c 93a4 c43b f5fa bc3a
000001d0: 30c9 203c 92c9 21bc bd4b 10bc 06ad f6ba
000001e0: 4135 1ebc 859a 893a cb40 41bb ef98 073c
000001f0: 84a9 06bc a293 3e3b f4ad 7439 3fd2 dabb
00000200: 0336 be3b d511 723c 2e06 d13b 212e 853c
00000210: 86d4 13bc 2cba bc3b 6ece ac3b c3e0 e83b
00000220: e52b 093c 2af3 db3b 0a30 32bc 35db 3d3b
00000230: b939 493d 491f 7abc eec7 083d d763 8eb7
00000240: f1a4 0f3c c68a c73c c4c6 36bb f89d d2bb
00000250: 6095 cd3a 212d 5c3c aa27 1ebc 68df 8c3b
00000260: 0b60 b6bb a6e6 8dbb d65f 98bb f7a3 423a
00000270: 02ed 273b 186a c1ba 1641 64bc cc81 80bc
00000280: ce1b 02ba 1e5b 5abc ba3b bbbb 31ab a43a
00000290: 2c66 c4ba b3eb 133c 9d42 503b 54e1 d93b
000002a0: 9557 a5bb c7ef f03b 7c4a babc 20d6 3bbc
000002b0: e463 17ba d46c ec3b 1cae 17bc 75e6 dabb
000002c0: 8ca0 883c bde6 263c aec5 09b8 4504 f53c
000002d0: 78a5 dfbb f319 f63b b51c 88bb 1a74 dc3b
000002e0: 293b f1bb 0046 fbbb 23b7 99bb f474 9cbb
000002f0: 39df f33a 7ad8 b4bb 286d 7abb 6329 9b3b
00000300: bfae 123c c2d1 41bc 801f dbbb 127c 99bb
00000310: a4d6 d0b9 e9ba 6c3a df1e 15bc d1a8 5e3b
00000320: 2fe4 443b c6cb c4bc c408 6c3c c96d 00bb
00000330: 3581 473b 1f68 47ba 4011 2abc 49f4 4c3b
00000340: ade0 9c3b 93bc 1a3b a7b8 2bbc c8e7 9e3c
00000350: 6cce 913b d41a a03c 34c7 993c cbe4 e3ba
00000360: 5865 97bc fe89 563a 77f2 34bc 62d4 01bc
00000370: 1c53 19b8 61ca 45bc 0256 433b 4774 69bb
00000380: c347 52bb e86f dd3b dc96 213b 5973 db3b
00000390: abce 613b 0138 593c 2d0d 27bc 233f e6bb
000003a0: fe9d 193c 27d9 513c f04a 1f3c bbd2 ac3b
000003b0: 2beb 08bc cce6 9d3c 4ef1 593b 241f 493b
000003c0: 94cc f33b 5f48 9f3a 66e3 2e3b e071 5b38
000003d0: 4b8e 44bb fd14 9fbb 9c01 28bc 14db 93ba
000003e0: ae18 3ebc 78fc 9d3b f486 29bb 3cae 173b
000003f0: 3490 a83c 6cd4 113c fceb d2bb 4d37 2cbb
-0.011228278 -0.014937766 -0.0005695983 0.034059826 0.014919703 -0.016179584 0.004622472 -0.0047440277
0.006767719 -0.007289502 0.0089259045 -0.012409653 -0.01475412 0.00738418 0.03992463 -0.0063716993
0.03347222 0.005194576 0.0016760927 -0.00757633 -0.0005770372 0.0061394656 -0.020504223 -0.008354493
0.00031324205 -0.0005094761 0.036773 -0.0065853307 -0.008186655 -0.0016523931 -0.019502444 0.001082825
0.008256543 -0.01038881 0.008019756 0.015778521 -0.0021035937 0.007670478 0.0067604673 0.036769766
0.0034406262 0.0020535218 -0.0058375066 -0.0070172106 -0.012929739 -0.009704882 -0.0029156043 -0.014871793
-0.009121114 -0.0027405308 -0.013684759 0.009979711 -0.0057352507 -0.002332521 -0.0044518225 -0.0040387884
0.03375741 -0.011906484 -0.005384873 0.0099846115 -0.00980891 -0.0034944282 0.024833482 0.0046074414
-0.003408842 0.03608951 -0.008106511 -0.0031899882 -0.008925756 0.0015874328 0.0038561358 -0.0038928913
0.000985868 0.0063351337 -0.012884043 -0.017233571 -0.007269321 -0.007159397 0.004248646 0.024090199
-0.0076800846 -0.010086297 -0.01154806 0.014424081 -0.0040467298 0.0007530603 -0.008496415 -0.002069236
-0.008181489 0.0006591661 0.0085903015 -0.003922712 0.010616016 0.008327611 -0.0066022156 0.015392589
0.0044799712 0.0023315728 0.008481825 0.0052371984 0.0009574031 0.0018945741 -0.01120752 -0.008127679
0.0062348433 0.00800289 0.0026084834 -0.011393342 0.0017428702 0.0012704167 0.0015226406 0.0031777683
0.039876923 0.017119406 0.006001064 0.0014418053 0.009813592 -0.009874718 -0.00880712 -0.0018819876
-0.009656251 0.0010498321 -0.0029488083 0.008276208 -0.008219127 0.0029079695 0.00023334456 -0.0066778953
0.0058047785 0.014774759 0.0063789105 0.016257348 -0.0090228375 0.005759498 0.005273632 0.007106872
0.008372282 0.006712337 -0.010875711 0.002896977 0.049127314 -0.015266248 0.033393793 -1.697421e-05
0.008767352 0.024358165 -0.002788947 -0.0064275227 0.0015684776 0.013438494 -0.009653011 0.004299093
-0.0055656484 -0.004330474 -0.0046500964 0.00074249454 0.0025623445 -0.001475635 -0.013931533 -0.015686892
-0.00049632497 -0.013327388 -0.005713907 0.0012563226 -0.0014984063 0.009028363 0.0031777986 0.0066491757
-0.005045841 0.0073528024 -0.022740595 -0.011464626 -0.0005775078 0.0072151218 -0.0092578195 -0.0066803047
0.016678117 0.010186848 -3.284745e-05 0.029909262 -0.0068251453 0.0075104176 -0.004153813 0.0067277076
-0.007361789 -0.0076682568 -0.004691021 -0.004774684 0.0018605954 -0.00551897 -0.0038212035 0.0047351583
0.0089527955 -0.011829795 -0.0066871047 -0.00468398 -0.0003983277 0.00090305373 -0.0091015985 0.0033975134
0.0030043235 -0.024022948 0.014406387 -0.0019596687 0.0030442004 -0.0007606763 -0.010380089 0.0031273535
0.0047875256 0.0023610934 -0.010481036 0.019397631 0.0044496562 0.019544043 0.018771745 -0.0017386911
-0.018480942 0.00081840146 -0.011044136 -0.007924171 -3.6555444e-05 -0.012072177 0.0029805903 -0.0035622285
-0.003208623 0.006757725 0.002465657 0.0066971 0.003445546 0.013257981 -0.010196012 -0.0070265695
0.009376047 0.012808121 0.009722456 0.0052741445 -0.00835685 0.019275092 0.00332554 0.0030688727
0.007440159 0.0012152306 0.0026685833 5.2319723e-05 -0.002999204 -0.004854797 -0.01025429 -0.00112805
-0.011602564 0.0048213564 -0.0025867792 0.0023144623 0.020576574 0.008900743 -0.006436823 -0.002627808

network_body._body_endoder.seq_layers.4.weight f4 [256, 256]
00000000: 91cd 163e 6ece 0d3d 9d7a 48bd 8eea 693d
00000010: bef3 f8bc bad0 79bc d19b a6bd 8be2 17bd
00000020: f80d 6bbc 4f76 8b3c 0459 df3b 76e4 14bd
00000030: 12d1 ea3d e54f 39bd 07e9 8f3d 9ec9 5dbd
00000040: 5f72 4a3d b185 09bd c9ed ce3d ef2d 85bc
00000050: 950f 2b3d 0a55 6bbd 0b22 4bbd d667 21bc
00000060: 0e13 d8bc d6ac 8dbc 6b15 7e3c d982 933d
00000070: 80b5 acbc 97e3 0c3d e6da 7b3d 8fdc a43d
00000080: a7a6 57bd 280c ae3c 0721 a5bd 0797 6a3c
00000090: 28a0 c7bd f905 59bd 9602 00be 41a7 6abd
000000a0: 518c 76bc 5b45 8f3c 0cbb 133d 5a61 0cbd
000000b0: 0a99 993c 5a01 8a3d 03a2 86bd 2ec7 36be
000000c0: 4045 2c3d 63aa da3c 7d3f 213d 6c4a c9ba
000000d0: 088e 363d 40bb 99bc 006c 39bd d2be 3b3d
000000e0: 746e a93c 59b3 2a3d f79a 82bd 26fc 17bd
000000f0: 7078 3cbd 7117 6a3d 1cfd 3dbd 6edc 943d
00000100: 8067 08be d4e7 a0bd e650 0fbd ab52 bbbb
00000110: 6256 ef3d 7dd8 d7bc 6b52 9d3c f7a6 5bbd
00000120: 05fa 893d 8e2d a93d c999 113c aa4c 823d
00000130: d7a7 ed3c 45d1 9c3d 8679 afbd 849a 453d
00000140: 3308 973d c2a9 80bd cfd0 8cbd 5ff3 133d
00000150: 9e9e cabd 371e 03bd fbb5 98bd 019c 65bc
00000160: 2300 79bd 0dc6 04bc a978 2f3d 1fcb 403c
00000170: 106d 513d ff8f 013c 6ee8 153d 8275 33bd
00000180: 357d 3b3d 0d8c 2abd efd8 41bd 214a 593c
00000190: 0327 72bd 82f4 77bd 1c23 873d 1304 b23d
000001a0: 28ca 92bd 7f11 febc 3575 e13c 5236 c8bd
000001b0: 6464 67bc 9eb9 92bd 6b14 783d fe98 62bd
000001c0: b2c6 62bd 7da6 dbbb 7dd7 683d 5300 81bc
000001d0: 0c77 13bd c3f4 b43d b928 8abd 8cee 2a3d
000001e0: c71c 80bd 6468 a43d 4570 04bd 1c2b 8a3c
000001f0: d6fc 00bd d199 77bc cfc0 62bd c1c2 43bd
00000200: f0af f2bd 42de 88bc 9505 7cbd f7e0 463d
00000210: be1d bb3d fbc7 4bbd d3ec 1fbd 8c38 27bc
00000220: 4b2a cf3c 25ee 8cbd d1bb c1bd 6c2b 413d
00000230: 2953 a53c 07c3 4fbc 9ca5 87bc fefb a6bc
00000240: 7fbb 763c 6330 693d 5a3a 683d 755b ebbd
00000250: ed6d e3b8 e8fb 14bd fb13 49bd e8a2 6b3d
00000260: 81e5 94bd ced1 7cbd 2680 863c a887 243c
00000270: cab1 d43b df65 8abd 1e7d 72bd eefd 55bd
00000280: 822c 693d 2249 c8bd 0787 16bd 19e3 11bc
00000290: fedd a5bc 8a84 783c 32aa 6cbd 7640 c93b
000002a0: ec74 7c3c fda4 f33c b4a0 113c ac6a 12bd
000002b0: cbd5 c1bd 3eba b6bd a336 9bbd 3de8 b6bd
000002c0: f0fe a3bd f064 81bc b795 b83d 2c38 1cbd
000002d0: 6271 383d f414 823d 0a0b 08bc a5f0 f73d
000002e0: 1956 bb3c 7f8c 06bd 51e8 a23d a6d7 0abc
000002f0: ab7d b3bb 903a ffbc f9d7 f73d fd4c a03b
00000300: 0c55 a23d 06ab 15bc a231 7f3c bfc3 58bd
00000310: f7fe 733d f22b 62bd 793e c33c a17b f13c
00000320: 5dd3 cabc 8553 593d 77de d43b b873 32bd
00000330: a6de bf3c 0bde 67bd f02c 483d 478b 94bd
00000340: bda2 4cbd 0cfa 50bd 36d6 ecbb 9e66 0bbd
00000350: e2e3 1dbd c9a8 7f3d 3d9f 1d3d d85e 7ebd
00000360: 1aad 1ebd f5b3 303d 09c5 8f3c 5717 113c
00000370: 17de babc 227a 4c3d d6b2 853a d881 47bd
00000380: 65e0 b83c 151d f3bd b10d 193d a00e 70bd
00000390: 8e73 abbd 1b16 0e3d 6fa4 f93d e84c a0bd
000003a0: 43f1 043c dc61 ad3d 16cf 043d 922e c0bd
000003b0: 4384 4a3c 461a e73b c1f8 f9bd 4ca5 26bd
000003c0: d8d6 19be ffd1 633d b93a 99bd 8b5a ae3c
000003d0: 64bb bc3d 6d95 cebc 892d fd3c 0ad2 6bbd
000003e0: f20d 74bd 523e aebd fd82 24bd 29da 9dbc
000003f0: ee18 68ba 3819 453d 8d35 c83c c736 fabb
0.14726855 0.034620695 -0.048945058 0.057108454 -0.030389663 -0.015247518 -0.08135188 -0.037081283
-0.014346592 0.017024187 0.0068160314 -0.03635069 0.11465658 -0.04524221 0.07026868 -0.054147355
0.04942548 -0.033574764 0.10103948 -0.016257254 0.041762907 -0.057454146 -0.049593013 -0.009851417
-0.026376273 -0.017294329 0.015508036 0.072026916 -0.02108264 0.034396734 0.061488055 0.08049881
-0.052649166 0.02124603 -0.0806294 0.014318234 -0.09747344 -0.05298421 -0.12500986 -0.057288412
-0.0150481025 0.017489126 0.036067054 -0.03427253 0.018749733 0.06738539 -0.0657387 -0.17849419
0.04205823 0.026692575 0.039367188 -0.0015357262 0.044569045 -0.018766046 -0.045269012 0.045836277
0.020682551 0.041674946 -0.063772134 -0.037105702 -0.046013296 0.05715126 -0.046383962 0.07268606
-0.13320732 -0.07856718 -0.03498926 -0.005716642 0.11686398 -0.026348347 0.019204339 -0.053626027
0.067371406 0.08260642 0.008886763 0.06362279 0.029010696 0.076571025 -0.08568101 0.04824306
0.07374611 -0.06282379 -0.068757646 0.03612077 -0.09893535 -0.032011237 -0.07456585 -0.014014245
-0.060791146 -0.00810386 0.04283968 0.011767178 0.0511294 0.0079078665 0.036598615 -0.043813236
0.045773704 -0.04163747 -0.047326025 0.013262303 -0.059119236 -0.060535915 0.065984935 0.08692183
-0.071674645 -0.031014202 0.027521709 -0.09775986 -0.014123056 -0.0716431 0.060566347 -0.055321686
-0.055365272 -0.0067031966 0.05684613 -0.015747225 -0.036002204 0.08835747 -0.067460485 0.041731402
-0.06255489 0.080277234 -0.03233363 0.01686626 -0.031491123 -0.015112356 -0.055359658 -0.047793154
-0.11849964 -0.016707543 -0.06152876 0.048554387 0.09136532 -0.049751263 -0.039044213 -0.010206353
0.025288722 -0.0688136 -0.09459651 0.04716055 0.020181255 -0.0126807755 -0.01655846 -0.020383831
0.015059351 0.05693091 0.056696273 -0.114920534 -0.00010844679 -0.03637305 -0.04909132 0.057528406
-0.07270337 -0.061723523 0.016418528 0.010042109 0.0064909207 -0.067577116 -0.059201352 -0.05224412
0.05692721 -0.09779574 -0.036749866 -0.008904242 -0.020247456 0.0151683185 -0.0577795 0.0061417175
0.015408736 0.029741758 0.008888412 -0.03574626 -0.09464606 -0.08922242 -0.075787805 -0.08931015
-0.0800761 -0.015795201 0.09012931 -0.038139507 0.045030005 0.06351653 -0.008303413 0.12106446
0.022868203 -0.03284883 0.07954467 -0.008474266 -0.0054776273 -0.031155854 0.121017404 0.00489199
0.07926378 -0.009135013 0.015575798 -0.052921053 0.059569325 -0.05521769 0.0238335 0.029477896
-0.024758989 0.053058166 0.0064962464 -0.04356739 0.023421597 -0.05660824 0.04887098 -0.072531275
-0.049959887 -0.051019713 -0.0072276844 -0.03403341 -0.038547404 0.062416825 0.03848194 -0.06210217
-0.0387393 0.04314037 0.017550008 0.008855662 -0.022810979 0.049921162 0.0010200392 -0.048707813
0.022567937 -0.11870781 0.037366573 -0.058607697 -0.0837165 0.03468905 0.12189566 -0.07827169
0.008114162 0.08465931 0.032424055 -0.093838826 0.012360635 0.0070526926 -0.12205649 -0.040684983
-0.15023363 0.05562019 -0.074819036 0.021283409 0.092154294 -0.025217736 0.030905502 -0.057573356
-0.05958361 -0.085079804 -0.040163983 -0.019269066 -0.00088538125 0.048119754 0.024439598 -0.0076359245
