Assets/Training/results/track1_learned/config_track1/config_track1-1499951.onnx (onnx, 642369 bytes, 9 tensors)

action_model._continuous_distribution.log_sigma f4 [1, 2]
00000000: 03c7 babd a98b 2bbf
-0.0911999 -0.6700998

action_model._continuous_distribution.mu.bias f4 [2]
00000000: 9ffb a8bb 9358 f23b
-0.0051569487 0.007395813

action_model._continuous_distribution.mu.weight f4 [2, 256]
00000000: 6b3f 72bd 1284 1dbc e69f 09bc e8e2 d53d
00000010: 0b56 fe3b 8285 c7bc cb6c 883b 0e97 85ba
00000020: e969 e03c 5b32 18bb 302d 673c eec2 b6bc
00000030: fdc4 2ebc bac5 3a3d 8f51 b53d aa72 6bbb
00000040: 0ad5 663d 8590 13bd f461 a1bc fd45 31bd
00000050: c1ce 83bd e2f3 57bd 00b8 21bd 09b3 0ebb
00000060: 5b00 93bc 2304 3dbd 2411 c43d a4e1 d8bc
00000070: 3343 20bc b6a5 eeba 7f5c dbbc c1a3 ce3c
00000080: dba0 a53b 197a 413c 9fee fbbb 0140 653d
00000090: 54a1 633a 90ab 333c 5aea 543c 9335 c43d
000000a0: 214b 093a 64d6 e4bb 988a d5bb 82b8 623b
000000b0: f46e 12bd e47b 1f3b 7b0f c43c 8624 513b
000000c0: 15e1 33bc fc86 493c 1041 57ba e491 633c
000000d0: c46a 393b 0f48 4c3d 736c 6fbc 0298 4dbd
000000e0: dc19 083e 53e6 16bd baa0 123c 6abc 48bd
000000f0: b7cb 8bbd eb06 2d3c 47c1 a13d 7d57 27bd
00000100: 3928 00bd 2f8b 8e3d 59c0 3abd 77e6 cf3c
00000110: 7a0c 3b3c 099a 6d3d 7b70 ab3c 3433 65bd
00000120: 4a99 ae3c b5f5 29bc f9d3 c6bb 1aaf 75bc
00000130: 90cc c83a 554c 153d 625a de3c 4b6f 9e3d
00000140: 966e 8fbc 3897 0abc 8329 e3bb 79e9 533b
00000150: f41a 40bb 68ca 35bd 23b7 3cba 4725 8b3c
00000160: c0c0 693c 72db 8e3c 8c0c 30bb e2e8 5ebc
00000170: 3bb5 df3c 33e6 23bd a4ef 4cbc 9745 9bbb
00000180: b806 bf37 7c2d 823c 007b 93bc ca28 edbb
00000190: 9cff 97bd c654 2fbc 2632 e4ba dad5 41bd
000001a0: 9e93 36bc 9f96 5a3c 1c70 cb3c 10f1 0c3b
000001b0: 9ca8 f5bb 6593 21bd a769 4abb 55e9 b4bb
000001c0: 6c24 023e 4c1c 2c3c 102f 37bd 5406 473d
000001d0: bf57 8ebd c431 41ba 4d5f 03bd 2a99 4a3d
000001e0: 6c5c bcbb e250 013d 0a79 e63b 0dcf 713c
000001f0: 13ec 97ba 712d 823b b2c8 803c 3238 263c
00000200: 1340 ac3c 77b0 31bc a4d1 5d3c 38bd 7bbd
00000210: a649 0ebd 35b0 2e3c 5261 bf3b 4e80 303d
00000220: b27b 413c a130 823b ca6c 653b 3143 69bd
00000230: 483e dc3d 5c1b be3c 022a 1e3e 22c3 a43b
00000240: b78a 743c 602e c83d c54f 1e3c c18e 2bbc
00000250: e52e 82bd 4014 a13c a415 e23b cb0b bfbc
00000260: b3a2 8abc 75ca 353b 513c 5a3c f40f 72bb
00000270: e76e 84bd 8c4f fb3b 4adc 32bd 9a92 06ba
00000280: 9df7 29bd ea02 76bb 566f 993a 4784 6dbb
00000290: fbca 443c 2f2d 16bd 7779 c33c c265 ec3b
000002a0: 8828 33ba 1602 b33c 0806 a93c eb27 36bb
000002b0: a172 e7bc 6d55 c8ba 1566 a0ba 4b7d 82bd
000002c0: 706a c23c fb77 e1bc 13f2 70bd 43ad a53d
000002d0: 5780 87bd 691f 41bd 56fb cebc b5bd b23c
000002e0: 36ed 23bd ba1d 2bbc a931 10b8 1033 abbc
000002f0: 0e0d 903c 8cc0 ffbc d5a2 5cbb 1429 323c
00000300: d1ff a43c 3753 a43a 9a2d 9bbd 5d49 2ebb
00000310: 3bec 093d 52c1 b5bc 9ae1 96bc 5899 a53a
00000320: 9bfd 163b b4b0 9b3c 0a8c 163d fef9 e9bc
00000330: 263d 90b9 9a73 c037 3a71 4aba e6bd 89bd
00000340: 7702 103d 9c3b 3f3d 4835 a93a 1150 b83d
00000350: 0034 6ebd 2f3d 583d 8cf0 c53c 5e8f 76bd
00000360: abf6 083c df0d 8db8 17f6 adbc a412 aabc
00000370: d1cd 0bbc 6e26 0fbd adc7 c0bc 0b3b 18bd
00000380: 3a0c 763c 13c1 e63b 550b 06bc 5f38 2abb
00000390: f437 f6bc fc45 d33c 4b1f 173d 146f 273b
000003a0: 263a 963c 465a a03c a6ee 63bd 6efb 0cbc
000003b0: d28b 15bc 2baf adbc 7319 8a3b 360c 513c
000003c0: f713 d63c a45b 913c 7e8f 383c 927b 5d3c
000003d0: cdd7 213c d82a 50bd 87bb b8bc 40c1 803c
000003e0: ef75 35bc 468b 5bbb 96a0 5abd b83e fd3c
000003f0: 1591 9d3d 62f3 f43c 77cf 33bb d616 9f3b
-0.05914251 -0.009614008 -0.008399939 0.104436696 0.007761722 -0.024355654 0.0041633598 -0.0010192113
0.027394252 -0.0023223374 0.014109895 -0.022309747 -0.010667083 0.045598723 0.08853447 -0.00359265
0.056355514 -0.036026496 -0.019700028 -0.043279637 -0.064359196 -0.05272282 -0.039482117 -0.0021774194
-0.017944505 -0.046146523 0.09573582 -0.026474781 -0.009781647 -0.0018207345 -0.026777504 0.025224568
0.005054576 0.0118088955 -0.007688358 0.055969242 0.00086834026 0.010966197 0.012995327 0.09580531
0.00052373303 -0.006983565 -0.006516766 0.0034594839 -0.035750344 0.002433532 0.023933163 0.0031912639
-0.010978957 0.012300249 -0.0008211294 0.0138897635 0.0028292397 0.049873408 -0.014613259 -0.050193794
0.13291115 -0.036840748 0.008949453 -0.04900781 -0.06825965 0.010560731 0.07898193 -0.04085492
-0.03128836 0.06960141 -0.045593593 0.025378449 0.011416549 0.058008227 0.020927658 -0.055957034
0.021313328 -0.0103735225 -0.0060677496 -0.014995361 0.0015319753 0.03644975 0.027142707 0.07736071
-0.017508786 -0.008458905 -0.006932439 0.0032335205 -0.002931294 -0.044382483 -0.00071989204 0.016985549
0.014267147 0.017438624 -0.0026862947 -0.013605328 0.027308097 -0.040014457 -0.012508307 -0.0047385204
2.2772103e-05 0.01589083 -0.018002987 -0.0072375285 -0.074218005 -0.010701364 -0.0017409965 -0.047323085
-0.011143593 0.013341575 0.024833731 0.002150599 -0.0074969064 -0.039447207 -0.0030885728 -0.0055209794
0.12709206 0.010504793 -0.044722617 0.04859002 -0.0695033 -0.00073697814 -0.032073308 0.049462475
-0.0057483222 0.031571276 0.007033472 0.014758837 -0.0011590741 0.003972702 0.015720699 0.010145234
0.021026647 -0.010845295 0.013538752 -0.06145975 -0.034738205 0.010662128 0.005840459 0.04309111
0.011809276 0.003973082 0.003500747 -0.056948844 0.10754067 0.023206405 0.15445712 0.0050281445
0.01492565 0.0977447 0.009662573 -0.010471047 -0.06356601 0.019662976 0.0068995524 -0.023321053
-0.016923284 0.0027739082 0.013320045 -0.0036935778 -0.064664654 0.007669395 -0.043667115 -0.00051335397
-0.041495908 -0.0037538358 0.0011706154 -0.0036242174 0.012011285 -0.036664184 0.02386163 0.007214279
-0.0006834348 0.02185158 0.020632759 -0.002779479 -0.028252902 -0.0015284248 -0.0012237454 -0.06371554
0.023732394 -0.027523031 -0.05882461 0.08089688 -0.06616276 -0.047149096 -0.02526633 0.021818975
-0.040021144 -0.010444099 -3.4378525e-05 -0.020898372 0.01758435 -0.031219743 -0.0033666391 0.010874052
0.020141514 0.0012537007 -0.07577057 -0.002659402 0.033672553 -0.022186909 -0.018418122 0.0012634201
0.0023039344 0.019005157 0.036754645 -0.028561588 -0.0002751138 2.2942015e-05 -0.00077225605 -0.067256734
0.0351586 0.046687707 0.0012909556 0.089996465 -0.05815506 0.052792724 0.024162553 -0.06019532
0.0083595915 -6.7259876e-05 -0.021235509 -0.020760842 -0.008532957 -0.03494876 -0.023532713 -0.037165683
0.0150175635 0.007042059 -0.008181413 -0.0025973541 -0.030055977 0.025790207 0.036895078 0.0025548385
0.018338274 0.019574296 -0.055647515 -0.008604867 -0.009127574 -0.02120169 0.0042144596 0.012759259
0.026132567 0.017743893 0.01126468 0.013518231 0.009878111 -0.05082211 -0.022550358 0.015717149
-0.011075481 -0.0033499761 -0.053375803 0.030913696 0.07693688 0.02990121 -0.002743689 0.004855017

network_body._body_endoder.seq_layers.0.bias f4 [256]
00000000: b3ef 9cbc 60b0 963c a3d9 23bb e6ce d0bc
00000010: f70b 88bb 5a64 25bc c1d9 933c 728f cebc
00000020: 4532 b6bb df41 e6bc a185 c53c 6711 e73b
00000030: 7eb0 c03c a392 083b 1b22 893c 2d77 493c
00000040: f095 503c 7a74 9d3c a8d6 3cbc 2c9f 1d3d
00000050: f32a ebba e827 d5bc ee11 b33a 9787 c5bc
00000060: 5e7c 913c 1a8b 913c 20af 16bc 7291 533c
00000070: 3f5b 2b3d fd13 27bb e115 7b3d 473f 6b3c
00000080: ba7c 64bc 8ea5 183c f5db 5b3c 6c80 84bb
00000090: 4c69 b6bb 75b6 d6bc 79b7 00bd 31ef 07bc
000000a0: 129c ee3c 0817 51bb 9796 0d3d ead4 ad3c
000000b0: f1e0 0b3d 6098 05bc 51ce e23c 58a3 843b
000000c0: e554 623c c09c 29bb f9f1 ec3c 5d85 45bb
000000d0: ee61 413d a946 81bc fe4b c3bb a7a2 7dbb
000000e0: 9e68 d03c d3f6 a43c a22e 013c 7bc1 833c
000000f0: 121a da3c 4cb8 e9bc f90c 9bbb 393f 34bd
00000100: d4f4 d2bc e96f f83c cbf8 7abc d669 33bc
00000110: 016c aabb a784 463a d418 ad3c 3e1b d83c
00000120: 84ac 253b de96 1b3d 34fb 963c baab f1bb
00000130: 9b64 d93a 2817 023c 24c2 e63b 6136 313d
00000140: e9bf 153d e4bb 99bb 4f32 3f3c 6a8d 61bb
00000150: 760c 333d 97eb 6dbc 01d0 40ba 3fe7 d7bc
00000160: 9f00 c0bb aa66 643c f12c c3ba 2d89 c13c
00000170: a3d4 93bb 844f 0e3c 3883 f63a 6f45 b73c
00000180: 9f25 c43c 3d29 153c c6a0 84bc db68 c1bc
00000190: b1e5 2fbd 3bc6 003c 4874 e93c d904 d0bc
000001a0: c134 f5bb 297a 4a3b 48da dd3c 9123 233d
000001b0: c908 7bbc 4676 8f3c 6d30 35bd 989e 1d3c
000001c0: d070 e73b 6763 05bc 417d 6fbc 4306 37bb
000001d0: 68b1 d73b e185 c0bc 01ce 27bc 2cc8 ecbb
000001e0: ff33 abbb 1bf1 fb3b ca2a 2e3b a5f6 4e3b
000001f0: 2b5c 16bc bdbb b2bc 6a23 96bb 0ca0 1dbb
00000200: 8ef4 19bc a3ad b7bb bf33 83bd c5e5 ac3c
00000210: 8623 f53c e279 f8bc 02b2 1b3d b6a3 07bd
00000220: 4259 773c 4f99 5cbc 5445 b0ba 6976 7a3c
00000230: 16ac 1a3d e79e 9bbc 467c 16bd d395 0a3d
00000240: 9d1c 653c cdae 0f3a 126a 633b 7276 923c
00000250: 3bbd cfbc bec8 343c 9b02 58bc e18e 9cbc
00000260: eb95 df3c ba21 d1bc 4de7 7bba b3ad 583c
00000270: 3661 bebb 14fe e2bc 551f acbc 00de d0b9
00000280: ea95 80bc bd28 03bd eb3b ae3c 4e37 803c
00000290: 10a8 b6bb 753e ed3c 2ae3 33bc 3b0a 013c
000002a0: 210a 60bc f8d5 033c f324 783c 37e4 403d
000002b0: d533 0f3d 8011 6abc 0a2b 8cbc 559f 0ebc
000002c0: 0518 aabb fe34 e03b bd0c 00bd a905 cb3a
000002d0: 59ed a7bc 7c10 bf3c 684e 03bc 3461 213d
000002e0: 93fa d93c c091 883c 1fa6 81bc 34dd 9d3c
000002f0: ab75 073c 945f 143b e8fa c4bc b2fa 8e3b
00000300: 7411 093d 964e 52bc 712f b5bc 0fef 03bb
00000310: b561 f6bb c737 b13c 6fb8 0e3c e57f aa3b
00000320: b461 fc3c 8e06 17bd 39da 3abd c946 a03c
00000330: a410 a23c 62bf 86bd f866 203c 697e 4a3b
00000340: dfd9 813c 6eb7 18bb 5b3c c33c 94be 233b
00000350: 2c51 e13c 7385 933c b56c d93c 712d 163c
00000360: 736e 04bd 07e6 0dbd 5c3f 9f3b 881a a5bc
00000370: 4e71 b2bc feb8 b6bc 0978 8cba 7d33 cfbc
00000380: 27fd d9bb 1516 2fbd 27a2 a13c 9f75 cfbc
00000390: bce7 333b 2228 43bc eddd 0d3d 42c0 783c
000003a0: 9563 593d 6bcd 773c 5950 d43b 9a5a 863c
000003b0: 3fbb af3c 4ca9 4fbd d3f2 2dbb 70db 443c
000003c0: 6c16 51bc 0950 023d 5a89 aabc 7659 f8bc
000003d0: 178a 4abc 33e0 8e3c 19cb f33c 1094 133c
000003e0: 403a dabb 0efd 3dbc 3aef 213d de6f d13b
000003f0: 7620 213c 74d5 323c 5b73 99bb 2d48 803c
-0.019157266 0.018394649 -0.0025001548 -0.025489282 -0.004151817 -0.010094726 0.01804817 -0.025214884
-0.005560192 -0.028107582 0.02411157 0.007051635 0.023521658 0.0020839355 0.016739896 0.01229648
0.01273106 0.01922058 -0.011525787 0.038481876 -0.0017941877 -0.026020005 0.001366196 -0.024112506
0.017759498 0.017766524 -0.0091970265 0.012913095 0.041835066 -0.0025494092 0.061300162 0.014358348
-0.013945753 0.009316815 0.013419141 -0.0040436294 -0.0055667516 -0.02621005 -0.031424973 -0.008296774
0.029127154 -0.0031904597 0.03456744 0.02121969 0.034150068 -0.008154005 0.02768627 0.0040477924
0.013814186 -0.0025880784 0.028923975 -0.0030139305 0.047212534 -0.015780764 -0.0059599867 -0.0038701685
0.02544051 0.020137226 0.007884653 0.01608347 0.02662376 -0.028530262 -0.004731771 -0.044005606
-0.025751509 0.0303268 -0.015318106 -0.010950526 -0.0052008634 0.00075728673 0.021130003 0.026380178
0.002527983 0.037985675 0.01843033 -0.0073752077 0.0016585769 0.007940091 0.0070421863 0.04326475
0.036559973 -0.0046915878 0.011669709 -0.0034416565 0.043713056 -0.014521501 -0.0007355214 -0.026355384
-0.005859449 0.013940493 -0.0014890713 0.02362498 -0.0045114323 0.00868595 0.0018807417 0.022371976
0.02394372 0.00910407 -0.016189944 -0.02360957 -0.04294366 0.007859762 0.02849783 -0.025392937
-0.0074830954 0.0030895567 0.027081624 0.03982884 -0.015321919 0.017512452 -0.044235636 0.009620331
0.007063009 -0.008141375 -0.014617265 -0.0027927316 0.006582428 -0.023501338 -0.010241986 -0.007226011
-0.0052247043 0.007688654 0.0026575797 0.0031580117 -0.009177248 -0.021818036 -0.0045818584 -0.0024051694
-0.009396685 -0.005605416 -0.06406354 0.021105656 0.029924165 -0.030331556 0.03801156 -0.03311511
0.015096964 -0.013464286 -0.0013448396 0.01528702 0.03776177 -0.018996669 -0.03673961 0.03383429
0.013983873 0.00054810644 0.0034700674 0.017878745 -0.025358787 0.011034189 -0.013184215 -0.019111099
0.027293166 -0.025528777 -0.00096093566 0.013225007 -0.0058099283 -0.027709045 -0.021011034 -0.00039838254
-0.015696485 -0.032021273 0.021268805 0.015651371 -0.005574234 0.028960446 -0.010979453 0.007875974
-0.01367429 0.00804662 0.015145528 0.047092643 0.03496154 -0.014286399 -0.017110366 -0.00870498
-0.0051908516 0.0068422547 -0.03126215 0.0015489358 -0.020498918 0.02332329 -0.008014299 0.03939934
0.02660874 0.016671062 -0.015826283 0.019270517 0.0082678 0.0022639977 -0.024045423 0.0043633813
0.03346391 -0.012836119 -0.022117348 -0.0020131504 -0.007518972 0.021633042 0.008710965 0.0052032345
0.030808307 -0.036871485 -0.04561827 0.019565003 0.019783325 -0.06579472 0.009790175 0.00308981
0.01585096 -0.0023302692 0.02383249 0.002498542 0.027504526 0.01800797 0.026541093 0.0091661075
-0.032331895 -0.0346432 0.004859848 -0.020154253 -0.021782544 -0.022305008 -0.0010716926 -0.025293106
-0.0066524926 -0.04274567 0.01973064 -0.02532464 0.0027451357 -0.011911424 0.034635473 0.015182557
0.053073484 0.015124659 0.0064793047 0.016400624 0.02145159 -0.050698563 -0.002654244 0.012015209
-0.012761693 0.03181461 -0.020817447 -0.030316096 -0.012362025 0.01744089 0.02975993 0.009007469
-0.006659776 -0.0115959775 0.039534785 0.0063915094 0.009834399 0.010915149 -0.004682941 0.015659416

network_body._body_endoder.seq_layers.0.weight f4 [256, 108]
00000000: 0531 593d 2a50 af3c c756 81be 7d3e e9bd
00000010: 54d0 dfbd 2483 9bbd 0a4c 5d3d 750d 00be
00000020: ba22 90bd 2bc7 92be 8d18 62be 216e ae3c
00000030: 7607 213d 1145 263d ceec 81bd e77b 02be
00000040: d9e7 93bd 6bc4 873c f3e6 b1ba d4f8 6abd
00000050: d309 94bc 1fe7 5ebc 90b5 7e3d 1dd3 54bc
00000060: 0460 3cbe 951b e9bd 93ef babd aa46 0abc
00000070: d179 8abc b0ae ea3c f141 9ebc 66f5 f13d
00000080: a5df efbd ab46 2a3d b2d0 613d 64ba 303c
00000090: c0d5 e33d 5d24 6ebd 542b 1e3e 67bd efbc
000000a0: f718 50be bdc5 3abc 547f c5bd 0d74 463d
000000b0: ae20 a93d 18f2 4dbe ddd0 dcbd f208 36bd
000000c0: 6d50 143d 61ee 53be fd83 58be d221 a33b
000000d0: 547a 63bd c474 c33c 965a d2bc 2338 2ebe
000000e0: d1f8 ed3c 268d 64be 9614 5d3d 6fe9 2c3c
000000f0: 8e0c 043e fe79 8a3d c781 bc3d a7d3 663d
00000100: d672 dfbd 19cd e83c c0e6 03be f7ef c03d
00000110: 5c39 243e 36ed c3bc ac79 443b 9eeb 7d3c
00000120: ab34 463d e667 de3d 2b2f 6bbd d58f b4bd
00000130: 8d65 913d 5218 a43d 820a dfbb 59ca 103e
00000140: 7991 a0bd 39cf 04be cd85 f4bd a7e2 293d
00000150: 3c40 36be 505e 9ebd 0a69 6e3d 21fb de3c
00000160: 1a1c 403d e438 31be 4cea e7bd 9c12 663e
00000170: cbe8 cfbd 7980 993d 9e36 eabd 611a 47be
00000180: f302 87bd e27d c43d a35b 1ebe d916 c23c
00000190: c06b b33d 1e4e 433b a3c9 b8bd 56da 73bd
000001a0: 421e c9bd 072a 23be d44f bebd e6ed a5bd
000001b0: c39e a9bd 5255 ddbc 69ef b43d cd69 fc3d
000001c0: 0c84 323e 6ad8 25be 4f93 53bd 0788 e23d
000001d0: 0048 063e 3ee7 f2bd d058 82be 960a f93c
000001e0: 462f 213e 4c61 8dbc 667b 563e 2206 dbbe
000001f0: 2d33 883e 9895 84bd dfba b03d ebfb 173d
00000200: bb39 20bc a31a 8bbd 31a8 22be 2095 0c3d
00000210: 3d3d 6a3e 8394 03be 6e4e 7b3c e2a1 57be
00000220: bda9 b2bc 62f1 143d b504 963d 18f5 e63d
00000230: a06d 2a3c 78c5 c2bd 038e 5f3e edd0 64be
00000240: 5ff0 24bd 55ca 02bd d29f aebd bab3 74be
00000250: 1738 783d 2825 47be c2a0 923d 6088 f03d
00000260: ace6 743e c91b e9bd 54fd a5bd 7f44 8b3e
00000270: f010 f63d ce8d debc bd9b 07be cf1c a13d
00000280: fa8d 6ebd dae0 8abc 4e7e b23e 9577 22be
00000290: 786a ed3d b130 80bd 2f1e fdbd 7952 4abd
000002a0: 990a 073e 2970 a5bd 0285 9dbc ac17 f1bd
000002b0: f010 9a3e 66aa 843d 67da 6dbc 3699 98bd
000002c0: 0a1a 7bbd 1597 a1bd 6fc3 ebbd b287 a0bb
000002d0: 11f7 263e ebb3 abbb 9494 873d 3991 8ebb
000002e0: 5cef ffbd e5f3 d7bd f3b5 40be 435b 63be
000002f0: 7dcf 74bd 85bd 6abb 980f 913a 1460 05bd
00000300: b579 fc3d 4c07 40bd 7ba5 2cbb 5b72 ab3d
00000310: 5052 443e 4d9f 8fbc 7abb 03be 5dd2 96bd
00000320: f9d1 a9bd 741d 46bd eea3 233d 87e9 3a3e
00000330: 0d32 c33d b356 f63d 38b7 b3be 943c b03c
00000340: eb6a a7bb 48f6 4f3d 1784 09be 88f4 7e3d
00000350: ccd2 7d3b 9ea4 97be 7891 cd3d 5457 8c3d
00000360: 20c5 643d c5c6 91bc b518 aabd 63de 7dbd
00000370: 8136 4bbe 25bb 0c3c 8f82 b0bd e6a6 3c3d
00000380: 09bf 09be 7e3d b9bc ee83 89bd a9de 7bbc
00000390: 8a8b 07bb 7edb 26bd 5f6c a43d e9d0 d7bd
000003a0: 4dcc 053e c82c fa3d 6a38 9fbc e143 02bd
000003b0: 5529 56be 0bd5 0a3e 9eb3 ca3d 2967 ca3d
000003c0: 3239 d5bd 3005 cfbc 6414 043e e03d 0bbb
000003d0: d897 81bd 4aaf 9abd 8b05 0b3e 0e98 2c3d
000003e0: d37e f5bc d60b e1bd af6b cabc 9d74 5ebe
000003f0: b493 cfbd 059a 433e 5df1 87bd 4477 42be
0.053025264 0.02140053 -0.25261518 -0.11388872 -0.10928407 -0.075933725 0.054027595 -0.12505133
-0.070378736 -0.28667578 -0.22079678 0.021292748 0.039313756 0.04059321 -0.06343995 -0.12742577
-0.07221956 0.016573152 -0.0013572857 -0.057366207 -0.01807109 -0.013604908 0.06218487 -0.012989786
-0.18396002 -0.11382214 -0.091277264 -0.008439699 -0.01690379 0.02864775 -0.019318553 0.11814384
-0.11712579 0.0415713 0.055130668 0.0107866265 0.11124754 -0.058140147 0.15446216 -0.029265119
-0.20322023 -0.011399684 -0.096434265 0.04845052 0.08258186 -0.20111883 -0.10782025 -0.044442125
0.036209513 -0.20696403 -0.211441 0.004978397 -0.055536583 0.02385939 -0.02567796 -0.17013602
0.029049309 -0.22319469 0.05397471 0.010553702 0.12895414 0.067615494 0.092044406 0.05635419
-0.10910575 0.02841811 -0.12880993 0.0942077 0.16037506 -0.023916822 0.0029979749 0.01549807
0.04839007 0.10859661 -0.05741803 -0.08816496 0.070994474 0.08012451 -0.0068066726 0.1413969
-0.07840247 -0.12969674 -0.11939583 0.04147592 -0.17797941 -0.077328324 0.05820564 0.027219357
0.0469018 -0.17306858 -0.113239855 0.22468036 -0.101518236 0.07495207 -0.11436199 -0.19443657
-0.065923594 0.09594323 -0.15464644 0.023692535 0.08760786 0.00298012 -0.09022834 -0.059534393
-0.09820224 -0.15934001 -0.0929257 -0.08102016 -0.082822345 -0.027018223 0.08834726 0.123248674
0.17433184 -0.16195837 -0.051654156 0.110611014 0.13113403 -0.11860512 -0.25458384 0.030400556
0.1574069 -0.017258309 0.2094551 -0.42778116 0.26601544 -0.06473845 0.08629393 0.037105482
-0.009779389 -0.0679219 -0.15884472 0.034321904 0.22874923 -0.12849621 0.015338523 -0.21057847
-0.021809453 0.036363013 0.073251165 0.11277217 0.010402113 -0.095103204 0.21831517 -0.22345324
-0.0402683 -0.03193124 -0.08526577 -0.23896685 0.060600366 -0.19447768 0.07159568 0.117447615
0.2391612 -0.11382253 -0.08104959 0.27200696 0.12014949 -0.027167227 -0.13243003 0.07866823
-0.05824087 -0.01695292 0.34861988 -0.1586593 0.11592573 -0.06259287 -0.12359273 -0.04939506
0.13187636 -0.080780335 -0.019228462 -0.11772093 0.30091047 0.064778134 -0.014517403 -0.07451098
-0.06130413 -0.07890145 -0.115118854 -0.0048989886 0.16305186 -0.0052399538 0.06620136 -0.004350808
-0.12496826 -0.10544566 -0.18819408 -0.22202782 -0.05976819 -0.003581853 0.0011067269 -0.03256233
0.12327901 -0.04688196 -0.0026343751 0.08371421 0.19172025 -0.017532015 -0.12864485 -0.07364342
-0.08292002 -0.048367932 0.039951257 0.18253146 0.09531031 0.12028255 -0.35100722 0.02151326
-0.005109181 0.05077198 -0.13429295 0.062244922 0.003873038 -0.2961778 0.100375116 0.06852594
0.055852056 -0.017794976 -0.08305494 -0.061979663 -0.1984501 0.008589541 -0.08618652 0.046057604
-0.1345178 -0.02261233 -0.06714617 -0.015372911 -0.0020682537 -0.040736668 0.08028483 -0.10537893
0.13066216 0.122155726 -0.01943608 -0.031803016 -0.20914204 0.13557832 0.098975405 0.098829575
-0.104113 -0.025271028 0.12898403 -0.0021246597 -0.0632779 -0.07552965 0.13576333 0.0421372
-0.029967701 -0.10988586 -0.02470955 -0.21724172 -0.10135594 0.19101723 -0.06637833 -0.18990809

network_body._body_endoder.seq_layers.2.bias f4 [256]
00000000: da3f 113c 3d61 02bc 0251 c5ba 8528 b13c
00000010: d618 8fbc bd65 23bc 8bb6 8fbc 9edb 193b
00000020: 9eed 49bd 6e8a b3bc 6cb0 c4bc 16aa e33c
00000030: 5503 a63c 76ae ec3b 2c13 513b 4f94 0fbc
00000040: 0d5a 8ebc 6aa4 1b3c 7473 163a f6ba 8139
00000050: 50f3 1c3d 4c81 f53b ca70 5b3b ffac 5ebc
00000060: 347b 36bb e7d2 ce3b b580 2c3c fc2b 393c
00000070: a23e acba 7ba3 113c 3b8a cdbb 465b 023c
00000080: d48e 2e3d 151b 88bc 41b9 5ebb b418 b9bb
00000090: 00a6 bfbc 5fd7 d0b9 29eb 33b9 081a 20bc
000000a0: 97d4 9dbc 400c 6c3c 8a66 cd3c 5725 b33c
000000b0: 0553 843b b16e e43c 33be 593c 2d5e 00bd
000000c0: a152 4bbb 1071 0abc 2af0 f0bb 4fb8 bfbb
000000d0: f86a 823a c4dc 923a 31e0 0abc d3a7 ecbc
000000e0: 2ddf d83c b8d2 a3bb b3d9 c03c d476 153a
000000f0: 0d80 1e39 8bd6 bc3b 967e 61bc a033 383c
00000100: ab39 01bb 556f 5b3c 4fa1 01bc a6df bc3b
00000110: e70f 06bb 881a fdb7 bcc9 80bc 3ebc 24bc
00000120: bc39 51bc 1820 83bc 7dbe 503b 627d 0e3c
00000130: 702b a6bc 0deb c93c ee9c e5bb 053b cbbc
00000140: aaeb a33c 9abe 963b 71d4 5a3b 1957 9ebc
00000150: 06fc 873c e908 a1bc 467e a03c b338 213c
00000160: e0ca 693a 955b 76ba 7b3b 003c ca44 623c
00000170: 68a1 a5bb e4c5 1ebd 4fce 84bc 39e5 913c
00000180: c664 48bc 6392 c53c 823e 67bb bfd9 05bd
00000190: a20e 15bc eaf1 a4bc a9dd 33bb 61b7 683c
000001a0: 8fea 713c a60e dfba 1473 c7bb b396 803c
000001b0: 7224 c93b f33c b7bb a5fa 4eba 7f18 4b3c
000001c0: 0592 42bc 4a20 243b 2600 9cbb ef5f 833c
000001d0: d9be 883b f718 cbbc 6cf9 00bb 503f bfbc
000001e0: dfcd 043c de52 ba3c 62ad bd3c daf5 93bc
000001f0: c252 ce39 3ba0 5d3c 9ebb 97bc ecff d33b
00000200: 9094 6b3d a9f4 693c d3d3 44bc 0774 1a3c
00000210: 82af a0bb 1ad8 f7bb 04b4 33bc f353 33bc
00000220: 3873 c5bc 3cc0 f9bc 8401 a3bc a8e0 14bc
00000230: decf 53bd db54 33bb 20a1 343c 0b0e bc3b
00000240: 666a 033c 3db7 7fbc 8576 c43b a795 633b
00000250: f50c 61bb 52a8 11ba 7488 833c 6a55 b1ba
00000260: afe7 b13c 4381 12bc fe55 f8bc 74a5 99bc
00000270: 3e5f 5739 a646 31ba 2ad3 b13b f3b1 7ebc
00000280: 85e9 303c 7d77 90ba 3e90 3a3c bc76 b73b
00000290: cdc2 1bbc 0dc8 3bbc cddc 1cbd ddcb 383b
000002a0: 3307 b63c 4eaf 9fbc 3446 e63b 8b63 b73c
000002b0: d358 98bb 74ab 2d3c 092d 7cbc 6eb4 3e3c
000002c0: 9988 f53a 21c1 153c 4e7c 09bc c9f4 0bbd
000002d0: 05c6 21bd 2582 5eba 8f79 7dbc 2851 033c
000002e0: 0efe 47bc ed19 72ba 8c6a 063c 5f71 6a3c
000002f0: 253e e7bc cd20 e1bb a098 853c 77cc 0cba
00000300: f628 143d 720e 0f3d 7b45 503c ce90 ae3b
00000310: 1898 f2bc f6a0 13bc 70f6 853c 2f44 b63b
00000320: 0128 16bc 9ff2 323b e612 f2bb 20e0 febb
00000330: 9004 6dbc 6317 8139 c162 6bbb 8dfa cdba
00000340: f3f8 a83b 2f2e de3a c6e3 6a3a e520 47bc
00000350: 2531 c63b 770d acbc 9660 f6bb dbae 35bc
00000360: 4412 dcbb b83c b7bc 2fbe 033b d14e 87bb
00000370: 31a5 cdbc 60ce edbb b297 ecbc 94a2 4f3c
00000380: 8417 523c 33ba 5dbc e122 0d3b 9520 3cbc
00000390: 4c49 933c 0d89 b93b 2d00 ac3b 6197 49bc
000003a0: e647 11bc 82da 5fbb cb56 87bc 1454 86bb
000003b0: 7ad3 bd3b 865c de3c 8f84 ee3c 7b30 94b8
000003c0: 5844 6bbc 97e3 9bbc 5bc9 acbb e0db 5fb9
000003d0: 36fc c7bb 13e0 1e3c 1525 1b3c 5944 a83c
000003e0: 90d4 8e3a b576 883b b657 fbbb a86d 7f3c
000003f0: c29b 80bb 9f2d 6c3b d040 583b 7aae acba
0.008865321 -0.007957754 -0.001505405 0.021625767 -0.017467897 -0.009972987 -0.017543098 0.002347685
-0.049298875 -0.021916594 -0.024009906 0.027791064 0.02026526 0.007222946 0.0031902296 -0.008763387
-0.017376924 0.009499649 0.000573925 0.00024744094 0.03831798 0.00749222 0.0033483976 -0.01359105
-0.002784443 0.0063117626 0.010528733 0.011301991 -0.0013141225 0.008889074 -0.006272582 0.007956332
0.04261668 -0.016614476 -0.0033984932 -0.005648697 -0.023394585 -0.00039833316 -0.00017158374 -0.009771831
-0.01926641 0.0144072175 0.025073308 0.021868391 0.004038217 0.027884813 0.013289976 -0.031339813
-0.0031024592 -0.008449808 -0.0073528485 -0.0058508287 0.0009950092 0.0011204709 -0.008476303 -0.028888619
0.026473606 -0.004999485 0.023541307 0.00057016057 0.00015115757 0.00576288 -0.013763091 0.011242777
-0.001971821 0.013393243 -0.007911994 0.0057639657 -0.0020456256 -3.0172305e-05 -0.015721194 -0.010054646
-0.012770113 -0.016006514 0.003185182 0.008696886 -0.020284384 0.024648214 -0.007007233 -0.024808416
0.020009834 0.004600358 0.0033390785 -0.01932864 0.016599666 -0.019657569 0.019591462 0.009840178
0.00089184754 -0.0009397802 0.007826681 0.013810346 -0.0050546415 -0.038762942 -0.016211657 0.017809497
-0.0122310575 0.024117654 -0.003528506 -0.032678362 -0.009097727 -0.020134885 -0.0027445352 0.014203877
0.014765396 -0.0017017915 -0.0060867164 0.015696859 0.006138378 -0.0055919825 -0.00078956253 0.012395977
-0.011875634 0.002504366 -0.00476076 0.016036956 0.0041731414 -0.024792178 -0.0019679917 -0.02334562
0.008105724 0.022744592 0.023153964 -0.018061567 0.0003935304 0.013526971 -0.01852208 0.0064697172
0.057514727 0.014279523 -0.012013393 0.009427077 -0.0049037347 -0.007563603 -0.010968212 -0.010945308
-0.024102792 -0.030487172 -0.019898184 -0.009086765 -0.05171191 -0.002736381 0.011024743 0.0057389787
0.008020973 -0.015607652 0.005995574 0.003472665 -0.0034339998 -0.0005556393 0.016056277 -0.0013529484
0.02171692 -0.008941951 -0.030314442 -0.018755652 0.00020539478 -0.00067625416 0.005426784 -0.015545356
0.010797863 -0.0011021938 0.011386929 0.005598871 -0.009506893 -0.01146127 -0.03829651 0.0028197684
0.02222023 -0.019492771 0.007027412 0.022386333 -0.0046492605 0.01059996 -0.015391597 0.0116396975
0.0018732726 0.009140284 -0.008391453 -0.034168992 -0.039495487 -0.0008488021 -0.015470876 0.008014955
-0.012206567 -0.00092354306 0.008204114 0.014309256 -0.028227875 -0.0068703652 0.016308129 -0.0005371044
0.036171876 0.034925885 0.012711878 0.0053273207 -0.02961354 -0.009010544 0.016352862 0.0055623273
-0.009164811 0.0027305258 -0.007387507 -0.0077781826 -0.01446642 0.00024622222 -0.0035917016 -0.0015714929
0.00515663 0.001695102 0.00089603325 -0.012153839 0.006048339 -0.021002514 -0.007518838 -0.011089052
-0.0067160446 -0.02236782 0.0020102372 -0.0041292687 -0.025103183 -0.007257268 -0.028880928 0.012673039
0.012822989 -0.013533163 0.0021535682 -0.011482378 0.017979287 0.0056620897 0.0052490444 -0.012304158
-0.00886724 -0.003415734 -0.016520878 -0.0040993784 0.0057930322 0.027143728 0.029115943 -7.06622e-05
-0.014359556 -0.019029422 -0.005273027 -0.00021348847 -0.006103064 0.009696978 0.00946929 0.020540403
0.0010897089 0.0041645416 -0.007670368 0.015590109 -0.003924818 0.0036037934 0.0032997616 -0.0013174557

network_body._body_endoder.seq_layers.2.weight f4 [256, 256]
00000000: 6820 973d bcf2 80bc ed3a d9bd 17fe fb3b
00000010: b578 febd c09a e4bd dd93 b93d 455c ed3c
00000020: 1efb e43c fa71 573d ee63 653d f71c 173d
00000030: de35 22bd 045e 5d3d a076 34bd 4e73 8fbd
00000040: be19 fcbd c71b 943d 28ce 553a 6576 c63d
00000050: 9d5e 79bc f5b5 a13d c4ab 21bd db54 133e
00000060: a271 60bd e782 dc3a 317a 82bb 713f 043c
00000070: bc28 79bd 478f d53c 21dc a4bd 40bb a9bd
00000080: c1bb 50bd 08fa 8f3c 424e 9fbc 634f 583c
00000090: bf11 d9bd 5cd2 9a3d f15e 903c 6bd7 173d
000000a0: 784d e1bc 9a12 923d 3b48 d3bd b60d 9bbd
000000b0: bad7 08bd 4c18 adbc 48db 49bd 6208 adbc
000000c0: 1ed6 2dbc a19d 64bd 39a1 d0bb 62c5 2dbd
000000d0: 22ee 163d 63d8 90bd 2b7a cb3c 97f9 3c3d
000000e0: 2715 0e3d 5db8 b5bd cbf4 783d 3f41 a1bd
000000f0: db25 5ebe 04c1 f23d 5513 b43d d896 ed3b
00000100: 408c 303e e19e b33b f304 073d c79d aa3d
00000110: 870d 213c f2dc d73d 1b3b 04be b153 cc3d
00000120: 2aee 9bbd 80c7 66bd d3b8 d8bd 99df 70bd
00000130: c71c 7b3d d0b6 6bbd 0236 89bd 0c52 25ba
00000140: ca0b 20bd 7de0 ba3d 305d 80b9 9596 0c3a
00000150: bcfa a8bb 0c9e 51bd dafc 9ebd 8f14 7cbc
00000160: 4f6a 31bc c8c0 a03c 65dd a23c 0ec3 d93b
00000170: 98ea b2bd 19ea aebd b07e fabc c6aa f7bd
00000180: bac4 1abd bfd7 783d 1705 9b3d fb48 e13c
00000190: 03c0 64bd 999a ccbd 80a9 ca3c c9f6 fbbc
000001a0: 72f7 4cbb d57b ccbd bf8e 04be 799a ecbd
000001b0: efd3 d63b 6752 403d cf70 2abe 3fa2 ef3d
000001c0: 7eb1 08bd 1eec f03c 8520 5c3d 0a81 cbbd
000001d0: 9604 34bc 9ef7 c53d 27f7 27bd 633f 2b3d
000001e0: 28cf 9d3c b58c 9d3d c128 88bd 4d6a 8dbc
000001f0: ca02 a53c a645 d0bd a081 f53c 188b 53bc
00000200: a230 29bd bc7d 2f3a 0831 1c3c cce8 af3c
00000210: e32b 403d 9f84 9abd 1153 cabb 31c4 213d
00000220: 2565 acbd 274f b8bd c7a7 5bbd 88c2 7d3d
00000230: e7ed 4abd c437 b43d 4f79 0bbc 659d 333d
00000240: 4585 143c 97ff 123b efdd 1fbd aa5b 34bc
00000250: 0fb2 123e c61f 58bd dc8d 1e3d 56bd c63d
00000260: fd97 d3bd 97ba 693d 678b a0bd 7e37 883d
00000270: e57c 503d 2f32 e23d 374c 60bd 06ad dbbc
00000280: 40e7 913d 8c62 3e3d e1e9 86bd 5b5d 1cbc
00000290: 45b9 e2bd 0026 af3c 774f 72bc 56aa 8d3d
000002a0: 4cb1 cfbc 2650 8bbd 16cb f0bc 52da 85bd
000002b0: 078c 85bd e613 2fbd 0bfa 8abd 8b2d 43bd
000002c0: ab38 1a3c c54d 70bc 91dd 3e3c c14c b7bc
000002d0: 2aa7 efbc 2b2f 11be c836 4fbc 3b53 57bd
000002e0: c199 febd 7f21 00be 8d5f c7bd 9207 75bd
000002f0: 7428 4aba f517 34bd 7c98 e63b b5f9 6d3c
00000300: 3ecc 6a3c ea3f 0a3e 30e1 973b b437 a83d
00000310: 6800 a6bb d587 e53d 6e71 cebd 144f 453d
00000320: ca6d 9f3d 8f04 373d 87c2 f9bd 3a1e 79bd
00000330: 2b04 643d c400 163e e391 0bbd 54d7 bbbd
00000340: cd66 92bd 5f88 bfbd 8ec5 f6bc 774b 44bd
00000350: 375e aabd eebf c9bd c40e 3bbd a8ad 8ebd
00000360: 052d 0b3e 4d8b cd3c 241c cabc 7cfd 9f3b
00000370: 7860 673c a4e6 debd f430 e83d e0f4 df3c
00000380: 946c cb3a c93c 873c f44b 203d 88a8 51bc
00000390: 4985 933d 1420 de3d 3c39 4ebc 4290 ca3d
000003a0: 7bae 98bd 66ae bebd 6e43 5cbd bf95 94b9
000003b0: ea9a 4f3b c921 f8bc 4a0c c73d 3727 9f3d
000003c0: 3f8d 563d 487f d0bc 849d 6fbd 1f00 dfbd
000003d0: 592c 783b aa29 f7bd 960f e439 6692 d5bd
000003e0: 4950 1f3c 5eac 3639 40a6 4fbc 29a2 403d
000003f0: 1b4f 08bd 2ac5 4d3d 20ee f2bd 71c9 d6bc
0.07379228 -0.015740745 -0.10606942 0.007690202 -0.12425367 -0.11162329 0.09061406 0.028974662
0.027951773 0.05259893 0.056003504 0.036892857 -0.039602153 0.05404474 -0.044058442 -0.070044145
-0.123095974 0.072318606 0.0008156025 0.09690551 -0.0152203115 0.07896034 -0.03947045 0.14387839
-0.05479587 0.001682368 -0.0039818515 0.008071766 -0.060829863 0.026069297 -0.08049799 -0.08287668
-0.050960306 0.017575279 -0.019446496 0.013202521 -0.10599088 0.07559654 0.017623397 0.037070673
-0.02750276 0.07132454 -0.10316511 -0.075709745 -0.033408858 -0.02112975 -0.04928139 -0.021122161
-0.010610132 -0.05581439 -0.0063668755 -0.042424567 0.036848195 -0.070725225 0.024838528 0.046136465
0.03468814 -0.08873055 0.060780328 -0.07873773 -0.21694128 0.11853221 0.0879275 0.007250648
0.17241001 0.0054815863 0.032963704 0.08330875 0.009829885 0.10540189 -0.12913172 0.099769
-0.076137856 -0.0563426 -0.105821274 -0.05880699 0.06130674 -0.05754739 -0.06699754 -0.00063064764
-0.039073743 0.09124849 -0.00024483493 0.00053630146 -0.005156843 -0.051176116 -0.07763071 -0.015385761
-0.010828569 0.019623175 0.01988096 0.006645567 -0.087361515 -0.08540744 -0.030577987 -0.12093119
-0.03778527 0.060752627 0.0756933 0.02750062 -0.05584718 -0.09990425 0.024739027 -0.030757325
-0.0031275419 -0.099845566 -0.12945078 -0.11552901 0.006556026 0.046953585 -0.16644596 0.11700868
-0.033372395 0.029409464 0.05374195 -0.099367216 -0.0109874215 0.0966637 -0.041007187 0.041808497
0.019263819 0.07692853 -0.06648398 -0.017262602 0.020142931 -0.101695344 0.029969037 -0.0129115805
-0.041306145 0.0006694456 0.009533174 0.02147331 0.046916854 -0.07544827 -0.006174453 0.039493743
-0.08417729 -0.08999472 -0.0536268 0.061953098 -0.049543288 0.08799699 -0.008512809 0.043851275
0.009064977 0.0022430175 -0.03903001 -0.011008183 0.14325736 -0.052764677 0.038709506 0.09704082
-0.10331724 0.05706271 -0.07839089 0.06651209 0.05090036 0.11044728 -0.054760184 -0.026815902
0.071241856 0.0464807 -0.065875776 -0.009543742 -0.110704936 0.021380424 -0.014789454 0.069172546
-0.025353096 -0.068023965 -0.029393714 -0.06535782 -0.06520849 -0.042743586 -0.06785973 -0.047650855
0.009412925 -0.014666979 0.011649505 -0.022375466 -0.029254515 -0.1417815 -0.012647338 -0.05256961
-0.1243167 -0.12512778 -0.09735022 -0.059821673 -0.00077117165 -0.04396816 0.0070372205 0.014524867
0.014330922 0.13500944 0.0046349987 0.082137495 -0.0050659664 0.112075485 -0.10080229 0.048171118
0.077846125 0.04468208 -0.12195306 -0.060819842 0.055668037 0.1464873 -0.034074675 -0.0917193
-0.07148514 -0.093521826 -0.030123498 -0.04792353 -0.08318751 -0.09851061 -0.04566838 -0.06966716
0.13591392 0.025090838 -0.024671622 0.0048825126 0.014122121 -0.10883835 0.11337462 0.027338445
0.001552003 0.016508477 0.039134935 -0.012796529 0.072031565 0.10845962 -0.012586888 0.09890796
-0.074551545 -0.093106076 -0.053775243 -0.0002834033 0.003167803 -0.030289548 0.09719141 0.077711515
0.052380797 -0.025451317 -0.058499828 -0.10888695 0.003786823 -0.12068494 0.0004349916 -0.10428314
0.009723731 0.00017421084 -0.012673914 0.047029648 -0.033278566 0.05023686 -0.11861825 -0.026219102

network_body._body_endoder.seq_layers.4.bias f4 [256]
00000000: 5ec0 13bc 5687 25bc b0aa 173c 053d 563d
00000010: d4cb 7a3c 1057 48bc ce95 993b ed55 6ebb
00000020: bbab 853b 29a6 4bbb 221d f13b c8a7 0fbc
00000030: 567f 6dbc 9f1e 793c 2dae 4e3d 0612 8e3b
00000040: 0940 653d 9273 043c 5158 bd3b 1f9a 1dbc
00000050: 8937 cd3b 1488 9d3c f060 afbc cd93 1cbc
00000060: 67b7 b53b d204 553c bcde 3a3d 4853 cdba
00000070: e373 eab9 1515 c638 0cfa 9cbc 2614 593c
00000080: 5391 f43b 100b 5fbc 327f 873c 0242 e33c
00000090: 7e43 75bb 064f 1b3a 3cb2 87bb 43c6 623d
000000a0: 2ec5 873b 04e1 aa3b 6f1a 71bb 2cc4 1cbc
000000b0: 8142 15bc 4640 86bc 42ce 1e3c bf30 ddbc
000000c0: 27c4 1dbc eedf 42bc 42ad 59bc d2e0 b33b
000000d0: 6c2c 0abc d35d 4e3c bfc5 2e3b 2e3e 5b3b
000000e0: 05cc 403d a599 76bc 1d8f 11bc 17d0 9b3c
000000f0: adde 8dbb 5957 0abc cbd8 eb3c 7523 373c
00000100: 936b 1c3c 4a85 5d3d 78a5 f639 c09d 6bbb
00000110: cb01 e4bb 810a 443c 35e1 023c 61c0 08bc
00000120: 4a86 b53b d248 463c b8ab deb7 22c1 aabc
00000130: 2a3c d3bb 6a39 fb3a 7d05 15b9 e3eb 1f3d
00000140: 0e15 a03b e0e9 0bbc 49fa 18bc d5ca 6b3c
00000150: 8837 d0bb 3e69 11bb 99aa e5bb 1e27 13bc
00000160: 5c8f 3e3a 0a8f 42bc 45ae 3e3c d395 82bb
00000170: c0d1 833c 5d96 cb3b a723 873b cf70 873c
00000180: 3c84 353a ab57 033c 2bec 563c 87a4 b73a
00000190: 30ac 373c 00a8 a13b 6414 39bc 971a 8cbb
000001a0: a5ca 6b3c 6c6a f43a 58fa 17bc bf5f 7fbc
000001b0: 475c 6db9 4116 b53b 5b09 063b 8fba f93b
000001c0: 5060 6e3d 1670 2d3c fa14 633c 405f 993c
000001d0: 79e4 ab3c d443 08bc 0e73 0cbc 3b49 243c
000001e0: 0121 a3bb 19a7 fdbb bad4 2bbc 47c2 e4b9
000001f0: 9bca f2bb aab2 09b9 d117 71bb f9b4 0fbc
00000200: 1478 17bc 2dab 833c ce8c a1b9 6c91 b83c
00000210: 1362 15bc 062a 483b 48c9 bb3b e0c4 1e3c
00000220: 3f42 c53b 18dd 7d3b b3ad 81bc c844 873c
00000230: 5558 853d b4df b8bb 8cea 3b3d ce27 88b9
00000240: ff90 123b 0b31 1f3d fc94 1dbb fcf1 093b
00000250: eeb5 a23b bc94 333c 6ffd ac3b f745 e33b
00000260: 084e b73b 74ce cabb 68c5 24bc ac38 6b3b
00000270: 1151 c03b 8ac5 61bc 9c29 74bc 09fe 81bc
00000280: 41c6 d63b 26cc 4bbc 3a61 19bc 0d92 f43b
00000290: 0c0d 0dbc 8669 973c 9a03 1fbc a94c 76bb
000002a0: 414b b9bb a5d3 3abb 8b30 8ebc b323 2ebc
000002b0: eae5 cf3b 6176 1e3c 35a9 3fbc bfa5 673b
000002c0: c865 673c a18e 893c 6542 703c b3bc 2f3d
000002d0: b474 693b 087f ea3b 63f7 b73b f37d f0bb
000002e0: 8bf9 8aba dc88 ad3b 34c9 a1bb dbf9 1dbb
000002f0: 75f4 db38 295f 0bbb f466 093b 4fb5 413c
00000300: 1244 c23b 0409 7cbc 64a7 bfbb 55b3 4cb9
00000310: ecdc e63b a413 2f3c 8249 debb eee3 9a3b
00000320: 0b05 873b 7ea6 b4bc 1427 893c eb41 bdb7
00000330: 1fdb 8c3b f266 063b 5076 60bc 3b01 0a3c
00000340: 3ab2 303b f72b e73b 0461 46bc 7f6f 253d
00000350: e3c8 e63b bf4c 053d b3c6 e93c 7a40 e73a
00000360: 5934 a8bc 6c50 f63a b5a5 a4b9 445d 243a
00000370: c282 423b ca5f 56bc 0c50 2b3c f86a 93bb
00000380: 1f0d fcbb f5dc 953b 93c0 a53b bd00 343c
00000390: 0812 e63a 5255 ca3b 271e 04bc 6486 d2bb
000003a0: f19d b03b d8fc 833c e47e 683c 5815 0a3c
000003b0: a1f5 31bc 1f8d b33c cbdd 0f3b c8d7 50bc
000003c0: db98 c7bb 4b77 2fbc 46fb f1ba 4390 84bc
000003d0: 4f8c 36bc 7ba9 fd3b 5520 19bc 1d3f 70bc
000003e0: 8e62 20bc 9ac5 3d3b 52e7 3d3b 230a b83b
000003f0: a71c 1e3d 455f 863c f03f 04bc 6d87 26bb
-0.009018032 -0.010103067 0.009257004 0.052304287 0.0153073855 -0.012227789 0.0046870476 -0.0036367134
0.0040793098 -0.003107438 0.007358209 -0.0087680295 -0.014495691 0.015205055 0.050459076 0.0043356447
0.05596927 0.008084195 0.0057783504 -0.009619265 0.006262724 0.019229926 -0.021408528 -0.009556723
0.005545545 0.0130016375 0.045622572 -0.0015665079 -0.000447183 9.4453026e-05 -0.0191622 0.013249433
0.007463613 -0.013613477 0.016540144 0.027741436 -0.0037424262 0.0005924556 -0.0041411202 0.05536486
0.0041433787 0.0052148122 -0.0036789437 -0.009568255 -0.009110094 -0.01638807 0.00969273 -0.027000783
-0.009629286 -0.011894209 -0.013285937 0.005489447 -0.008433443 0.012595612 0.0026668159 0.003345381
0.04706957 -0.01505128 -0.0088842185 0.019020123 -0.0043295235 -0.008443677 0.028789898 0.011177887
0.009547132 0.054082192 0.0004704406 -0.003595218 -0.0069582216 0.011965395 0.007988264 -0.008346648
0.00553969 0.012102323 -2.6544425e-05 -0.020844046 -0.006446381 0.0019166891 -0.00014211792 0.03904332
0.0048853224 -0.008539647 -0.009337016 0.014391621 -0.006354276 -0.0022187973 -0.007008862 -0.008981494
0.0007269287 -0.0118749235 0.011638229 -0.0039851456 0.016091228 0.006212993 0.004124123 0.016533284
0.00069243065 0.008016507 0.01311783 0.0014010825 0.011210486 0.0049333572 -0.011296365 -0.0042756307
0.014391576 0.0018647439 -0.009275995 -0.0155867925 -0.00022636457 0.0055263345 0.0020452354 0.0076211165
0.05819732 0.010585805 0.013859982 0.018722177 0.020982968 -0.008316953 -0.008572353 0.010027225
-0.0049782996 -0.007740867 -0.01048773 -0.00043632297 -0.0074094064 -0.00013131896 -0.0036787877 -0.008771175
-0.009244937 0.016072834 -0.0003081322 0.02253028 -0.009117621 0.0030542626 0.0057307817 0.009690493
0.00601986 0.0038736518 -0.015829897 0.01651229 0.065109886 -0.005641902 0.04587798 -0.00025969598
0.0022364256 0.03886513 -0.00240451 0.0021048775 0.0049655354 0.010960754 0.005279235 0.0069358307
0.005594019 -0.006189162 -0.010056831 0.0035891933 0.005869039 -0.013780007 -0.014902499 -0.015868204
0.0065543954 -0.0124388095 -0.0093615595 0.0074636997 -0.008609068 0.018482935 -0.0097054485 -0.0037582314
-0.005654723 -0.0028507498 -0.017357131 -0.010628629 0.0063445466 0.009671778 -0.011698057 0.0035346595
0.014123388 0.016791644 0.014664267 0.042904567 0.003562254 0.0071562566 0.0056142076 -0.007339233
-0.0010602934 0.005295856 -0.0049373154 -0.0024105224 0.000104882674 -0.0021266437 0.0020965906 0.0118230125
0.005928525 -0.015383009 -0.005848812 -0.00019521762 0.007045379 0.010685835 -0.006783665 0.0047268784
0.004120474 -0.022052046 0.016742267 -2.2561251e-05 0.004298582 0.0020508138 -0.013700083 0.008423145
0.00269617 0.0070548016 -0.012108091 0.040389534 0.0070429905 0.032543894 0.02853713 0.0017643117
-0.020532774 0.0018792278 -0.0003140398 0.0006270001 0.0029679989 -0.013084361 0.010456096 -0.0044988357
-0.007691994 0.0045734593 0.005058357 0.010986504 0.0017552981 0.0061747218 -0.0080638295 -0.006424712
0.005389922 0.016111776 0.014190409 0.00842794 -0.010861785 0.021917878 0.0021952267 -0.012746759
-0.00609122 -0.010709594 -0.0018461726 -0.01618207 -0.011141851 0.007741151 -0.009346087 -0.014663485
-0.009789122 0.002895689 0.002897699 0.0056164428 0.038601544 0.01640285 -0.0080718845 -0.002541031

network_body._body_endoder.seq_layers.4.weight f4 [256, 256]
00000000: 9455 113e 8e6f f23c 7624 69bd 2c82 523d
00000010: 603c 17bd e321 a7bc 4f40 b4bd 5bd2 18bd
00000020: a920 c6bc af6d 253c a941 333b 1220 2cbd
00000030: 97fc e53d ede6 46bd 5064 863d 96a4 7ebd
00000040: 16db 223d d800 22bd 1d69 ba3d fa56 adbc
00000050: c19e 1f3d 0f7c 73bd e1c7 6bbd 7601 96bc
00000060: 6c3f 0cbd 9f56 92bc b245 983b 803e 8f3d
00000070: dc15 b9bc 940c e13c 99f0 723d b765 983d
00000080: 7f87 52bd 0efe 8a3c fd40 abbd f28e 3c3c
00000090: d683 e1bd b00d 31bd 5469 06be 787c 82bd
000000a0: 639f adbc 627c 203c 5056 353d 97dc 1cbd
000000b0: e727 903c 577d 4d3d a141 91bd 06fa 37be
000000c0: 59d5 fc3c 9e48 d43c 6819 223d 3962 61bc
000000d0: 137c 5a3d ac10 b7bc c5d6 1fbd e335 1d3d
000000e0: 59a2 a03c 7f49 0b3d 904b 96bd 9eaf 2bbd
000000f0: de8d 4abd a69c 473d a8f5 5cbd 484d 863d
00000100: 8b58 11be 75e5 adbd 77fe dfbc 6b72 64bc
00000110: 0be9 dd3d e300 f8bc 1ddf 293c 2e05 5bbd
00000120: 5fa3 6b3d 70e6 963d 0531 153b 2ef8 873d
00000130: 0d06 a03c 49bc a23d f9d3 babd 45f7 1e3d
00000140: 8d1f 853d ae22 84bd 28c2 9cbd 77fc f03c
00000150: 1d97 dcbd 1e96 34bd 4c5b 7abd 7b7a 5cbc
00000160: 2f3c 9cbd 0205 a6bc dc9b 483d c278 2e3c
00000170: 38f4 3f3d 0e93 d9ba 20d9 be3c 9003 32bd
00000180: 5ccf 2d3d 6375 4cbd a6ea 55bd fff1 163c
00000190: 444c 87bd 93fb 75bd 7fa8 743d 8bd2 a83d
000001a0: adc0 94bd 6c22 0fbd 37bd aa3c 2943 c9bd
000001b0: 1cb3 84bc 605d 91bd cad4 783d 438b 82bd
000001c0: 28f8 72bd cd11 93bc 770b 533d 9c3a aabc
000001d0: 531d 0fbd ca92 a93d 0760 9bbd 37f3 063d
000001e0: 5e1e 8abd e563 a03d 9b12 01bd b5c1 fa3b
000001f0: 3946 27bd c679 c7bc 4868 83bd b3a3 67bd
00000200: ed69 e8bd 0f19 c5bc 6d53 8fbd 57e0 2d3d
00000210: b07f bd3d 873c 74bd 2723 3ebd 0c7b 21bd
00000220: 5749 963c af97 9cbd a3be c9bd fb80 163d
00000230: 7f09 793c c5dd 90bc cf2e b7bc e3cd c8bc
00000240: 78ab ae3c 31e3 4f3d 4f6c 4f3d 3367 f7bd
00000250: a7fa ccbb b229 2fbd 2312 5ebd 9224 5d3d
00000260: 871c 98bd 9d7d 7cbd e6cf 123c 0be9 3c3b
00000270: 875e 003c 5d1c 88bd 4951 8abd dabc 6fbd
00000280: 8b23 5e3d a253 c1bd 51d6 09bd 56b9 44bc
00000290: 2729 d3bc 39de 253c 1a18 81bd e4bc 083c
000002a0: 758f a03c c7f4 ab3c 039b 853c 4bd0 1cbd
000002b0: 3cfd cebd 4741 bdbd f055 a1bd a493 c2bd
000002c0: b883 abbd a923 92bc 0be7 ad3d 661f 41bd
000002d0: ef00 163d abba 663d 3560 61bc eba7 e73d
000002e0: d389 753c 76b0 11bd c87c 9a3d 4a0c 89bc
000002f0: 13cf 7abc 0080 1cbd 0d89 ec3d 70ac 00bb
00000300: 934a ad3d 1397 04bc f459 1d3c 4a33 82bd
00000310: 4fd0 523d 031f 84bd 21fc b63c 41cb d23c
00000320: 99a8 0dbd 22c9 4e3d 54d4 10bb 517a e2bc
00000330: 98f9 d23c cd2c 7abd 1c8c 333d da12 a6bd
00000340: 26d7 5cbd 525c 73bd 5680 51bc e752 29bd
00000350: 2ad4 e7bc c3d3 633d fe3e 053d 3b0e 76bd
00000360: 3dcd 5ebd e7e6 1c3d 0ef2 853c 96a6 6e3b
00000370: a387 e2bc 8443 213d 8b3c b3ba ec4c 43bd
00000380: 4713 8b3c da50 f6bd 09fb 033d b254 85bd
00000390: 2292 b1bd f527 043d 4733 ed3d e18f acbd
000003a0: 4dfc 71bb fd4d ac3d dfd3 ae3c cd6f c7bd
000003b0: 4c6f ab3c f18d f23c e239 f0bd 667f 28bd
000003c0: 0293 1fbe 756a 353d 71b5 a8bd eae7 7d3c
000003d0: 30a8 b03d ac78 09bd e02c 993c c90a 85bd
000003e0: 723e 71bd 6f98 c4bd 67f7 44bd 4564 b9bc
000003f0: 3209 4cbc 7868 293d 9b51 a13c 766d 4bbc
0.14192802 0.029594209 -0.056919537 0.051393673 -0.036922812 -0.0204019 -0.088013284 -0.037309986
-0.024185495 0.010096951 0.002735237 -0.042022772 0.11229818 -0.04856007 0.06562102 -0.06216868
0.039759718 -0.039551586 0.0910208 -0.021159638 0.03896976 -0.059444483 -0.057563666 -0.018311244
-0.03424017 -0.01786357 0.00464698 0.06994343 -0.022593431 0.027471818 0.059311483 0.074412756
-0.05139875 0.016966846 -0.08362005 0.01150869 -0.11011474 -0.043225944 -0.13126117 -0.06371397
-0.021194166 0.00979528 0.044271767 -0.03829631 0.017597152 0.05016836 -0.07092596 -0.1796647
0.03086345 0.025913533 0.03957501 -0.013756328 0.053340983 -0.022346817 -0.03902318 0.03838147
0.019608663 0.03400564 -0.07338631 -0.04191553 -0.0494517 0.048733376 -0.053945214 0.06557709
-0.14193933 -0.08491031 -0.027343018 -0.013943295 0.10835465 -0.03027386 0.010368136 -0.053471737
0.05752885 0.07368171 0.0022764814 0.066391334 0.019534135 0.07946069 -0.09122462 0.038810033
0.065001585 -0.06451927 -0.0765422 0.02941726 -0.1077101 -0.044088475 -0.061122224 -0.013456936
-0.076286666 -0.02026606 0.048976764 0.010648908 0.046863765 -0.0016599612 0.023296893 -0.04346043
0.04243408 -0.049916636 -0.05222573 0.00921297 -0.066063434 -0.060054373 0.059731003 0.08243283
-0.072633125 -0.034944937 0.020842178 -0.09827263 -0.016198687 -0.07097888 0.060749806 -0.06374218
-0.05931869 -0.017952824 0.051524606 -0.0207799 -0.034940075 0.08279951 -0.07586675 0.03294679
-0.06744073 0.07831553 -0.031511884 0.007652486 -0.040838454 -0.024350058 -0.064163744 -0.0565526
-0.11348329 -0.0240598 -0.06998334 0.042450275 0.0925287 -0.059628036 -0.046420243 -0.039423987
0.018345518 -0.07646119 -0.09850814 0.0367441 0.015200018 -0.017683873 -0.022361187 -0.024512237
0.021321997 0.050753776 0.0506404 -0.120802306 -0.006255466 -0.042764373 -0.054216515 0.053989954
-0.07427316 -0.06164323 0.0089607 0.0028825428 0.007835037 -0.06646035 -0.06753785 -0.058529712
0.054233115 -0.0943978 -0.033651654 -0.012007078 -0.025776459 0.010123783 -0.06303425 0.008345816
0.019599656 0.020990742 0.016309267 -0.03828458 -0.101068944 -0.09240966 -0.078777194 -0.095008165
-0.08374733 -0.01783927 0.084913336 -0.047149085 0.036621984 0.056330364 -0.013755848 0.11311325
0.014986473 -0.035568677 0.075433314 -0.016729493 -0.015308159 -0.038208008 0.11549578 -0.001963403
0.084614895 -0.0080926595 0.009603966 -0.06357439 0.05146819 -0.064512275 0.022337021 0.025731685
-0.034584615 0.050484784 -0.0022099214 -0.027646216 0.025753781 -0.06107788 0.04383479 -0.081090644
-0.05391612 -0.059414215 -0.012786945 -0.041338827 -0.02829941 0.055621874 0.032530777 -0.060072165
-0.05439495 0.038306143 0.016350772 0.003641521 -0.027652567 0.03937103 -0.001367466 -0.04768078
0.016976966 -0.1202714 0.032221828 -0.06510295 -0.08670451 0.03226467 0.11582046 -0.0842588
-0.0036924065 0.084133126 0.021341262 -0.09738121 0.020927094 0.029608699 -0.1172979 -0.04113712
-0.15583423 0.04429098 -0.08237732 0.015497187 0.08625829 -0.033562347 0.018698156 -0.06496198
-0.058897443 -0.09599387 -0.048087504 -0.02263082 -0.012453364 0.041359395 0.019692233 -0.012416234
