Assets/Training/results/track1_learned/config_track1/config_track1-499997.onnx (onnx, 642369 bytes, 9 tensors)

action_model._continuous_distribution.log_sigma f4 [1, 2]
0	0x3ba1267d	0.0049179182
1	0xbe6a0abb	-0.22855656

action_model._continuous_distribution.mu.bias f4 [2]
0	0x3c01e962	0.007929178
1	0x3b179ba0	0.0023133531

action_model._continuous_distribution.mu.weight f4 [2, 256]
0	0xbd64afa4	-0.055831566
1	0xbcd602f2	-0.026124451
2	0xbb27e561	-0.0025618898
3	0x3a544353	0.00080971903
4	0x3bafb9c9	0.0053627235
5	0xbcd180e8	-0.025574163
6	0x3ac24c00	0.0014823675
7	0xbb3ec47e	-0.0029108818
8	0x3cc0896d	0.02350303
9	0xbb5ebec0	-0.0033988208
10	0x3c193eb8	0.009353332
11	0xbd079fcb	-0.033111375
12	0xbc5bda06	-0.01341868
13	0x3b9ad57c	0.0047251564
14	0x3c16e770	0.009210452
15	0xbbc5b70e	-0.0060337847
16	0x3b55b486	0.003260882
17	0xbd01675b	-0.031592708
18	0xbb9e6411	-0.004833706
19	0xbcb64342	-0.022248868
20	0xbd298d87	-0.041394737
21	0xbd07d094	-0.0331579
22	0xbd325b52	-0.04354412
23	0xbb5cb1d2	-0.0033675325
24	0xbcb5ad73	-0.022177434
25	0xbcb2d460	-0.021829784
26	0x3cb76e57	0.022391481
27	0xbcfee222	-0.031113688
28	0xbc324a5e	-0.010881988
29	0x3b661e2f	0.0035113206
30	0xbcfcec68	-0.030874446
31	0x3b5766ea	0.0032867738
32	0x3b83e2bf	0.004024833
33	0xbc576035	-0.013145496
34	0x3c09acb7	0.008402995
35	0x3c0a2226	0.008430993
36	0xbb57ccef	-0.0032928546
37	0x3bdfd6e0	0.006831035
38	0x3c29e1c0	0.010368764
39	0x3c833443	0.016016131
40	0xb9934288	-0.00028087595
41	0xbbc80ba2	-0.0061049024
42	0xbc681531	-0.014165209
43	0xb9b72376	-0.000349309
44	0xbb887b3f	-0.0041650827
45	0x3a4cfe87	0.000781991
46	0x3a90e7a4	0.0011055362
47	0xbb0147cb	-0.001972663
48	0xbca613eb	-0.02027317
49	0x3c206836	0.009790471
50	0xbb883dcf	-0.004157759
51	0x3c83a822	0.016071383
52	0x3b486e0e	0.0030583176
53	0x3c3c5cb4	0.0114967115
54	0x3bc1c088	0.005912844
55	0xbd1a94c0	-0.037739515
56	0x3c782d1c	0.015147474
57	0xbd37fade	-0.04491698
58	0x3b7fa388	0.0039007384
59	0xbc462e68	-0.012096025
60	0xbd0c6ea3	-0.0342852
61	0x3c1e9da0	0.009681135
62	0xba17cb3b	-0.00057904766
63	0xbc38664e	-0.01125486
64	0xbd05884a	-0.03260068
65	0xbbd16998	-0.0063907616
66	0xbcfae781	-0.030627968
67	0x3c8fd662	0.01755828
68	0x3a6b398c	0.0008973114
69	0xbbe300d7	-0.0069275904
70	0x3b37d1b5	0.002804858
71	0xbd2ad067	-0.041702654
72	0x3c5d93ee	0.013524039
73	0xbb0f2843	-0.0021844066
74	0xbac2a316	-0.0014849629
75	0xbd12e97d	-0.035867203
76	0xbb665a5a	-0.0035149069
77	0xbc7faa39	-0.015604549
78	0x3ca85c32	0.020551775
79	0x3cf1fd65	0.029539773
80	0xbc54d33f	-0.012989818
81	0xbc37be0b	-0.011214743
82	0xbc1a9fc2	-0.009437503
83	0x3c0e15a2	0.00867215
84	0xbc132145	-0.0089801
85	0xbce5aa0c	-0.028035186
86	0xba0b1855	-0.0005306055
87	0x3c637428	0.013882674
88	0xbcc3231b	-0.02382045
89	0x3c824d3e	0.015905973
90	0x3b6a570a	0.0035757446
91	0xbccef951	-0.025265368
92	0xbc84b7f8	-0.016201004
93	0xbc922eaa	-0.017844517
94	0xbc54ff96	-0.01300039
95	0xbb26b493	-0.002543722
96	0x3b9bd6c8	0.0047558285
97	0x3c111e92	0.008857386
98	0x3b80cecf	0.0039309035
99	0xbb271a04	-0.0025497684
100	0xbd37ed8e	-0.044904284
101	0xbc53cf0c	-0.012927782
102	0xbb413dab	-0.002948622
103	0xbcef96a6	-0.02924664
104	0x3baed262	0.005335138
105	0x3c122940	0.008920968
106	0x3cc0148f	0.023447303
107	0xbaf7006f	-0.0018844734
108	0x3b506e5c	0.003180406
109	0xbc9fd6f7	-0.019511683
110	0xbbf80791	-0.0075692614
111	0xbb906acb	-0.004407262
112	0x3c72fbef	0.014830573
113	0xbc140168	-0.009033538
114	0xbc96f7d1	-0.018428715
115	0x3c26e389	0.010186085
116	0xbd1782e5	-0.036990065
117	0xbb84b1d2	-0.004049518
118	0xbd0d8942	-0.034554727
119	0xbc52e824	-0.012872729
120	0xbc0035de	-0.007825343
121	0x3d01e3fd	0.031711567
122	0x3bec98f3	0.0072203814
123	0x3c463185	0.012096767
124	0xbb304087	-0.002689393
125	0x3a755fdb	0.0009360292
126	0x3c53c669	0.012925723
127	0xbb455b5a	-0.0030114264
128	0x3c98a5ad	0.018633688
129	0x3ac20e07	0.0014805206
130	0x3c6102da	0.01373359
131	0xbccfcd41	-0.025366427
132	0xbd05b5ed	-0.0326442
133	0x3c84a563	0.016192144
134	0xba4303b6	-0.00074392126
135	0xbba3f3bf	-0.005003422
136	0x3c1d75b3	0.009610581
137	0x3b8b1b8c	0.004245227
138	0xb9ba6aba	-0.00035556202
139	0xbcf1c738	-0.02951394
140	0x3c8d175f	0.017223058
141	0xbc11b33f	-0.008892833
142	0x3d12051d	0.035649408
143	0xbcbceaf5	-0.023061255
144	0x3c4b0866	0.012392139
145	0x3c0a1dd4	0.008429963
146	0xbbffc524	-0.0078054834
147	0xbc4871a9	-0.01223413
148	0xbcc1ba11	-0.023648294
149	0x3c9620d4	0.0183262
150	0x3c07800d	0.008270276
151	0x3ae22d9a	0.0017256022
152	0xbc96fe1f	-0.018431721
153	0x3b55de64	0.0032633776
154	0x3c1aa50b	0.009438763
155	0xbb3c2453	-0.0028708174
156	0xbd401e9d	-0.046904195
157	0x3bd904da	0.006622893
158	0xbcc22d83	-0.023703342
159	0xbccecfee	-0.025245633
160	0xbc23c725	-0.00999621
161	0xbb26da77	-0.0025459805
162	0x3b66dcfc	0.0035226932
163	0x3bb9b117	0.0056668627
164	0x3c63e557	0.013909659
165	0xbc38cd47	-0.011279411
166	0x3cab1e36	0.02088843
167	0x3c283958	0.010267578
168	0xbba9dd41	-0.005183846
169	0x3b8974bf	0.0041948254
170	0xbc9071da	-0.017632414
171	0xbc1d6e28	-0.009608783
172	0xbbc51e54	-0.0060155783
173	0x3b1b2aa3	0.0023676537
174	0xbaac63e3	-0.0013152327
175	0xbcd74ffa	-0.026283253
176	0x3c9399c6	0.01801766
177	0xb86b132e	-5.604623e-05
178	0xbccbc944	-0.024876244
179	0x3c23d8d5	0.010000427
180	0xbd3121bb	-0.04324506
181	0xbcd03497	-0.025415702
182	0xbc3f11a7	-0.0116619235
183	0x3c9ce89d	0.019153887
184	0xbccead3f	-0.025229095
185	0xbc176879	-0.009241217
186	0xbb21c4f9	-0.0024684055
187	0xbc206204	-0.009788994
188	0x3c57bbc5	0.013167326
189	0xbbc672ef	-0.0060561816
190	0xbcafc744	-0.021457322
191	0x3bca3827	0.0061712447
192	0x3cb6e872	0.022327635
193	0xba877b13	-0.0010336362
194	0xbd46f7f1	-0.0485763
195	0xbb60866f	-0.0034259816
196	0xbbc3de8b	-0.005977457
197	0xbca2b12f	-0.019859878
198	0xbccf88f1	-0.025333853
199	0xbbd7f451	-0.006590404
200	0xbbcec9b7	-0.0063106674
201	0xbc9311d6	-0.01795284
202	0x3c5398aa	0.012914816
203	0xbc7d118e	-0.01544608
204	0xbac03c4f	-0.0014666411
205	0xbbcb5a92	-0.006205865
206	0xbc10c263	-0.008835408
207	0xbcde0f1e	-0.027106818
208	0x3d0c4cf4	0.034253076
209	0x3bf20f6e	0.0073870933
210	0xb991b73f	-0.00027793084
211	0x3b83f6e4	0.0040272344
212	0xbd155449	-0.036457334
213	0xb9edfb8d	-0.00045391583
214	0x3b991e80	0.0046728253
215	0xbd51b587	-0.05119851
216	0xbcfeb53a	-0.031092275
217	0xbb1b6089	-0.0023708662
218	0xbc6434cc	-0.013928603
219	0xbc9c4beb	-0.01907917
220	0xbc5f5418	-0.013630889
221	0xbc6da350	-0.014504269
222	0x3ab24cee	0.0013603249
223	0xbcdb53c3	-0.02677334
224	0x3c7de177	0.01549565
225	0x3b9ede53	0.0048482805
226	0xbc1495da	-0.0090689305
227	0xbc49eda1	-0.012324722
228	0xbc056fa9	-0.008144298
229	0x3cca93d8	0.0247287
230	0xbd15b420	-0.036548734
231	0xbc1c5ebe	-0.009544073
232	0x3c75e1c8	0.015007444
233	0x3c13b142	0.0090144295
234	0xbcee0906	-0.029057037
235	0x3b79b190	0.003810022
236	0xbc94d67c	-0.01816868
237	0xbc0b448f	-0.008500232
238	0xba320584	-0.0006790983
239	0x3c33a232	0.010963963
240	0x3cc2f2dc	0.023797445
241	0x3c86172f	0.016368477
242	0x3c7ec27c	0.015549298
243	0x3c1d9eb4	0.009620357
244	0x3bef48bd	0.0073023723
245	0xbce4002d	-0.027832115
246	0xbc8f4cdf	-0.01749271
247	0x3c269e0a	0.010169515
248	0xbccb3214	-0.024804153
249	0x3c19a961	0.009378762
250	0xbd1b7ba7	-0.03795972
251	0xbc948d09	-0.018133657
252	0x3b30a6ea	0.0026954957
253	0x3c38ebbd	0.011286673
254	0xbc580044	-0.013183657
255	0xbbfe3e17	-0.0077588665

network_body._body_endoder.seq_layers.0.bias f4 [256]
0	0x3c8d26e7	0.017230464
1	0x3c876936	0.01652966
2	0xbb9a6112	-0.0047112787
3	0xbbf300c7	-0.007415864
4	0xbbbb701f	-0.005720153
5	0xbc0dd1ea	-0.008656004
6	0x3a97eac7	0.0011590355
7	0xbc3f5f57	-0.011680446
8	0xbbb7e04d	-0.0056114555
9	0xbb95b129	-0.0045682383
10	0x3c1f9955	0.009741147
11	0x3ab963ad	0.0014144086
12	0x3c57866a	0.013154605
13	0x3980e78e	0.00024586584
14	0x3c030bed	0.007998449
15	0xba8f37b3	-0.0010926634
16	0xbb977dce	-0.0046231514
17	0xbb1d9e13	-0.0024050518
18	0x3b12fd9b	0.0022428993
19	0x3b8623b4	0.0040936116
20	0x3bec3a4d	0.0072090984
21	0xbbd221b3	-0.0064127087
22	0x3c9681c4	0.018372424
23	0x38e9850a	0.00011135086
24	0x3ced9bbe	0.029004928
25	0x3b8a0a4f	0.0042126547
26	0xba715c7e	-0.0009207203
27	0x3c9b8564	0.018984504
28	0x3bf05694	0.0073345397
29	0x39c6aebd	0.00037895693
30	0xba845b6c	-0.0010098047
31	0x3abbc0a4	0.0014324379
32	0xbc3f95aa	-0.011693398
33	0xbb8bf850	-0.0042715445
34	0x3aae8990	0.0013316143
35	0xbb2e08a3	-0.002655544
36	0x3b3c8dab	0.0028770964
37	0xbab68743	-0.0013925809
38	0xbc6a4bc9	-0.014300295
39	0x3a4907e1	0.00076687156
40	0x3c2b6236	0.010460427
41	0xbba27c48	-0.004958663
42	0xba08cefc	-0.00052188314
43	0x3b77333b	0.0037719745
44	0x3cde9d45	0.027174601
45	0x39b6e825	0.00034886706
46	0x3c097563	0.008389804
47	0x3b900574	0.0043951813
48	0xbbae9ade	-0.00532852
49	0xbb96d9cd	-0.0046036006
50	0x3b9e0f14	0.004823575
51	0x3a9fb5f6	0.0012184966
52	0x3bf82b98	0.007573556
53	0xbb634ddf	-0.0034683866
54	0x3ad21bed	0.0016030051
55	0x3c760df4	0.015017975
56	0x3bc53392	0.0060181106
57	0x3cba75df	0.022761283
58	0xbc2e1d85	-0.010627155
59	0xb9a44a3b	-0.00031335824
60	0x3b1a06ad	0.0023502514
61	0xbbb90e3b	-0.0056474484
62	0x3c5b1746	0.013372248
63	0xbb3b9256	-0.0028621159
64	0xbb50b390	-0.003184531
65	0x3c4856bd	0.012227711
66	0xbb305436	-0.0026905662
67	0x3b1a3354	0.002352913
68	0xb8c6498c	-9.455075e-05
69	0xbbb2fbef	-0.0054621617
70	0x3b6a00f9	0.0035706146
71	0x3860de72	5.361293e-05
72	0xbabf0890	-0.0014574695
73	0xbaa63012	-0.0012679121
74	0x3b363dda	0.0027807862
75	0xbb3f9430	-0.0029232614
76	0xbaeb13af	-0.0017934943
77	0x3c06a50c	0.008218061
78	0xb9de833e	-0.00042440923
79	0x3d004b4e	0.031321816
80	0x3c910db4	0.01770673
81	0xbb2bdbc5	-0.0026223522
82	0xbb6a7f28	-0.0035781357
83	0xbc6da627	-0.014504946
84	0xbc5234d1	-0.012829975
85	0xbba29821	-0.004961983
86	0x3ad3fe3e	0.0016173793
87	0xbc0ba123	-0.008522305
88	0x3b495a6f	0.0030724069
89	0x3c3c3f2a	0.011489669
90	0x3b3a62df	0.002844028
91	0x3c45dffd	0.012077329
92	0xbb8b13a2	-0.004244284
93	0x3b81fb1b	0.0039667017
94	0xbabff061	-0.0014643782
95	0x3c3655a8	0.0111288205
96	0x3bef3460	0.0072999448
97	0xbb62c8a5	-0.0034604457
98	0xbbe7115c	-0.00705163
99	0xbc8d7716	-0.017268699
100	0xbc5f89a8	-0.01364366
101	0x3aadd531	0.0013262389
102	0x3c4d37c0	0.012525499
103	0xbb7856a1	-0.0037893432
104	0x3b1811fb	0.0023204077
105	0xbb787393	-0.0037910684
106	0xbb1652d2	-0.0022937548
107	0x3d12a35b	0.03580032
108	0xbc06e283	-0.008232716
109	0x3b71f9f4	0.0036922665
110	0xbb46d483	-0.003033907
111	0x3b43d551	0.0029881785
112	0x3ba0dc33	0.0049090623
113	0x3be4ae1b	0.006978763
114	0xb962a280	-0.00021613576
115	0xbbf55b25	-0.007487672
116	0x3c302105	0.01075006
117	0xbb7a15d7	-0.003815999
118	0xbbedad82	-0.0072533498
119	0xba8f0c74	-0.0010913746
120	0xbb6e07af	-0.0036320498
121	0x3c09c732	0.008409308
122	0x3bf0c720	0.0073479563
123	0xbb805ed2	-0.0039175535
124	0xbaa334ed	-0.0012451686
125	0xbbe05da0	-0.0068470985
126	0xbc8ea33b	-0.017411819
127	0x3bd4f539	0.0064989594
128	0xbabfd48b	-0.0014635486
129	0x3b8a5a83	0.0042222156
130	0xbc828108	-0.015930668
131	0xba91492a	-0.0011084427
132	0x3d02d2c3	0.03193928
133	0xbc58ef80	-0.013240695
134	0x3d3e7880	0.046501637
135	0xbc308d15	-0.010775824
136	0xbbe99682	-0.0071285376
137	0xbc152b77	-0.009104601
138	0x3b27f3c2	0.0025627469
139	0x3bfc6467	0.0077023986
140	0x3c4fbdd5	0.012679537
141	0xbbffaec3	-0.0078028156
142	0xbc33b8f1	-0.010969386
143	0x3d2de3b7	0.042453494
144	0xbb5c44d6	-0.0033610365
145	0xbb7fe88a	-0.0039048516
146	0xbbf3be67	-0.007438469
147	0x3c4c3cab	0.012465636
148	0xbc583778	-0.0131968185
149	0x3c0495a4	0.008092318
150	0x3bc5df74	0.0060386006
151	0x3a71cb5a	0.0009223722
152	0x3c161af2	0.009161698
153	0xbc900e69	-0.017584996
154	0x38fe1cd0	0.000121170306
155	0x3bbcd56c	0.0057627466
156	0xbb0835ab	-0.0020783942
157	0xbc13a9d9	-0.009012663
158	0xbcb43c70	-0.022001475
159	0x3c2c7e2c	0.010528129
160	0xba5d14e6	-0.0008433595
161	0xbc9bff92	-0.019042764
162	0x3c80299f	0.015644846
163	0xbb586762	-0.0033020605
164	0xbb121be2	-0.0022294451
165	0x3cc0284b	0.023456713
166	0xba539d53	-0.00080724544
167	0x3bc700d9	0.006073099
168	0xbbfef2ea	-0.0077804225
169	0xbbbef512	-0.0058275545
170	0x3b11aac0	0.002222702
171	0x3c057285	0.008144979
172	0x3d1859b3	0.03719492
173	0xbbde75e2	-0.006788955
174	0xbc0bb4bf	-0.00852698
175	0xb938975c	-0.00017603993
176	0xbbe6992d	-0.007037303
177	0xbb62e61b	-0.0034622017
178	0xbc1d4c89	-0.009600767
179	0xb8d09f06	-9.947833e-05
180	0xbbac5a89	-0.005259816
181	0xbb7a0695	-0.0038150896
182	0xbb6fc739	-0.0036587252
183	0x3ba72f75	0.005102093
184	0x3c139b98	0.009009264
185	0x3a208d48	0.0006124568
186	0x3aac412b	0.001314198
187	0x3b59396e	0.0033145803
188	0xbae897aa	-0.0017745395
189	0xbc04c31d	-0.008103159
190	0xbc7b1cce	-0.015326692
191	0x3b9d4259	0.004799169
192	0x3c7032b9	0.014660531
193	0xbb5c45ea	-0.0033611008
194	0xbbbb7047	-0.0057201716
195	0x3a9fea72	0.0012200607
196	0xbad758f0	-0.0016429704
197	0xbc24fa92	-0.010069506
198	0x3c43e8e2	0.011957379
199	0x3b8a5f5c	0.0042227935
200	0x3bce6aff	0.006299376
201	0xbcba19c2	-0.02271736
202	0xbb83edac	-0.0040261354
203	0x3c8bac1d	0.017049843
204	0xbbad2d35	-0.00528493
205	0xbc1829eb	-0.009287338
206	0x39236ecc	0.00015586166
207	0x3b248955	0.002510627
208	0x3b31dfa9	0.0027141368
209	0x3a27d561	0.00064023404
210	0xba11d145	-0.00055624946
211	0xba43f791	-0.000747555
212	0xb9c56b2e	-0.00037654623
213	0x3c0352f1	0.00801538
214	0x3baf5827	0.0053510848
215	0x3b140e3b	0.002259149
216	0xbc670390	-0.01409997
217	0xba1a1182	-0.00058772427
218	0x3a8d5734	0.0010783435
219	0xbaf07fbf	-0.0018348618
220	0xbbfaa9cd	-0.0076496364
221	0xbc451d1b	-0.012030865
222	0x3c57677e	0.013147233
223	0x3b9fc7cb	0.004876112
224	0xbb3492ce	-0.0027553323
225	0xbc8b348c	-0.01699283
226	0x3c51909a	0.012790823
227	0xbbc0e42f	-0.0058865766
228	0xba8a173d	-0.001053549
229	0x3b6f493a	0.0036512152
230	0x3d082ab5	0.033243854
231	0x3c323f10	0.010879293
232	0x3cb7bde2	0.02242941
233	0x3c26cae6	0.010180211
234	0x3b9a3c42	0.0047068903
235	0x3c73d446	0.014882153
236	0xbb546fc3	-0.0032415248
237	0xbc28829c	-0.010285046
238	0x38b0a844	8.423676e-05
239	0x3c27eb3b	0.010248954
240	0xbb9cca49	-0.0047848565
241	0x3acd0b59	0.0015643641
242	0x3a00725c	0.00048998534
243	0xbc7a6686	-0.015283233
244	0xbb1138f7	-0.0022159198
245	0x3be5f704	0.007017972
246	0xbc969f42	-0.018386487
247	0xba25f4fe	-0.0006330757
248	0x3b001bba	0.0019547776
249	0xbb042c7f	-0.0020168123
250	0x3d1c034c	0.03808908
251	0x3b9c49e3	0.00476955
252	0xbc19c5bf	-0.009385525
253	0xbbb02094	-0.0053749774
254	0x3bb63ff4	0.005561823
255	0x3bf0beca	0.0073469626

network_body._body_endoder.seq_layers.0.weight f4 [256, 108]
0	0x3d37a1ea	0.044832148
1	0x3c9d3740	0.019191384
2	0xbe563d26	-0.20921764
3	0xbddca71b	-0.1077406
4	0xbd9727d7	-0.07380646
5	0xbdb2f412	-0.08737959
6	0x3d6150f0	0.05500883
7	0xbda89b6d	-0.0823277
8	0xbd82348d	-0.063576795
9	0xbe803dc2	-0.25047117
10	0xbe49c63e	-0.1970453
11	0x3cab0fa0	0.020881474
12	0x3d8e215f	0.06939959
13	0x3d4a392f	0.04937094
14	0xbcda5ebf	-0.026656507
15	0xbe0cb4de	-0.1374087
16	0xbd9534f0	-0.07285488
17	0x3d69d5f4	0.057088807
18	0xb906df8a	-0.0001286251
19	0xbcc19e5d	-0.023635084
20	0xbb9c6a49	-0.0047734124
21	0xbc62a37a	-0.013832921
22	0x3dc52bae	0.09627472
23	0xbb63cebc	-0.0034760674
24	0xbe19d8cd	-0.15024109
25	0xbdeec067	-0.116577916
26	0xbdbcb631	-0.09214438
27	0x3cf11eef	0.029433696
28	0xbc54d8c7	-0.012991137
29	0x3d656740	0.05600667
30	0x3c06f84f	0.008237912
31	0x3df07ec4	0.117429286
32	0xbdb4b4df	-0.08823561
33	0x3d4995dd	0.049215186
34	0x3db85048	0.089996874
35	0xbb45ef95	-0.0030202616
36	0x3de3d5c0	0.11124754
37	0xbc92da4c	-0.017926358
38	0x3e17b7ac	0.14816159
39	0x3b8b378d	0.0042485655
40	0xbe37d6d3	-0.17953043
41	0xbc3ae8aa	-0.0114080105
42	0xbd88445e	-0.06653665
43	0x3d53dd40	0.051724672
44	0x3dee34c7	0.1163116
45	0xbe4ee3d5	-0.20204099
46	0xbddcd0dd	-0.10782025
47	0xbbe6457d	-0.0070273266
48	0x3ce99515	0.02851347
49	0xbe2ce0ac	-0.1688258
50	0xbe56dd92	-0.2098296
51	0x3ba2f170	0.0049726292
52	0xbc893859	-0.016750501
53	0x3cc5dc76	0.024152976
54	0x3bc6c21c	0.00606562
55	0xbe18ff47	-0.1494113
56	0x3cedf8d1	0.029049309
57	0xbe4636e4	-0.19356877
58	0x3d59586d	0.053062845
59	0x3d377846	0.044792436
60	0x3e24e99e	0.16104743
61	0x3d8a7afd	0.067617394
62	0x3dea237b	0.114325486
63	0x3d61395a	0.054986335
64	0xbd9fe31d	-0.0780699
65	0x3d3712ef	0.04469579
66	0xbe03e6c0	-0.12880993
67	0x3e00cfdd	0.12579294
68	0x3e24395c	0.16037506
69	0x3c15f4f4	0.00915264
70	0x3cee9378	0.029123053
71	0x3c7deb9e	0.01549807
72	0x3d95ec2d	0.073204376
73	0x3dde34b3	0.10849895
74	0xbcd7d917	-0.026348634
75	0xbd6b7d5b	-0.057492595
76	0x3d91658d	0.070994474
77	0x3dd7fabd	0.105458714
78	0xbbdf0a7e	-0.0068066707
79	0x3e370ffb	0.1787719
80	0xbd187684	-0.0372224
81	0xbe04cf39	-0.12969674
82	0xbddec2e3	-0.108770154
83	0x3d2a73f9	0.041614506
84	0xbe1621f6	-0.14661393
85	0xbd495ac3	-0.049158823
86	0x3d6e690a	0.05820564
87	0x3d5aa586	0.05338051
88	0x3d401c1a	0.0469018
89	0xbe0a9c98	-0.13536298
90	0xbdae3952	-0.08507027
91	0x3e66129c	0.22468036
92	0xbd9a54b6	-0.075356886
93	0x3d998079	0.07495207
94	0xbd9cfe13	-0.07665648
95	0xbe31e496	-0.17372355
96	0xbcf1488a	-0.029453535
97	0x3df6981e	0.12040733
98	0xbe33916e	-0.17535946
99	0xbc479283	-0.012180927
100	0x3de2afcf	0.11068689
101	0x3c8a3335	0.01687012
102	0xbde1a6e6	-0.110181615
103	0xbcf618e7	-0.030041171
104	0xbdd4e122	-0.10394503
105	0xbe385fd2	-0.18005303
106	0xbd68fb4c	-0.05688028
107	0xbdd80822	-0.10548426
108	0xbc29645e	-0.010338871
109	0xbd9a4c68	-0.075341046
110	0x3d3f16e1	0.04665268
111	0x3e36666e	0.17812511
112	0x3e0ecf39	0.13946237
113	0xbd6b135f	-0.05739152
114	0xbcab21ae	-0.020890083
115	0x3d99410f	0.07483112
116	0x3e397d11	0.18114115
117	0xbdf1fa1f	-0.11815285
118	0xbe5c83c6	-0.21534643
119	0x3d4a6dee	0.049421243
120	0x3dfb569f	0.12272381
121	0x3c8557b4	0.016277172
122	0x3e182b4e	0.1486027
123	0xbea3fefc	-0.32030475
124	0x3e74288d	0.23843594
125	0xbdb1f868	-0.08689958
126	0x3e07fd4b	0.13280217
127	0x3d7b6069	0.06137124
128	0x3ccb1b1b	0.024793198
129	0xbd38910f	-0.045060214
130	0xbe51bc64	-0.20482022
131	0x3d5e3ca2	0.054257043
132	0x3e054e23	0.13018088
133	0x3bbef1e4	0.0058271755
134	0xbd4a64e5	-0.049412627
135	0xbe6ac961	-0.22928382
136	0x3cbbb461	0.02291316
137	0x3dad623a	0.08466001
138	0x3db5a374	0.08869067
139	0x3de0ac2e	0.10970341
140	0xbc9990ba	-0.018745769
141	0xbd7e8bab	-0.062144917
142	0x3de3acd0	0.11116946
143	0xbdf46c34	-0.119347006
144	0xbd81b669	-0.0633362
145	0xbd28e100	-0.0412302
146	0xbd776033	-0.060394477
147	0xbe1ede6c	-0.15514535
148	0x3d8c835a	0.06860991
149	0xbe59da1b	-0.21274607
150	0x3d5be2e9	0.053683195
151	0x3df6cbe7	0.1205061
152	0x3e075982	0.13217738
153	0xbd9a6c3a	-0.07540174
154	0xbd8cc91f	-0.06874298
155	0x3e895860	0.26825237
156	0x3e22bebb	0.1589307
157	0x3d643d60	0.055722594
158	0xbde88943	-0.113543056
159	0x3d6ae16e	0.057343893
160	0xbdb89cf4	-0.090143114
161	0xbd12ed04	-0.035870567
162	0x3e829148	0.25501466
163	0xbdea9888	-0.11454874
164	0x3ded6a78	0.11592573
165	0xbd87817e	-0.066164955
166	0xbdcfe251	-0.10150588
167	0x3c866ea3	0.016410178
168	0x3e286a96	0.1644691
169	0xbd9ada5a	-0.075611785
170	0xbd656863	-0.056007754
171	0xbe10a367	-0.14124833
172	0x3e6996bd	0.22811408
173	0x3dcfdadc	0.10149166
174	0xbc6dda67	-0.014517403
175	0xbda203f3	-0.079109095
176	0xbd645414	-0.055744246
177	0xbd3682b7	-0.044558253
178	0xbdb69c4a	-0.089165285
179	0xba534ab1	-0.0008060141
180	0x3e128dca	0.143119
181	0xbcaa55e3	-0.020792907
182	0x3d157be9	0.036495123
183	0xbb0d8471	-0.0021593834
184	0xbdffef5c	-0.12496826
185	0xbdd8fce4	-0.1059511
186	0xbe296fbd	-0.16546531
187	0xbe446dc7	-0.19182502
188	0xbd01abcc	-0.03165798
189	0xbb6abd85	-0.003581853
190	0xbc413031	-0.011791275
191	0xbd66ab61	-0.056315783
192	0x3dfcf2b1	0.12350977
193	0xbcfd2921	-0.0309034
194	0xbb2ca57b	-0.0026343751
195	0x3d9ff0eb	0.07809623
196	0x3e55411b	0.20825617
197	0x3a636550	0.00086744595
198	0xbde6bd82	-0.112666145
199	0xbd96d25d	-0.07364342
200	0xbdb55369	-0.088538
201	0xbd026272	-0.031832166
202	0x3d6f0142	0.05835081
203	0x3daf49ef	0.085590236
204	0x3dbf592c	0.0934318
205	0x3e33d53a	0.17561808
206	0xbe821510	-0.25406694
207	0x3cc35552	0.023844395
208	0xbc932515	-0.017962018
209	0x3d0248d4	0.031807736
210	0xbdb06ea2	-0.086148515
211	0x3c942789	0.018085258
212	0x3b0c0374	0.0021364363
213	0xbe4c04e3	-0.19923739
214	0x3dc9d2ed	0.09854684
215	0x3c581bb1	0.013190196
216	0x3d10ea91	0.03537995
217	0xbc13994e	-0.009008719
218	0xbd88683f	-0.06660508
219	0xbd851e5c	-0.06499931
220	0xbe4fc04c	-0.20288199
221	0xbb7e1a54	-0.0038773017
222	0xbdaa8d94	-0.08327785
223	0x3d580952	0.052743264
224	0xbe0c9802	-0.13729861
225	0xbd04662f	-0.032324012
226	0xbd4b3771	-0.04961342
227	0xbc80ccba	-0.015722621
228	0xbc9fba26	-0.019497942
229	0xbd38c21e	-0.045107
230	0x3da84a11	0.08217252
231	0xbe0e5b4c	-0.13902014
232	0x3dfb3f25	0.12267903
233	0x3e0c77c3	0.1371756
234	0xbca2ee78	-0.019889101
235	0xbd225a77	-0.039637055
236	0xbe310e7f	-0.17290686
237	0x3e0bfac6	0.13669881
238	0x3d90b474	0.07065669
239	0x3dc27ae0	0.09496093
240	0xbdd1e59a	-0.10248871
241	0xbcd35cc2	-0.025801066
242	0x3e07de52	0.13268402
243	0xbb88fdef	-0.004180662
244	0xbd6d5dbe	-0.057950728
245	0xbda96ccd	-0.08272705
246	0x3e1693d4	0.1470483
247	0x3d37857c	0.044805035
248	0xbd1fac71	-0.038982812
249	0xbde65462	-0.112465635
250	0xbc959ac7	-0.01826228
251	0xbe4ab5b4	-0.19795877
252	0xbdcf93b4	-0.10135594
253	0x3e3c6b3d	0.18400283
254	0xbd7e5e44	-0.062101617
255	0xbe419ba4	-0.18907028

network_body._body_endoder.seq_layers.2.bias f4 [256]
0	0xbbc34bb1	-0.005959951
1	0xbb6fb956	-0.0036578975
2	0x3ba7b6ee	0.0051182425
3	0xba0174d8	-0.00049383705
4	0xbc4c98b4	-0.012487579
5	0xba2c9527	-0.0006583505
6	0xba19c2fc	-0.0005865542
7	0x3c2c055c	0.010499325
8	0xbbb267f1	-0.0054445197
9	0xbc5a08fc	-0.013307806
10	0x3a025307	0.00049714785
11	0x3c5773fe	0.013150213
12	0x39c57788	0.00037663826
13	0xbb3c697b	-0.0028749395
14	0x3c5b33f3	0.013379085
15	0xbb609cc2	-0.0034273122
16	0xbb27eba2	-0.0025622626
17	0x39db84cf	0.00041869885
18	0xbb6f3107	-0.0036497728
19	0x3b35687e	0.002768069
20	0x3c634bdd	0.013873068
21	0xbb80acc5	-0.0039268457
22	0xba6762a6	-0.00088266504
23	0xbbc2eb64	-0.005948471
24	0xbb6a72b4	-0.0035773935
25	0x3a823f50	0.0009937081
26	0xbb9a420f	-0.004707582
27	0xbabb9fec	-0.0014314628
28	0xba7aa072	-0.00095606514
29	0x3b5955bd	0.0033162676
30	0xbc08e6db	-0.0083558215
31	0xbc1b6c7e	-0.009486316
32	0x3c68f47f	0.014218449
33	0xbba07c77	-0.00489765
34	0xbc03ca2d	-0.008043808
35	0x3bf57a42	0.007491381
36	0xbc02f145	-0.007992093
37	0x3a682fc9	0.0008857218
38	0x3b199d40	0.0023439676
39	0x3a6dc0a2	0.0009069537
40	0xbc4ffbe3	-0.012694332
41	0x3ac66cee	0.0015138665
42	0x3ccf29ed	0.025288546
43	0x39ce525e	0.0003935275
44	0x3bc08105	0.0058747553
45	0xbb3ada9b	-0.0028511647
46	0xb964353f	-0.0002176361
47	0xbb2bd939	-0.0026222004
48	0xbb5d36e2	-0.0033754637
49	0x3bbce354	0.0057644043
50	0x3a98b74e	0.0011651309
51	0xbb9bebe4	-0.004758345
52	0xbba1e38f	-0.004940457
53	0xbb75abcb	-0.003748643
54	0x379c127e	1.860526e-05
55	0xbb99ed7e	-0.0046975007
56	0x3ba842a9	0.0051348996
57	0xbb9c0280	-0.00476104
58	0x3c209cef	0.009803041
59	0x3bf982a4	0.0076144505
60	0x3c294b9a	0.010332966
61	0x3b10ec12	0.0022113365
62	0x3a23b3ef	0.0006244769
63	0xbbc2c394	-0.005943725
64	0x3986b3a2	0.0002569231
65	0x38585c74	5.1584517e-05
66	0x3b0aa0b6	0.002115292
67	0x3b7973b1	0.0038063342
68	0x3c08387f	0.008314251
69	0x3a443d3a	0.000748593
70	0xba88b1c3	-0.0010428954
71	0x3af8f7d6	0.0018994759
72	0x3a30c74c	0.0006743565
73	0x3a2e9e10	0.00066611264
74	0xbb176016	-0.0023098043
75	0x3c25e51d	0.010125426
76	0xba6fbc50	-0.0009145187
77	0x39f6f006	0.00047099608
78	0x3c18cbc8	0.009325929
79	0xbc0085da	-0.007844413
80	0xbb2535a3	-0.0025208972
81	0x3bab5e85	0.0052297735
82	0x3b288583	0.0025714345
83	0xbbeb7041	-0.0071850126
84	0x3bd28c6e	0.006425432
85	0xbba33cc5	-0.0049816095
86	0x3c166153	0.009178477
87	0x3a96a27d	0.0011492517
88	0xbb755b32	-0.003743839
89	0xbba02e23	-0.0048883124
90	0x3a0aa1ac	0.0005288373
91	0xbba87e41	-0.0051420038
92	0xbc17b586	-0.009259587
93	0xbc41c2e9	-0.011826255
94	0xbbc3c93a	-0.005974916
95	0x39dc8553	0.00042061004
96	0xbc027089	-0.007961401
97	0xbb0ed852	-0.0021796417
98	0x3a085445	0.00052005454
99	0xba9cff66	-0.001197797
100	0x3a0df199	0.0005414724
101	0xbc1abadb	-0.009443964
102	0xbb315fd2	-0.002706517
103	0x3a9716fa	0.0011527233
104	0xbaf94a7b	-0.0019019389
105	0xbb9ce3be	-0.004787891
106	0xb947a6ce	-0.00019040258
107	0x3bed81b7	0.007248129
108	0xbbb973f2	-0.0056595737
109	0xb83225c4	-4.247368e-05
110	0x3bc7be01	0.0060956483
111	0x3bf84680	0.0075767636
112	0xbc1af0f0	-0.009456858
113	0xbb8cc25f	-0.004295632
114	0x3ba7f3df	0.0051255072
115	0x3a8b3207	0.0010619768
116	0xbbb4bb9e	-0.00551553
117	0xbc240669	-0.010011294
118	0xba5f9fd2	-0.000853059
119	0xbc00fb0f	-0.007872357
120	0x3c8aca59	0.01694219
121	0x3a9582d3	0.0011406787
122	0x3a95fcfa	0.0011443191
123	0xbb19f146	-0.0023489757
124	0x3b9aa32a	0.0047191577
125	0x3ac73e76	0.001520111
126	0x3b0b8a09	0.0021291992
127	0xba46784d	-0.0007571027
128	0x3cef75bc	0.029230945
129	0x3ac5a8f7	0.0015080263
130	0x3bb08e59	0.005388063
131	0xbc11ba18	-0.008894466
132	0x3a42d7e3	0.00074326823
133	0xbb908635	-0.00441053
134	0x3a3e9213	0.00072696916
135	0x3aab40e6	0.0013065606
136	0xbb65e45d	-0.0035078742
137	0xbbd358db	-0.0064498014
138	0xbc148cd5	-0.00906678
139	0xbbb326cb	-0.005467271
140	0xbbd3b39e	-0.006460621
141	0x3ba6b824	0.0050878692
142	0x3ba09f72	0.00490182
143	0xb9dc30fd	-0.0004199817
144	0x3b939c77	0.004504736
145	0xbc1e72ed	-0.009670955
146	0xbb2e61b3	-0.0026608526
147	0x3c121fc7	0.008918709
148	0x3b3e58c6	0.0029044612
149	0x3b7622f0	0.0037557445
150	0x3bed8a6a	0.0072491663
151	0xbb535045	-0.003224389
152	0x3bf57f8b	0.007492011
153	0xba6cd621	-0.0009034593
154	0xbc103d91	-0.008803741
155	0xbbdb501a	-0.0066928985
156	0x3b8b7da9	0.004256923
157	0xbc1056b0	-0.00880973
158	0x3b86a27d	0.0041087256
159	0x3b4b33fa	0.0031006322
160	0xbbcec606	-0.0063102273
161	0xba603ccc	-0.00085539813
162	0x3aff1035	0.0019459786
163	0xba29f1ca	-0.0006482868
164	0xb9cb63ac	-0.0003879344
165	0xbc479af2	-0.012182938
166	0xbb72639d	-0.0036985644
167	0x3c04c7a1	0.008104236
168	0x3caceeae	0.021109905
169	0xbbf0ec17	-0.007352363
170	0xbc1a9980	-0.009436011
171	0x3b4e843a	0.0031511919
172	0x3bf1f9f2	0.007384532
173	0x3c81cb24	0.015843935
174	0xbbabee15	-0.0052468874
175	0x3ba82b7a	0.005132136
176	0x3ba5db3f	0.0050615366
177	0xbb174f05	-0.002308787
178	0xbaa97b64	-0.001293045
179	0xbc1575ee	-0.009122355
180	0xbc87f386	-0.016595613
181	0x3bdbab3b	0.006703762
182	0xbc035f46	-0.00801832
183	0xbb82fefc	-0.0039976817
184	0x3a28df35	0.0006441952
185	0x3b2b23b9	0.0026113822
186	0xbbacab01	-0.0052694087
187	0x3b3439ac	0.0027500195
188	0xbc1d6603	-0.009606841
189	0x3ad70e47	0.0016407453
190	0x3c025c22	0.0079565365
191	0x3b3fdaf6	0.0029274798
192	0x3cb1c921	0.021702351
193	0xbb659aa8	-0.003503481
194	0x39278c25	0.00015978569
195	0xbaaf07ac	-0.0013353727
196	0xbc775f81	-0.0150984535
197	0xbbb2c649	-0.0054557663
198	0x3c291311	0.010319487
199	0xbb5a53ad	-0.0033314035
200	0x3a8b2057	0.0010614496
201	0xbbe312d4	-0.0069297347
202	0xbb00cb4d	-0.0019652427
203	0x3a620913	0.0008622568
204	0xbba72cea	-0.0051017897
205	0x3c5c2095	0.013435503
206	0xbae8bb2c	-0.0017755977
207	0xbba71f46	-0.0051001636
208	0x3bd4ce2c	0.006494304
209	0x3b4aabe7	0.0030925216
210	0x3af8a26a	0.0018969302
211	0xbb823c3d	-0.003974466
212	0xba586535	-0.0008254827
213	0xbc087079	-0.008327597
214	0xbb12a58c	-0.0022376506
215	0x3b4cb230	0.0031234138
216	0xbada01a8	-0.0016632574
217	0xbc2735c7	-0.010205693
218	0x3b013c31	0.0019719715
219	0xbbf10dbb	-0.007356373
220	0xbb711dd0	-0.0036791451
221	0xbae92cd0	-0.0017789844
222	0xbc0692a5	-0.008213674
223	0x3ac0482d	0.0014669948
224	0xbb6e23a0	-0.0036337152
225	0xbc2cd834	-0.010549594
226	0x3c4b4692	0.012406962
227	0xbc1cd949	-0.009573289
228	0x3bc7d926	0.006098884
229	0x3b7adc72	0.0038278368
230	0x3bd32d10	0.006444581
231	0xbba76c0f	-0.005109317
232	0xbb9f43a2	-0.0048603574
233	0x3b1ae58b	0.0023635353
234	0xbb18106f	-0.0023203155
235	0xbbf21f83	-0.0073890104
236	0xba424e38	-0.0007412168
237	0x3ce1e92a	0.027577002
238	0x3c28fd29	0.010314264
239	0x39592bb7	0.00020711018
240	0x3adc5222	0.0016809145
241	0xbc4c2a5b	-0.01246127
242	0xbc08dabc	-0.008352932
243	0x3bc87de9	0.0061185253
244	0x3bcbe054	0.0062218104
245	0xba9f3579	-0.0012146673
246	0x3a5b3209	0.0008361643
247	0xbb93e55a	-0.004513425
248	0x3a304661	0.00067243545
249	0x3a07dc10	0.0005182633
250	0x3bbc6262	0.005749033
251	0xbb084668	-0.0020793919
252	0x3c113401	0.008862496
253	0xbc061f35	-0.008186151
254	0xbbfb3300	-0.007665992
255	0x3c25fbab	0.010130803

network_body._body_endoder.seq_layers.2.weight f4 [256, 256]
0	0x3d96dd4e	0.07366429
1	0x3c3f75b0	0.011685774
2	0xbdb82c56	-0.089928314
3	0x3c28f52d	0.010312361
4	0xbe0b0d9e	-0.13579413
5	0xbdee2027	-0.11627226
6	0x3e0942c2	0.13404372
7	0x3c8bfaae	0.017087307
8	0x3cd4eb01	0.025990965
9	0x3d5bccb1	0.053662006
10	0x3cc35ab5	0.023846963
11	0x3d2d41d1	0.042299096
12	0x3cae3464	0.021265216
13	0x3d77a6f6	0.06046196
14	0x3c90b820	0.017665923
15	0xbd90cc88	-0.07070261
16	0xbd3ccd99	-0.04609451
17	0x3d93461d	0.071911074
18	0x3ab1c053	0.0013561345
19	0x3d5a5ff8	0.05331418
20	0xbc7ff16a	-0.015621522
21	0x3da3c869	0.079972096
22	0xbd19776d	-0.03746741
23	0x3e154246	0.14576063
24	0xbdc49f67	-0.09600716
25	0xbb8306f4	-0.0039986316
26	0xbc09a1ab	-0.008400361
27	0x3d2d2ce6	0.042279147
28	0xbcba1e69	-0.022719579
29	0x3cdd9346	0.027047765
30	0xbcce1bf4	-0.025159813
31	0xbd8d531a	-0.06900616
32	0xbd496a57	-0.04917368
33	0x3c93199f	0.017956553
34	0xbc9c5fdc	-0.019088678
35	0x3c522c66	0.012827968
36	0xbdd7f587	-0.105448775
37	0x3d93e8c2	0.072221294
38	0x3c7efeaa	0.015563646
39	0x3d584515	0.052800257
40	0x3c9db44f	0.019251017
41	0x3d906e3f	0.07052278
42	0xbd801fa6	-0.062560365
43	0xbca4ec1f	-0.020132123
44	0x3d069af9	0.032862637
45	0xbca856a7	-0.020549132
46	0x3ad60dce	0.0016331018
47	0xbd094eea	-0.033522524
48	0x3d28828f	0.041140135
49	0xbd454f4c	-0.048171327
50	0xbbe1aa5c	-0.0068867635
51	0xbd2f4508	-0.042790443
52	0x3d80ed07	0.062952094
53	0xbd9156e5	-0.07096652
54	0x3cc5e83a	0.024158586
55	0x3d216933	0.039406966
56	0x3d07d161	0.033158664
57	0xbda57a4f	-0.08079969
58	0x3d808579	0.06275458
59	0xbcb16f4e	-0.02165952
60	0xbe0fca95	-0.14042123
61	0x3df42cca	0.11922605
62	0x3dc067c4	0.09394792
63	0x3c0b24dc	0.008492675
64	0x3e2b0ca8	0.16704047
65	0x3d499ca6	0.049221657
66	0x3d07ad69	0.03312436
67	0x3dad5844	0.08464101
68	0x3cd7ed0e	0.026358154
69	0x3dd733e7	0.105079465
70	0xbd9a8a87	-0.07545953
71	0x3d40cf63	0.04707278
72	0xbd983eb1	-0.074338324
73	0xbd81dba4	-0.06340721
74	0xbca66964	-0.020313926
75	0xbd962cc2	-0.073327556
76	0x3d791608	0.060812026
77	0xbd2d8fbb	-0.0423734
78	0xbd5627b7	-0.05228397
79	0xbb651670	-0.0034956
80	0x3c805f17	0.015670342
81	0x3dba7e43	0.09106114
82	0xbaa1ea2f	-0.0012353117
83	0xb97302d8	-0.00023175345
84	0x3d7b48f4	0.06134887
85	0xbd541b48	-0.05178383
86	0xbd9d994e	-0.07695256
87	0xbc82f9fb	-0.01598834
88	0xbc0baf88	-0.008525737
89	0x3cc15272	0.023598883
90	0x3c94b626	0.018153261
91	0x3cd29512	0.025705848
92	0xbdad15e3	-0.0845144
93	0xbdb51585	-0.08841995
94	0xbcf53829	-0.029934006
95	0xbd901d46	-0.070368335
96	0xbd0f57bc	-0.03499578
97	0x3d74d6d1	0.059775177
98	0x3d9d446b	0.07679065
99	0x3ca32197	0.019913478
100	0xbd5b2612	-0.053503104
101	0xbdcceae1	-0.10005737
102	0x3cbc0613	0.022952115
103	0xbcf1d003	-0.029518133
104	0xbb67dc8a	-0.0035379254
105	0xbdce3d4e	-0.10070287
106	0xbda38bae	-0.07985626
107	0xbd8f3226	-0.06991987
108	0x3be9b8d8	0.007132631
109	0x3dd85059	0.105622
110	0xbe285d29	-0.16441788
111	0x3dee0b9f	0.1162331
112	0xbd225273	-0.03962941
113	0x3d2ca30e	0.04214769
114	0x3d6eafb7	0.058273043
115	0xbdcb10eb	-0.09915336
116	0xbaf2e440	-0.0018531159
117	0x3db1e946	0.086870715
118	0xbd2c66ab	-0.0420901
119	0x3d2a1fc3	0.041534197
120	0x3ca1eae6	0.019765329
121	0x3d8be42d	0.068306305
122	0xbd0cf39f	-0.034412023
123	0xbc840f60	-0.016120613
124	0x3cbca649	0.02302851
125	0xbdcecf31	-0.100981124
126	0x3d0117e5	0.03151693
127	0xbca8cc58	-0.020605251
128	0xbd23b44f	-0.039966878
129	0x3af6c03f	0.0018825604
130	0x3c5d475b	0.013505782
131	0x3cb5230c	0.022111438
132	0x3d2f75a1	0.04283679
133	0xbd98839f	-0.0744698
134	0xbba123f2	-0.004917615
135	0x3d25ebc1	0.040508036
136	0xbce1d515	-0.027567426
137	0xbdb84372	-0.08997239
138	0xbd650e64	-0.055921927
139	0x3dc2370a	0.09483154
140	0xbcd888db	-0.026432445
141	0x3db4abf6	0.088218614
142	0xbbb6f54d	-0.0055834414
143	0x3d565186	0.05232384
144	0x3c3c0ead	0.011478108
145	0x3d0f59ee	0.034997873
146	0xbd24859e	-0.04016649
147	0x3c3ae950	0.011408165
148	0x3e065e44	0.13121897
149	0x3c3fc18f	0.011703863
150	0x3d4e9c3f	0.050441977
151	0x3dbecc59	0.0931632
152	0xbdd4e98c	-0.10396108
153	0x3d33b028	0.043869168
154	0xbda019e5	-0.07817439
155	0x3d883a54	0.0665175
156	0x3d502d2b	0.050824326
157	0x3de477c3	0.11155655
158	0xbd121a4f	-0.03566962
159	0xbce6292f	-0.02809581
160	0x3d92322f	0.07138478
161	0x3d09cd90	0.033643305
162	0xbcf5848e	-0.029970434
163	0x3b709874	0.0036711963
164	0xbddf7b33	-0.1091217
165	0x3cae2855	0.021259466
166	0xbc7e8dae	-0.015536709
167	0x3da096fc	0.07841298
168	0xbcc9d1be	-0.024636146
169	0xbc891103	-0.016731745
170	0xbd16531e	-0.03670036
171	0xbc72ee06	-0.014827257
172	0xbc33098b	-0.010927568
173	0xbd260d48	-0.04054001
174	0xbd454b17	-0.048167314
175	0xbd206378	-0.03915736
176	0x3cf51d77	0.029921276
177	0xbc791039	-0.015201622
178	0x3c877aca	0.016538043
179	0xbcc19710	-0.023631603
180	0xbce5b0ee	-0.028038468
181	0xbdbeba02	-0.09312822
182	0xbc40fac0	-0.011778533
183	0xbd9ee61c	-0.07758734
184	0xbd94d176	-0.07266514
185	0xbd802fa0	-0.06259084
186	0xbdcb711c	-0.09933683
187	0xbaaa6fcc	-0.0013003289
188	0x3a561bad	0.0008167576
189	0xbd35d1fd	-0.044389714
190	0x3bec1f0a	0.0072058486
191	0x3cad6810	0.021167785
192	0x3d91bc35	0.07115976
193	0x3e221978	0.15830028
194	0x3bb0cac0	0.0053952634
195	0x3db498ac	0.08818182
196	0xbc541672	-0.0129448045
197	0x3d8e3302	0.06943323
198	0xbda1b4cc	-0.078958124
199	0x3d45de9e	0.048308007
200	0x3e20bf14	0.1569789
201	0x3d006593	0.03134687
202	0xbdf46e0f	-0.119350545
203	0xbce2a854	-0.027668156
204	0x3de109f2	0.10988225
205	0x3e17d5fc	0.14827722
206	0x3d0237bc	0.031791434
207	0xbdbabb23	-0.09117725
208	0xbd17f2ae	-0.03709667
209	0xbdbff272	-0.09372415
210	0xbba5f7a9	-0.005064924
211	0xbd1509cd	-0.0363863
212	0xbcb9bd78	-0.022673354
213	0xbdc198e4	-0.0945299
214	0x3cea1096	0.028572362
215	0xbd839908	-0.06425673
216	0x3e000cf6	0.12504944
217	0x3cd08429	0.025453644
218	0xbcbdb2c1	-0.023156526
219	0x3c0f1d11	0.008734957
220	0x3c6e0b67	0.014529086
221	0xbdddbd42	-0.10827114
222	0x3dee6b6b	0.11641582
223	0x3ceb629a	0.02873354
224	0x3aa2d433	0.001242286
225	0x3c84b995	0.016201774
226	0x3d62e64b	0.055395406
227	0xbc435212	-0.011921423
228	0x3dcf0271	0.101078875
229	0x3ddfa325	0.10919789
230	0x3c8004f4	0.015627362
231	0x3db0f2ee	0.08640085
232	0xbd7ca320	-0.061679006
233	0xbd84721d	-0.06467078
234	0xbd5fb402	-0.05461503
235	0x3d1ec9df	0.038766738
236	0xbc3caf96	-0.011516472
237	0xbcf2c8af	-0.029636709
238	0x3dc657bc	0.09684703
239	0x3d850564	0.06495169
240	0x3d59db23	0.0531875
241	0x3cebb2a1	0.0287717
242	0xbd6e8fff	-0.058242794
243	0xbdf3950d	-0.118936636
244	0x3b49c3ee	0.003078695
245	0xbd5fcc93	-0.054638457
246	0x3d91a7f6	0.07112114
247	0xbd36b08c	-0.044601962
248	0x3c2091db	0.0098004
249	0x39f0332a	0.00045814487
250	0xbbc6abe9	-0.0060629738
251	0x3d74d791	0.059775893
252	0x3cced1f8	0.025246605
253	0x3d4b6ff7	0.049667325
254	0xbdce4d85	-0.100733794
255	0x3aa515f4	0.0012595044

network_body._body_endoder.seq_layers.4.bias f4 [256]
0	0xbbec1c89	-0.00720555
1	0xbc0005f3	-0.007813918
2	0xbb0e6900	-0.0021730065
3	0x3c824676	0.015902739
4	0x3c8dce34	0.01731024
5	0xbc3996c4	-0.011327449
6	0x3aafdf62	0.0013418014
7	0xbb9f909f	-0.004869535
8	0x3c1fd8b3	0.009756255
9	0xbc14292f	-0.009043022
10	0x3bb2a410	0.0054516867
11	0xbc01aecd	-0.007915211
12	0xbbd540bc	-0.006507961
13	0xbb372395	-0.0027944793
14	0x3c8c9767	0.017162038
15	0xbc360849	-0.011110374
16	0x3c41e643	0.011834684
17	0x3bdc973a	0.006731895
18	0xbb5d91e4	-0.0033808881
19	0xbc2f1835	-0.010686924
20	0x3b389f41	0.0028171095
21	0xbbb0e526	-0.0053984104
22	0xbc329fa9	-0.010902324
23	0xbba2ef5c	-0.0049723815
24	0xbb6f0883	-0.003647358
25	0xb9c48abf	-0.00037487407
26	0x3c64c277	0.01396238
27	0xbbe2e2f7	-0.006924029
28	0xbbe92125	-0.007114547
29	0x3ab59f71	0.0013856721
30	0xbc4b8f21	-0.012424261
31	0x3a5e50ac	0.0008480649
32	0x3b996f58	0.0046824627
33	0xba1f6b25	-0.00060813344
34	0x3c0898a7	0.008337176
35	0x3c73fc01	0.014891625
36	0xbadad58f	-0.0016695725
37	0x3bc189cb	0.005906319
38	0x3bda9e40	0.006671697
39	0x3c976815	0.018482247
40	0x3a049cdb	0.00050587737
41	0xbac0d17c	-0.0014710869
42	0xbb8793ec	-0.0041375067
43	0xbb2316b9	-0.002488537
44	0xbbe1ddc6	-0.0068928925
45	0xbb4e5907	-0.003148617
46	0xbbe4e1d6	-0.0069849296
47	0xbc292478	-0.010323636
48	0xbbe53b43	-0.00699559
49	0x3b0ad98d	0.00211868
50	0xbc269b89	-0.010168918
51	0x3bedacf8	0.0072532855
52	0xbac41f60	-0.0014962964
53	0x399d3050	0.0002998137
54	0xbb917ba0	-0.004439786
55	0xbbcd7ec9	-0.0062712175
56	0x3c20d9c8	0.009817548
57	0xbb948d70	-0.004533462
58	0xbaeab138	-0.0017905599
59	0x3b2923e6	0.002580875
60	0xbb60424d	-0.0034219206
61	0x3a14104f	0.0005648182
62	0xba6548d2	-0.0008746508
63	0x3bf7365a	0.007544321
64	0xbba1c279	-0.004936513
65	0xbc07f6be	-0.008298574
66	0xbc1fdd2c	-0.009757321
67	0x3a15da8d	0.00057164655
68	0xbb723157	-0.0036955678
69	0xbae8a460	-0.0017749183
70	0x3a2fe435	0.0006709726
71	0xbb7bf723	-0.0038446866
72	0x3ad85845	0.0016505799
73	0x3a8345f1	0.0010015351
74	0xbc24410f	-0.010025277
75	0xbc32c6b1	-0.01091163
76	0xbb79b63b	-0.0038103003
77	0xbb4e1d3b	-0.0031450528
78	0x3b9dd13a	0.0048162015
79	0x3c81d4df	0.015848575
80	0xbbdc4d61	-0.0067230915
81	0xbbecf44a	-0.00723127
82	0xb941f256	-0.00018496191
83	0x3c74e08e	0.014946116
84	0xbb6044aa	-0.0034220614
85	0x3bbf9469	0.0058465493
86	0xbbd0af1c	-0.006368531
87	0x3aed5458	0.0018106801
88	0xbb0b1bbb	-0.0021226245
89	0x3b91726f	0.0044386904
90	0x3c3f1cf8	0.0116646215
91	0xbbe4cb93	-0.0069822758
92	0x3ba5d598	0.0050608627
93	0x3cb5c5a1	0.022188963
94	0xbbcf3dd1	-0.0063245078
95	0xbb60d211	-0.0034304897
96	0x3b9cb98c	0.004782861
97	0x3a8fa87c	0.0010960246
98	0x3c163971	0.009168969
99	0x3c51b5c9	0.012799689
100	0xbbd5e7fd	-0.0065278993
101	0xbad12e0d	-0.0015959159
102	0xbc0a1d14	-0.008429784
103	0xbc20f05b	-0.00982293
104	0x3b9d4c9f	0.0048003937
105	0x3bd4f4dd	0.0064989165
106	0x3babb7b3	0.0052404045
107	0xbbefdb77	-0.0073198634
108	0x3c15c6fb	0.009141679
109	0xba1c7bd6	-0.0005969381
110	0xba977fa9	-0.0011558431
111	0xbae4f438	-0.0017467802
112	0x3bbb4f89	0.0057162684
113	0x3c00fbf5	0.007872571
114	0x3c76dffb	0.01506805
115	0x3b3ce55f	0.002882324
116	0xb987d899	-0.00025910584
117	0xbbefd202	-0.007318736
118	0xbb094314	-0.0020944523
119	0xbc3faefd	-0.011699435
120	0xbbffcdd8	-0.007806521
121	0x3b865135	0.004099036
122	0x3aecf959	0.0018079682
123	0x3be09219	0.0068533537
124	0xbc14f67e	-0.009091971
125	0x3a2e729f	0.0006654653
126	0x3b49d036	0.003079427
127	0xbb5c530d	-0.0033618838
128	0x3bed7b81	0.007247389
129	0x3cb0b423	0.02157027
130	0x3bda2966	0.006657767
131	0x3b8af51e	0.004240646
132	0xbb5f482f	-0.0034070124
133	0x3c0ec401	0.008713723
134	0x3abed187	0.0014558294
135	0xbbeb4eef	-0.0071810405
136	0x3bb35431	0.005472683
137	0x3ba57102	0.005048872
138	0xbc060d2f	-0.008181854
139	0xbb86cd6a	-0.0041138427
140	0x3caa977a	0.020824183
141	0xbb629d59	-0.003457865
142	0x3c2db93f	0.010603248
143	0xb7654314	-1.36650815e-05
144	0x3bdd8449	0.0067601544
145	0x3c0c794d	0.008573842
146	0xbb67af6b	-0.003535236
147	0xbc101367	-0.008793688
148	0x39ce6d72	0.00039372925
149	0x3c93cee4	0.01804299
150	0xbc053195	-0.008129497
151	0xb9bf3808	-0.00036472105
152	0xbbdfdf9f	-0.0068320776
153	0xbab7bacf	-0.0014017465
154	0xba0644bc	-0.00051219366
155	0xbb0224bd	-0.0019858324
156	0xbb371d57	-0.0027941072
157	0x3b62f759	0.0034632294
158	0xbc264de4	-0.0101504065
159	0xbba47a8a	-0.0050194906
160	0x3c0c8e30	0.008578822
161	0xbc1224a3	-0.008919868
162	0xba5d673e	-0.0008445865
163	0xbb6c16d5	-0.003602435
164	0x3b266da4	0.002539494
165	0x3a35bb87	0.0006932546
166	0x3bbcaf3e	0.005758195
167	0x3be43c8b	0.006965225
168	0xbb8c2b0b	-0.004277592
169	0x3b981ba8	0.0046419688
170	0xbc404afc	-0.011736628
171	0xbc0648f3	-0.008196103
172	0xbb85cae6	-0.0040830253
173	0x3c1e7e71	0.009673701
174	0xbba5c6e8	-0.005059112
175	0xbc17e420	-0.009270698
176	0x3ca9dfae	0.020736542
177	0x3b359b09	0.0027710816
178	0xbb86df3b	-0.0041159666
179	0x3c88f10c	0.016716503
180	0xbc1c5cee	-0.009543641
181	0x3c36b45f	0.011151402
182	0xbbe6280a	-0.007023816
183	0x3bf1115d	0.007356806
184	0xbc3a112e	-0.011356635
185	0xbbf05751	-0.0073346277
186	0xbb95fb77	-0.004577096
187	0x3a6d1578	0.00090440316
188	0x3b6bc1c6	0.0035973652
189	0xbb99d715	-0.004694829
190	0xbbbd447b	-0.005775986
191	0x3b08e3b9	0.0020887686
192	0x3c3fc16d	0.011703831
193	0xbbcb9962	-0.006213353
194	0xbb328900	-0.0027242303
195	0xbba7cce3	-0.00512086
196	0xbb2369f2	-0.0024934974
197	0xbb38e0e5	-0.002821022
198	0xbc055c34	-0.008139659
199	0xb8e8240d	-0.00011069337
200	0xba516b8c	-0.0007988743
201	0xbb666775	-0.003515688
202	0x3ba98152	0.005172887
203	0xb913aa37	-0.00014082422
204	0x39c63a22	0.00037808815
205	0xbb24af7f	-0.0025129018
206	0xbb9481ee	-0.0045320904
207	0xbb04aa00	-0.002024293
208	0x3c010462	0.00787458
209	0x3b33199a	0.0027328492
210	0xbbc7e9a0	-0.0061008483
211	0x3a87cf11	0.0010361393
212	0xba3f0cf1	-0.0007288
213	0x3c0536ea	0.008130768
214	0x3c56a5b2	0.013101028
215	0xbb903f40	-0.0044020712
216	0xbbfc3fc0	-0.0076980293
217	0xbaccb6d5	-0.0015618453
218	0xbc16edc9	-0.009211966
219	0xbbcb28f4	-0.0061999504
220	0xbb7c388f	-0.003848586
221	0xbc8e0c2e	-0.017339792
222	0x3c016087	0.007896549
223	0x3c1dece4	0.009638999
224	0x3a3e22d0	0.0007253112
225	0x3b8814f1	0.004152887
226	0xba93f068	-0.0011286857
227	0xbc16cae1	-0.009203644
228	0xbbd3303b	-0.0064449585
229	0x3c89e8e7	0.01683469
230	0xbc06a9fb	-0.008219237
231	0xbc488d07	-0.012240655
232	0x3bd4b0e6	0.0064908145
233	0x3bed89c0	0.007249087
234	0x3ac338eb	0.0014894282
235	0x3c15f542	0.009152712
236	0xbbd12221	-0.0063822423
237	0xbafb31a7	-0.0019164578
238	0x399125ec	0.0002768481
239	0x3bc160fe	0.005901455
240	0x3becde5b	0.0072286553
241	0x3b9f6c39	0.004865196
242	0x3b9a1e98	0.004703354
243	0x3b8fe786	0.0043916134
244	0x3ab47335	0.0013767245
245	0x3a1c6649	0.00059661694
246	0xbc17a04d	-0.009254527
247	0x3b8e9cf2	0.0043522054
248	0xbc1a0046	-0.009399479
249	0x3bf46f3e	0.00745955
250	0xbb16d0c7	-0.0023012625
251	0xbb688b35	-0.0035483364
252	0x3b5bd20c	0.0033541946
253	0x3b4fe524	0.0031722272
254	0xbb2e424d	-0.0026589811
255	0xbb579ca5	-0.0032899764

network_body._body_endoder.seq_layers.4.weight f4 [256, 256]
0	0x3e1571b3	0.14594154
1	0x3d3243f1	0.043521825
2	0xbd1decc8	-0.03855589
3	0x3d88bb7b	0.06676384
4	0xbcf18a96	-0.029485028
5	0xbc1dd671	-0.009633646
6	0xbd97dfda	-0.07415743
7	0xbd36a91f	-0.04459488
8	0xbb6cc328	-0.0036127064
9	0x3ca1c735	0.01974831
10	0x3c343436	0.010998776
11	0xbd0bc73d	-0.034125555
12	0x3ddcfa85	0.1078997
13	0xbd4ba571	-0.049718324
14	0x3d9a07b1	0.07520998
15	0xbd286ab4	-0.041117385
16	0x3d75ac64	0.059978858
17	0xbd083396	-0.03325232
18	0x3de539bd	0.11192653
19	0xbc4888c6	-0.012239641
20	0x3d1def8a	0.03855852
21	0xbd6b62ef	-0.057467397
22	0xbd39cd42	-0.045361765
23	0x3abf5299	0.001459676
24	0xbcdb6096	-0.026779454
25	0xbc898699	-0.016787814
26	0x3d036469	0.03207818
27	0x3d8cdc80	0.068779945
28	0xbc727633	-0.014798689
29	0x3d3d2f93	0.04618795
30	0x3d6fb2b8	0.05852005
31	0x3da4c64f	0.08045637
32	0xbd46b541	-0.0485127
33	0x3cca99d6	0.024731558
34	0xbd976903	-0.07393076
35	0x3cc0b590	0.023524076
36	0xbdbe533b	-0.09293219
37	0xbd49baa0	-0.049250245
38	0xbdefcff9	-0.117095895
39	0xbd410de9	-0.047132406
40	0xbc9cf9c0	-0.019162059
41	0x3cc6a70d	0.024249578
42	0x3cda0cdf	0.026617466
43	0xbce13bd9	-0.027494358
44	0x3cd9075c	0.026492767
45	0x3d9a4f3d	0.07534645
46	0xbd5daf6d	-0.054122377
47	0xbe2f9d83	-0.1714993
48	0x3d5f87d8	0.05457291
49	0x3cba824b	0.022767207
50	0x3d6dd317	0.05806264
51	0x3bb076c1	0.0053852503
52	0x3d1ef708	0.038809806
53	0xbc860395	-0.01635913
54	0xbd29012b	-0.04126088
55	0x3d619eea	0.055083193
56	0x3bf5b4bf	0.0074983533
57	0x3d38bc25	0.045101304
58	0xbd71c6ec	-0.059027597
59	0xbd2058b3	-0.03914709
60	0xbd269421	-0.04066861
61	0x3d8906fc	0.06690785
62	0xbd15eb7f	-0.03660154
63	0x3d9afa85	0.07567314
64	0xbdfb172d	-0.1226028
65	0xbd9a5065	-0.07534865
66	0xbd246b1d	-0.040141214
67	0x3b92da17	0.0044815647
68	0x3e026c54	0.12736636
69	0xbc9565d9	-0.018237041
70	0x3ce025a1	0.027361693
71	0xbd56757e	-0.052358143
72	0x3da41620	0.080120325
73	0x3db6d06f	0.08926474
74	0x3b98553f	0.004648834
75	0x3d792ea2	0.06083549
76	0x3d1acdfa	0.03779409
77	0x3d9c0088	0.07617289
78	0xbd8f7ca0	-0.07006192
79	0x3d6ef8e7	0.05834284
80	0x3d9a4ff7	0.07534783
81	0xbd808f5f	-0.06277346
82	0xbd73557d	-0.0594077
83	0x3d021795	0.03176077
84	0xbdb5746c	-0.08860096
85	0xbcb40e1d	-0.021979386
86	0xbda06ae9	-0.078328915
87	0xbca9cacc	-0.020726584
88	0xbd4545a9	-0.048162136
89	0xbc1369fc	-0.008997437
90	0x3d0579e8	0.032586962
91	0x3c2e56bb	0.010640795
92	0x3d72c042	0.059265383
93	0x3c94a8ca	0.018146891
94	0x3d5ab97a	0.05339954
95	0xbd38e533	-0.045140456
96	0x3d3b1d0e	0.045682006
97	0xbd1ce1ec	-0.038301393
98	0xbd6060dd	-0.054779876
99	0x3cd21bfc	0.02564811
100	0xbd55b9ca	-0.052179135
101	0xbd6dd9ed	-0.05806916
102	0x3d8cfdb6	0.06884329
103	0x3d9044cd	0.07044373
104	0xbd8e9b68	-0.06963235
105	0xbcfbcbd1	-0.030736836
106	0x3d15fa93	0.03661592
107	0xbdacda07	-0.08440023
108	0xbbebcfa6	-0.0071963845
109	0xbd8497ee	-0.06474291
110	0x3d892b3b	0.06697699
111	0xbd425ea6	-0.047453545
112	0xbd424674	-0.04743047
113	0x38c4eae2	9.3897586e-05
114	0x3d836542	0.06415798
115	0xbc74d348	-0.0149429515
116	0xbd037aa8	-0.032099396
117	0x3dabbdc3	0.083858036
118	0xbd6c7757	-0.057731
119	0x3d3100c2	0.043213613
120	0xbd8e60d4	-0.06952062
121	0x3da20cf3	0.07912626
122	0xbd1b406f	-0.037903246
123	0x3cfab57a	0.030604113
124	0xbcb6917a	-0.022286166
125	0xbb4ce3d8	-0.0031263735
126	0xbd3d0dd4	-0.046155766
127	0xbcbe6f5c	-0.02324646
128	0xbe004934	-0.12527925
129	0xbc7a7378	-0.015286319
130	0xbd4fb462	-0.050709136
131	0x3d52bd8d	0.0514503
132	0x3db189b9	0.08668847
133	0xbccbb94f	-0.024868635
134	0xbd22e432	-0.039768405
135	0x3c6e5e9e	0.014548926
136	0x3cd24342	0.025666837
137	0xbd77653b	-0.060399275
138	0xbdc01c71	-0.09380425
139	0x3d56ffbe	0.05248999
140	0x3cda8461	0.026674451
141	0xbb77eb01	-0.0037829282
142	0xbcc622f1	-0.024186583
143	0xbc5f46ee	-0.013627751
144	0x3c4b77c2	0.012418689
145	0x3d90216d	0.070376255
146	0x3d8c6b85	0.06856445
147	0xbdf3d3ca	-0.1190563
148	0x3bb82ef0	0.0056208298
149	0xbce622a0	-0.028092682
150	0xbd41b65e	-0.04729306
151	0x3d6c6df3	0.057722043
152	0xbd82cd48	-0.063868105
153	0xbd73b9b0	-0.059503257
154	0x3cdd1448	0.02698721
155	0x3ca0026d	0.019532407
156	0x3c32ed59	0.010920846
157	0xbd814744	-0.06312421
158	0xbd658189	-0.056031737
159	0xbd2da447	-0.042392995
160	0x3d6e964b	0.0582488
161	0xbdd1abfd	-0.10237882
162	0xbd1f6d55	-0.038922627
163	0xbc5d513a	-0.013508135
164	0xbcb11004	-0.021614082
165	0x3cda74a8	0.026666954
166	0xbd40703d	-0.04698204
167	0x3b8f813b	0.004379419
168	0x3c5133ec	0.012768727
169	0x3d266505	0.040623683
170	0x3bc6cfca	0.006067251
171	0xbd342c08	-0.043987304
172	0xbdb1e91b	-0.086870395
173	0xbdbce419	-0.09223194
174	0xbd86ce40	-0.06582308
175	0xbdba6acb	-0.091024004
176	0xbd96a7d6	-0.07356231
177	0xbc29031e	-0.010315685
178	0x3db3470a	0.08753784
179	0xbcdc35e7	-0.026881171
180	0x3d3cbf2d	0.046080757
181	0x3d978247	0.07397895
182	0x39b8ce07	0.00035248717
183	0x3dffbf2a	0.124876335
184	0x3d0ff6e3	0.03514756
185	0xbd0756e0	-0.033041835
186	0x3db13bbc	0.086539716
187	0xbb791df3	-0.0038012236
188	0x3c0079f4	0.007841576
189	0xbced66e7	-0.028979732
190	0x3dccb1e1	0.09994865
191	0x3c9691f2	0.018380139
192	0x3d9c13b6	0.07620947
193	0x3a0f4517	0.0005465312
194	0x3cb237b2	0.021755073
195	0xbd38a039	-0.045074675
196	0x3d734610	0.05939299
197	0xbd2404cc	-0.040043637
198	0x3c5c7e17	0.013457797
199	0x3cfb916b	0.03070899
200	0xbc226dd1	-0.009913878
201	0x3d792a3c	0.060831293
202	0x3c8354d4	0.01603166
203	0xbd2a3271	-0.04155201
204	0x3cafaf3c	0.021445863
205	0xbd37b7ce	-0.044853024
206	0x3d5dce83	0.054152023
207	0xbd839293	-0.06424441
208	0xbd41e4d1	-0.047337357
209	0xbd23da1d	-0.04000293
210	0xbad31864	-0.0016105291
211	0xbcb768c1	-0.022388818
212	0xbd5d89d3	-0.054086518
213	0x3d7b640b	0.061374705
214	0x3d48f338	0.049060076
215	0xbd69b750	-0.057059586
216	0xbcf8b841	-0.030361297
217	0x3d33329b	0.043749433
218	0x3c7f219e	0.01557198
219	0x3c8d9557	0.017283125
220	0xbc67afec	-0.014141064
221	0x3d708470	0.058720052
222	0x3bb1fcd9	0.005431753
223	0xbd6bd6b5	-0.057577807
224	0x3ccfcf3d	0.025367374
225	0xbdf6e0fa	-0.120546296
226	0x3d1e3c96	0.038631998
227	0xbd78f560	-0.060780883
228	0xbda0785b	-0.07835456
229	0x3d0981c3	0.033571016
230	0x3deaf894	0.11473194
231	0xbd9b8b58	-0.07594937
232	0x3caf0f54	0.021369614
233	0x3dac08e1	0.08400131
234	0x3d235826	0.039878987
235	0xbdaf52f0	-0.08560741
236	0x3c9f4a26	0.019444536
237	0x3c394873	0.011308777
238	0xbdfb2c75	-0.12264339
239	0xbd109e32	-0.035307117
240	0xbe177b67	-0.14793168
241	0x3d88a5cf	0.066722505
242	0xbd935b92	-0.071952
243	0x3d0631b0	0.03276223
244	0x3dcf206a	0.10113604
245	0xbcddd288	-0.027077928
246	0x3d22b396	0.039722048
247	0xbd61de9f	-0.05514395
248	0xbd8c730d	-0.06857882
249	0xbd9f6a35	-0.07783929
250	0xbcffa494	-0.031206407
251	0xbc3a4081	-0.011367918
252	0x3c1905d6	0.00933977
253	0x3d652434	0.05594273
254	0x3d0e374c	0.034720704
255	0xbbd7f2a8	-0.006590206
