Assets/Training/results/track1_4/config_track1.onnx (onnx, 601409 bytes, 9 tensors)

action_model._continuous_distribution.log_sigma f4 [1, 2]
0	0x3d343cc0	0.04400325
1	0xbd3e43fd	-0.046451557

action_model._continuous_distribution.mu.bias f4 [2]
0	0x37dde71e	2.6452875e-05
1	0x3b1e692b	0.0024171572

action_model._continuous_distribution.mu.weight f4 [2, 256]
0	0x3bdbda6a	0.0067093866
1	0xbc84a491	-0.016191753
2	0xba56a378	-0.0008187811
3	0x3b31c8eb	0.0027127813
4	0xbcf85fda	-0.030319143
5	0x3ad54ac5	0.0016272893
6	0x3b18aa24	0.002329477
7	0x3c958636	0.018252473
8	0x3c6fc076	0.014633289
9	0x3c46b475	0.012127985
10	0xbc48981d	-0.012243298
11	0x3cd1ad4e	0.025595333
12	0xbc85d911	-0.016338857
13	0xbc998002	-0.018737797
14	0x3c99dc93	0.018781936
15	0x3c11a306	0.0088889655
16	0x3b89d744	0.00420657
17	0xbb44e175	-0.003004161
18	0xbbc63c53	-0.0060496717
19	0x3c511475	0.012761225
20	0x3c1c0249	0.009522029
21	0xbc4cc6a7	-0.012498534
22	0x3b93158d	0.004488653
23	0x3cab6c8d	0.020925784
24	0xbbfbb266	-0.007681179
25	0x3c2882aa	0.010285059
26	0xbc927ebe	-0.017882701
27	0x3c0295cd	0.007970286
28	0x3beff71c	0.007323159
29	0xbca69e44	-0.020339139
30	0x3cb83c4e	0.022489693
31	0xbc7c141f	-0.015385657
32	0xbc2a4816	-0.010393163
33	0x3c09201a	0.00836947
34	0x3c57e807	0.013177878
35	0xbc396385	-0.011315231
36	0xbbdf7275	-0.0068190643
37	0x3bf87314	0.0075820778
38	0xbd0245b0	-0.03180474
39	0xbc493e82	-0.012282969
40	0x3c2eeec0	0.01067704
41	0x3cc0a82e	0.023517694
42	0x3cacaa7c	0.021077387
43	0x3c1e76a0	0.009671837
44	0x3b821cf4	0.0039707366
45	0xbbb7be79	-0.005607423
46	0x3bbb19d5	0.0057098665
47	0xbc06f0ae	-0.008236093
48	0x3c2ffc8d	0.010741365
49	0xbb7d0be4	-0.0038611824
50	0xbcbb479e	-0.022861298
51	0x3cd5b0f5	0.026085356
52	0x3b59570a	0.0033163452
53	0xbcb4a929	-0.022053318
54	0xbd1870a9	-0.037216816
55	0xbbe4c970	-0.006982021
56	0xbc19fa35	-0.009398033
57	0x3b77aa58	0.0037790742
58	0xbc2218d3	-0.009893614
59	0xbc0937b2	-0.008375095
60	0xbbd9da47	-0.006648335
61	0x3be5b1a5	0.0070097023
62	0x3c39c9f3	0.011339652
63	0x3ca02dff	0.019553183
64	0xbc9cb1a5	-0.019127676
65	0xbbf88414	-0.0075841043
66	0x3ce88e92	0.028388295
67	0x3c08f4ad	0.0083591165
68	0xbc2745ed	-0.010209543
69	0x3c65a373	0.01401602
70	0xbaf7d271	-0.0018907321
71	0x3ce67a17	0.028134389
72	0xbbc0acbc	-0.0058799665
73	0xbb8926ef	-0.0041855494
74	0xbb03e237	-0.0020123848
75	0x3c9aa2a7	0.018876387
76	0x3c986c88	0.01860644
77	0xbc025db8	-0.007956915
78	0xbc9e9376	-0.019357424
79	0x3ad6f587	0.0016400077
80	0x3be2dcf8	0.006923314
81	0xbb762f2c	-0.0037564738
82	0x3c26639f	0.010155587
83	0xbc0e7db5	-0.008696963
84	0x3c32ac82	0.010905387
85	0xbc0aff61	-0.008483739
86	0x3c270fa3	0.010196599
87	0xbb82b3fc	-0.003988741
88	0xbcb6cc07	-0.022314085
89	0xbc104691	-0.008805887
90	0x3cb090f9	0.021553503
91	0x3c812c4f	0.015768198
92	0x3a87a699	0.0010349333
93	0x3c956c4b	0.018240115
94	0x3ab78515	0.0014001454
95	0xbb1ad8a9	-0.0023627675
96	0x3c6af5c1	0.014340819
97	0x3abae750	0.001425961
98	0x3a0e9600	0.0005439222
99	0x3bb61ffa	0.005558011
100	0x3be93d74	0.0071179215
101	0x39c105c7	0.00036816133
102	0x3c587f79	0.013213986
103	0x3c47dd36	0.012198737
104	0x3c30ad8a	0.010783562
105	0x3b055ed8	0.002035072
106	0x3bd6d69b	0.0065563447
107	0xbb9193a0	-0.004442647
108	0x3c966ff8	0.018363938
109	0x391b31ce	0.00014800506
110	0x3c07e33d	0.008293924
111	0x3c8e2ba5	0.017354796
112	0x3c8ea563	0.017412847
113	0x3cb89c1d	0.022535378
114	0x3c3df5a5	0.011594211
115	0x3c09e6a8	0.008416809
116	0xbb3230b1	-0.0027189667
117	0x3a895741	0.0010478274
118	0xbc196857	-0.009363255
119	0xbcc8580e	-0.02445605
120	0xbb7c5bde	-0.0038506906
121	0x3badfbdc	0.005309565
122	0xbb843e0e	-0.004035718
123	0x3c7db7b7	0.015485696
124	0xbc586a8b	-0.013208996
125	0xbc2a86f9	-0.010408157
126	0x3c0eb5aa	0.008710304
127	0xbbc2f305	-0.0059493803
128	0xbcfb5271	-0.03067896
129	0xbc4bf572	-0.012448655
130	0x3c4a96c3	0.012365046
131	0x3c97d754	0.018535294
132	0x3c393178	0.011303298
133	0x3c075cfe	0.008261917
134	0xbce2aadb	-0.02766936
135	0xbc1c0480	-0.009522557
136	0x3c903ee2	0.01760811
137	0x39a3a883	0.00031215334
138	0xbc28306e	-0.010265453
139	0xbc3a28be	-0.011362253
140	0x39ff9b72	0.00048753206
141	0x3bf0bf96	0.0073470576
142	0x3c1ed9ff	0.009695529
143	0x3d25ec84	0.040508762
144	0x3c460edb	0.012088503
145	0x3c142861	0.00904283
146	0xbccfc00c	-0.02536013
147	0x3aa2844c	0.0012399047
148	0xbbbb854b	-0.005722677
149	0x3d03a6eb	0.032141607
150	0x3c2680ed	0.010162574
151	0x3d1f8c8e	0.038952403
152	0x3c82b140	0.01595366
153	0x3ca2d0d9	0.019874977
154	0xba757577	-0.0009363512
155	0xbb8c5996	-0.0042831404
156	0x3cfc65f3	0.030810332
157	0x39a824a2	0.0003207075
158	0x3c475e73	0.012168515
159	0x3b384304	0.0028116116
160	0xbc2dbb47	-0.010603732
161	0x3c853e1d	0.01626497
162	0x3cd1d1ca	0.02561273
163	0x3baa22be	0.00519213
164	0xbbfb5bd6	-0.00767086
165	0x3b7180ce	0.0036850455
166	0xbac20fc3	-0.0014805723
167	0xbc81242d	-0.01576432
168	0x3c20e734	0.009820748
169	0x3b2aba09	0.0026050827
170	0x3c01029b	0.007874156
171	0xbcfaa035	-0.03059397
172	0x3be533d4	0.006994704
173	0xbbb64129	-0.005561967
174	0x3bbb0b0d	0.0057081045
175	0xba8bbb64	-0.0010660705
176	0xbb00bc8f	-0.001964364
177	0xbbf456d8	-0.0074566416
178	0xbc36b22b	-0.011150877
179	0x3bcb9909	0.0062133116
180	0x3c81a99f	0.015827952
181	0x3b036e04	0.0020054588
182	0xbc9e7bf2	-0.019346211
183	0x3c7b11ea	0.015324095
184	0xbbbbbf98	-0.005729627
185	0xbb575c45	-0.0032861393
186	0x3c158b0a	0.009127388
187	0x3ce277a5	0.027644942
188	0xbc19605f	-0.009361356
189	0xbc1cd8da	-0.009573186
190	0x3bb81e59	0.005618852
191	0x3af4b467	0.0018669487
192	0x3c1409fb	0.009035583
193	0x3c11bedf	0.008895605
194	0x3c1109f7	0.008852473
195	0x3cc86d49	0.024466174
196	0x3caaf934	0.020870782
197	0x3a97ed36	0.001159108
198	0xbbb662dd	-0.0055659846
199	0xbc10653e	-0.0088132005
200	0xbadd3794	-0.0016877525
201	0x3bda1f9a	0.006656599
202	0x3d013033	0.031540107
203	0x3b9fbbfd	0.004874705
204	0x3a01e626	0.0004955254
205	0xbc7f05d3	-0.015565353
206	0x3ae0c351	0.0017148053
207	0x3ccd8fb4	0.025092937
208	0x3b958425	0.004562872
209	0xba89301e	-0.001046661
210	0x3b77c9e1	0.0037809538
211	0x3c897cda	0.016783167
212	0xbb8d1897	-0.00430591
213	0xb929d13c	-0.00016195042
214	0xbaf2f649	-0.0018536533
215	0x3c822686	0.01588751
216	0xbcd84451	-0.026399763
217	0xbc2f4b88	-0.01069916
218	0xb9da093a	-0.00041587075
219	0x3c711dbf	0.014716565
220	0x3c454ddd	0.01204249
221	0x3bdeb02f	0.006795905
222	0x3ca4e203	0.020127302
223	0xbc7865fe	-0.015161036
224	0x3bc14e96	0.0058992608
225	0x3c96424b	0.018342158
226	0xbbd52722	-0.006504909
227	0x3bfd04bf	0.007721513
228	0xbbfd38a0	-0.0077276975
229	0xbac94fdf	-0.0015358886
230	0x3ba73c1f	0.0051036025
231	0x3c014b95	0.007891555
232	0x3be5df4c	0.0070151445
233	0x3cb9e168	0.02269049
234	0x3cd32b25	0.025777409
235	0xbbf78099	-0.007553172
236	0x3ca699ca	0.020337004
237	0x3cb3cd00	0.021948338
238	0xbbde406f	-0.0067825834
239	0xbc9b5253	-0.018960154
240	0xbb361788	-0.0027785022
241	0xbbc56ad2	-0.006024697
242	0x3b41dc9d	0.0029580959
243	0x3c415945	0.011801069
244	0xbb84523b	-0.004038123
245	0xbbaeb938	-0.0053321384
246	0xbcb59b7a	-0.022168864
247	0xbc0aaf72	-0.008464681
248	0x3d2e9cb1	0.0426299
249	0x3be717af	0.007052384
250	0xbaf1e6c9	-0.001845562
251	0x3c9613c1	0.018319966
252	0x3c9c9519	0.019114064
253	0xbb40f935	-0.0029445414
254	0x3b70ca36	0.003674162
255	0xbc0d37b1	-0.008619235

network_body._body_endoder.seq_layers.0.bias f4 [256]
0	0x3b47dad4	0.0030495422
1	0xbb335ab3	-0.0027367293
2	0x3b28e7cf	0.0025772934
3	0x3c32d09f	0.010913997
4	0x3b1ada8e	0.0023628804
5	0x35d7abd4	1.6068757e-06
6	0xbb23e23f	-0.002500668
7	0x3c17fd40	0.009276688
8	0x3bf86d75	0.0075814077
9	0xbba3f24e	-0.00500325
10	0xbb85a735	-0.0040787705
11	0xba02cb03	-0.00049893575
12	0xbb9a022d	-0.0046999664
13	0xbb366fff	-0.002783775
14	0x3ab7adf9	0.001401364
15	0xba76af67	-0.0009410292
16	0xbb1dcecd	-0.0024079562
17	0xbaef3b99	-0.0018252014
18	0x3a813d44	0.0009860178
19	0x3b4d6ea6	0.003134647
20	0xba709a52	-0.0009178269
21	0xbb965dc8	-0.0045888163
22	0xb9c5f2e2	-0.0003775573
23	0xbb0e6fe0	-0.0021734163
24	0xb902b9e2	-0.00012467013
25	0xbb59ecf3	-0.0033252805
26	0xbaeb544c	-0.00179542
27	0xbb0bb057	-0.0021314824
28	0xbbfc44e8	-0.007698644
29	0xbc2d5498	-0.010579251
30	0xbb3aedd4	-0.0028523104
31	0x3a269516	0.0006354613
32	0xbb323f5d	-0.0027198412
33	0xba23f0ec	-0.00062538567
34	0x3acd8b24	0.0015681726
35	0x3a89dc4a	0.0010517922
36	0x3c2e8fba	0.010654384
37	0x3baa26b9	0.0051926044
38	0xbba6f3b5	-0.00509497
39	0xbab0a451	-0.0013476704
40	0xba4afb9a	-0.000774318
41	0xbb0065fa	-0.0019592033
42	0x3b085033	0.0020799756
43	0x39febef4	0.00048588926
44	0x3b3ca3f9	0.0028784259
45	0x3a352a79	0.0006910931
46	0xbc2dcf9c	-0.01060858
47	0xbaa3d85c	-0.0012500393
48	0xba9a8246	-0.0011788092
49	0xbb66bf34	-0.003520918
50	0xbb207252	-0.0024482203
51	0xbbff3b8c	-0.007789081
52	0xbbf0b2ee	-0.007345549
53	0x3b59a272	0.0033208397
54	0xbaa8b864	-0.0012872336
55	0xba8f0fd2	-0.0010914749
56	0xbc080e59	-0.008304202
57	0x3b25ec8c	0.0025317995
58	0x3aa12729	0.0012294996
59	0xbb6946e3	-0.003559523
60	0x3a6196a9	0.0008605519
61	0xbc188422	-0.009308847
62	0x3992a772	0.00027972047
63	0xbbf0d7c3	-0.0073499396
64	0xb6b6eec8	-5.4518205e-06
65	0x3b07e255	0.002073427
66	0xbb691877	-0.003556756
67	0xbba521b7	-0.0050394195
68	0x3a8b412f	0.0010624285
69	0xbad99922	-0.0016601423
70	0x3b22a4a0	0.0024817362
71	0x3a8d5e11	0.001078548
72	0xbad5a6c2	-0.0016300308
73	0x3ad225b6	0.0016032967
74	0xba96d53f	-0.0011507644
75	0xba066ab1	-0.00051275926
76	0x3b6b4585	0.0035899591
77	0x3ac151e0	0.0014749132
78	0xbb928040	-0.004470855
79	0x3b856b7a	0.00407165
80	0x3be53b1c	0.006995572
81	0x39e48162	0.00043583947
82	0xba96f8e5	-0.0011518268
83	0xbb9e6519	-0.004833829
84	0x3b5de8d9	0.0033860712
85	0xbb4a4fe1	-0.0030870365
86	0xbb57a718	-0.0032905992
87	0x3a2d5326	0.00066118164
88	0xbb90face	-0.0044244295
89	0xbb79cc56	-0.0038116178
90	0x3b376b3a	0.0027987496
91	0xbb987da2	-0.0046536485
92	0xbba2694e	-0.004956401
93	0x3aeaf7f2	0.0017926677
94	0x3a830344	0.000999548
95	0x3be5b42d	0.007010004
96	0xb95d206b	-0.00021088279
97	0x3a767921	0.0009402205
98	0x39524b6a	0.00020055255
99	0xb8ff6afc	-0.00012179275
100	0xbbf1902c	-0.007371923
101	0x3b89ce7b	0.0042055226
102	0xbb2ad2e6	-0.0026065647
103	0xb9468b54	-0.00018934655
104	0xba910b70	-0.0011066031
105	0xb9fa3b8b	-0.0004772808
106	0xbbaafff6	-0.005218501
107	0xbb1d6e46	-0.0024022027
108	0x39b8904c	0.00035202724
109	0x3a43b309	0.0007465338
110	0xb9f5a322	-0.00046851585
111	0xbad055fc	-0.0015894766
112	0xba943ca7	-0.001130958
113	0xb9a15dfa	-0.0003077833
114	0x3aa3fb6e	0.0012510845
115	0x383b5ed9	4.4672608e-05
116	0xbaface24	-0.0019134921
117	0xbbaeda75	-0.0053361007
118	0x3acde90e	0.0015709714
119	0x3bd0050a	0.006348257
120	0xb92f8488	-0.00016738672
121	0xba51949f	-0.00079948636
122	0xba79efec	-0.00095343473
123	0x3b291eab	0.0025805633
124	0xbb82641e	-0.00397922
125	0xba2ee735	-0.0006672026
126	0x3a42d97c	0.00074329204
127	0xba9885e1	-0.0011636579
128	0xbb99559b	-0.0046793944
129	0xbb3590e8	-0.002770478
130	0xb9b38d60	-0.00034246873
131	0xbb70f4f0	-0.0036767088
132	0xbb5a3fbe	-0.0033302153
133	0x3af64234	0.0018788041
134	0xba144dab	-0.00056573254
135	0x3aecff70	0.0018081497
136	0xbbc9dc06	-0.006160262
137	0x3bb0cd4b	0.0053955666
138	0x3b70d60f	0.0036748683
139	0x3beb98fe	0.007189869
140	0xb9f2bf3f	-0.00046300326
141	0x3a153adc	0.00056926697
142	0x3a79ee0d	0.00095340685
143	0x3a7d9496	0.0009673325
144	0xba8b8d49	-0.0010646965
145	0x3a91dbcd	0.0011128128
146	0xbb9bc0f8	-0.0047532283
147	0x39cfc70d	0.0003963042
148	0xbb03e075	-0.00201228
149	0x3c54fad4	0.012999255
150	0x3a7b9a11	0.0009597848
151	0xbb751a85	-0.003739984
152	0x3b067d73	0.002052155
153	0xbb9acedd	-0.004724367
154	0xb9c6ea22	-0.00037939945
155	0x3aaa8d31	0.0013012049
156	0xba1ceb2b	-0.00059859705
157	0x3b348619	0.0027545749
158	0x3c20d87a	0.009817237
159	0x3aa4f766	0.0012585938
160	0xbb14e6e9	-0.002272064
161	0xbb7d1101	-0.0038614871
162	0xbaecb939	-0.0018060572
163	0xbb8d3a29	-0.0043099117
164	0x3bc61771	0.006045275
165	0xba663aec	-0.0008782584
166	0xbb91a0aa	-0.0044442015
167	0xba2213cf	-0.0006182761
168	0xbb2d132d	-0.0026409135
169	0xbabee3ee	-0.0014563778
170	0x3a910bab	0.0011066099
171	0xbb57903f	-0.0032892374
172	0x3ab2435c	0.0013600397
173	0x3a1fec26	0.00061005575
174	0x3c420e66	0.011844253
175	0xbb7dc1f3	-0.003872034
176	0xbace94d3	-0.0015760906
177	0x3ba7338d	0.005102581
178	0xba8f3a37	-0.0010927384
179	0x396fbfec	0.00022864313
180	0x3a8c2abe	0.001069389
181	0x3b6859e2	0.0035453965
182	0xbc7d1e99	-0.01544919
183	0xbafebad6	-0.0019434344
184	0xba0be6ef	-0.0005336841
185	0xbab50cce	-0.001381302
186	0xbb366c42	-0.0027835523
187	0xbbfaa1d0	-0.007648684
188	0x3ae174fd	0.0017201003
189	0x3b0f8fe9	0.0021905845
190	0xbba75908	-0.005107049
191	0x3a847e16	0.0010108377
192	0xbbedb637	-0.0072543877
193	0x3b14657f	0.0022643504
194	0x3a2832c6	0.0006416257
195	0xbbb01a63	-0.0053742393
196	0xbc04231e	-0.008065013
197	0xbbb409ec	-0.005494347
198	0xbb2593dd	-0.0025265135
199	0xbb2d390d	-0.002643171
200	0xbb1834e4	-0.0023224885
201	0xb9b89a62	-0.0003521024
202	0xbb835025	-0.0040073567
203	0x3b01a92d	0.0019784675
204	0x3b0615d6	0.0020459793
205	0xbb4408ec	-0.0029912544
206	0xbb276f4c	-0.0025548516
207	0xb9049126	-0.00012642573
208	0x3b259be7	0.0025269927
209	0x3b901e1c	0.0043981206
210	0x39842b64	0.0002520933
211	0xbc1194b8	-0.008885555
212	0xbac01ae2	-0.0014656449
213	0xb826bda1	-3.975409e-05
214	0x3b03fc61	0.0020139443
215	0x3b93bea5	0.0045088106
216	0xbb7a1bfc	-0.0038163653
217	0xbb047c63	-0.0020215742
218	0xb959d08d	-0.00020772424
219	0xbb526a32	-0.0032106754
220	0xbbaabfc8	-0.0052108504
221	0x3b8432d3	0.004034379
222	0xbbf0089e	-0.007325246
223	0x3b47c71e	0.0030483673
224	0xbb117c59	-0.002219936
225	0xbb84fc09	-0.0040583652
226	0xbb86db28	-0.004115481
227	0x3a057fdc	0.00050926
228	0x39caf5a7	0.00038711468
229	0xbbb428a0	-0.005498007
230	0x39e714eb	0.00044075339
231	0xbb2f53dc	-0.0026752865
232	0x3ac20de4	0.0014805165
233	0xba078fc6	-0.0005171265
234	0x3c567842	0.013090195
235	0xbb87fc85	-0.0041499757
236	0xbb5901df	-0.0033112688
237	0xbb85c2a1	-0.0040820395
238	0xbb3710fb	-0.0027933705
239	0xbb5f1b7a	-0.0034043477
240	0x3baf79f0	0.0053551123
241	0xb833bc47	-4.2852273e-05
242	0xbbad7e7f	-0.0052946205
243	0x3af13246	0.0018401823
244	0xba914d91	-0.0011085739
245	0x3a048ba9	0.00050562114
246	0xbc0bbf34	-0.008529473
247	0x3ab0d67d	0.0013491657
248	0x3c054dfc	0.008136269
249	0x38de5faf	0.000106036074
250	0x3bb0b0bf	0.0053921635
251	0x3c7bb6ea	0.015363434
252	0xbc378f0c	-0.011203539
253	0xbc2a5dbe	-0.010398326
254	0x3b01309b	0.001971281
255	0xbb8574e5	-0.004072773

network_body._body_endoder.seq_layers.0.weight f4 [256, 68]
0	0xbd905fce	-0.07049523
1	0xba3d5a80	-0.00072232634
2	0x3db5e1f5	0.088809885
3	0xb9c362c6	-0.0003726689
4	0xbc895cfa	-0.016767967
5	0x3da8a5ee	0.082347736
6	0x3d0f27d5	0.034950096
7	0x3e801136	0.2501313
8	0x3e2d8e67	0.16948853
9	0xbe2de423	-0.16981559
10	0xbe3348ae	-0.17508194
11	0x3e9017d5	0.28143182
12	0xbc8a58d6	-0.016888063
13	0x3e72f141	0.23724844
14	0xbe128c95	-0.1431144
15	0xbdbc4d88	-0.091944754
16	0x3ca71c21	0.020399155
17	0x3e31f3ce	0.1737816
18	0xbdac53cb	-0.0841442
19	0xbd474542	-0.048650034
20	0x3e748534	0.23878938
21	0xbd166772	-0.036719747
22	0xbde849bd	-0.113421895
23	0xbdb7c561	-0.08973194
24	0xbd18a7bf	-0.03726935
25	0xbd289972	-0.04116196
26	0x3d1bed55	0.038068134
27	0xbe12bb25	-0.14329202
28	0x3df1f9e4	0.11815241
29	0xbe5d1ca1	-0.21592952
30	0x3d857818	0.06517047
31	0xbc5d35f6	-0.013501635
32	0x3d8c7b97	0.068595104
33	0x3da48e80	0.08034992
34	0x3e0de1b0	0.13855624
35	0xbdb4394e	-0.087999925
36	0xbe2c21b7	-0.16809736
37	0xbdaa7cf3	-0.083246134
38	0xbe38fd8b	-0.18065469
39	0x3e3b0e27	0.18267117
40	0x3e53192d	0.20615073
41	0xbe6efbde	-0.23338267
42	0x3debcc52	0.115135804
43	0xbcecfe4b	-0.02892985
44	0x3de93357	0.113867454
45	0x3e56deac	0.2098338
46	0xbe1d0425	-0.15333612
47	0xbd3b1a3d	-0.04567932
48	0xbc9618e0	-0.018322408
49	0xbd236978	-0.039895505
50	0xbd24ceb3	-0.040236186
51	0xbe0b9e87	-0.13634692
52	0xbd0ec456	-0.03485521
53	0xbd6c0048	-0.057617456
54	0x3df0c4b2	0.11756267
55	0xbe1ea7b6	-0.15493664
56	0xbe8f14c3	-0.27945527
57	0x3d25eeed	0.04051106
58	0xbd9b0c12	-0.075706616
59	0x3e3ebd7f	0.18626975
60	0x3e559f32	0.2086151
61	0xbd8404d3	-0.06446233
62	0x3ea2c356	0.31789654
63	0xbcc74dd9	-0.024329113
64	0xbe2defdc	-0.1698603
65	0xbd8f93ea	-0.07010634
66	0xbdeadba2	-0.11467673
67	0xbcca705f	-0.024711786
68	0xbe3a1772	-0.18173006
69	0xbe27c8ca	-0.16385189
70	0xbd4788fd	-0.048714627
71	0xbd830a0e	-0.06398402
72	0xbd535bb3	-0.051601123
73	0x3d6ce666	0.057836913
74	0x3d9e14eb	0.077188335
75	0x3d027628	0.031850964
76	0x3deaf88a	0.11473186
77	0x3e6f2a40	0.23355961
78	0xbdc13af3	-0.09435072
79	0x3e633a80	0.22190285
80	0x3cb7d3b5	0.022439817
81	0x3cbb0aee	0.02283236
82	0x3d4c8fb6	0.04994174
83	0xbcb95193	-0.022621905
84	0x3e154800	0.14578247
85	0xbde68c11	-0.11257184
86	0x3d9c66b8	0.076367795
87	0xbddb6451	-0.10712493
88	0x3cf799f5	0.03022478
89	0x3d83192b	0.06401285
90	0xbe23f7e9	-0.16012539
91	0x3db5a184	0.08868697
92	0xbe1c1b16	-0.15244707
93	0xbe7dd3d8	-0.24787843
94	0x3e8cb3a3	0.27480802
95	0x3d7e8461	0.062137965
96	0x3e0f0b5e	0.1396918
97	0xbb484e13	-0.0030564114
98	0x3e1cf53f	0.15327929
99	0x3d894056	0.06701724
100	0x3e38de99	0.18053664
101	0xbdd124f0	-0.102121234
102	0x3de4962e	0.11161457
103	0xbdeced90	-0.11568749
104	0xbe145c56	-0.14488348
105	0x3d883333	0.066503905
106	0x3d9786ef	0.073987834
107	0x3e219dc3	0.15782838
108	0xbdb1a6d4	-0.08674398
109	0x3be44ee3	0.006967412
110	0xbc424056	-0.011856159
111	0xbe31a2a5	-0.173472
112	0x3de5c6b1	0.11219538
113	0xbdfcb892	-0.123398915
114	0xbd37d799	-0.044883344
115	0x3e59b8ef	0.21261953
116	0x3d948cc2	0.0725341
117	0xbd86fc5c	-0.065911025
118	0xbd197ef6	-0.037474595
119	0xbd4080b7	-0.046997752
120	0x3d59b8eb	0.053154867
121	0x3de00fa1	0.10940481
122	0xbde907e7	-0.113784604
123	0xbd992093	-0.07476916
124	0x3cdaf3c1	0.026727559
125	0x3ddfa3c9	0.109199114
126	0xbcb3bbb8	-0.021940097
127	0xbe8213da	-0.2540577
128	0xbe257c53	-0.16160707
129	0x3c6c3e46	0.014419144
130	0xbd9d0d3b	-0.07668539
131	0xbd8872be	-0.0666251
132	0x3b138e61	0.0022515284
133	0x3d5a39c8	0.05327776
134	0xbe70a202	-0.23499301
135	0x3e2b33e2	0.1671901
136	0x3e4a4a8d	0.19755001
137	0xbce377a1	-0.027767004
138	0xbd7463e7	-0.059665587
139	0xbdc098e8	-0.094041646
140	0xbd9dd4d5	-0.0770661
141	0xbe41dfeb	-0.18933074
142	0xbdac20e3	-0.0840471
143	0x3d3069be	0.043069594
144	0x3d22e95c	0.03977333
145	0xbe7f5099	-0.2493309
146	0x3e530358	0.20606744
147	0x3da3dd59	0.08001203
148	0x3e7943ee	0.2434232
149	0x3d159731	0.03652114
150	0x3d631a19	0.05544481
151	0xbd43f48b	-0.047840636
152	0x3d72379f	0.059135076
153	0x3e245fcb	0.16052167
154	0x3e1c1a47	0.15244399
155	0x3ce8edd6	0.028433722
156	0xbc3111e9	-0.010807493
157	0xbdf10db5	-0.117701925
158	0xbdd954dd	-0.106118895
159	0xbe56afe4	-0.20965534
160	0x3e481fa6	0.19543323
161	0x3d261773	0.040549707
162	0xbe337e20	-0.17528582
163	0xbe0a48f3	-0.1350439
164	0x3df0243d	0.11725662
165	0x3e2f109d	0.17096181
166	0xbd3d3465	-0.046192545
167	0xbdc7df96	-0.097594425
168	0xbda9e226	-0.082950875
169	0xbe0f3500	-0.13985062
170	0xbc99b27c	-0.018761866
171	0xbe0c1014	-0.13678008
172	0x3da62414	0.0811235
173	0x3ca83d8b	0.020537158
174	0xbba0b2df	-0.0049041356
175	0x3d61c796	0.05512198
176	0xbe0d71a8	-0.13812888
177	0x3e2e17d9	0.17001285
178	0x3e98226c	0.29713762
179	0x3da904e8	0.08252889
180	0xbd742554	-0.05960591
181	0x3e3d99cf	0.18515705
182	0x3d03eba6	0.032207154
183	0x3e18cdc4	0.14922243
184	0xbcd19db4	-0.025587894
185	0x3dc2f9b7	0.095202856
186	0x3ec3cfec	0.3824457
187	0x3d01dd7b	0.03170536
188	0x3c2aae61	0.010417552
189	0x3db9c29e	0.090703234
190	0x3e6080bc	0.21924108
191	0x3abdfdc0	0.0014495179
192	0x3d9d7c9e	0.076897845
193	0x3dbc7461	0.09201885
194	0x3d14b8fd	0.03630923
195	0xbe112430	-0.1417396
196	0xbdab03ed	-0.08350358
197	0x3e1ab5c2	0.15108398
198	0x3d77ece7	0.060528662
199	0xbdd26ea8	-0.10275012
200	0x3e1a91f1	0.15094735
201	0x3e82b6f9	0.25530222
202	0xbba264e9	-0.004955877
203	0xbdb778ff	-0.08958625
204	0xbc45abfa	-0.012064928
205	0xbd9d1e42	-0.07671787
206	0x3c800ed1	0.015632065
207	0x3d151913	0.036400866
208	0xbe0beb13	-0.13663892
209	0x3d722e8c	0.05912642
210	0xbe3a55a9	-0.1819674
211	0xbd8e52de	-0.069493994
212	0x3c5bf1fe	0.013424395
213	0xbe3026de	-0.17202327
214	0xbc51367f	-0.012769341
215	0x3e3796a2	0.17928556
216	0xbda7a12f	-0.0818504
217	0x3b2a5af4	0.0025994154
218	0x3cee969b	0.029124549
219	0xbc921f79	-0.017837273
220	0x3cfeff78	0.031127676
221	0xbdb10edf	-0.086454146
222	0xbc306922	-0.010767253
223	0x3c574eca	0.013141343
224	0x3d1b6a9f	0.03794348
225	0xbe37388d	-0.17892666
226	0x3ded056f	0.11573302
227	0xbd96f04e	-0.07370053
228	0xbdda18ba	-0.106492475
229	0x3de47689	0.11155421
230	0xbd4b3cd1	-0.049618546
231	0x3d467f10	0.04846102
232	0xbe8174af	-0.25284335
233	0xbea6b69d	-0.32561198
234	0xbe19bae8	-0.15012705
235	0xba961bef	-0.0011452417
236	0xbdb903ab	-0.09033903
237	0xbd607f6f	-0.05480903
238	0xbc89ca69	-0.01682015
239	0x3e2fb75c	0.1715979
240	0x3e171352	0.14753464
241	0x3e047f8b	0.12939279
242	0xbe4fad27	-0.20280896
243	0xbdb90ec2	-0.09036018
244	0xbe29cb48	-0.16581452
245	0x3d538217	0.051637735
246	0x3de24928	0.1104911
247	0x3df3e3ab	0.119086586
248	0xbc718096	-0.01474013
249	0x3df27a30	0.11839712
250	0xbd43942e	-0.047748737
251	0xbe222669	-0.15834965
252	0x3defa7de	0.1170194
253	0x3dd3a59f	0.10334324
254	0x3cf9c840	0.030490994
255	0x3ce45297	0.027871413

network_body._body_endoder.seq_layers.2.bias f4 [256]
0	0xba907333	-0.001102066
1	0xbb12a56d	-0.0022376433
2	0xbbac0546	-0.005249652
3	0x3bae8160	0.0053254813
4	0xb8c0d253	-9.1944494e-05
5	0x380f7c3a	3.420955e-05
6	0x3bd2cf6a	0.006433417
7	0x392752fd	0.00015957277
8	0xbaba69f3	-0.0014222249
9	0xbb2b46b4	-0.0026134672
10	0x399dd213	0.0003010189
11	0xbac2e17e	-0.0014868227
12	0xbb0ce054	-0.0021496015
13	0xba844f3d	-0.0010094416
14	0xbbe56471	-0.007000499
15	0x3ba1e655	0.004940788
16	0x3a769ba4	0.00094073475
17	0x3ab266e2	0.0013610984
18	0xba5f9674	-0.0008529194
19	0xbb3e04e3	-0.0028994612
20	0xb8c4c0a7	-9.3818926e-05
21	0xbb61b900	-0.0034442544
22	0xbb5c2e30	-0.0033596866
23	0xbb97c54b	-0.0046316735
24	0x3b45bdd2	0.0030172956
25	0x3b26d982	0.0025459235
26	0x3b162833	0.0022912144
27	0xb857d386	-5.145699e-05
28	0xba99aa79	-0.0011723778
29	0xba143bf7	-0.00056546874
30	0xbb7bff01	-0.0038451555
31	0x3b09bef1	0.002101835
32	0x39d578bd	0.00040716483
33	0xbb6017b3	-0.0034193813
34	0xbb9d1a7c	-0.004794417
35	0x3ac3362b	0.0014893463
36	0xba84187d	-0.0010078099
37	0xbb80cde5	-0.0039307945
38	0xbb9da8ab	-0.0048113666
39	0xbb3d2aa8	-0.0028864536
40	0x3a49fed7	0.00077055156
41	0x3ba07e53	0.0048978715
42	0x3c04545f	0.008076756
43	0xba47ca46	-0.00076213886
44	0xb9aeff4a	-0.0003337807
45	0xba8e0063	-0.0010833855
46	0xba2b96cb	-0.0006545602
47	0xbb84cf5a	-0.0040530385
48	0xbb958ccd	-0.004563904
49	0x3aa53ae8	0.0012606056
50	0x3acf4671	0.001581384
51	0x3bbac37f	0.0056995745
52	0x3aba83ac	0.0014229915
53	0x3a87c516	0.0010358419
54	0x3bf381f7	0.0074312645
55	0x3bf2bb0a	0.0074075507
56	0x3be8f012	0.0071086967
57	0x3b134341	0.0022470506
58	0xba58a637	-0.0008264514
59	0x3b3406f9	0.0027469976
60	0xbb38c371	-0.0028192664
61	0x3ba7080e	0.0050973957
62	0xbb1f750f	-0.0024331247
63	0xbb00ca10	-0.0019651689
64	0xba9bacf1	-0.0011877102
65	0xbb72006f	-0.0036926528
66	0x3ac1dd44	0.0014790674
67	0xbb8cd1ed	-0.004297486
68	0x399a2425	0.000294001
69	0x3bfb987a	0.0076780887
70	0x3b17ebf6	0.0023181415
71	0xbb603ee6	-0.0034217178
72	0x3b467904	0.0030284533
73	0x3ad7da22	0.0016468207
74	0x3a66e712	0.0008808236
75	0xbaf950c4	-0.0019021262
76	0xbb25a018	-0.0025272425
77	0xb75810b0	-1.2878489e-05
78	0x38f91a2d	0.00011878121
79	0xbb224287	-0.0024758892
80	0xbb8870f8	-0.0041638575
81	0x3a6ad279	0.00089577545
82	0x3a4b1661	0.000774717
83	0x3b972bdb	0.0046133823
84	0x3a9c1381	0.0011907668
85	0x39cfef1e	0.00039660273
86	0x3adcd023	0.0016846698
87	0xb9a6825d	-0.00031759116
88	0xbb10ae4d	-0.0022076548
89	0xbb6f4034	-0.0036506774
90	0xbc011cee	-0.0078804325
91	0xba9cf570	-0.0011975002
92	0x3c71cd7c	0.014758464
93	0xbb9eb645	-0.0048435056
94	0xbbb52ae0	-0.0055287927
95	0xbb6c9f3d	-0.0036105656
96	0xbb62bb7d	-0.0034596615
97	0x3b5cd8aa	0.0033698478
98	0xbb72bdd2	-0.0037039411
99	0xbab1b3d2	-0.0013557619
100	0x397f3f03	0.00024342169
101	0x3ad8e0d2	0.0016546494
102	0x3b84559d	0.004038526
103	0x3ac43b9e	0.0014971381
104	0x3b2b4094	0.002613102
105	0x3b678fe2	0.0035333564
106	0xbb248fdb	-0.0025110159
107	0x3a89e06c	0.0010519153
108	0xbbe6db71	-0.0070452024
109	0x3641fce0	2.8906434e-06
110	0x3b20ecce	0.002455521
111	0x3a009c61	0.0004906115
112	0xba801833	-0.0009772837
113	0x3bdc136a	0.0067161815
114	0x3ababd7e	0.0014247147
115	0xbb8c4000	-0.0042800903
116	0xbab20285	-0.0013581073
117	0xbacad54c	-0.0015474944
118	0xbaf4588a	-0.0018642109
119	0xbbb902d3	-0.0056460886
120	0x3b577000	0.0032873154
121	0xbabccb4d	-0.001440385
122	0xbb962df7	-0.004583116
123	0x3b943977	0.004523452
124	0x3ad637fe	0.0016343591
125	0x38600c65	5.3417305e-05
126	0xba8681b1	-0.001026204
127	0xbb85c10c	-0.004081851
128	0xb9dbba2e	-0.0004190965
129	0xbb56b5b4	-0.0032762112
130	0x3aa186c0	0.0012323484
131	0x3abfbb3a	0.0014627941
132	0x3a033bab	0.00050061446
133	0xb9731692	-0.00023182694
134	0x3a217cd6	0.00061602646
135	0xbb084a3d	-0.0020796203
136	0x3b1ad91c	0.0023627942
137	0x3babc4d4	0.0052419696
138	0x3a662058	0.00087786233
139	0x3aecd51d	0.0018068884
140	0x3b4572be	0.0030128206
141	0x3aa6f6bd	0.0012738329
142	0x3a470aad	0.00075928384
143	0xb9ec7849	-0.00045103047
144	0x3aab5d64	0.0013074097
145	0xbaf87e43	-0.0018958527
146	0x3acc5f19	0.0015592306
147	0xbb2d8a94	-0.0026480304
148	0xba0d3cab	-0.00053877634
149	0xb92ea912	-0.00016656917
150	0x3be8cfd0	0.0071048513
151	0x38d88e82	0.00010326227
152	0xba5afe5e	-0.00083539437
153	0x3b07b54e	0.0020707431
154	0xba30d9e5	-0.0006746336
155	0x3b0a86cc	0.0021137474
156	0xbaf913b3	-0.0019003063
157	0x3a58d9b2	0.0008272185
158	0x3a0e01d8	0.0005417145
159	0x3af9cce5	0.0019058256
160	0xbb967031	-0.004591011
161	0x37c9e09b	2.4065657e-05
162	0xbb30b2d3	-0.0026962056
163	0xbb1b06e9	-0.0023655242
164	0xbac0581e	-0.0014674698
165	0xbb2a1155	-0.0025950272
166	0x39676555	0.00022067626
167	0x3acf4728	0.0015814053
168	0xbb17d5a5	-0.0023168114
169	0xbb231bcc	-0.0024888394
170	0xbb6c372e	-0.0036043632
171	0xbb6d9ff0	-0.003625866
172	0x3c21ba01	0.009871007
173	0xbb8e5cc9	-0.004344557
174	0x3bf8a651	0.007588186
175	0x3af817be	0.0018927974
176	0xbba7e303	-0.0051234975
177	0xbae4d3f8	-0.0017458191
178	0x39dff8e9	0.00042719327
179	0x3b9a3063	0.004705475
180	0x3b695eab	0.0035609405
181	0x3b219d8b	0.0024660553
182	0xb9c6f0f7	-0.00037945036
183	0xbb1c1841	-0.0023818167
184	0x3aa1829e	0.0012322252
185	0x394318c7	0.0001860588
186	0x3acfccc7	0.0015853875
187	0x3b388354	0.002815445
188	0x3c12ea89	0.00896705
189	0x3aa16ebc	0.0012316327
190	0xba8a51d2	-0.0010552949
191	0xb900da8a	-0.00012288443
192	0xbb6e5ce1	-0.0036371278
193	0xbb53934f	-0.0032283848
194	0x3b046625	0.0020202484
195	0xbacf996f	-0.0015838573
196	0x3a8e13ce	0.0010839642
197	0xbb8daf7e	-0.004323899
198	0xbb381cae	-0.0028093266
199	0xbb0768e2	-0.002066188
200	0x3b93a266	0.0045054434
201	0xbb093ff6	-0.0020942665
202	0xbb7b7d93	-0.0038374409
203	0xbb160818	-0.0022893008
204	0xb8982f43	-7.256728e-05
205	0x3918b649	0.00014563756
206	0xb7cb167f	-2.4209961e-05
207	0x3afcd94c	0.0019290834
208	0xbb24d735	-0.0025152687
209	0x3bb482c7	0.005508754
210	0xbaa3143d	-0.0012441945
211	0xbb0c6537	-0.0021422633
212	0xbb08a72d	-0.0020851598
213	0x3b27ca42	0.0025602733
214	0x3be9b623	0.007132308
215	0xb9931bc6	-0.00028058718
216	0x3aeb03ed	0.0017930247
217	0x3b8f5e64	0.004375266
218	0xbb572260	-0.0032826886
219	0xbacc873e	-0.001560427
220	0x3a1b491b	0.00059236743
221	0xbb28f0a5	-0.00257782
222	0xbb5878ac	-0.003303091
223	0xb9d85dd3	-0.00041268635
224	0x3a925e79	0.0011167071
225	0x39c4c1db	0.00037528467
226	0x3abafcac	0.0014265976
227	0xb9c2a9fa	-0.00037129206
228	0xbbcfb3f0	-0.006338589
229	0x3acfcc7c	0.0015853788
230	0xba4f540a	-0.0007908946
231	0x3c00faea	0.007872323
232	0xb8456dfa	-4.7070884e-05
233	0xbb71b1d2	-0.003687967
234	0xbb099b3d	-0.002099707
235	0x3b200038	0.0024414193
236	0xbb02a102	-0.0019932394
237	0xb9f06a9e	-0.00045855803
238	0xba9618be	-0.0011451466
239	0x3a537eb3	0.0008067891
240	0x3b8a80d5	0.0042267838
241	0xb95e4888	-0.0002119859
242	0xbb5ec5ac	-0.0033992333
243	0xbbade33d	-0.00530663
244	0xbaffe52d	-0.0019523256
245	0x39ded51b	0.00042501916
246	0x3a04db19	0.00050680485
247	0xbb69b80e	-0.0035662684
248	0xbb283e43	-0.0025671877
249	0xbb238518	-0.0024951156
250	0xba62644c	-0.0008636161
251	0xb9ff84c7	-0.00048736317
252	0x3b7d04df	0.003860764
253	0xbabf8781	-0.0014612527
254	0xba584918	-0.0008250638
255	0x3ae9a68d	0.0017826125

network_body._body_endoder.seq_layers.2.weight f4 [256, 256]
0	0xbdbcee2b	-0.092251144
1	0xbce0b854	-0.027431644
2	0xbb97c26b	-0.0046313307
3	0x3df9fe7a	0.12206741
4	0xbdd5e31b	-0.104437076
5	0xbc2f3ef1	-0.010696159
6	0x3d1308cd	0.035897065
7	0x3d28dc31	0.041225616
8	0xbd24cc4b	-0.04023389
9	0x3c5c0475	0.013428797
10	0x3d85e031	0.06536902
11	0x3d37d9bb	0.04488538
12	0x3d482142	0.048859842
13	0x3ce4eea2	0.02794582
14	0x3de689f7	0.112567835
15	0x3d141159	0.036149357
16	0x3d8ed83c	0.06974837
17	0xbc2fd530	-0.01073198
18	0xbdc91156	-0.0981776
19	0x3dd3d212	0.10342802
20	0x3c53268b	0.012887607
21	0x3d7c6c5c	0.061626777
22	0x3d060a59	0.032724712
23	0xbcdf2000	-0.027236938
24	0xbc1e442e	-0.00965981
25	0x3c99d1fe	0.01877689
26	0x3ccfd387	0.025369419
27	0x3b4a5d78	0.0030878466
28	0x3cb643bb	0.022249093
29	0xbdb787f8	-0.08961481
30	0x3c2acdd7	0.010425053
31	0xb986b477	-0.00025692928
32	0x3c437bfb	0.011931415
33	0xbcf69915	-0.030102292
34	0xbced5712	-0.028972182
35	0x3d9d7452	0.07688202
36	0x3ca3676d	0.019946778
37	0x3c96d612	0.018412624
38	0xbd7a407c	-0.061096653
39	0xbd639a71	-0.05556721
40	0x3c08c536	0.0083478
41	0xbce1010d	-0.027466321
42	0xba60d468	-0.0008576573
43	0x3da5370e	0.080671415
44	0xbb24b232	-0.0025130627
45	0xbb15f465	-0.0022881266
46	0xbc6962d1	-0.014244751
47	0x3d0078d5	0.031365234
48	0x3d3aba78	0.045587987
49	0x3ae381ae	0.0017357373
50	0x3d843c0a	0.06456764
51	0xbd1ff39f	-0.039050695
52	0xbcb429e0	-0.021992624
53	0x3d69b014	0.057052687
54	0x3d79beac	0.060972854
55	0xbdbdc129	-0.09265358
56	0xbd547308	-0.051867515
57	0xbcd61e11	-0.026137384
58	0xbe3580f8	-0.17724979
59	0x3cf9282e	0.030414667
60	0x3b88679b	0.0041627414
61	0xbdc66c92	-0.09688677
62	0xbd00911c	-0.031388387
63	0xbd5c9a89	-0.053858314
64	0xbd61d147	-0.055131223
65	0xbdc8de24	-0.09807995
66	0xbd36d499	-0.044636343
67	0xbc3c6cfc	-0.011500593
68	0xbb16c99e	-0.0023008357
69	0x3cb4cbde	0.022069868
70	0x3d505862	0.05086554
71	0x3c9a874c	0.018863343
72	0xbccc1e01	-0.02491665
73	0x3d56a69f	0.052404996
74	0xbd9eccc7	-0.07753902
75	0x3cec35b8	0.028834209
76	0xbcbf4ae5	-0.023351142
77	0x3ce01764	0.027354904
78	0xbd043a7b	-0.032282334
79	0x3db7b4d0	0.08970034
80	0xbc73fd16	-0.014891883
81	0xbc7071f3	-0.014675605
82	0x3d00b9b6	0.031427108
83	0x3dae5a8c	0.08513364
84	0xbd313c8c	-0.043270633
85	0x3db91bbb	0.09038492
86	0xbdc7e477	-0.09760373
87	0x3c36b5d3	0.011151749
88	0x3c8cfdd5	0.01721088
89	0xbd938825	-0.07203702
90	0xbdb87f26	-0.09008627
91	0xbd899762	-0.06718327
92	0xbd3fd234	-0.046831325
93	0x3d8ff6e2	0.07029511
94	0x3d7aafc7	0.06120279
95	0x3e0857b7	0.1331471
96	0xbd93f952	-0.072252885
97	0xbca1dea9	-0.019759493
98	0x3d495dc1	0.049161676
99	0x3d485f98	0.04891929
100	0xbd6156cb	-0.055014413
101	0xbd1dd779	-0.03853557
102	0x3bae2b5e	0.0053152284
103	0x3e0e3eec	0.1389119
104	0x3c5a5288	0.013325341
105	0x3d3b4814	0.045723036
106	0x3d809b1d	0.062795855
107	0x3d73f91f	0.059563752
108	0x3d64e15b	0.05587898
109	0xbcab7934	-0.020931818
110	0xbda73894	-0.08165088
111	0x3d3809f9	0.044931386
112	0xbdb69122	-0.08914401
113	0xbd39a010	-0.045318663
114	0x3d49ac7b	0.049236756
115	0x3ce09a33	0.027417278
116	0xbc8f3171	-0.01747963
117	0x3d8bd7b2	0.0682825
118	0x3d81413c	0.063112706
119	0x3be42029	0.0069618416
120	0x3d380d2b	0.044934433
121	0xbd9e8c1e	-0.07741569
122	0x3e6c7e12	0.23094967
123	0x3ad6aaff	0.0016377865
124	0x3c187123	0.009304318
125	0xbd0561cc	-0.03256397
126	0x3d44fc39	0.0480921
127	0xbd42e639	-0.04758284
128	0x3c554224	0.013016257
129	0x3c453f9a	0.01203909
130	0x3d2f4f04	0.042799965
131	0xbd4d3e39	-0.05010817
132	0xbcf456c7	-0.029826535
133	0x3d33d3d4	0.043903187
134	0xbd8db598	-0.06919402
135	0xbe1e18c3	-0.15439133
136	0x3dcd000a	0.10009773
137	0x3d6b1039	0.057388518
138	0x3d52fe99	0.051512334
139	0xbd17d1e1	-0.03706539
140	0x3bbcdd01	0.0057636504
141	0x3d922bd8	0.07137269
142	0x3d38a566	0.04507961
143	0xbd14ece6	-0.036358736
144	0x3c9aa85a	0.018879104
145	0xba1fd889	-0.0006097635
146	0x3d890224	0.066898614
147	0xbdb8910c	-0.090120405
148	0x3db10be1	0.08644844
149	0x3dc83b4d	0.09776936
150	0x3ded913c	0.11599967
151	0xbc0604fa	-0.008179897
152	0x3da342ca	0.079717234
153	0x3db6effd	0.08932493
154	0x3d6955ae	0.056966476
155	0xbd617ff7	-0.055053677
156	0xbd0eb5f7	-0.034841504
157	0x3cbe1ffc	0.02320861
158	0x3dcd2f91	0.10018838
159	0x3c1a302a	0.009410897
160	0xbd6d97c7	-0.058006074
161	0xbd8c5ab1	-0.068532355
162	0xbda4f69d	-0.0805485
163	0x3daef8ec	0.08543572
164	0xbd81ce1c	-0.0633814
165	0x3d93e7a3	0.072219156
166	0x3d050dd4	0.03248389
167	0xbdbedcae	-0.09319435
168	0x39dabb5b	0.0004171979
169	0xbc1dee1c	-0.009639289
170	0xbbec6d5f	-0.0072151865
171	0x3be9c451	0.0071339984
172	0xbd29e032	-0.041473575
173	0x3d4bd729	0.04976574
174	0x3dfe109b	0.12405511
175	0x3d15b43f	0.03654885
176	0x3d03612d	0.032075096
177	0x3d472993	0.048623633
178	0xbdb80d65	-0.0898693
179	0x3d247445	0.040149946
180	0x3d731f4b	0.059356015
181	0x3d0f6b96	0.03501471
182	0xbd1bfc8e	-0.03808265
183	0x3ce11948	0.027477875
184	0xbd5ef5c8	-0.054433614
185	0x3caccbcc	0.021093272
186	0x3d278087	0.040894058
187	0x3c172aa4	0.009226475
188	0xbdc50309	-0.096197195
189	0x3d0aa03c	0.033844218
190	0x3df536e2	0.11973359
191	0xbd19690b	-0.037453692
192	0x3bb62000	0.005558014
193	0xbbef614f	-0.0073053013
194	0xbbc2e6e2	-0.0059479335
195	0x3c81a8dc	0.015827589
196	0xbba17775	-0.0049275705
197	0x3d54a148	0.051911622
198	0x3dcbeb6d	0.09957013
199	0xbd82ad31	-0.0638069
200	0x3e3ca665	0.1842285
201	0x3c1d7fb0	0.009612963
202	0xbd773c12	-0.060360022
203	0xbcdb2f56	-0.02675597
204	0x3c624b9a	0.01381197
205	0x3d56ec20	0.05247128
206	0xbd20089a	-0.039070703
207	0x3d1e89a8	0.038705498
208	0x3cbb9b96	0.022901338
209	0x3cd918b8	0.026501045
210	0x3dbb3474	0.09140864
211	0xbd8b5e15	-0.06805054
212	0x3e28aa1b	0.1647114
213	0x3a0e16df	0.0005420278
214	0x3d8f9b36	0.07012026
215	0xbd6d214d	-0.057893086
216	0xbd816850	-0.06318724
217	0xbc1da0a2	-0.009620817
218	0xbd2cfe4e	-0.04223471
219	0x3d36458a	0.04449991
220	0xbe083f48	-0.1330539
221	0xbcf1fe46	-0.029540192
222	0xbdc2fb24	-0.095205575
223	0xbceb9439	-0.028757202
224	0x3d480081	0.048828606
225	0x3c6c5485	0.014424448
226	0xbc348d08	-0.011019953
227	0xbcb71946	-0.022350919
228	0xbc19a3b9	-0.009377413
229	0xbde09791	-0.10966409
230	0xbd81b159	-0.063326545
231	0xbcaad443	-0.020853167
232	0xbdb72739	-0.08943028
233	0x3d8a1b6c	0.067435116
234	0x3d7fdb69	0.062465105
235	0x3bd38254	0.0064547453
236	0xbd5134eb	-0.051075857
237	0x3db00b2a	0.085958794
238	0x3d6d011c	0.057862386
239	0xbd0ce708	-0.034400016
240	0xbbf1e2e6	-0.0073817847
241	0x3ca97036	0.02068339
242	0x3d4e7ff4	0.050414994
243	0x3e0005bb	0.12502186
244	0xbd3c6115	-0.045991022
245	0x3d5e8e67	0.054335024
246	0xbd20710e	-0.039170317
247	0xbcc23773	-0.02370808
248	0x3e0a1c3d	0.13487335
249	0xbd87f089	-0.06637675
250	0x3d8a8ec6	0.06765513
251	0xbbff84ab	-0.0077977977
252	0xbd9dd04e	-0.077057466
253	0xbb69f155	-0.0035696824
254	0xbcfe279c	-0.031024747
255	0x3bf31bbc	0.0074190777

network_body._body_endoder.seq_layers.4.bias f4 [256]
0	0xbb1203bc	-0.0022280058
1	0xba0727a0	-0.0005155746
2	0x3b4be084	0.0031109164
3	0xbb40e3b1	-0.002943259
4	0x389dafeb	7.519111e-05
5	0xbb078737	-0.002067996
6	0xbb257467	-0.0025246383
7	0xbb1fcdc7	-0.0024384127
8	0xbaed2567	-0.0018092812
9	0xbaf0f020	-0.001838211
10	0x399fc3f0	0.00030472828
11	0xbac1ce56	-0.0014786224
12	0x3aa9dbd2	0.0012959188
13	0x3a9d36e0	0.0011994503
14	0xba95c665	-0.0011426924
15	0x3a2e74c2	0.00066549715
16	0xbb1fffb3	-0.0024413883
17	0xb9ac4dd0	-0.0003286437
18	0xbb399b11	-0.0028321187
19	0xbafc2d6c	-0.0019239611
20	0x3bbc8116	0.005752693
21	0x3a807473	0.000980033
22	0xbad0b020	-0.001592163
23	0x3a42003f	0.00074005494
24	0xbb1e99e5	-0.0024200615
25	0xbb9b7de0	-0.00474523
26	0xba339a1d	-0.0006851273
27	0x3ab26b86	0.0013612367
28	0xbaf89672	-0.0018965735
29	0xba0cf142	-0.00053765264
30	0x3bcae4b0	0.0061918125
31	0x3b801797	0.003909062
32	0xbaf28a5b	-0.0018504368
33	0x3b707179	0.0036688729
34	0x3a125e4e	0.00055835105
35	0xb839a018	-4.4256536e-05
36	0x3a843d09	0.0010088991
37	0x3adaa466	0.0016681075
38	0xba1af5a5	-0.00059112377
39	0xba6002cc	-0.00085453386
40	0x3a6db750	0.0009068148
41	0x3ae10e06	0.0017170317
42	0xba921903	-0.001114637
43	0xbb01c310	-0.0019800104
44	0xba8efdc8	-0.0010909373
45	0x3c631230	0.013859317
46	0x3a2e7dcc	0.00066563184
47	0x3b217680	0.0024637282
48	0xbafa500b	-0.0019097341
49	0xbb1748bf	-0.0023084132
50	0x3b32d003	0.002728463
51	0xbab8fbd2	-0.0014113134
52	0xb9ca5884	-0.00038594392
53	0x3b301d87	0.0026873068
54	0x3be0c42b	0.0068593225
55	0x39c8f274	0.00038327614
56	0xbb1286f0	-0.002235826
57	0xbb0adbe9	-0.0021188206
58	0x3c0fdd26	0.008780753
59	0x3b8f2137	0.004367973
60	0xb9b7a18c	-0.00035024842
61	0x39c2b59e	0.0003713788
62	0x3b4341d3	0.0029793873
63	0x3bcefb34	0.006316567
64	0xbb59a29c	-0.0033208495
65	0xbb9e37fb	-0.0048284507
66	0x3c060303	0.008179429
67	0x398bb645	0.00026647947
68	0xbbfc4e85	-0.00769979
69	0x3abd99aa	0.0014465351
70	0x3b4a5ba2	0.0030877371
71	0xbb3310da	-0.0027323277
72	0xbb01a594	-0.001978253
73	0x3bb8fdce	0.0056454903
74	0xba294df0	-0.0006458452
75	0x3addd71c	0.001692507
76	0x3ae6b6ec	0.0017602122
77	0x3957450c	0.0002052972
78	0xbab0576a	-0.0013453786
79	0x3ad65917	0.0016353455
80	0xba8ee349	-0.0010901476
81	0x3b0d6e34	0.0021580579
82	0x3a683142	0.00088574376
83	0x3b09d2fd	0.00210303
84	0xbb129408	-0.0022366066
85	0xbaf60758	-0.0018770499
86	0xba9ca609	-0.0011951338
87	0x3afecb90	0.0019439328
88	0x3ace9b78	0.0015762886
89	0x3b75b8f3	0.0037494272
90	0xbb46dcd3	-0.0030344024
91	0x3c15e1aa	0.009148041
92	0x3a96e51a	0.0011512369
93	0x3b15f1d0	0.0022879727
94	0x393665f6	0.00017394856
95	0xbb59b3fe	-0.0033218856
96	0xbb7f9ec8	-0.0039004553
97	0x3ae29b85	0.001728878
98	0xbb2f8571	-0.0026782418
99	0x3b979575	0.004625971
100	0xbbdbb51c	-0.0067049395
101	0xbb2c4150	-0.0026284046
102	0x3bae1c97	0.005313467
103	0xbaaab6bc	-0.001302443
104	0x3b73a9ef	0.0037180146
105	0xbb0be67a	-0.0021347092
106	0x3aa8176f	0.0012824367
107	0x3b84197c	0.0040313583
108	0xb96bf13b	-0.00022501212
109	0xbb287b94	-0.0025708424
110	0x3ab8c3cc	0.0014096438
111	0xb80681fc	-3.2069147e-05
112	0xba80ab95	-0.000981676
113	0xb6a3ace4	-4.8779057e-06
114	0xbb0c8c62	-0.002144598
115	0xbb981765	-0.0046414607
116	0xbb28fa66	-0.0025784015
117	0xb9dd4996	-0.0004220723
118	0x3aad4486	0.0013219274
119	0x3b6ed152	0.0036440683
120	0x3b098564	0.0020984048
121	0xbb919cfe	-0.0044437638
122	0xbb39c98c	-0.002834889
123	0xbb0e2628	-0.0021690223
124	0x3a9195a2	0.0011107216
125	0x3bb2f6a6	0.0054615317
126	0xbc213c58	-0.009841047
127	0x3997b4ec	0.00028935762
128	0xbae18bb6	-0.0017207775
129	0x3bae1a84	0.0053132195
130	0xba13381a	-0.0005615965
131	0xbb4f88c0	-0.0031667203
132	0x3a2bb2a1	0.000654975
133	0x3ab9af4a	0.001416662
134	0x3804aef2	3.1634183e-05
135	0x3a45e4ee	0.0007549067
136	0x3ab74ee7	0.0013985307
137	0x3af86964	0.0018952307
138	0x3a6f1cdb	0.0009121426
139	0xbaee8340	-0.0018197075
140	0x3a3df5ce	0.00072464056
141	0x3c012744	0.007882897
142	0xbaf0f6c0	-0.0018384084
143	0x3b9245ba	0.0044638785
144	0x383325ce	4.2712134e-05
145	0xbacba8e2	-0.0015538002
146	0x3aa09c4f	0.0012253615
147	0xbbaafaf6	-0.005217905
148	0xbb48759d	-0.003058768
149	0xba0d2620	-0.0005384404
150	0xbac411a8	-0.0014958875
151	0xbb868699	-0.0041054008
152	0xbb8d257a	-0.004307446
153	0xbb6b40a6	-0.0035896688
154	0xbb699234	-0.0035640122
155	0x3c1c7538	0.0095494315
156	0x3b645c64	0.0034845108
157	0x395d05da	0.00021078382
158	0x3b4162ac	0.0029508276
159	0xbab510e0	-0.0013814233
160	0xbab4e6a0	-0.0013801642
161	0xbb52dfa4	-0.0032176757
162	0x3bab8332	0.0052341456
163	0x3b3de127	0.0028973313
164	0x3add8e2f	0.0016903336
165	0xbac42828	-0.0014965581
166	0xbb46d071	-0.0030336643
167	0xb9b54482	-0.00034574053
168	0xbb69bd66	-0.0035665869
169	0xbafe184c	-0.0019385903
170	0xbb4ad5a3	-0.0030950091
171	0xba8d0961	-0.0010760241
172	0xbb3371e8	-0.0027381126
173	0xbaaf9880	-0.0013396889
174	0xbb155012	-0.0022783321
175	0xbb2ca9e6	-0.0026346385
176	0xbb5b3fe3	-0.0033454827
177	0x3aadd43c	0.0013262103
178	0xbabde61d	-0.0014488135
179	0x3b50ba79	0.0031849428
180	0xbabf6687	-0.0014602699
181	0xbb36c4e7	-0.002788836
182	0x3a8c4539	0.0010701782
183	0xbb148912	-0.0022664708
184	0xbaee1a1f	-0.0018165744
185	0x3b620f73	0.0034494072
186	0xbb9e4c42	-0.004830868
187	0xbb31f662	-0.0027154912
188	0x3a779da4	0.00094457925
189	0xbb35252f	-0.0027640571
190	0xba7822f7	-0.00094656594
191	0xbaf58238	-0.0018730825
192	0xb997e054	-0.00028968102
193	0xbaa06c20	-0.0012239255
194	0xbac4f2fa	-0.0015026026
195	0x3be5dd06	0.0070148734
196	0xba051bd5	-0.00050776947
197	0xbb5fb6d0	-0.0034136064
198	0x3c2a4656	0.010392746
199	0x3af33a36	0.0018556777
200	0xbb1a8972	-0.002358046
201	0xbafcbd33	-0.001928246
202	0x3b878e64	0.0041368473
203	0xbb5ed393	-0.003400062
204	0xba86b087	-0.0010275998
205	0x3c21b0cf	0.009868815
206	0xbb84f5c7	-0.0040576193
207	0xba6ece65	-0.00091097347
208	0x3af5c6cd	0.0018751264
209	0xbb4326ce	-0.0029777768
210	0xbb6cfbfb	-0.0036160934
211	0xbadcfe3e	-0.0016860438
212	0x3afc3500	0.001924187
213	0xbb364080	-0.002780944
214	0xb9a34e4b	-0.00031148116
215	0x3aa22139	0.001236952
216	0xba22be53	-0.000620817
217	0xbafd1250	-0.0019307826
218	0x3ae60209	0.0017548214
219	0xbb16a845	-0.002298848
220	0x3afa6a2d	0.0019105129
221	0xb9d52415	-0.0004065341
222	0xba9606f2	-0.0011446162
223	0x3a4d9bca	0.0007843344
224	0x3ac5235b	0.0015040444
225	0x3bf8f4ec	0.0075975563
226	0xbb85ba17	-0.0040810215
227	0xbb18ed88	-0.002333494
228	0xbb2ca9d3	-0.002634634
229	0x3a9ca7e0	0.0011951886
230	0x3abb32d7	0.0014282119
231	0xbaf2c38c	-0.0018521412
232	0x3b0bda99	0.002134001
233	0x3a7e68de	0.00097049575
234	0xbbcc1637	-0.006228234
235	0xba9b8c5c	-0.0011867392
236	0x39d9b172	0.00041521672
237	0xbaab1ee7	-0.0013055474
238	0xbaf7147b	-0.0018850708
239	0xb9824840	-0.00024849363
240	0xbb592694	-0.0033134567
241	0xba8acc46	-0.0010589443
242	0xbb29475e	-0.0025829892
243	0x3b222797	0.0024742836
244	0x3ace3950	0.0015733633
245	0xbb2ea2e7	-0.002664739
246	0xb8d56ad0	-0.00010176527
247	0xbab447a9	-0.0013754267
248	0xbb2fe321	-0.002683826
249	0x39a2277c	0.00030928466
250	0x3abbbe57	0.0014323693
251	0xba82567b	-0.0009943986
252	0x3ad73f34	0.0016422034
253	0xbb26360a	-0.00253618
254	0x3bb06aab	0.0053838096
255	0xb91948f0	-0.00014618388

network_body._body_endoder.seq_layers.4.weight f4 [256, 256]
0	0xbc4fff05	-0.012695079
1	0xbc73a6d6	-0.01487132
2	0xbd4a012d	-0.049317528
3	0x3d077557	0.03307089
4	0xbe0642b0	-0.13111377
5	0xbb5c1ee7	-0.0033587755
6	0xbdab7167	-0.08371239
7	0x3d6bec3d	0.05759834
8	0x3d25c222	0.040468343
9	0x3d39ae22	0.04533208
10	0xbb18b9eb	-0.0023304175
11	0xbd0e003e	-0.0346682
12	0x3d842d04	0.064538985
13	0x3c92b563	0.017908758
14	0x3d39e741	0.045386557
15	0xbd11cfb3	-0.035598468
16	0x3d57e657	0.052709904
17	0xbdac6d3e	-0.08419274
18	0x3df86ac4	0.12129739
19	0x3d1e8f9b	0.03871117
20	0xbd805b26	-0.06267385
21	0x3dd16863	0.10224988
22	0x3d0a6720	0.033789754
23	0xbdc1c150	-0.094606996
24	0x3daae9f7	0.083454065
25	0xbda0e832	-0.07856788
26	0x3c1996af	0.009374305
27	0xbd0bbe3f	-0.03411698
28	0x3d2f79d0	0.04284078
29	0x3d2c801e	0.04211437
30	0xbc00e453	-0.007866937
31	0xbd825f17	-0.06365793
32	0x3bf4c462	0.0074696997
33	0xbd3be91f	-0.04587662
34	0x3d353f7b	0.044249993
35	0x3df2dd92	0.118586674
36	0xbc9d1c99	-0.019178675
37	0xbdce8df1	-0.10085667
38	0x3da5da4d	0.08098278
39	0xbd880138	-0.066408575
40	0x3dee71b1	0.11642779
41	0x3d899e68	0.06719667
42	0xbdc22fcb	-0.09481772
43	0x3d7213a5	0.059100766
44	0xbbd4f028	-0.0064983554
45	0x3d54e5e5	0.051977057
46	0xbc78c437	-0.0151835
47	0x3e113152	0.1417897
48	0x3d1361f0	0.035982072
49	0x3b6b5ca1	0.0035913365
50	0xbcc00ba7	-0.023443056
51	0xbdbf4c87	-0.09340768
52	0x3d9815ec	0.07426056
53	0x3b85529c	0.0040686857
54	0x3de9687f	0.11396884
55	0xbdb2df45	-0.087339915
56	0x3b3b9f69	0.0028628951
57	0x3dcb3d72	0.09923829
58	0x3d0c2095	0.03421076
59	0x3c9914a2	0.018686596
60	0xbc0b888f	-0.008516445
61	0xbc85a8f3	-0.016315913
62	0x3ca237c9	0.019801991
63	0xbc7ec58e	-0.01555003
64	0xbda54e8e	-0.08071624
65	0x3c5cb52b	0.013470928
66	0xbdb45f73	-0.08807268
67	0x3b7efbd3	0.0038907423
68	0x3c62892d	0.013826651
69	0x3d24366e	0.04009097
70	0xbd2259a4	-0.03963627
71	0xbd161ba9	-0.036647473
72	0x3cf7d74d	0.03025403
73	0x3d214300	0.039370537
74	0xbbab769e	-0.005232646
75	0x3dd4cd80	0.103907585
76	0x3bbdc6ac	0.005791506
77	0xbc9f937a	-0.019479502
78	0xbc97251e	-0.018450316
79	0xbd0e62c5	-0.034762163
80	0xbd2f2d01	-0.04276753
81	0xbd8253f2	-0.063636675
82	0xbdad4048	-0.08459526
83	0x3debe83b	0.11518904
84	0x3c625a49	0.013815471
85	0xbcdeb33a	-0.027185071
86	0x3cdd1257	0.026986284
87	0x3cdd1e51	0.026991995
88	0x3cd722ac	0.02626165
89	0xbccc81af	-0.024964182
90	0x3dd064ce	0.10175477
91	0x3cd64a10	0.026158363
92	0xbd56f79e	-0.05248224
93	0x3c9a5372	0.018838618
94	0xbd8b81ea	-0.068118885
95	0x3d3827ac	0.04495971
96	0x3bf04230	0.007332109
97	0xbd104889	-0.035225425
98	0xbcc77af5	-0.024350623
99	0x3ca48ffe	0.020088192
100	0x3e10c36c	0.14137048
101	0xbc8187d7	-0.015811844
102	0xba9ce44d	-0.0011969894
103	0xbda08b9f	-0.078391306
104	0xbd07b087	-0.033127334
105	0xbd0429d6	-0.03226646
106	0x3d8b6160	0.06805682
107	0x3cdf7e1a	0.02728181
108	0x3d9022d3	0.07037892
109	0xbcb26998	-0.021778867
110	0xbe1f927a	-0.1558322
111	0xbdacaf4a	-0.08431871
112	0x3c42cc3a	0.011889512
113	0xbd9e5020	-0.077301264
114	0xbc978fb8	-0.018501148
115	0xbdd3f72d	-0.103498794
116	0xbca84fee	-0.020545926
117	0x3cb364c6	0.021898638
118	0x3d89b673	0.067242526
119	0xbd6b2fae	-0.057418518
120	0x3d19e055	0.037567455
121	0x3c4c7ede	0.012481419
122	0x3dce7239	0.1008038
123	0xbcc9ca5f	-0.02463263
124	0xbc69729e	-0.014248518
125	0xbd5d0d96	-0.053968035
126	0x3deec410	0.1165849
127	0xbdad1ce1	-0.08452774
128	0x3d47843b	0.04871009
129	0x3d756636	0.05991193
130	0x3d160c44	0.03663279
131	0x3de7fa55	0.11327044
132	0xbe1348df	-0.14383267
133	0xbd8d1b30	-0.06889951
134	0xbc3f9f30	-0.011695668
135	0xbd2b58ed	-0.041832853
136	0xbd36dd05	-0.044644374
137	0x3d2cec7b	0.042217713
138	0x38292c9b	4.0334282e-05
139	0xbd0094e8	-0.031392008
140	0x3d5a9d3a	0.0533726
141	0xbd68e0df	-0.05685508
142	0xbc841ede	-0.016128
143	0xbd6d0eed	-0.057875562
144	0x3d08b20c	0.033372924
145	0x3dda53c7	0.106605105
146	0xbb11ba22	-0.0022236188
147	0x3d4942f5	0.04913612
148	0xbdb3369c	-0.0875065
149	0x3c2cd3c7	0.0105485385
150	0xbd4afb84	-0.04955627
151	0x3c355154	0.011066753
152	0xbc1243ac	-0.008927267
153	0xbcaf7952	-0.021420155
154	0xbd624c3e	-0.05524849
155	0xbd0fd9f7	-0.035119977
156	0xbd879f08	-0.0662213
157	0xbc30c061	-0.010788054
158	0x3d09a2d7	0.03360256
159	0xbc1b5c51	-0.009482459
160	0x3cc6466c	0.024203502
161	0xbd7a1aa2	-0.061060555
162	0xbdda88ff	-0.10670661
163	0xbe28aaa6	-0.16471347
164	0xbc25d37a	-0.010121221
165	0xbd31d254	-0.043413475
166	0x3c0e2ca5	0.008677636
167	0x3bec2c60	0.0072074383
168	0xbcf03441	-0.029321792
169	0xbd8dbe89	-0.06921107
170	0xbd13babf	-0.036066767
171	0x3d1cb09f	0.038254377
172	0x3d8ed2c7	0.06973796
173	0xbcfa3eb7	-0.030547483
174	0xba2397c6	-0.00062405725
175	0xbcb7f5b6	-0.022456031
176	0x3dcb2646	0.099194095
177	0xbd748f14	-0.059706762
178	0x3ce374b5	0.027765611
179	0x3dc86d14	0.0978643
180	0x3d1031e1	0.03520382
181	0xbaae176e	-0.0013282129
182	0xba41cf65	-0.000739327
183	0xbd2500af	-0.040283855
184	0x3e068887	0.13138019
185	0xbca03890	-0.019558221
186	0x3d54f20a	0.05198864
187	0x3c8d5fe5	0.01725764
188	0xbd41f71f	-0.047354814
189	0x3cdaed59	0.026724504
190	0xbbb52ba4	-0.005528884
191	0xbd607e84	-0.054808155
192	0xbdda0059	-0.106445976
193	0x3e122582	0.1427212
194	0x3a875c80	0.001032725
195	0xbe3111c9	-0.17291941
196	0x3d755da9	0.059903774
197	0xbd5bce39	-0.053663466
198	0xbd7a3761	-0.06108797
199	0x3cc1724f	0.023614077
200	0xbb464fdd	-0.0030260005
201	0xbb885ef5	-0.0041617104
202	0xbdb8106e	-0.08987509
203	0x3d8c1742	0.068403736
204	0x3ba145be	0.004921644
205	0xbd2bf260	-0.041979194
206	0xbbe005cd	-0.006836629
207	0x3d960b6c	0.07326397
208	0x3db4f8c2	0.08836509
209	0xbd641287	-0.05568173
210	0xbc0c7085	-0.008571749
211	0xbce2e9bd	-0.027699346
212	0xbd1cb1dd	-0.03825556
213	0xbc7c17b1	-0.015386508
214	0x3dcab695	0.09898106
215	0xbd06d2f5	-0.032916028
216	0x3bad536a	0.0052894847
217	0x3d76c050	0.060241997
218	0x3cab310a	0.020897407
219	0xbd8c2311	-0.06842626
220	0xbc9b037d	-0.018922562
221	0x3b02ba54	0.0019947486
222	0x3cddfee5	0.027099082
223	0x3cb7559d	0.02237969
224	0xbd34907a	-0.044083096
225	0x3c59d999	0.013296508
226	0x3bd3800e	0.0064544743
227	0xbc211e76	-0.009833923
228	0x3d6ea094	0.058258608
229	0xbbbd7353	-0.00578157
230	0x3da7678d	0.081740476
231	0x3d263ed6	0.04058727
232	0xbaa1138d	-0.0012289152
233	0xbc1497da	-0.009069407
234	0xbcd955d2	-0.02653018
235	0x3cfbff06	0.030761253
236	0xbcdac762	-0.026706401
237	0x3d87bce8	0.06627828
238	0xbd03e32d	-0.032199074
239	0xbd8da844	-0.0691686
240	0x3e0f3c40	0.13987827
241	0x3cbbf3f8	0.022943482
242	0xbd890dc3	-0.06692078
243	0xbcd9640c	-0.026536964
244	0xbd79f7c7	-0.061027315
245	0x3c9eb6be	0.019374248
246	0x3d02ec99	0.03196392
247	0xbc726efb	-0.014796968
248	0xbc24672b	-0.010034363
249	0x3b74bb68	0.0037343148
250	0xbc220baf	-0.009890481
251	0x3a9e4716	0.0012075629
252	0x3bc2e4e0	0.005947694
253	0x3d8c41d8	0.06848496
254	0x3d8932b2	0.066991225
255	0x3d455f6e	0.048186712
