Assets/Training/results/track1_3/config_track1/config_track1-445965.onnx (onnx, 601409 bytes, 9 tensors)

action_model._continuous_distribution.log_sigma f4 [1, 2]
0	0xbb41e304	-0.0029584775
1	0xbe01a148	-0.1265918

action_model._continuous_distribution.mu.bias f4 [2]
0	0xbb2472de	-0.002509288
1	0x3a0f8a2c	0.00054756063

action_model._continuous_distribution.mu.weight f4 [2, 256]
0	0x3c512db5	0.012767245
1	0xbc7a2bb4	-0.015269209
2	0x3c00a4d3	0.007851797
3	0x3c50c2c0	0.0127417445
4	0xb928b09d	-0.00016087522
5	0xbb9385e0	-0.004502043
6	0xbc64f040	-0.013973296
7	0x3c37d406	0.011219984
8	0xbbf15df5	-0.007365937
9	0xbb212197	-0.0024586671
10	0x3c838fba	0.016059745
11	0x3c1bb1e2	0.00950286
12	0xbc4e5ea7	-0.012595809
13	0x3b50f303	0.0031883128
14	0x3be1ddb2	0.006892883
15	0x3c575edf	0.013145178
16	0xbb7f1c94	-0.0038926946
17	0x3ca315fd	0.019907946
18	0xb945f712	-0.00018879425
19	0xbcd61bb0	-0.02613625
20	0x3cdbb624	0.02682025
21	0xbc76a6bb	-0.0150544
22	0x3ad7e251	0.0016470646
23	0xbcb2d9fc	-0.021832459
24	0x3ad320aa	0.0016107757
25	0x3cc97f3d	0.024596805
26	0x3a0e21b5	0.0005421893
27	0x3b9bb6c5	0.0047520124
28	0x3be31304	0.006929757
29	0xbc9af95b	-0.01891773
30	0xbbda5672	-0.006663137
31	0xbc41fdad	-0.011840266
32	0x3c916576	0.017748576
33	0xbbba82a4	-0.005691843
34	0x3bc6b256	0.00606374
35	0x3c886dd2	0.016653929
36	0xbc3e289c	-0.011606362
37	0xbc295535	-0.010335256
38	0x3bb29ccf	0.005450822
39	0x3bb47bc4	0.005507918
40	0x3c884810	0.016635925
41	0xbb15f0f6	-0.002287922
42	0x3b9a1b9c	0.0047029983
43	0x3a12ba0b	0.00055971806
44	0xbbe4b513	-0.0069795935
45	0xbc797964	-0.015226696
46	0xbb244d0f	-0.0025070345
47	0x3c538f26	0.012912547
48	0x3989f47d	0.00026312834
49	0x3a9f88df	0.0012171528
50	0xbc91547a	-0.017740477
51	0xbc84cbd6	-0.016210478
52	0x3cf4ce84	0.02988363
53	0xbc7a0399	-0.015259647
54	0x3c8fd604	0.017558105
55	0xbaa12c8f	-0.0012296605
56	0xbbffc7ab	-0.0078057847
57	0xbc1b8e56	-0.009494385
58	0xbb62c6ba	-0.0034603314
59	0x3c31611b	0.010826374
60	0xbb15b9de	-0.0022846381
61	0xbc698327	-0.014252461
62	0xbb8cb3aa	-0.0042938786
63	0x3b614a16	0.0034376434
64	0x3c8d14ac	0.017221771
65	0x3c176f02	0.009242775
66	0xbb858533	-0.0040747165
67	0x3c8c7909	0.017147558
68	0x3b27db40	0.002561286
69	0xbbc2f56d	-0.005949667
70	0xbb9c75c8	-0.004774783
71	0x3c55d668	0.013051607
72	0x3c840cc6	0.016119372
73	0xbc33dae5	-0.0109774815
74	0xbd31216a	-0.043244757
75	0x3c0dceb7	0.008655242
76	0x3c2462eb	0.0100333495
77	0xbc159c30	-0.009131476
78	0xba64821e	-0.0008716899
79	0xbcd4e026	-0.025985789
80	0xbcba822a	-0.022767145
81	0x3c8cbe72	0.017180655
82	0x3ae6a4cc	0.0017596721
83	0xbc3d535c	-0.011555519
84	0x3ca63ac8	0.020291701
85	0xbbd7c63f	-0.006584912
86	0xbca28b11	-0.019841703
87	0xbc44c928	-0.01201085
88	0x3c6bd75f	0.01439461
89	0x3c826970	0.015919417
90	0x3a85df39	0.001021362
91	0x3b63da15	0.0034767438
92	0xbb56dd8f	-0.0032785868
93	0xbb7d62b1	-0.003866356
94	0xba65e8ed	-0.00087703654
95	0xbbac0f20	-0.0052508265
96	0x3c8c5b9d	0.017133528
97	0xba4ef943	-0.0007895419
98	0xbc475119	-0.012165331
99	0x3bd3f5e7	0.006468523
100	0x3cb71b31	0.022351833
101	0xbcc793c1	-0.024362447
102	0x3c1e87bb	0.009675915
103	0x3b43c7ae	0.0029873657
104	0x3ccb7ab6	0.024838787
105	0x39a49705	0.00031393036
106	0xbc358155	-0.011078198
107	0xbb7f457f	-0.0038951335
108	0xbb455c23	-0.0030114732
109	0xbc31f3be	-0.010861335
110	0xbbe0f8c5	-0.006865593
111	0xbb5e8154	-0.0033951597
112	0xbcd5c6c7	-0.026095761
113	0x3c29293c	0.010324772
114	0xbb6093e5	-0.003426784
115	0xbc9143cd	-0.017732525
116	0x3ca0fec8	0.01965274
117	0x3c0e43e6	0.00868318
118	0x39460226	0.00018883552
119	0x3a25c5ba	0.0006323714
120	0xbc1a8469	-0.009430983
121	0x3c6ff51d	0.014645842
122	0xbbbe3ea0	-0.0058058053
123	0xbc8e6531	-0.017382236
124	0x3ba8e11c	0.0051537883
125	0xbccf7804	-0.025325783
126	0xbb09d2c8	-0.0021030176
127	0xbbc35720	-0.005961314
128	0x3bc3c30b	0.0059741787
129	0xbc290a9d	-0.010317472
130	0xba3b55a6	-0.00071462465
131	0x3adf70d1	0.0017047172
132	0xbbd52357	-0.006504457
133	0xbab82b68	-0.0014051022
134	0x3cb2dd5f	0.021834074
135	0x3b46f2f5	0.0030357216
136	0x3c3c1b80	0.011481166
137	0x3b55827b	0.0032578993
138	0xbc359f5c	-0.0110853575
139	0x3aeb8b55	0.0017970601
140	0xbcdb82e1	-0.026795806
141	0xbb856709	-0.0040711206
142	0x3cc2ed27	0.023794724
143	0xbc843db9	-0.016142713
144	0xbc19cdf6	-0.009387484
145	0x3c5b02bb	0.01336735
146	0x3b5a68e2	0.0033326675
147	0xbb9dbbf5	-0.004813666
148	0x3a887086	0.0010409511
149	0xbc89348b	-0.016748687
150	0x3b746c1f	0.003729589
151	0xbbef17bf	-0.007296532
152	0x390a7035	0.00013202506
153	0x3a196291	0.00058511744
154	0xbd11e209	-0.035615955
155	0xbc668d28	-0.01407174
156	0x3c0872aa	0.008328119
157	0xbbcd884b	-0.006272351
158	0x3c0f8398	0.008759402
159	0x3c0e40dc	0.008682456
160	0x3bd2833d	0.006424336
161	0xbaf73d73	-0.0018862918
162	0xbc09e838	-0.008417182
163	0xbbb55629	-0.0055339527
164	0x3c763c28	0.015028991
165	0x3cd1f0ed	0.025627578
166	0xbb2bd7af	-0.0026221087
167	0xbc939947	-0.018017424
168	0x3c4902c8	0.0122687295
169	0xbca8a98b	-0.020588657
170	0xbaa1d5ff	-0.0012347101
171	0xbb1301e7	-0.0022431554
172	0xbc95781e	-0.018245753
173	0x3b281a5d	0.002565048
174	0x3c2ad7ec	0.010427456
175	0x3baaaa2d	0.005208275
176	0xbc6245f5	-0.013810624
177	0x3ba832d5	0.005133013
178	0x3b63407b	0.0034675885
179	0xbb6a410e	-0.0035744342
180	0x3bf9b6cb	0.0076206676
181	0x3b484a29	0.003056178
182	0x3ac87ed5	0.0015296588
183	0x3bc6c9ba	0.006066528
184	0xbbb87b33	-0.005629921
185	0x3bcaa8ce	0.006184674
186	0x3c7c061c	0.015382316
187	0xbc25b390	-0.010113612
188	0x3c013ba0	0.007887751
189	0xbb6d98d8	-0.0036254432
190	0x3cae3d8f	0.021269588
191	0xbcc3f6ac	-0.023921333
192	0x3b210dd1	0.0024574886
193	0x3a376e62	0.00069973443
194	0x3c95c3ac	0.01828178
195	0x3cb50ae6	0.022099923
196	0x3c7f6ad0	0.015589431
197	0x3ad75e7d	0.0016431358
198	0xbc93e063	-0.018051332
199	0x3a2f7e14	0.00066945073
200	0x3cc5336e	0.024072375
201	0xbc1d96bb	-0.0096184565
202	0x3c928b64	0.017888732
203	0xbc367233	-0.011135626
204	0x3b81a5a6	0.0039565144
205	0x3b65f4ae	0.0035088467
206	0xbbb19d0d	-0.0054203332
207	0xbc2a37a3	-0.010389241
208	0x3a8caaa6	0.001073201
209	0x3c9365a1	0.017992796
210	0x3b515995	0.0031944264
211	0xbbb90aa6	-0.0056470213
212	0xbc0159f8	-0.007894985
213	0x3c5608ae	0.013063593
214	0xbc4ee32d	-0.012627405
215	0x3cce4eea	0.025184114
216	0xbd16ec0d	-0.03684621
217	0xbb26a3c3	-0.00254272
218	0xbc25e651	-0.0101257125
219	0x3c391faf	0.011299058
220	0x3ca5e099	0.020248698
221	0x3c3bb737	0.011457256
222	0x3caf0e2b	0.02136906
223	0x3bab773c	0.0052327197
224	0xbc2859b1	-0.01027529
225	0xbb62c7f0	-0.0034604035
226	0xbc389bee	-0.011267645
227	0x3c214e39	0.00984531
228	0x3c3c0e76	0.011478057
229	0xbbbcc6c1	-0.005760998
230	0xbc11e17d	-0.008903858
231	0x3ba2160b	0.0049464754
232	0x3bcc040c	0.0062260684
233	0x3c4d7b08	0.01254154
234	0x3c96ea62	0.01842231
235	0xbbb1b67f	-0.0054233666
236	0xbc3ed53f	-0.0116475215
237	0xbc356c8f	-0.011073246
238	0xbc7a4cc2	-0.01527709
239	0xbccc9c0d	-0.024976755
240	0xbcc484ae	-0.023989048
241	0xbc578a7e	-0.013155578
242	0xbc276d12	-0.0102188755
243	0x3b633055	0.003466626
244	0xbcbe75a0	-0.023249447
245	0x3c08325c	0.008312788
246	0xbc30e985	-0.010797863
247	0x3c50d8a4	0.012746964
248	0xba45b756	-0.0007542273
249	0x3c3018f5	0.010748138
250	0xbc2e8c58	-0.010653578
251	0xbc1e5e38	-0.009666018
252	0x3bec7d87	0.0072171125
253	0x3c39b5d7	0.011334858
254	0xbd18734c	-0.03721933
255	0xbb47af0f	-0.0030469333

network_body._body_endoder.seq_layers.0.bias f4 [256]
0	0x3b85acda	0.0040794434
1	0xbb55fca4	-0.0032651806
2	0x3c302c34	0.010752726
3	0xbb134014	-0.0022468613
4	0x3c01feca	0.007934282
5	0xbae0c05d	-0.0017147172
6	0xbb47636d	-0.0030424253
7	0x3a043578	0.0005043368
8	0xb9c09f58	-0.00036739814
9	0xbb2c72a2	-0.0026313444
10	0x3b459117	0.0030146295
11	0xbab95e59	-0.0014142498
12	0xbb01a205	-0.001978041
13	0x3aea50ce	0.0017876865
14	0xba8479fb	-0.0010107154
15	0xba8b891c	-0.001064572
16	0xbbcceca8	-0.0062537976
17	0xbb041960	-0.0020156726
18	0xb9c7b158	-0.0003808837
19	0xbb033c09	-0.0020024797
20	0x3b7c24cc	0.003847408
21	0x3bb361c2	0.0054743
22	0xbad0c254	-0.0015927055
23	0x3bfd7d3e	0.0077358773
24	0xbb1c11cc	-0.0023814319
25	0x3a8daa8d	0.0010808274
26	0xbb89c1c2	-0.004204006
27	0x3b45008c	0.003006014
28	0xbb4d5d71	-0.0031336213
29	0x3bff17d3	0.0077848225
30	0x3be1603a	0.006877926
31	0x3b86cc78	0.00411373
32	0xbaa4e4ad	-0.0012580358
33	0x3aea9e97	0.0017900047
34	0xbbcdebdf	-0.0062842215
35	0x3acf80a1	0.0015831181
36	0x3b7b88b9	0.0038381054
37	0xbb38607c	-0.002813368
38	0xb9007ecb	-0.00012254265
39	0xbc096f6a	-0.00838838
40	0x3bd82bd1	0.00659702
41	0xbc00269a	-0.007821703
42	0xbb3bb882	-0.002864391
43	0xbb9d3dbd	-0.0047986195
44	0xbbc4d9cc	-0.0060074087
45	0x3a9193dc	0.0011106688
46	0x3b40ff7b	0.0029449153
47	0xbaf4500a	-0.0018639576
48	0x3ba63984	0.0050727744
49	0x3ae4e07a	0.0017461919
50	0xbac38e21	-0.0014919677
51	0xba6afc25	-0.0008963964
52	0xbb97a44d	-0.0046277405
53	0xbb9444eb	-0.004524817
54	0xbaf0d4a5	-0.001837392
55	0xbb3d55a7	-0.0028890164
56	0x3a850fbb	0.0010151783
57	0x3acbe96b	0.0015557235
58	0x3b870193	0.0041200607
59	0xbaf6ba81	-0.0018823893
60	0xbb12aa98	-0.0022379514
61	0xbb83596c	-0.0040084627
62	0xbb2f521d	-0.0026751824
63	0xbb85dd19	-0.004085195
64	0xbaa76dda	-0.0012773827
65	0xbb904f29	-0.004403968
66	0xbb16ad7a	-0.0022991584
67	0xba6f3fbc	-0.00091266236
68	0x3b314fb7	0.002705557
69	0x3a4b657e	0.0007758959
70	0xbbcad9fe	-0.0061905375
71	0x3c024bb5	0.00795262
72	0x3adfc53d	0.0017072331
73	0x391b6d29	0.00014822617
74	0x379619c9	1.78934e-05
75	0xb8aff6a1	-8.3905885e-05
76	0x3b83ac43	0.004018338
77	0x3b33e2d0	0.0027448423
78	0x3ad848ce	0.001650119
79	0xbba0e8c6	-0.0049105613
80	0xbb40d8dd	-0.0029426136
81	0xbb3af83a	-0.0028529302
82	0xbb4f80a8	-0.0031662378
83	0x3c15e143	0.009147945
84	0xbb891a46	-0.0041840402
85	0xba1832ae	-0.00058058917
86	0xbbd9cacf	-0.006646491
87	0xbbc86f31	-0.0061167707
88	0xbb36f319	-0.0027915894
89	0x3ae03169	0.0017104569
90	0xbae03432	-0.0017105399
91	0x3a978a41	0.0011561589
92	0xbb8fa710	-0.004383929
93	0xbbac9bc1	-0.0052675908
94	0x3bb29b04	0.005450608
95	0xbb8736ac	-0.0041263904
96	0xb912d2f6	-0.00014002234
97	0xb7641bc4	-1.3596324e-05
98	0x3baa1ae5	0.0051911944
99	0x3b03dd88	0.0020121057
100	0x3b24e8b7	0.0025163123
101	0xbb1920c4	-0.0023365477
102	0x38860ffa	6.392594e-05
103	0x3b2d6bb2	0.0026461896
104	0x3b47d227	0.003049025
105	0x3bca728e	0.0061782068
106	0x38753e96	5.847084e-05
107	0xbc29b3ad	-0.010357779
108	0x3c3640c0	0.011123836
109	0xbb3aad43	-0.002848462
110	0xbb036e60	-0.0020054802
111	0xbb9cc64b	-0.0047843806
112	0x3c22aef7	0.00992941
113	0x3af18738	0.0018427139
114	0xbb28423e	-0.002567425
115	0x3ab235a6	0.0013596311
116	0xbb2ac01b	-0.0026054445
117	0xb9fd8cd3	-0.00048360843
118	0xbbdea2ec	-0.006794324
119	0x39db7b6d	0.00041862894
120	0xbb1fdbe9	-0.0024392551
121	0xbbaed290	-0.0053351596
122	0xba7f1cae	-0.00097317516
123	0x3619d500	2.292276e-06
124	0x3bd5cc1c	0.006524576
125	0x3be10470	0.006866984
126	0xbae3dc1c	-0.0017384323
127	0xbbb10d39	-0.0054031876
128	0xbb30587b	-0.0026908207
129	0xbb2d4b96	-0.0026442758
130	0xbb8f2cdc	-0.0043693613
131	0x39794d83	0.00023775366
132	0xbb7713c6	-0.0037700995
133	0xbb873ef7	-0.004127379
134	0xb970a610	-0.00022950047
135	0xbaf81bfc	-0.0018929238
136	0xbb579177	-0.00328931
137	0xbbb7b8a9	-0.00560673
138	0xbbbcb290	-0.005758591
139	0x3ae46726	0.001742576
140	0x39b0aa9e	0.00033696456
141	0x3925a0cf	0.00015795532
142	0xbb74e98c	-0.003737065
143	0x3be9be73	0.007133299
144	0xbb353656	-0.0027650795
145	0x3b82b655	0.003989021
146	0x3b8213bf	0.003969639
147	0x3af00d07	0.0018314429
148	0xba3fca14	-0.0007316184
149	0x3a961680	0.0011450797
150	0x3c07c73a	0.008287245
151	0xbaac748a	-0.001315729
152	0xbbee5766	-0.0072736023
153	0x3a261123	0.0006334951
154	0xbb21e342	-0.0024702107
155	0xba1bd7a9	-0.00059449166
156	0xbb67643d	-0.003530755
157	0xbb4b15af	-0.0030988266
158	0xbb33e3e8	-0.0027449075
159	0xbb280e2d	-0.0025643215
160	0xbb22b8b6	-0.0024829335
161	0xbb7ce02a	-0.003858576
162	0xbb061c34	-0.0020463588
163	0x3addbf84	0.0016918038
164	0x3916a0c6	0.00014365008
165	0x3a19f3a7	0.0005872794
166	0x3bfd24bb	0.007725326
167	0xbbf6ae13	-0.0075280755
168	0x3b1032fa	0.002200304
169	0x38ed2082	0.00011307096
170	0xbb39de0a	-0.0028361105
171	0xbbffa990	-0.007802196
172	0x3b1cea9f	0.0023943556
173	0xbc02fd06	-0.007994896
174	0xbb11ea73	-0.0022264987
175	0xba2e6030	-0.00066519063
176	0xbb040e34	-0.0020150067
177	0xbb958fdc	-0.0045642685
178	0x3adcd462	0.0016847963
179	0xbb2c5dc6	-0.002630101
180	0x3ab93ea2	0.0014133046
181	0x3aa88309	0.0012856434
182	0x3c182c26	0.00928787
183	0x3abf6900	0.0014603436
184	0x3888b3f5	6.518505e-05
185	0xbbb36c99	-0.0054755923
186	0xbb4a3b6d	-0.0030858174
187	0xbb543a1f	-0.0032383276
188	0xbbc6b02a	-0.006063481
189	0xbb3dffff	-0.0028991697
190	0x3b088af6	0.002083478
191	0xbbbd1c33	-0.005771184
192	0x3b904380	0.004402578
193	0x3a372007	0.00069856684
194	0xbb8022ce	-0.003910399
195	0x3c2f09b3	0.010683465
196	0x3b136a08	0.002249362
197	0xbaf4675e	-0.0018646528
198	0x3bd1cb34	0.0064023975
199	0x3b389e45	0.0028170508
200	0x3aad0492	0.0013200215
201	0x3bf9aab4	0.0076192264
202	0x3b0715f7	0.0020612457
203	0xbb8b379f	-0.004248574
204	0xbb9ee46c	-0.0048490074
205	0xbb91b9d1	-0.0044472
206	0xbbe4c774	-0.0069817845
207	0xba825c55	-0.000994573
208	0x3aecb100	0.0018058121
209	0xbac70013	-0.0015182517
210	0x3a202760	0.0006109383
211	0x3b540903	0.0032354004
212	0xbb77bbcb	-0.0037801142
213	0x3c1d21b1	0.009590552
214	0xbac347d5	-0.0014898727
215	0x3b239b0f	0.0024964248
216	0x3c072488	0.008248456
217	0xbb18f36c	-0.002333845
218	0x3c19b8a6	0.0093824025
219	0xbbaf54f2	-0.0053507024
220	0xb927cdd9	-0.00016003045
221	0xbbad00f6	-0.0052796556
222	0xbb17cdce	-0.002316344
223	0xbb940eeb	-0.00451838
224	0xbacb2a27	-0.0015500233
225	0x3bab11c3	0.005220623
226	0xbbd89250	-0.0066092387
227	0x3a83ff36	0.0010070566
228	0xba1b76cf	-0.00059304846
229	0xbb506af9	-0.0031802042
230	0xbb02e23d	-0.0019971274
231	0xbbadf81c	-0.005309118
232	0xbb3f2fd3	-0.0029172793
233	0xbb1ba16d	-0.002374734
234	0xb99a77b3	-0.00029462352
235	0x3aceab56	0.0015767615
236	0xbb9d311e	-0.004797115
237	0xbb2ad083	-0.0026064224
238	0x3bc24793	0.0059289425
239	0x3b371390	0.0027935244
240	0x3b6e6660	0.0036376938
241	0xbb2b452f	-0.0026133766
242	0xbc0870d7	-0.008327684
243	0xbbaf2b9f	-0.005345776
244	0xbac5c597	-0.0015088794
245	0xbbb9d392	-0.005670973
246	0xba6ef00c	-0.0009114749
247	0xbab6b67a	-0.001393988
248	0xbb6bc6ff	-0.0035976765
249	0x3a8bbace	0.001066053
250	0xbb36b597	-0.0027879232
251	0x3ae1519a	0.0017190457
252	0xbab9f27a	-0.0014186644
253	0xbae2a70e	-0.0017292218
254	0x3b7b760e	0.0038369927
255	0x3b80e17a	0.003933129

network_body._body_endoder.seq_layers.0.weight f4 [256, 68]
0	0x3e257616	0.16158327
1	0xbe40cbd0	-0.18827748
2	0xbcc586d7	-0.024112148
3	0x3d8b688d	0.06807051
4	0x3e149312	0.14509228
5	0xbe45924d	-0.1929409
6	0x3e370a86	0.17875108
7	0x3dab437a	0.083624795
8	0x3e3aa3f2	0.18226603
9	0xbe38fdb2	-0.18065527
10	0xbd700587	-0.05859902
11	0x3ec8525a	0.3912533
12	0xbde63fb7	-0.112426214
13	0x3d750449	0.05981854
14	0xbdd9d603	-0.106365226
15	0xbe654fdd	-0.22393747
16	0xbdfcb7f4	-0.12339774
17	0xbd54d28f	-0.051958617
18	0x3d97248a	0.07380016
19	0x3da9cbd5	0.08290831
20	0xbdeb440a	-0.11487587
21	0xbdaa14d8	-0.08304757
22	0x3d925e7f	0.0714693
23	0x3c16ec48	0.009211607
24	0x3d1a80c1	0.037720446
25	0x3d7ca693	0.061682295
26	0xbe24e291	-0.16102053
27	0x3daa227a	0.08307357
28	0x3d96c96c	0.07362637
29	0xbdcca8bd	-0.09993122
30	0xbcd77d03	-0.026304727
31	0xbe7b55a7	-0.24544393
32	0x3e2bed24	0.1678968
33	0x3dbb03e6	0.09131603
34	0x3e022ac8	0.12711632
35	0x3ce27fd4	0.027648844
36	0x3d5b7977	0.053582635
37	0x3c534739	0.012895399
38	0x3da5bdd7	0.0809285
39	0x3ba6566b	0.00507622
40	0xbd141c34	-0.03615971
41	0xbe0a29e8	-0.13492548
42	0x3c98c251	0.018647345
43	0x3d8e85c1	0.06959105
44	0x3de8aa3f	0.11360597
45	0x3db7210c	0.0894185
46	0x3dc14fe4	0.09439066
47	0x3e0c8b8b	0.13725106
48	0xbd9014df	-0.07035231
49	0xbcf3e2d7	-0.029771252
50	0x3dff8683	0.12476828
51	0xbe946303	-0.2898179
52	0xbe5c3980	-0.2150631
53	0xbdc4b877	-0.096054964
54	0xbe118a62	-0.14212945
55	0xbda49ddb	-0.08037921
56	0xbca53345	-0.020166049
57	0xbdd7ab18	-0.105306804
58	0xbdf5d6d5	-0.120038666
59	0xbd103ed9	-0.035216186
60	0x3c99cc79	0.018774258
61	0xbdc7c0ef	-0.09753596
62	0x3e570c09	0.21000685
63	0xbe7c0b70	-0.24613738
64	0xbe4fe5e3	-0.20302539
65	0xbd9978fb	-0.07493778
66	0xbc7039a1	-0.014662177
67	0xbdbfa686	-0.09357934
68	0x3dc5579d	0.096358515
69	0xbe1b3927	-0.1515852
70	0xbde474fd	-0.11155126
71	0xbdc6bd88	-0.09704119
72	0x3da4effa	0.080535844
73	0x3c17eaa8	0.009272255
74	0xbd1ba2d1	-0.03799707
75	0x3ca95052	0.020668183
76	0xbdb13f1c	-0.08654615
77	0x3dd0ae18	0.10189456
78	0xbdd83e28	-0.1055873
79	0xbd199570	-0.03749603
80	0x3e2f1c9d	0.17100759
81	0x3d5ef811	0.054435793
82	0xbdc28aa8	-0.09499103
83	0xbd6565c4	-0.056005254
84	0xbd3f77ce	-0.046745114
85	0x3df5c805	0.12001041
86	0x3ea138af	0.3148856
87	0x3e661221	0.22467853
88	0x3d443689	0.04790357
89	0xbd20fe92	-0.039305277
90	0x3da39e58	0.07989186
91	0xbddb3f3c	-0.107054204
92	0xbe3d8529	-0.18507828
93	0x3df702cb	0.120610796
94	0x3c6e8aea	0.014559487
95	0xbda5539a	-0.08072586
96	0xbd20af3c	-0.039229617
97	0xbe0e891f	-0.13919495
98	0x3e770b5a	0.24125424
99	0x3eafc6e4	0.3433143
100	0x3e137e41	0.14403631
101	0x3e2b4c5f	0.16728352
102	0xbd3f9e4e	-0.04678183
103	0x3dceb257	0.100926094
104	0xbdfcb308	-0.12338835
105	0xbe026d71	-0.12737061
106	0x3d47dce0	0.048794627
107	0xbd77d669	-0.06050721
108	0x3e292db2	0.16521338
109	0x3d25035b	0.040286403
110	0xbe17d5b1	-0.1482761
111	0xbcae813b	-0.021301856
112	0xbd3e43b4	-0.046451285
113	0xbdaf74d7	-0.08567207
114	0x3c5144b0	0.012772724
115	0x3dfdf757	0.12400692
116	0xbc6ca61d	-0.014443901
117	0x3d985bcd	0.074393846
118	0x3da37a8e	0.0798236
119	0x3e0ae7de	0.13565013
120	0xbda59494	-0.0808498
121	0x3e94bfe2	0.29052645
122	0x3d23618e	0.039887957
123	0xbcaeaa63	-0.021321481
124	0xbd2e3311	-0.04252917
125	0xbe50beac	-0.20385236
126	0xbd52368b	-0.051321547
127	0xbd728380	-0.05920744
128	0xbe0d8836	-0.13821492
129	0x3e630717	0.22170673
130	0xbd2dd0c3	-0.04243542
131	0xbd26c090	-0.040710986
132	0x3e2011c2	0.15631774
133	0xbdeb9849	-0.115036555
134	0xbdf84155	-0.12121836
135	0x3df696e3	0.12040498
136	0xbe5320ec	-0.20618027
137	0x3e25b0a4	0.16180664
138	0x3cd98112	0.026550803
139	0xbaf3ed5e	-0.001861017
140	0x3d7318c2	0.059349783
141	0xbd877f73	-0.06616106
142	0x3ddb2b99	0.10701675
143	0x3cf36e63	0.029715722
144	0x3d791fd3	0.060821366
145	0x3c279d11	0.010230319
146	0x3cc20458	0.023683712
147	0x3da8493a	0.08217092
148	0x3c45023a	0.012024457
149	0x3e66cf78	0.2254008
150	0xbd9d4957	-0.07680004
151	0xb8ab040a	-8.154668e-05
152	0x3e1df93d	0.15427108
153	0xbd85e8ff	-0.06538581
154	0x3c8c5a8d	0.017133022
155	0x3dbe0fc1	0.092803486
156	0xbc7531db	-0.0149655
157	0xbcbea465	-0.023271749
158	0xbcbcc995	-0.02304534
159	0xbd9b3052	-0.07577576
160	0xbd58182d	-0.05275743
161	0x3e193df4	0.1496504
162	0x3d94e78b	0.07270726
163	0x3cd8efc3	0.026481515
164	0x3e03cfef	0.12872289
165	0x3d2516aa	0.040304817
166	0x3cdc92ef	0.026925532
167	0xbdc52319	-0.09625835
168	0xbddd71d8	-0.108127296
169	0xbd8ccd6d	-0.06875119
170	0x3d8292f6	0.06375687
171	0x3d3ba4c0	0.045811415
172	0x3de1f8c4	0.110337764
173	0xbdf1b9a4	-0.11802986
174	0xbb973c61	-0.004615352
175	0xbd38507a	-0.044998623
176	0xbcd409f2	-0.025883649
177	0xbd9e6305	-0.0773373
178	0xbd0032c7	-0.031298425
179	0xbd95cdde	-0.07314657
180	0x3e36561b	0.17806284
181	0xbd406368	-0.0469698
182	0x3e68930d	0.22712345
183	0x3dba1019	0.09085102
184	0xbd503050	-0.050827324
185	0x3a7813eb	0.0009463417
186	0x3ca13f65	0.01968355
187	0xbe469d5f	-0.1939597
188	0x3df4265f	0.11921381
189	0xbdb9dac4	-0.09074929
190	0x3e2ad795	0.166838
191	0x3ca07632	0.01958761
192	0x3d7a41ad	0.06109779
193	0x3e0e4185	0.13892181
194	0x3d0fd91b	0.035119157
195	0x3e398175	0.1811579
196	0x3c8f5ee2	0.017501298
197	0xbe31e694	-0.17373115
198	0x3e4f20e7	0.20227395
199	0x3c8b9644	0.017039426
200	0xbd82230c	-0.06354341
201	0xbe182235	-0.14856799
202	0xbd91dc70	-0.07122123
203	0x3dbc2b5f	0.0918796
204	0xbdf993c4	-0.12186387
205	0xbd36e1cc	-0.04464893
206	0x3dd3d9ca	0.10344274
207	0xbde7ea20	-0.11323953
208	0xbd75e5ba	-0.060033537
209	0x3b5e0af7	0.0033881047
210	0x3de2f564	0.11081961
211	0xbd447a49	-0.047968183
212	0xbdf78d73	-0.12087526
213	0xbd1feac1	-0.03904224
214	0x3e951962	0.29120928
215	0x3d70d3f3	0.05879588
216	0x3ddf340c	0.10898599
217	0x3d8fdac5	0.07024149
218	0x3de09e6a	0.10967715
219	0xbdafbe3a	-0.08581205
220	0xbe41d1e1	-0.18927719
221	0xbdc6e290	-0.09711182
222	0x3e157706	0.14596185
223	0x3d855060	0.06509471
224	0x3d25162f	0.04030436
225	0xbdf6e2a2	-0.120549455
226	0x3df24c95	0.11831013
227	0xbdbe5e3d	-0.09295318
228	0xbd712df3	-0.05888171
229	0x3dec1f52	0.115294114
230	0xbd7ee8b0	-0.062233627
231	0x3d1f5a35	0.038904388
232	0x3e09c2ee	0.13453266
233	0xbd7d77dc	-0.061881885
234	0xbccf4eb3	-0.025306081
235	0xbdd1b3f7	-0.10239404
236	0xbdb52910	-0.08845723
237	0x3c96d138	0.01841031
238	0x3d42b1f7	0.047533
239	0x3dd399e7	0.10332089
240	0x3ddbab96	0.10726087
241	0xbbbbdd8d	-0.005733198
242	0x3db1a516	0.08674066
243	0x3da451f4	0.08023444
244	0xbe853042	-0.2601338
245	0xbdad45e4	-0.08460596
246	0xbcaade06	-0.020857822
247	0x3d440025	0.0478517
248	0xbd3eab27	-0.046549942
249	0x3dc70185	0.09717087
250	0xbddfea96	-0.109334156
251	0x3e12c45c	0.14332718
252	0xbe1b5d99	-0.15172423
253	0xbe05dbb5	-0.13072093
254	0xbdc1ebd2	-0.09468807
255	0xbca2c9a9	-0.01987155

network_body._body_endoder.seq_layers.2.bias f4 [256]
0	0xbb92fa29	-0.004485388
1	0xbb58556f	-0.0033009907
2	0xb8e7d16c	-0.00011053946
3	0xbb2f5a5e	-0.0026756744
4	0x3aaa724f	0.0013004037
5	0x3aa783fa	0.0012780421
6	0xb9966b34	-0.00028690102
7	0xbb30c312	-0.002697174
8	0xbb40d6e1	-0.0029424953
9	0xbb2f2f7b	-0.0026731181
10	0x3a742cf5	0.00093145604
11	0xba367bf6	-0.00069612206
12	0x3c448f1d	0.0119970115
13	0xbab10568	-0.001350564
14	0xbb84360d	-0.0040347637
15	0xbac34647	-0.0014898264
16	0x3a765987	0.0009397496
17	0xbaf28967	-0.0018504084
18	0xba22840a	-0.0006199485
19	0xba1ffd9a	-0.0006103158
20	0xb9971c1b	-0.00028821905
21	0x3c01a15e	0.007912008
22	0xbb8157f3	-0.003947252
23	0x3b369b15	0.0027863432
24	0x3c08f20f	0.0083584925
25	0xbb5f8b61	-0.0034110176
26	0x3ae50a39	0.001747436
27	0xbb4a4eb8	-0.0030869674
28	0xbb657569	-0.003501261
29	0xbb71a013	-0.0036869093
30	0x3b262570	0.0025351904
31	0xbaef642a	-0.0018264104
32	0x3ade940c	0.0016981377
33	0xba381117	-0.00070215896
34	0xbafd7018	-0.0019335775
35	0x39fba2cf	0.00047995753
36	0x3b1c1503	0.0023816235
37	0x3b422ca2	0.0029628654
38	0x3c19b40a	0.009381304
39	0xbb5bdc88	-0.0033548195
40	0xbbe108e7	-0.0068675163
41	0xbaf4573b	-0.0018641719
42	0xbb22c6bc	-0.0024837693
43	0x3acdb15e	0.0015693118
44	0x3ad1bb33	0.0016001224
45	0x3bbf768f	0.0058429907
46	0xba3a6226	-0.0007109962
47	0xbad8ad99	-0.0016531228
48	0x3b8bfd00	0.0042721033
49	0x3b035bb6	0.0020043678
50	0x3ab12d7b	0.0013517583
51	0xbb158d53	-0.0022819832
52	0xba69d403	-0.0008919837
53	0x3accddf4	0.0015630112
54	0x39e6e58b	0.0004404004
55	0xba99893d	-0.0011713874
56	0xbb8894d4	-0.0041681323
57	0x39a3a3d4	0.00031211844
58	0x36d6587a	6.387997e-06
59	0xbaf81e7b	-0.0018929982
60	0xbbafd4c3	-0.0053659393
61	0x3adcca09	0.0016844879
62	0xbab8a164	-0.0014086184
63	0xbbbb5631	-0.005717062
64	0xbac475aa	-0.001498868
65	0xba8d92b0	-0.0010801163
66	0xbac187ff	-0.0014765261
67	0x3b0277e3	0.0019907884
68	0x3a34fb88	0.0006903936
69	0xbc40e262	-0.011772724
70	0xbb92dc77	-0.004481848
71	0x3ab37145	0.0013690373
72	0xb931ddff	-0.00016962735
73	0xbb586ba1	-0.0033023136
74	0xba84ec5f	-0.0010141245
75	0xbb078947	-0.002068119
76	0x3999df2c	0.0002934871
77	0xb8c5ac68	-9.425805e-05
78	0xb9970b3f	-0.00028809343
79	0xbaff6320	-0.0019484498
80	0x3bebac69	0.0071921838
81	0xb943bcdd	-0.00018667006
82	0x3a9961ad	0.0011702083
83	0x3c13a25e	0.009010879
84	0xbb3fd120	-0.0029268935
85	0xbadf8560	-0.0017053299
86	0x3aa153d8	0.0012308313
87	0x3b3c006e	0.002868678
88	0x3acdda95	0.0015705401
89	0x3b2ab4a7	0.0026047619
90	0xb90c06f2	-0.00013354028
91	0xbb23a4be	-0.002497002
92	0xba928b27	-0.0011180387
93	0x3b228d0f	0.0024803316
94	0x3ad58b4e	0.0016292126
95	0xbb8c094e	-0.00427357
96	0xbb402277	-0.0029317418
97	0x3a84dffd	0.0010137554
98	0xbb15a620	-0.0022834614
99	0xbb12f451	-0.0022423456
100	0xbbbe107f	-0.0058003063
101	0x3bba7611	0.005690344
102	0xbb4fad8b	-0.0031689133
103	0xbb1afd9e	-0.0023649703
104	0x38ae5e03	8.3144776e-05
105	0xbb21b7ed	-0.0024676279
106	0x3ae3492b	0.0017340531
107	0xb9ef0d49	-0.0004559553
108	0xb828a592	-4.020852e-05
109	0xbb801345	-0.003908547
110	0x3acfe4f1	0.0015861077
111	0xba2815da	-0.00064119475
112	0xb60668d4	-2.0028574e-06
113	0xba733275	-0.0009277233
114	0xbb36ef31	-0.0027913565
115	0xba586993	-0.0008255478
116	0x3bf7071c	0.0075386893
117	0x3a7e1604	0.00096926116
118	0xb9de3851	-0.000423851
119	0x3ab421bd	0.0013742965
120	0xb90833f2	-0.00012989322
121	0x3aa435cd	0.0012528241
122	0xbac81c65	-0.0015267251
123	0x3b317a22	0.0027080853
124	0x39d38326	0.0004034277
125	0xbb41d997	-0.0029579157
126	0xb80fc711	-3.4279252e-05
127	0xba479cfc	-0.000761464
128	0xbba7ac90	-0.0051170066
129	0xbb719908	-0.0036864895
130	0x3b1a698a	0.0023561441
131	0xbb4b88a7	-0.0031056793
132	0xbb3e6e8b	-0.0029057588
133	0xbb4aa868	-0.0030923132
134	0x3be07ce6	0.0068508266
135	0xbb4867e6	-0.0030579506
136	0xbb12ffa1	-0.0022430199
137	0xbb50ad12	-0.003184144
138	0x3a24690e	0.0006271758
139	0xbb60eaec	-0.0034319712
140	0xbb78781f	-0.0037913395
141	0x3c21b189	0.009868988
142	0x3acb2166	0.0015497624
143	0xba889663	-0.0010420795
144	0xbad85859	-0.0016505822
145	0x3a85d257	0.0010209781
146	0x3b23904a	0.002495783
147	0x39b875ef	0.00035183082
148	0xb9c701d5	-0.00037957603
149	0xbb2e55f1	-0.0026601518
150	0xbb832bfa	-0.004003045
151	0xbab3d1c6	-0.0013719134
152	0xba3863f7	-0.0007033939
153	0x3c4f6293	0.012657779
154	0x3c31eff3	0.010860431
155	0xbaad35b5	-0.0013214858
156	0xbb1374b1	-0.0022499973
157	0x39d0a3fd	0.00039795032
158	0xbb2c7541	-0.0026315006
159	0xba3637ed	-0.00069510826
160	0xbb8f62e4	-0.0043758024
161	0x3c73c3c0	0.014878213
162	0xbad08a53	-0.0015910364
163	0xbb03d284	-0.002011449
164	0xbaa9955e	-0.0012938192
165	0xbb3da0ee	-0.0028935033
166	0xbb825c49	-0.0039782864
167	0xbb16626c	-0.0022946848
168	0xbb3a7f69	-0.002845729
169	0xbbabd99c	-0.005244447
170	0x3c0e760a	0.008695135
171	0xbac9f8a3	-0.0015409183
172	0x3bb14d85	0.0054108524
173	0xba7466b2	-0.0009323164
174	0x39d2c08a	0.00040197774
175	0x3b8f5ee8	0.0043753274
176	0xbb95343f	-0.0045533474
177	0xbbaccdcb	-0.005273556
178	0xba4befe0	-0.00077795796
179	0xb885c21a	-6.3780884e-05
180	0xbaecf055	-0.0018076996
181	0xbabf78f5	-0.0014608192
182	0xbaeaf52e	-0.0017925852
183	0xba3c2c6a	-0.0007178249
184	0x39f8196c	0.00047321187
185	0xba70cf58	-0.000918617
186	0xbb552430	-0.003252279
187	0x3af5d8a3	0.0018756579
188	0xbb9df399	-0.004820299
189	0x3b180222	0.002319463
190	0xbb509e72	-0.0031832722
191	0x3b2a438d	0.0025980205
192	0x3bd3bc74	0.0064616743
193	0xbb17576c	-0.002309288
194	0xba02f548	-0.0004995656
195	0x3a6e4b7c	0.00090902275
196	0x3ab2d503	0.0013643805
197	0x3a98769b	0.0011632027
198	0xbb177243	-0.0023108877
199	0xbb8ce337	-0.004299547
200	0xba9f13db	-0.0012136655
201	0xbbe28880	-0.0069132447
202	0xba312d1f	-0.0006758738
203	0xbb6fcd78	-0.0036590975
204	0xbb267f9e	-0.0025405656
205	0xbb20197d	-0.0024429255
206	0xba797076	-0.0009515354
207	0x3b809d2a	0.0039249854
208	0xbb0c6ace	-0.0021425965
209	0x3c09de35	0.008414795
210	0xbb1afbf8	-0.002364872
211	0xbb6dc463	-0.0036280386
212	0xbba811db	-0.0051290817
213	0x3b2b6625	0.0026153412
214	0x3b0f2d7f	0.0021847186
215	0xbb6e1e4b	-0.0036333974
216	0x3a3cf23a	0.00072077254
217	0x3bbff625	0.0058582
218	0x39a2a220	0.0003101984
219	0xbaa67376	-0.0012699205
220	0x3b5e4bd4	0.0033919709
221	0x3a188726	0.00058184785
222	0xbae63ee0	-0.0017566346
223	0x3a8f628d	0.0010939405
224	0xbadae679	-0.0016700766
225	0xbab77517	-0.0013996687
226	0xbb545e12	-0.0032404703
227	0x3a347769	0.00068842486
228	0xbb8c927b	-0.004289923
229	0x3b4b5aa0	0.0031029359
230	0xbb887ba4	-0.0041651297
231	0x3b1e96fc	0.002419888
232	0xbb19fd96	-0.0023497096
233	0xbbc276f5	-0.005934591
234	0xba6941c0	-0.0008898042
235	0x3b1a32ff	0.0023528931
236	0xbb2c1b6e	-0.0026261467
237	0x3b588a48	0.0033041406
238	0xba18dd41	-0.0005831309
239	0xb968a144	-0.0002218532
240	0x3b60d0b4	0.0034304084
241	0xbb4e8bb1	-0.0031516368
242	0xbb5abed2	-0.0033377898
243	0xbb792ab5	-0.003801984
244	0xbb196ad5	-0.0023409624
245	0xbb1d8702	-0.002403677
246	0x3b4d7ed4	0.0031356113
247	0xb9d72c73	-0.00041041113
248	0xbb10de8f	-0.0022105312
249	0x3af2e064	0.0018530008
250	0xba90b5c1	-0.0011040495
251	0xbb83997e	-0.0040161004
252	0xbb48194a	-0.0030532652
253	0x3b388bae	0.0028159427
254	0xbb306f57	-0.0026921832
255	0x3a6e3756	0.0009087225

network_body._body_endoder.seq_layers.2.weight f4 [256, 256]
0	0xbd7231ca	-0.059129514
1	0x3ce90117	0.028442902
2	0xbb6ec9e8	-0.0036436263
3	0x3d1e44ee	0.038639955
4	0xbd8bc9b3	-0.068255804
5	0xb9d79076	-0.00041115627
6	0x3d9e9f56	0.07745235
7	0xbd75bc88	-0.05999425
8	0xbd54901f	-0.051895257
9	0x3cb6e0ba	0.022323955
10	0x3c4116c4	0.011785213
11	0xbc3ac696	-0.011399886
12	0xbd97400f	-0.07385265
13	0xbceeefff	-0.029167173
14	0xbd4a5e9f	-0.049406644
15	0xbccc8500	-0.024965763
16	0xbc0d1e35	-0.008613159
17	0x3c89835c	0.01678627
18	0xbcd79695	-0.02631692
19	0xbb6ce9e7	-0.003615016
20	0xbc2066e3	-0.009790155
21	0x3bbe46ec	0.0058067944
22	0xbde8b712	-0.11363043
23	0x3afc7fca	0.0019264158
24	0x3d17874a	0.036994256
25	0xbd719f6a	-0.05898992
26	0x3c8a52e7	0.016885234
27	0xbd122c2b	-0.035686653
28	0x3ce2900a	0.027656574
29	0xbd0b6067	-0.034027483
30	0x3dff1836	0.1245579
31	0xbcad01b0	-0.021118969
32	0xbd19df6c	-0.037566587
33	0x3cc0fb42	0.023557309
34	0x3c1aeb7d	0.009455559
35	0x3de724f3	0.112863444
36	0xbd8a2c82	-0.067467704
37	0xbc9f32fa	-0.019433487
38	0xbcb22d05	-0.021749983
39	0xbd2af9fa	-0.041742302
40	0xbe0be2e1	-0.13660766
41	0xbdb9d193	-0.09073176
42	0xbdd82839	-0.10554547
43	0x3d186672	0.037207074
44	0x3c68f2ae	0.014218016
45	0x3d4107c9	0.047126565
46	0x3d5df269	0.05418626
47	0xbd88c701	-0.06678582
48	0xbc1ad7d2	-0.00945087
49	0x3b8f7c75	0.00437885
50	0xbd29966b	-0.041403215
51	0x3d0fabcb	0.035075944
52	0x3cb656c8	0.022258177
53	0xbd5e3697	-0.05425128
54	0x3cc552b2	0.024087284
55	0xbdb48d56	-0.0881602
56	0x3d6580c0	0.05603099
57	0xbd772c5e	-0.060345046
58	0xbce24512	-0.027620826
59	0xbe036f59	-0.12835445
60	0xbdde219d	-0.10846255
61	0xbdbaada6	-0.09115152
62	0x3c921676	0.017832976
63	0x3db6d79c	0.08927843
64	0xba748ba5	-0.000932867
65	0x3d425924	0.047448292
66	0xbc4b956b	-0.012425761
67	0xbd7ab7a4	-0.06121029
68	0xbe0094db	-0.12556784
69	0xbcaa8c26	-0.020818781
70	0x3de31496	0.11087911
71	0x3c50ea96	0.012751242
72	0x3d9ec885	0.0775309
73	0x3c901d19	0.017592
74	0xbd80815b	-0.062746726
75	0x3d00eaa6	0.03147378
76	0xbdc40042	-0.09570362
77	0xbdb0d81c	-0.086349696
78	0x3cc0e231	0.023545356
79	0x3d317e3f	0.04333329
80	0xbd251c70	-0.040310323
81	0xbd8782a9	-0.06616718
82	0xbe0ff7a5	-0.14059313
83	0x3d2ebe6c	0.04266207
84	0xbdcd2b02	-0.10017969
85	0x3d77ffef	0.06054681
86	0x3da2446e	0.07923208
87	0x3ca07e7b	0.01959156
88	0xbc7a75f8	-0.015286915
89	0xbcdccf8f	-0.02695444
90	0xbd51b3ec	-0.051196977
91	0x3d9d7453	0.07688203
92	0xbda660da	-0.08123942
93	0xbdb4d415	-0.08829514
94	0xbcc4fc11	-0.024045976
95	0x3da93ae5	0.08263186
96	0xbd0a4d92	-0.033765383
97	0x3d0c99c4	0.03432633
98	0x3d1ab06c	0.037765905
99	0xbd7d7c11	-0.061885897
100	0xbc381850	-0.011236265
101	0x3d5a33a3	0.0532719
102	0xbb227087	-0.002478631
103	0xbd5b7828	-0.053581387
104	0x3ded5edf	0.11590361
105	0x3d551f38	0.052031726
106	0xbc902179	-0.017594086
107	0xbdef0d5d	-0.11672471
108	0xbd84027e	-0.06445788
109	0xbd7d5acf	-0.06185418
110	0x3d136fcb	0.035995286
111	0x3ddb5239	0.10709042
112	0xbb2f0c18	-0.002671009
113	0x3e08f883	0.1337605
114	0xbd56d2e0	-0.0524472
115	0xbdc7f343	-0.09763195
116	0xbd2060e2	-0.039154895
117	0x3ca5cb7e	0.020238634
118	0xbb608942	-0.00342615
119	0xba63a6eb	-0.00086842355
120	0xbd9b60ef	-0.07586848
121	0xba607c9b	-0.00085634895
122	0x3c5a03d6	0.013306579
123	0xbd0487d5	-0.032356102
124	0xbde72a3d	-0.11287353
125	0xbb15319c	-0.0022765165
126	0x3d545bfe	0.051845543
127	0x3ccab198	0.024742886
128	0xbd5563bc	-0.052097067
129	0xbce7e1b3	-0.028305864
130	0x3c8ede98	0.017440125
131	0x3c1ec90d	0.009691489
132	0xbda1384b	-0.07872065
133	0xbd3a136c	-0.04542868
134	0xbcfed2c7	-0.031106366
135	0xbe33aaa8	-0.17545569
136	0xbd5749e8	-0.052560717
137	0xbd3b2300	-0.045687675
138	0x3dedb09d	0.11605952
139	0xbd2685c9	-0.04065493
140	0xbc40e525	-0.011773382
141	0xbda18994	-0.07887569
142	0xbda1763a	-0.07883878
143	0x3db3f93b	0.08787771
144	0xbe090b39	-0.13383187
145	0xbc5933b0	-0.013256952
146	0xbcc1ba9a	-0.023648549
147	0x3bedc6d9	0.0072563705
148	0xbd0b857e	-0.034062855
149	0x3d19ee1b	0.03758059
150	0x3dfddda0	0.12395787
151	0x3c9da177	0.019242031
152	0x3cd09bc9	0.02546491
153	0x3db0198a	0.08598621
154	0x3d449d71	0.04800171
155	0xbd109cb9	-0.035305712
156	0xbb077e98	-0.002067482
157	0x3e01e805	0.12686165
158	0xbd35417c	-0.044251904
159	0xbcf08dea	-0.029364545
160	0x3ddeb00b	0.10873421
161	0x3cda7af8	0.026669964
162	0x3d340db3	0.043958377
163	0xbbb1701a	-0.005414975
164	0x3d1b2924	0.03788103
165	0xbd046364	-0.03232135
166	0xbda1688d	-0.078812696
167	0xbcbc68a1	-0.02299911
168	0x3b1be05f	0.0023784859
169	0xbcd40642	-0.02588189
170	0x3dc4a30f	0.096014135
171	0x3d2507ec	0.040290758
172	0x3c3a1db5	0.011359622
173	0x3d39a476	0.045322858
174	0xbcafafc7	-0.021446122
175	0xbd6710eb	-0.05641262
176	0xbd0221b3	-0.03177042
177	0x3d30cb49	0.043162618
178	0x3d690447	0.056888845
179	0x3c84c30c	0.016206287
180	0x3db47f86	0.08813386
181	0x3e1c23c2	0.15248016
182	0xbc3778c1	-0.011198224
183	0xbd91395f	-0.07091021
184	0xbd4ff662	-0.05077208
185	0xbd802557	-0.06257122
186	0xbd77a2e3	-0.060458075
187	0xbdc30cdd	-0.09523938
188	0xbd01f6ae	-0.031729393
189	0x3dcf40ce	0.101197824
190	0x3c0d0846	0.00860793
191	0x3d2f3677	0.04277655
192	0xbd0fcbf4	-0.035106614
193	0xbd8ff584	-0.0702925
194	0xbe03f9fd	-0.12888332
195	0x3b8ea902	0.0043536434
196	0xbca2ba9e	-0.019864377
197	0xbc0e7636	-0.008695176
198	0x3da9f0f9	0.08297915
199	0xbd4501b1	-0.048097316
200	0xbc77c000	-0.01512146
201	0x3d10fc29	0.03539673
202	0x3d157b28	0.036494404
203	0x3d1b7295	0.03795107
204	0x3de537ef	0.11192309
205	0xbd03d4e4	-0.03218545
206	0x3b7e90cb	0.0038843628
207	0x3ca223ba	0.019792426
208	0xbbed7297	-0.007246326
209	0x3d6672e0	0.056261897
210	0x3cd38ed0	0.025824934
211	0xbd3b054f	-0.04565936
212	0xbca689fc	-0.020329468
213	0x3c3b44c8	0.011429973
214	0x3d39b3de	0.04533755
215	0x3dc69dee	0.096980914
216	0xbd0a4f67	-0.03376713
217	0xbd82e2a8	-0.063908875
218	0xbe0198f4	-0.12656003
219	0x3c973323	0.018457001
220	0x3c6283e0	0.013825387
221	0x3b57909b	0.0032892588
222	0x3d9b8595	0.07593838
223	0x3d225d24	0.039639607
224	0xbce4825d	-0.027894193
225	0xbc3f9fa5	-0.011695777
226	0x3bc00216	0.0058596237
227	0xbd91a9c5	-0.07112459
228	0x3d045628	0.032308728
229	0x3bd030f6	0.006353493
230	0xbc720b95	-0.014773269
231	0x3c4efa7f	0.012632965
232	0xbcc6714e	-0.02422395
233	0xbd338fcf	-0.04383832
234	0xbcc5327b	-0.024071923
235	0xbdca1b9e	-0.09868549
236	0xbd39df5d	-0.04537903
237	0x3c39b116	0.0113337245
238	0x3c5870b1	0.0132104615
239	0xbd2768b2	-0.04087133
240	0x3d54e455	0.051975567
241	0x3d6ee76e	0.058326177
242	0x3ce4affe	0.02791595
243	0x3b6f0db8	0.0036476683
244	0xbc7a3a39	-0.01527267
245	0x3c379c58	0.011206709
246	0xbd397524	-0.04527773
247	0xbd9c42e5	-0.076299466
248	0xbd240e49	-0.040052686
249	0x3b889fec	0.004169455
250	0xbce61e41	-0.028090598
251	0xbc9ec19f	-0.019379435
252	0xbd0f7ba9	-0.03503004
253	0x3c5d5788	0.013509639
254	0x3d863622	0.06553294
255	0xbca2717d	-0.019829506

network_body._body_endoder.seq_layers.4.bias f4 [256]
0	0xbb63252a	-0.0034659603
1	0x3a25cdfc	0.00063249446
2	0xbb6009a3	-0.0034185431
3	0xb8b89f6a	-8.803497e-05
4	0xba7fe085	-0.0009760934
5	0x3adc5f53	0.0016813077
6	0x3b01453c	0.0019725105
7	0xb630ac66	-2.6326393e-06
8	0x3a87f577	0.0010372837
9	0xbb10aeb2	-0.0022076783
10	0xbb417179	-0.0029517098
11	0xbb100863	-0.0021977655
12	0xba4062df	-0.00073389517
13	0x3acb4b99	0.0015510201
14	0xbb514ef0	-0.003193792
15	0xbb053652	-0.0020326567
16	0xbb04813e	-0.0020218636
17	0xb997dabc	-0.00028963934
18	0xba67848a	-0.00088317005
19	0x3b0c514f	0.0021410768
20	0x3a9bbd42	0.0011881965
21	0x3b0c29a1	0.0021387117
22	0xbafd9eae	-0.0019349658
23	0x3b1fa481	0.0024359527
24	0xba8b339d	-0.001062024
25	0xbb2aa09c	-0.0026035672
26	0xba5e7412	-0.0008485924
27	0xbb66214f	-0.0035115068
28	0x3a160106	0.00057221984
29	0xbb59667c	-0.0033172658
30	0x3a3121a9	0.000675703
31	0x3b341413	0.0027477785
32	0xbb4e8da8	-0.003151754
33	0x3afcc436	0.001928455
34	0x3b63715b	0.0034705016
35	0x3ad020cd	0.0015878916
36	0x3b0639db	0.0020481262
37	0xbbbf6c3a	-0.005841759
38	0xbafa390b	-0.0019090486
39	0x3b8a37c3	0.004218073
40	0xbb16de45	-0.0023020667
41	0xbae60883	-0.0017550144
42	0xbb24538f	-0.002507422
43	0xba57c954	-0.00082315993
44	0x3a98f1c3	0.001166873
45	0x3ba45675	0.0050151893
46	0xba1e9a20	-0.0006050188
47	0xbad84023	-0.0016498606
48	0xba3d71e3	-0.0007226748
49	0xb9c8d211	-0.00038303484
50	0x3b036a69	0.002005244
51	0x3adee7b1	0.0017006305
52	0xbb423f37	-0.002963973
53	0x3b0fdff4	0.0021953555
54	0xbae7dabe	-0.0017689092
55	0x3a32e4b4	0.00068242406
56	0x3a4a1aa8	0.00077096606
57	0xbababc25	-0.0014246745
58	0x3b6c09a1	0.0036016481
59	0x3c0859a0	0.0083221495
60	0xbaec51de	-0.0018029769
61	0x3b6cd5bd	0.003613814
62	0x3acd5fec	0.0015668846
63	0x3b1113f7	0.0022137144
64	0x3a8d1e42	0.0010766464
65	0x39240403	0.00015641753
66	0x3a9d8e94	0.0012020641
67	0x3c5c96a0	0.013463646
68	0xb912ad5c	-0.00013988226
69	0xbaf5e167	-0.0018759192
70	0x3ad36d72	0.001613064
71	0xbb1341c4	-0.002246962
72	0xbab99037	-0.0014157359
73	0x3adeaee8	0.0016989382
74	0x3b5543f6	0.0032541729
75	0xbb0e0e5d	-0.0021676042
76	0x3c076e2e	0.008266015
77	0x3b91807f	0.0044403668
78	0xbb2623e9	-0.0025350994
79	0x3a5687c4	0.0008183683
80	0x3b1347b5	0.002247316
81	0x3adaef37	0.0016703372
82	0x3a9e72da	0.0012088672
83	0xbba79250	-0.0051138774
84	0xbb2c514c	-0.0026293574
85	0xba046fd8	-0.00050520664
86	0xb9e72e7c	-0.00044094387
87	0x3aefd367	0.0018297256
88	0x3b3b2d5c	0.0028560972
89	0x3b6cd562	0.0036137928
90	0x3b961562	0.0045801857
91	0xbb9084ac	-0.004410347
92	0x397ab3d6	0.00023908852
93	0xbb5df75e	-0.0033869366
94	0x3b7f1528	0.0038922522
95	0xbb767514	-0.0037606405
96	0x3be9c026	0.0071335016
97	0xbafd86c8	-0.0019342536
98	0xba746c34	-0.0009323985
99	0x3b0feec9	0.0021962395
100	0xbb821e5f	-0.0039709057
101	0xb99890a1	-0.00029099456
102	0xbacbbe02	-0.0015544298
103	0x39a058a3	0.00030583618
104	0xbb28b0fc	-0.0025740257
105	0xba2c9b6c	-0.0006584439
106	0xbbb4d872	-0.0055189664
107	0xbbe0d5a6	-0.0068614064
108	0x3b77c108	0.0037804265
109	0xbaa47437	-0.0012546842
110	0xbb904a53	-0.0044033914
111	0x3a93d097	0.0011277375
112	0x3b0bc597	0.002132749
113	0xbafb838b	-0.0019188983
114	0xba5fb6cc	-0.0008534014
115	0xbb9bbbf6	-0.0047526313
116	0x3b1a93b3	0.002358657
117	0xbb3453c2	-0.0027515744
118	0x3b6543e7	0.00349831
119	0xba5916ae	-0.00082812726
120	0x3ae921a5	0.0017786516
121	0xbb38f6f8	-0.0028223377
122	0xbb9231f5	-0.0044615217
123	0xba1a7bcd	-0.00058930815
124	0xba4f6bce	-0.00079124875
125	0x3b031b06	0.002000512
126	0xb9dd71f8	-0.00042237318
127	0xbb43c9b3	-0.002987486
128	0x3b17adde	0.0023144404
129	0x3ab5718f	0.0013843047
130	0xbaf83e0c	-0.001893939
131	0xba9d0c03	-0.0011981729
132	0xba7c4bbe	-0.00096243236
133	0xbb2bab61	-0.002619468
134	0x3b48449d	0.0030558475
135	0xbaacb0e9	-0.0013175282
136	0xbab7f4e4	-0.0014034775
137	0xb98c1082	-0.0002671518
138	0xbbd47914	-0.00648416
139	0xb99d3c78	-0.00029990426
140	0x3b004be5	0.0019576487
141	0x3b1febeb	0.0024402093
142	0x3c048f1c	0.008090761
143	0x3ace30ec	0.0015731133
144	0x3a44f5de	0.00075134437
145	0x3b208e86	0.0024499013
146	0xbae13d1b	-0.0017184349
147	0xbad2df1d	-0.0016088221
148	0xbaea3ad6	-0.0017870318
149	0xb997a3eb	-0.00028923093
150	0xba8378b7	-0.0010030483
151	0x3adeac5c	0.0016988623
152	0xbb1282ab	-0.0022355716
153	0x3ba3e801	0.0050020223
154	0xbb7e85c7	-0.0038837062
155	0x3b15d576	0.0022862828
156	0x3bcb49ee	0.0062038815
157	0x3b348657	0.0027545893
158	0xbb16b9f2	-0.0022999016
159	0xbb624703	-0.003452719
160	0xbb2a4334	-0.0025979998
161	0x383dd5dc	4.5260284e-05
162	0xba8aedb5	-0.0010599407
163	0x3b0497b4	0.0020232024
164	0x3a5594da	0.0008147486
165	0x3b489873	0.0030608445
166	0x3912c2f6	0.00013996274
167	0x3b2f468b	0.0026744928
168	0xbb15e506	-0.0022872104
169	0x3b18fe71	0.0023345018
170	0x3a8ad31b	0.0010591479
171	0xba0b7a8d	-0.00053206907
172	0x3b145e45	0.0022639197
173	0xbb606480	-0.003423959
174	0x3a876506	0.001032979
175	0xbaa13235	-0.0012298288
176	0x3b094cef	0.0020950397
177	0xbb8255c5	-0.0039775097
178	0xbb65364b	-0.0034974988
179	0xbb03743e	-0.00200583
180	0x3bc62978	0.006047424
181	0xb9e6658c	-0.00043944677
182	0xbb0341f1	-0.0020028318
183	0x3c388561	0.011262269
184	0x3a73f6d0	0.0009306492
185	0xbb01ca78	-0.0019804519
186	0x3ab3d31b	0.001371953
187	0x3a3ca10c	0.0007195629
188	0xbb3ba910	-0.0028634705
189	0x3ac35254	0.0014901855
190	0xba830ff6	-0.0009999264
191	0x3b0c66de	0.0021423618
192	0xba6f0857	-0.0009118369
193	0xbb08fb36	-0.0020901687
194	0xbb42471d	-0.0029644438
195	0xbb5c2150	-0.0033589192
196	0x3b52d680	0.003217131
197	0xba929221	-0.0011182466
198	0xbb38500e	-0.0028123888
199	0xb9fbdc16	-0.00048038427
200	0xbb1cafad	-0.0023908422
201	0x3af81b90	0.0018929113
202	0x3b83885e	0.004014059
203	0x3a9ef523	0.00121275
204	0x3aedb756	0.0018136303
205	0x38c59df8	9.423116e-05
206	0x3ac53131	0.0015044567
207	0x3abc2557	0.001435439
208	0xbb88326c	-0.0041564014
209	0xbb248d3f	-0.0025108603
210	0x3ab7fcf7	0.0014037181
211	0xbb5a29fc	-0.0033289185
212	0x3abe19a9	0.0014503497
213	0xbb5d8b02	-0.003380478
214	0x3b0641f8	0.0020486098
215	0x3a651542	0.00087388244
216	0x3b7cca07	0.0038572566
217	0x3a048582	0.00050552946
218	0x3be1a100	0.006885648
219	0x3aa7547c	0.0012766267
220	0xbaf50cfe	-0.0018695889
221	0xbb071d89	-0.002061697
222	0xbb2b10e0	-0.0026102588
223	0xb9b30ddb	-0.00034151864
224	0xbb2f0434	-0.0026705386
225	0xbbd2e948	-0.0064365007
226	0x3b980e9e	0.0046404144
227	0x3b14cd8f	0.002270553
228	0x3b126eb9	0.0022343828
229	0x399b4d67	0.00029621573
230	0xb7db3fc0	-2.613652e-05
231	0xbad76f14	-0.0016436302
232	0xbb2e579f	-0.002660252
233	0xbafc1d16	-0.0019234743
234	0xbb342cf5	-0.0027492617
235	0x3b15e3ab	0.0022871296
236	0x3afbad3b	0.0019201407
237	0x3b15a4d1	0.0022833834
238	0x3b89ce09	0.0042054695
239	0x3b10d4ce	0.0022099498
240	0x3a8aba68	0.0010584118
241	0x3a9fdbff	0.0012196301
242	0xbb65e659	-0.0035079925
243	0xba8b6f70	-0.0010638069
244	0x39b70134	0.00034905376
245	0xbac6c1dc	-0.0015163976
246	0x39de64dd	0.0004241829
247	0xbb2962c1	-0.0025846215
248	0xb9e0b26d	-0.00042857547
249	0xbaecf58b	-0.0018078549
250	0x3aea25ff	0.0017864107
251	0x3b16430b	0.0022928144
252	0xbb47790b	-0.0030437137
253	0xbb36fef9	-0.0027922972
254	0x3bc60909	0.0060435575
255	0x3a99ff7d	0.0011749115

network_body._body_endoder.seq_layers.4.weight f4 [256, 256]
0	0x3c7484b9	0.014924222
1	0xbdf1301e	-0.11776756
2	0x3cc011a0	0.023445904
3	0xbcbdfb3d	-0.023191089
4	0xbc92f6fc	-0.017940037
5	0x3d1d1305	0.038348217
6	0xbd0efdb6	-0.034909926
7	0x3d0d1261	0.034441356
8	0x3c8dc954	0.017307915
9	0xbc5cc7ec	-0.013475399
10	0xbca579e7	-0.02019973
11	0xbde27c67	-0.11058884
12	0x3de629fd	0.112384774
13	0x3acfa77a	0.0015842759
14	0x3d611a1d	0.054956544
15	0x3da8aa33	0.08235588
16	0xbe2e5544	-0.17024714
17	0x3e07d90f	0.13266395
18	0x3d4df92a	0.05028645
19	0x3c6e6b00	0.014551878
20	0x3ca74313	0.020417726
21	0xbda06649	-0.07832009
22	0xbd867be6	-0.065666005
23	0x3c0710b3	0.0082437275
24	0x3c8de7a4	0.017322369
25	0xbd8eab14	-0.06966224
26	0xbc9da5ee	-0.01924416
27	0xbca8f7b9	-0.020625936
28	0x3db09578	0.08622259
29	0x3c8f14f1	0.01746604
30	0x3cdd3903	0.027004724
31	0xbd566cfe	-0.052350037
32	0xbcecaa59	-0.028889822
33	0x3d49f9a5	0.049310345
34	0xbc3615fd	-0.011113641
35	0xbd20f4ae	-0.039295845
36	0x3dbd1da8	0.09234172
37	0x3da620d0	0.08111727
38	0x3d657880	0.05602312
39	0x3e04efa2	0.12982038
40	0x3de95113	0.11392417
41	0xbd5c1e19	-0.05373964
42	0x3c6fea35	0.014643242
43	0x3ced35e9	0.02895637
44	0x3ce48702	0.027896408
45	0x3c52cd5a	0.012866342
46	0x3d2b7a58	0.041864723
47	0x3e2d89a5	0.16947038
48	0x3d30a252	0.04312355
49	0x3da740c9	0.08166654
50	0xbbedda37	-0.0072586793
51	0xbcb2904d	-0.021797324
52	0x3d4b6ce8	0.049664408
53	0xbd54bd5b	-0.051938396
54	0x3cf88f12	0.030341659
55	0xbd0eab19	-0.03483114
56	0xbc9133d4	-0.017724909
57	0x3c14d279	0.009083384
58	0xbdf81cc0	-0.121148586
59	0x3cc8b359	0.024499582
60	0x3d0c7829	0.03429428
61	0xbd42c0a0	-0.047546983
62	0xbcd49ade	-0.025952753
63	0xbc839c5a	-0.016065765
64	0x3d6dec8c	0.058086917
65	0xbaf6ff46	-0.0018844388
66	0xbd6e2674	-0.05814214
67	0x3cfcc410	0.030855209
68	0x3d8f7d6c	0.07006344
69	0xbd113111	-0.035447184
70	0xbd04f4de	-0.032460086
71	0x3d28faa1	0.041254643
72	0xbcf6aeac	-0.030112587
73	0x3d5b6839	0.05356619
74	0xbcd35e79	-0.025801884
75	0x3caf6ef2	0.021415208
76	0x3d8a7a6e	0.06761633
77	0xbb357b96	-0.002769207
78	0x3d7f2a07	0.06229594
79	0xbd834e90	-0.06411469
80	0xbd086582	-0.03329993
81	0x3cc56d2c	0.024099909
82	0x3e29aedf	0.16570614
83	0x3d50cc2e	0.05097597
84	0x3c0be017	0.008537314
85	0x3dd49e63	0.10381772
86	0xbd20ccbf	-0.03925776
87	0xbd4e3a92	-0.050348826
88	0x3d7057f6	0.058677636
89	0x3d7cb200	0.06169319
90	0xbceedd4d	-0.029158259
91	0xbc28b164	-0.0102961995
92	0xbb5c2f13	-0.0033597394
93	0xbd9477c8	-0.07249409
94	0x3daafa9a	0.0834858
95	0x3d33e626	0.04392066
96	0xbd1c4142	-0.038148172
97	0xbd184d3f	-0.037183043
98	0x3d05ecb4	0.03269644
99	0x3c735ccd	0.014853668
100	0xbca50c21	-0.020147385
101	0x3d087ae7	0.033320334
102	0x3c5f567f	0.013631462
103	0x3d1a47a9	0.037665997
104	0xbc95e6ab	-0.018298468
105	0xbd598a9c	-0.053110704
106	0xbb884020	-0.004158035
107	0x3d0c20ce	0.034210972
108	0x3c7399f8	0.014868252
109	0xbcaeb290	-0.02132538
110	0xbc2e44dd	-0.0106365355
111	0xbbdfd099	-0.0068302867
112	0xbd28ea06	-0.041238807
113	0xbb48b72d	-0.003062676
114	0xbcf6e848	-0.030140057
115	0xbd2caa9a	-0.042154886
116	0x3ce3386a	0.027736861
117	0xbd11b317	-0.035571184
118	0xbcac122b	-0.021004757
119	0xbbebfc6a	-0.007201721
120	0x3c178e35	0.009250213
121	0x39a8f37f	0.00032224876
122	0xbcedc439	-0.02902423
123	0xbbb54f38	-0.0055331253
124	0xbd910cc6	-0.070825145
125	0x3d0ba597	0.034093466
126	0x3c070720	0.008241445
127	0x3b3caa98	0.0028788205
128	0x3ce85cd2	0.028364573
129	0xbbcfd3db	-0.006342394
130	0xbd7e9f88	-0.06216386
131	0xbd48c951	-0.049020115
132	0x3c5fa095	0.013649126
133	0x3e041049	0.12896837
134	0xbda5d5c0	-0.0809741
135	0xbd1713b1	-0.036884014
136	0x3c83c8b7	0.01608692
137	0x3cea69cc	0.028614901
138	0xbc3884da	-0.011262143
139	0xbdac5fe9	-0.08416731
140	0x3c59dd45	0.013297384
141	0xbd3d82be	-0.046267264
142	0xbda12cf4	-0.07869902
143	0xbd913e31	-0.0709194
144	0x3d17ee61	0.03709257
145	0x3d668186	0.056275867
146	0xbcbfd66f	-0.02341768
147	0x3d860f11	0.065458424
148	0xbce9e149	-0.028549807
149	0xbd0e2cda	-0.034710743
150	0x3de30e24	0.110866815
151	0xbda23619	-0.079204746
152	0x3c8f9260	0.017525852
153	0x3dceab41	0.10091258
154	0x3dc0ec6c	0.09420094
155	0x3b84ac95	0.0040488937
156	0xbd67d6f4	-0.05660148
157	0x3d87400f	0.06604015
158	0x3cb94582	0.022616152
159	0x3c9e3d8e	0.019316461
160	0x3cefd49f	0.02927619
161	0xbb616705	-0.003439368
162	0xbd645576	-0.055745564
163	0x3bc38d39	0.005967763
164	0x3c23fa44	0.010008398
165	0xbd0bd6e9	-0.0341405
166	0x3dfedcdd	0.1244447
167	0x3c1df9b4	0.009642053
168	0x3ca269f7	0.019825919
169	0x3b149ac9	0.0022675267
170	0x3d9f9d8c	0.077937216
171	0xbd9645e2	-0.07337548
172	0x3d30361e	0.04302036
173	0xbaef3a8a	-0.0018251699
174	0xbe072e8a	-0.13201347
175	0xbd23f0fa	-0.040024735
176	0x3b04c2d1	0.0020257721
177	0xbcca69de	-0.024708685
178	0xbcb4733b	-0.022027602
179	0x3d307903	0.043084156
180	0xbd8992ca	-0.06717451
181	0x3d19621d	0.037447084
182	0xbd1928ad	-0.037392307
183	0x3df00624	0.11719921
184	0x3cde673a	0.027148832
185	0x3dc46c52	0.09590973
186	0x3abb0b8f	0.0014270413
187	0x3c0fd7bf	0.008779465
188	0x3e1a3ca0	0.15062189
189	0x3bb841dc	0.0056230854
190	0x3d1cb145	0.038254995
191	0x3d1a2747	0.037635114
192	0xbd867cc2	-0.065667644
193	0x3db53d01	0.08849526
194	0xbd9393a1	-0.07205892
195	0xbc3ee545	-0.011651342
196	0x3bfbb107	0.0076810154
197	0x3e065d80	0.13121605
198	0x3da22b19	0.079183765
199	0x3d085296	0.033281885
200	0xbdbeb502	-0.09311868
201	0xbc056aa3	-0.0081431
202	0x3d383758	0.044974655
203	0x3d13950f	0.036030825
204	0xbe14bb74	-0.14524633
205	0xbdc66444	-0.09687093
206	0xbcc1328f	-0.023583679
207	0x3d653af3	0.05596442
208	0x3cd057a1	0.02543241
209	0xbc17fd63	-0.009276721
210	0xbad13e68	-0.0015964033
211	0xbb8ab3e3	-0.00423287
212	0x3dd5df25	0.10442952
213	0x3d4faa7c	0.050699696
214	0xbd0535f0	-0.032522142
215	0x3d8688fa	0.06569095
216	0xbd845589	-0.06461627
217	0x3cd12c90	0.025533944
218	0x3de348db	0.110978805
219	0xbd3ea591	-0.046544615
220	0x3d14eb69	0.036357317
221	0xbdb0833c	-0.08618781
222	0x3d7ef458	0.062244743
223	0x3c889ea4	0.016677208
224	0xbd3607f3	-0.044441175
225	0xbdda7762	-0.10667302
226	0xbdcfb7e8	-0.10142499
227	0x3b8ee7a8	0.0043611117
228	0x3d8aba94	0.06773868
229	0xbc91dc88	-0.017805353
230	0x3da79742	0.08183147
231	0x3c6acef9	0.014331573
232	0x3dc8e5d2	0.0980946
233	0x3da29cc1	0.07940055
234	0xbd31d664	-0.04341735
235	0xbc924880	-0.017856836
236	0x3dd813db	0.10550662
237	0x3ca26770	0.019824713
238	0xbd4127a1	-0.047156934
239	0x3d3ac88c	0.045601413
240	0xbd48308b	-0.04887442
241	0xbb4647d7	-0.0030255222
242	0x3d7209ac	0.059091255
243	0x3dd84b0a	0.105611876
244	0xbd61593f	-0.055016752
245	0xbd3c81c1	-0.04602218
246	0x3db20353	0.0869204
247	0x3c883c2c	0.016630255
248	0xbe01596a	-0.12631765
249	0xbcc462bc	-0.023972861
250	0xbb846840	-0.004040748
251	0x3d49549b	0.04915295
252	0xbcd68acc	-0.02618923
253	0xbc974302	-0.018464569
254	0x3d1acc60	0.037792563
255	0xbcf7a468	-0.030229762
