Assets/Training/results/run2/config/config-499997.onnx (onnx, 588060 bytes, 9 tensors)

action_model._continuous_distribution.log_sigma f4 [1, 2]
000000 4a 38 86 bc 12 90 92 bc
       -0.016384263 -0.017890964

action_model._continuous_distribution.mu.bias f4 [2]
000000 a4 da e7 3b 04 a0 da 3a
       0.0070756245 0.0016679768

action_model._continuous_distribution.mu.weight f4 [2, 256]
000000 14 65 f1 bc b3 0b 5f 3c ba 71 c3 3b 6a 18 c5 bc
       -0.029467143 0.013613629 0.005964485 -0.024059493
000010 50 88 03 bd 60 c6 02 bb 19 fb 32 bd c3 32 20 3b
       -0.03211242 -0.0019954666 -0.043696497 0.002444432
000020 e0 6a cc b9 cf 3a 01 bc 4e 10 14 3c da 5d 92 3b
       -0.0003898954 -0.007887556 0.00903709 0.0044667544
000030 b3 a8 52 3c 69 8e 8f 3c 5e 3a 83 bc 39 e9 8c 3b
       0.012857604 0.017523961 -0.016019043 0.0043002632
000040 1f 4a cb 3b a2 c0 a7 3c bc 33 e9 3b 2d e5 13 bc
       0.0062039043 0.020477597 0.007116763 -0.009026808
000050 c7 e2 78 3c 5a c2 fd bb dd 55 38 3d f8 b7 a8 3c
       0.015190787 -0.007744116 0.04500376 0.020595536
000060 ba d2 8d 3c f5 2c 2c 3c f3 d3 09 3c 27 57 3c bc
       0.017312396 0.0105087655 0.008412349 -0.011495388
000070 53 b3 25 bb 0f af a5 3b 9c 43 d7 bb f9 9c 29 bc
       -0.0025283888 0.005056269 -0.006569339 -0.010352367
000080 fb eb a1 bc 90 b1 d5 3c 75 1b 7c 3c e3 60 80 bc
       -0.019765845 0.026085645 0.015387406 -0.0156712
000090 c9 58 06 bc bc 16 33 3c f9 48 fb bc 94 8a 1e bc
       -0.008199879 0.010930713 -0.030674445 -0.009676594
0000a0 ad 8e 8d 3c cf 6c 82 3c 3a 1b 7c 3c f0 d5 76 bc
       0.017279947 0.015921025 0.015387351 -0.015065655
0000b0 aa 30 e1 bc 8f cc 80 3c 8f 87 75 bc 78 fa 73 3b
       -0.027489025 0.015722541 -0.014985933 0.0037228148
0000c0 bb ac da bc 8d b7 08 bb 54 77 26 3c c8 ad 29 bc
       -0.026693692 -0.0020861358 0.010160286 -0.010356374
0000d0 88 96 c7 3c 10 52 e3 bb 26 fe bd 3c b7 97 67 bc
       0.024363771 -0.006937273 0.023192476 -0.014135293
0000e0 40 da 1b bc 3d 2a 5e bc 84 c9 98 b9 20 c3 e1 3b
       -0.009512484 -0.013559875 -0.0002914184 0.006889716
0000f0 fe 64 c5 bb f4 7f 9b bc 30 ea f3 3b f3 b2 66 3b
       -0.006024002 -0.018981911 0.007443689 0.0035201877
000100 27 7d f8 bc eb 10 96 bc 3b cb 56 bc 4c 63 d6 3c
       -0.030333115 -0.018318614 -0.013109977 0.026170395
000110 95 02 1c ba c6 31 c2 bc db ff 68 bb 3a 46 49 bc
       -0.00059513125 -0.023705374 -0.0035552892 -0.01228481
000120 80 fd 3d 3c 6d 0e a7 39 e5 85 8f 3c 23 e2 b1 bb
       0.011596084 0.0003186347 0.0175199 -0.005428569
000130 a7 04 b6 bc 85 08 f0 3b ac be 20 bc 89 f9 b0 3b
       -0.022219015 0.0073252344 -0.009811085 0.0054008407
000140 69 e9 ca 3b e7 8c b7 bb ef 4b a0 bc 65 c7 1b bc
       0.0061923754 -0.0056015137 -0.019567458 -0.009507989
000150 f4 f8 1f bc ce a5 67 3c 4d 08 ec ba c4 7e 33 3a
       -0.009763945 0.014138652 -0.0018007845 0.00068471977
000160 df 0d eb bb 57 f1 ae bb 46 9a e8 3a 40 41 c6 3c
       -0.0071732844 -0.0053388285 0.0017746172 0.024201035
000170 7b 22 7d 3c e0 0f e2 bc da a7 9c 3c 0a 27 b4 3c
       0.015450115 -0.02759546 0.019123007 0.021991272
000180 66 85 5b 3c 4a 43 4b bb d7 d8 c6 3c 54 3b a2 bc
       0.013398504 -0.003101545 0.02427332 -0.01980368
000190 2b ca b9 3c 85 a7 4b ba b9 76 a9 bc 94 f4 20 3c
       0.022679409 -0.0007768798 -0.020686494 0.009823937
0001a0 ae 3a 75 ba 9f 75 9e bb 35 e5 71 3c 2d f7 44 bc
       -0.0009354752 -0.004835799 0.01476412 -0.012021822
0001b0 e8 bf e7 3c 8a fa 9e 39 4a 8f f1 bc f1 5a d8 3b
       0.02828975 0.00030322775 -0.02948727 0.006602638
0001c0 df e1 b8 b9 cd b4 ea 3c 05 93 df 3b aa 37 87 bc
       -0.00035263502 0.028650666 0.006822946 -0.016506035
0001d0 7d 57 08 bd fd ca 5f bc c1 eb a9 bc fa 7a bb bc
       -0.03328656 -0.013659236 -0.020742299 -0.022885788
0001e0 d8 98 62 bc 64 76 2c 3c 70 3a 41 bc 1a b7 c4 3c
       -0.013830386 0.010526273 -0.011793718 0.02401309
0001f0 7a 54 3a bc 12 53 7b bc b3 8a cb bb 8a 4b 97 3b
       -0.01137268 -0.01533963 -0.0062116026 0.0046171593
000200 b0 d2 80 3c c0 6b 3f 3c 37 3c e8 bb 4b 79 52 bc
       0.015725464 0.011683404 -0.0070872563 -0.012846301
000210 d8 38 ef 3c 13 a6 39 bc af fb 45 bc 2e c6 d3 3c
       0.02920191 -0.011331099 -0.012083932 0.025851335
000220 7d 51 fd bb dc 5c 73 3c de d3 ab ba 8a e0 5d bb
       -0.0077306614 0.014853682 -0.0013109406 -0.003385576
000230 1e 41 57 bb 8f 68 e1 3b 66 fa cb 3c 91 e8 78 3c
       -0.003284521 0.0068789194 0.024899673 0.015192167
000240 51 6a 9a bc f5 af 99 bc ac c0 10 bc 7f 31 ea 3b
       -0.018849524 -0.01876066 -0.008834999 0.0071470137
000250 e7 70 52 3c a9 af 74 bc 75 bd 0f 3c 07 cc 8e bb
       0.012844301 -0.014934459 0.008773197 -0.004357818
000260 ca 51 02 bc 12 75 09 3d 44 2a 70 3c e8 84 42 bc
       -0.00795407 0.033558913 0.014658514 -0.011872508
000270 ef 7e 72 3c 0e 9c 13 3d ac a9 27 3c ec bf 20 3c
       0.014800771 0.036037497 0.010233324 0.009811383
000280 21 dd cc 3b 07 9b f0 bc dd c6 ab 3c d0 3b a5 39
       0.0062519466 -0.029370798 0.020968849 0.00031515816
000290 ed a4 85 3c 12 aa 17 3d 6a 3e 62 bc ed 3b db 3c
       0.016313994 0.037027426 -0.013808826 0.026761973
0002a0 d0 b2 f8 bb 02 15 82 bb 75 17 9a 3b 68 7f 38 bc
       -0.0075896755 -0.0039697895 0.0047025033 -0.011260845
0002b0 e6 f7 82 3c b7 3b ac bc 32 d1 94 3c 2a a5 44 bb
       0.015987348 -0.021024568 0.018166158 -0.0030005672
0002c0 7f 64 89 3c 93 a3 03 bc 9a 8c 97 3b de 3a 90 3c
       0.016771553 -0.008034605 0.0046249153 0.017606195
0002d0 55 a8 05 3c bb 1d fe ba 78 e5 41 3c 9c 12 81 3c
       0.008157809 -0.0019387522 0.011834495 0.015755944
0002e0 2e 47 9a bb aa f8 98 3c 23 9e 00 bc 59 8d 0d 3d
       -0.0047081923 0.01867326 -0.007850203 0.034558628
0002f0 09 17 7d 3c 39 5e 51 3c 02 45 89 bc 8d 7f 2a 3c
       0.015447387 0.012778812 -0.016756538 0.010406387
000300 73 d7 02 3c c2 9d db bc 4a 66 c9 3b c5 ba 39 ba
       0.007985937 -0.026808623 0.006146227 -0.0007085021
000310 1e a2 02 bd 0a 1a 24 bc b9 e6 84 bc 00 15 17 3c
       -0.03189289 -0.010015974 -0.016223298 0.009221315
000320 e9 29 f9 3b 8e 52 48 3c d6 6f 48 bc f3 1e e8 3b
       0.007603873 0.012226714 -0.012233695 0.0070837676
000330 7e 6d a5 3c de 20 94 bb 11 25 87 3c be 5a 38 bc
       0.020193812 -0.0045205196 0.016497167 -0.011252103
000340 6b 23 0a bd 1d f4 a3 bb 01 14 ad 3b f4 5b 88 bb
       -0.033725183 -0.005003466 0.0052819257 -0.0041613523
000350 60 81 61 3c 64 35 ff 3b 0d 32 bd 38 bb cc be 3c
       0.013763756 0.007788347 9.021545e-05 0.023290982
000360 37 48 02 bc 52 24 bd 3c d1 d9 95 bc 50 06 d4 3a
       -0.007951788 0.023088608 -0.01829234 0.0016176198
000370 6e d1 8d 3b 62 2c 2c 3c b8 6f 07 3b 33 2a 8b 3c
       0.0043279445 0.010508629 0.0020665955 0.016987896
000380 7d c6 e3 bb 44 34 b5 bb a3 a3 1f bc ea d8 a8 bc
       -0.006951152 -0.005529912 -0.009743604 -0.020611245
000390 f1 e2 ac 3c 4b 7a c3 3c b4 a9 4c bc a3 e4 9c bc
       0.021104308 0.023862025 -0.012491632 -0.019151991
0003a0 d0 1e d2 3b dd 0b e5 bc 37 ff b5 ba 02 74 7b bc
       0.0064123645 -0.027959758 -0.0013885264 -0.015347483
0003b0 5a 60 80 3c db bb 8f bc 97 ad 9f 3c fa 41 83 bc
       0.015670944 -0.017545631 0.019491954 -0.016022671
0003c0 75 58 68 bc 58 34 a5 bc 4c 99 06 39 1a ec 93 bb
       -0.014181246 -0.020166561 0.00012836343 -0.0045142295
0003d0 65 74 97 ba a6 06 28 3c 29 15 17 3a 9f 64 66 bb
       -0.0011555074 0.010255491 0.0005763346 -0.003515519
0003e0 32 a2 a5 3a 6b 5b 18 bc af a9 5e bc 4d 12 15 bc
       0.0012636839 -0.0092991395 -0.01359026 -0.0090986015
0003f0 90 97 8c bb f5 47 5c bc 6e 4e 07 bc ee 2b de 3b
       -0.0042905286 -0.01344489 -0.008258445 0.006780139

network_body._body_endoder.seq_layers.0.bias f4 [256]
000000 8f 79 54 3b d0 c0 bd 3a b5 3f 55 3b 5b aa 04 3a
       0.0032421087 0.0014477018 0.0032539193 0.00050607853
000010 10 00 31 bb 91 9b c0 3b 63 89 ee 3b 91 29 9c 3a
       -0.0027008094 0.00587792 0.0072795614 0.0011914243
000020 b3 00 d4 ba 90 5c bd 3b ef 87 25 3a 1c 87 e3 bb
       -0.0016174525 0.0057788566 0.0006314506 -0.0069435965
000030 de 73 bf bb c4 c3 ad ba be 0a 87 3b e9 e4 87 3b
       -0.00584267 -0.0013257195 0.0041211536 0.0041471613
000040 cd d0 d5 bb 95 31 7c 3b 5a 65 c2 3b 64 e5 01 3b
       -0.006525135 0.0038481702 0.005932492 0.0019820565
000050 b5 7b f4 3b d3 12 07 3b fe de af 3b b1 f3 93 3b
       0.007461036 0.0020610585 0.005367159 0.0045151343
000060 33 ce 47 ba e0 d6 88 bb 54 70 39 3b 8a 6c 32 ba
       -0.00076219736 -0.0041760057 0.0028295713 -0.0006806335
000070 6b a5 bd 3b 51 f8 bc 3b 1c 10 e6 3b d5 2c 48 3b
       0.0057875416 0.0057669063 0.0070209634 0.00305443
000080 57 28 b1 3b 17 4a bd bb ee d3 e7 39 4d 49 58 bb
       0.00540642 -0.0057766545 0.00044217653 -0.0033002675
000090 0c 8d f1 bb 68 97 4c ba aa 5e 23 bb eb 0e ad 3b
       -0.0073715504 -0.0007804544 -0.002492825 0.0052813194
0000a0 7b 95 97 bb 51 86 95 3b 51 2a 1f 3b ef c8 e9 3b
       -0.0046259738 0.004563131 0.0024286697 0.007134549
0000b0 92 b0 fb ba e9 14 ff 39 30 71 fa 3a fa 7b 5f 3b
       -0.0019202402 0.0004865297 0.0019107219 0.0034100995
0000c0 d2 66 9e 3b 3c 47 f3 bb 75 19 5b 3a e6 22 33 bb
       0.0048340345 -0.0074242633 0.00083579804 -0.0027334034
0000d0 90 16 a7 3a 7f f3 14 bb 72 83 c4 bb ad ed ac 3b
       0.0012747813 -0.0022728143 -0.005997115 0.0052773566
0000e0 99 4b f2 bb fc a2 01 3c 3e a2 2a 39 0a 21 c4 bb
       -0.007394266 0.007912394 0.00016272903 -0.005985384
0000f0 96 4f bd 3b 0b a7 ec 3b 82 a0 22 39 f9 cc 15 3b
       0.0057773096 0.0072220615 0.00015509318 0.002285777
000100 a9 84 91 3b 14 af ae 3a b2 8c bb bb 08 dc d9 bb
       0.004440863 0.0013327324 -0.0057235593 -0.006648544
000110 44 4a 19 3b d3 a9 f8 3b 1a c9 90 3b 1e 3b 9e 3b
       0.0023390213 0.007588604 0.0044185044 0.0048288247
000120 79 f2 af 3b d7 79 a5 bb 51 b9 9a 3b 56 6c 50 3b
       0.005369481 -0.005049925 0.0047217985 0.0031802855
000130 95 31 04 3b 8e 7e 85 3b aa 53 76 bb f0 03 b3 3b
       0.0020171155 0.0040739244 -0.0037586489 0.005463116
000140 7e 5d fe b9 c3 e9 ad ba b0 f5 81 bb ac 00 89 3b
       -0.00048516312 -0.0013268519 -0.003966056 0.0041809883
000150 3e d7 63 3b c5 e7 08 bb c4 37 d3 bb 34 4d 8a 3b
       0.0034765746 -0.0020890099 -0.0064458568 0.004220629
000160 26 99 82 bb 42 91 c2 3a e4 b9 d1 3b 87 4c 01 3c
       -0.003985542 0.0014844316 0.0064003337 0.007891781
000170 29 0b 94 bb 23 e6 5e bb e0 10 ba bb 28 40 f3 ba
       -0.004517932 -0.0034011684 -0.005678281 -0.0018558549
000180 2e 31 e6 b9 d9 ce 70 bb f2 18 24 bb dd b2 e7 3a
       -0.0004390566 -0.0036744385 -0.0025039283 0.0017677207
000190 27 fb e2 bb cc 1d c4 bb 31 b6 aa 3b 86 41 8c bb
       -0.0069269123 -0.0059849974 0.005209707 -0.004280272
0001a0 a8 fe f6 ba 19 06 14 bb d5 21 10 3b 0d e2 f1 3b
       -0.0018844204 -0.0022586642 0.0021992822 0.0073816837
0001b0 5d ee 9b bb 88 aa c6 3b d1 5f f9 3b 2a fd c4 3b
       -0.0047586397 0.0060628094 0.007610299 0.006011625
0001c0 33 12 a6 3b 1e 60 0e bc 3b 5c c8 bb 19 d0 f6 3b
       0.0050680875 -0.008689908 -0.0061145104 0.0075321314
0001d0 e2 93 16 3b ef da 96 3b f0 a8 a2 3b f9 3f 2f 3a
       0.0022976329 0.0046037356 0.0049639866 0.0006685253
0001e0 56 89 1a bb 78 b9 d0 3b 0d db c1 bb 04 f3 bc 3b
       -0.0023580394 0.006369766 -0.0059160055 0.0057662744
0001f0 50 3a cb bb d1 c5 a8 3b 87 f7 c1 3b 29 27 43 bb
       -0.0062020198 0.0051505347 0.0059194 -0.002977798
000200 93 4a e6 bb 16 7b d6 bb 37 04 ce bb 65 e5 79 3b
       -0.007027933 -0.0065454347 -0.0062871235 0.0038131115
000210 58 76 73 3b 3d bb d4 bb 8c 72 d4 3b fc ce f4 bb
       0.0037149396 -0.006492047 0.0064833816 -0.0074709635
000220 2a 74 f4 3b a5 74 ed bb ff 7d 06 b9 01 c0 e9 bb
       0.007460137 -0.007246571 -0.00012826173 -0.0071334844
000230 53 47 b1 3b 66 58 88 bb da 4a dd bb 30 f2 93 3b
       0.005410114 -0.0041609285 -0.006753308 0.004514955
000240 d1 3a e8 3b 07 f4 74 bb 18 c8 b4 3b 64 86 f3 3b
       0.0070870896 -0.0037376897 0.005517017 0.007431792
000250 37 dc ca 3b 8e 59 c3 3b 4c b8 aa bb c8 13 c7 bb
       0.0061908024 0.0059616035 -0.005209958 -0.006075356
000260 de 86 07 bb 7d f0 b6 bb 99 3d 2e 3b 70 1e 03 3a
       -0.0020679752 -0.0055828677 0.0026587008 0.0005001789
000270 88 71 84 3b 93 94 33 3b 06 e0 b8 3a cf 0e e4 bb
       0.0040418543 0.002740179 0.001410485 -0.006959773
000280 32 c8 ab 3a 9f 45 07 bc a3 e1 b0 3b 86 05 1e bb
       0.0013105928 -0.008256345 0.0053979917 -0.002411218
000290 f1 47 f7 3b 26 b2 ce bb 51 5d 76 3b 2b 98 26 3b
       0.007546418 -0.006307858 0.0037592242 0.002542029
0002a0 45 04 d4 bb b8 0c be bb d3 8f 3e bb 2c a9 2b 3b
       -0.0064702355 -0.005799856 -0.0029077425 0.0026193364
0002b0 6c 1a 59 3b ff 1f 4c 3b 01 32 de bb df c9 06 3b
       0.003312732 0.0031147 -0.0067808633 0.0020567102
0002c0 4f 13 b5 3b 62 bb d1 bb f7 cd d4 3b 4e 60 4e bb
       0.0055259834 -0.0064005116 0.0064942795 -0.0031490508
0002d0 0e 1d 3b bb 4e 86 c4 39 76 07 ca 3b f1 d1 4d bb
       -0.0028551253 0.00037484098 0.00616544 -0.0031405652
0002e0 c8 e9 81 b9 01 97 d9 3b 02 12 8b 3b ba 12 30 3a
       -0.00024778978 0.0066403155 0.00424409 0.00067166577
0002f0 99 2e fb bb c9 32 bd bb f6 b3 54 bb ad 08 14 bb
       -0.007665467 -0.0057738763 -0.0032455898 -0.002258818
000300 f5 14 8a bb 0b 75 b3 bb 2b 0a a8 bb 36 c3 60 bb
       -0.004213924 -0.005476599 -0.0051281652 -0.0034296042
000310 65 5c e1 3b 7d b1 d3 3b 51 04 4e bb ce a8 56 bb
       0.0068774694 0.0064603672 -0.0031435678 -0.0032754424
000320 e2 53 d9 bb 32 50 d7 bb 1e e0 f5 3b 90 81 01 bc
       -0.006632314 -0.0065708393 0.0075035235 -0.007904425
000330 43 74 c6 3b 89 0f 5e 3b 18 51 3a bb 5b b7 dd 3a
       0.00605634 0.0033883771 -0.0028429683 0.0016915606
000340 be 0a 08 ba e5 3c 04 3b d7 1d a1 3b 6d 01 46 bb
       -0.0005189589 0.0020177898 0.0049168873 -0.0030213252
000350 f3 80 7d bb 7b d1 86 3b 01 62 37 3b 61 18 ba 3a
       -0.0038681596 0.0041143275 0.0027982 0.0014197939
000360 90 d4 da bb 90 87 be 3b f9 cf 32 bb fe 89 dd 3b
       -0.0066781715 0.0058145 -0.0027284606 0.0067608347
000370 33 87 c3 3b 89 c2 16 3b fb f3 85 b9 33 0c dd 3a
       0.0059670447 0.0023004136 -0.00025549516 0.0016864598
000380 00 df 07 bb 50 80 cd 3b a0 28 cf bb 6d 4d d1 bb
       -0.0020732284 0.0062713996 -0.0063219815 -0.0063874037
000390 b6 3e 0d 3b 6e a4 5e 3b 8b c5 40 bb 26 4c 6f 3b
       0.0021552271 0.003397252 -0.002941462 0.0036513894
0003a0 19 64 80 bb 8e e9 97 3a 02 a2 cc bb 30 47 ee bb
       -0.0039181826 0.001158999 -0.006244899 -0.00727167
0003b0 c9 ac cf bb 63 e8 a7 bb fe e5 98 bb 53 65 95 3a
       -0.0063377363 -0.005124138 -0.004666089 0.0011397995
0003c0 81 8f 85 bb d5 73 67 bb 26 f9 95 3b a5 8e 0a 3b
       -0.004075945 -0.0035316844 0.00457682 0.0021142152
0003d0 d1 20 c1 b9 bc 29 1f 3b 60 15 75 bb 55 44 c9 bb
       -0.0003683628 0.002428635 -0.0037396774 -0.006142179
0003e0 42 ec d0 3b fd f9 96 bb d1 8b 4b 3b 32 d7 9d 3b
       0.0063758204 -0.0046074376 0.003105868 0.004816913
0003f0 8e 35 c7 bb a6 d4 6f bb 76 67 f1 bb ce 0b 54 3b
       -0.0060793823 -0.0036595254 -0.00736707 0.003235567

network_body._body_endoder.seq_layers.0.weight f4 [256, 55]
000000 dd 57 a2 bd 2a 9a 40 3e 16 11 e9 3d 8e 0c 29 3c
       -0.07926915 0.18808809 0.11380212 0.010317935
000010 72 1d 8e 3e a3 be 4f bd fe d4 1c 3d 43 40 f0 bd
       0.2775684 -0.050718915 0.038289063 -0.11731007
000020 de 30 b1 3c 26 72 05 be 71 e9 a0 bc a5 8f 7e bd
       0.021629747 -0.13031825 -0.019642564 -0.06214871
000030 7f 7a 83 3e b3 9c c6 3d f4 45 e3 3d 5a c8 80 3c
       0.25679395 0.09697857 0.11097327 0.015720535
000040 ae fc 8c bc 06 a6 a0 3d 2d 87 35 3d 4f 91 ee bd
       -0.01721033 0.078441665 0.044318367 -0.11648809
000050 c3 9b ef bb 2b 0b 48 be 87 2d 91 3e cd 62 48 bc
       -0.0073122694 -0.1953551 0.28355047 -0.012230587
000060 68 80 f0 3d 1c fd 67 bd 61 9e 46 bd 7b ec 0d 3e
       0.117432415 -0.05663787 -0.048490886 0.13859741
000070 c5 ca c6 3d 20 75 4e 3e 2f 25 03 3e 0b 89 04 3e
       0.09706644 0.20161867 0.12807153 0.12942903
000080 ca be 96 bc ee 18 52 bd 0a 4f 09 bd e9 87 9d 3d
       -0.018401522 -0.051293306 -0.033522643 0.076919384
000090 ea bd b0 bd ca f5 4c 3e 26 4e e6 3d a1 d7 ba 3e
       -0.08629973 0.20015636 0.112453744 0.36492637
0000a0 bf 99 82 3d e2 06 66 3d 13 42 8e bd 07 60 e5 bc
       0.06376981 0.056158908 -0.069461964 -0.027999891
0000b0 8a de 84 3c 29 3d df bd e3 44 56 bd 5f 7f cd bb
       0.016219396 -0.10900337 -0.05231179 -0.0062712873
0000c0 31 03 f3 bd 8c 40 1a be 11 64 64 bd 45 0a 81 3d
       -0.11865843 -0.15063685 -0.055759493 0.06300787
0000d0 51 cc d1 3d a0 d9 97 bc 8d ca 3b bd 9a 36 0c be
       0.102440484 -0.018536389 -0.045847464 -0.13692704
0000e0 c3 ac ec 3d 51 68 be 3c 22 6b 8c 3d 24 ef a7 3d
       0.11556389 0.023243101 0.068563715 0.08199909
0000f0 4a a4 0c bd 83 14 03 3d b0 a5 0b bd 93 18 1f be
       -0.034336366 0.032001983 -0.03409356 -0.15536718
000100 bc b4 a4 bc 3c d6 18 bd c8 9a 19 bd 45 ad 5b 3d
       -0.020105712 -0.037313685 -0.037501127 0.05363204
000110 f1 86 c9 3d a7 4c 35 be e1 1b 94 bc 3d 0e 71 bd
       0.09840191 -0.17705022 -0.0180797 -0.05885147
000120 94 e1 6e bd 29 61 bb bc 1e a2 8d bd a4 11 53 3e
       -0.058320597 -0.022873478 -0.06915687 0.20612198
000130 f9 c4 45 bb d2 c9 94 be b4 e8 c5 bd 68 b0 f5 3d
       -0.003017722 -0.29060227 -0.09663525 0.119965374
000140 af 37 b1 3c ae dd 33 be 05 a5 4c be 57 9b 0e 3d
       0.021632997 -0.17565033 -0.19984825 0.034816112
000150 d7 94 e0 bb 7c 94 5f 3e f0 d2 89 3e ed 24 c3 3b
       -0.0068536806 0.21833986 0.26918745 0.0059553296
000160 74 5f 0b bc bc d1 8b bb b8 7c cc 3d 35 37 63 bd
       -0.0085066445 -0.0042669456 0.09984726 -0.05547257
000170 39 ca 98 bd 3a 89 d7 3c 02 84 ae bd 8e 63 7f 3e
       -0.07460446 0.026310552 -0.08521272 0.24940321
000180 a7 b2 a8 3d 12 f3 9a 3d 28 65 39 3d 5c 88 33 be
       0.082372 0.07565893 0.045262486 -0.17532486
000190 36 28 86 bc 03 b9 a8 bc b7 06 3a bd b9 d9 70 3d
       -0.016376596 -0.020596033 -0.04541656 0.058801387
0001a0 28 8f 22 be 2c 5b 26 be 47 0f 58 bd 87 f7 55 3e
       -0.15874922 -0.16245717 -0.052748945 0.20895205
0001b0 35 fe 54 bd 1c 1d da 3d f0 0c 47 bc 66 6b 25 3c
       -0.052000243 0.106500834 -0.012149081 0.010096407
0001c0 de 1d e9 3d a8 cc 4f 3d 14 17 e7 bc 5c e5 7e 3c
       0.1138265 0.050732285 -0.028209247 0.015557613
0001d0 5a a7 28 be 8d fb 6d be 75 86 82 3d 39 6c 4c be
       -0.1647009 -0.2324049 0.06373302 -0.19963159
0001e0 65 15 21 bd 74 af 5b 3e 5f db 74 bc f8 f8 25 3c
       -0.039327044 0.21453649 -0.01494488 0.01013016
0001f0 29 bf 9b be 39 c6 52 3d 9c 0e c0 3d 6b 34 02 bd
       -0.3041928 0.05145857 0.093777865 -0.03178827
000200 e6 f3 ed bc f1 88 24 be cf 8e ec bd 3b 39 23 3e
       -0.029046964 -0.16067864 -0.11550676 0.159398
000210 cd 6e 2b bc 0c 4c f1 3c a6 a3 12 3e 9f 0f c9 3b
       -0.010463429 0.029455207 0.1432024 0.0061358954
000220 cd 0c 07 3e 0b 41 d8 bd 32 e8 2e 3e 3c d8 9c bd
       0.13188477 -0.10559281 0.17080763 -0.07658431
000230 76 db e5 b9 a4 14 37 be 53 1e 52 3e 2d 20 60 3e
       -0.00043841795 -0.17878968 0.2051938 0.21887274
000240 4e 44 4d 3e 7a 3e 38 3d 3b d8 dc 3d b7 37 fe bd
       0.20045587 0.044981457 0.1078343 -0.124129705
000250 f5 9f 16 be 73 b8 0a be 0f 76 10 be 90 63 ee 3d
       -0.14709456 -0.13546924 -0.14107536 0.11640084
000260 a3 1b 9c 3d 03 73 2b 3e 29 70 1a 3d 71 c1 c3 39
       0.07622459 0.16743092 0.03770462 0.00037337423
000270 da 97 19 3e e3 f8 27 3e ac c3 ff bc 8b 66 80 be
       0.14999333 0.16403536 -0.031221233 -0.25078234
000280 d0 84 15 3d 3e 29 62 3e 00 c9 2e 3e 4f 65 3b 3d
       0.036503613 0.22086045 0.17068863 0.045750912
000290 63 45 64 be 1b d9 da 3c 9b 00 12 3e 4b 1c 8e bd
       -0.22292094 0.026714852 0.14258043 -0.0693899
0002a0 e7 9e 41 be 5a df 4e 3e 04 32 9f bd 7b 97 8e bd
       -0.18908273 0.2020239 -0.077732116 -0.06962486
0002b0 bf 76 16 3d 3b 0c ce bd 44 21 44 3c b5 0d d0 3c
       0.03673434 -0.100609265 0.011970822 0.025397161
0002c0 56 e3 33 3e 4f b3 91 3d 7f 5e 25 3d 61 a9 b2 3d
       0.1756719 0.071142785 0.04037332 0.08723713
0002d0 79 a0 29 be 2f be e6 bc f3 a7 5f 3d 7d be 21 3e
       -0.16565122 -0.028166858 0.05460353 0.15795322
0002e0 e7 dc b4 3d 0a 12 e3 bd 24 c5 2e bd db 28 8a 3e
       0.08831196 -0.11087425 -0.042668477 0.26984295
0002f0 22 d2 1e 3e fd 2a 2d 3e 0d 34 59 bc ca 8f ae bd
       0.15509847 0.1691093 -0.013257039 -0.08523519
000300 48 87 36 be d9 78 19 be 88 1b 91 3e da 72 1d 3e
       -0.17825043 -0.14987506 0.28341317 0.15375844
000310 c2 9e 2a 3e 15 3c 09 3e 93 e9 f4 bb 0b 7b e4 bd
       0.16662124 0.13401826 -0.0074741333 -0.11156281
000320 c5 4e 8b bd b6 72 eb 3d a8 77 bf 3d 9e 44 19 3e
       -0.068021335 0.11496489 0.093489945 0.14967582
000330 e8 2d 74 3e cf e9 1d 3e 8b e2 c2 3b 91 a7 a5 bb
       0.23845637 0.15421222 0.005947416 -0.005055376
000340 8e d7 eb 3d bf 4b 3a 3e b4 9d 3c be 86 e6 ff bd
       0.11515723 0.18192957 -0.18419534 -0.12495141
000350 0c 16 84 bd 0d b1 c3 bd bb 96 98 be 85 49 fb 3d
       -0.064495176 -0.09555254 -0.29802498 0.12269882
000360 cb 83 d3 3d 4f 59 b9 3d b3 5c 20 bb 99 8a ce bd
       0.10327872 0.090502374 -0.0024469316 -0.10085029
000370 5a bf ae 3d 0a 88 70 3d af c0 d8 3b 90 db e3 3d
       0.08532591 0.058723487 0.0066147665 0.111258626
000380 a1 4f 10 3d 58 fe 03 3e 39 c8 fc 3c 95 23 9e 3e
       0.03523219 0.12889993 0.030857192 0.30886522
000390 af 1a 03 3d 64 19 83 bd d2 26 13 be 6a e8 a3 3c
       0.03200787 -0.06401327 -0.14370278 0.020008285
0003a0 cc 07 c8 bd 91 f3 52 bd 38 3a 2e bd e6 27 16 bd
       -0.09767112 -0.051501814 -0.04253599 -0.036659144
0003b0 97 a3 28 3e 83 3e 96 bc 31 e7 66 bb 91 ad 82 be
       0.16468655 -0.018340355 -0.0035233016 -0.25523046
0003c0 23 f5 30 3d be 1e b5 bd 56 d7 5f 3d 4a 11 28 3e
       0.04320253 -0.08843754 0.05464872 0.16412845
0003d0 36 6d d2 3c ec 20 0d be 5a e6 93 3d b2 4a 6d 3c
       0.025686841 -0.1378209 0.072216704 0.014483141
0003e0 9c 8c d4 3d e1 c9 26 3e 50 0b a2 bd 63 5b 10 3d
       0.103783816 0.16287948 -0.07912314 0.035243403
0003f0 c0 e7 8a bd 81 31 81 3d 47 ea 81 bc c4 77 98 bd
       -0.06782484 0.0630827 -0.015858782 -0.074447185

network_body._body_endoder.seq_layers.2.bias f4 [256]
000000 c1 a4 f4 3b 35 69 63 3b 71 69 3d bb dc 34 93 bb
       0.0074659293 0.003470016 -0.002890196 -0.0044923853
000010 6c ad bd bb ca f7 e2 3b 0b f9 f3 bb d5 be 86 bb
       -0.0057884958 0.0069265114 -0.0074454597 -0.0041121044
000020 9a 4b 5c 3b ac 11 ed 3a 6b fe a8 3b 7a 00 e2 3b
       0.0033614398 0.0018086932 0.005157282 0.0068970295
000030 13 86 1b bb 96 64 c3 3b be d7 e6 3b bd 2b 24 3b
       -0.0023731038 0.0059629185 0.0070447614 0.0025050484
000040 a3 1b f4 3a c4 3a ee 3b 9f 9a 90 3b c3 d8 e8 3b
       0.0018623959 0.007270189 0.0044129635 0.007105918
000050 e9 77 b6 3b d8 0e a0 3b 00 60 d2 bb 0d d9 cf 3b
       0.0055684936 0.004884582 -0.0064201355 0.006343013
000060 3c 31 f6 3b 21 4a c8 3b 68 de de bb 0d 7d 2d bb
       0.0075131934 0.0061123525 -0.0068014152 -0.002647224
000070 85 ea f2 bb 1b 59 e9 3b f4 89 66 3b 84 e3 b7 3b
       -0.007413211 0.007121218 0.0035177441 0.005611839
000080 a1 55 3b bb f3 54 d3 bb 2e 6f 33 3b b8 d1 e4 bb
       -0.0028584974 -0.0064493357 0.00273795 -0.0069830082
000090 87 57 a7 3b 3b a8 31 3b 6e ac 7c 3b 38 da 3e 3b
       0.0051068696 0.002710833 0.0038554925 0.0029121768
0000a0 ae 92 6b 3b 26 3c 70 bb 6a 4e 9e bb 27 25 02 bb
       0.0035945582 -0.0036656945 -0.004831125 -0.001985857
0000b0 21 50 8b bb 71 74 3c bb a5 bc ff bb 46 59 bd 3b
       -0.0042514955 -0.0028755928 -0.0078044706 0.0057784645
0000c0 36 71 b3 3b fa 7f 55 3b 76 b1 88 3b f8 20 ec 3b
       0.0054761423 0.00325775 0.0041715456 0.0072060786
0000d0 20 d5 d2 bb 8a 8f 83 bb 21 19 21 3b d9 85 95 bb
       -0.006434098 -0.004014914 0.0024581628 -0.004563075
0000e0 5d ab cc 3b 0f 5e ad bb 0e 8c be ba 3b f3 2f ba
       0.006246014 -0.0052907537 -0.0014537589 -0.00067119644
0000f0 0f b0 90 bb fd ab ed bb 82 bf da 3b b0 5d 41 bb
       -0.004415519 -0.0072531686 0.0066756615 -0.0029505305
000100 e8 89 ca bb 3a 7e 8f 3b f7 3b e3 b9 cf d9 3b 3b
       -0.0061809905 0.004379061 -0.0004334149 0.002866376
000110 d2 d0 e5 bb 6a d4 84 bb 01 00 b3 3b 3b 21 ca 3b
       -0.0070134187 -0.004053642 0.005462647 0.006168512
000120 ab 29 e7 bb a1 7f b3 3b da f0 ef ba 9a 6c b6 3b
       -0.0070545278 0.005477861 -0.0018306032 0.0055671455
000130 d6 d1 e8 3b 06 f4 c6 3b d5 2b dc 3b 9f 4f 19 ba
       0.0071050925 0.0060715703 0.0067190924 -0.0005848351
000140 96 7f dd 3a 6a fd 9d 3b 61 81 b8 bb 8e 01 b4 b9
       0.0016898985 0.004821469 -0.0056306575 -0.00034333434
000150 a8 36 a9 3b 41 9e 23 3b 0b 29 48 3b 87 e6 df 3b
       0.0051639862 0.0024966153 0.0030542042 0.006832901
000160 b3 33 dc 3b 88 a6 f0 3b aa c6 bd bb bd 24 94 bb
       0.00672003 0.007344071 -0.005791505 -0.004520981
000170 72 6e ae bb 39 14 cb bb 74 52 22 3b b9 71 8c bb
       -0.0053232247 -0.006197479 0.0024768384 -0.0042860177
000180 54 83 e7 bb aa 51 34 bb 1c ec 0d 3b 6c 97 cf 3b
       -0.007065216 -0.0027514496 0.0021655625 0.0063351896
000190 8c 5a 9f 3b 7d 7c 6b 3b 60 ba b6 3b 2b da ca 3b
       0.004863089 0.0035932355 0.005576417 0.0061905584
0001a0 9d 3e 57 3b 6f d1 a0 3b 8d da f3 3a e3 c3 c1 bb
       0.0032843717 0.004907779 0.0018604562 -0.005913244
0001b0 b1 79 d6 39 5f 98 ae ba 86 6e 78 ba 98 4f 70 bb
       0.00040907928 -0.0013320557 -0.00094769185 -0.0036668535
0001c0 84 68 b8 3a 7a 77 ad ba cc d3 f0 bb c2 2a be 3b
       0.0014069234 -0.0013234459 -0.007349467 0.005803437
0001d0 8f 9e 08 3b 1e 7b 3c ba dd 15 21 bb a8 c4 85 ba
       0.0020846461 -0.0007189977 -0.0024579682 -0.0010205703
0001e0 b2 42 27 3a 0f 10 c4 3b f8 0b b4 bb 70 cc ee bb
       0.0006380483 0.0059833596 -0.005494591 -0.0072875544
0001f0 5b 36 f6 ba 8b 02 59 bb c9 b9 c1 38 c9 81 ad 3b
       -0.001878451 -0.0033113088 9.237562e-05 0.0052950126
000200 7b 43 80 bb ef 0a b3 bb ef c0 f0 bb 3d 44 b0 bb
       -0.0039142943 -0.00546395 -0.007347218 -0.0053792284
000210 9f 6b 99 3b 35 98 ba 3b a7 1e c3 bb 59 ce 33 3b
       0.004682019 0.005694414 -0.005954582 0.0027436225
000220 2a 22 c7 bb f1 e9 5d bb 0d 0d 7a 3b 84 dd bd bb
       -0.0060770707 -0.0033861364 0.0038154752 -0.005794229
000230 50 d2 d7 bb 3e 3a 9b 3a df 78 ac bb 53 70 f5 ba
       -0.0065863505 0.0011842919 -0.0052634324 -0.0018725492
000240 46 bf d0 bb 43 b1 dd 3b 10 16 2e bb 74 67 ba 3b
       -0.006370458 0.006765516 -0.0026563443 0.005688602
000250 c4 ce e7 3b c8 32 b5 bb f6 09 84 3b 33 b3 9f bb
       0.007074209 -0.0055297352 0.0040295077 -0.004873657
000260 4c 96 dd bb 01 d7 23 bb fa 0c b0 bb 9c eb 60 3b
       -0.0067623015 -0.0024999978 -0.0053726407 0.0034320122
000270 5b ef 99 3a 24 e2 07 bb b1 77 93 3b a2 51 89 3a
       0.0011744307 -0.0020734156 0.0045003523 0.0010476599
000280 70 0e 92 bb ec 5b f0 3b d9 f4 f1 bb c0 44 f4 3b
       -0.0044572875 0.0073351767 -0.0073839244 0.0074544847
000290 2c ca 9b bb 5a 3d f9 3b 3e ad ae 3b 94 7d 89 3b
       -0.0047543254 0.0076061906 0.0053307107 0.0041958783
0002a0 ff c5 de ba 82 69 ec bb a4 36 aa 3a ef 61 fd bb
       -0.0016996263 -0.007214726 0.0012986255 -0.007732622
0002b0 16 ff f4 bb a4 2c 6b 3b 75 da 8f 3a 10 11 8d 3b
       -0.0074766977 0.0035884762 0.001097514 0.0043050125
0002c0 5a a4 f7 b9 3a 40 b7 bb 17 d8 d5 bb cb 3b d1 bb
       -0.00047233963 -0.005592373 -0.006526004 -0.0063853017
0002d0 46 fc f9 bb a5 fb f8 bb a4 30 e0 3b 6f 02 fe bb
       -0.0076289503 -0.0075983577 0.006841736 -0.007751755
0002e0 1a 5d 1c bb e5 29 c0 ba 44 d9 4c 3b 8d 3e bd ba
       -0.0023859204 -0.0014660923 0.003125743 -0.0014438197
0002f0 4b 1f ea bb 71 93 47 bb 4d 7f a3 3b 98 37 f5 bb
       -0.0071448437 -0.0030452872 0.0049895407 -0.007483434
000300 5b 6b f9 3b 43 49 bc 3a 5b b6 42 bb 78 52 f9 bb
       0.0076116747 0.0014365095 -0.0029710743 -0.007608708
000310 61 7e 7c bb c6 2d d8 3b d3 c4 ac 3b b6 81 42 3b
       -0.0038527476 0.0065972535 0.0052724867 0.0029679365
000320 db 38 26 3b 1d e5 85 bb 55 bc 12 bc ab a2 e2 3b
       0.0025363478 -0.0040861503 -0.008956035 0.006916364
000330 3f 34 10 3b 97 e3 e5 3b b2 61 65 3a 88 3d 8e bb
       0.0022003797 0.007015656 0.00087502145 -0.004340831
000340 19 46 fe 3b 92 cd c5 3b 07 c2 e5 bb 1d dd 89 3b
       0.007759821 0.006036469 -0.0070116553 0.004207267
000350 b7 d3 f1 bb d4 63 02 bc 36 79 c7 3b 02 3e 84 bb
       -0.0073799747 -0.007958371 0.0060874475 -0.004035712
000360 9b 10 f5 39 5c bb d1 3b 98 d9 e0 bb 1c ae 11 bb
       0.00046742414 0.006400509 -0.0068618767 -0.0022229021
000370 2a eb fa bb 1c be 70 bb ad ae e6 3b 80 60 f9 3b
       -0.0076574283 -0.0036734408 0.007039866 0.0076103806
000380 16 b0 f0 bb 28 73 39 3a 14 6e c1 ba 36 23 d3 bb
       -0.00734521 0.00070743496 -0.0014757537 -0.0064434065
000390 5b 0f 1d bb 6c f3 7a 3b 3d 64 83 bb 61 f7 5b ba
       -0.0023965451 0.0038292063 -0.004009752 -0.00083910493
0003a0 0c d9 e4 bb 4e 97 c2 b9 85 c6 de 3a bb e0 ed 3b
       -0.006983882 -0.00037115294 0.0016996419 0.007259456
0003b0 a4 be b0 3b 2d a1 5a 3b bd ec 89 bb 30 fc aa 3b
       0.00539382 0.0033360228 -0.0042091296 0.0052180514
0003c0 f5 b9 7b bb 26 37 d6 3b e8 d4 d3 3b bc c4 b5 ba
       -0.00384104 0.006537336 0.0064645894 -0.0013867836
0003d0 fb 6c 83 ba 70 90 e3 bb 2c 5b 2a bb 06 41 e3 bb
       -0.0010026986 -0.0069447085 -0.0025994284 -0.0069352416
0003e0 ef 42 8c bb 94 be 87 3b c2 f5 01 3b 79 fe 91 bb
       -0.00428044 0.0041425917 0.001983032 -0.0044553843
0003f0 a7 4f ad 3a 20 05 ae 3b 2e ec db 3b 08 1a c6 3b
       0.0013222591 0.0053106695 0.0067115044 0.0060455836

network_body._body_endoder.seq_layers.2.weight f4 [256, 256]
000000 e9 2e 5f bd db 04 75 bd 6e 17 ae 3d f5 b2 4c bc
       -0.054488096 -0.059819084 0.085005626 -0.012493839
000010 96 68 60 bd ee a9 0a 3c 78 19 2f 3e 60 12 0d bd
       -0.05478724 0.008463366 0.1709956 -0.034441352
000020 4d 2d b5 bc a6 e7 cb 3d 93 7b b7 3d 8a fc 2d bd
       -0.022116328 0.09956293 0.08959117 -0.04247717
000030 9a e8 28 3d 5b 71 1e 3d 17 dc b1 3c 1d 61 90 3c
       0.04123745 0.038682323 0.021711392 0.017624432
000040 49 8d 33 3c 6e 3a a0 bb 1a 4f 4a 3c e2 27 e8 3d
       0.010958978 -0.004889778 0.012347961 0.11335732
000050 6d 64 10 3e 22 fc 2f 3d 7a 9a 4a bd 96 c5 6a 3d
       0.1410081 0.042965062 -0.049463727 0.05731734
000060 7b 65 17 bd 90 60 88 3c 29 24 5b 3c a5 66 80 bd
       -0.036962014 0.016647607 0.0133753205 -0.06269578
000070 d2 63 2d 3c 9d c2 06 be 81 17 da 3d 78 23 5e 3d
       0.010582881 -0.13160177 0.10649014 0.054233044
000080 b7 5d 6e 3d 48 3c dd 3c f4 5d a3 3d f4 ef 09 3e
       0.058194842 0.027006283 0.079769045 0.13470441
000090 29 19 e0 3d 67 9c ec 3c ce 4e aa bd 84 8f 10 3e
       0.10942299 0.028883172 -0.08315812 0.14117247
0000a0 81 a2 37 bc 1d 37 e3 3c f9 41 00 3e e4 aa 3b bd
       -0.011208178 0.027736241 0.12525167 -0.04581727
0000b0 90 11 f6 bd 32 91 2b 3d e7 9c 83 bc 37 15 13 ba
       -0.120150685 0.041886516 -0.016066028 -0.0005610766
0000c0 5e bf 81 3d 80 ba b0 3c 68 96 53 3d 69 03 38 bc
       0.063353285 0.021573305 0.05165711 -0.011231282
0000d0 20 94 21 bd c7 a3 e7 3c f8 48 72 3d 12 9b d7 3d
       -0.039447904 0.028276337 0.05915162 0.10527624
0000e0 af f4 25 be 8b 04 8b 3c ab e6 e1 3c d5 b9 9d bd
       -0.1620662 0.01696994 0.027575811 -0.0770146
0000f0 cc 90 19 3d 0c 99 2e 3d b4 87 1a be 2b b7 0b 3e
       0.037491605 0.042626426 -0.15090829 0.13644092
000100 6d de 9d bd 4e 59 ac bd a7 c5 be bc 5b df 84 bc
       -0.0770844 -0.08415471 -0.023287607 -0.016219785
000110 ea a4 49 bd 64 dc 87 bc db ae 9c bd 80 e3 c6 3d
       -0.04922954 -0.016584583 -0.076505385 0.09711361
000120 f1 74 6c bd 74 2d ec 3d 75 c7 a2 bd ad 45 42 3d
       -0.05772871 0.11532107 -0.079482 0.04742973
000130 ff df 59 bb 9c 04 1e 3e f9 8e b4 bc 48 31 dd bd
       -0.0033245084 0.15431446 -0.02204083 -0.10800415
000140 97 f8 1a 3e 0a 64 fd 3c 1f 67 98 bd 5f c2 d8 bc
       0.15133892 0.030931491 -0.07441544 -0.02645987
000150 6f cd b9 bc 2b 89 2b 3d c3 ba 55 3b 3b 06 b2 3d
       -0.022680966 0.04187886 0.003261254 0.086925946
000160 24 59 8f 3d d9 fc d3 3b 06 72 14 3d 54 38 3e bd
       0.06999424 0.006469351 0.036241554 -0.046440437
000170 b8 26 bf 3d 67 64 70 3d f3 9b 4a bd bc 53 35 bd
       0.09333557 0.0586895 -0.04946513 -0.04426931
000180 63 78 1f bd 03 52 a5 3d 9a 81 00 3d a6 f0 cc ba
       -0.03893317 0.08072283 0.031373598 -0.0015635684
000190 0f 7c 9e 3d 7f 16 2f 3d da 01 24 3d 1c 4c 6e 3d
       0.07738506 0.042746063 0.04004083 0.058178052
0001a0 e4 40 c8 bd 55 ea 4a 3d de 4b ac 3c 66 2f 68 3d
       -0.09778002 0.049539883 0.02103227 0.056685828
0001b0 ca 27 06 3d 6b d8 75 bc c4 4a 97 bd bc ab fd 3d
       0.03275279 -0.015005211 -0.07387307 0.12386271
0001c0 d9 8c 0d 3e f6 47 73 bd 1c 36 0b bd ce 3a 7f bd
       0.1382326 -0.0593948 -0.03398715 -0.06231194
0001d0 b0 3e 13 bd f9 f2 87 bd 1e 31 f9 3c af 58 e5 bc
       -0.035948455 -0.0663814 0.030418929 -0.02799639
0001e0 2d d1 cb 3d 22 ce ec 3d 4e 5a 09 be e6 87 33 3c
       0.099520065 0.11562754 -0.13413355 0.010957694
0001f0 ff 3f 6c bd a8 6b 6b 3d ff 5d ab bd fa 12 53 3c
       -0.05767822 0.057475716 -0.08367538 0.012882942
000200 44 5e 08 bc 5e cd 25 be f5 0a d1 bd 38 12 c3 3c
       -0.008323256 -0.16191623 -0.10207168 0.023812398
000210 08 99 b5 bb 67 6e 03 bd 7c c2 bb bc 91 7e 32 be
       -0.0055419244 -0.03208771 -0.022919886 -0.17431094
000220 ce fd ca 3c f5 f1 b6 bc bd b4 8f bd 1d 68 30 3c
       0.024779227 -0.022332171 -0.07016895 0.01076701
000230 be 54 80 3c e5 ea 94 3d e4 24 15 3d a6 e2 de bd
       0.015665408 0.07271365 0.036412135 -0.108830735
000240 04 03 50 bd 4a 53 22 bd 42 93 9c 3c 5b 9e c3 3c
       -0.050784126 -0.039630212 0.019113187 0.02387922
000250 14 5e 22 bd a9 15 9c 3d 98 ee 14 bd 82 d4 94 bd
       -0.0396405 0.07621319 -0.036360353 -0.07267095
000260 b1 3a 71 3c a3 37 8c 3c db 0d fd bc ab c8 b3 3c
       0.014723466 0.017116373 -0.030890396 0.021946272
000270 83 6e 06 bc cf d6 a8 bc 1f 5b 22 3d b4 95 81 bd
       -0.008205059 -0.020610241 0.03963768 -0.06327382
000280 1a 9a e2 bd d3 f5 31 3d d2 a1 51 3d 5a a6 7f 3c
       -0.11064549 0.043447327 0.051179715 0.015603626
000290 ff bd 6c 3c 21 d6 61 ba b9 b6 14 3d 79 6f bb 3c
       0.0144495955 -0.00086149765 0.03630707 0.022880303
0002a0 f4 2c f3 3b b9 7a b9 bc 4d ec 06 3d 1f d2 d6 3c
       0.0074211303 -0.022641527 0.032940198 0.02622324
0002b0 d7 b1 e0 bb 07 e0 d0 3b d7 75 22 3d fb 8e a6 bc
       -0.0068571377 0.0063743624 0.039663162 -0.02033185
0002c0 90 ef 70 3c 32 03 f9 bd 76 e0 82 3c 5c c4 ea bc
       0.014705554 -0.121588126 0.015976172 -0.028658085
0002d0 96 a4 e8 3b b3 50 08 3d 92 5a ae bc 3e b3 7d 3d
       0.0070996983 0.033280086 -0.021283422 0.061938517
0002e0 52 77 33 bd 92 e1 24 3e 14 b4 23 3d 5e f9 ab bc
       -0.043814965 0.16101673 0.039966658 -0.020992931
0002f0 b0 40 10 be a0 83 87 bd 4b 9a 03 bd 44 af 22 bb
       -0.14087176 -0.06616902 -0.032129567 -0.0024823705
000300 d4 f0 bf 3d 3a 9d 3c 3c f4 2c 9f b9 26 53 9d bd
       0.09372106 0.011512095 -0.00030360336 -0.07681875
000310 c8 35 e8 bc 6b 2e a8 bc 33 3e 0f bc 11 49 99 bd
       -0.028345957 -0.020529946 -0.008742857 -0.074846394
000320 bb 95 5c bd 60 d4 6b bd 6f 37 0a 3a 9c 2b e2 3d
       -0.05385373 -0.057575583 0.00052725425 0.11043474
000330 45 75 f7 bb 54 93 e0 3d 12 c9 61 bd 56 ba 90 3c
       -0.0075518214 0.109656006 -0.055123396 0.017666977
000340 90 17 08 3d 37 52 a7 bd 6b 1c f7 3c f9 72 e6 bc
       0.033225596 -0.08169978 0.030164918 -0.028130995
000350 a5 dc 66 3d 36 b4 38 3d 3e 26 6a 3d 49 96 08 3d
       0.056362767 0.045093738 0.057165377 0.033346448
000360 89 7e 03 3c 85 dd c5 3d fd b5 88 bc 77 0b 0c bc
       0.008025774 0.09661392 -0.016688341 -0.008547655
000370 c8 87 16 3e 9c 58 9a bd 74 50 39 bd e5 73 7d bc
       0.14700234 -0.07536432 -0.04524274 -0.015469526
000380 7f 62 a5 3c b6 8a c9 bb 3e eb 92 bd e0 fd 2a 3d
       0.020188568 -0.006150569 -0.07173775 0.04174602
000390 46 8c 32 bc 31 23 43 bd 23 bc c3 bb 62 be a0 3c
       -0.010897702 -0.047640983 -0.0059733554 0.019622032
0003a0 bb 20 6a 3d 82 b4 40 3d e1 26 01 bd e1 6b d6 3c
       0.05716012 0.047047146 -0.03153122 0.026174488
0003b0 46 80 b6 bd 26 6f b6 3c 0c 00 87 3d 03 f9 fd bc
       -0.08911185 0.022269797 0.06591806 -0.031002527
0003c0 87 86 ef bc de c1 16 3d ff 9e 24 3c 46 c3 26 bd
       -0.029238952 0.03680598 0.010047673 -0.04071357
0003d0 82 7b 15 bd ff 20 20 3d 97 ae 1f bd f1 60 38 3d
       -0.03649474 0.039093968 -0.03898486 0.045014326
0003e0 47 71 aa bd b6 db e6 3c 20 20 0e be b0 5f fa 3d
       -0.08322387 0.028180938 -0.13879442 0.12225282
0003f0 39 a2 d5 bd d0 3e e7 bd 00 e8 a0 3b a3 c2 23 bd
       -0.10431332 -0.112912774 0.004910469 -0.039980542

network_body._body_endoder.seq_layers.4.bias f4 [256]
000000 ee d5 dc bb 59 3a ee 3b 04 42 59 ba 91 42 da bb
       -0.0067393696 0.007270139 -0.000828773 -0.0066607674
000010 24 a7 eb bb a8 ea 10 b9 db b0 e2 bb 2c 4e 8c ba
       -0.0071915556 -0.00013820326 -0.0069180555 -0.0010704449
000020 d9 41 8c 3a c3 a2 64 bb 5a 77 98 3a 0a 41 13 3b
       0.0010700776 -0.0034887053 0.0011632249 0.0022469186
000030 ea 77 eb 3b 1e 9c a8 3b 72 e3 db bb 2e 1b 31 3a
       0.0071859257 0.0051455637 -0.006710463 0.0006756064
000040 2e cb 8f 3b 7a 1a d7 3b a4 a0 66 3a 69 c0 f8 bb
       0.0043882346 0.0065644355 0.0008797741 -0.0075912965
000050 64 85 e7 3b d7 52 28 bb 97 7a e6 3b 1f 5b e7 3b
       0.007065462 -0.0025684142 0.007033657 0.007060423
000060 35 45 f1 3b e5 0d 79 3b d6 b0 4d 3b ee bd 7a bb
       0.0073629864 0.0038002667 0.003138592 -0.003826018
000070 36 50 5e b8 e2 48 12 3b fc d1 1d bb 80 89 b8 bb
       -5.3003627e-05 0.0022321274 -0.002408146 -0.0056316257
000080 47 a5 f9 bb 45 56 e8 3b aa 26 dd 3b 25 ab 9d bb
       -0.0076185795 0.0070903623 0.006748994 -0.004811662
000090 52 81 b3 bb 76 aa d4 3b 59 28 ad bb 3a 65 f6 bb
       -0.0054780627 0.006490047 -0.005284351 -0.0075193914
0000a0 ca 84 ab 3b e2 63 cc 3b 6c ee 6b 3b 07 9a e7 bb
       0.0052343355 0.006237493 0.0036000265 -0.007067922
0000b0 05 e2 d1 bb 5f bc 8c 3b 38 60 c9 bb 70 f1 d5 3a
       -0.0064051175 0.0042949165 -0.0061455034 0.0016322564
0000c0 62 8a ef bb 82 be 01 3b ac 91 af 3b 75 ad c7 bb
       -0.0073101977 0.001979739 0.0053579416 -0.0060936757
0000d0 91 42 e7 3b 7a 33 2d bb 36 75 ea 3b 9f b3 db bb
       0.007057496 -0.0026428388 0.007155086 -0.006704762
0000e0 b4 bc f7 bb 2c bf c2 bb 01 f5 04 ba 47 74 81 3b
       -0.007560337 -0.0059431996 -0.0005071909 0.003950629
0000f0 50 25 89 bb 71 a1 b2 bb c6 c1 e6 3b 58 7d 52 3b
       -0.004185356 -0.005451374 0.0070421426 0.0032118168
000100 8b f7 de bb a7 d0 f3 bb 69 2e 56 bb 4f 99 e8 3b
       -0.0068044118 -0.007440645 -0.0032681471 0.007098354
000110 c9 c0 d3 ba 3a f7 c6 bb f0 d7 d5 3a 20 6a d8 bb
       -0.0016155477 -0.006071952 0.0016314965 -0.006604448
000120 d3 ac ce 3b 49 7a f4 39 89 09 a8 3b af b9 a2 bb
       0.0063072233 0.00046630416 0.00512809 -0.004965983
000130 ad f3 bf bb 2b 0e a3 3b e5 83 97 bb 44 18 45 3b
       -0.005857906 0.004976054 -0.0046238774 0.0030074278
000140 3e 24 a1 3a 0e 4f af ba 72 8b c9 bb 21 d8 c0 bb
       0.0012294126 -0.0013375 -0.0061506564 -0.0058851396
000150 1b 01 9b bb 6b 09 ef 3b 29 a4 a9 ba 9e a4 95 3a
       -0.0047303564 0.007294824 -0.00129426 0.0011416858
000160 c8 e7 8a bb 09 96 24 ba 04 8a a4 3a d6 1e e9 3b
       -0.0042390563 -0.00062784605 0.0012553339 0.0071142716
000170 ad 04 e0 3b b8 9c cf bb b4 f4 ee 3b dc bc e8 3b
       0.006836495 -0.006335821 0.0072923545 0.007102592
000180 25 e4 c4 3b b4 4d 80 bb 14 92 e7 3b 93 d3 ce bb
       0.0060086423 -0.003915513 0.0070669744 -0.0063118427
000190 fb 94 be 3b 7e 0b 9a bb 31 3f ea bb 08 4f f1 3b
       0.0058160997 -0.004701077 -0.0071486463 0.0073641576
0001a0 fe f5 73 3b d1 16 1b bb d1 79 e8 3b d0 fe c2 bb
       0.003722548 -0.0023664723 0.0070946 -0.005950786
0001b0 15 51 eb 3b 5d a9 9b bb d0 86 e7 bb fe 0f cd 3b
       0.0071812966 -0.0047504143 -0.0070656314 0.00625801
0001c0 b0 8b b0 ba 0c 4a e2 3b b9 7c 68 3a fd 21 d8 bb
       -0.0013469364 0.0069057997 0.0008868683 -0.0065958486
0001d0 03 d0 d9 bb c0 c2 d1 bb 91 75 6c bb e7 43 f6 bb
       -0.0066471114 -0.00640139 -0.0036080817 -0.007515419
0001e0 21 57 d6 bb ca 10 3f 3b 7b 47 28 bb 4f cf c4 3b
       -0.0065411483 0.0029154294 -0.0025677371 0.0060061584
0001f0 33 1e ae bb 53 5e be bb 5c 27 b3 bb 01 00 ab 3b
       -0.0053136586 -0.005809584 -0.0054673385 0.0052185063
000200 f9 55 ce 3b 82 93 ba 3b e1 18 67 bb 53 03 b0 bb
       0.00629687 0.005693854 -0.0035262632 -0.00537149
000210 65 63 f6 3b 13 62 8e bb 29 21 f1 bb e3 b4 cc 3b
       0.007519173 -0.0043451875 -0.0073586893 0.0062471493
000220 4e a6 2f bb 99 eb d4 3b 50 a4 5f 38 2a 7d ad b9
       -0.0026802006 0.006497812 5.332037e-05 -0.00033090386
000230 1b 98 f7 b9 c2 c8 cf 3a 54 6d e9 3b 32 5d d3 3b
       -0.0004722484 0.0015852677 0.0071236286 0.0064503187
000240 af ed c2 bb 8b 67 e8 bb 51 57 67 bb c8 96 90 3b
       -0.0059487442 -0.0070924214 -0.0035299847 0.004412506
000250 00 55 35 3b a2 59 d1 bb 9a 41 a7 3b 32 39 24 bb
       0.0027669072 -0.006388859 0.005104256 -0.0025058505
000260 c0 13 63 bb b6 86 d4 3b 3c 31 b5 3b 9a 6c c3 bb
       -0.0034649223 0.0064857854 0.005529551 -0.005963874
000270 38 3c e4 3b 3f 12 f7 3b f5 db 8c 3b 46 fd 66 3b
       0.0069651864 0.007540017 0.004298682 0.0035246178
000280 70 26 cf 3a 45 67 f0 bb f3 b1 ee 3b 90 ac 47 3b
       0.0015804302 -0.0073365294 0.007284397 0.0030467845
000290 ad a4 d0 3b 79 27 dc 3b fa 48 8a bb c1 0f d1 3b
       0.006367287 0.0067185727 -0.0042201253 0.006380052
0002a0 89 63 a6 bb 99 b7 8f bb ad d4 41 3b a0 45 fb bb
       -0.0050777835 -0.0043859 0.0029576228 -0.007668212
0002b0 69 ef c8 3b ba 22 e6 bb a1 0e d0 3b e6 3d d8 3a
       0.0061320555 -0.0070231827 0.0063494 0.0016497939
0002c0 a4 07 ab 3b 8a cf bf bb a7 20 11 3b 66 a6 ef 3b
       0.0052194167 -0.005853598 0.0022144706 0.0073135374
0002d0 f5 67 e6 3b ba 41 87 3a f1 14 e9 3b 53 cc ee 3b
       0.0070314356 0.0010319271 0.007113092 0.007287541
0002e0 ff a5 e5 ba 35 b2 f3 3b 14 0d 93 bb cc e5 de 3b
       -0.0017520784 0.0074370154 -0.004487643 0.0068022963
0002f0 e4 fd dd 3b af 90 c2 3b 12 9c b8 bb 6f d0 a7 3b
       0.006774651 0.005937658 -0.0056338394 0.005121283
000300 08 87 a5 3b 49 5f d1 bb 9f 86 a5 3b c6 10 58 b9
       0.0050514974 -0.0063895327 0.0050514485 -0.00020605614
000310 fc 0f da bb 67 94 f7 bb e1 f9 aa bb fd ba a5 3b
       -0.0066547375 -0.0075555327 -0.005217776 0.005057691
000320 24 67 56 3b 00 07 ca 3a 4a 45 c8 bb d0 d5 25 3b
       0.0032715285 0.0015413463 -0.0061117755 0.0025304444
000330 0b 2b f1 3b ca 6e c1 bb 4e 4d e8 3b d2 21 d7 bb
       0.0073598674 -0.0059030997 0.0070892936 -0.006565311
000340 3e 8c ea bb 87 df 6e bb a8 2e 36 3b 59 aa 3a bb
       -0.0071578315 -0.003644915 0.0027798805 -0.0028482883
000350 2e 6d 95 3b 2c b5 31 3b fe a3 4a bb 31 35 f6 3b
       0.0045601344 0.0027116043 -0.00309205 0.007513665
000360 b2 22 64 ba 32 31 f3 3b a2 53 e3 bb cf 8c 43 ba
       -0.000870268 0.007421636 -0.00693746 -0.0007459642
000370 98 78 31 3b 28 8f c4 3b e8 be a9 3b dc 64 9c 3b
       0.0027079936 0.005998511 0.0051802285 0.0047727656
000380 5a 97 79 bb f7 04 1e bb 6e 86 d2 bb 91 58 d9 bb
       -0.0038084597 -0.0024111846 -0.0064247167 -0.0066328724
000390 70 18 de 3b f6 03 c4 3b de 40 f6 bb 8a c6 ac bb
       0.0067778155 0.0059819175 -0.007515057 -0.005272691
0003a0 6f 06 b7 3b 55 b7 9f bb 22 72 b5 ba 50 b3 c9 bb
       0.0055854837 -0.00487415 -0.0013843218 -0.006155409
0003b0 66 d1 d7 3b 34 7a f5 bb dc 2e f1 3b 9e 62 de bb
       0.0065862415 -0.0074913744 0.0073603224 -0.0067866584
0003c0 fd cd af bb ed d1 eb bb 1e 67 03 3a 9c de 98 bb
       -0.005365132 -0.007196656 0.0005012619 -0.004665209
0003d0 7a 1c cc 38 3d eb 9f 3a 5c 3a 7c bb 7f 1a b2 ba
       9.732782e-05 0.0012200844 -0.0038486933 -0.0013588219
0003e0 90 16 cd 3b 8b 25 82 bb 66 94 d8 bb 75 31 36 bb
       0.006258793 -0.0039717606 -0.0066094873 -0.0027800475
0003f0 bf d1 99 ba 72 f9 92 ba 53 67 2d bb 2f ed 51 3b
       -0.0011735483 -0.0011213257 -0.002645929 0.0032032242
