Assets/Training/results/run1/config.onnx (onnx, 588060 bytes, 9 tensors)

action_model._continuous_distribution.log_sigma f4 [1, 2]
00000000: 0000 0000 0000 0000
0.0 0.0

action_model._continuous_distribution.mu.bias f4 [2]
00000000: 0000 0000 0000 0000
0.0 0.0

action_model._continuous_distribution.mu.weight f4 [2, 256]
00000000: 570d 96bb f579 7bbc 241e 8f3c 3e43 abbb
00000010: 65b6 633a 85e7 28bc a7a7 803c 4772 ba3c
00000020: e826 45bc 7a4d 8dba 885c 1d3d 8af4 e43a
00000030: 76b1 98ba efda 06ba 05aa de3c 807a d63b
00000040: 277f 793c 93bd 083c 45bb 0d3c d7f6 b43c
00000050: 4132 3f3c 579f 2c3c e46e 893c dff6 91ba
00000060: 7b2e 19bc 015c ab3c c33a bf3c 7256 c53c
00000070: 5fee 513c 210e 13bb c36a 45bb 93a0 c7ba
00000080: 5b7b 073b 377b f53b 576d e23b 0b78 373c
00000090: 7845 acbb 22f9 f33a c259 653c 75d3 6cbb
000000a0: e254 f039 aff0 723b 4767 493b 8899 56bb
000000b0: d533 653b 402b 64bc 9a37 68bc 1f03 b43b
000000c0: a3c1 21ba cffd 8fbb dadd 11bc 57ab 033a
000000d0: f2c7 b83c 8fe6 63bc 1ceb ca3b 67fd a5bb
000000e0: fd32 4cbc 3b4f 86bc a8df cf3c 4bc7 bd3b
000000f0: 6b5f d2bc 33e8 273c 7ba2 f03b 051d 70bb
00000100: 9cfe 83bb cb84 563c 49b0 133c 385a 91bc
00000110: 7412 90ba 4236 563c ff7e 5f3b 0ebd 90bc
00000120: f48d 393c f561 6f3a d123 b23b d8d7 9239
00000130: 6ae0 343b 4536 e03b 57fc 25bc 375e 1dbd
00000140: 2eec 8fbb a679 103c 1055 fcbb b707 acbc
00000150: 6307 52bb 2c77 04bc 051a 7dba 32d6 f7b8
00000160: 7dc4 a23c 9cef 433b 0b63 93bb f98e 8d3a
00000170: 0401 3fbc 0a5e 20bb 029d 84bc b72b 31bc
00000180: 2d65 dfbb e7cd dabc 93ce 78bc a5af 52bc
00000190: d7e0 bb3b 228a 55bb b0ae 0f3a 3f55 25bc
000001a0: 28ff 7c3b abf8 b03c 8c3d 3c3c 0a86 40bc
000001b0: d74e 9cbc 1bbd d4bc efe3 0fbc 7330 e9bb
000001c0: ebed bebc 6521 ac3b e8a4 523b 4721 f8bb
000001d0: cb67 f63b 864e 253c 543e 82bc c3d0 e6bb
000001e0: 4b8e b83b 7666 283b a625 49bc 26fb 083c
000001f0: 11c8 133c 5f3a d3bb 9bca 0f3c 4b71 9d3c
00000200: a5e9 5e3c 064a a43a 3746 3b3c b5be 0d3a
00000210: e6cd 333c 55ad a53c 0f4b 1b3b 31fc 19bc
00000220: 3bb6 c4bc abc3 8ebb 230b 003c 5324 053c
00000230: 07b9 64bc 13ea 0fbc 3bf1 b03a bda4 673a
00000240: d8f1 2abc 5765 e6bb ca6f 503c 4194 84bc
00000250: 32f2 5fbb 1091 e33b 5b11 3b3c 5f10 bcbc
00000260: 2f4d 0e3b 2e9e 00bc 376c 33bc 6a7d f83b
00000270: 22a6 f3bb 8f50 91bb 95dd 103a c324 083b
00000280: 1b08 9c3c 8e64 93bc cf0c 773c 4903 813c
00000290: 03ca dc39 590d 2a3d 0d9a bc3b 7020 d6bb
000002a0: b2e4 51bc 4631 953c b328 1e3c f91f 0a3c
000002b0: b2ea f93b f1c5 06bc 9658 a03a 888f a839
000002c0: 8589 453c 5f0a fd3b 660f 943b efde dabb
000002d0: 4f32 13bc e54d 7c3c 607e 5537 4005 eebb
000002e0: 8b77 4cbc b71f 4a3c cfb9 913c e507 853c
000002f0: afa8 30bb d040 b13b f30f b2bb 0741 013c
00000300: f059 17ba 0aca 6a3c 814a ac3c 338c 1abc
00000310: 4296 d2bc 8d0b 26bb 6291 41bb ad95 51ba
00000320: a6a6 a33c 7b11 b43b af30 373a 97af 303b
00000330: 3263 7c3c 2fd9 ac36 9886 8fbb 319d 223c
00000340: bfac b9bb 6354 16bc 1f1c 30bb 538b d2bb
00000350: e712 31bc ab62 80bc ebb8 a03b bd87 033d
00000360: fbe4 3d3c 0705 5b3c d3e5 363b 0d1b f93b
00000370: 71c5 2a3b 271b 753c df4d 4739 4f07 3e3a
00000380: 4b91 75bb a03b e13c e72f 8f3b 5da5 4fba
00000390: 57ac 783c c29e 543b 4898 293b 6a2e 743c
000003a0: 4b06 fdbc 7ff8 df3c fb07 833c cea5 94bb
000003b0: 76ad b0bc 9b7e 783c 71ef 3a3c cbab 77bc
000003c0: 568e 12bb 527e d3bc 0f56 a1bc 71d6 123c
000003d0: df74 063c b7e3 453c 8fe4 35bc 9f12 92bc
000003e0: a0fa acbc 9d3f 6ebb fb19 1fbc 283d b4bb
000003f0: 53b1 34bb a4bb 11bc 785a cbba b319 6eb9
-0.004579227 -0.015348901 0.017470427 -0.0052265218 0.00086865417 -0.010309105 0.015704943 0.02275957
-0.012033202 -0.0010780536 0.038418323 0.0017467898 -0.0011649567 -0.0005144318 0.027180681 0.006545365
0.015228069 0.008345979 0.008650606 0.022090359 0.011669696 0.010536036 0.01677651 -0.0011136195
-0.009349461 0.020917894 0.02334345 0.024089072 0.01281318 -0.0022438841 -0.003012345 -0.001523035
0.002067289 0.007491495 0.006910007 0.011198054 -0.0052573048 0.0018613676 0.013998451 -0.003613678
0.0004583961 0.0037069728 0.0030731724 -0.003274532 0.0034973521 -0.013926327 -0.014173413 0.005493536
-0.0006170517 -0.00439427 -0.008902991 0.0005022785 0.022556279 -0.01390995 0.006192578 -0.0050656083
-0.012463328 -0.016395202 0.025375202 0.00579158 -0.025680264 0.010248232 0.007343588 -0.003663839
-0.0040281545 0.013093184 0.009014198 -0.017743215 -0.0010991828 0.0130744595 0.0034102795 -0.017668273
0.011325348 0.0009131723 0.0054363986 0.00028008106 0.0027599582 0.006842407 -0.010130963 -0.03841993
-0.0043921685 0.008818066 -0.00770057 -0.020999772 -0.003204786 -0.008085053 -0.00096550613 -0.00011817775
0.019869084 0.0029897457 -0.004497891 0.0010800055 -0.011657957 -0.0024470114 -0.016188148 -0.010813645
-0.006817481 -0.02670951 -0.01518597 -0.01285926 0.00573359 -0.0032583554 0.00054810476 -0.010091125
0.0038604233 0.02160295 0.011489283 -0.011750707 -0.019080563 -0.025969079 -0.008782371 -0.0071163713
-0.023306808 0.0052530044 0.0032141749 -0.0075723263 0.0075196973 0.010089522 -0.015898861 -0.0070439293
0.005632197 0.0025695837 -0.0122770425 0.00836066 0.0090198675 -0.0064461674 0.008776332 0.019219061
0.01360551 0.0012534268 0.011430315 0.00054071407 0.010974383 0.020224253 0.0023695861 -0.009398506
-0.024012676 -0.0043568215 0.007815155 0.008126336 -0.01396013 -0.008783835 0.0013499627 0.00088364986
-0.010433637 -0.0070311236 0.012721965 -0.016183974 -0.003417146 0.006944783 0.011417712 -0.022957025
0.0021713485 -0.007850213 -0.010951093 0.00758331 -0.007435576 -0.004434652 0.00055261824 0.0020773865
0.019046834 -0.017992284 0.015078737 0.015748637 0.0004211218 0.041516636 0.005755669 -0.0065346286
-0.012810873 0.018211972 0.009653258 0.008430474 0.007626855 -0.008225904 0.0012233432 0.00032150396
0.012056713 0.0077221836 0.004518437 -0.006679408 -0.0089841625 0.015399431 1.2725213e-05 -0.0072638094
-0.012479673 0.012336663 0.017788796 0.016239116 -0.0026956012 0.0054093376 -0.00543403 0.007889039
-0.00057735946 0.014330396 0.02103162 -0.00943284 -0.025706414 -0.0025336475 -0.0029536118 -0.0007995021
0.019976925 0.005495248 0.00069881504 0.0026960128 0.015404509 5.151283e-06 -0.0043800585 0.009925173
-0.005666345 -0.009175393 -0.002687223 -0.0064253 -0.010807729 -0.015672049 0.0049048564 0.032111872
0.011590238 0.013367898 0.0027907982 0.0076021017 0.0026057626 0.014960087 0.00019007128 0.0007249014
-0.0037470635 0.027494252 0.004369724 -0.00079210644 0.015177808 0.003244326 0.002587812 0.014903644
-0.03088679 0.027340172 0.015995016 -0.004536367 -0.021567088 0.015166904 0.011409626 -0.015116642
-0.002236267 -0.02581707 -0.019694356 0.00896226 0.008206575 0.012078217 -0.011101856 -0.017831145
-0.021115601 -0.0036353834 -0.009710784 -0.0055004545 -0.0027571514 -0.008894835 -0.0015514633 -0.00022707022

network_body._body_endoder.seq_layers.0.bias f4 [256]
00000000: 0000 0000 0000 0000 0000 0000 0000 0000
00000010: 0000 0000 0000 0000 0000 0000 0000 0000
00000020: 0000 0000 0000 0000 0000 0000 0000 0000
00000030: 0000 0000 0000 0000 0000 0000 0000 0000
00000040: 0000 0000 0000 0000 0000 0000 0000 0000
00000050: 0000 0000 0000 0000 0000 0000 0000 0000
00000060: 0000 0000 0000 0000 0000 0000 0000 0000
00000070: 0000 0000 0000 0000 0000 0000 0000 0000
00000080: 0000 0000 0000 0000 0000 0000 0000 0000
00000090: 0000 0000 0000 0000 0000 0000 0000 0000
000000a0: 0000 0000 0000 0000 0000 0000 0000 0000
000000b0: 0000 0000 0000 0000 0000 0000 0000 0000
000000c0: 0000 0000 0000 0000 0000 0000 0000 0000
000000d0: 0000 0000 0000 0000 0000 0000 0000 0000
000000e0: 0000 0000 0000 0000 0000 0000 0000 0000
000000f0: 0000 0000 0000 0000 0000 0000 0000 0000
00000100: 0000 0000 0000 0000 0000 0000 0000 0000
00000110: 0000 0000 0000 0000 0000 0000 0000 0000
00000120: 0000 0000 0000 0000 0000 0000 0000 0000
00000130: 0000 0000 0000 0000 0000 0000 0000 0000
00000140: 0000 0000 0000 0000 0000 0000 0000 0000
00000150: 0000 0000 0000 0000 0000 0000 0000 0000
00000160: 0000 0000 0000 0000 0000 0000 0000 0000
00000170: 0000 0000 0000 0000 0000 0000 0000 0000
00000180: 0000 0000 0000 0000 0000 0000 0000 0000
00000190: 0000 0000 0000 0000 0000 0000 0000 0000
000001a0: 0000 0000 0000 0000 0000 0000 0000 0000
000001b0: 0000 0000 0000 0000 0000 0000 0000 0000
000001c0: 0000 0000 0000 0000 0000 0000 0000 0000
000001d0: 0000 0000 0000 0000 0000 0000 0000 0000
000001e0: 0000 0000 0000 0000 0000 0000 0000 0000
000001f0: 0000 0000 0000 0000 0000 0000 0000 0000
00000200: 0000 0000 0000 0000 0000 0000 0000 0000
00000210: 0000 0000 0000 0000 0000 0000 0000 0000
00000220: 0000 0000 0000 0000 0000 0000 0000 0000
00000230: 0000 0000 0000 0000 0000 0000 0000 0000
00000240: 0000 0000 0000 0000 0000 0000 0000 0000
00000250: 0000 0000 0000 0000 0000 0000 0000 0000
00000260: 0000 0000 0000 0000 0000 0000 0000 0000
00000270: 0000 0000 0000 0000 0000 0000 0000 0000
00000280: 0000 0000 0000 0000 0000 0000 0000 0000
00000290: 0000 0000 0000 0000 0000 0000 0000 0000
000002a0: 0000 0000 0000 0000 0000 0000 0000 0000
000002b0: 0000 0000 0000 0000 0000 0000 0000 0000
000002c0: 0000 0000 0000 0000 0000 0000 0000 0000
000002d0: 0000 0000 0000 0000 0000 0000 0000 0000
000002e0: 0000 0000 0000 0000 0000 0000 0000 0000
000002f0: 0000 0000 0000 0000 0000 0000 0000 0000
00000300: 0000 0000 0000 0000 0000 0000 0000 0000
00000310: 0000 0000 0000 0000 0000 0000 0000 0000
00000320: 0000 0000 0000 0000 0000 0000 0000 0000
00000330: 0000 0000 0000 0000 0000 0000 0000 0000
00000340: 0000 0000 0000 0000 0000 0000 0000 0000
00000350: 0000 0000 0000 0000 0000 0000 0000 0000
00000360: 0000 0000 0000 0000 0000 0000 0000 0000
00000370: 0000 0000 0000 0000 0000 0000 0000 0000
00000380: 0000 0000 0000 0000 0000 0000 0000 0000
00000390: 0000 0000 0000 0000 0000 0000 0000 0000
000003a0: 0000 0000 0000 0000 0000 0000 0000 0000
000003b0: 0000 0000 0000 0000 0000 0000 0000 0000
000003c0: 0000 0000 0000 0000 0000 0000 0000 0000
000003d0: 0000 0000 0000 0000 0000 0000 0000 0000
000003e0: 0000 0000 0000 0000 0000 0000 0000 0000
000003f0: 0000 0000 0000 0000 0000 0000 0000 0000
0.0 0.0 0.0 0.0 0.0 0.0 0.0 0.0
0.0 0.0 0.0 0.0 0.0 0.0 0.0 0.0
0.0 0.0 0.0 0.0 0.0 0.0 0.0 0.0
0.0 0.0 0.0 0.0 0.0 0.0 0.0 0.0
0.0 0.0 0.0 0.0 0.0 0.0 0.0 0.0
0.0 0.0 0.0 0.0 0.0 0.0 0.0 0.0
0.0 0.0 0.0 0.0 0.0 0.0 0.0 0.0
0.0 0.0 0.0 0.0 0.0 0.0 0.0 0.0
0.0 0.0 0.0 0.0 0.0 0.0 0.0 0.0
0.0 0.0 0.0 0.0 0.0 0.0 0.0 0.0
0.0 0.0 0.0 0.0 0.0 0.0 0.0 0.0
0.0 0.0 0.0 0.0 0.0 0.0 0.0 0.0
0.0 0.0 0.0 0.0 0.0 0.0 0.0 0.0
0.0 0.0 0.0 0.0 0.0 0.0 0.0 0.0
0.0 0.0 0.0 0.0 0.0 0.0 0.0 0.0
0.0 0.0 0.0 0.0 0.0 0.0 0.0 0.0
0.0 0.0 0.0 0.0 0.0 0.0 0.0 0.0
0.0 0.0 0.0 0.0 0.0 0.0 0.0 0.0
0.0 0.0 0.0 0.0 0.0 0.0 0.0 0.0
0.0 0.0 0.0 0.0 0.0 0.0 0.0 0.0
0.0 0.0 0.0 0.0 0.0 0.0 0.0 0.0
0.0 0.0 0.0 0.0 0.0 0.0 0.0 0.0
0.0 0.0 0.0 0.0 0.0 0.0 0.0 0.0
0.0 0.0 0.0 0.0 0.0 0.0 0.0 0.0
0.0 0.0 0.0 0.0 0.0 0.0 0.0 0.0
0.0 0.0 0.0 0.0 0.0 0.0 0.0 0.0
0.0 0.0 0.0 0.0 0.0 0.0 0.0 0.0
0.0 0.0 0.0 0.0 0.0 0.0 0.0 0.0
0.0 0.0 0.0 0.0 0.0 0.0 0.0 0.0
0.0 0.0 0.0 0.0 0.0 0.0 0.0 0.0
0.0 0.0 0.0 0.0 0.0 0.0 0.0 0.0
0.0 0.0 0.0 0.0 0.0 0.0 0.0 0.0

network_body._body_endoder.seq_layers.0.weight f4 [256, 55]
00000000: 9ab7 243e 4ca2 a7bd 7228 0b3e 1cfd ac3d
00000010: 4373 babd 5a73 15bd e7fb 93bd 1b38 d03d
00000020: 6787 e1bd 9a85 383e 7109 9b3d 9092 8cbd
00000030: 7715 21bd f61c e1ba 5059 96bd bcd2 87bd
00000040: 9f71 713c 0a5f 42bd 47ac fc3c 8462 11be
00000050: b866 563d b617 13be 87d1 a73d 4828 2abe
00000060: f8f6 46bd 9b71 583c 5099 323d 5e19 89be
00000070: f6f7 87bd e98e af3c eb50 46bd c8ae 233d
00000080: d897 8b3c a791 4eba 47a7 8f3d 41a8 073e
00000090: 7cca 4cbe bd08 0a3e cad4 19be 4f0a 2fbe
000000a0: d770 c3bd 0165 dd3c 3041 d13d 644b a83d
000000b0: f7a5 053e 86ac 8fbe 7212 53be 3f2f 1d3d
000000c0: 9354 18be 5eb2 1cbe 93c8 cc3d 4d73 083e
000000d0: 81dd 53bd 3b90 37bc 0f4d 83be 9372 c23d
000000e0: 4adc 1ebb 6c07 2c3e 5daa e4bd 5114 13bd
000000f0: 601e 3e3e 11ee 293d 7aa0 6a3c bf36 b13d
00000100: b1c1 3f3e 0ba7 ab3d 8475 903e fc83 62bb
00000110: 9469 233e bfb1 013e 5c92 9cbd 36e1 9fbb
00000120: f037 b0bd 6341 0b3e 924a 92bc 3b79 603b
00000130: 492e 123e b088 673d ec69 49bc 7db1 0fbe
00000140: 5a81 1a3e 1917 0c3e d130 24bb 030a 943a
00000150: 3d84 7b3d 6bdc 31bd a8f6 28bd f5ff 60bb
00000160: eed4 8bbe 7aa7 943d fe78 a03d 95f8 04bd
00000170: fd8a 1f3e 1931 13ba 699c 7a3d 625a 313e
00000180: 0f03 00be 0ad5 31bd 284a 66bd d0fd ae3e
00000190: 80e2 28bd 2ba6 45bd 3144 c03d 8fe3 ccbd
000001a0: ac29 813d 4d0d f43c e92d 5c3e 1a2a 103d
000001b0: 290e 62bd b25e 3f3e cdb2 123e c188 033e
000001c0: 0e75 ab3d 1001 863d 46c3 85bc 67fb 93bd
000001d0: 5cc7 66bd 0a46 9b3e 3b84 d5bd 9389 89bd
000001e0: 2c0f 9cbd 38ab c03d c665 55bd 3ce6 10be
000001f0: eed2 a53d 7c7e babc a1ce 133e e034 42be
00000200: e50a e2bc d29d d43d f69d 543d c7e1 35be
00000210: 5620 9ebc 08d6 45bc eab9 3b3d 8ca9 923d
00000220: ac52 563c 6ac9 1bbe bba4 643c 729b dd3b
00000230: c2b6 7c3e 9caa c33d 2237 51bd d04c 5a3e
00000240: c3f2 713e 992b 863c 826b a4bd 9043 243c
00000250: 5404 0ebe 3f30 95bd 7348 483e cfa2 6c3e
00000260: 6ab3 ebba 60e8 4dbd a041 033e f1f8 ad3c
00000270: 49d4 053e 423d 8abe f347 97bc b3ef 0f3e
00000280: 2faf 5e3e 4ac3 283e 272b 223d f65a 5bbe
00000290: 74fc babc 3013 4cbe 1b82 15be e7ef 113e
000002a0: 1651 853e bf69 553d 66e4 953e 5d5c 103e
000002b0: 4e13 9abc 2e58 843c 5cfa 42be 29ee 6abe
000002c0: f836 833e a567 383d 53d2 cabc 4224 c8bd
000002d0: a6b6 403d 9f9b 5c3e 7fc0 97be 5820 88bd
000002e0: 150f fb3d 7c90 2c3d 6984 453b 2824 4cbe
000002f0: f592 903d 212b 54be 2f67 15be 5646 5cbe
00000300: bff5 813e 9198 ebbc 80bb 61be dd96 74bd
00000310: 37b7 d5bd 529b 043e 36ba 513e d208 82be
00000320: 042f cabd f6af 8b3d 38f0 013e cb76 5abd
00000330: 2144 6b3c a888 8bbb c8a2 c23d aa71 45be
00000340: 585f a53d 1280 a9bd 5559 233e 7a2f 163e
00000350: bdd7 153e 70ec 98bd cfe3 0cbe 98d3 b2bd
00000360: b736 9abe 0832 593e f236 a23d ce57 03be
00000370: 7872 2bbe 3ed7 003d 05e1 19bd 48f6 e13d
00000380: e3f6 143e f705 5a3e 1888 7abe 6a2f 443c
00000390: 35c0 9c3e e271 18be df10 0dbc e2c1 b73d
000003a0: 5be2 073e 199b 2f3e 347e 49be e81d 9abe
000003b0: e2fc 053e 9968 f03d e7af 1e3e 0fc8 403e
000003c0: d7bd 11bd 189c f03c 43ee 9e3d 81bd 6fbe
000003d0: 6b59 923c 4156 e1be 169e ffbc a9cd 963e
000003e0: ef66 833d f31a 5b3d 5dbb 06be 2fb9 8ebe
000003f0: cbcd 7ebc 58bd a03d 7fe2 f0bd 49fb 95be
0.16085663 -0.081852525 0.13589647 0.08446714 -0.09104016 -0.03648696 -0.07225781 0.10166951
-0.11012154 0.18019715 0.0757016 -0.06863892 -0.03932711 -0.0017174769 -0.07341254 -0.06631991
0.014736562 -0.047453918 0.030843867 -0.14197737 0.052344054 -0.14364514 0.08194261 -0.16616929
-0.04857537 0.013210679 0.04360324 -0.26777166 -0.06639092 0.02143045 -0.048417013 0.039961606
0.017040178 -0.000787998 0.070143275 0.13247778 -0.19999117 0.13479896 -0.15022579 -0.17093776
-0.09543007 0.027025701 0.10217512 0.082175046 0.13051592 -0.28061312 -0.20612505 0.038375136
-0.14876013 -0.15302417 0.09999194 0.13325234 -0.051724914 -0.011203821 -0.2564473 0.094945095
-0.002424019 0.16799706 -0.11165307 -0.035908047 0.18566275 0.041486803 0.014320487 0.0865302
0.18726231 0.0838147 0.28214657 -0.0034563532 0.15958244 0.12665461 -0.07645103 -0.004879142
-0.08604419 0.13599162 -0.017857824 0.0034251946 0.14275469 0.05652684 -0.01229332 -0.1403255
0.15088406 0.13680686 -0.002505351 0.0011294488 0.06140541 -0.043423098 -0.041250855 -0.003433225
-0.2731089 0.07258506 0.078355774 -0.03246363 0.15580364 -0.0005614921 0.06118432 0.17319635
-0.12501167 -0.04341606 -0.056223065 0.3417802 -0.041231632 -0.048254173 0.093880065 -0.10004341
0.063067764 0.029791499 0.21501888 0.0351964 -0.055189285 0.18688467 0.1432602 0.12845136
0.08371936 0.065431714 -0.016328465 -0.072256856 -0.056342468 0.30326873 -0.104256116 -0.06715693
-0.07620081 0.094076574 -0.05209901 -0.14150327 0.08096872 -0.02276539 0.14434291 -0.18965483
-0.027593086 0.10381664 0.051908456 -0.17761908 -0.019302528 -0.012074955 0.0458316 0.07161245
0.013081234 -0.15213552 0.01395529 0.0067629153 0.24679092 0.095540255 -0.05107797 0.21318364
0.23627762 0.01637821 -0.08028318 0.010025874 -0.13868839 -0.07284593 0.19558887 0.23108982
-0.0017982547 -0.05027044 0.12818003 0.021236869 0.13069262 -0.2699986 -0.018466925 0.14056282
0.21746515 0.16480747 0.039591935 -0.21421418 -0.022825457 -0.19929194 -0.14600413 0.14251672
0.26038426 0.0521028 0.29275817 0.14097734 -0.018808033 0.016155329 -0.19040817 -0.22942413
0.25627875 0.045020718 -0.024758494 -0.09772541 0.047049187 0.2154374 -0.2963905 -0.06646794
0.12258736 0.04212998 0.0030138737 -0.19935668 0.0705928 -0.20719577 -0.14590143 -0.21511206
0.25382802 -0.028759273 -0.22044182 -0.059714187 -0.10435336 0.12949875 0.2048119 -0.25397354
-0.09872249 0.06820671 0.12689292 -0.053335946 0.014359505 -0.004258234 0.09503704 -0.1928164
0.08074826 -0.082763806 0.15952046 0.14666548 0.14633079 -0.07466972 -0.13758777 -0.087317646
-0.3011987 0.21210492 0.07920636 -0.12826464 -0.16742885 0.03145527 -0.03756811 0.110333025
0.14547305 0.21291338 -0.24465978 0.011974195 0.30615392 -0.14887193 -0.008609979 0.08972527
0.13269942 0.17149009 -0.19677049 -0.30100942 0.13084748 0.117387004 0.15496789 0.18826316
-0.035581436 0.029371306 0.077602886 -0.23412134 0.017864903 -0.4401112 -0.031203311 0.2945378
0.064161174 0.053492498 -0.13157411 -0.2787566 -0.015551995 0.078486145 -0.11761951 -0.29293278

network_body._body_endoder.seq_layers.2.bias f4 [256]
00000000: 0000 0000 0000 0000 0000 0000 0000 0000
00000010: 0000 0000 0000 0000 0000 0000 0000 0000
00000020: 0000 0000 0000 0000 0000 0000 0000 0000
00000030: 0000 0000 0000 0000 0000 0000 0000 0000
00000040: 0000 0000 0000 0000 0000 0000 0000 0000
00000050: 0000 0000 0000 0000 0000 0000 0000 0000
00000060: 0000 0000 0000 0000 0000 0000 0000 0000
00000070: 0000 0000 0000 0000 0000 0000 0000 0000
00000080: 0000 0000 0000 0000 0000 0000 0000 0000
00000090: 0000 0000 0000 0000 0000 0000 0000 0000
000000a0: 0000 0000 0000 0000 0000 0000 0000 0000
000000b0: 0000 0000 0000 0000 0000 0000 0000 0000
000000c0: 0000 0000 0000 0000 0000 0000 0000 0000
000000d0: 0000 0000 0000 0000 0000 0000 0000 0000
000000e0: 0000 0000 0000 0000 0000 0000 0000 0000
000000f0: 0000 0000 0000 0000 0000 0000 0000 0000
00000100: 0000 0000 0000 0000 0000 0000 0000 0000
00000110: 0000 0000 0000 0000 0000 0000 0000 0000
00000120: 0000 0000 0000 0000 0000 0000 0000 0000
00000130: 0000 0000 0000 0000 0000 0000 0000 0000
00000140: 0000 0000 0000 0000 0000 0000 0000 0000
00000150: 0000 0000 0000 0000 0000 0000 0000 0000
00000160: 0000 0000 0000 0000 0000 0000 0000 0000
00000170: 0000 0000 0000 0000 0000 0000 0000 0000
00000180: 0000 0000 0000 0000 0000 0000 0000 0000
00000190: 0000 0000 0000 0000 0000 0000 0000 0000
000001a0: 0000 0000 0000 0000 0000 0000 0000 0000
000001b0: 0000 0000 0000 0000 0000 0000 0000 0000
000001c0: 0000 0000 0000 0000 0000 0000 0000 0000
000001d0: 0000 0000 0000 0000 0000 0000 0000 0000
000001e0: 0000 0000 0000 0000 0000 0000 0000 0000
000001f0: 0000 0000 0000 0000 0000 0000 0000 0000
00000200: 0000 0000 0000 0000 0000 0000 0000 0000
00000210: 0000 0000 0000 0000 0000 0000 0000 0000
00000220: 0000 0000 0000 0000 0000 0000 0000 0000
00000230: 0000 0000 0000 0000 0000 0000 0000 0000
00000240: 0000 0000 0000 0000 0000 0000 0000 0000
00000250: 0000 0000 0000 0000 0000 0000 0000 0000
00000260: 0000 0000 0000 0000 0000 0000 0000 0000
00000270: 0000 0000 0000 0000 0000 0000 0000 0000
00000280: 0000 0000 0000 0000 0000 0000 0000 0000
00000290: 0000 0000 0000 0000 0000 0000 0000 0000
000002a0: 0000 0000 0000 0000 0000 0000 0000 0000
000002b0: 0000 0000 0000 0000 0000 0000 0000 0000
000002c0: 0000 0000 0000 0000 0000 0000 0000 0000
000002d0: 0000 0000 0000 0000 0000 0000 0000 0000
000002e0: 0000 0000 0000 0000 0000 0000 0000 0000
000002f0: 0000 0000 0000 0000 0000 0000 0000 0000
00000300: 0000 0000 0000 0000 0000 0000 0000 0000
00000310: 0000 0000 0000 0000 0000 0000 0000 0000
00000320: 0000 0000 0000 0000 0000 0000 0000 0000
00000330: 0000 0000 0000 0000 0000 0000 0000 0000
00000340: 0000 0000 0000 0000 0000 0000 0000 0000
00000350: 0000 0000 0000 0000 0000 0000 0000 0000
00000360: 0000 0000 0000 0000 0000 0000 0000 0000
00000370: 0000 0000 0000 0000 0000 0000 0000 0000
00000380: 0000 0000 0000 0000 0000 0000 0000 0000
00000390: 0000 0000 0000 0000 0000 0000 0000 0000
000003a0: 0000 0000 0000 0000 0000 0000 0000 0000
000003b0: 0000 0000 0000 0000 0000 0000 0000 0000
000003c0: 0000 0000 0000 0000 0000 0000 0000 0000
000003d0: 0000 0000 0000 0000 0000 0000 0000 0000
000003e0: 0000 0000 0000 0000 0000 0000 0000 0000
000003f0: 0000 0000 0000 0000 0000 0000 0000 0000
0.0 0.0 0.0 0.0 0.0 0.0 0.0 0.0
0.0 0.0 0.0 0.0 0.0 0.0 0.0 0.0
0.0 0.0 0.0 0.0 0.0 0.0 0.0 0.0
0.0 0.0 0.0 0.0 0.0 0.0 0.0 0.0
0.0 0.0 0.0 0.0 0.0 0.0 0.0 0.0
0.0 0.0 0.0 0.0 0.0 0.0 0.0 0.0
0.0 0.0 0.0 0.0 0.0 0.0 0.0 0.0
0.0 0.0 0.0 0.0 0.0 0.0 0.0 0.0
0.0 0.0 0.0 0.0 0.0 0.0 0.0 0.0
0.0 0.0 0.0 0.0 0.0 0.0 0.0 0.0
0.0 0.0 0.0 0.0 0.0 0.0 0.0 0.0
0.0 0.0 0.0 0.0 0.0 0.0 0.0 0.0
0.0 0.0 0.0 0.0 0.0 0.0 0.0 0.0
0.0 0.0 0.0 0.0 0.0 0.0 0.0 0.0
0.0 0.0 0.0 0.0 0.0 0.0 0.0 0.0
0.0 0.0 0.0 0.0 0.0 0.0 0.0 0.0
0.0 0.0 0.0 0.0 0.0 0.0 0.0 0.0
0.0 0.0 0.0 0.0 0.0 0.0 0.0 0.0
0.0 0.0 0.0 0.0 0.0 0.0 0.0 0.0
0.0 0.0 0.0 0.0 0.0 0.0 0.0 0.0
0.0 0.0 0.0 0.0 0.0 0.0 0.0 0.0
0.0 0.0 0.0 0.0 0.0 0.0 0.0 0.0
0.0 0.0 0.0 0.0 0.0 0.0 0.0 0.0
0.0 0.0 0.0 0.0 0.0 0.0 0.0 0.0
0.0 0.0 0.0 0.0 0.0 0.0 0.0 0.0
0.0 0.0 0.0 0.0 0.0 0.0 0.0 0.0
0.0 0.0 0.0 0.0 0.0 0.0 0.0 0.0
0.0 0.0 0.0 0.0 0.0 0.0 0.0 0.0
0.0 0.0 0.0 0.0 0.0 0.0 0.0 0.0
0.0 0.0 0.0 0.0 0.0 0.0 0.0 0.0
0.0 0.0 0.0 0.0 0.0 0.0 0.0 0.0
0.0 0.0 0.0 0.0 0.0 0.0 0.0 0.0

network_body._body_endoder.seq_layers.2.weight f4 [256, 256]
00000000: 8bc6 c6bb 0681 553c 2d5b 8d3d dcce 3e3d
00000010: 5263 6fbb feb1 2d3d 2755 373d d5c8 adbc
00000020: 90dd 83bd 156c 47bd cec5 77bd 6b12 f0bc
00000030: cd90 12bd 609d 28be 3d3d 07bb fd7b eabd
00000040: 3fd6 cabc 3bd8 4abd 348e c33d b77b 1fbd
00000050: c93a bb3d be5b d5bd 8d6f a6bd 96a2 f63c
00000060: 37b0 5b3d 59c5 943c fa59 c9bd acde f73c
00000070: e5a3 a0bd 9c02 7a3b 3f2a 7dbb c684 a23d
00000080: e476 9a3d e704 1abd 827c 63bd bb6e 1bbd
00000090: c242 80bd 5263 77bd 2798 1f3d 8368 9dbc
000000a0: 065f 8fbd 4aba 19be 9118 f5bb 8bd3 91bd
000000b0: 3e14 20bd e8bd 393d e45e 64bc 6968 fb3d
000000c0: f0ec a4bd df9e 853c 57ed c23c 2114 763c
000000d0: 2624 863d 28e5 2abc ddca 59bd e62a 773c
000000e0: a125 e03d 20ad 9cbd 5244 15be 45f3 9ebc
000000f0: f507 433e 89a0 f4bd d623 a4bd 16bf 263d
00000100: 94b3 7c3d 5222 d53d 9dc7 d7bb 2488 a8bd
00000110: 0db0 bbbd 6ae6 9c3d d671 893d 685b 9cbd
00000120: e1d9 b4bd 6c15 e83b a079 193d 9de1 60bb
00000130: 0362 54bd 84d1 a4ba 5c55 45bc dad2 ab3d
00000140: b728 c93c 4df9 eb3d f61e e0bd 18fd 80bb
00000150: e2de 003e 296a 27bc 1ba7 abbb 937f bd38
00000160: 9d68 c2bd 1ee9 243b f08f 883d 9f4c bc3c
00000170: 36af 903c 3df0 e63c 3cf9 0dbd 5ae3 983d
00000180: a473 97bc b9b4 d3bd 827f e9bd bfaa dbbd
00000190: 0341 ed3d 3b43 b03c 3cdb 313c b1c7 313d
000001a0: 57eb 033e 9468 9e3d a9e9 673d d8b0 aebb
000001b0: 20ee 373d bead 04b9 119c 01be 2b3d bf3c
000001c0: 5dfe 60bc f083 83bd 5777 4e3d 2705 af3d
000001d0: faed 9d3d be30 95ba c55b 873d 8c34 e53c
000001e0: 28bf 163d 35c0 f93c 4e73 24bd 2d06 8bbd
000001f0: fcb6 9bbb d68a 3cbd 9f58 55bd 6ee2 f4bc
00000200: ce70 9b3d 19ab 7bbd 3fe6 383d 7ce2 94bd
00000210: 87ad 94bc b887 a4bd 9ddd 98bd 0be5 ee3c
00000220: ab39 27bd 29b4 103e 6158 bb3d 4c62 8a3b
00000230: c372 28bd f969 013d 63b7 95bb d2c5 a73b
00000240: 2232 89bd 855e 5c3c 554a b1bd 402d 62bd
00000250: a2b4 cebc eaa3 ae3c 6530 bbbd 4ff0 45bd
00000260: bccf a73c ab41 5b3d ddcb 26be 5142 54bd
00000270: 59d2 8a3d 36de 36bb a3e8 8e3c a6fe acbd
00000280: 667d 7dbd 718d f0bb 12e5 e03d 2f11 e4bc
00000290: da5c d3bc 1c4a d5bc 0ae6 163d b8d1 e7bb
000002a0: cd7c f33c 7ebf 9bbc 3d3f f43d 2bbd 923b
000002b0: 5785 213a cabe d23b eee3 4e3d 281f 44bd
000002c0: d133 a3bc e79b 793d 581a 2ebc 6feb 01bd
000002d0: ca65 fe3c a237 f03c 2d73 9f3c 39b9 013e
000002e0: 5a25 ef3b 5c93 50bd f37b 2b3d c7e2 9d3d
000002f0: 627d d8bc f93f e03c 3b34 19bd 14a1 9fbc
00000300: 2a24 4fbd 0629 2cbb 8765 dbbd 4032 a73c
00000310: 3317 a9bd 91ff 633c 8503 aebc 5ee3 4d3d
00000320: 9e5d cabd 4cd2 453c 7b87 6d3c 2a5a 5abd
00000330: bfce 36ba 4b3e 723d 8f25 943d 9789 16be
00000340: 6551 083d 169e 793c 20c4 d83d 5c55 a5bc
00000350: bd86 373b 9c24 823c 836e 3cbd 952d cebb
00000360: 621b 86bd cf9d b73c 0de9 34bc a066 17bd
00000370: 127a 6cbc aedf 8b3c 0453 b6bc b6b3 2a3d
00000380: 093d 803a c858 96bc 09ad 183d 6fb4 32bd
00000390: d012 2dbc 1808 eb3c f82b 8bbd 58a6 febc
000003a0: 83f8 9f3d 2eb4 be3c c08a 693c b37c ed3c
000003b0: 959f 973c afcf e5bc 2c9d ad3d b4da b53d
000003c0: 25ae 0c3d 2721 e8bc 9883 403d aa81 bdbd
000003d0: 9d08 34bd 6a54 7b3b de0c 15bd be91 ad3d
000003e0: 4582 85bd 59c4 10bd 6d4e c63d 542f cc3d
000003f0: 3935 81bb 9cad 823d 6e4a c4bc 0f07 d93d
-0.0060661486 0.01303125 0.06902156 0.046583995 -0.0036527705 0.042406075 0.044758942 -0.021213928
-0.06438744 -0.04868706 -0.060491376 -0.029305657 -0.035782624 -0.16466284 -0.0020635866 -0.1144943
-0.024760364 -0.04952262 0.095486075 -0.038936343 0.09142072 -0.10417889 -0.081267454 0.030106824
0.05363485 0.018160509 -0.09831615 0.030257545 -0.078437604 0.0038148528 -0.0038629917 0.07935481
0.07542208 -0.03760233 -0.05553866 -0.037947398 -0.06262733 -0.060397454 0.038963463 -0.019214874
-0.07000546 -0.1501247 -0.007479735 -0.07120427 -0.039081804 0.045347124 -0.013938639 0.12275774
-0.08053005 0.016311107 0.023794813 0.015019448 0.065498635 -0.010430612 -0.05317198 0.015085911
0.10944677 -0.076502085 -0.14576843 -0.01940311 0.19046004 -0.11944682 -0.08014648 0.040709578
0.061694697 0.10406937 -0.006585075 -0.08229092 -0.091644384 0.076611355 0.067111656 -0.07634622
-0.088306196 0.007082632 0.037469506 -0.0034314163 -0.051851284 -0.0012574648 -0.012044277 0.08389826
0.024555547 0.1152216 -0.10943405 -0.003936421 0.12585023 -0.010218182 -0.0052384264 9.035985e-05
-0.0949261 0.0025163363 0.06668079 0.022985755 0.017661672 0.028190726 -0.034661517 0.07465239
-0.018487759 -0.103372045 -0.11401273 -0.107259266 0.115846656 0.021516433 0.010855492 0.04340333
0.12882744 0.077347904 0.05661932 -0.00533114 0.044904828 -0.00012653225 -0.12657191 0.023344597
-0.01373252 -0.064216495 0.05040678 0.085459046 0.07711406 -0.0011382324 0.066093005 0.027979158
0.036803395 0.03048716 -0.040149026 -0.06788287 -0.004752038 -0.04603084 -0.05208647 -0.029893126
0.07589875 -0.06144247 0.045141455 -0.07269761 -0.01814915 -0.08033699 -0.074641444 0.02916195
-0.04082648 0.14131226 0.09147716 0.0042231437 -0.04112507 0.031595204 -0.0045689805 0.0051200176
-0.06699015 0.01345027 -0.08656756 -0.055218935 -0.025232617 0.021318395 -0.0914009 -0.04832488
0.020484798 0.053529423 -0.16288705 -0.051821057 0.06778402 -0.0027903444 0.017444914 -0.08447008
-0.061887167 -0.00734108 0.10981192 -0.027840225 -0.025801111 -0.026036315 0.036840476 -0.007074561
0.029722596 -0.019012209 0.11926124 0.004478117 0.0006161532 0.0064314352 0.05051034 -0.047881275
-0.019922169 0.060939696 -0.010626398 -0.031718668 0.031054396 0.029323403 0.0194641 0.12668313
0.007298154 -0.050921783 0.041866254 0.0770927 -0.026426975 0.027374255 -0.037403326 -0.019485988
-0.050571598 -0.002626957 -0.10712724 0.020409703 -0.08256378 0.013915912 -0.021241913 0.050265662
-0.09881137 0.012074064 0.014497633 -0.053308643 -0.00069735566 0.05914144 0.07233726 -0.14700924
0.03328075 0.0152354445 0.10584283 -0.020182304 0.0028003894 0.015886597 -0.04600383 -0.006292055
-0.065481916 0.022414116 -0.011041892 -0.036963105 -0.014433401 0.017074432 -0.022256382 0.041675292
0.0009783815 -0.018352881 0.037274394 -0.043629106 -0.010563567 0.028690383 -0.06795496 -0.031085178
0.07811072 0.023279276 0.014254272 0.028990125 0.018508712 -0.028053133 0.08477244 0.08879605
0.034345765 -0.02833612 0.047000498 -0.09253247 -0.043953527 0.0038349875 -0.036389224 0.08475064
-0.065189876 -0.0353435 0.09682927 0.099699646 -0.003943112 0.063807696 -0.023961272 0.105970494

network_body._body_endoder.seq_layers.4.bias f4 [256]
00000000: 0000 0000 0000 0000 0000 0000 0000 0000
00000010: 0000 0000 0000 0000 0000 0000 0000 0000
00000020: 0000 0000 0000 0000 0000 0000 0000 0000
00000030: 0000 0000 0000 0000 0000 0000 0000 0000
00000040: 0000 0000 0000 0000 0000 0000 0000 0000
00000050: 0000 0000 0000 0000 0000 0000 0000 0000
00000060: 0000 0000 0000 0000 0000 0000 0000 0000
00000070: 0000 0000 0000 0000 0000 0000 0000 0000
00000080: 0000 0000 0000 0000 0000 0000 0000 0000
00000090: 0000 0000 0000 0000 0000 0000 0000 0000
000000a0: 0000 0000 0000 0000 0000 0000 0000 0000
000000b0: 0000 0000 0000 0000 0000 0000 0000 0000
000000c0: 0000 0000 0000 0000 0000 0000 0000 0000
000000d0: 0000 0000 0000 0000 0000 0000 0000 0000
000000e0: 0000 0000 0000 0000 0000 0000 0000 0000
000000f0: 0000 0000 0000 0000 0000 0000 0000 0000
00000100: 0000 0000 0000 0000 0000 0000 0000 0000
00000110: 0000 0000 0000 0000 0000 0000 0000 0000
00000120: 0000 0000 0000 0000 0000 0000 0000 0000
00000130: 0000 0000 0000 0000 0000 0000 0000 0000
00000140: 0000 0000 0000 0000 0000 0000 0000 0000
00000150: 0000 0000 0000 0000 0000 0000 0000 0000
00000160: 0000 0000 0000 0000 0000 0000 0000 0000
00000170: 0000 0000 0000 0000 0000 0000 0000 0000
00000180: 0000 0000 0000 0000 0000 0000 0000 0000
00000190: 0000 0000 0000 0000 0000 0000 0000 0000
000001a0: 0000 0000 0000 0000 0000 0000 0000 0000
000001b0: 0000 0000 0000 0000 0000 0000 0000 0000
000001c0: 0000 0000 0000 0000 0000 0000 0000 0000
000001d0: 0000 0000 0000 0000 0000 0000 0000 0000
000001e0: 0000 0000 0000 0000 0000 0000 0000 0000
000001f0: 0000 0000 0000 0000 0000 0000 0000 0000
00000200: 0000 0000 0000 0000 0000 0000 0000 0000
00000210: 0000 0000 0000 0000 0000 0000 0000 0000
00000220: 0000 0000 0000 0000 0000 0000 0000 0000
00000230: 0000 0000 0000 0000 0000 0000 0000 0000
00000240: 0000 0000 0000 0000 0000 0000 0000 0000
00000250: 0000 0000 0000 0000 0000 0000 0000 0000
00000260: 0000 0000 0000 0000 0000 0000 0000 0000
00000270: 0000 0000 0000 0000 0000 0000 0000 0000
00000280: 0000 0000 0000 0000 0000 0000 0000 0000
00000290: 0000 0000 0000 0000 0000 0000 0000 0000
000002a0: 0000 0000 0000 0000 0000 0000 0000 0000
000002b0: 0000 0000 0000 0000 0000 0000 0000 0000
000002c0: 0000 0000 0000 0000 0000 0000 0000 0000
000002d0: 0000 0000 0000 0000 0000 0000 0000 0000
000002e0: 0000 0000 0000 0000 0000 0000 0000 0000
000002f0: 0000 0000 0000 0000 0000 0000 0000 0000
00000300: 0000 0000 0000 0000 0000 0000 0000 0000
00000310: 0000 0000 0000 0000 0000 0000 0000 0000
00000320: 0000 0000 0000 0000 0000 0000 0000 0000
00000330: 0000 0000 0000 0000 0000 0000 0000 0000
00000340: 0000 0000 0000 0000 0000 0000 0000 0000
00000350: 0000 0000 0000 0000 0000 0000 0000 0000
00000360: 0000 0000 0000 0000 0000 0000 0000 0000
00000370: 0000 0000 0000 0000 0000 0000 0000 0000
00000380: 0000 0000 0000 0000 0000 0000 0000 0000
00000390: 0000 0000 0000 0000 0000 0000 0000 0000
000003a0: 0000 0000 0000 0000 0000 0000 0000 0000
000003b0: 0000 0000 0000 0000 0000 0000 0000 0000
000003c0: 0000 0000 0000 0000 0000 0000 0000 0000
000003d0: 0000 0000 0000 0000 0000 0000 0000 0000
000003e0: 0000 0000 0000 0000 0000 0000 0000 0000
000003f0: 0000 0000 0000 0000 0000 0000 0000 0000
0.0 0.0 0.0 0.0 0.0 0.0 0.0 0.0
0.0 0.0 0.0 0.0 0.0 0.0 0.0 0.0
0.0 0.0 0.0 0.0 0.0 0.0 0.0 0.0
0.0 0.0 0.0 0.0 0.0 0.0 0.0 0.0
0.0 0.0 0.0 0.0 0.0 0.0 0.0 0.0
0.0 0.0 0.0 0.0 0.0 0.0 0.0 0.0
0.0 0.0 0.0 0.0 0.0 0.0 0.0 0.0
0.0 0.0 0.0 0.0 0.0 0.0 0.0 0.0
0.0 0.0 0.0 0.0 0.0 0.0 0.0 0.0
0.0 0.0 0.0 0.0 0.0 0.0 0.0 0.0
0.0 0.0 0.0 0.0 0.0 0.0 0.0 0.0
0.0 0.0 0.0 0.0 0.0 0.0 0.0 0.0
0.0 0.0 0.0 0.0 0.0 0.0 0.0 0.0
0.0 0.0 0.0 0.0 0.0 0.0 0.0 0.0
0.0 0.0 0.0 0.0 0.0 0.0 0.0 0.0
0.0 0.0 0.0 0.0 0.0 0.0 0.0 0.0
0.0 0.0 0.0 0.0 0.0 0.0 0.0 0.0
0.0 0.0 0.0 0.0 0.0 0.0 0.0 0.0
0.0 0.0 0.0 0.0 0.0 0.0 0.0 0.0
0.0 0.0 0.0 0.0 0.0 0.0 0.0 0.0
0.0 0.0 0.0 0.0 0.0 0.0 0.0 0.0
0.0 0.0 0.0 0.0 0.0 0.0 0.0 0.0
0.0 0.0 0.0 0.0 0.0 0.0 0.0 0.0
0.0 0.0 0.0 0.0 0.0 0.0 0.0 0.0
0.0 0.0 0.0 0.0 0.0 0.0 0.0 0.0
0.0 0.0 0.0 0.0 0.0 0.0 0.0 0.0
0.0 0.0 0.0 0.0 0.0 0.0 0.0 0.0
0.0 0.0 0.0 0.0 0.0 0.0 0.0 0.0
0.0 0.0 0.0 0.0 0.0 0.0 0.0 0.0
0.0 0.0 0.0 0.0 0.0 0.0 0.0 0.0
0.0 0.0 0.0 0.0 0.0 0.0 0.0 0.0
0.0 0.0 0.0 0.0 0.0 0.0 0.0 0.0

network_body._body_endoder.seq_layers.4.weight f4 [256, 256]
00000000: cea2 72bd 4555 d53d e8a6 9e3d ddc3 633d
00000010: b623 e6bd 72fc cfbd 085e eebc 649d 5cbc
00000020: 68ea 223d 3594 1bbb 0548 8c3d 158c 7abd
00000030: 4814 9b3d 133f 78bc bc8c 303d a625 4ebd
00000040: 315f 4b3c 758c 7d3d 810d 673d 3233 88bc
00000050: af38 19bd 0a44 a63c 914d 353c b4fb e23c
00000060: 8f53 d83c eba8 7ebd 4c93 bd3c 72d2 c23a
00000070: 8ca2 aa3c 6001 35bd effa 0c3d 48f9 f63c
00000080: 1335 05be f936 8f3d 0e66 f23c a63f 1e3d
00000090: f4d3 a4bc 60c9 d2bd 67a3 073c 690d fdbd
000000a0: 380f 863c 496a f9bc 901b 82bd 10e2 be3d
000000b0: be0a 60bd ebae b73c a9f5 c5bc 98a3 593d
000000c0: 5bc3 143b c3a8 25be c06c 69bd 10a1 343d
000000d0: c4c1 8abd 580f e43c a17c a0bd 0903 15bb
000000e0: e92c 4abe 2623 8f3d 7102 ca3b 9b8e 333d
000000f0: e9c8 ebbc a9bb 0a3d 0415 35bc 6335 3dbd
00000100: 568a 823d 1d4b 983d 1e1f df3c dc7b 313d
00000110: 101e 943d 2b7c 523d d050 05bd 6dd8 7d3d
00000120: 8fde 5fbd ed47 6bbd 2d59 dfbc 0d35 88bb
00000130: 6ec5 2bbd 8a54 a6bd ec7b 263e 3c8d d1bc
00000140: 88fb 523d bd25 70bd f377 853a ee30 bc3d
00000150: 571b dcbc cc8c 9d3c fb8c b4bd 06da 7d3d
00000160: bfe5 123e 2f56 193d 2693 7c3d b914 0d3d
00000170: 8e52 58bd 225b a3bd f76c 113c 46be debc
00000180: c39d 7ebd 1513 edbc 950e a1bb 05bc 1fbd
00000190: 213f 7b3d 3dda ecbc 4515 98bd b48c a1bb
000001a0: 2e7b 6b39 e19f de3c d3d4 023e 9712 833c
000001b0: c1b2 2a3d 6b26 31bb f5f7 e1bd 6e82 a83d
000001c0: e66e d9bc a629 64bd dd84 e5bb 42b6 e43b
000001d0: 0e5f cabc 8148 623d 1a54 ffbd 7b74 453d
000001e0: 8c07 3cbb eecc 043e 946a 90bd 9015 1e3d
000001f0: 8c51 b23c c5d3 83bd ed8f 9d3c 1709 7c3d
00000200: 2633 543d 84e3 d13c 39a5 a6bb da6a 3ebd
00000210: c1bd e2bc 07e9 aa3d a145 8dbd 00ba adbd
00000220: ea6b d03d 3ba2 c03b b971 003d e969 263c
00000230: c88f c6bc 28fd a33c 89c4 713c a31b cc3d
00000240: fa0f 01be 2a67 ad3c 61fe 523d 1492 1fbe
00000250: 227f 2a3a d5aa 6c3b cbc7 d7bc 16ef 54bb
00000260: 4daa 4e3d d26c 213d c7a4 913c 02d1 873d
00000270: 2a4b 5dbd 3b5c 2dbd 2b69 213d 8e2c babd
00000280: 85ab d53d a874 8cbd 3c7d 023e 95c5 873c
00000290: 69ce c2bd 8d11 86bd 917b 213d 1059 82bd
000002a0: ad34 a8bd b26e 1cbd 69ff 6bbd ef5c b33d
000002b0: 46bb fabc 153c b5bd 93f8 003d bb72 8d3d
000002c0: 0bc5 b53c 9548 88bd 463b e4bc 74c0 283c
000002d0: 6a42 d7bc 07b6 25bc 4a83 0fbd 97d3 d13d
000002e0: d6ad 60bd a5aa 6ebd 7ad6 3f3d 636d ab3a
000002f0: d16e 533d 1910 18bd 9739 c2bd 1009 863c
00000300: 5a2c 61bb 4f1a 36bd e015 893c 446b f0bd
00000310: a590 743d bfcb 82bd 1d0a 20bc cd1b 07bc
00000320: e59b 0bbc 8147 9dbc 2548 343d 249f 97bc
00000330: dd39 02bd 32de 85bc 181a 623d 848e 85bd
00000340: 607a bf3d 8a1f f53d 7810 8e39 13c7 fdbd
00000350: a829 5f3d d88a 833d 34f8 d2bb fe19 293d
00000360: 0fb3 c4bd 274d d9bc a880 d33c 7082 5ebd
00000370: fa5f 73bb 7822 c7bb b150 c23d 52bc 3ebe
00000380: e6f3 9b3d a5ad d33c 13fa bfbc fe50 523d
00000390: 60e3 033c 2dab 93bd bf64 9abd c65a a33b
000003a0: 624d 933d 68dc 9bbd 8185 313d d9c0 a839
000003b0: db1b abbd 6722 1f3c 6ada 8c3c cf8e c93d
000003c0: 88de e53b 8ecd 003d 69f3 0e3d 9139 77bd
000003d0: 6aac a33d d212 933d f72f 95bb d931 833d
000003e0: b7d7 803d 42c5 19bc fc65 8abd 8faf 523d
000003f0: 4d0e 453d feff 5abd f104 143b 839d ad3d
-0.059237294 0.104166545 0.077466786 0.05560671 -0.1123728 -0.10155572 -0.029097572 -0.013465259
0.03977433 -0.0023739461 0.06849674 -0.06116875 0.07572228 -0.015151757 0.043102965 -0.050328873
0.012412832 0.06190153 0.056409363 -0.016625974 -0.037407573 0.020296115 0.011065857 0.027707912
0.026407031 -0.06217281 0.023141526 0.0014863743 0.020829462 -0.044190764 0.034418996 0.030148163
-0.13008527 0.06992907 0.02958968 0.03863492 -0.020120598 -0.102923155 0.008278704 -0.123560734
0.016364679 -0.030446189 -0.063529134 0.09320462 -0.054697745 0.022422275 -0.024164991 0.05313453
0.0022699449 -0.16177659 -0.056988478 0.044098914 -0.06775239 0.027839348 -0.07836271 -0.0022737405
-0.19743694 0.06989126 0.006164842 0.04383717 -0.028782325 0.033870373 -0.011052374 -0.04619349
0.06374042 0.07436202 0.027236518 0.043331012 0.072322965 0.051387947 -0.032547772 0.061973978
-0.054655608 -0.05744164 -0.027264202 -0.004156715 -0.04193633 -0.08121593 0.1625821 -0.025580041
0.05150941 -0.05862974 0.0010182842 0.0918902 -0.026868505 0.019232176 -0.088159524 0.0619755
0.14345454 0.037435707 0.06166377 0.03444359 -0.052813105 -0.079763666 0.008876077 -0.027190339
-0.062162172 -0.028939763 -0.0049150684 -0.03899767 0.0613395 -0.028912658 -0.07425932 -0.004930103
0.00022457234 0.027175846 0.12776498 0.016000075 0.04167438 -0.0027030956 -0.11033622 0.082280025
-0.026542138 -0.05570378 -0.007004364 0.0069797346 -0.024703529 0.055244926 -0.12467213 0.048206788
-0.0028691022 0.129688 -0.07051578 0.038594782 0.0217674 -0.06436876 0.019233668 0.061532106
0.05180659 0.025621183 -0.005085614 -0.04648862 -0.027678372 0.08345228 -0.06898046 -0.08482742
0.10176833 0.0058787144 0.031358454 0.010157087 -0.024238482 0.020018175 0.01475633 0.09966209
-0.12603751 0.021167357 0.051512126 -0.15583068 0.00065039296 0.0036112566 -0.026340386 -0.003249114
0.05045538 0.03941042 0.017778767 0.06631662 -0.05402676 -0.042324286 0.039406937 -0.090905294
0.104331054 -0.06858188 0.12743086 0.016573707 -0.09512026 -0.06546316 0.039424483 -0.063646436
-0.08213172 -0.038191505 -0.057616625 0.0875796 -0.030606877 -0.0884935 0.03148706 0.06906649
0.022188684 -0.06654469 -0.027860295 0.010299791 -0.026276786 -0.0101141995 -0.035037316 0.10245436
-0.054853283 -0.058268208 0.0468354 0.0013078864 0.051619355 -0.037124727 -0.09483641 0.016361743
-0.003435871 -0.044458684 0.016734064 -0.11739209 0.059708256 -0.06386518 -0.009768036 -0.008246374
-0.008521055 -0.019199135 0.044014115 -0.018508501 -0.031793464 -0.016341303 0.055200666 -0.06521323
0.09349513 0.11968906 0.0002709662 -0.12391486 0.054483086 0.06422967 -0.0064382795 0.041284554
-0.09604465 -0.026526047 0.025818184 -0.054323614 -0.0037136064 -0.006077107 0.09488047 -0.18626526
0.07614879 0.025839636 -0.023434674 0.05134677 0.008049816 -0.072103836 -0.07538747 0.0049851863
0.07192494 -0.076103985 0.04334021 0.0003218714 -0.083549224 0.009712792 0.017193992 0.09841692
0.007015053 0.031446032 0.034900103 -0.060357634 0.0799187 0.07181324 -0.004552837 0.06405992
0.06291144 -0.009385409 -0.06757733 0.051436957 0.04810934 -0.05346679 0.0022585953 0.084773086
